do_tp_federated_round_6.pt (torch, 156693 bytes, 26 tensors)

linear_enc.weight f4 [64, 2]
0	0x3f4f5d08	0.8100133
1	0x3f31688f	0.6930017
2	0x3eb5ba08	0.35493493
3	0x3dadd23e	0.08487366
4	0x3f43bb7e	0.76457965
5	0x3ed7f4e5	0.42179027
6	0x3f45db34	0.772876
7	0x3f471328	0.77763605
8	0xbf080b76	-0.5314249
9	0x3f2f0216	0.6836256
10	0x3e633609	0.22188582
11	0xbf55c671	-0.8350592
12	0x3eed267b	0.4631842
13	0xbed8772a	-0.42278415
14	0x3e9ad47f	0.30240247
15	0xbe7da558	-0.24770105
16	0xbedb2c18	-0.42807078
17	0xbd94891d	-0.07252715
18	0x3c4441ab	0.011978547
19	0x3eeb1791	0.45916417
20	0x3f10b394	0.56524014
21	0x3f73bec8	0.95212984
22	0x3ec02c57	0.3753383
23	0xbc12612b	-0.008934299
24	0x3dff7011	0.12472547
25	0x3d7ab62c	0.06120889
26	0xbd5be6f8	-0.053687066
27	0x3f4a87b8	0.7911334
28	0x3f339420	0.70147896
29	0xbef9e83c	-0.48809993
30	0xbf14e584	-0.58162713
31	0x3f0f45be	0.55965793
32	0x3c9038ea	0.017605264
33	0xbee614f5	-0.44937864
34	0x3dbaf5bb	0.091289006
35	0xbe0cf9aa	-0.13767114
36	0xbf02206d	-0.5083073
37	0x3ecb1622	0.39665323
38	0xbf2de261	-0.6792355
39	0xbf15e3a3	-0.5855047
40	0xbe65886f	-0.22415327
41	0x3f4f67d0	0.8101778
42	0xbe74d129	-0.23907913
43	0x3f00ae64	0.502661
44	0xbe9e0d82	-0.3086968
45	0x3f0a67a5	0.540644
46	0x3f42cac6	0.7609066
47	0x3e028421	0.12745716
48	0x3f2900e0	0.6601696
49	0xbf4a864c	-0.7911117
50	0xbe248ec2	-0.16070083
51	0xbdfdac98	-0.12386435
52	0x3e41842f	0.1889808
53	0xbf2cbf7f	-0.674797
54	0x3f241192	0.6408931
55	0x3e99dfd9	0.30053595
56	0x3e888772	0.26665837
57	0x3e9fe38f	0.312283
58	0xbf391d4f	-0.72310346
59	0x3de23410	0.110450864
60	0xbd29ab85	-0.04142334
61	0xbecd007a	-0.40039426
62	0xbe934248	-0.28761506
63	0x3eeb2025	0.45922962
64	0xbf11275c	-0.5670068
65	0x3e6fdc5a	0.23423901
66	0x3e9a163c	0.30095088
67	0xbf40d292	-0.75321305
68	0xbf3e03e4	-0.74224687
69	0xbf09be0f	-0.5380563
70	0xbee3438f	-0.4438748
71	0x3d830f91	0.063994534
72	0xbecfe650	-0.40605402
73	0xbea1e8d1	-0.31622937
74	0x3ef00352	0.46877533
75	0x3e89c146	0.26905268
76	0x3ec0b64a	0.37639076
77	0xbe76f6fc	-0.24117655
78	0xbefdfad4	-0.4960543
79	0xbf2f6012	-0.68505967
80	0xbe298e40	-0.1655817
81	0x3f06cd3e	0.52656925
82	0x3f4efa3a	0.80850565
83	0xbeddc172	-0.4331165
84	0x3debfde6	0.11523037
85	0x3f74fbef	0.9569692
86	0xbf2be57a	-0.6714703
87	0xbe90928d	-0.2823681
88	0xbeae00bd	-0.33984938
89	0x3eb07b36	0.34469002
90	0x3f3d1f1b	0.7387559
91	0x3dcbae36	0.099453375
92	0xbde40d68	-0.111353695
93	0xbf0eac61	-0.5573178
94	0xbe926afb	-0.28597245
95	0x3e7b6aae	0.24552414
96	0x3e99a42e	0.30008072
97	0x3db5e41d	0.088814
98	0x3e9ad8f7	0.30243656
99	0xbe301eab	-0.17199199
100	0x3e018b9e	0.12650916
101	0x3efe1348	0.49624085
102	0x3d8145ec	0.06312165
103	0x3f378ce4	0.7169936
104	0x3e9bb77e	0.3041343
105	0x3e4ed822	0.20199636
106	0xbd9bc192	-0.0760528
107	0xbe17286e	-0.14761516
108	0xbf010313	-0.50395316
109	0xbf1b6cf6	-0.60713136
110	0x3ed6cd2d	0.41953412
111	0xbf263f22	-0.64940083
112	0x3ed25121	0.4107752
113	0x3f17c484	0.59284234
114	0x3ef8f790	0.48626375
115	0x3f2c897a	0.6739727
116	0x3d57cb37	0.052684035
117	0x3f1f940d	0.6233528
118	0xbe184695	-0.14870675
119	0xbf1048ee	-0.5636128
120	0x3e535147	0.20636474
121	0xbf15691e	-0.5836352
122	0x3ee9ab97	0.45638725
123	0xbf29070e	-0.6602639
124	0x3e8e60fa	0.27808362
125	0x3ecfda97	0.40596458
126	0xbf28de1b	-0.65963906
127	0xbeef2e20	-0.46714878

linear_enc.bias f4 [64]
0	0x3e49881c	0.19680828
1	0xbe1ab6e0	-0.15108824
2	0x3eac3b31	0.3363891
3	0x3d4dbeb2	0.05023069
4	0xbee4559e	-0.4459657
5	0xbe2c7da7	-0.16844808
6	0xbe1a572c	-0.15072316
7	0xbf0ee357	-0.55815643
8	0xbf115cca	-0.5678221
9	0xbf1300d3	-0.5742313
10	0xbf208cc5	-0.627148
11	0xbef20044	-0.47265828
12	0x3dc5cf78	0.09658712
13	0x3f28183b	0.6566197
14	0x3f2e1d3b	0.6801335
15	0x3dcea76c	0.10090527
16	0x3dbb696a	0.091509655
17	0x3e88bf1b	0.26708302
18	0xbe9199d3	-0.2843767
19	0xbed9f3e6	-0.42568892
20	0xbe917dd2	-0.28416306
21	0xbea64245	-0.32472435
22	0x3e8aea20	0.27131748
23	0xbe837d57	-0.25681564
24	0x3ee8e43d	0.45486632
25	0xbd8d7974	-0.06907931
26	0x3f278f48	0.65453005
27	0x3f083a99	0.5321441
28	0x3d1bd4ec	0.038044855
29	0x3ee16a4c	0.4402641
30	0xbf1c22e2	-0.60990727
31	0x3e17de42	0.14830878
32	0x3e0bdb79	0.13657941
33	0x3d832c72	0.06404962
34	0xbe7246cc	-0.2365982
35	0xbecad3d2	-0.3961473
36	0xbed2499e	-0.4107179
37	0xbe72abf1	-0.23698403
38	0xbe8ac69d	-0.27104655
39	0xbf1952d0	-0.59891987
40	0x3ecfa1ed	0.40553227
41	0x3d55678b	0.0521007
42	0xbd90e9e9	-0.07075865
43	0xbdb3ceb4	-0.0877966
44	0x3f15c8b0	0.5850935
45	0x3ea0efe8	0.31433034
46	0x3e480b9e	0.19535682
47	0x3f23f88b	0.6405112
48	0x3de34754	0.11097589
49	0x3d95ba43	0.07310917
50	0x3db919fd	0.0903816
51	0x3ef58bdc	0.47958267
52	0xbed1a28d	-0.4094433
53	0xbe9a523b	-0.30140862
54	0x3eafed86	0.34360904
55	0xbe93e721	-0.28887275
56	0xbefbbd1c	-0.49167717
57	0xbe6a2248	-0.2286464
58	0x3e9e857d	0.30961218
59	0x3e8fbaa9	0.28072098
60	0xbf1bd277	-0.6086802
61	0xbe08f5ca	-0.13375011
62	0xbe67cea7	-0.22637425
63	0xbe0fbf96	-0.14037928

encoder_lstm.weight_ih_l0 f4 [128, 64]
0	0xbe1bbcc1	-0.15208723
1	0xbe6f5680	-0.23372841
2	0xbe0d341d	-0.13789411
3	0xbe14c8c2	-0.14529708
4	0xbd0ad4ba	-0.033894278
5	0xbe1f7288	-0.15571034
6	0x3ddb425d	0.10706017
7	0xbd291183	-0.041276466
8	0x3e2d3ea4	0.16918427
9	0xbddd5cc9	-0.10808713
10	0xbe4ff69a	-0.20308915
11	0xbdc4c718	-0.096082866
12	0x3d2eea4c	0.04270391
13	0x3d597310	0.053088248
14	0xbe058e72	-0.1304262
15	0xbd84311b	-0.064546786
16	0xba301cb4	-0.0006718144
17	0x3c9985b7	0.018740518
18	0x3e02b978	0.12766063
19	0x3e15e702	0.14638904
20	0x3d6280a8	0.055298477
21	0x3b223742	0.0024752175
22	0x3d12b8a2	0.03582061
23	0x3d94e5ab	0.07270368
24	0x3d182740	0.037146807
25	0xbd59277d	-0.053016175
26	0x3e2c7d0d	0.16844578
27	0x3d996910	0.07490742
28	0xbe37d09a	-0.17950669
29	0xbdfa202d	-0.12213168
30	0x3c9a16a1	0.018809618
31	0x3e09fc61	0.13475181
32	0xbdbf42d4	-0.09338918
33	0x3e00e279	0.12586392
34	0x3e17d284	0.14826399
35	0x3c948063	0.018127626
36	0x3ca15b2c	0.019696794
37	0xbe3ee955	-0.18643697
38	0x3dcf6333	0.101263426
39	0x3d3fcde3	0.04682721
40	0xbdc00e54	-0.09377733
41	0xbd11badc	-0.035578594
42	0xbd3a1739	-0.045432303
43	0x3e0de533	0.13856964
44	0xbd5c7199	-0.053819273
45	0xbd57c1c3	-0.05267502
46	0xbde9570d	-0.11393557
47	0x3dbf4237	0.09338801
48	0x3db7177c	0.08940026
49	0xbe691140	-0.22760487
50	0x3d89ed49	0.06734712
51	0xbe0336f9	-0.12813939
52	0xbe35371c	-0.17696804
53	0x3d7ec9d1	0.062204186
54	0x3e2234f0	0.15840507
55	0x3d38c655	0.04511102
56	0xbbd668da	-0.006543261
57	0xbde99288	-0.11404902
58	0x3e050309	0.12989439
59	0xbdba31df	-0.090915434
60	0x3d5a02fe	0.05322551
61	0xbe42acf4	-0.19011289
62	0xbdc920ed	-0.09820733
63	0x3e953b30	0.2914672
64	0xbca2dd86	-0.019881021
65	0x3c2b0290	0.010437623
66	0x3e7edeab	0.24889629
67	0xbdd5e054	-0.10443178
68	0xbe5da00e	-0.21643087
69	0x3de6e0e4	0.11273363
70	0x3dd9bb38	0.10631412
71	0xbe796007	-0.24353038
72	0xbe5b63df	-0.21424817
73	0xbe996580	-0.2996025
74	0xbe9b2cd1	-0.3030763
75	0xbe0a0826	-0.13479671
76	0x3e1a6eaa	0.15081277
77	0x3ea180d1	0.31543592
78	0x3e9c5d7b	0.3054007
79	0xbd888bfc	-0.06667325
80	0x3ec0a72a	0.37627536
81	0x3ec1ef28	0.37877774
82	0xbdface3a	-0.12246366
83	0xbda360cf	-0.07977449
84	0xbea8f543	-0.3299962
85	0xbea2ef76	-0.3182332
86	0xbc73487c	-0.014848825
87	0xbe692ce8	-0.22771037
88	0x3e9edf5d	0.31029788
89	0xbe0cbf0c	-0.13744754
90	0x3dca696f	0.09883391
91	0x3e528ff1	0.20562722
92	0x3da72949	0.081621714
93	0x3e350332	0.17677
94	0xbe4bb449	-0.19892992
95	0xbce93300	-0.028466702
96	0x3dc87463	0.09787824
97	0x3e1a5f4c	0.15075415
98	0xbdadd9d7	-0.08488815
99	0xbe85e3f5	-0.2615048
100	0xbdf87260	-0.1213119
101	0xbd5599a6	-0.052148484
102	0xbcda4272	-0.026643012
103	0xbd30d128	-0.043168217
104	0xbb7bea30	-0.0038439147
105	0x3e8829aa	0.26594287
106	0xbe495a96	-0.19663462
107	0xbe6d78fb	-0.23190682
108	0x3d308475	0.04309507
109	0x3eb5b903	0.35492715
110	0x3e42bc27	0.19017087
111	0x3e9f933b	0.31167015
112	0x3e4f8cce	0.20268556
113	0x3e19fa86	0.15036973
114	0x3e67c75b	0.22634642
115	0x3d8be64f	0.06831037
116	0xbe21536e	-0.15754482
117	0xbe393e5b	-0.18090193
118	0x3e12236b	0.14271323
119	0xbe046e36	-0.12932667
120	0xbe8b68e8	-0.27228475
121	0xbdb188d6	-0.086686775
122	0xbc177238	-0.0092435405
123	0x3eb325d6	0.34989804
124	0xbdbb2240	-0.09137392
125	0xbdefaa71	-0.11702431
126	0xbeca5ab7	-0.39522335
127	0xbe20455c	-0.15651459
128	0xbdaaf792	-0.083480015
129	0xbe3eda54	-0.18637973
130	0x3c11d15a	0.008900011
131	0xbda65dd0	-0.08123362
132	0xbe5db66a	-0.21651617
133	0x3e434c85	0.19072159
134	0xbd562f25	-0.052291054
135	0xbe81241b	-0.2522286
136	0xbe6fcb5c	-0.23417419
137	0xbb1b9199	-0.0023737906
138	0xbd2f21c6	-0.04275682
139	0xbe4955f3	-0.19661693
140	0x3e7107cd	0.23538132
141	0x3d7456b0	0.059652984
142	0x3e596d2a	0.21233049
143	0xbe7763d2	-0.24159172
144	0x3ea613c1	0.32436946
145	0x3e37a25f	0.17933033
146	0xbeb5648d	-0.35428277
147	0xbca8faad	-0.020627344
148	0xbec5515c	-0.38538635
149	0xbe8cc0eb	-0.27490935
150	0x3e089fdc	0.13342232
151	0xbe5d5dbe	-0.21617791
152	0x3d4c5cc2	0.04989315
153	0xbde4813f	-0.11157464
154	0x3d33391d	0.04375564
155	0x3ea16a74	0.3152653
156	0x3dc2392c	0.09483561
157	0x3d4a2dc3	0.049360048
158	0xbdd40cda	-0.10354014
159	0x3d215f3a	0.039397456
160	0xbddbaa3a	-0.107258275
161	0x3ea0467a	0.3130377
162	0xbda97f5a	-0.082762435
163	0xbd91e02a	-0.07122834
164	0xbe8f93fd	-0.28042594
165	0xbe9a4cf6	-0.30136842
166	0xbe7097bf	-0.23495387
167	0xbdfea5d4	-0.12433973
168	0x3e571ed2	0.21007851
169	0x3e6927e0	0.22769117
170	0xbeb5bd5f	-0.3549604
171	0xbc4c169a	-0.0124565605
172	0x3e7b051d	0.2451367
173	0x3e9275de	0.2860555
174	0x3e1ce504	0.15321738
175	0x3c5bfc4e	0.013426853
176	0x3e536c06	0.20646676
177	0x3d208710	0.039191306
178	0x3e13c5ef	0.14430974
179	0x3e6fdc10	0.23423791
180	0xbe765996	-0.24057612
181	0xbe1118b5	-0.14169581
182	0x3e136108	0.14392483
183	0xbbc0fdd4	-0.0058896337
184	0xbe3b7d97	-0.18309627
185	0xbca0d418	-0.019632384
186	0x3dcf0599	0.101084895
187	0x3db5fe28	0.08886367
188	0xbbde142e	-0.006777308
189	0x3e17a3d3	0.14808588
190	0xbeacfced	-0.33786717
191	0xbca8892d	-0.020573223
192	0xbe198042	-0.14990333
193	0x3c8fbc57	0.017545862
194	0xbd4b0d65	-0.04957332
195	0xbded0f6c	-0.11575207
196	0xbe1dc9f4	-0.1540907
197	0x3bd6772e	0.006544969
198	0xbd20ae57	-0.039228763
199	0xbe1c5bac	-0.15269345
200	0x3e32eef0	0.1747396
201	0xbe37ffaa	-0.17968622
202	0xbda7b896	-0.08189504
203	0x3d71a004	0.058990493
204	0xbcc14cb4	-0.023596145
205	0xbd871e8c	-0.06597623
206	0xbe1eb9be	-0.15500543
207	0x3e2bf498	0.16792524
208	0x382079dc	3.8260463e-05
209	0x3d0d0f41	0.034438375
210	0x3d8c3c83	0.06847479
211	0x3dc4b9d6	0.09605758
212	0xbdac0ce4	-0.08400896
213	0xbd6f2a22	-0.05838979
214	0xbbe48dd8	-0.006974917
215	0xbc3b6785	-0.011438255
216	0xbdc1941e	-0.09452079
217	0x3d587ffd	0.052856434
218	0x3cde2218	0.027115867
219	0xbe1a223b	-0.1505212
220	0xbe3820d5	-0.17981274
221	0xbd01a61f	-0.031652566
222	0xbd966982	-0.07344343
223	0xbe000085	-0.12500198
224	0x3dd24c32	0.10268439
225	0xbda69f48	-0.08135849
226	0x3e54ead7	0.2079271
227	0x3e320344	0.17384058
228	0x3c57b1ae	0.013164921
229	0x3d5d76fa	0.054068543
230	0x3de0cb55	0.109762825
231	0x3daa00c4	0.08300927
232	0x3da97f3f	0.082762234
233	0x3d966c0f	0.07344829
234	0xbe70a157	-0.23499046
235	0xbd32b874	-0.04363294
236	0xbcc9e08c	-0.024643205
237	0xbe14d3c9	-0.14533915
238	0xbe069a96	-0.13144907
239	0x3dec8b9c	0.11550066
240	0xbce36284	-0.027756937
241	0x3e0034ba	0.12520114
242	0xbdebdd25	-0.11516789
243	0x3bf87e3f	0.007583409
244	0xbdeb8f4e	-0.115019426
245	0x3daf3c10	0.08556378
246	0x3be9cd2d	0.0071350546
247	0xbc54da58	-0.01299151
248	0xbe2d1674	-0.16903096
249	0x3cadf87e	0.021236654
250	0xbd82023a	-0.06348081
251	0x3dc9527c	0.09830186
252	0xbd4f68f9	-0.05063722
253	0x3d42b755	0.04753812
254	0x3dba8a18	0.091083705
255	0x3de8ca05	0.11366657

encoder_lstm.weight_hh_l0 f4 [128, 32]
0	0x3dc3d1ce	0.095615014
1	0xbddd4e25	-0.108059205
2	0xbc8e1fb7	-0.017349107
3	0x3cc6954f	0.024241118
4	0xbdff4b78	-0.124655664
5	0xbd8ee883	-0.06977942
6	0x3dc2161f	0.094768755
7	0xbde5effe	-0.112274155
8	0xbddcbbf2	-0.10778035
9	0xbd8990b4	-0.06717053
10	0x3bf1886b	0.0073709986
11	0xbe246b06	-0.16056451
12	0xbcd88c82	-0.026434187
13	0x3cb9f941	0.022701861
14	0x3ca48ddd	0.020087177
15	0xbe63481a	-0.22195473
16	0x3d5655aa	0.05232779
17	0x3d449f25	0.048003335
18	0x3e235978	0.15952098
19	0xbe2f618d	-0.17127056
20	0x3e225540	0.15852833
21	0xbdbcf2a8	-0.092259705
22	0x3d3deeba	0.046370246
23	0xbcc99836	-0.024608713
24	0x3c9f1907	0.019421114
25	0x3de34546	0.11097197
26	0xbe06c18a	-0.13159767
27	0xbd68c33b	-0.05682681
28	0x3de0f966	0.10985069
29	0xbddb74d2	-0.10715641
30	0x3e4521a3	0.19251113
31	0xbe370668	-0.17873538
32	0xbe25daff	-0.16196822
33	0x3e1c9dde	0.15294597
34	0x3e1f3cf6	0.15550599
35	0xbe2b4003	-0.16723637
36	0x3e4c870b	0.1997339
37	0x3dbe6892	0.09297289
38	0x3d3e294d	0.046426106
39	0x3b847c68	0.0040431507
40	0x3e82db52	0.25557953
41	0x3de2cf1a	0.11074658
42	0x3eae3948	0.34028077
43	0x3e512bc0	0.20426846
44	0x3e178050	0.14795041
45	0x3e2f60e0	0.17126799
46	0x3dba5473	0.09098139
47	0x3dbec706	0.093153045
48	0xbebde382	-0.37087637
49	0xbe7b84e0	-0.24562407
50	0x3e92c9d2	0.28669602
51	0xbe5fed06	-0.21867761
52	0x3e3ddff2	0.1854246
53	0x3eca2129	0.39478424
54	0xbebee0dd	-0.37280932
55	0xbd906c54	-0.07051912
56	0x3eae4d88	0.34043527
57	0x3bc6201c	0.006046308
58	0xbdce872a	-0.10084374
59	0x3e294a30	0.16532207
60	0x3d304b43	0.043040525
61	0xbe2a4018	-0.16626012
62	0x3e0e216a	0.13879934
63	0xbdf1c400	-0.11804962
64	0xbe0afaa3	-0.13572173
65	0x3dd7d15e	0.105379805
66	0x3e4894fe	0.19588086
67	0xbd392a1c	-0.045206174
68	0x3e5308dc	0.20608848
69	0x3e5d268e	0.21596739
70	0x3e52a53f	0.20570849
71	0xbdda91e0	-0.10672355
72	0xbd356c50	-0.044292748
73	0xbd143972	-0.036187597
74	0x3e27a24a	0.16370502
75	0x3dc44398	0.09583205
76	0x3de4297e	0.111407265
77	0x3ce5bbdc	0.02804368
78	0x3e1fed86	0.15617952
79	0x3d5dfbf8	0.054195374
80	0xbcf6ad90	-0.030112058
81	0x3decc109	0.11560256
82	0x3e0b73d4	0.13618404
83	0xbdc46458	-0.095894516
84	0x3d0a8507	0.03381827
85	0x3ea0fea0	0.31444263
86	0xbdc2ffa4	-0.09521416
87	0xbd834e3d	-0.06411407
88	0x3ddfdab9	0.1093039
89	0x3cec2ab8	0.028828964
90	0xbe6c4c04	-0.23075873
91	0x3e498325	0.19678934
92	0x3e800622	0.2500468
93	0xbdbb35da	-0.09141131
94	0x3d9cc211	0.07654203
95	0xbe7c081e	-0.24612471
96	0x3e16df9e	0.1473374
97	0xbe2c96d0	-0.16854405
98	0x3e6179ab	0.22019069
99	0xbded1d3e	-0.11577843
100	0xbe600b1a	-0.21879235
101	0x3e6a08a2	0.22854856
102	0xbcaf0598	-0.021364972
103	0x3d051991	0.032495085
104	0x3e34867d	0.17629428
105	0xbd7e4b9e	-0.062083833
106	0xbdcf90a7	-0.10135012
107	0xbe3e8572	-0.18605593
108	0x3e5577c6	0.20846471
109	0x3db9476a	0.09046824
110	0x3db0c6f6	0.08631699
111	0x3da0f54e	0.07859288
112	0x3e083ae5	0.13303716
113	0x3dfc6250	0.12323439
114	0xbe07e10e	-0.13269445
115	0x3d9c1037	0.0762028
116	0x3da3a407	0.0799027
117	0x3d717fd0	0.058959782
118	0xbdaf7355	-0.0856692
119	0x3e56a25a	0.2096037
120	0xb9a05e7c	-0.00030587974
121	0x3e657f03	0.22411732
122	0xbda5acb2	-0.0808958
123	0x3d7ca19c	0.06167756
124	0x3e19d7e3	0.1502376
125	0x3d81e839	0.06343121
126	0xbd9e2421	-0.07721735
127	0x3d6c25dc	0.057653293
128	0xbd95d812	-0.07316603
129	0xbeb7dbed	-0.35909978
130	0x3ce1e167	0.0275733
131	0xbce31481	-0.027719738
132	0x3e16a763	0.1471229
133	0x3e31c44c	0.17360038
134	0x3e5a2259	0.21302165
135	0xbeaed720	-0.34148502
136	0x3e386396	0.18006739
137	0x3dd793d8	0.10526246
138	0x3e9ad817	0.30242988
139	0x3e368f74	0.1782816
140	0x3eae5462	0.34048754
141	0x3c776521	0.015099795
142	0x3c4de9f4	0.012567986
143	0xbe271acf	-0.1631882
144	0xbcfcbdf0	-0.030852288
145	0xbe81f1df	-0.25379845
146	0x3de07f28	0.10961753
147	0xbe540071	-0.20703293
148	0xbdd65b71	-0.1046666
149	0x3deb68d6	0.11494605
150	0xbd2d57a7	-0.04231992
151	0xbdb7977b	-0.089644395
152	0x3e9da6da	0.3079136
153	0x3e21da7e	0.15806004
154	0xbea0f84a	-0.3143943
155	0x3e8dcaea	0.27693874
156	0x3e319d48	0.17345154
157	0x3d13f93c	0.03612636
158	0xbdf85007	-0.12124639
159	0xbe812ffe	-0.25231928
160	0x3d8ada5c	0.0677993
161	0xbe8e278e	-0.27764553
162	0xbe2e546c	-0.17024392
163	0xbdfdf58d	-0.12400351
164	0xbc97adac	-0.01851543
165	0x3e203e04	0.15648657
166	0xbb938bd6	-0.0045027537
167	0xbe8b0ac2	-0.27156645
168	0x3e6beb56	0.23038992
169	0x3e480912	0.1953471
170	0x3e88aba2	0.26693445
171	0x3c93b94b	0.01803269
172	0x3e6e7d90	0.23290086
173	0xbc6f2d06	-0.014598137
174	0xbe2f1eb4	-0.17101556
175	0xbedc095e	-0.42975897
176	0xbc99958c	-0.018748067
177	0xbdb44d54	-0.08803812
178	0x3e680b6e	0.2266061
179	0x3e10d0ce	0.14142153
180	0xbd271fbe	-0.040801756
181	0xbb885815	-0.004160891
182	0x3d6bbd2e	0.057553463
183	0xbc3ac83e	-0.0114002805
184	0xba9222ea	-0.0011149321
185	0x3de8051f	0.11329102
186	0xbdbd5363	-0.092444204
187	0x3e83f68a	0.25774032
188	0x3e5edf2a	0.21764818
189	0xbe37cc87	-0.17949115
190	0xbdad507d	-0.084626175
191	0x3d9b9374	0.07596484
192	0xbe6bb829	-0.2301947
193	0xbdad494a	-0.084612444
194	0xbd16e587	-0.036839988
195	0xbe2a640f	-0.16639732
196	0x3e2065a1	0.15663768
197	0x3dc08c2d	0.094017364
198	0x3e033601	0.1281357
199	0x3df2cc09	0.11855323
200	0xbe0e19eb	-0.13877074
201	0xbdf75e95	-0.12078587
202	0xbd37805d	-0.04480015
203	0x3dc321bd	0.095279194
204	0xbe41b062	-0.18914941
205	0x3c99ab26	0.018758368
206	0x3d8a35af	0.067485206
207	0xba91be48	-0.001111933
208	0xbc8e71e7	-0.017388297
209	0xbe4b1a5e	-0.19834277
210	0x3e12360f	0.14278434
211	0xbb43cf2b	-0.002987812
212	0xbdb6db9e	-0.089286074
213	0x3e6554bd	0.22395606
214	0xbc7faef6	-0.015605679
215	0x3dfcfe89	0.12353236
216	0x3dc90ec4	0.098172694
217	0x3da75f64	0.08172491
218	0xbe23b336	-0.15986332
219	0x3e494b29	0.19657578
220	0x3e77ea6b	0.24210517
221	0xbb85b1c2	-0.0040800283
222	0x3e7c6eec	0.24651688
223	0xbd86c0b2	-0.065797225
224	0xbe407a4d	-0.18796654
225	0x3e58fb0a	0.21189514
226	0x3e67317a	0.22577468
227	0xbe12cc36	-0.14335713
228	0x3d546cbc	0.05186151
229	0xbd0381ac	-0.032106087
230	0xbe01ebaa	-0.12687555
231	0x3e6c5f24	0.23083168
232	0xbd08f48e	-0.03343635
233	0x3d4db650	0.050222695
234	0xbd22542d	-0.039631058
235	0x3dba83b6	0.09107153
236	0x3e23b3f4	0.15986615
237	0x3bcdd4f1	0.006281488
238	0x3e8fb5f5	0.2806851
239	0xbc44c274	-0.012009252
240	0x3df1014a	0.11767824
241	0xbda6944d	-0.08133755
242	0x3dddf214	0.10837188
243	0xbd99b9fd	-0.075061776
244	0xbdee8218	-0.11645907
245	0x3d7cc40c	0.061710402
246	0x3dc65065	0.09683303
247	0x3db33ecb	0.08752211
248	0xbe096b13	-0.13419752
249	0xbd05788e	-0.032585673
250	0x3cbd5ef3	0.023116564
251	0x3d15bfc4	0.036559835
252	0x3d90373f	0.07041787
253	0x3e207421	0.156693
254	0x3dc76615	0.097362675
255	0x3dd7f06e	0.10543905

encoder_lstm.bias_ih_l0 f4 [128]
0	0x3dfa7ea8	0.12231189
1	0x3e1eae43	0.15496163
2	0x3e0ba108	0.13635647
3	0xbd0ef31c	-0.034899816
4	0x3de717da	0.11283846
5	0x3e4c362a	0.19942537
6	0x3e1841c0	0.14868832
7	0x3ddd2606	0.10798268
8	0x3e4a020d	0.19727345
9	0x3e24f078	0.16107357
10	0x3cee2e1c	0.029074721
11	0x3e973992	0.2953611
12	0xbdff97e8	-0.12480146
13	0xbd29db84	-0.041469112
14	0xbe16f902	-0.14743426
15	0x3dfb22f1	0.12262524
16	0x3dd8f92a	0.10594399
17	0x3eabd585	0.3356134
18	0xbe425eff	-0.1898155
19	0xbdfda579	-0.12385077
20	0x3d2e9c4c	0.042629525
21	0xbd130380	-0.03589201
22	0xbd619cda	-0.055081226
23	0x3ebb4dde	0.36582845
24	0xbe1100e3	-0.14160495
25	0x3e338a46	0.17533216
26	0x3cb10e90	0.02161339
27	0xbe1ff623	-0.15621237
28	0x3b38bbdc	0.0028188145
29	0x3e6fadcd	0.23406143
30	0x3e349990	0.17636704
31	0x3e2f7313	0.17133741
32	0x3cc84f4b	0.024451872
33	0xbd971954	-0.07377878
34	0xbdbdd8be	-0.09269856
35	0xbe12153b	-0.14265911
36	0xbe14034c	-0.14454383
37	0xbe335307	-0.17512141
38	0x3de06da6	0.10958414
39	0xbd5b83c0	-0.053592443
40	0x3e23423d	0.15943237
41	0x3e2b5f36	0.16735539
42	0x3d998441	0.074959286
43	0x3e0e3592	0.13887623
44	0xbd826d21	-0.06368471
45	0xbe0a8278	-0.13526332
46	0xbe1f7fe4	-0.1557613
47	0xbdeb032f	-0.114752166
48	0xbcec1722	-0.028819624
49	0xbdd45096	-0.10366933
50	0xbe09e810	-0.13467431
51	0xbdd5f9f4	-0.104480654
52	0x3de04e0e	0.10952388
53	0x3e4cc28f	0.19996093
54	0xbe35140c	-0.17683429
55	0x3c02990b	0.007971059
56	0x3de1614e	0.110048875
57	0xbe113e62	-0.14183953
58	0x3d89c963	0.067278646
59	0x3e0c4234	0.1369713
60	0xbd54d03d	-0.051956404
61	0xbdd9350e	-0.106058225
62	0xbe24ae23	-0.16082053
63	0xbdd2b706	-0.10288815
64	0x3d7a9c50	0.061184227
65	0x3ca746d7	0.020419521
66	0x3e27a337	0.16370855
67	0x3cc39538	0.023874864
68	0xbdbb7435	-0.09153024
69	0x3e1f6ccc	0.15568846
70	0x3e1a8d96	0.15093073
71	0xbce8b2cd	-0.028405571
72	0x3b9bc4b3	0.004753673
73	0x3d65e092	0.05612237
74	0x3d36060c	0.04443936
75	0x3cf85a67	0.030316545
76	0xbd8951d3	-0.0670506
77	0xbbf9dc8c	-0.007625168
78	0xbc5cbe72	-0.01347314
79	0xbe00a657	-0.12563454
80	0xbdd28c16	-0.102806255
81	0xbd6c2796	-0.05765494
82	0xbd86e374	-0.06586352
83	0x3c89d503	0.016825205
84	0x3e2a3cea	0.166248
85	0x3e0f8383	0.14015011
86	0xbdac5d3a	-0.08416219
87	0xbe17831c	-0.14796108
88	0xbdabb5cd	-0.08384285
89	0x3e2a644f	0.16639827
90	0xbd2bf497	-0.041981306
91	0x3e30967b	0.17244904
92	0x3df6d366	0.1205204
93	0x3d6bac00	0.05753708
94	0xbd45da11	-0.048303667
95	0xbd5a395a	-0.05327735
96	0xbe25d5b0	-0.16194797
97	0x3d0ad025	0.03388991
98	0xbb1068f2	-0.0022035209
99	0xbd1c45b6	-0.03815242
100	0x3e0e55fc	0.13899988
101	0x3dba96a8	0.09110767
102	0x3dd8b1b1	0.10580767
103	0xbdbcef62	-0.09225346
104	0x3e54a8f3	0.20767574
105	0x3cb5bc8a	0.022184629
106	0xbe0b0457	-0.13575874
107	0x3e88d9d7	0.267287
108	0xbd9b99c0	-0.07597685
109	0x3e1bfa1e	0.15232131
110	0x3dfe8294	0.124272496
111	0x3d9a6833	0.07539406
112	0xbe2d2496	-0.16908488
113	0x3e43dbbe	0.19126794
114	0x3e00a095	0.12561257
115	0xbe01abb9	-0.12663163
116	0x3e25d45a	0.16194287
117	0xbdd467a4	-0.103713304
118	0x3dc90ba5	0.09816674
119	0x3e8ff893	0.28119335
120	0x3d470cdd	0.04859625
121	0x3d920b70	0.07131088
122	0xbdaa8bcf	-0.083274476
123	0x3dfb81a0	0.122805834
124	0x3df218b5	0.11821119
125	0x3e2a495c	0.16629547
126	0xbde161ae	-0.11004959
127	0xbd69a856	-0.057045303

encoder_lstm.bias_hh_l0 f4 [128]
0	0xbcb02fc0	-0.021507144
1	0x3e25fb61	0.16209175
2	0x3df36451	0.11884368
3	0xbdae5f8f	-0.0851432
4	0x3e1e29f2	0.15445688
5	0x3e19077d	0.14944263
6	0x3d4db313	0.050219607
7	0xbd1d7f81	-0.038451675
8	0x3e6433aa	0.22285333
9	0x3dc240b8	0.09485
10	0x3d9fbb35	0.07799379
11	0x3e307c11	0.17234828
12	0xbdbf8901	-0.09352303
13	0xbdbef982	-0.093249336
14	0x3d0cc07b	0.03436325
15	0x3ca55a8a	0.020184774
16	0x3ce11760	0.027476966
17	0x3ee97ad4	0.45601523
18	0xbdcf65a2	-0.10126807
19	0x3be4d5a0	0.006983474
20	0xbe0100f8	-0.12598026
21	0x3dac75b0	0.084208846
22	0xbdcea9ee	-0.10091005
23	0x3dd96d7a	0.10616584
24	0x3d477014	0.04869087
25	0x3db68401	0.089118965
26	0xbce34a64	-0.027745433
27	0x3c446c2c	0.011988681
28	0x3d91749e	0.07102321
29	0xbdc6be48	-0.09704262
30	0x3e575b50	0.21030927
31	0xbcdec6d0	-0.02719441
32	0xbd9b57bf	-0.075850956
33	0xbd1e4ede	-0.038649432
34	0x3db0eef0	0.08639324
35	0x3e06c914	0.13162643
36	0xbe4411ee	-0.19147465
37	0x3cfe91bf	0.031075357
38	0x3d4a235d	0.04935013
39	0xbe2545d4	-0.16139919
40	0x3d3e294c	0.046426103
41	0xbd769b12	-0.06020648
42	0xbb486d64	-0.003058278
43	0xbdaecce3	-0.08535173
44	0xbd61749c	-0.055042848
45	0xbdbb04b7	-0.09131759
46	0xbd9d0345	-0.07666639
47	0x3e058914	0.13040572
48	0x3e274e9a	0.16338578
49	0xbdd12064	-0.10211256
50	0xbdb178dc	-0.0866563
51	0xbd63d8ca	-0.055626668
52	0xbd6c0727	-0.05762401
53	0x3cca6b2a	0.024709303
54	0x3b66ccea	0.0035217353
55	0x3da3ccf6	0.079980776
56	0x3de7572b	0.11295923
57	0xbe107e4d	-0.1411068
58	0xbdaa24dd	-0.08307812
59	0x3dc7691b	0.09736844
60	0x3de68c64	0.11257246
61	0xbdc24903	-0.09486582
62	0x3ddb114b	0.10696658
63	0x3da630c7	0.08114772
64	0xbd081ece	-0.033232503
65	0xbe0f96d2	-0.14022377
66	0x3dbb083e	0.091324314
67	0xbc2493ce	-0.010045005
68	0x3e15ff7d	0.14648242
69	0xbd6988a2	-0.05701507
70	0xbced830b	-0.02899315
71	0x3dffd41e	0.1249163
72	0x3cb3d6d0	0.021953017
73	0xbe11ce90	-0.14238954
74	0x3cdbb0b6	0.02681766
75	0xbcf55a2f	-0.02995023
76	0xbe081072	-0.13287523
77	0xbe01ea2a	-0.12686983
78	0x3db647db	0.08900424
79	0xbdec9da8	-0.11553508
80	0xbd0d0c94	-0.034435824
81	0xbdf27749	-0.11839158
82	0xbe0c8890	-0.1372397
83	0xbe022651	-0.12709929
84	0x3e134715	0.14382584
85	0x3c1fb892	0.009748595
86	0x3d69f233	0.057115745
87	0xbda8f218	-0.08249301
88	0x3e399c2d	0.18125983
89	0xbd3e56c2	-0.046469457
90	0xbd6b92e6	-0.05751314
91	0xbdd0bacf	-0.10191881
92	0x3e04c3a8	0.12965262
93	0xbe33c947	-0.1755725
94	0xbd036dca	-0.032087125
95	0xbd0c0e81	-0.03419352
96	0x3dbe7ec5	0.09301523
97	0xbcc2594a	-0.023724217
98	0x3db6237c	0.08893487
99	0xbe183a53	-0.14865999
100	0x3e93bd1a	0.2885521
101	0x3e83195d	0.25605288
102	0x3e653ef9	0.22387303
103	0xbc290bc8	-0.01031775
104	0xbdfcbbb6	-0.123404905
105	0x3e64d394	0.22346336
106	0x3c2016dc	0.009771075
107	0x3e103a7c	0.1408481
108	0x3e268fe9	0.16265835
109	0xbd67e60a	-0.056615867
110	0x3e06c940	0.13162708
111	0x3de541a8	0.111941636
112	0x3e2541e1	0.16138412
113	0x3c4e37e0	0.012586564
114	0xbe0e8c5b	-0.13920729
115	0xbd92d1d7	-0.0716893
116	0x3d314c95	0.043285925
117	0x3e2acaf1	0.16678979
118	0xbd0a869a	-0.033819772
119	0x3e94d65c	0.29069793
120	0xbd39517e	-0.045243733
121	0xbd9fa622	-0.07795359
122	0xbd74180d	-0.05959325
123	0x3d9bee5d	0.076138236
124	0xbe1d86ae	-0.15383407
125	0x3e1fdfe7	0.15612756
126	0x3d5bff7e	0.053710453
127	0x3e04d4f0	0.12971854

dest_lstm_obs.weight_ih_l0 f4 [128, 2]
0	0x3c311905	0.010809188
1	0xbe3f9b43	-0.18711571
2	0xbd825503	-0.06363871
3	0xbdc91015	-0.098175205
4	0x3c7e628c	0.015526425
5	0x3da89055	0.08230654
6	0x3de956b4	0.113934904
7	0xbc4540e2	-0.012039395
8	0xbd81a1c5	-0.06329683
9	0xbdc993f3	-0.09842672
10	0xbe393f04	-0.18090445
11	0x3db149b6	0.08656637
12	0xbcc1fa98	-0.023679063
13	0xbdb9f04e	-0.090790376
14	0x3ddc80d4	0.107667595
15	0x3d4be7c8	0.04978159
16	0xbe1ecfe9	-0.15508999
17	0x3db7bad5	0.08971182
18	0x3dbd1bb5	0.092338
19	0xbd9ca587	-0.07648759
20	0x3e2404d5	0.16017468
21	0xbdbdb9ee	-0.09263979
22	0x3e0f3243	0.13984017
23	0xbd6e1652	-0.058126755
24	0x3be892c6	0.007097575
25	0xbb00cc7c	-0.0019653132
26	0xbe103f16	-0.14086565
27	0x3e0d245b	0.137834
28	0xbd1aed48	-0.037823945
29	0x3dbb2675	0.091381945
30	0xbdefc0d1	-0.11706699
31	0x3da53008	0.08065802
32	0xbca4f46c	-0.02013608
33	0xbc77974e	-0.015111757
34	0xbdec5996	-0.11540525
35	0x3dbca0e0	0.09210372
36	0xbbe5810c	-0.007003909
37	0x3dfac03d	0.12243698
38	0x3d251568	0.040303618
39	0x3da963fd	0.082710244
40	0xbd8b26ba	-0.06794496
41	0x3e170d0c	0.1475107
42	0x3da39d34	0.079889685
43	0xbdcb68cb	-0.09932097
44	0x3db6b920	0.089220285
45	0xbda3f4b4	-0.08005658
46	0xbd82f90a	-0.06395157
47	0x3d425f26	0.047454022
48	0xbb9db201	-0.0048124795
49	0xbe06bf72	-0.13158968
50	0x3d2cadc0	0.04215789
51	0xbdfca4c4	-0.12336114
52	0xbdc2f49c	-0.09519312
53	0x3d9d9426	0.07694273
54	0xbe23e003	-0.16003422
55	0xbdf7718f	-0.120822065
56	0xbdc93589	-0.09824664
57	0xbc3b2eee	-0.011424763
58	0x3e163c6b	0.14671485
59	0xbc0a8b14	-0.00845601
60	0x3de317b2	0.11088504
61	0xbda15507	-0.07877546
62	0x3df25d8b	0.11834248
63	0xbdc89485	-0.09793953
64	0xbd05df2f	-0.032683548
65	0x3dd5bb06	0.104360625
66	0xbd24a32e	-0.040194683
67	0x3c291cfa	0.01032185
68	0xbc314304	-0.0108192
69	0xbd2a8291	-0.041628424
70	0xbd992e50	-0.074795365
71	0xbd6f5c59	-0.05843768
72	0xbd06ec7e	-0.03294038
73	0x3d0709b3	0.032968234
74	0xbca82544	-0.020525582
75	0xbc4142b3	-0.0117956875
76	0x3c6668d6	0.014063081
77	0x3d66a250	0.056307137
78	0xbe34a97e	-0.17642781
79	0x3d616a28	0.05503288
80	0xbe1b8b6a	-0.15189901
81	0x3d9f40e5	0.077760495
82	0xbca0e6f7	-0.019641383
83	0xbdc4b058	-0.096039474
84	0xbdc714cb	-0.09720763
85	0xbd12ccce	-0.03583985
86	0xbdcc8674	-0.099865824
87	0xbd41acee	-0.04728406
88	0xbe111ffc	-0.14172357
89	0x3df66e86	0.120327994
90	0xbd94ae9b	-0.07259866
91	0xbd50b014	-0.05094917
92	0x3cf841f6	0.03030489
93	0xbd294a26	-0.04133048
94	0x3bbc6c82	0.00575024
95	0xbdd83ad6	-0.10558097
96	0xbe0acae8	-0.13553965
97	0xbdbdd588	-0.092692435
98	0xbcc64a42	-0.02420533
99	0x3d3ce86d	0.046120096
100	0x3d4fe57b	0.05075596
101	0xbe3e8386	-0.1860486
102	0xbd8526bb	-0.06501528
103	0xbe6960d3	-0.22790842
104	0x3c12e0df	0.008964746
105	0xbe0dc834	-0.13845903
106	0x3d4ee0e5	0.050507445
107	0x3dbde65d	0.09272454
108	0xbddd3222	-0.10800578
109	0x3d8cd23b	0.06876036
110	0xbe520f5e	-0.20513675
111	0x3d38aa6f	0.045084413
112	0x3c76c93b	0.0150626255
113	0x3ddefca2	0.1088803
114	0xbd1b0bbe	-0.037852995
115	0xbdae1df2	-0.08501805
116	0x3d266792	0.040626116
117	0xbdf50452	-0.11963715
118	0xbcb290ae	-0.021797504
119	0xbd22a48e	-0.039707713
120	0x3dcb9d19	0.099420734
121	0x3c1b9b1a	0.009497428
122	0xbdb51b44	-0.08843091
123	0xbd28e70e	-0.041235976
124	0xbde9ba59	-0.11412496
125	0xbd573c36	-0.052547656
126	0xbdf36a40	-0.118855
127	0xbc92717f	-0.017876385
128	0xbddee92e	-0.10884319
129	0xbcafdbb8	-0.021467075
130	0x3bd35e42	0.0064504454
131	0x3d0daba4	0.034587517
132	0xbd733629	-0.059377823
133	0x3cdea069	0.027176099
134	0xbd2c18a3	-0.042015683
135	0x3d1cbe36	0.038267337
136	0xbe0ef6ea	-0.13961378
137	0x3df45baf	0.1193155
138	0x3d6b8884	0.05750324
139	0x3d8f021c	0.06982824
140	0x3e0d4e49	0.13799395
141	0xbdef68d6	-0.11689918
142	0x3cce7345	0.02520145
143	0x3d619eb9	0.05508301
144	0x3c249881	0.010046125
145	0xbde97e2f	-0.11401021
146	0xbde03911	-0.109483846
147	0xbc11c450	-0.008896902
148	0x3d8d3287	0.06894403
149	0xbd68b777	-0.05681559
150	0x3dd4af30	0.10384977
151	0xbd9b350a	-0.07578476
152	0x3c4fabd7	0.012675247
153	0x3c9ec488	0.019380823
154	0x3c66e5bd	0.01409286
155	0x3d12ee84	0.035871997
156	0xbcac053c	-0.02099859
157	0xbda2c9b5	-0.07948629
158	0x3dd7ce28	0.10537368
159	0xbe07a0a4	-0.13244873
160	0xbd7001ac	-0.058595344
161	0xbb00bf80	-0.0019645393
162	0xbd11f3da	-0.035632946
163	0x3d85e6b4	0.06538144
164	0x3d5e9a5c	0.054346427
165	0xbc13f41f	-0.009030371
166	0x3ad69569	0.0016371432
167	0xbc4a7974	-0.012358058
168	0xbdb6af8f	-0.08920204
169	0xbd3eb444	-0.046558633
170	0xbc3420fd	-0.010994193
171	0xbbf25c35	-0.007396246
172	0xbe10c8f2	-0.14139155
173	0x3de8a998	0.113604724
174	0x3df1ec78	0.11812681
175	0xbda54800	-0.080703735
176	0xbbe14166	-0.006874251
177	0x3d9c95ce	0.076457605
178	0x3da707ac	0.0815576
179	0x3d5c2c02	0.053752907
180	0x3deae251	0.11468948
181	0xbd2d1d23	-0.042264115
182	0x3c957a5a	0.018246818
183	0x3d206e45	0.03916766
184	0xbcea93ae	-0.028634872
185	0x3db06daa	0.08614667
186	0xbd4aab35	-0.049479682
187	0xbdd0d36e	-0.10196577
188	0xbcaf98ad	-0.021435106
189	0x3d39eafb	0.04539011
190	0x3db5eb74	0.088828
191	0x3caa3d73	0.020781254
192	0xbdcfd347	-0.1014772
193	0x3dbbaf42	0.09164287
194	0xbde91725	-0.113813676
195	0xbaeb941c	-0.0017973217
196	0xbd5ac8eb	-0.053414267
197	0x3dda0c58	0.10646886
198	0xbdb74bc4	-0.08949998
199	0x3d5f803d	0.054565657
200	0xbd72738e	-0.059192233
201	0xbd19e71d	-0.037573922
202	0xbc874f96	-0.016517442
203	0x3d7c4eae	0.061598472
204	0x3d7c8d28	0.061658055
205	0xbd5895d2	-0.052877255
206	0xbd995797	-0.074874096
207	0x3c85d9e6	0.016339254
208	0xbc292b34	-0.010325242
209	0x3da3d60d	0.07999811
210	0x3d808c80	0.06276798
211	0x3d9249a0	0.07142949
212	0x3d20f269	0.03929368
213	0xbd571edc	-0.052519664
214	0xbd4c65da	-0.04990182
215	0xbe0165b0	-0.12636447
216	0x3e0a2bcf	0.13493274
217	0xbe052c80	-0.13005257
218	0xbe15f342	-0.14643577
219	0x3da30b42	0.07961132
220	0x3d8a520f	0.06753933
221	0xbdffdb2f	-0.12492978
222	0xbe309e24	-0.17247826
223	0x3dfec495	0.12439839
224	0x3cf41559	0.029795336
225	0xbde0cf41	-0.109770305
226	0x3d68200f	0.0566712
227	0xbe020060	-0.12695456
228	0x3d9f38e7	0.07774525
229	0xbe20a9b8	-0.15689743
230	0xbdf4a9bf	-0.11946439
231	0x3dad0550	0.08448279
232	0x3d7ce0cf	0.06173783
233	0xbd47ed82	-0.04881049
234	0xbe2a6401	-0.16639711
235	0x3d747748	0.059684068
236	0xbc17ba3a	-0.0092607085
237	0xbceffdb7	-0.029295785
238	0x3db00cf7	0.08596223
239	0xbd11a96a	-0.035561956
240	0x3c21cc5a	0.009875381
241	0x3d951de0	0.07281089
242	0x3d49341e	0.04912197
243	0x3d183f2f	0.03716963
244	0x3dd8239a	0.105536655
245	0xbe23edb8	-0.16008651
246	0x3dc55d6d	0.0963696
247	0x3dad2f66	0.08456306
248	0xbd0a5648	-0.03377369
249	0x3d849e49	0.06475503
250	0x3d4a53ca	0.049396314
251	0x3dc2dff0	0.09515369
252	0xbd07d4bc	-0.033161864
253	0xbdd3e314	-0.10346046
254	0xbd8f9f91	-0.07012857
255	0x3d8bd3ec	0.0682753

dest_lstm_obs.weight_hh_l0 f4 [128, 32]
0	0x3e73a19e	0.23792121
1	0xbe464bec	-0.193649
2	0x3b3236d8	0.0027193334
3	0xbdaa6564	-0.0832012
4	0x3d2c9fdd	0.042144645
5	0x3ddadd78	0.10686773
6	0x3d789de0	0.060697436
7	0xbe33fd77	-0.17577158
8	0x3e425c26	0.18980464
9	0x3e592195	0.21204217
10	0xbe17ec51	-0.14836241
11	0xbd4e8527	-0.050419953
12	0xbe129884	-0.14315993
13	0xbd625676	-0.055258237
14	0x3e345949	0.17612185
15	0x3e2e8dea	0.17046323
16	0x3df978cb	0.121812426
17	0xbd74e9bb	-0.059793215
18	0xbd681ce0	-0.056668162
19	0x3db76d1c	0.08956358
20	0xbd931880	-0.071824074
21	0x3de63838	0.112411916
22	0x3d001656	0.0312713
23	0xbe07ad46	-0.13249692
24	0xbcd9f356	-0.02660529
25	0xbd3e1996	-0.04641112
26	0xbcaf243c	-0.021379583
27	0xbe576f3b	-0.21038525
28	0xbdefc7bb	-0.117080174
29	0xbddbfaaf	-0.107411735
30	0xbe1ca82a	-0.15298524
31	0xbe26ee11	-0.16301753
32	0xbd9d19ba	-0.076709226
33	0xb9ff3c56	-0.00048682344
34	0x3e311774	0.17294103
35	0x3bb9dc9a	0.0056720497
36	0x3d7af9fe	0.061273567
37	0xbdff547a	-0.124672845
38	0x3ca02013	0.019546544
39	0xbdbcfa54	-0.09227434
40	0x3cf18c9e	0.029485997
41	0x3de39e3f	0.111141674
42	0xbe06f9d2	-0.13181236
43	0x3dde8f64	0.10867193
44	0x3e25e1b3	0.16199379
45	0xbce6bb52	-0.028165493
46	0xbbac59f7	-0.005259748
47	0xbda6c39b	-0.081427775
48	0xbe003c42	-0.12522987
49	0x3bff1b0d	0.007785207
50	0xbe38d1a8	-0.18048728
51	0xbe1422d0	-0.14466405
52	0xbbd5b989	-0.0065223617
53	0xbb9601f1	-0.004577868
54	0xbd0735a9	-0.03301016
55	0xbdf9efea	-0.12203963
56	0x3d37b666	0.044851683
57	0xbe0cbf30	-0.13744807
58	0xbe5af4fa	-0.21382514
59	0xbd8232b8	-0.0635733
60	0xbcec1920	-0.028820574
61	0xbe0c507c	-0.13702577
62	0x3d73efb8	0.059554785
63	0x3dbdecb3	0.092736624
64	0xbd5f63b5	-0.054538447
65	0x3dbb1d32	0.09136428
66	0x3e3d4628	0.18483794
67	0xbde60c73	-0.11232843
68	0xbd37241b	-0.044712167
69	0x3db5c6f9	0.08875842
70	0x3e41944d	0.18904229
71	0xbd06fcc1	-0.03295589
72	0x3e755996	0.23959956
73	0xbd5be15a	-0.05368171
74	0x3d982f49	0.07430894
75	0x3cc7a132	0.024368856
76	0x3db65608	0.08903128
77	0xbe65c14a	-0.22437015
78	0xbd2c2910	-0.042031348
79	0xbd4631ae	-0.048387222
80	0x3d8c1a6e	0.068409786
81	0x3e11b7a5	0.14230211
82	0xbde4a34f	-0.11163961
83	0x3df6b8ab	0.12046941
84	0x3dc51ff1	0.09625233
85	0xbdf1d113	-0.11807456
86	0xbdf94959	-0.12172193
87	0xbdb86ec9	-0.090055056
88	0xbd8a3aa6	-0.067494676
89	0x3e01eb02	0.12687305
90	0x3d885909	0.06657607
91	0xbd949f07	-0.072568946
92	0xbe5959ea	-0.21225706
93	0xbda13585	-0.07871536
94	0xbdfd1596	-0.12357633
95	0xbdbca7bc	-0.0921168
96	0x3e44e148	0.19226563
97	0x3dd8a094	0.10577503
98	0x3d688f42	0.056777246
99	0xbe26344c	-0.16230887
100	0xbda8c219	-0.08240146
101	0xbd524870	-0.051338613
102	0x3e59175c	0.21200317
103	0xbc89e98a	-0.016834993
104	0x3d51188b	0.051048797
105	0x3e2b37c6	0.16720495
106	0x3d4f9eb2	0.050688453
107	0x3e7c96dc	0.24666923
108	0x3dc52d61	0.09627796
109	0xbd981ebb	-0.07427736
110	0xbdb6f701	-0.08933831
111	0xbcdd6ab7	-0.027028425
112	0x3d884526	0.06653814
113	0xbdbd9f93	-0.09258952
114	0xbe0f4aac	-0.13993329
115	0x3d92b79b	0.07163926
116	0x3e2ac121	0.16675235
117	0x3e33430d	0.17506047
118	0x3df67f9f	0.120360605
119	0x3e4c3523	0.19942145
120	0x3cd5cde5	0.026099155
121	0x3c836b98	0.016042516
122	0x3d8b003a	0.067871526
123	0x3dabe30e	0.083929166
124	0xbde5a69e	-0.1121342
125	0x3e56e92a	0.20987383
126	0xbd8176ff	-0.06321525
127	0x3d34045f	0.04394948
128	0x3bba18e5	0.005679237
129	0xbc2fe82f	-0.010736509
130	0xbd784506	-0.0606127
131	0xbd7dea78	-0.061991185
132	0xbdc0406a	-0.09387286
133	0xbc4f30d4	-0.012645919
134	0xbc5fc2c2	-0.013657274
135	0xbce47a45	-0.027890334
136	0xbe015611	-0.12630488
137	0x3e28afba	0.16473284
138	0x3d466995	0.048440535
139	0xbe71c60f	-0.2361071
140	0xbe580036	-0.2109383
141	0x3d0a0932	0.033700176
142	0x3e1f306a	0.15545812
143	0x3d4d589e	0.05013334
144	0x3d83243e	0.06403397
145	0x3d2831ed	0.041063238
146	0xbd614155	-0.054993946
147	0xbdffbbc3	-0.124869846
148	0xbda60c53	-0.081078194
149	0xbd7b3497	-0.06132945
150	0x3ce282a4	0.027650185
151	0x3c991593	0.018687045
152	0x3c2a491b	0.010393406
153	0x3d137e89	0.036009345
154	0x3d64318d	0.055711318
155	0xbc853491	-0.016260417
156	0xbd6bd748	-0.057578355
157	0x3d06443d	0.03277992
158	0x3d8324e4	0.06403521
159	0xbcd21cf2	-0.025648568
160	0x3e384511	0.17995097
161	0x3d918d74	0.07107058
162	0xbda3d4d1	-0.07999576
163	0x3dbf8763	0.09351995
164	0x3d25175c	0.04030548
165	0x3ceee64c	0.029162548
166	0x3e22cb3e	0.15897843
167	0xbde3f82d	-0.1113132
168	0x3e412144	0.18860346
169	0x3d05bb1d	0.03264915
170	0x3dee8b92	0.11647715
171	0x3d99aaba	0.07503267
172	0x3d8693ab	0.06571134
173	0x3d7ceaa0	0.061747193
174	0x3d9c65ec	0.076366276
175	0x3e107c74	0.14109975
176	0x3db9743e	0.090553746
177	0x3d80fa95	0.06297795
178	0xbe30d454	-0.17268497
179	0x3cdb9ec8	0.026809111
180	0x3df7946e	0.120888576
181	0xbd18658b	-0.037206214
182	0x3c574a54	0.01314028
183	0x3ca40b08	0.020024791
184	0x3ce28a48	0.027653828
185	0xbe298635	-0.16555102
186	0xbe07e476	-0.13270745
187	0x3dd189ac	0.10231337
188	0xbe5811da	-0.2110056
189	0xbd527c8a	-0.0513883
190	0xbc8b4448	-0.017000332
191	0x3b7dec24	0.0038745487
192	0x3e8e0d49	0.2774451
193	0xbe16de74	-0.14733297
194	0x3e45b9b9	0.19309129
195	0x3e07318c	0.13202494
196	0x3dd4ba70	0.10387123
197	0x3de5f846	0.11228995
198	0xbd88e1e4	-0.0668371
199	0x3dc5e41a	0.096626475
200	0xbd76feba	-0.06030152
201	0x3dc16c37	0.094444685
202	0xbe8e0aa9	-0.27742508
203	0x3db54a1c	0.08852026
204	0xbe00888b	-0.12552087
205	0x3e1e0841	0.15432836
206	0x3c0db7b0	0.008649752
207	0xbe320352	-0.17384079
208	0x3e8e2f61	0.27770522
209	0xbdf33d00	-0.11876869
210	0xbcaf1c66	-0.021375846
211	0xbd80efab	-0.06295713
212	0x3d17e959	0.037087772
213	0x3e75479b	0.23953097
214	0x3d4d65fb	0.050146084
215	0x3c8b0f84	0.016975172
216	0xbe155cb8	-0.1458615
217	0xbe992f1c	-0.29918754
218	0xbe5ff917	-0.21872364
219	0x3d352606	0.044225715
220	0x3c70847a	0.014680022
221	0x3d90c292	0.07068361
222	0x3dd0eef6	0.10201828
223	0xbd30bbe3	-0.043147933
224	0x3d8d3a69	0.068959065
225	0xbde3352e	-0.110941276
226	0x3df8f2b4	0.12155667
227	0xbe140dd7	-0.14458404
228	0x3dd71e1a	0.10503788
229	0xbce4aad3	-0.027913487
230	0xbd555802	-0.052085884
231	0x3c04e966	0.008112287
232	0x3dc7d4c2	0.09757377
233	0x3d8d2ddb	0.06893512
234	0xbe033178	-0.1281184
235	0xbe90da3e	-0.28291506
236	0x3d8f1b6a	0.06987651
237	0xbd4c4be0	-0.049877048
238	0xbd85be32	-0.065304175
239	0xbceb3f2a	-0.028716642
240	0xbe13554a	-0.14388004
241	0xbd13e94e	-0.03611117
242	0xbd88cd29	-0.06679756
243	0x3df53c54	0.11974397
244	0x3dbab076	0.091156885
245	0x3c760a9e	0.01501718
246	0x3cc32d8d	0.023825431
247	0xbdae1ac2	-0.085011974
248	0xbd0fe9f5	-0.03513523
249	0x3d108036	0.03527852
250	0xbd99d300	-0.07510948
251	0xbd5feb6e	-0.054667883
252	0x3a8a7136	0.0010562304
253	0xbd0bb0c6	-0.03410413
254	0x3df35425	0.11881284
255	0x3ddc6520	0.107614756

dest_lstm_obs.bias_ih_l0 f4 [128]
0	0x3dbeb906	0.09312634
1	0xbe3b42b3	-0.18287162
2	0xbd301f71	-0.042998735
3	0xbd9f297c	-0.077715844
4	0x3dbc6d61	0.0920055
5	0xbdc5487e	-0.096329674
6	0xbdca49bc	-0.09877345
7	0xbc1d0603	-0.009583953
8	0xbe1d78fe	-0.15378186
9	0xbe141fef	-0.14465307
10	0xbd8630f4	-0.06552306
11	0x3d9959dc	0.074878424
12	0xbd915303	-0.07095911
13	0xbd97f7b2	-0.07420291
14	0x3c91f552	0.017817173
15	0x3d9effa7	0.077636056
16	0x3daf6001	0.08563233
17	0xbd33708b	-0.0438085
18	0xbdf859b0	-0.121264815
19	0x3d874781	0.06605435
20	0x3d988fe6	0.074493214
21	0xbdb82144	-0.0899072
22	0xbe6ea0d4	-0.23303539
23	0x3c83c0c7	0.016083134
24	0xbd208a8b	-0.039194625
25	0xbda59ca1	-0.08086515
26	0xbd8c05f5	-0.06837074
27	0xbd0f5b59	-0.034999225
28	0xbd77942d	-0.060444046
29	0x3df5c0d2	0.11999668
30	0x3d65f4df	0.05614173
31	0xbdef0a98	-0.116719425
32	0xbe49a6aa	-0.19692484
33	0xbdaa5d62	-0.083185926
34	0xbe225cfe	-0.15855786
35	0x3da457b6	0.08024542
36	0xbe5a7fa1	-0.21337749
37	0xbca1ed57	-0.019766493
38	0xbd5722aa	-0.052523293
39	0xbd00d81b	-0.031456094
40	0xbd6678af	-0.056267437
41	0x3dda405a	0.10656805
42	0xbe265eb9	-0.16247071
43	0x3c0244f5	0.007951011
44	0xbe27be4a	-0.16381183
45	0x3d36b792	0.04460866
46	0xbdb479a2	-0.08812262
47	0xbe86462d	-0.26225415
48	0xbe587888	-0.21139729
49	0x3dc1dfd6	0.094665214
50	0xbe72285e	-0.23648211
51	0xbb58eb3e	-0.00330992
52	0xbe1ac719	-0.15115012
53	0x3cb5b34b	0.02218022
54	0x3d55a092	0.052155085
55	0xbd95e2e4	-0.073186666
56	0xbe0f57c8	-0.1399833
57	0x3da9a43a	0.08283277
58	0xbd29c7c0	-0.041450262
59	0x3d474ce5	0.048657317
60	0xbe4c4ba6	-0.19950733
61	0xbdc62bf7	-0.096763544
62	0x3e75b2d1	0.23993994
63	0xbbe060d2	-0.0068474794
64	0xbb84a614	-0.0040481184
65	0x3db4bd25	0.08825139
66	0x3de72b36	0.11287539
67	0xbe04ad4d	-0.12956734
68	0x3ded383d	0.11582992
69	0xbc956795	-0.018237868
70	0xbda311bd	-0.07962368
71	0xbd7c27ce	-0.0615614
72	0xbd54729e	-0.05186712
73	0xbd171d09	-0.036892924
74	0x3dc113de	0.094276175
75	0x3e2fe046	0.17175397
76	0x3e2a2576	0.16615853
77	0x3cd8581e	0.026409205
78	0xbd5e7ac1	-0.054316286
79	0xbe5c98cf	-0.21542667
80	0xb9e83eea	-0.00044297363
81	0x3cb7b634	0.022425748
82	0x3db0f7cf	0.08641016
83	0xbd7fb24e	-0.062425904
84	0xbc81d1c0	-0.015847087
85	0x3cdd0b66	0.026982974
86	0x3dd8c6da	0.10584803
87	0xbd62ffde	-0.055419795
88	0x3e795377	0.24348246
89	0x3c80b472	0.015711043
90	0xbc8beeb7	-0.017081602
91	0xbd54925f	-0.051897403
92	0x3d8437a3	0.06455924
93	0x3dbac5a3	0.091197275
94	0xbdf51951	-0.11967719
95	0x3dda7878	0.10667509
96	0xbd865f5e	-0.065611586
97	0x3d95e29e	0.073186144
98	0xbdb2e10f	-0.08734333
99	0x3dd0e321	0.101995714
100	0x3d1e4138	0.038636416
101	0xbd96c9e4	-0.07362726
102	0xbdb57d4c	-0.08861789
103	0xbe5136a8	-0.20431006
104	0xbe69d3f3	-0.22834758
105	0x3e1826d7	0.14858566
106	0x3e1c6cbf	0.15275858
107	0xbdcaba6a	-0.09898837
108	0x3e1928e7	0.1495701
109	0x3db0280b	0.086013876
110	0xbcd6c91d	-0.026218945
111	0xbccb1906	-0.024792206
112	0xbd8a1a2e	-0.06743275
113	0xbcd0cd74	-0.025488593
114	0xbd3bf86b	-0.045891207
115	0xbe20c903	-0.1570168
116	0x3e05bf3f	0.13061236
117	0xbc9b65f3	-0.018969512
118	0x3ddd213a	0.10797353
119	0xbe51c20a	-0.20484176
120	0xbe31c5e6	-0.17360649
121	0xbd44c8d1	-0.048043076
122	0x3d6fcb16	0.058543287
123	0x3bf3311c	0.007421626
124	0xbe3bff6e	-0.18359157
125	0xbde7226b	-0.112858616
126	0x3e1c872e	0.15285942
127	0x3dfe6f28	0.12423545

dest_lstm_obs.bias_hh_l0 f4 [128]
0	0x3d2508da	0.040291645
1	0xbda87f43	-0.08227398
2	0xbc133005	-0.008983617
3	0x3db8b02b	0.090179764
4	0xbe14ca81	-0.14530374
5	0x3df0c985	0.11757187
6	0x3920fdd0	0.00015353342
7	0xbe20d986	-0.15707979
8	0xbe0ff995	-0.14060052
9	0x3d920812	0.071304455
10	0xbda53044	-0.080658466
11	0x3cf97f80	0.030456305
12	0x3d1bed72	0.038068242
13	0xbd9765aa	-0.07392438
14	0x3db4e4a1	0.0883267
15	0xbdaedb39	-0.08537907
16	0xbda251b7	-0.07925742
17	0xbdbfd05c	-0.09365913
18	0xbe4f81c2	-0.20264342
19	0x3d8c593a	0.06852956
20	0xbd26cd81	-0.040723328
21	0xbdfe5a4e	-0.12419568
22	0xbe5e306e	-0.21698162
23	0x3dd1de79	0.102475114
24	0xbe2135f2	-0.15743235
25	0x3d34d6fb	0.044150334
26	0x3d9ba3b7	0.075995855
27	0xbd919898	-0.07109183
28	0x3cadcf3a	0.021216977
29	0x3df4b186	0.119479224
30	0x3dd8d2bd	0.1058707
31	0xbc3ba258	-0.01145228
32	0xbe658fa2	-0.22418073
33	0x3e07a05a	0.13244763
34	0xbd2b07d4	-0.041755512
35	0xbe1c1124	-0.15240914
36	0x3d661c76	0.056179486
37	0xbe50d9f2	-0.2039564
38	0xbe317862	-0.17331079
39	0xbca90862	-0.02063388
40	0x3d9b6ab2	0.0758871
41	0xbcf16ef0	-0.029471844
42	0x3db0fbd1	0.0864178
43	0xbdecf43c	-0.115700215
44	0x3e288f12	0.16460827
45	0xbcc99add	-0.024609977
46	0xbd3a333c	-0.045459017
47	0x3d29cfe1	0.041458014
48	0x3c93bece	0.018035319
49	0xbdfb7f0e	-0.12280093
50	0xbe270bb6	-0.16313061
51	0x3e042228	0.12903655
52	0xbe3c9bfa	-0.18418875
53	0xbe18fd60	-0.14940405
54	0x3d852dfc	0.065029114
55	0xbd870cb6	-0.06594221
56	0x3d91f1d2	0.07126202
57	0xbd50ed05	-0.05100729
58	0xbca25428	-0.01981552
59	0x3dafb0f8	0.08578676
60	0xbd9e5a9b	-0.07732125
61	0xbda1a6a7	-0.078931145
62	0xbd53609e	-0.051605813
63	0xbe43549e	-0.19075248
64	0x3d25506b	0.040359896
65	0x3e43fec2	0.19140151
66	0xbcd84807	-0.026401533
67	0xbe11fb55	-0.14256032
68	0x3d2af659	0.04173884
69	0x3e0721b6	0.13196453
70	0x3c9c55fb	0.019083967
71	0xbde3ff14	-0.11132637
72	0x3d027e1a	0.03185854
73	0xbd29f2ca	-0.041491307
74	0x3d7fa3a6	0.062411927
75	0xbd329f43	-0.043608915
76	0x3dbe8769	0.09303171
77	0xbdfcac3c	-0.123375386
78	0xbe044b17	-0.1291927
79	0xbdbf1c32	-0.0933155
80	0xbe4ffb49	-0.20310701
81	0x3e29a7e4	0.16567951
82	0xbe42ffeb	-0.19042937
83	0x3bb402e3	0.005493508
84	0x3dacc156	0.084353134
85	0xbc9b6b2d	-0.018972004
86	0xbe52cbb1	-0.20585515
87	0xbdf80b29	-0.12111504
88	0xbd7206b3	-0.05908842
89	0x3e72e0a6	0.23718509
90	0xbdd7455f	-0.10511278
91	0x3d7acb1f	0.061228868
92	0xbe3041f7	-0.17212664
93	0xbe1d16a4	-0.15340668
94	0xbe32a78a	-0.17446724
95	0x3d9afaf3	0.07567396
96	0xbd940bdc	-0.072288245
97	0xbc015158	-0.007892929
98	0xbe4876cd	-0.19576569
99	0x3dd8eb0b	0.10591706
100	0x3b60771c	0.0034250682
101	0x3da94e8c	0.08266935
102	0x3df11c27	0.11772948
103	0x3c6c8e0f	0.014438166
104	0x3ca3d370	0.019998282
105	0x3bf32be8	0.0074210055
106	0x3ce897c1	0.028392674
107	0x3a5d6112	0.00084449456
108	0xbe212f36	-0.15740666
109	0xbe14683d	-0.14492889
110	0x3d64c412	0.05585105
111	0xbd99d8bb	-0.07512041
112	0xbdcd64eb	-0.10029014
113	0xbd7855f4	-0.060628846
114	0x3c2b9a68	0.010473825
115	0xbddbf6f6	-0.107404634
116	0x3db28fe4	0.08718851
117	0x3d51e418	0.051242918
118	0x3d96a318	0.073553264
119	0x3d129a10	0.035791457
120	0xbd05cd9a	-0.03266678
121	0xbde0e5f9	-0.10981364
122	0xbe620d0a	-0.22075287
123	0xbe0c227b	-0.13685028
124	0xbe491e16	-0.19640383
125	0xbde62bc1	-0.11238814
126	0xbe01e797	-0.12686001
127	0xbd887fd5	-0.06665007
