do_tp_federated_round_1.pt (torch, 156693 bytes, 26 tensors)

linear_enc.weight f4 [64, 2]
000000 e4 f8 39 3f 3c a1 29 3f 51 10 8c 3e 8b b5 0d 3d
       0.726454 0.6626165 0.27356198 0.03459696
000010 bb 04 2d 3f 5e ae ed 3e 1e 04 36 3f 86 18 2e 3f
       0.67585343 0.46422094 0.7110003 0.6800617
000020 0e 86 e2 be d5 8a 16 3f 38 70 3a 3e 64 97 32 bf
       -0.442429 0.5880559 0.1820687 -0.69762254
000030 9c 79 cc 3e d6 60 de be 74 fc 69 3e 4e 67 f5 bd
       0.3993653 -0.43433255 0.2285021 -0.119825944
000040 c4 c0 b1 be 27 a3 36 be fb cc 8c 3d 06 eb a1 3e
       -0.3471738 -0.17835675 0.068750344 0.3162462
000050 5e 38 05 3f bd 03 40 3f c9 93 a8 3e dc ff 8f bd
       0.52039135 0.75005704 0.3292525 -0.07031223
000060 64 f3 90 3d 2a 84 66 3d 0e a5 80 bd 8f 8b 30 3f
       0.07077673 0.056278385 -0.06281482 0.6896295
000070 84 0b 1f 3f dc 89 d5 be 57 25 02 bf 7d 05 e2 3e
       0.62126946 -0.4170674 -0.50838226 0.44144812
000080 b5 f9 48 3d 1b 92 a4 be 7d 3e a4 3d 36 72 69 bc
       0.049066264 -0.3214272 0.08019731 -0.014248421
000090 8e 5b ea be d7 a6 93 3e 4a 66 18 bf 76 f8 01 bf
       -0.45772976 0.28838226 -0.5953108 -0.50769746
0000a0 79 93 56 be 45 ef 29 3f 78 34 42 be e8 17 bf 3e
       -0.20954694 0.6638072 -0.18965328 0.37322927
0000b0 30 6a 84 be f1 f8 e3 3e da 18 2f 3f 51 32 14 3e
       -0.25862265 0.44525865 0.68397295 0.14472319
0000c0 2d a3 14 3f 0e a5 38 bf 83 d8 8f bd 83 79 9a bd
       0.58061486 -0.72126853 -0.07023718 -0.07542708
0000d0 bf 1f 07 3e ea 7c 21 bf 5b 95 1a 3f 42 37 29 3e
       0.13195704 -0.6308123 0.6038415 0.16524985
0000e0 02 2b 54 3e d6 64 71 3e 01 44 2a bf 54 fd 5a 3d
       0.20719531 0.23573622 -0.66510016 0.05346425
0000f0 87 23 03 3d 69 f2 ae be 16 7e 76 be a2 70 b1 3e
       0.032016303 -0.3416932 -0.24071535 0.34656245
000100 4a 77 ed be 55 af 8b 3e a2 cb 75 3e 6e 8a 1e bf
       -0.46380073 0.27282205 0.24003461 -0.61929977
000110 84 29 30 bf 60 15 e7 be c0 18 c3 be 74 a0 db 3d
       -0.6881335 -0.45133495 -0.3810482 0.107239634
000120 41 ec a9 be 92 58 c1 be 7d 54 d2 3e f9 38 49 3e
       -0.3318806 -0.37762886 0.41080084 0.1965064
000130 09 06 8d 3e e4 47 50 be a0 9b 04 bf 9f 3c fc be
       0.27543667 -0.20339924 -0.51799965 -0.49265
000140 38 4b 20 be 20 9e 11 3f 43 44 3a 3f f4 ae c4 be
       -0.15653694 0.56881905 0.7276041 -0.3841473
000150 d6 39 f0 3d 88 ef 4d 3f d0 6d 16 bf 89 a3 7d be
       0.11729781 0.8044362 -0.5876131 -0.24769415
000160 83 c1 93 be e5 09 8b 3e 33 05 2b 3f 70 5e ff 3d
       -0.28858575 0.27155986 0.6680481 0.124691844
000170 7f 18 2c bd 81 51 f6 be be a7 42 be 44 4a 51 3e
       -0.04201555 -0.48109058 -0.19009301 0.20438486
000180 77 07 5d 3e a7 3e e2 3d 14 56 81 3e 43 b4 9a bd
       0.21584879 0.11047106 0.25260985 -0.075539134
000190 64 e2 b7 3d 82 9b b9 3e 10 d6 fd 3d 06 6e 2b 3f
       0.089787275 0.36251456 0.12394345 0.6696476
0001a0 06 38 8b 3e 38 0b 0e 3d 8a 27 9e bd 1f 62 80 bd
       0.2719118 0.034678668 -0.07722385 -0.06268715
0001b0 0c e9 ea be b6 ef fa be cf a1 bc 3e 51 ea 0a bf
       -0.45880926 -0.4901101 0.368422 -0.5426379
0001c0 8a bf e9 3e 94 7b cd 3e a4 06 e8 3e 0e f7 0f 3f
       0.45653945 0.40133345 0.45317566 0.5623635
0001d0 cd 4a 88 3d b6 f7 f8 3e 75 57 c3 bd 56 24 f6 be
       0.06654892 0.48626488 -0.095381655 -0.48074597
0001e0 86 cf 3c 3e ba 3c e2 be a7 a8 cc 3e df 12 0a bf
       0.18438539 -0.44186956 0.39972422 -0.53935045
0001f0 89 db 40 3e af cd 76 3e 40 0b 19 bf ff 4b cf be
       0.18833746 0.241019 -0.5978279 -0.40487668

linear_enc.bias f4 [64]
000000 3c fc 51 3e e0 ea 1c be 09 09 b2 3e c0 d1 68 3d
       0.20506376 -0.15323973 0.34772518 0.05684066
000010 86 d0 eb be 04 e3 31 be a7 2c 29 be 80 c3 13 bf
       -0.46057528 -0.17371756 -0.1652094 -0.57720184
000020 a3 fc 14 bf b4 61 18 bf da 2a 23 bf e3 16 fa be
       -0.58197993 -0.59524083 -0.6373726 -0.48845586
000030 f6 08 e8 3d 3b 98 2d 3f 3c 50 31 3f 19 e5 d4 3d
       0.11329834 0.6781041 0.6926305 0.103952594
000040 82 bf cf 3d b6 f6 8e 3e 0e 1e 97 be 00 f5 e1 be
       0.10143949 0.279226 -0.29515117 -0.44132233
000050 ad d2 98 be 84 94 af be 51 71 8c 3e 5b c3 83 be
       -0.29848233 -0.34292996 0.27430204 -0.25734982
000060 ed 3f f1 3e 36 29 04 be 34 4c 2b 3f 39 90 0b 3f
       0.47119084 -0.12906346 0.6691315 0.5451694
000070 19 9a 41 3d 5c fe e8 3e cc ac 2c bf f9 b8 1d 3e
       0.0472661 0.4550656 -0.6745117 0.15402593
000080 c4 cb 0e 3e 52 ce 8a 3d f4 49 78 be c8 af d4 be
       0.13944918 0.06777634 -0.24246961 -0.4154036
000090 7d 69 de be 5d 5d 78 be b7 b7 8e be 49 69 1c bf
       -0.43439856 -0.24254365 -0.27874538 -0.6109815
0000a0 a5 d1 da 3e ee 6a 73 3d 0d d5 9d bd a3 c3 bb bd
       0.4273807 0.059428148 -0.07706652 -0.09168174
0000b0 4f 66 19 3f 96 73 a5 3e a8 0b 49 3e 42 98 28 3f
       0.59921736 0.32314748 0.19633353 0.65857327
0000c0 d6 09 11 3e e3 e8 a9 3d d0 54 ca 3d f7 29 05 3f
       0.14163908 0.08296373 0.09879458 0.5201716
0000d0 1b db d5 be 12 90 a6 be a4 4f b2 3e 42 8d 93 be
       -0.41768727 -0.32531792 0.34826386 -0.2881871
0000e0 3d b5 04 bf a0 9b 6f be 9e f2 a3 3e 32 42 99 3e
       -0.5183905 -0.2339921 0.3202104 0.29933316
0000f0 c5 6a 1e bf 0d 4b 15 be 90 0a 77 be 13 9d 14 be
       -0.6188167 -0.14579411 -0.24125123 -0.14513044

encoder_lstm.weight_ih_l0 f4 [128, 64]
000000 4e 7e 94 bd b3 b4 5c be 35 e8 c0 bd 73 de b1 bd
       -0.07250653 -0.21553306 -0.0941929 -0.08685007
000010 b4 17 0f bd 12 12 1f be 26 ed f3 3d 15 5e 08 bd
       -0.034934714 -0.15534237 0.11910467 -0.03329285
000020 f1 28 2b 3e 42 c2 c9 bd b7 0a 3f be cd bc ae bd
       0.16714837 -0.09851505 -0.18656431 -0.08532105
000030 9f 64 43 3d 4e 3c 50 3d a3 ba 01 be 75 65 a4 bd
       0.04770338 0.05083876 -0.12668853 -0.08027164
000040 e0 75 64 bc 98 c7 68 3c fb 26 e8 3d 3b e9 fb 3d
       -0.013944119 0.014207743 0.1133556 0.123003446
000050 0c ee 7f 3d 2a da 9e 3b 20 ce ed 3c 92 34 c1 3d
       0.06248288 0.0048477845 0.029028952 0.09433855
000060 e6 8e 2b 3d 46 df 7e bd ff 48 25 3e b4 fc b2 3d
       0.041884325 -0.06222465 0.16141127 0.087396055
000070 ce 52 e1 bd 88 b4 0c be fc 94 b6 3c d3 b6 00 3e
       -0.11002122 -0.13740742 0.022287838 0.12569742
000080 a9 2a e4 bd a7 c9 f4 3d 69 35 a2 3d d0 e9 4d 3c
       -0.11140949 0.11952525 0.079203434 0.012567952
000090 96 53 32 3c ec c4 2b be 88 6b e7 3d 51 33 1a 3d
       0.010884186 -0.16774338 0.11299807 0.037646595
0000a0 6a 7b c7 bd a0 9a a8 bb 80 ec d6 bb 74 57 a0 3d
       -0.09740336 -0.005145386 -0.0065589547 0.0782918
0000b0 f2 d1 7d bd 4e c2 5d bc 77 99 04 be 2d 7c b0 3d
       -0.061967798 -0.013535095 -0.12949167 0.08617435
0000c0 5a 8e fc 3d 8a a7 44 be 06 eb ba 3d 18 5e 01 be
       0.12331839 -0.19204536 0.091268584 -0.1263355
0000d0 8c 49 29 be 60 72 85 3d 39 f8 0e 3e 79 0f 59 3d
       -0.16531962 0.06515956 0.13961877 0.05299327
0000e0 99 3f 0d 3c 9d 35 ba bd 35 86 08 3e 6e 49 d7 bd
       0.00862112 -0.09092257 0.13332446 -0.105120525
0000f0 ab b3 70 3d 6a 21 38 be 10 50 a6 bd fd d5 5d 3e
       0.058765095 -0.17981496 -0.081207395 0.21663661
000100 f4 ac 98 bd f1 b8 38 3e d8 74 d7 3d 52 87 6a bd
       -0.07454863 0.180393 0.10520333 -0.057257958
000110 49 ec bb 3c 1f df 30 3e 20 68 47 3e bf 7a 69 bd
       0.022939818 0.17272614 0.19473314 -0.057001825
000120 25 6b 11 bc 7d 5a 93 bd ff d0 9b bd 7a 5c 65 3d
       -0.008875643 -0.07194994 -0.07608222 0.055996396
000130 1e 67 d3 bc bc 6e 18 3e ef 83 9c 3d 18 0b c2 bd
       -0.025806006 0.14885992 0.07642352 -0.09474772
000140 7a 22 0b 3e c3 7e 26 3e d7 73 c4 3d 34 d1 9d 3d
       0.1358737 0.16259293 0.09592407 0.07705918
000150 13 80 a4 bd ed b1 9d bd cc a9 12 be 30 5f 8d bd
       -0.08032241 -0.07699952 -0.14322585 -0.06902921
000160 45 d6 98 3d 47 9a e2 3c f4 54 0e be d3 68 5d 3c
       0.07462744 0.027661456 -0.13899595 0.013513762
000170 b6 f3 b2 3d 89 8d ff 3b 88 aa 2f bc 3c 93 fe bd
       0.087378904 0.0077988547 -0.01072181 -0.124304265
000180 25 7b 86 3b 85 87 86 bc 89 e1 5a 3c 12 d9 40 bd
       0.0041040354 -0.016422043 0.013359436 -0.047082014
000190 f2 8c 75 3d f3 65 0e 3e 98 0d 07 3e e4 9d 06 3e
       0.05994887 0.13906078 0.1318878 0.13146168
0001a0 e1 f3 22 be f2 7b 45 3e dd 92 31 3c 15 7e 4b be
       -0.15913345 0.19285563 0.010838238 -0.19872315
0001b0 27 b5 0c be e8 22 3f 3e 2b 9c 64 bd 4e 81 fb 3d
       -0.13740979 0.1866566 -0.055812996 0.12280522
0001c0 ce 43 34 3d c5 a8 ce 3a 95 7d 35 3e 90 a0 b6 bd
       0.044009976 0.001576685 0.17723687 -0.089173436
0001d0 ee 5b 3b 3d 80 46 43 3c bf 7b 96 bd 67 1d 46 bc
       0.045741968 0.011918664 -0.073478214 -0.012091971
0001e0 e2 15 59 bd ba c7 05 3e 08 90 19 be 3b 88 e1 3d
       -0.052999385 0.13064471 -0.1499635 0.11012312
0001f0 aa 2e a7 3d dc 93 80 bd 4c 55 31 be 90 5f d5 bd
       0.08163197 -0.06278202 -0.17317694 -0.10418618
000200 b2 cc dd bd 50 a8 95 bd 12 07 aa bd 09 ef f0 bc
       -0.10830058 -0.07307494 -0.0830213 -0.029410856
000210 56 bc 39 bd 32 55 1b 3e fe c3 26 bd 3e 02 07 be
       -0.045345627 0.15169218 -0.040714256 -0.13184449
000220 83 73 d0 bd db 39 1e 3e cf 79 fe 3d 5e 7a 8e bd
       -0.10178282 0.15451758 0.12425577 -0.069569334
000230 55 b4 fe 3d 84 58 15 bd c5 ce 66 3d 5e c6 4c be
       0.12436739 -0.03646137 0.056349535 -0.19997546
000240 af 62 fc 3d 5b b7 09 3d 4a 3b 47 be 06 53 94 3d
       0.1232351 0.033622127 -0.1945621 0.07242398
000250 86 42 47 be 26 d6 d2 bd 13 75 97 3d b0 be f1 bd
       -0.1945897 -0.10294752 0.07395377 -0.11803949
000260 04 88 fb bd 7b 43 a7 bc de 6f f9 bd 5a 31 46 3e
       -0.12281802 -0.02041792 -0.1217954 0.19354764
000270 f0 67 00 3e 73 bf 71 bd ee df 57 3c ec a7 b6 3c
       0.12539649 -0.05902047 0.013175948 0.022296868
000280 91 3a 0b be 48 fc 04 3e 9d 10 b4 bc 02 66 90 3d
       -0.1359656 0.12986863 -0.021980578 0.070507064
000290 d1 ff 2d be e3 4c 29 be d1 d9 0d be 44 e8 ac bc
       -0.16992117 -0.16533236 -0.13852622 -0.021106847
0002a0 8a 44 fd 3d 18 15 0a 3e 4c 37 00 be cc 3b 87 3c
       0.123665884 0.13484609 -0.12521094 0.016508006
0002b0 c9 2f 06 3e 39 17 2c 3e 28 ee 1f bd 81 eb dd bd
       0.13104166 0.16805734 -0.039045483 -0.108359344
0002c0 4e b3 d2 3d df 3e b8 bd cc 11 31 3e 8c 4d 16 3e
       0.10288106 -0.08996367 0.17291945 0.1467802
0002d0 ba 77 cd bd f0 72 9d bc b8 bf 90 bc 56 9d 20 3d
       -0.10032602 -0.019219846 -0.017669544 0.039212547
0002e0 75 2c cf bc 95 9d 17 3e 05 ff f6 3c 64 5d b8 bd
       -0.025289753 0.14806207 0.0301509 -0.09002188
0002f0 7c 77 c6 3d c3 6f e2 3d e9 01 30 be da 4a 24 3c
       0.096907586 0.11056473 -0.17188229 0.010027612
000300 4a 84 63 bd 6a 54 b8 3c bd 9d 31 3c da 28 3d bd
       -0.055546083 0.02250119 0.01084083 -0.046181537
000310 79 a5 26 be bb 09 f9 bc d7 93 44 bd 48 63 28 be
       -0.1627406 -0.030400148 -0.047992554 -0.16444123
000320 71 53 1d 3e 2a e9 3c be bf b3 9e bd 6c ca 56 3d
       0.15363862 -0.1844832 -0.077491276 0.05243914
000330 9a 66 36 3b aa de 34 bd 2f 12 0f be 66 08 31 3e
       0.0027832151 -0.04415766 -0.1397178 0.1728836
000340 f7 18 5c bc 39 31 3b 3d 7a df 55 3d d2 95 3e 3d
       -0.013433686 0.04570124 0.052215077 0.0465296
000350 54 20 a5 bd 42 b5 85 bd 84 59 35 3c 23 97 1c bb
       -0.08062807 -0.06528713 0.0110687055 -0.0023893795
000360 4d bf b0 bd fa 04 8c 3c 50 9c 05 3d 0e 78 f1 bd
       -0.08630238 0.017092217 0.032619774 -0.11790477
000370 96 34 bc bd f9 e7 f8 bc 0e 34 bb bd 33 d0 dd bd
       -0.091897175 -0.03038405 -0.09140788 -0.108307265
000380 c4 9c ce 3d 4a c6 e4 bd fa 44 00 3e 99 90 1c 3e
       0.100884944 -0.11170633 0.12526312 0.15289535
000390 c3 f0 98 bc ee 12 7a 3d 54 67 d0 3d 02 34 46 3d
       -0.018669492 0.06105321 0.10175958 0.048389442
0003a0 fc 68 d2 3d 80 c6 c3 3d 31 77 41 be 96 a0 e7 bd
       0.102739304 0.09559345 -0.18893124 -0.11309926
0003b0 d8 36 4b bc 53 be ca bd c7 60 0f be 4c 1e 03 3e
       -0.0124032125 -0.09899583 -0.14001761 0.12804526
0003c0 24 1b 96 3c 83 61 1a 3e d8 96 f1 bc e3 ae 10 3d
       0.018323489 0.1507626 -0.029490873 0.035323035
0003d0 d0 05 f3 bd a4 c1 8b 3d 4c 57 7c ba 72 ad f0 bc
       -0.11866343 0.068240434 -0.00096260454 -0.02937958
0003e0 98 48 2a be b6 fb 17 3d fc 7e fa bc b3 8f c1 3d
       -0.16629255 0.037105285 -0.030578129 0.094512366
0003f0 25 32 8a bd 19 82 00 3d 67 ab c6 3d a0 b0 d1 3c
       -0.067478456 0.03137407 0.09700661 0.025596917

encoder_lstm.weight_hh_l0 f4 [128, 32]
000000 5a 50 c5 3d 4b 90 8f bd 9a 4e c9 bd 88 a8 da 3c
       0.096344665 -0.070099436 -0.09829445 0.02669169
000010 14 fa ca bd aa 16 a1 bc 38 73 0f 3d 67 92 d3 bd
       -0.0991098 -0.019664127 0.03502199 -0.103306584
000020 58 29 03 be 55 4a a0 bd 63 7c 49 3a 67 a9 01 be
       -0.1280874 -0.07826678 0.00076860766 -0.12662278
000030 7c 6a be bd af 92 97 3c a0 2f 81 bb e3 3d 14 be
       -0.09297654 0.018502561 -0.003942445 -0.14476733
000040 c4 e1 36 3d bb da 54 3d 5d 58 14 3e fc 8e 1c be
       0.0446489 0.05196641 0.14486833 -0.15288919
000050 75 64 24 3e 52 50 be bd 8e f0 45 3d 9a ee 6a bd
       0.16053946 -0.09292664 0.048325114 -0.057356454
000060 d4 70 0a 3c 86 2d 12 bb 6b b9 fe bd 26 9e f3 bd
       0.008449752 -0.0022304966 -0.124377094 -0.11895399
000070 4f a8 9e 3d d6 88 83 bd c3 ac 35 3e d0 db 25 be
       0.07746946 -0.06422584 0.17741685 -0.16197133
000080 b7 5c 70 3d b8 e4 00 3e 80 11 25 3e 66 bc 7f 3d
       0.05868217 0.1258725 0.16119957 0.06243553
000090 ce f3 e8 3d 00 e7 02 3e 91 91 2b 3d 7f be 02 3e
       0.11374627 0.12783432 0.04188687 0.12767981
0000a0 22 ac 36 3e 38 da 3a bd 5c 20 12 3e 0a 42 0f 3e
       0.17839101 -0.045618266 0.14270157 0.13990036
0000b0 28 30 85 3d c8 7d 12 bd e5 7f c5 bd 2e ec cc 3d
       0.06503326 -0.035764486 -0.096435346 0.10005985
0000c0 0a 1b 0a be 2e 3c e6 bd 04 93 0f 3e 0e 8f c4 bc
       -0.13486877 -0.11241947 0.14020926 -0.023993995
0000d0 16 3b a1 3c 5b 9e 35 3e f6 0e fb bd ae d1 d8 bc
       0.019681495 0.17736189 -0.12258713 -0.02646717
0000e0 f4 19 01 3e 0d da 81 bd 78 fc bc 3d af c5 97 3c
       0.12607557 -0.06340418 0.09227842 0.01852688
0000f0 07 45 1c 3e 82 90 52 bd 74 fa 1e bd 3f 33 f8 3d
       0.15260707 -0.051407345 -0.03881307 0.121191494
000100 0c 48 83 3d 8e 94 23 3e 53 60 3c 3e d0 00 09 3e
       0.06410226 0.15974638 0.1839612 0.13379216
000110 9e 12 09 3e e0 2b cd 3d d8 1f 58 3e 10 58 f4 bd
       0.13386008 0.10018134 0.21105897 -0.11930859
000120 20 8d 53 bd 4c 7d 16 be 5e bf 49 3d 27 02 19 3e
       -0.05164826 -0.14696234 0.049254768 0.14942227
000130 10 eb 4d 3d bf 28 27 bd cf bd 85 bd f1 37 a4 3d
       0.050273 -0.040810343 -0.06530344 0.080184825
000140 0e bd 99 3d 3d 4f e1 3d c9 23 25 bc a0 be bb 3d
       0.075067624 0.11001442 -0.010079333 0.09167218
000150 40 e4 92 bd c3 77 31 3e 29 15 60 3d fb 61 0e be
       -0.071724415 0.17330842 0.05470768 -0.13904564
000160 1a 81 2c bd ae a2 a7 bd 16 6a d6 bd c6 5c 19 bc
       -0.04211531 -0.081853256 -0.10469453 -0.009360498
000170 bf c3 94 3d e6 29 fe bd ea 3e 00 be ca 1a 0a be
       0.07263898 -0.12410335 -0.12524 -0.13486782
000180 17 21 01 3e 11 04 37 be e6 6b 45 3e bb 20 05 be
       0.12610279 -0.17872645 0.19279441 -0.13000767
000190 58 1d 37 be 97 15 2a 3e e9 0b d2 bd 94 10 98 3b
       -0.17882288 0.16609798 -0.10256178 0.004640648
0001a0 c0 86 3d 3e 66 12 4b bd 7b c7 c1 bd 74 7e 0d be
       0.18508434 -0.049578093 -0.09461876 -0.1381777
0001b0 86 8e 2b 3e 79 4e f0 3d 55 0c 91 3d 5b d8 ed 3d
       0.16753587 0.117337175 0.0708243 0.11613532
0001c0 11 78 d0 3d 54 49 85 3d 4a ba 06 be c9 cd 8a 3d
       0.10179151 0.06508127 -0.13157001 0.06777532
0001d0 f4 fe c2 3d ad 94 9b 3d 1e c0 e2 bd 88 98 10 3e
       0.09521285 0.07596717 -0.110718 0.14120686
0001e0 ff fe 15 3c 95 e6 59 3e 6f 33 c3 bd 81 47 2e 3d
       0.009155034 0.21279366 -0.095312946 0.04254866
0001f0 3b a7 f6 3d ff 63 be 3c bf 71 a8 bd 13 be 06 3c
       0.120436154 0.023241041 -0.0822482 0.008224028
000200 32 69 0f 3d 0b 62 4e be b3 5c 84 3d fd 0d 84 3d
       0.03501243 -0.20154588 0.064629935 0.064479806
000210 20 7a 15 3e 10 02 d4 3d c6 b2 21 3e bc 07 3f be
       0.14597368 0.10351956 0.15790853 -0.18655294
000220 54 da fa 3a 7f 2f 9d 3d 33 10 38 3e c2 0f 69 bc
       0.0019138553 0.07675075 0.1797493 -0.014224948
000230 54 28 4c 3e c3 38 93 3c 4e 68 34 bd 86 a9 5d bc
       0.19937259 0.017971402 -0.044044785 -0.013529187
000240 59 ef 1e 3d b8 82 05 be 8b de 50 bc d9 66 36 be
       0.03880248 -0.13038146 -0.012748371 -0.17812671
000250 56 d2 da 3c 40 3e 6c bb f7 ca 84 3d 68 d4 ad bd
       0.026711624 -0.0036047846 0.06484025 -0.08487779
000260 15 e8 35 3e ef 34 dc 3d 00 a9 54 be d7 ff 0a 3e
       0.17764314 0.10752284 -0.20767593 0.13574158
000270 d2 7d 68 3c 0b 08 79 3d cb 5c d9 bb 8b 56 28 be
       0.014190154 0.060798686 -0.0066333762 -0.16439264
000280 e8 44 13 3e 23 a4 77 bd 2b b1 10 be 30 39 ca bd
       0.14381754 -0.060459267 -0.14130084 -0.09874189
000290 0f 3d 8d bc 5f 4e 0f 3e 4c 39 8a bd 34 19 ae bd
       -0.01724103 0.1399474 -0.0674921 -0.08500901
0002a0 5d 8b c6 bc 68 97 45 3e 96 b8 3e 3e b2 48 f8 bd
       -0.024236375 0.19296038 0.18625101 -0.121232405
0002b0 6c c2 67 3d 62 16 27 3d 38 be f7 bd 18 eb 3e be
       0.0565819 0.04079283 -0.12096828 -0.18644369
0002c0 1c 29 97 3b a2 a1 d8 bb f3 c2 df 3d 61 d7 00 3e
       0.004613055 -0.006611065 0.109258555 0.1258216
0002d0 de b2 65 3d 0a fa 7a bd fd be 1a 3e 5a 95 15 3d
       0.056078784 -0.061273612 0.15111919 0.036519386
0002e0 52 85 9c bd 8c 82 17 bc 51 75 07 bd e7 3c fa 3d
       -0.07642616 -0.009247433 -0.033070866 0.122186475
0002f0 81 db 8b bc 1d 8a 84 bd 7f 22 af bc a4 08 19 3e
       -0.017072441 -0.064716555 -0.021378754 0.14944702
000300 30 73 88 bd 07 af dc bd 40 26 94 bd ab d5 4a bd
       -0.06662595 -0.10775571 -0.07233858 -0.049520176
000310 04 07 c0 3d 98 a6 06 bd 42 ba 29 3e 4a 7c 05 bc
       0.09376338 -0.03287372 0.16574958 -0.008147309
000320 95 f6 03 be e7 49 f2 bd cb 15 a1 bd 6f f8 04 3e
       -0.12887032 -0.11830502 -0.07865485 0.12985395
000330 0b 51 30 be dd e5 ee bb 7f 49 8d bc 28 86 87 bb
       -0.17218415 -0.0072905854 -0.01724696 -0.0041358657
000340 00 fc a2 3d f3 81 fb bd 7a bf be 3d ee b2 ad 3d
       0.079582214 -0.12280645 0.09313865 0.08481394
000350 4a 08 d1 bd ef 01 37 3e de b6 a0 3d 4c 47 94 39
       -0.10206659 0.17871831 0.07847379 0.0002828188
000360 30 4e 03 3d 21 11 4a 3c 72 2a f0 bd d3 18 e4 3d
       0.032056987 0.012333185 -0.11726846 0.11137547
000370 7d ea 01 3e 2b 40 01 be 96 cc c8 3d fa 16 0a be
       0.12687106 -0.12622134 0.09804647 -0.13485327
000380 de df 09 be d3 0a b1 3d ae c1 3c 3e da 34 a0 bd
       -0.13464305 0.08644643 0.18433258 -0.07822581
000390 24 13 8b 3c 42 73 e6 bd e6 df e9 bd 6b 6b c8 3d
       0.0169769 -0.112524524 -0.11419658 0.09786113
0003a0 04 f1 f0 bc de 75 c4 bc c2 22 84 bd 2e e6 17 3e
       -0.0294118 -0.023981985 -0.06451942 0.148339
0003b0 e7 f0 33 3e 70 11 18 bd ed 86 ed 3d b9 93 87 bd
       0.17572366 -0.037126005 0.11598001 -0.06619973
0003c0 8f f1 0d 3e 5b aa 87 3d 9d 1a 9b 3d 20 fb 1a 3d
       0.13861679 0.066242896 0.075734355 0.037837148
0003d0 d6 35 c5 bd ca 90 eb 3c a4 11 01 3e fe 61 42 bc
       -0.09629409 0.028755564 0.12604386 -0.0118641835
0003e0 6a 78 2c be 9a 2c 67 bd 59 c2 75 3d 8b de 4c bd
       -0.1684281 -0.05643902 0.059999797 -0.05001692
0003f0 8f 34 fc bd 99 d1 77 3d 8c 78 0e 3c 18 05 5e 3d
       -0.12314712 0.060502622 0.008695733 0.054204077

encoder_lstm.bias_ih_l0 f4 [128]
000000 5d 48 ef 3d eb c3 5a bd f8 16 4d ba 04 e5 b7 bc
       0.11683724 -0.0534095 -0.0007823552 -0.02244807
000010 06 0f 3c bc ba fe d1 3d 1a bb a6 3d 28 ac 96 3d
       -0.011478191 0.10253663 0.081411555 0.07357055
000020 83 a1 34 3e 8a 2d 13 3e 01 1a 10 3d 14 07 08 3e
       0.17639737 0.1437284 0.03518105 0.1328395
000030 80 88 e4 bd 68 f5 26 bd c0 3b 00 be f0 d3 67 bc
       -0.11158848 -0.04076138 -0.12522793 -0.014149651
000040 bd 1c e5 3d 53 70 9d 3d a7 68 41 be 94 29 e2 bd
       0.11187122 0.0768744 -0.18887578 -0.11043087
000050 6c dd 99 bc 77 31 06 bd 15 c0 46 bd b7 5f 86 3e
       -0.01878234 -0.032762017 -0.048523027 0.262449
000060 19 93 16 be ba 3c 74 bd cd 0a b4 3c 19 36 2d be
       -0.14704551 -0.059628226 0.021977806 -0.16915168
000070 ea b2 13 3d 03 60 35 3e f7 da ea 3d 8f 97 2a 3e
       0.036059298 0.17712407 0.114675455 0.16659378
000080 2c 31 04 3d 48 50 b7 bd f0 63 70 bd ea 43 03 be
       0.032273456 -0.08950859 -0.058689058 -0.12818876
000090 12 5e c7 bd 54 a8 29 be 79 1a df 3d d2 90 d9 bc
       -0.09734739 -0.16568118 0.10893721 -0.026558314
0000a0 68 20 2d 3e 11 75 dc 3d 88 1f a9 3d ae ad 0c 3e
       0.16906893 0.10764516 0.08257967 0.13738129
0000b0 a1 ee 62 bd 48 c3 14 be c3 6b e0 bd 25 01 1e be
       -0.055403356 -0.14527619 -0.10958054 -0.15430124
0000c0 62 a8 0e bd ce cf ce bd 65 8e f0 bd f4 33 b7 bd
       -0.03482855 -0.10098229 -0.117459096 -0.08945456
0000d0 83 b9 4a 3d 66 2f 55 3e 52 41 26 be 84 a3 0e 3d
       0.049493324 0.20818862 -0.16235855 0.03482391
0000e0 e2 b3 d6 3d d3 e6 18 be 84 c7 58 3d 59 a5 2c 3e
       0.10483529 -0.14931802 0.052924648 0.1685995
0000f0 50 5b ee bd 6c 03 e3 bd dd 49 43 be 1e 59 b4 bd
       -0.1163851 -0.11084637 -0.19071145 -0.0880606
000100 2b 86 69 3d 4d ee 74 3b 67 2c 31 3e 80 93 aa 3c
       0.05701272 0.0037373484 0.17302094 0.020822287
000110 bc 15 bf bd 21 b0 1e 3e bd ed 2e 3e 93 e3 d8 bc
       -0.093303174 0.15496875 0.17082877 -0.026475703
000120 10 2e 3d 3c 96 9a a9 3d f4 79 3b 3d 4f 1e 8b 3c
       0.011546627 0.08281438 0.0457706 0.016982226
000130 a4 7a 75 bd c6 5f 01 3c 78 19 89 3c 7e 23 0b be
       -0.059931412 0.007896369 0.016735777 -0.13587758
000140 73 ac e4 bd 52 c8 70 bd 0c de a2 bd 02 d1 a7 3b
       -0.111657046 -0.05878479 -0.07952508 0.005121351
000150 c6 e9 21 3e 0b 50 0a 3e 9a cb 9a bd ff 2a 13 be
       0.15811834 0.13507096 -0.07558365 -0.1437187
000160 b2 74 d5 bd 91 0e 25 3e a3 2f 12 bd 69 e6 42 3e
       -0.104226485 0.16118838 -0.03568996 0.19033207
000170 07 f3 0d 3e b3 26 27 3d 92 23 e6 bc 07 8e 78 bd
       0.13862239 0.04080839 -0.028093133 -0.060682323
000180 39 e0 24 be e9 95 26 bd 4b fd 8f bd 17 b9 ce bc
       -0.16101159 -0.04067031 -0.07030734 -0.025234742
000190 e8 d8 23 3c e6 dc 2b bd e3 e0 66 3d d3 64 a7 bd
       0.010000445 -0.041958712 0.056366812 -0.081735276
0001a0 fe 1e 43 3e 6a 31 65 bd 00 4e df bd 6b 51 4d 3e
       0.19054791 -0.055955328 -0.10903549 0.2005059
0001b0 07 0b 8c bd 10 d4 1e 3e f4 91 e1 3d e1 16 04 bd
       -0.06838041 0.15510583 0.110141665 -0.03224838
0001c0 c5 25 19 be 76 bc bb 3d 07 1e 02 3e 23 4d 05 be
       -0.14955814 0.091668054 0.12706767 -0.13017707
0001d0 ed b1 9e 3d 30 3c df bd 88 89 c2 3d 69 26 4f 3e
       0.077487804 -0.10900152 0.09498888 0.20229496
0001e0 2d ee 7d 3d 7c a0 66 bc 49 2a 2a bd 2e c0 f9 3d
       0.06199472 -0.014076348 -0.041544233 0.121948585
0001f0 be 9e d2 3d e0 c1 ef 3d 07 da 15 be 8d 6d ac bd
       0.10284184 0.117069006 -0.14633952 -0.08419333

encoder_lstm.bias_hh_l0 f4 [128]
000000 c9 08 dd bc 72 8f 3d bd c5 df 95 bc 47 df 94 bd
       -0.026981728 -0.04627938 -0.018295178 -0.07269149
000010 b9 e8 f6 3c 91 42 57 3d 47 bb 8b bc 9e 39 95 bd
       0.030140268 0.052553717 -0.017057074 -0.0728638
000020 1e d3 4e 3e ee ba 9e 3d b5 3c ac 3d a4 fe 20 3c
       0.20197722 0.07750498 0.084100164 0.009826336
000030 9d 79 a4 bd 6e 86 bd bd a3 b5 67 3d c7 c6 ee bd
       -0.080310084 -0.09254156 0.056569707 -0.116590075
000040 e2 d2 08 3d b5 02 4a 3e fa 78 cd bd 1d 25 a7 3c
       0.03340424 0.19727595 -0.1003284 0.02040344
000050 b8 e3 3f be b4 de b2 3d 88 3b c1 bd 16 9e 36 3b
       -0.18739212 0.087338835 -0.09435183 0.0027865223
000060 67 27 31 3d 75 57 15 be 2a 4e e0 bc 00 37 79 ba
       0.043250468 -0.14584143 -0.027381022 -0.0009506792
000070 2f 88 d5 3d f2 ac 1d be 3b 2f 18 3e a8 d1 02 bd
       0.104263656 -0.15398005 0.14861767 -0.031938225
000080 f9 52 8b bd c8 bc 5e bd b6 95 f6 3d 65 9a 15 3e
       -0.06802935 -0.054379255 0.12040274 0.14609678
000090 a8 bd 13 be 81 f3 25 3d 02 7d 47 3d fd 96 09 be
       -0.14427817 0.040515427 0.0487032 -0.13436504
0000a0 df a1 65 3d ec 96 f5 bd 21 7e 95 3b b6 dc b1 bd
       0.056062575 -0.11991677 0.004562155 -0.086846754
0000b0 f4 88 3f bd 49 86 cf bd 95 bc f9 bc 0a 13 ba 3d
       -0.046761468 -0.10133035 -0.03048543 0.09085663
0000c0 6a 27 21 3e 9c 9f cb bd 24 37 8e bd c2 4c 26 bd
       0.15737692 -0.099425524 -0.06944111 -0.040600546
0000d0 da f4 f0 bd fa e8 06 3d 33 6f 93 3c 9a cb da 3d
       -0.11765452 0.032937028 0.01799736 0.10683365
0000e0 c1 a9 dc 3d bb 26 18 be 80 8a c7 bd c0 17 04 3e
       0.107745655 -0.14858525 -0.09743214 0.12899685
0000f0 64 32 45 3d 5a 17 cc bd bd d9 9d 3d b0 8e c4 3d
       0.04814376 -0.099653915 0.07707546 0.09597528
000100 f6 34 19 bd ea ab 20 be b2 1a ce 3d 32 97 56 bc
       -0.037404023 -0.1569058 0.100636855 -0.013097571
000110 b5 2e 14 3e 40 7b 6c bd ac 03 15 bc f5 e3 01 3e
       0.14470942 -0.057734728 -0.009095114 0.12684615
000120 a2 7c eb 3c da f2 ec bd 77 98 e6 3c 29 4b 31 bd
       0.028745953 -0.11569758 0.028148873 -0.04328457
000130 32 c6 00 be 90 0a e4 bd 17 26 f4 3d f9 cb 00 be
       -0.12575606 -0.11134827 0.119213276 -0.1257781
000140 42 4d 31 bd b0 c7 f4 bd ce 85 1a be 65 22 0e be
       -0.04328657 -0.1195215 -0.15090105 -0.13880308
000150 f0 f3 0a 3e ab 00 99 3b b6 8a 86 3d d6 41 a0 bd
       0.13569617 0.004669269 0.06569426 -0.07825057
000160 b3 bc 24 3e 97 ad 53 bd ff cd 51 bd ed 1a ac bd
       0.16087608 -0.05167922 -0.051221844 -0.08403573
000170 fb 4c 17 3e 9e ea 44 be 0c 96 42 bc 29 63 2a bd
       0.1477546 -0.19230124 -0.011876594 -0.041598473
000180 ad 69 c0 3d 5b 49 c9 bd f4 a5 aa 3c 03 00 0b be
       0.09395156 -0.098284446 0.020831086 -0.13574223
000190 c1 61 23 3e 4b e0 fb 3d 5c 9e 32 3e 90 23 52 39
       0.15955259 0.1229864 0.17443222 0.00020040409
0001a0 ce e7 0f be 9e cf 14 3e 16 7b 15 3d 57 b0 97 3d
       -0.1405327 0.14532325 0.036494337 0.07406681
0001b0 50 57 2e 3e 80 7e 5c bd e0 a1 f0 3d 3a e0 8c 3b
       0.17025495 -0.053831577 0.11749625 0.004299191
0001c0 b2 40 39 3e 14 34 b2 bd ee 0e 0d be a5 14 9a bd
       0.18091086 -0.08701339 -0.13775226 -0.07523469
0001d0 fc a0 28 bd a7 60 25 3e be 8a 17 bd 04 e2 58 3e
       -0.04116915 0.16150151 -0.03699755 0.21179968
0001e0 30 70 02 bd d2 42 27 be 9a 55 92 bc ef 2c 9a 3d
       -0.03184527 -0.16334084 -0.017863084 0.07528102
0001f0 bb 43 2d be e5 ee da 3d 62 b5 8e 3c 78 10 d2 3d
       -0.16920368 0.10690097 0.017420474 0.102570474

dest_lstm_obs.weight_ih_l0 f4 [128, 2]
000000 75 3b a1 3c 13 f1 43 be 76 e8 81 bd 28 4d c9 bd
       0.019681672 -0.19134931 -0.063431665 -0.098291695
000010 3c 58 85 3c 09 e3 d8 3d 1f a6 e9 3d b5 30 76 3c
       0.016277425 0.105901785 0.11408638 0.015026261
000020 c7 60 88 bd 46 ca dd bd 09 88 3f be 07 ac ab 3d
       -0.06659084 -0.10829596 -0.18704237 0.08382421
000030 f4 f5 c7 bc 4c 26 ea bd f4 76 0c 3e 5e 44 b1 3d
       -0.024409272 -0.11433086 0.13717252 0.08655618
000040 b1 6e 20 be 6e ec d0 3d fa db cf 3d 34 3b 53 bd
       -0.15667225 0.102013454 0.10149379 -0.051570132
000050 9b 89 43 3e a0 48 e0 bd 1d 24 21 3e 40 18 86 bd
       0.19095461 -0.10951352 0.15736432 -0.06547594
000060 34 e6 81 3c 2e 9a b7 3a d1 e2 26 be 38 a8 05 3e
       0.01585684 0.0014007741 -0.16297461 0.13052452
000070 a8 39 24 bd b8 88 cc 3d f2 ee 02 be f8 7a c6 3d
       -0.040094048 0.099870145 -0.12786463 0.09691423
000080 79 84 dd bb 66 b7 e7 bc 9c dc f7 bd 61 5f d9 3d
       -0.0067601767 -0.028285693 -0.12102625 0.10613895
000090 ef 06 bf 3c e4 75 c5 3d ab 91 4a 3d 57 27 0b 3e
       0.023318736 0.096416265 0.049455326 0.13589226
0000a0 6f 13 a9 bd 7a c4 1c 3e 10 31 d1 3d 23 f3 9b bd
       -0.0825566 0.15309325 0.10214436 -0.07614734
0000b0 f6 6e f7 3d a6 8c 5d bd 65 87 73 bd 59 c9 cf 3d
       0.12081711 -0.05408921 -0.059455294 0.10145826
0000c0 bc e8 b2 bb 78 7d 17 be d4 97 8a 3c 02 93 16 be
       -0.005459873 -0.14793956 0.0169181 -0.14704517
0000d0 65 9a a9 bd 93 2d b2 3d f9 6d 25 be da 25 0e be
       -0.082814015 0.08700099 -0.16155232 -0.13881627
0000e0 73 dc ed bd b3 34 81 bc 58 de 21 3e 9a ae 2c bc
       -0.11614313 -0.0157722 0.15807474 -0.010539675
0000f0 93 7d c9 3d fd 17 f3 bd 1f da 03 3e f4 fe b6 bd
       0.098384045 -0.1186981 0.12876175 -0.08935347
000100 fc 60 c3 3a 1a 48 0b 3e 1b ec 20 bd be 12 ef 3b
       0.0014906223 0.13601723 -0.039287668 0.0072959354
000110 8b cd 31 3c b4 9b 23 3b d6 5e ab bd dc 41 9c bd
       0.010852228 0.0024964632 -0.08367698 -0.07629749
000120 ac 58 68 3c 12 6e 30 3d 99 94 f2 bb 38 71 5c bb
       0.014181297 0.04307372 -0.007402968 -0.003363682
000130 aa 05 5b 3d b2 b0 bf 3d a0 1f 3e be 9e b1 bc 3d
       0.0534722 0.09359874 -0.18566751 0.09213565
000140 58 df 0e be 7c bb f8 3d cb 3a e6 bb 21 71 dd bd
       -0.13952386 0.12145135 -0.0070260516 -0.10812593
000150 da 24 fc bd 6c 63 cd bd 74 5f 5f bd 38 b8 ba bc
       -0.123117164 -0.10028729 -0.05453439 -0.02279292
000160 69 7f 19 be 76 d1 e2 3d 06 4c 82 bd b7 1f 6a bc
       -0.1499001 0.11075108 -0.063621566 -0.014289788
000170 da 77 53 3d 32 74 bd bc 30 08 0e 3d 11 ae 8f bd
       0.05162797 -0.023126695 0.034675777 -0.070156224
000180 a6 58 bb bd ec f7 dd bd 54 c0 a6 bb 82 26 ce 3d
       -0.09147768 -0.10838303 -0.0050888453 0.100659385
000190 8d c8 f6 3d 27 e6 3f be 92 d3 51 bd 24 db 3a be
       0.12049971 -0.1874014 -0.05122716 -0.18247658
0001a0 2f c1 b0 3c b5 f0 01 be f3 8f df 3d 88 27 08 3e
       0.021576492 -0.12689479 0.10916128 0.1329633
0001b0 f0 97 ab bd 0e 6a a8 3d 07 a6 62 be be 9b d9 3d
       -0.08378589 0.08223353 -0.22133647 0.106254086
0001c0 50 21 29 3d 3b be 09 3e ba c1 bf ba 5e fe 87 bd
       0.041291535 0.13451473 -0.0014629879 -0.066403136
0001d0 3d a2 87 3d 60 61 f6 bd 96 e8 de 3b dc da e9 bc
       0.06622741 -0.120302916 0.0068026287 -0.028546743
0001e0 10 29 10 3e 3f 8d 03 3d b6 cf 91 bd 1a c0 ff bc
       0.14078164 0.032117125 -0.07119696 -0.03121953
0001f0 ce 7c dd bd 80 7b 2e be fb 49 c3 bd b4 aa 8d 3b
       -0.1081482 -0.17039299 -0.09535595 0.004323328
000200 2e ec 18 be f1 0e 4c bd 71 22 c6 3c 4e cc 6f 3d
       -0.14933845 -0.049818937 0.024186345 0.05854445
000210 52 ab 87 bd 02 1f f1 3c 2b 88 1a bd ae ec 68 3d
       -0.06624474 0.029433731 -0.037727516 0.05686634
000220 55 63 20 be 62 e4 1c 3e be d3 ec 3d 83 8d a3 3d
       -0.15662892 0.15321496 0.11563824 0.079859756
000230 b3 ce 0c 3e 27 99 11 be 8e e8 2a 3d ce f4 94 3d
       0.13750724 -0.14218579 0.041725688 0.07273255
000240 f8 5b 72 ba 2c d7 0c be 93 62 de bd 6f 2c 80 bc
       -0.0009245272 -0.13753957 -0.10858645 -0.015646188
000250 64 c7 88 3d db a7 af bd f6 74 d8 3d ba f6 ac bd
       0.06678656 -0.08576938 0.105691835 -0.08445497
000260 70 97 5a 3c af e5 0f 3d 56 fa b1 3c 4d d0 28 3d
       0.01334177 0.035131153 0.021725815 0.041214276
000270 ba f0 1e bd a0 c2 07 be 6a ef 06 3e 00 d9 27 be
       -0.038803793 -0.13257837 0.13177267 -0.16391373
000280 66 35 ca bd e4 b3 4c ba 86 1a f6 bc 49 93 a7 3d
       -0.09873466 -0.0007808788 -0.030041944 0.08182389
000290 5c 65 6d 3d 28 26 97 bc a0 58 cd bb 8b e6 0f bc
       0.057957992 -0.018450812 -0.0062666684 -0.008782993
0002a0 cf 1d fd bd 23 78 73 bd 81 63 c7 bc e7 7a 87 bc
       -0.12359201 -0.059440743 -0.02433944 -0.016538097
0002b0 d6 c8 14 be 71 87 0c 3e 57 4a 03 3e 18 a1 bb bd
       -0.14529738 0.13723542 0.12821327 -0.091615856
0002c0 88 f1 8f bb df 65 bc 3d d3 78 da 3d de b9 c9 3d
       -0.0043928064 0.09199118 0.10667577 0.098499045
0002d0 5f cd 09 3e 70 27 14 bd 12 02 86 3d 5c 55 e4 3d
       0.13457249 -0.036170423 0.06543364 0.111490935
0002e0 63 53 0d bd 38 7a d0 3d 86 10 36 bd 32 74 15 be
       -0.034503352 0.101795614 -0.04444935 -0.14595106
0002f0 b3 62 c0 bc 89 df 49 3d 83 36 0a 3e 00 2c 58 3d
       -0.023484563 0.049285445 0.13497357 0.052776337
000300 f6 64 cb bd f8 d3 dc 3d 24 96 df bd d8 9e d7 bb
       -0.09931366 0.10782617 -0.10917309 -0.006580215
000310 53 1c 37 bd 27 db 06 3e 34 11 83 bd c9 13 d7 3d
       -0.044704746 0.13169537 -0.063997656 0.105018206
000320 c4 49 a3 bd 06 7b 0a bd 56 9a 78 bc 8e f0 45 3d
       -0.07973054 -0.03380873 -0.015173515 0.048325114
000330 8e 04 e9 3d 8e 4e 62 bc 8a 98 9f bd 16 21 6b 3c
       0.11377822 -0.013812674 -0.077927664 0.01435115
000340 a0 fc 15 bc be 72 e7 3d 1d e9 97 3d f5 02 81 3d
       -0.009154469 0.11301182 0.0741751 0.06299392
000350 24 95 75 3d 24 ad 06 bd 67 44 2b bd 6e 02 09 be
       0.059956685 -0.032879964 -0.04181328 -0.13379833
000360 c7 65 04 3e 82 82 16 be 94 81 1e be 40 72 d0 3d
       0.1292945 -0.14698222 -0.15479118 0.101780415
000370 bb ca 7b 3d 84 75 21 be 5c 59 3a be 49 86 0b 3e
       0.061472636 -0.15767485 -0.1819815 0.13625444
000380 11 03 05 3d b7 10 e9 bd 45 bd 6b 3d 82 37 fd bd
       0.032473627 -0.11380141 0.05755355 -0.12364103
000390 e7 62 89 3d 6c 1b 35 be 9d 52 f8 bd 88 57 d7 3d
       0.06708317 -0.17686242 -0.12125132 0.10514742
0003a0 1d ed 8d 3d 4a 3e 60 bd d8 02 1b be bd 4d 79 3d
       0.069299914 -0.054746903 -0.15137804 0.060865153
0003b0 9b bc c7 3b f6 02 1f bd 34 48 09 3e 16 fd 8d bd
       0.0060954816 -0.038821183 0.1340645 -0.06933038
0003c0 b0 52 c5 3c 59 9f d9 3d 12 10 c4 3d de cf 98 3d
       0.02408728 0.10626096 0.09573378 0.074615225
0003d0 59 b3 0a 3e 59 3c 1d be ff 59 16 3e e8 2a fe 3d
       0.13544978 -0.15355052 0.14682768 0.124105275
0003e0 b8 c2 50 bd 53 df 79 3d b2 fd 81 3d cd 8c d6 3d
       -0.05096695 0.061003994 0.06347217 0.10476074
0003f0 96 b6 00 bd 60 9d ec bd 0f 7b a0 bd fe 36 7f 3d
       -0.031424128 -0.115534544 -0.078359716 0.062308304

dest_lstm_obs.weight_hh_l0 f4 [128, 32]
000000 26 78 4e 3e e1 31 38 be 89 dd dc bc 18 6d 09 be
       0.2016302 -0.17987777 -0.026961105 -0.13420522
000010 59 db 43 3c 0f 13 d5 3d b8 36 fc 3d 84 16 27 be
       0.011954152 0.10404026 0.12315124 -0.16317183
000020 96 02 48 3e c2 24 3c 3e 03 bd cc bd 48 9f e3 38
       0.19532236 0.18373397 -0.099969886 0.00010853872
000030 04 39 f9 bd f8 3d 94 bd 06 4e 13 3e 71 06 45 3e
       -0.12169078 -0.07238382 0.14385232 0.19240738
000040 b5 04 ce 3d c8 06 73 bd 5b 3d 3d bd b6 ea 02 3e
       0.100594915 -0.05933264 -0.04620109 0.12784848
000050 84 64 b6 bd 78 36 d6 3d c6 e8 23 bd 35 54 a4 bd
       -0.089058906 0.10459608 -0.040016912 -0.08023874
000060 c6 09 ca 3a 80 2c 4c bc 36 e0 8c 3c bb 1d 48 be
       0.001541429 -0.0124617815 0.017196756 -0.19542591
000070 9a c1 0a be ee 2d 00 be 2c 38 32 be 6a 4a 0b be
       -0.13550416 -0.12517521 -0.1740424 -0.13602605
000080 aa 8d 99 bd 6e 8b b0 3a 34 68 33 3e 82 93 f4 3b
       -0.074977234 0.0013469288 0.17520219 0.0074638734
000090 d6 22 57 3d c8 95 e5 bd a7 cc 9e 3c 3c 54 aa bd
       0.052523457 -0.11210209 0.019384695 -0.08316848
0000a0 5c 36 61 3c d6 2b e0 3d de f6 04 be 48 a6 06 3e
       0.01374587 0.10945861 -0.12984797 0.13149369
0000b0 33 8f 27 3e 24 4d a8 bc 82 8b d2 ba ad ad c4 bd
       0.1636322 -0.020544596 -0.0016063305 -0.096034385
0000c0 78 e9 03 be d4 82 88 3c 8c 9d 31 be ef 27 18 be
       -0.1288203 0.016663946 -0.17345256 -0.14858983
0000d0 b0 1d 07 bc f7 0e 2f bc 21 8b ab bc 98 ed 06 be
       -0.008246824 -0.01068472 -0.020940365 -0.13176572
0000e0 55 11 33 3d 9e 3f 0c be 42 a1 4e be ed 13 75 bd
       0.0437177 -0.13696143 -0.20178702 -0.059833456
0000f0 5a 62 6d bc 01 40 10 be 20 d3 23 3d 50 e0 bf 3d
       -0.014488781 -0.14086916 0.039996266 0.09368956
000100 0c 8d 3b bd 1e 63 9e 3d 66 90 32 3e b3 0f c4 bd
       -0.04578881 0.07733749 0.17437896 -0.09573307
000110 cf 1f 96 bd 08 ae d0 3d 82 07 49 3e 6f b3 84 bc
       -0.07330286 0.10189444 0.1963177 -0.016198842
000120 7b db 55 3e 32 1f 58 bd 12 2d 92 3d 3a 3e 33 3d
       0.20884506 -0.052764125 0.07137503 0.043760516
000130 ea 40 b2 3d c5 e9 40 be 92 0c bf bc 08 2e b9 bd
       0.087037876 -0.18839176 -0.023321424 -0.09041983
000140 38 8c 99 3d 7b 77 10 3e 98 69 db bd 7e d0 e5 3d
       0.07497448 0.14108078 -0.107135 0.11221407
000150 34 a7 c2 3d 0a a4 05 be dd ed eb bd e0 f5 c2 bd
       0.09504548 -0.13050857 -0.11519978 -0.09519553
000160 0d f7 99 bd b2 cb e5 3d df 65 a2 3d c1 b0 bf bd
       -0.07517824 0.112204924 0.079295866 -0.09359885
000170 28 21 2f be 30 b8 a7 bd bd b2 11 be 03 88 bc bd
       -0.17102492 -0.08189428 -0.1422834 -0.0920563
000180 82 63 43 3e 6c 35 e8 3d 0e e8 8a 3d 76 43 29 be
       0.19080928 0.113383144 0.06782542 -0.1652964
000190 90 51 b0 bd bb e7 7a bc 92 d8 53 3e 14 c8 20 3c
       -0.08609307 -0.015314038 0.20688084 0.009813327
0001a0 b6 1d 88 3b 21 7a 24 3e 26 27 6e 3d f1 75 85 3e
       0.0041539324 0.16062213 0.058142804 0.26066545
0001b0 a8 34 dc 3d a6 4d 3f bd 47 65 c0 bd 1e 7c 86 bd
       0.10752231 -0.04670491 -0.09394317 -0.06566642
0001c0 41 99 83 3d dc 63 a5 bd 50 02 0a be 02 15 8d 3d
       0.06425715 -0.08075687 -0.13477445 0.068887725
0001d0 d7 0f 28 3e c3 e5 27 3e ad b9 fa 3d 58 95 48 3e
       0.16412292 0.16396241 0.12242446 0.1958822
0001e0 cd ee 1a 3d be cf ab 3c 6f d3 99 3d 68 bf bb 3d
       0.037825394 0.020973083 0.07511031 0.09167367
0001f0 62 f6 a7 bd 9e 2a 46 3e 7c 49 92 bd 8f cf 4d 3d
       -0.08201291 0.19352195 -0.07142922 0.05024677
000200 fa a2 eb 3a e4 e2 45 bc 34 8d b0 bd dc a5 ca bd
       0.0017977648 -0.012078021 -0.08620682 -0.098949164
000210 45 5c db bd d4 ff 11 bd c6 25 fe bc ee 3d 3c bd
       -0.107109584 -0.035644367 -0.031023871 -0.0459575
000220 4e 15 cb bd 8b 00 39 3e 87 5a 0f 3d ca f6 6f be
       -0.09916173 0.18066613 0.034998443 -0.23433986
000230 10 82 48 be 05 16 5c 3c 4e 8e 1b 3e ed 20 a5 3d
       -0.19580865 0.013432984 0.15191004 0.08062921
000240 99 14 7d 3d 27 fd 33 3d f5 ed b3 bd 9f 63 f7 bd
       0.06178722 0.043942597 -0.08785621 -0.12079548
000250 cb 8f ad bd 2a b1 32 bd 91 77 9d 3c 5f a2 c4 3c
       -0.08474692 -0.043625988 0.019222053 0.024003206
000260 58 6e 12 3c 33 3f af 3c 2d 2a d7 3c b9 b4 ad bc
       0.008937441 0.02139244 0.026265228 -0.02120434
000270 9d d9 a8 bd ea 03 39 3d e0 de 1c 3d 6b 95 94 bb
       -0.082446314 0.04516975 0.038298488 -0.0045344136
000280 47 05 41 3e f9 20 bf 3d be 1e 7f bd 93 90 da 3d
       0.1884967 0.09332461 -0.062285177 0.106721066
000290 ea 7e 06 3e 4d 20 42 3d 19 81 6c 3d 5a df ef bd
       0.13134351 0.047394086 0.057740305 -0.11712523
0002a0 3a a7 31 3e 16 bc 34 3d e8 2e be 3d 0e 20 20 3a
       0.17348948 0.044124685 0.092862904 0.0006108292
0002b0 17 17 89 3d 79 f5 74 3d b5 6f 89 3d 46 34 ea 3d
       0.06693857 0.059804413 0.067107596 0.114357516
0002c0 35 2e b9 3d 70 b5 be 3d c0 d6 3d be 00 b8 9d 3c
       0.090420164 0.0931195 -0.18538952 0.019252777
0002d0 39 39 ff 3d a4 eb 42 bd 79 dc 9e 3d fc fe ef bc
       0.12462086 -0.047588006 0.077568956 -0.02929639
0002e0 3b 88 06 3d 2e df 30 be 39 b3 3e be 3c e6 f9 3d
       0.032844763 -0.17272636 -0.18623056 0.12202117
0002f0 f6 0f 3e be 99 62 57 bd 0f 6a 87 3c 83 45 ea bb
       -0.18560776 -0.052584264 0.016530065 -0.0071493997
000300 4f 26 5a 3e 8f 65 ca bd f6 0b 40 3e 7b 5c d9 3d
       0.21303676 -0.09882652 0.18754563 0.106133424
000310 54 6c 01 3e b2 51 08 3e 9c 80 93 bd 01 f0 97 3d
       0.1263898 0.13312414 -0.07202265 0.07418824
000320 dc e3 55 bd 10 b1 7a 3d 5d 25 88 be 9f 4d 9b 3d
       -0.052219257 0.061204016 -0.26591006 0.075831644
000330 f6 53 d4 bd 3e c7 0b 3e 0a 00 38 bd e0 1e 25 be
       -0.10367577 0.13650224 -0.044921912 -0.16125059
000340 c9 a5 81 3e f1 9c c0 bd 3d c1 05 bd 6b 8b 4e bd
       0.25321797 -0.09404934 -0.03265499 -0.050425928
000350 5c 00 85 3b 1c a3 73 3e 75 80 28 3d 02 1b 03 3d
       0.0040588807 0.2379269 0.04113813 0.03200818
000360 03 95 d2 bd 1e cc 7b be 7c 71 63 be d5 fb de 3d
       -0.10282328 -0.24589583 -0.2221126 0.10887877
000370 17 c6 82 bc 74 6f 35 3d 54 03 04 3e f0 e3 63 bc
       -0.015963597 0.044295743 0.12891895 -0.013909325
000380 e4 aa 80 3d 62 57 fe bd f2 52 c7 3d d1 df 24 be
       0.06282595 -0.12419011 0.097326174 -0.16101004
000390 88 5a 95 3d 31 cf ac bc 46 58 32 bc 09 d0 38 3d
       0.07292658 -0.02109489 -0.010885304 0.045120273
0003a0 89 4f b1 3d 2d 09 58 3d 9b a7 be bd 2d 1e 7a be
       0.08657748 0.052743126 -0.09309312 -0.24425574
0003b0 7b 71 ac 3d 7c 1a 03 bd d7 ab 9d bd 39 00 c3 bc
       0.08420082 -0.03200768 -0.076987915 -0.023803817
0003c0 16 52 16 be 0c 13 3e bd 93 3b 57 bd 0b 6e ee 3d
       -0.14679751 -0.046404883 -0.05254705 0.11642083
0003d0 a7 4e 97 3d b4 e7 10 3c 10 26 99 bc 48 b7 5c bd
       0.073880486 0.008844305 -0.018694907 -0.053885728
0003e0 9a 0a a5 bc 62 df 2a 3d 12 47 0c bd 2e 95 89 bd
       -0.020146657 0.04171694 -0.034247465 -0.06717907
0003f0 10 8c 6a 3c 2b 30 6f bd a4 8e ef 3d 82 d4 f7 3d
       0.01431562 -0.058395546 0.116971284 0.121010795

dest_lstm_obs.bias_ih_l0 f4 [128]
000000 7e 1f e8 3d 1e ad 38 be 49 d4 34 bd 38 a4 6d bd
       0.11334132 -0.18034789 -0.044147763 -0.05801794
000010 7a 8f dc 3d 3d 2e bb bd bb 0b 60 bd c8 59 ea 3a
       0.107695535 -0.091396786 -0.054698687 0.001787954
000020 1a bd 17 be 08 bb 13 be d9 1f 92 bd cc 06 a6 3d
       -0.1481823 -0.14426816 -0.07134981 0.08106765
000030 cd 5e 86 bd 52 8b ad bd 55 54 23 3d 38 8b d1 3d
       -0.065610506 -0.08473839 0.039875347 0.10231632
000040 0f 53 db 3d 49 81 19 bd 42 a1 c2 bd 39 f0 8c 3d
       0.107092015 -0.03747681 -0.09503414 0.06881756
000050 c6 6c b3 3d 98 5a 9d bd 4b 6b 4e be ee ca 5b 3d
       0.08760981 -0.07683295 -0.20158117 0.053660326
000060 3e fb 02 bd 21 98 96 bd 84 98 12 bd f6 30 4e bc
       -0.031977884 -0.07353235 -0.03578998 -0.012584915
000070 ce 4b 39 bd fd 4e fa 3d 62 6d 5c 3c fc 32 d0 bd
       -0.04523831 0.12222097 0.013453813 -0.101659745
000080 64 1a 18 be ae 75 9c bd ec b0 12 be 1a b0 d7 3d
       -0.14853817 -0.07639633 -0.14325303 0.105316356
000090 55 ba 40 be 18 ca fd b7 04 c4 f4 3c b5 4b 7a bc
       -0.1882108 -3.0254057e-05 0.029878624 -0.015276839
0000a0 e6 0e f0 bc 93 6e eb 3d ca 3e 2d be 9c be 64 3d
       -0.02930398 0.114957 -0.16918483 0.05584584
0000b0 d4 eb 24 be dc 37 89 3d aa 6e 50 bd 90 da 68 be
       -0.16105586 0.067001075 -0.050886787 -0.22739625
0000c0 15 30 45 be 8a 48 06 3e ac 7b 3e be 6c 6b f9 3c
       -0.19256623 0.13113609 -0.18601865 0.03044673
0000d0 7c c0 03 be 89 ea 58 3d cc d3 bd 3d 36 af 46 3d
       -0.12866396 0.052958045 0.09268913 0.048506938
0000e0 34 ae ee bd 7e 83 ec 3d 0f 7a 36 bc 63 eb bd 3d
       -0.1165432 0.11548518 -0.0111374995 0.09273412
0000f0 ce 78 1a be ec 4d b7 bd eb c8 66 3e d4 dd f7 3b
       -0.15085146 -0.08950409 0.22537582 0.007564286
000100 d8 a1 e1 3a 45 9f 72 3d 6f 84 ee 3d d6 f9 02 be
       0.0017214371 0.059233923 0.116463535 -0.12790617
000110 6e 9a c4 3d 42 ab c6 bc eb 34 a9 bd 36 5c 5f bd
       0.095997676 -0.024251584 -0.082620464 -0.0545313
000120 63 ab b1 bc 0a 05 73 bc 46 eb 91 3d 59 22 0d 3e
       -0.021688169 -0.014832744 0.07124953 0.13782634
000130 fa 28 27 3e 83 88 1b 3d 62 a6 03 bd 79 aa 29 be
       0.16324225 0.037971985 -0.032141097 -0.16568936
000140 bb e2 a8 3c ca 4b e8 3b 7e 18 b9 3d 7e fc 5f bd
       0.020615926 0.007089113 0.09037875 -0.054684155
000150 f6 c4 30 3c 3b 0f c5 3c 9b 90 e6 3d 52 68 9d bd
       0.010789147 0.024055114 0.1125805 -0.07685913
000160 30 c0 7c 3e f8 be 30 bd 5c ee e6 bc b2 75 85 bd
       0.24682689 -0.043150872 -0.02818983 -0.06516589
000170 db 46 95 3d a1 31 06 3e 94 be ba bd 0a cb 6b 3d
       0.07288905 0.1310487 -0.09118381 0.05756668
000180 39 cf 4a bd 11 bd 9f 3d 90 bb b0 bd 49 57 e3 3d
       -0.04951403 0.077997334 -0.08629525 0.11100633
000190 b6 35 40 3d 02 a0 88 bd 71 42 8e bd cd 34 43 be
       0.046926223 -0.06671144 -0.069462664 -0.1906311
0001a0 f2 44 54 be 4a 5f 1c 3e 8e b7 2d 3e ba 48 b4 bd
       -0.20729426 0.15270725 0.16964552 -0.08802934
0001b0 b3 88 18 3e 8d 30 b6 3d 16 ec a1 bc a7 fb 84 bb
       0.14895897 0.08895979 -0.019765895 -0.0040583196
0001c0 3e 20 51 bd 0a bf 22 bc 10 d9 29 bd d8 68 1c be
       -0.05105614 -0.009933243 -0.041466773 -0.1527437
0001d0 2f 91 14 3e 8c 94 34 bb 9a 66 f5 3d 14 f6 3f be
       0.14508508 -0.002755436 0.1198246 -0.18746215
0001e0 b0 de 28 be 6b ee 93 bc b0 22 9e 3d dd 7c 3d 3d
       -0.16491199 -0.018058022 0.0772146 0.046261657
0001f0 9a bd 24 be 32 12 dd bd 84 b8 0f 3e f3 f7 08 3e
       -0.16087952 -0.10794486 0.14035231 0.13375835

dest_lstm_obs.bias_hh_l0 f4 [128]
000000 df d5 77 3d 03 54 a3 bd 4e 03 26 bc 8d 07 e1 3d
       0.060506698 -0.07975008 -0.010132624 0.10987768
000010 6d b9 04 be ca e3 fa 3d ce 28 35 3d 6e 34 15 be
       -0.1296136 0.122504786 0.044228368 -0.14570782
000020 b1 3d 0a be e2 d1 92 3d 29 1f b1 bd 98 19 16 3d
       -0.13500096 0.07168938 -0.086485215 0.0366455
000030 de d5 31 3d 47 f9 ac bd 80 11 e2 3d 4f 9f 78 bd
       0.04341685 -0.084459834 0.11038494 -0.060698804
000040 51 bd 6c bd c5 d8 b2 bd 85 a5 34 be f2 01 92 3d
       -0.057797734 -0.08732752 -0.17641266 0.07129277
000050 7d 27 e2 bc a2 93 e3 bd e2 fa 3d be df 69 0f 3e
       -0.02760672 -0.11112143 -0.18552735 0.1400523
000060 21 d2 19 be 16 e0 52 3d 77 5d de 3d 31 62 47 bd
       -0.15021564 0.051483236 0.10857671 -0.048677627
000070 fc 2f 15 3d b0 3f f9 3d 05 66 81 3d 12 6b 6c 3b
       0.036422715 0.121703506 0.06318287 0.003607456
000080 5c 03 34 be 39 94 0e 3e ed ae d8 bc fa 64 02 be
       -0.17579406 0.1392373 -0.026450599 -0.12733832
000090 e5 98 a6 3d 3b a4 3c be 68 2e ba bd 1b f8 91 bb
       0.08134631 -0.18422024 -0.090908825 -0.0044546253
0000a0 52 a3 d2 3d 1f b6 ac bc 96 3b a3 3d 90 dd 8a bd
       0.10285057 -0.021082936 0.079703495 -0.06780541
0000b0 8c 61 2b 3e 00 55 11 bb 57 ba 06 bc a4 4b 9c 3d
       0.1673643 -0.0022175908 -0.008223138 0.07631615
0000c0 2c 01 17 3d d4 cd b0 bd 08 be e6 bd 42 b3 26 3e
       0.036866352 -0.086330086 -0.11266714 0.16279319
0000d0 5d 95 25 be 4d f2 f2 bd 77 31 d8 3d 8a 5b 64 3d
       -0.16170259 -0.118626215 0.1055631 0.05575136
0000e0 30 f3 c1 3d 30 5d 96 bc af fc 2b 3c f9 fa 04 3e
       0.094702125 -0.018354982 0.010497256 0.12986363
0000f0 be d3 ea bc 9a c8 92 bd 13 84 87 bd a2 92 34 be
       -0.02866542 -0.07167168 -0.06616988 -0.17634061
000100 3b f2 3c 3d 01 48 26 3e 2c e3 ba bc dd 47 10 be
       0.046129446 0.16238405 -0.022813402 -0.14089914
000110 59 75 b3 3c 4b f9 00 3e 6c c9 83 3c 50 99 d5 bd
       0.021906542 0.12595098 0.016087256 -0.10429633
000120 0c 1b 7e 3d 07 2e 9f bc 63 52 21 3d 74 cb 9e bd
       0.062037513 -0.019431127 0.03938521 -0.07753649
000130 77 8e b8 3d 02 fe e4 bd fe 2b db bd d5 7e 32 bd
       0.09011548 -0.11181261 -0.1070175 -0.043577988
000140 d8 6a 3a be 7d f3 19 3e 99 ef 3e be 9f d8 58 3c
       -0.1820482 0.1503429 -0.18646087 0.01323524
000150 60 4e e3 3d 5a 67 b3 bc c5 e6 4b be bd f9 11 be
       0.11098933 -0.021899868 -0.1991225 -0.14255424
000160 bf 53 64 bd 61 9a 36 3e 50 05 ee bd 12 72 44 3d
       -0.05574393 0.17832328 -0.11622107 0.04796035
000170 57 ba 27 be ae 8f e8 bd 3a 7a 15 be ff 9f d9 3c
       -0.16379677 -0.1135553 -0.14597407 0.02656555
000180 4f 28 66 bd 9e f7 49 bb 19 64 47 be 32 5f eb 3d
       -0.056190785 -0.0030817757 -0.19471778 0.114927664
000190 98 ef 3f 3c 73 78 b7 3d 85 2b 0c 3e 0a 56 e6 3c
       0.011714838 0.08958521 0.13688476 0.028117198
0001a0 bc 25 28 3d b0 1c 3d 3c 58 77 39 3d 21 64 41 3c
       0.04105161 0.011542484 0.04527983 0.011803658
0001b0 69 cf 21 be f4 63 11 be 9e 32 7f 3d 76 c4 5e bd
       -0.15801777 -0.14198285 0.06230413 -0.05438658
0001c0 df da ab bd f2 9e 38 bd 0c 18 74 3c a6 36 d3 bd
       -0.08391356 -0.045073457 0.014898311 -0.10313158
0001d0 c4 33 d0 3d de 26 8a 3d 79 e8 ae 3d f6 c9 59 3d
       0.101661235 0.067456946 0.085404344 0.05317112
0001e0 4e 61 c4 bc 2b 7d a3 bd 78 ee 4e be 9c b9 c8 bd
       -0.02397218 -0.07982858 -0.20208156 -0.09801027
0001f0 42 dc 31 be 89 1b dc bd 44 b6 0e be 34 fe 69 bd
       -0.17369178 -0.107474394 -0.13936716 -0.057127193
