do_tp_checkpoint_final.pt (torch, 156661 bytes, 26 tensors)

linear_enc.weight f4 [64, 2]
0	0xbf281847	-0.65662044
1	0xbcd9cb94	-0.026586331
2	0x3db4e4be	0.088326916
3	0xbe5caf3f	-0.21551226
4	0xbdcfdb00	-0.10149193
5	0xbd9e2b82	-0.07723142
6	0xbda90deb	-0.08254608
7	0xbd25881f	-0.04041302
8	0x3ecfaed3	0.40563068
9	0x3ee31d0c	0.44358099
10	0x3f3b4d5a	0.73164904
11	0x3e669831	0.22518994
12	0xbf024f44	-0.509022
13	0x3f0cf48c	0.5506065
14	0x3f07cb27	0.5304436
15	0xbf1487d3	-0.5801975
16	0x3e24a697	0.16079174
17	0xbf127829	-0.572146
18	0xbe764cee	-0.24052784
19	0xbe55fb16	-0.20896563
20	0x3e7fdb47	0.24985991
21	0xbe02bba7	-0.12766896
22	0xbf1064fb	-0.56404084
23	0xbf100677	-0.56259865
24	0xbecaa221	-0.3957682
25	0xbc8d1508	-0.017221943
26	0xbf270ba5	-0.65252143
27	0xbe5fea80	-0.21866798
28	0xbf3c99b8	-0.73672056
29	0x3ede73d9	0.4344776
30	0xbf2df3fe	-0.6795043
31	0x3f191ec8	0.59812593
32	0xbe01307b	-0.1261615
33	0x3f0e51f9	0.5559383
34	0x3e142eae	0.14470932
35	0x3e841030	0.257936
36	0x3e4176fe	0.18893048
37	0xbf2dd853	-0.6790821
38	0xbe8a66d6	-0.27031583
39	0xbf06988a	-0.52576506
40	0x3e4f9552	0.20271805
41	0xbeb8a6ca	-0.3606475
42	0xbf3c6186	-0.7358631
43	0xbed64e36	-0.41856545
44	0xbce3fd99	-0.027830886
45	0xbcb71642	-0.02234948
46	0xbdd9d439	-0.106361814
47	0xbead0a96	-0.3379714
48	0x3cfa720f	0.030571966
49	0xbf0f4cc4	-0.5597651
50	0x3e5b2bb9	0.21403398
51	0x3f06605b	0.52490777
52	0xbeadcad6	-0.33943814
53	0x3f2cb0fe	0.6745757
54	0xbf263402	-0.6492311
55	0x3effd256	0.4996516
56	0x3f0af113	0.542741
57	0x3f3448b5	0.7042344
58	0xbeaa587c	-0.33270633
59	0xbea6e5dd	-0.32597247
60	0xbf1822d9	-0.59428173
61	0xbe439313	-0.19099073
62	0xbeff1bdf	-0.4982595
63	0x3f257b92	0.6464168
64	0xbddad66c	-0.10685429
65	0x3ed20ada	0.41023904
66	0xbe03cb7e	-0.12870595
67	0x3ea47a1e	0.32124418
68	0xbe349ad8	-0.17637193
69	0xbef0df32	-0.47045285
70	0x3f378de7	0.717009
71	0x3f3ad5e9	0.7298265
72	0xbf065f58	-0.52489233
73	0x3f35fbf5	0.7108758
74	0xbf0e5d27	-0.5561089
75	0xbdcdefac	-0.100554794
76	0x3ecc2e46	0.39879054
77	0x3efb1a50	0.49043512
78	0x3ecc09cd	0.39851227
79	0x3f1cefd8	0.6130347
80	0xbe993f40	-0.29931068
81	0xbecc3990	-0.39887667
82	0xbf0acbba	-0.5421711
83	0xbdc355ed	-0.095378734
84	0xbed20a8f	-0.4102368
85	0x3e0b7975	0.13620551
86	0xbd9437d3	-0.0723721
87	0xbf370883	-0.7149736
88	0x3ec6741b	0.38760456
89	0x3ea1c798	0.3159759
90	0x3f30823a	0.6894871
91	0x3eb0518b	0.34437212
92	0xbe6a9ade	-0.2291064
93	0xbdf9c9b7	-0.12196677
94	0x3f2e4a1c	0.6808183
95	0xbea583a1	-0.32326987
96	0x3f35c138	0.70997953
97	0x3e44f1ea	0.19232908
98	0x3d35953a	0.044331767
99	0xbdfb56c8	-0.122724116
100	0x3f34bfe6	0.70605314
101	0xbeb5e2ff	-0.35524747
102	0xbf16e6c0	-0.58945847
103	0xbe808e39	-0.25108507
104	0x3e20a871	0.15689255
105	0x3ef3ec77	0.47641346
106	0x3eb3363d	0.35002318
107	0xbe86e58c	-0.26347005
108	0xbe74a90e	-0.23892614
109	0xbf01629e	-0.505411
110	0x3e614c5a	0.22001782
111	0xbea9148e	-0.33023494
112	0xbda85d09	-0.0822087
113	0x3e1a9cea	0.1509892
114	0xbf191d5d	-0.5981043
115	0x3e471b96	0.19444117
116	0xbf00e04f	-0.5034227
117	0x3eb7aa99	0.35872343
118	0xbe12f0f5	-0.1434973
119	0x3d44bfcb	0.04803447
120	0xbf06c4f5	-0.5264428
121	0xbef9707c	-0.4871863
122	0xbf18fc05	-0.5975955
123	0x3e22f9ee	0.15915653
124	0xbec1506c	-0.3775667
125	0x3f08ae4f	0.53390974
126	0xbf180650	-0.5938463
127	0x3dd04260	0.1016891

linear_enc.bias f4 [64]
0	0xbf26926b	-0.65067166
1	0xbf10c4d4	-0.56550336
2	0xbe32ce79	-0.17461576
3	0x3f00482e	0.5011014
4	0x3ebb5e99	0.3659561
5	0x3e879b3f	0.2648563
6	0xbe916559	-0.28397635
7	0xbf2c5172	-0.67311776
8	0x3f221832	0.6331817
9	0x3eb6f152	0.35730988
10	0x3ea0784b	0.31341776
11	0xbe6329b2	-0.22183874
12	0x3eb2ff2b	0.34960303
13	0xbeb20a47	-0.34773466
14	0xbcece0df	-0.02891582
15	0x3f093c8f	0.5360803
16	0x3f129495	0.5725797
17	0xbf28d842	-0.65954983
18	0xbee9bddb	-0.4565266
19	0xbd1d1807	-0.038352992
20	0xbf2672c6	-0.6501888
21	0x3f17d936	0.5931581
22	0x3f08cc4c	0.5343673
23	0xbdab4cc8	-0.08364254
24	0xbf330f23	-0.6994497
25	0xbebd45a7	-0.36967203
26	0x3f0224ff	0.508377
27	0xbe85c3df	-0.26126
28	0xbf225a01	-0.63418585
29	0x3e2de8f3	0.16983394
30	0x3ed106fe	0.40825647
31	0xbf3154ce	-0.69270027
32	0x3decbf8c	0.11559972
33	0xbf026c08	-0.5094609
34	0x3f0be7be	0.54650486
35	0x3f0aa41a	0.5415665
36	0xbea601af	-0.3242316
37	0xbea74c24	-0.32675278
38	0xbf205431	-0.62628466
39	0x3efd6b16	0.49495763
40	0xbeab59ac	-0.33466852
41	0xbef1f57e	-0.47257608
42	0xbe6877fe	-0.22702023
43	0x3d845317	0.06461161
44	0x3eb40e34	0.35167086
45	0xbe975da5	-0.29563633
46	0x3b116342	0.0022184406
47	0xbecc7b47	-0.39937803
48	0xbe937ab4	-0.28804553
49	0xbf2b82f6	-0.66996706
50	0xbeb688a2	-0.35651118
51	0x3e01f454	0.1269086
52	0xbf213ea1	-0.6298619
53	0xbf0677cd	-0.5252655
54	0xbef90165	-0.48633876
55	0x3eaf120a	0.3419345
56	0x3ef471b7	0.47743008
57	0x3e223f6c	0.15844506
58	0xbcd5445a	-0.02603357
59	0xbeb82e47	-0.35972807
60	0x3e3a2579	0.18178357
61	0x3e8378a5	0.25677982
62	0x3ebbd1e0	0.3668356
63	0x3d45c498	0.04828319

encoder_lstm.weight_ih_l0 f4 [128, 64]
0	0xbd5f3fae	-0.05450409
1	0x3da4768c	0.080304235
2	0x3d47b900	0.048760414
3	0x3e17e753	0.14834337
4	0x3acf8768	0.0015833201
5	0x3da544e7	0.08069783
6	0xbe147cd4	-0.14500743
7	0x3e208e46	0.15679273
8	0x3da941c7	0.08264499
9	0x3e203df5	0.15648635
10	0xbd72afa8	-0.05924955
11	0xbc23937b	-0.009983893
12	0xbe226ded	-0.15862246
13	0x3dea5985	0.11442856
14	0x3a22b71c	0.0006207095
15	0x3da313a9	0.07962734
16	0x3d0569a4	0.03257145
17	0x3dac2bc7	0.08406787
18	0x3d89386a	0.06700213
19	0xbd85af6d	-0.065276004
20	0xbe1294d8	-0.14314592
21	0x3dbad02d	0.09121738
22	0xbe3565d6	-0.17714629
23	0x3d3dd294	0.0463434
24	0xbd02c6d0	-0.031927884
25	0x3cbb9074	0.022896029
26	0xbdaf080f	-0.08546459
27	0x3e076e8e	0.13225767
28	0x3e25fb0e	0.16209051
29	0x3e0f0e4b	0.13970296
30	0xbe1dbc09	-0.15403761
31	0xbda3b5d9	-0.07993669
32	0x3ddda3cb	0.10822257
33	0xbdf6bdfe	-0.12047957
34	0xbd6897c0	-0.056785345
35	0xbe2dfce8	-0.16991007
36	0x3c9965ef	0.018725364
37	0x3d82376e	0.063582286
38	0x3ddb5a71	0.1071061
39	0xbdb42e15	-0.08797852
40	0xbdac3d9a	-0.08410187
41	0x3bfee1cd	0.0077783824
42	0xbe224663	-0.15847163
43	0x3ce5b198	0.028038785
44	0x3d4f3c45	0.050594587
45	0x3d22a3d3	0.039707016
46	0x3db681af	0.08911454
47	0xbdc26be9	-0.094932385
48	0xbc56e1ee	-0.013115389
49	0x3d994c80	0.07485294
50	0x3b821222	0.0039694468
51	0xbd7130c4	-0.058884397
52	0x3d8edeec	0.06976113
53	0xbd0a17fa	-0.033714272
54	0xbdb61e2d	-0.08892474
55	0xbe2402f7	-0.16016756
56	0x3cf4bb61	0.029874505
57	0x3d038051	0.032104794
58	0x3e201096	0.15631327
59	0x3d9c444c	0.07630214
60	0x3df3a341	0.118963726
61	0x3d8691f7	0.06570809
62	0x3d9b3a30	0.07579458
63	0x3dbe5a53	0.09294572
64	0x3b6f3996	0.003650283
65	0x3d01ae06	0.031660102
66	0x3dfe4a75	0.12416545
67	0x3c7a172c	0.015264314
68	0xbe04dd38	-0.12975013
69	0x3de96230	0.11395681
70	0x3d49ef3a	0.04930041
71	0x3cf5fbc1	0.030027272
72	0xbcafddb3	-0.02146802
73	0x3e3a215e	0.18176791
74	0xbe051d3d	-0.12999435
75	0x3d442b62	0.047892936
76	0xbd1835be	-0.037160628
77	0xbdae220e	-0.08502589
78	0x3d8c93be	0.06864117
79	0x3ddbcb91	0.107321866
80	0xbcb035c4	-0.021510012
81	0xbd3f8b09	-0.046763454
82	0x3d97def6	0.07415573
83	0xbdd8eaa4	-0.10591629
84	0xbdcf8d0e	-0.10134326
85	0x3e44052c	0.19142598
86	0xbdbf2999	-0.09334106
87	0xbd2b1367	-0.04176655
88	0xbe3428d6	-0.17593703
89	0xbdc9bbbc	-0.098502606
90	0x3d0d0324	0.034426823
91	0xbdf2fe88	-0.11864954
92	0x3de09be5	0.109672345
93	0x3e24494e	0.16043589
94	0x3da9e3bb	0.08295389
95	0xbdf6c16a	-0.120486096
96	0x3d81bccb	0.063348375
97	0x3c9262ff	0.01786947
98	0xbc0a87e9	-0.008455255
99	0x3d4024fb	0.046910267
100	0x3dff2c2c	0.12459597
101	0xbe36aaa7	-0.17838536
102	0x3c21bad6	0.009871205
103	0xbb30de8b	-0.0026988115
104	0x3dbe658c	0.09296712
105	0xbddf780a	-0.109115675
106	0xbd2b07d1	-0.0417555
107	0x3d2f7988	0.04284051
108	0xbdc5dd35	-0.096613325
109	0xbd47fa54	-0.048822716
110	0x3cae181a	0.021251727
111	0x3d92a0b0	0.07159555
112	0x3c26340b	0.010144244
113	0x3da96339	0.08270878
114	0xbe23777c	-0.15963548
115	0x3ddfed6e	0.10933958
116	0xbcd33607	-0.025782598
117	0x3d655ad0	0.05599481
118	0x3db9930f	0.09061252
119	0xbe0601c6	-0.13086614
120	0x3e2b4e76	0.16729149
121	0xbe062357	-0.13099419
122	0xbda8a5bc	-0.08234736
123	0xbc583d56	-0.013198217
124	0x3dcb3186	0.09921555
125	0xbd87973c	-0.066206425
126	0x3dbc9608	0.09208304
127	0x3da268c7	0.07930141
128	0xbdaadb23	-0.08342578
129	0x3d0ae6d2	0.033911534
130	0xbd5f919a	-0.054582216
131	0x3e043925	0.12912424
132	0xbe0acbdb	-0.13554327
133	0xbde27665	-0.11057738
134	0x3b7f1156	0.0038920245
135	0x3c5fdbd6	0.013663253
136	0xbd690c71	-0.05689663
137	0x3de421ab	0.11139234
138	0x3e044e04	0.12920386
139	0xbe047f7f	-0.12939261
140	0xbdea0965	-0.11427573
141	0x3de5ca3b	0.11220213
142	0x3df1a962	0.11799885
143	0x3e279e6f	0.16369031
144	0x3deca2c7	0.11554485
145	0xba88eba9	-0.0010446209
146	0x3d04bba8	0.032405525
147	0x3c57b0fa	0.013164753
148	0xbe2b0293	-0.167002
149	0x3cb06af3	0.021535372
150	0x3dec0fd9	0.1152646
151	0x3cfa13bd	0.03052699
152	0x3dbc78d8	0.092027366
153	0xbe250f88	-0.16119206
154	0x3c89a85c	0.016803913
155	0x3d06b54b	0.03288774
156	0xbc24f86a	-0.010068992
157	0xbc6a606f	-0.014305218
158	0x3e1fef59	0.15618648
159	0xbd9572d5	-0.07297293
160	0xbb07f6fb	-0.0020746577
161	0xbe446b61	-0.19181587
162	0xbe142e98	-0.14470899
163	0x3e1cf8bc	0.1532926
164	0x3dfbfb10	0.12303746
165	0xbdd7592f	-0.10515057
166	0x3dd41d29	0.10357124
167	0x3dc9349e	0.09824489
168	0x3d7788b0	0.06043309
169	0x3def5f2a	0.11688073
170	0x3df63500	0.12021828
171	0xbb85b2e3	-0.004080163
172	0x3e09315f	0.1339774
173	0xbc10886b	-0.008821587
174	0x3e0c8b51	0.1372502
175	0xbe338933	-0.17532806
176	0xbe11ab47	-0.14225493
177	0x3dd469f2	0.1037177
178	0xbd2edf20	-0.042693257
179	0x3cb575a7	0.022150828
180	0x3e1244eb	0.14284103
181	0x3c4e1861	0.012579055
182	0x3daaad27	0.083338074
183	0xbe04ad20	-0.12956667
184	0x3b1fba86	0.0024372651
185	0xbcf9c205	-0.030488024
186	0x3dba34fa	0.09092136
187	0xbdaf6866	-0.08564834
188	0x3be90180	0.0071107745
189	0xbdaf4e03	-0.085598014
190	0x3dc71d52	0.09722389
191	0x3d17f858	0.037102073
192	0x3a4d342a	0.00078279024
193	0x3e06f6cd	0.13180085
194	0xbdf449bd	-0.11928127
195	0xbd57d06f	-0.052689012
196	0xbd12a32c	-0.035800144
197	0xbda59134	-0.08084336
198	0x3e2e9206	0.17047891
199	0xbcd38900	-0.025822163
200	0xbd6938ff	-0.05693912
201	0xbb2f0b54	-0.0026709633
202	0x3e2d60a5	0.16931398
203	0x3d34f32d	0.044177223
204	0x3e497615	0.19673951
205	0xbcde3ef1	-0.027129622
206	0xbdc1e603	-0.094676994
207	0xbdea8179	-0.11450476
208	0xbe16225a	-0.14661542
209	0x3bf4c028	0.007469196
210	0x3e01d86b	0.12680213
211	0x3d62ff99	0.05541954
212	0xbdece8d0	-0.11567843
213	0x3dbcc86f	0.09217917
214	0x3e1a03a7	0.15040456
215	0x3db07175	0.0861539
216	0xbd8c6c8d	-0.06856642
217	0xbc516e82	-0.012782695
218	0x3e4d4156	0.20044455
219	0xbd4ce6f0	-0.050024927
220	0xbd4623f6	-0.04837414
221	0x3d810517	0.06299799
222	0xbd84a405	-0.06476597
223	0xbd8f0c70	-0.06984794
224	0x3e0eb4b2	0.13936117
225	0x3d46d16f	0.048539575
226	0x3d8234b9	0.06357712
227	0x3bdf8bc8	0.006822083
228	0xbd3e7959	-0.046502445
229	0x3e23033a	0.159192
230	0x3ccc7253	0.024956858
231	0x3da564a6	0.08075838
232	0xbdda17bf	-0.106490605
233	0xbd89172e	-0.06693874
234	0xb84c35a0	-4.8687332e-05
235	0xbc9d0db0	-0.019171566
236	0x3e160a60	0.14652395
237	0xbe025111	-0.12726237
238	0x3a40a982	0.00073494774
239	0xbe433540	-0.19063282
240	0xbdf50afc	-0.11964986
241	0xbd7cb05b	-0.061691623
242	0x3dcb326e	0.09921728
243	0x3d920b01	0.07131005
244	0xbcee8cdb	-0.0291199
245	0xbd787625	-0.060659546
246	0x3e0ae6ae	0.1356456
247	0x3b7ed93e	0.003888681
248	0xbdaaaca8	-0.08333713
249	0x3ca321ec	0.019913636
250	0xbc37ec26	-0.011225736
251	0x3e16a398	0.14710844
252	0x3e2597b2	0.16171148
253	0x3df69009	0.12039191
254	0x3a74639c	0.0009322704
255	0xbdc27c9b	-0.09496423

encoder_lstm.weight_hh_l0 f4 [128, 32]
0	0x3e1852fb	0.14875405
1	0x3d66a63a	0.05631087
2	0xbd5562c8	-0.05209616
3	0x3e156188	0.14587986
4	0xbdbfc051	-0.09362853
5	0x3bab243d	0.005222826
6	0xbd81bddf	-0.06335043
7	0x3d0695c0	0.032857656
8	0xbe0bfe2e	-0.1367118
9	0xbdfb5d87	-0.12273698
10	0xbdd0b404	-0.10190585
11	0x3b8c03b3	0.004272902
12	0x3e1c5d56	0.1526998
13	0x3d2506b7	0.040289607
14	0x3d7d88a7	0.0618979
15	0x3e06818b	0.13135354
16	0xbcb890cb	-0.02252998
17	0x3dc42e64	0.09579161
18	0xbc8d6180	-0.017258406
19	0x3e1c5767	0.15267716
20	0xbdad74c8	-0.0846954
21	0xbe0aa672	-0.13540056
22	0xbdbd932d	-0.09256587
23	0xbda7d240	-0.08194399
24	0xbe2527cf	-0.16128467
25	0x3ddbdac0	0.107350826
26	0xbe35d1d3	-0.17755823
27	0x3d3f168d	0.046652365
28	0xbdcd1513	-0.10013785
29	0xbdff2491	-0.12458146
30	0xbe089468	-0.13337862
31	0xbdacc38c	-0.08435735
32	0x3d8d5e1b	0.06902715
33	0xbdef2009	-0.11676032
34	0x3dd3d663	0.103436254
35	0xbc415b7d	-0.011801598
36	0xbc5cb203	-0.013470176
37	0xbd4b7b29	-0.049678
38	0x3cec2764	0.028827377
39	0x3c3f6162	0.011680933
40	0x3d846567	0.064646535
41	0x3da2668c	0.079297155
42	0x3e2a42e0	0.16627073
43	0xbd22d4d8	-0.039753765
44	0x3d638792	0.05554921
45	0x3dcd0d84	0.100123435
46	0xbc8e6dde	-0.017386373
47	0x3d1effda	0.038818218
48	0x3d976058	0.07391423
49	0x3de26dd0	0.11056101
50	0x3d2d231d	0.042269815
51	0x3e0531c8	0.13007271
52	0xbd944c5f	-0.07241129
53	0xbc2387b7	-0.009981087
54	0xbe2a634e	-0.16639444
55	0xbd2d6140	-0.042329073
56	0xbcc2fc25	-0.023801873
57	0xbdfed970	-0.12443817
58	0xbe325230	-0.17414165
59	0xbdd10581	-0.10206128
60	0xbd738693	-0.05945451
61	0xbd7b7bf7	-0.06139752
62	0xbdd182ef	-0.10230052
63	0xbb02f4f5	-0.0019982432
64	0x3d56b4da	0.052418567
65	0x3d97e829	0.07417328
66	0xbc76fb6c	-0.015074592
67	0x3ddca2e9	0.1077326
68	0xbd1babaa	-0.03800551
69	0x3d6d6934	0.057961658
70	0xbe0b1cf4	-0.13585263
71	0xbd15db32	-0.036585994
72	0xbe3a795a	-0.18210354
73	0xbdc42eb1	-0.09579218
74	0x3e2e272d	0.17007132
75	0xbc7e3b1f	-0.015517025
76	0x3d161653	0.036642384
77	0x3d3a951f	0.04555237
78	0xbd07fea5	-0.033201832
79	0xbde73ea1	-0.112912424
80	0x3d6ba61f	0.057531472
81	0x3e0ed8b4	0.13949853
82	0x3e448b31	0.19193722
83	0x3ccc0d73	0.024908757
84	0x3ce39618	0.027781531
85	0x3c7d2264	0.015450094
86	0xbe2165ed	-0.15761538
87	0x3ddc77b2	0.107650176
88	0x3c4128df	0.01178953
89	0xbda49e1e	-0.08037971
90	0x3d428cfb	0.04749773
91	0x3d9c1330	0.07620847
92	0x3e0df864	0.13864285
93	0xbe4dba39	-0.2009057
94	0xbc4c5398	-0.012471102
95	0xbcb73973	-0.022366261
96	0x3cf7264a	0.030169625
97	0xbe5cf113	-0.21576338
98	0xbdf61b40	-0.12016916
99	0x3dbebe03	0.093135856
100	0x3d8fe34e	0.07025777
101	0x3e1cb3e8	0.15303004
102	0x3ddfd303	0.10928919
103	0xbd1b967d	-0.037985314
104	0x3e4597dc	0.19296211
105	0xbe119a2b	-0.14218967
106	0x3dee554d	0.116373636
107	0x3c84d739	0.016215907
108	0x3dfef225	0.12448529
109	0x3d2df99b	0.04247437
110	0xbbfc4070	-0.0076981112
111	0x3cf5898b	0.029972812
112	0x3dc9fa45	0.09862188
113	0xbcf03caf	-0.029325811
114	0xbe0dae4f	-0.13836025
115	0xbe29b75f	-0.16573857
116	0x3db3b12d	0.08774028
117	0xbdb0e8f3	-0.086381815
118	0xbe2994d4	-0.1656068
119	0x3e31829c	0.1733498
120	0x3d4c21a2	0.049836762
121	0xbda35dc5	-0.079768695
122	0xbd75997d	-0.05996083
123	0xbe21f1ff	-0.1581497
124	0xbca7def0	-0.020492047
125	0xbe158773	-0.14602451
126	0x3e1bea22	0.15226033
127	0xbe416253	-0.18885164
128	0x3d671ea0	0.05642569
129	0xbdbdd79e	-0.09269641
130	0xbddc3509	-0.10752303
131	0x3e364306	0.17799005
132	0x3dc903cf	0.098151796
133	0x3d924630	0.071422935
134	0xbd9742b1	-0.07385767
135	0x3da06d56	0.07833354
136	0x3e12430a	0.14283386
137	0xbe1c4bc9	-0.15263285
138	0xbd0b4deb	-0.034009855
139	0xbcbcc383	-0.023042446
140	0xbd8d3bd6	-0.068961784
141	0xbe4410bf	-0.19147013
142	0x3e1d87ba	0.15383807
143	0x3e06c0e5	0.13159521
144	0xbd8e3e06	-0.06945424
145	0x3e15202e	0.14563057
146	0x3e2a2a73	0.16617756
147	0x3e00b7b9	0.12570085
148	0xbd167086	-0.036728404
149	0xbceb66d2	-0.028735552
150	0xbde5a00d	-0.11212168
151	0xbbdba529	-0.0067030382
152	0xbe052a5c	-0.1300444
153	0x3d40a9ec	0.04703705
154	0x3d6724b9	0.056431506
155	0xbdbbc7f1	-0.09168995
156	0x3dac0651	0.08399642
157	0x3d472323	0.048617493
158	0x3dff2fbc	0.124602765
159	0xbd56bd23	-0.05242647
160	0xbd77322e	-0.06035059
161	0x3deb6370	0.114935756
162	0x3e0da197	0.13831173
163	0x3dd5d229	0.104404755
164	0xbd0dec72	-0.03464932
165	0xbe229ba2	-0.15879682
166	0xbd1f9908	-0.0389643
167	0xbd9ce8be	-0.076615795
168	0xbe243b24	-0.16038185
169	0xbcb8c39b	-0.02255421
170	0x3c18b85b	0.0093212975
171	0xbe2a2230	-0.16614604
172	0xbd30c891	-0.043160025
173	0x3e3515a2	0.17684034
174	0xbd21a1c4	-0.039460912
175	0x3e2a1706	0.16610345
176	0x3e254865	0.16140898
177	0x3d5e4d64	0.054273024
178	0xbe2f7141	-0.17133047
179	0x3da2ee19	0.0795557
180	0x3da82d56	0.08211772
181	0x3dc18a97	0.09450262
182	0x3e1740d7	0.14770828
183	0xbdb68518	-0.08912104
184	0x3d2bd84b	0.04195432
185	0xbdbac38c	-0.09119329
186	0xbd6c897b	-0.0577483
187	0xbddf693d	-0.109087445
188	0xbdd8b7c3	-0.10581925
189	0x3e286a10	0.1644671
190	0xbd475fbf	-0.048675295
191	0xbe245ce9	-0.16051067
192	0xbd95dd80	-0.073176384
193	0x3cc13f8b	0.02358987
194	0xbcb2740e	-0.021783855
195	0x3e37fb1d	0.17966886
196	0x3e24ca2c	0.16092747
197	0xbe23fb4b	-0.1601383
198	0xbe1d02ae	-0.15333053
199	0x3e2dc6a4	0.16970307
200	0xbd7e068c	-0.062017962
201	0xbd1d0d9e	-0.038343064
202	0x3d97b394	0.07407299
203	0x3d5ab892	0.053398676
204	0xbd832161	-0.06402851
205	0x3bb31206	0.005464795
206	0xbccae386	-0.024766695
207	0xbdb6c1e5	-0.08923701
208	0x3db24390	0.08704293
209	0xbc8c0952	-0.017094288
210	0xbc947d8e	-0.018126275
211	0x3d4505e1	0.04810131
212	0xbdadaa71	-0.08479775
213	0x3dabc9aa	0.08388074
214	0x3e1a8d13	0.15092878
215	0x3b5142ab	0.0031930606
216	0x3de8a130	0.11358869
217	0xbe1d2aff	-0.15348433
218	0x3deca214	0.115543514
219	0xbdb82da8	-0.08993083
220	0x3e2a5ae2	0.16636232
221	0xbdf26d05	-0.118372
222	0x3df22667	0.11823731
223	0x3d80ca78	0.06288618
224	0x3e0f51d3	0.13996057
225	0xbc16ebbd	-0.009211478
226	0x3ca5ac20	0.020223677
227	0xbdca7bab	-0.09886869
228	0x3d8a8a08	0.067646086
229	0x3d8e698b	0.069537245
230	0xbe0b291f	-0.13589905
231	0x3c964618	0.01834397
232	0xbd5fdab2	-0.054651923
233	0x3df42e42	0.119228855
234	0x3e242cc0	0.16032696
235	0x3cbff4d7	0.023432178
236	0x3e0c0374	0.13673192
237	0x3d12c47e	0.03583192
238	0xbe0b2856	-0.13589606
239	0xbe19d352	-0.15022019
240	0xbce93194	-0.028466024
241	0x3cf978ad	0.03045305
242	0xbd40723f	-0.046983954
243	0xbd3cb8cf	-0.046074685
244	0xbdf1f9d2	-0.118152276
245	0x3df67101	0.120332725
246	0xbd8facda	-0.07015391
247	0xbc8b3112	-0.016991172
248	0x3e3e38b4	0.18576318
249	0xbc84dfb0	-0.016219944
250	0xbd37a0c1	-0.04483104
251	0xbe1bf211	-0.1522906
252	0x3dce95d3	0.100871705
253	0x3dc8a585	0.09797195
254	0x3d73789d	0.059441198
255	0xbe04b968	-0.12961352

encoder_lstm.bias_ih_l0 f4 [128]
0	0xb8fb890b	-0.00011994139
1	0x3e3be86d	0.18350382
2	0xbde2cf87	-0.11074739
3	0xbdd667f8	-0.10469049
4	0xbcf254c5	-0.029581437
5	0xbdd47bfd	-0.103752114
6	0x3e011e08	0.12609112
7	0x3d39aff3	0.045333814
8	0xbe0d69e2	-0.13809922
9	0x3c5f587e	0.013631938
10	0xbc116e5a	-0.0088764075
11	0xbde73be1	-0.11290718
12	0x3dc4b5eb	0.096050106
13	0xbdf6501e	-0.12027
14	0x3ce3a414	0.0277882
15	0xbde860e0	-0.113466024
16	0x3cda710e	0.026665237
17	0x3da336d4	0.07969442
18	0x3e2965da	0.1654276
19	0x3e56220e	0.20911428
20	0xbe1fc9c5	-0.15604313
21	0x3cbcb1e8	0.023034051
22	0x3e214d7e	0.15752217
23	0xbe206c1e	-0.15666243
24	0x3e430bce	0.19047472
25	0xbd9d3676	-0.07676403
26	0x3deb135a	0.114783004
27	0x3d7bc441	0.06146646
28	0x3e067d20	0.13133669
29	0x3df481a8	0.119387925
30	0xbd860fa1	-0.0654595
31	0x3dc63f50	0.09680045
32	0x3c466bd2	0.012110667
33	0xbde0f23f	-0.10983705
34	0xbe0fcfc2	-0.14044097
35	0x3e00d180	0.12579918
36	0xbda79ca8	-0.08184177
37	0x3d855d99	0.06511993
38	0x3d77573d	0.06038593
39	0x3e2af9ac	0.16696805
40	0xbbd1be38	-0.0064008497
41	0x3b5e0e15	0.0033882905
42	0xbe14b4e0	-0.14522123
43	0x3e029f5d	0.12756105
44	0xbe1d1f68	-0.15344012
45	0x3dfa8c19	0.12233753
46	0x3db7caa8	0.089742005
47	0x3e118af1	0.14213158
48	0x3e0cdca3	0.13756041
49	0xbdc821ba	-0.09772058
50	0xbd6805b7	-0.056646075
51	0x3bf30017	0.007415782
52	0x3e0188ff	0.12649916
53	0x3bde4df5	0.0067841955
54	0xbe378730	-0.17922664
55	0xbd8a8e45	-0.06765417
56	0xbe1515ca	-0.14559093
57	0xbdcda827	-0.10041838
58	0x3db07d28	0.08617622
59	0xbe0622d4	-0.13099223
60	0xbdda03cb	-0.10645255
61	0xbdb00dd6	-0.08596389
62	0x3e049efb	0.12951271
63	0x3d8377ce	0.06419335
64	0xbe1b9c07	-0.15196238
65	0x3d7dd622	0.06197179
66	0xbde656b4	-0.11247006
67	0x3e2e9168	0.17047656
68	0x3cb97df8	0.022643074
69	0xbca384c2	-0.019960765
70	0xbc91337d	-0.017724747
71	0xbc509d3a	-0.012732798
72	0xbcf4793f	-0.02984297
73	0x3d56402e	0.0523073
74	0xbe0a0f8f	-0.13482498
75	0xbcb5cbc1	-0.022191884
76	0x3e11436a	0.14185873
77	0x3cd52878	0.026020274
78	0x3e00faba	0.12595645
79	0xbd99be22	-0.07506968
80	0xbdd44570	-0.10364807
81	0x3dc34f4f	0.09536611
82	0x3e05bc4c	0.13060111
83	0x3e1e9b2e	0.15488884
84	0x3d932158	0.07184094
85	0xbe0df0c2	-0.13861373
86	0xbe234cd5	-0.15947278
87	0xbcae68ef	-0.02129027
88	0x3e123cbd	0.14280982
89	0x3ce396a5	0.027781794
90	0x3d8c04fb	0.068368874
91	0xbdf67400	-0.12033844
92	0x3e09dcf1	0.13463189
93	0xbd0bce00	-0.034132004
94	0xbdf0621c	-0.11737463
95	0xbe3ff31f	-0.18745087
96	0xbd2b6108	-0.041840583
97	0x3e4ad62b	0.19808261
98	0xbd0e5c76	-0.034756146
99	0xbd3a02f6	-0.04541298
100	0x3e4e3468	0.20137179
101	0x3dfe6a07	0.12422567
102	0x3da352ed	0.07974801
103	0x3df0f81a	0.117660716
104	0xbdb94cfb	-0.09047886
105	0x3e108d08	0.14116299
106	0xbd51a8da	-0.05118642
107	0x3e1f31fb	0.1554641
108	0x3d9557f7	0.072921686
109	0x3e321b52	0.17393234
110	0xbdb1eddd	-0.08687947
111	0x3de3d131	0.111238845
112	0x3e08f3e3	0.13374285
113	0x3e06d0bd	0.13165565
114	0xbddd73e6	-0.108131215
115	0xbe2ff14e	-0.17181894
116	0xbe276100	-0.16345596
117	0x3c7cabb3	0.015421796
118	0x3d3ee397	0.046603765
119	0x3dc615dd	0.09672139
120	0xba8b0148	-0.001060524
121	0x3dd12df5	0.10213844
122	0xbe00d125	-0.12579782
123	0xbdde2cbb	-0.108483754
124	0x3e29c437	0.16578756
125	0x3d1d3c6c	0.0383877
126	0xbb2013ed	-0.002442594
127	0xbd4d0f13	-0.050063204

encoder_lstm.bias_hh_l0 f4 [128]
0	0x3dd07a02	0.10179521
1	0x3c486dc1	0.012233199
2	0x3a963712	0.0011460504
3	0xbcc2f2e4	-0.02379746
4	0x3d3a60ef	0.0455026
5	0xbdfb9162	-0.12283589
6	0x3d9a13d7	0.075233154
7	0xbc2ce372	-0.010552274
8	0xbdd7c741	-0.105360515
9	0xbc97e688	-0.018542543
10	0xbe12da9d	-0.14341207
11	0x3e33a7d8	0.17544496
12	0xbe074bcb	-0.13212506
13	0x3e13331f	0.1437497
14	0x3ddd770f	0.10813724
15	0x3c87cb47	0.016576422
16	0xbc2406a1	-0.010011346
17	0x3e3460f7	0.17615114
18	0x3db20fd8	0.08694428
19	0x3e07b4b9	0.13252534
20	0x3dafbe80	0.08581257
21	0xbe34ca0b	-0.17655198
22	0xbd886625	-0.066601075
23	0x3e3486cd	0.17629547
24	0xbcc89bd6	-0.02448837
25	0x3e048bae	0.12943909
26	0x3dfb1d25	0.12261418
27	0x3d32a2be	0.043612234
28	0x3cfcdefa	0.030868042
29	0xbd04071e	-0.03223335
30	0xbd34e4d2	-0.044163533
31	0xbd33e280	-0.04391718
32	0xbd347340	-0.044055223
33	0x3e4c7f75	0.19970496
34	0xbdfbbe15	-0.12292115
35	0xbdf77d49	-0.12084443
36	0x3c900fa1	0.017585577
37	0xbe23a5f3	-0.15981273
38	0x3e1018ae	0.14071915
39	0x3e16b4cb	0.14717405
40	0x3deef9ac	0.11668715
41	0xbd57aaf9	-0.052653287
42	0x3d9029fe	0.070392594
43	0x3dfab78a	0.122420385
44	0xbddc9c0e	-0.107719526
45	0x3dbfde9c	0.09368631
46	0x3e3ec948	0.1863147
47	0x3deeab80	0.11653805
48	0xbdadeef6	-0.08492844
49	0xbd8c334a	-0.0684572
50	0x3e04adac	0.12956876
51	0xbd075776	-0.033042394
52	0x3dac8116	0.08423059
53	0x3e09ec00	0.13468933
54	0xbe34b134	-0.17645723
55	0x3da5c004	0.08093265
56	0x3e426972	0.18985537
57	0x3e5bde7c	0.2147159
58	0xbdfc1885	-0.12309364
59	0x3db5efea	0.088836506
60	0xbd9abc0e	-0.075554
61	0x3e1f16c5	0.1553603
62	0xbe294d1c	-0.16533321
63	0x3da2979b	0.07939073
64	0xbe08f15b	-0.1337332
65	0xbdddfbef	-0.10839068
66	0x3e2bc3bd	0.16773887
67	0x3da97f00	0.082761765
68	0xbd60b12f	-0.054856475
69	0x3d962da3	0.07332923
70	0x3dcd15d1	0.10013927
71	0xbd809e1e	-0.062801585
72	0xbcebf530	-0.028803438
73	0xbd2bed7d	-0.041974533
74	0x3e0eb632	0.1393669
75	0x3d8add20	0.067804575
76	0x3e23eb7b	0.16007797
77	0x3d33293c	0.043740496
78	0x3daff181	0.08590985
79	0x3da54396	0.080695316
80	0x3d173b95	0.036922056
81	0xbc08e8ed	-0.008356315
82	0x3ce56074	0.028000094
83	0x3d948dac	0.07253584
84	0xbe191a8d	-0.14951535
85	0x3e142f68	0.14471209
86	0xbd289f83	-0.041167747
87	0xbda7c9f3	-0.08192816
88	0xbd41c08c	-0.047302768
89	0x3dc2aef2	0.095060244
90	0x3d8a81ac	0.06763014
91	0x3e160dee	0.14653751
92	0x3e1690c9	0.14703669
93	0xbe0ffd86	-0.14061555
94	0x3d5e49f0	0.05426973
95	0xbdbc3e52	-0.09191574
96	0xbe30b047	-0.17254744
97	0x3e4b941c	0.19880718
98	0x3e3f4ed6	0.18682417
99	0x3d4464a4	0.04794754
100	0xbc978255	-0.018494764
101	0x3d181ef2	0.037138887
102	0xbb907785	-0.004408779
103	0xbe43a233	-0.19104843
104	0x3e1b1e0e	0.15148184
105	0x3dc478ee	0.09593378
106	0x3e26e131	0.16296841
107	0xbe1414b0	-0.14461017
108	0x3d8b41f1	0.06799687
109	0x3d0202fc	0.031741127
110	0xbde0761f	-0.1096003
111	0xbe0779fa	-0.13230124
112	0x3e08211a	0.13293877
113	0x3e20bacd	0.15696259
114	0x3e0357a9	0.12826408
115	0xbd428174	-0.047486737
116	0x3dfb9b6d	0.122855045
117	0x3deb00bc	0.114747494
118	0xbe1fb956	-0.15598044
119	0xbda1d8e6	-0.07902698
120	0xbe03cb58	-0.12870538
121	0x3d0c9e11	0.03433043
122	0xbd7801ed	-0.06054871
123	0xbe22461f	-0.15847062
124	0x3df50ea5	0.11965684
125	0xbd92be52	-0.07165207
126	0x3d8d16f4	0.068891436
127	0xbdd717a4	-0.10502556

dest_lstm_obs.weight_ih_l0 f4 [128, 2]
0	0x3dfd585c	0.12370369
1	0xbd8c88fe	-0.06862067
2	0xbdef85b7	-0.11695426
3	0xbdda101c	-0.10647604
4	0xbe1d5ea1	-0.1536813
5	0xbd0f2a8a	-0.034952678
6	0x3e1d5e1b	0.1536793
7	0xbdad7547	-0.084696345
8	0x3e35b773	0.17745762
9	0xbd7bd1b5	-0.06147929
10	0x3e30eb3a	0.17277232
11	0x3bd9bb3e	0.0066446355
12	0xbe1d12b3	-0.15339164
13	0x3e0277b8	0.12740982
14	0x3def1ec0	0.11675787
15	0x3dc185a7	0.0944932
16	0xbdc38903	-0.09547617
17	0xbe299910	-0.16562295
18	0xbdbeeb8d	-0.093222715
19	0xbdb7b88f	-0.08970749
20	0x3ba23a57	0.0049508023
21	0xbe0d53be	-0.13801476
22	0xbd930246	-0.07178168
23	0xbd8cbe46	-0.06872229
24	0xbe041885	-0.12899978
25	0xbdc5953e	-0.09647606
26	0x3cdf68a8	0.027271584
27	0x3cbbac79	0.02290939
28	0xbbb26e16	-0.005445252
29	0xbd54826b	-0.05188219
30	0x3d062316	0.032748304
31	0x3e2297aa	0.15878168
32	0x3da0c89f	0.078507654
33	0xbb955065	-0.004556703
34	0xbb85d952	-0.0040847445
35	0x3d6c7e63	0.05773772
36	0xbc7059d1	-0.014669851
37	0x3a243d2d	0.00062652194
38	0x3d06cbcc	0.0329092
39	0xbd43299a	-0.047647096
40	0xbc22db07	-0.0099399155
41	0x3a60778e	0.0008562737
42	0xbe229360	-0.15876532
43	0x3cae4249	0.021271842
44	0xbe02eeab	-0.12786357
45	0x3e157cce	0.1459839
46	0xbd8266ee	-0.063672885
47	0x3ba20c51	0.004945316
48	0xbde5b68e	-0.1121646
49	0x3ca25a5a	0.019818474
50	0xbdb8ca90	-0.09023011
51	0xbe13db10	-0.14439034
52	0x3d736d28	0.05943027
53	0xbe11c330	-0.14234614
54	0xbe030576	-0.12795052
55	0xbe140b42	-0.1445742
56	0x3cc97d60	0.024595916
57	0x3e08a40e	0.13343832
58	0xbd6ae9db	-0.05735193
59	0x3d2d6427	0.04233184
60	0x3a8bfafb	0.0010679656
61	0xbd808f51	-0.062773354
62	0xbdec2ac3	-0.11531594
63	0x3d9d88af	0.07692086
64	0x3e11380d	0.14181538
65	0xbd415326	-0.047198437
66	0x3dceca33	0.1009716
67	0x3d3f521b	0.04670916
68	0xbe0918d4	-0.13388377
69	0xbe05d47e	-0.1306934
70	0xbcfc1294	-0.030770577
71	0x3de7eb60	0.11324191
72	0xbdc1af78	-0.09457296
73	0xbe1af09d	-0.15130849
74	0x3c8d376a	0.017238338
75	0xbd2a5835	-0.041588027
76	0xbdbac3d9	-0.09119386
77	0xbd3be8ee	-0.045876436
78	0x3db04704	0.08607295
79	0x3d7c47f2	0.06159205
80	0xbde6e24c	-0.112736315
81	0xbe0d939c	-0.1382584
82	0x3d1544db	0.03644262
83	0x3e03aac8	0.12858117
84	0xbdf9aab8	-0.12190765
85	0x3e26a802	0.16275027
86	0x3d633b22	0.055476315
87	0xbddef228	-0.108860314
88	0x3d864a20	0.06557107
89	0x3d3ebd25	0.0465671
90	0xbd2953f7	-0.04133984
91	0xbc84d52e	-0.016214933
92	0x3dea6367	0.11444741
93	0x3ba80934	0.00512805
94	0xbde39da4	-0.11114052
95	0xbde57cbc	-0.11205432
96	0x3db1abff	0.08675384
97	0xbdaf4212	-0.08557524
98	0xbdaa4c73	-0.08315363
99	0xbd9053dc	-0.07047245
100	0x3db9bdc3	0.09069397
101	0xbc740fb6	-0.014896324
102	0x3d19ae9d	0.03752004
103	0x3db4e1be	0.088321194
104	0xbdbbd5c8	-0.09171635
105	0xbe05bb79	-0.13059796
106	0xbdb6b5bb	-0.08921381
107	0xbde0f5e7	-0.10984402
108	0xbdcf467b	-0.10120865
109	0xbd2d932a	-0.042376675
110	0xbc49ae23	-0.012309584
111	0x3b97a992	0.0046283687
112	0x3dcbdcfd	0.099542595
113	0x3dfcf982	0.12352277
114	0x3d472d42	0.048627146
115	0x3e047df5	0.12938674
116	0x3cd200c3	0.025635129
117	0xbd9fac70	-0.07796562
118	0x3e354359	0.17701472
119	0x3d21958d	0.039449263
120	0xbd2057d8	-0.039146274
121	0xbdbb68da	-0.09150858
122	0x3dc00adc	0.09377071
123	0x3a175f24	0.000577437
124	0xbd9ccdbb	-0.076564275
125	0x3e07cf33	0.13262634
126	0x3da9c6b7	0.08289855
127	0xbd2e861e	-0.042608373
128	0x3de87aa4	0.11351517
129	0x3c4c8a4c	0.012484144
130	0xbe0d61ae	-0.13806793
131	0xbd88346f	-0.06650626
132	0xbc290699	-0.010316514
133	0xbdeff8df	-0.1171739
134	0x3d957842	0.07298328
135	0x3c93b374	0.018029906
136	0xbdd359d3	-0.10319867
137	0xbcec2766	-0.02882738
138	0xbe2fcfcb	-0.1716911
139	0xbdb7fc1e	-0.089836344
140	0x3d582814	0.052772596
141	0x3ddd407a	0.108033136
142	0xbd4857d0	-0.04891187
143	0xbda548dc	-0.080705374
144	0xbc88ce3a	-0.016699899
145	0x3dac50a4	0.084138185
146	0x3d5d9014	0.05409248
147	0xbd7663f9	-0.060153935
148	0x3d75dfa1	0.060027722
149	0x3d87bac5	0.0662742
150	0x3db64260	0.08899379
151	0xbd705298	-0.058672518
152	0xbb394d37	-0.0028274783
153	0x3e076611	0.13222529
154	0x3d029ea5	0.031889576
155	0x3d930230	0.071781516
156	0xbe39a1ef	-0.18128179
157	0x3db09174	0.08621493
158	0xbe11fec7	-0.14257346
159	0xbdd289ab	-0.10280164
160	0x3d4fcd2d	0.05073278
161	0xbe292041	-0.1651621
162	0x3d92b80f	0.07164013
163	0x3db3dc20	0.0878222
164	0xbe15fceb	-0.14647262
165	0xbd3247ce	-0.04352551
166	0xbd68a4d6	-0.056797825
167	0x3d508336	0.050906383
168	0xbe090569	-0.1338097
169	0xbd368aa3	-0.044565808
170	0x3e3140f4	0.17309934
171	0x3e0dbbc0	0.13841152
172	0x3d2cb4cd	0.042164613
173	0x3e1ba5a2	0.15199903
174	0x3d318d02	0.043347366
175	0x3c4c844a	0.012482712
176	0x3daf804f	0.08569395
177	0x3daf3186	0.08554368
178	0x3dd994a4	0.10624054
179	0xbb1ab808	-0.0023608226
180	0x3d98052e	0.07422863
181	0x3dea71d0	0.11447489
182	0x3d3fb91a	0.046807386
183	0xbcd5d46b	-0.026102265
184	0xbe081069	-0.1328751
185	0x3dcf0eac	0.1011022
186	0x3df43246	0.119236514
187	0x3e0b8011	0.13623072
188	0x3d503988	0.050836116
189	0x3cc48cb4	0.023992874
190	0xbbd72ba9	-0.006566484
191	0xbc53bd46	-0.012923544
192	0x3bcc4813	0.006234178
193	0xbdd4c694	-0.10389438
194	0x3e0d5ed6	0.13805708
195	0x3e054293	0.13013677
196	0xbd1faaa4	-0.038981095
197	0xbe224ee5	-0.15850408
198	0x3e1e3323	0.15449195
199	0xbd090fc2	-0.033462293
200	0x3b3b90c8	0.0028620232
201	0xbe13853e	-0.14406297
202	0xbe0bff77	-0.13671671
203	0x3dd5fd56	0.104487106
204	0x3c8e1e5b	0.017348459
205	0xbda2e010	-0.07952893
206	0xbdd4fd6e	-0.103999004
207	0xbe24006b	-0.16015784
208	0xbdaaecaf	-0.08345925
209	0x3e10427e	0.14087865
210	0xbccfdafb	-0.025372973
211	0x3df34ac4	0.11879495
212	0x3dd08f4c	0.10183582
213	0x3e1bc892	0.1521323
214	0x3e18977a	0.14901534
215	0x3e21ef80	0.15814018
216	0xbdd0474d	-0.101698495
217	0x3d6ac2e2	0.05731476
218	0xbdcea277	-0.100895815
219	0xbe08e0bc	-0.1336698
220	0xbc80be37	-0.015715702
221	0x3d871840	0.06596422
222	0xbcef41b5	-0.029206136
223	0x3d112f20	0.035445333
224	0x3d932b24	0.07185963
225	0x3e0e6ac2	0.13907912
226	0x3e2f2551	0.17104079
227	0x3da7b8d9	0.08189554
228	0x3e0bab75	0.13639624
229	0x3dd0a8f5	0.10188476
230	0x3dd2677c	0.10273644
231	0xbd858c77	-0.06520932
232	0x3dab3408	0.083595335
233	0x3d5f42e5	0.054507155
234	0xbcb9a0d6	-0.0226597
235	0xbde6df4d	-0.1127306
236	0xbdaf7169	-0.08566553
237	0x3da47956	0.080309555
238	0x3e320f46	0.17388639
239	0xbe1e6768	-0.15469134
240	0xbe09df91	-0.1346419
241	0xbd1e1db3	-0.038602542
242	0x3dca8eea	0.0989054
243	0xbd3ad50d	-0.045613337
244	0xbd02b597	-0.03191146
245	0xbe30dafe	-0.17271039
246	0x3be3d171	0.0069524576
247	0xbdcdd4ac	-0.100503296
248	0x3d65a167	0.05606213
249	0x3d0cf70b	0.034415286
250	0x3de83624	0.113384515
251	0x3de765f3	0.11298742
252	0xbe08da56	-0.13364539
253	0xbe35263b	-0.17690365
254	0xbd9bc485	-0.076058425
255	0xbe247020	-0.16058397

dest_lstm_obs.weight_hh_l0 f4 [128, 32]
0	0xbe46fc28	-0.19432127
1	0x3de6f6fe	0.11277579
2	0xbe16a9e7	-0.1471325
3	0x3db99fcc	0.09063682
4	0xbde302c1	-0.1108451
5	0x3e23cf25	0.15996988
6	0xbe379564	-0.17928082
7	0xbd69b858	-0.05706057
8	0x3df82af0	0.12117565
9	0xbd555000	-0.052078247
10	0x3dcb9838	0.09941143
11	0xbd93a504	-0.072092086
12	0xbdf7e072	-0.121033564
13	0x3d87ff8e	0.0664054
14	0x3df702eb	0.120611034
15	0xbd10410d	-0.035218287
16	0x3e3a5fd2	0.18200615
17	0xbe07c66a	-0.13259283
18	0xbdcfaf50	-0.1014086
19	0xbc9c2145	-0.019058833
20	0xbd522443	-0.051304113
21	0x3de77f53	0.11303582
22	0xbdd2d273	-0.10294046
23	0xbd3fb3f6	-0.046802483
24	0xbda1eed8	-0.07906884
25	0x3d57e8d2	0.05271227
26	0xbe041ed0	-0.12902379
27	0xbdf82807	-0.121170096
28	0x3de71ec8	0.11285168
29	0xbde5fa03	-0.112293266
30	0x3d8e4216	0.06946199
31	0xbb5bc11a	-0.0033531846
32	0xbd304bc6	-0.043041013
33	0x3e01ef5b	0.12688963
34	0xbd5b011d	-0.05346786
35	0xbde34554	-0.11097208
36	0x3e2c88aa	0.16849008
37	0xbd8ff090	-0.070283055
38	0xbbf3618c	-0.0074274
39	0x3d6e7c62	0.05822409
40	0x3e0f3869	0.13986363
41	0xbdc5815d	-0.09643815
42	0x3d842d77	0.06453984
43	0x3e08ff7e	0.13378713
44	0xbd941b7d	-0.072318055
45	0x3e1278ab	0.14303844
46	0xbd427267	-0.047472384
47	0xbe200954	-0.15628558
48	0xbdac532d	-0.08414302
49	0x3ddb381a	0.1070406
50	0x3dfabdcf	0.12243234
51	0x3df5ad43	0.11995938
52	0x3d0d3747	0.034476545
53	0x3e095c97	0.13414226
54	0xbb5ba5ab	-0.0033515494
55	0xbd46dc97	-0.048550215
56	0x3df131bb	0.117770635
57	0xbe26d91f	-0.16293763
58	0x3d2523e1	0.04031742
59	0xbe270e19	-0.16313972
60	0x3e0d5882	0.13803294
61	0x3c1f82bb	0.009735758
62	0xbe0fb666	-0.14034423
63	0x3dd3ede7	0.10348111
64	0xbe22568e	-0.1585333
65	0xbe1fa787	-0.1559125
66	0x3c3f62e3	0.011681291
67	0x3cb07fa7	0.021545244
68	0x3b988a1a	0.004655135
69	0x3dbd1cde	0.092340216
70	0xbc80ae65	-0.015708158
71	0x3d7d9d27	0.06191745
72	0xbe3bb7b3	-0.18331794
73	0xbdc21313	-0.09476294
74	0x3d1c2b61	0.038127307
75	0x3d1a9fea	0.037750162
76	0xbb10f75c	-0.0022120094
77	0x3e220c13	0.15824918
78	0x3cb55d92	0.022139344
79	0x3e1ff03a	0.15618983
80	0xbc96a778	-0.018390402
81	0xbe26ef58	-0.1630224
82	0x3d801f7a	0.06256004
83	0x3d95f1f3	0.07321539
84	0xbd98544b	-0.074379526
85	0xbe0c5b73	-0.1370676
86	0xbe34c9b5	-0.1765507
87	0xbdd2a90d	-0.1028615
88	0xbc8b3546	-0.016993176
89	0x3e32dd25	0.17467172
90	0x3d6237c4	0.055228963
91	0x3e252815	0.16128571
92	0xbbaff337	-0.0053695696
93	0x3ddfe8db	0.109330855
94	0x3e2fc70b	0.17165773
95	0x3ca38aa5	0.019963572
96	0xbe43e24a	-0.19129291
97	0xbdb115e2	-0.08646752
98	0x3d810d21	0.06301332
99	0x3e0e6a7f	0.13907813
100	0x3dd4bde9	0.10387785
101	0x3dd52e33	0.104092024
102	0x3d8852a3	0.06656387
103	0xbe0a470e	-0.13503668
104	0x3e064699	0.13112868
105	0x3e0a3044	0.13494974
106	0xbdefec4e	-0.117149934
107	0x3c4a73cc	0.01235671
108	0xbd9b47a7	-0.07582026
109	0x3d54f0fa	0.051987626
110	0x3d2e5a9c	0.04256688
111	0xbd85794c	-0.06517276
112	0x3c962d2c	0.018332087
113	0x3d54a9a9	0.051919613
114	0x3e414c51	0.18876769
115	0x3e4595d4	0.19295436
116	0x3e0bf51e	0.13667724
117	0x3d602628	0.05472389
118	0xbd897113	-0.0671102
119	0xbca71a73	-0.020398354
120	0xbda95fc6	-0.082702205
121	0xbb9f22a7	-0.004856426
122	0x3de318f9	0.110887475
123	0x3d30251f	0.04300415
124	0xbe05308e	-0.13006803
125	0xbd67de0f	-0.056608256
126	0xbc173e33	-0.009231138
127	0xbd966798	-0.07343978
128	0x3d8f0250	0.06982863
129	0x3dd54371	0.10413254
130	0x3cf94d52	0.030432377
131	0xbe1119f1	-0.14170052
132	0x3d5b8513	0.053593706
133	0x3d98e483	0.0746546
134	0x3ab83958	0.0014055176
135	0xbe0dc0b9	-0.13843049
136	0x3d9f60cb	0.07782134
137	0x3d59202b	0.053009193
138	0xbe207cd2	-0.15672615
139	0x3e012ec6	0.12615499
140	0xbda9f92f	-0.08299481
141	0x3e18eb50	0.14933515
142	0x3d3ec846	0.046577714
143	0xbd696c12	-0.05698783
144	0xbd360332	-0.04443664
145	0xbdf8dab4	-0.12151089
146	0x3d04e316	0.03244313
147	0xbe2adb09	-0.16685118
148	0x3e103389	0.14082159
149	0xbe0db7d5	-0.13839658
150	0x3e3f0185	0.18652923
151	0x3d7ed2e4	0.06221284
152	0x3d8f24aa	0.06989415
153	0xbdf34f6c	-0.11880383
154	0x3e4759d7	0.19467865
155	0xbd40b475	-0.047047097
156	0x3da1d1af	0.07901322
157	0xbe25aaef	-0.16178487
158	0xbc5daad0	-0.013529494
159	0x3e07f5f7	0.13277422
160	0x3daebad8	0.08531731
161	0xbd0b3931	-0.03399009
162	0xbe1ae4e5	-0.15126379
163	0x3da82195	0.0820953
164	0xbe2212f0	-0.15827537
165	0xbe147c02	-0.1450043
166	0xbe2bcfe8	-0.16778529
167	0x3e34e4e7	0.17665444
168	0x3bd32678	0.006443795
169	0x3e17b5f9	0.14815511
170	0xbd09471c	-0.03351508
171	0xbdcda0ae	-0.10040413
172	0x39b11b7c	0.00033780548
173	0xbdbeef94	-0.0932304
174	0xbd9971d2	-0.074924126
175	0x3e43da61	0.19126274
176	0xbe037979	-0.12839307
177	0x3e1a0fe5	0.15045126
178	0x3d47e523	0.048802506
179	0x3c9767d0	0.018482119
180	0x3dd1968d	0.102337934
181	0xbe0f2b5c	-0.13981384
182	0xbc7b6d60	-0.015345901
183	0x3e151e3d	0.14562316
184	0x3dfa1b51	0.122122414
185	0xbdba434b	-0.09094866
186	0x3df2e9fe	0.11861037
187	0x3cd04cd4	0.02542726
188	0x3d28f105	0.04124548
189	0xbe08210b	-0.13293855
190	0x3d907153	0.07052865
191	0xbc7a8464	-0.015290353
192	0xbe3a27ac	-0.18179196
193	0xbda2ea93	-0.07954898
194	0x3e1c48d8	0.15262163
195	0xbe45d984	-0.19321257
196	0x3e1147a0	0.14187479
197	0xbd5bb882	-0.053642757
198	0xbde094e0	-0.10965896
199	0x3e289642	0.16463569
200	0x3e22e3b9	0.15907182
201	0x3dd3d5fa	0.10343547
202	0xbc197ea1	-0.00936857
203	0x3d841a70	0.06450355
204	0xbc59f61d	-0.013303307
205	0x3d1327d2	0.035926647
206	0xbd505111	-0.05085856
207	0xbb822844	-0.003972085
208	0xbe1cb634	-0.1530388
209	0xbd5d5729	-0.0540382
210	0xbd0ff09a	-0.035141565
211	0x3d81afe9	0.0633238
212	0x3c38dacd	0.011282635
213	0xbddd9e31	-0.10821188
214	0x3e28dcbf	0.16490458
215	0xbdbe68f0	-0.09297359
216	0x3d35fa8c	0.044428393
217	0x3e0955af	0.13411592
218	0x3e0146f5	0.12624724
219	0x3e12d056	0.14337286
220	0xbd8c98cb	-0.068650804
221	0x3ddacfa6	0.10684137
222	0x3e03a4a5	0.12855776
223	0x3c929d8c	0.01789739
224	0xbc82ed2e	-0.015982237
225	0x3db575a1	0.088603266
226	0x3e05288e	0.13003752
227	0x3c966b7d	0.018361801
228	0x3d9c1a87	0.07622247
229	0x3d43a299	0.047762487
230	0xbe1ce7b7	-0.15322767
231	0x3c63ca92	0.013903277
232	0xbc8c37c4	-0.017116435
233	0x3c89c20a	0.016816158
234	0x3db41a7a	0.087941125
235	0xbd86ba9e	-0.06578563
236	0xbe2a0ccd	-0.16606446
237	0xbde71f0c	-0.112852186
238	0x3aeb8aac	0.0017970405
239	0xbdeb6f1d	-0.114958026
240	0x3d12194f	0.035668667
241	0xbd3fa535	-0.046788413
242	0x3e0594f4	0.13045102
243	0x3df57fc4	0.1198726
244	0x3e56dcee	0.20982715
245	0x3dfbfe88	0.12304407
246	0xbcd17e3b	-0.025572887
247	0xbe4f8ad2	-0.202678
248	0x3e0ef441	0.13960363
249	0x3d0bb740	0.034110308
250	0x3d4e1c77	0.050320115
251	0x3e21bda6	0.15795001
252	0x3d05f427	0.032703545
253	0xbe1e3394	-0.15449363
254	0xbd2880e1	-0.041138534
255	0xbd7ff0f2	-0.062485643

dest_lstm_obs.bias_ih_l0 f4 [128]
0	0xbe052799	-0.13003387
1	0xbdd1f383	-0.10251524
2	0x3e031848	0.12802231
3	0xbd5c2e78	-0.053755254
4	0x3d3f471f	0.046698686
5	0xbe26c4c4	-0.16285998
6	0x3b932c98	0.0044914
7	0x3d3ce2e4	0.046114817
8	0xbda206f8	-0.079114854
9	0xbb34f78b	-0.0027613367
10	0xbd062311	-0.032748286
11	0x3e184074	0.14868337
12	0x3de0d3e3	0.10977914
13	0x3cc29542	0.023752812
14	0x3d62c044	0.05535914
15	0xbc342185	-0.01099432
16	0xbd525519	-0.051350687
17	0x3e214d25	0.15752085
18	0xbdde9835	-0.10868875
19	0xbc8c5f3f	-0.01713526
20	0x3cd1c7a8	0.025607899
21	0xbe40bf95	-0.18823083
22	0xbdfda8a2	-0.1238568
23	0x3d1e8de4	0.038709536
24	0xbdd6900a	-0.10476692
25	0xbdf4fe7f	-0.11962604
26	0xbe014380	-0.12623405
27	0x3e09109f	0.13385247
28	0xbd51b4a3	-0.05119766
29	0xbe34d2e9	-0.17658581
30	0x3de7654e	0.11298619
31	0x3d606625	0.054784913
32	0xbe00411c	-0.12524837
33	0x3da56d6d	0.08077512
34	0x3d9fe975	0.078082
35	0xbdf4d7ad	-0.119551994
36	0x3c68130b	0.014164696
37	0x3ddd8082	0.108155265
38	0xbe07f888	-0.13278401
39	0x3c1e8589	0.009675392
40	0x3cbd852e	0.023134794
41	0xbdd6200a	-0.1045533
42	0x3de00847	0.10939079
43	0xbdd418b0	-0.10356271
44	0xbd283315	-0.04106434
45	0x3d61e5b4	0.055150703
46	0xbc81d076	-0.015846472
47	0xbdcfeac0	-0.10152197
48	0xbe112e4a	-0.14177814
49	0x3ccbb482	0.024866346
50	0xbe3631a2	-0.17792371
51	0xbdb2fbbc	-0.08739421
52	0xbe3a04db	-0.18165915
53	0xbd69e634	-0.057104304
54	0xbdc97dd3	-0.09838452
55	0x3d6bc2e8	0.057558924
56	0x3e299f48	0.16564667
57	0xbde85a6d	-0.11345372
58	0x3d51005e	0.05102574
59	0xbe2574aa	-0.16157785
60	0xbd5c57a9	-0.053794537
61	0xbced3cfe	-0.028959747
62	0x3dbe94a5	0.093056954
63	0xbdfb0653	-0.122570656
64	0xbd08d39c	-0.03340493
65	0xbc62e3ef	-0.013848289
66	0xbb1ad3c2	-0.0023624753
67	0xbe23d179	-0.15997876
68	0x3d3451c1	0.04402328
69	0xbc9aabc0	-0.018880725
70	0xbce3e9f9	-0.027821528
71	0xbb9920bc	-0.0046730917
72	0x3e192186	0.14954194
73	0xbdb83d13	-0.08996024
74	0x3e11b911	0.14230753
75	0x3dba5c1f	0.09099602
76	0xbcb7155a	-0.022349048
77	0x3ca91028	0.020637587
78	0x3e09a07a	0.13440123
79	0x3d6611c0	0.05616927
80	0x3dfd35c8	0.123637736
81	0x3aaba465	0.0013095258
82	0x3ddf6ffe	0.10910033
83	0xbd1622a9	-0.03665415
84	0xbdca7e7a	-0.09887405
85	0xbcf5c44b	-0.030000826
86	0xbe096d1d	-0.1342053
87	0x3d882cd9	0.06649179
88	0x3d886cd3	0.066613816
89	0xbd782242	-0.060579546
90	0xbd4860aa	-0.04892031
91	0xbc3bf8d8	-0.011472903
92	0x3d33c75f	0.043891307
93	0xbd68d3ec	-0.05684273
94	0xbe334368	-0.17506182
95	0xbdf0dcd8	-0.117608726
96	0x3d00b3dd	0.03142153
97	0x3d27a96b	0.040933054
98	0x3d54c88d	0.051949073
99	0xbe073688	-0.13204396
100	0xbce22136	-0.027603727
101	0x3e0eedba	0.13957873
102	0x3db05be4	0.08611277
103	0x3d814af7	0.063131265
104	0x3dd88297	0.10571783
105	0xbdabb214	-0.08383575
106	0x3c54b0f3	0.012981641
107	0x3d80a28f	0.062810056
108	0x3c7891ea	0.015171507
109	0xbca61c75	-0.020277241
110	0xbcbd68a6	-0.02312119
111	0xbe3bf060	-0.18353415
112	0x3d9cce4d	0.07656536
113	0xbca11dcb	-0.019667527
114	0x3de6b229	0.1126445
115	0xbd7e0432	-0.06201572
116	0x3e04d06c	0.12970132
117	0x3d91e1c7	0.07123142
118	0x3c0500db	0.00811788
119	0x3e0945fa	0.134056
120	0xbe29cebb	-0.16582768
121	0x3a3eb854	0.0007275392
122	0xbbe3a231	-0.006946825
123	0xbdb9d640	-0.09074068
124	0x3d28bc5e	0.041195266
125	0x3d55e5ab	0.05222098
126	0xbdaeb334	-0.08530274
127	0x3df05c01	0.11736298

dest_lstm_obs.bias_hh_l0 f4 [128]
0	0xbe11280c	-0.14175433
1	0x3e0a8ef8	0.13531101
2	0xbde2fcea	-0.11083396
3	0xbda4aa87	-0.08040338
4	0xbdd5b49e	-0.104348406
5	0x3e1c764a	0.15279499
6	0xbcb9591f	-0.022625504
7	0x3dd81bbf	0.10552167
8	0x3d8c8c00	0.068626404
9	0x3dd01ff2	0.10162343
10	0x3e0a9b78	0.13535869
11	0x3d9d174d	0.0767046
12	0xbd6085d9	-0.054815147
13	0x3d7785b0	0.06043023
14	0x3d3fa314	0.046786383
15	0x3ae7cd36	0.0017685059
16	0x3df0d5d9	0.11759538
17	0x3ded5111	0.11587728
18	0x3d0dcda2	0.034619935
19	0xbd98f7a3	-0.07469108
20	0xbe270d08	-0.16313565
21	0x3d64a1e8	0.05581847
22	0xbe13b44b	-0.14424245
23	0xbcc8c468	-0.024507716
24	0x3e043584	0.1291104
25	0xbde612a6	-0.11234026
26	0xbe11fa0a	-0.14255539
27	0xbdc33306	-0.09531216
28	0xbcee00b2	-0.029053066
29	0x3dea552d	0.11442027
30	0xbe26abdc	-0.16276497
31	0xbc846baa	-0.01616462
32	0xbc411564	-0.011784885
33	0xbe195bf3	-0.14976482
34	0xbe039f48	-0.1285373
35	0x3e11a5a7	0.14223348
36	0x3dbf265f	0.093334906
37	0x3e238108	0.1596719
38	0xbe0319a7	-0.12802754
39	0xbe4bc4dc	-0.19899315
40	0x3a090edc	0.00052283495
41	0x3d02d85f	0.03194463
42	0xbd7b35a6	-0.06133046
43	0xbe3094ac	-0.17244214
44	0x3dd8425d	0.10559533
45	0xbe1efa37	-0.15525137
46	0x3db79516	0.08963983
47	0xbe08923d	-0.13337035
48	0xbe20bdb0	-0.1569736
49	0xbd089f26	-0.0333549
50	0xbdb82260	-0.089909315
51	0xbe296174	-0.16541082
52	0x3ce3d60f	0.027812032
53	0xbd194b6a	-0.037425436
54	0x3dd275b4	0.10276356
55	0xbe0d6158	-0.13806665
56	0xbdb0a9c3	-0.086261295
57	0x3e07f02c	0.13275212
58	0x3e1a0ecb	0.15044706
59	0x3c747eba	0.014922792
60	0xbd89ebe2	-0.06734444
61	0xbe34f196	-0.17670283
62	0xbe2706d4	-0.16311198
63	0x3df4b837	0.11949199
64	0x3d8e56d2	0.069501534
65	0x3e039973	0.12851505
66	0xbe196040	-0.14978123
67	0x3e2310a2	0.15924314
68	0x3de045bc	0.10950801
69	0xbd32e285	-0.043673057
70	0xbd5539c3	-0.05205704
71	0xbd27a164	-0.0409254
72	0x3e159716	0.14608416
73	0x3e1baf1f	0.15203522
74	0x3d78f2cf	0.060778435
75	0x3c0e15a1	0.008672149
76	0xbe0dede4	-0.1386028
77	0xbe04e41e	-0.12977645
78	0xbdd2c287	-0.102910094
79	0x3dc5e407	0.096626334
80	0xbd8e1966	-0.06938438
81	0xbdd653a9	-0.10465176
82	0x3e0d87ab	0.13821284
83	0xb90f26e5	-0.00013652032
84	0xbdba9f76	-0.09112446
85	0x3e2484f0	0.16066337
86	0x3e01fe5e	0.1269469
87	0x3e1a7c22	0.15086415
88	0x3d784d26	0.06062045
89	0x3dd50143	0.10400631
90	0x3c5a0297	0.0133062815
91	0xbdb24e0b	-0.08706292
92	0xbe033007	-0.1281129
93	0xbdba67e2	-0.09101845
94	0x3e1db4ae	0.15400955
95	0x3e104f02	0.14092639
96	0xbddc0cff	-0.10744666
97	0xbd9a99d0	-0.07548869
98	0x3e12adae	0.14324066
99	0xbd3e6a24	-0.046487942
100	0xbe24a4e2	-0.16078523
101	0xbcaaf8c8	-0.020870581
102	0x3e2c5263	0.16828303
103	0xbded9c0c	-0.11602029
104	0xbd5c9924	-0.053856984
105	0xbd3f9c28	-0.04677978
106	0x3c9e941c	0.019357733
107	0xbde5f88c	-0.11229047
108	0x3df5af0c	0.11996278
109	0x3dfe68ad	0.12422309
110	0xbc983f30	-0.018584818
111	0xbdb1f6d8	-0.0868966
112	0xbd3fd58f	-0.046834525
113	0x3dc1c205	0.094608344
114	0xbd05e226	-0.032686375
115	0xbd77e211	-0.060518328
116	0x3d7ac263	0.061220538
117	0xbe45eae5	-0.19327886
118	0x3d4d4355	0.05011304
119	0xbbb86a4c	-0.005627906
120	0x3e2fd5e0	0.1717143
121	0x3ce84458	0.028352901
122	0x3dd32e61	0.103115804
123	0x3d914598	0.07093352
124	0x3db59c5e	0.08867715
125	0xbcbfea44	-0.023427136
126	0x3da45232	0.0802349
127	0xbde9d1ad	-0.114169456
