do_tp_federated_final.pt (torch, 156565 bytes, 26 tensors)

linear_enc.weight f4 [64, 2]
0.83937126 0.716588 0.409918 0.11461809 0.79406035 0.4483954 0.80144525 0.85917026
-0.56327885 0.70595145 0.24062027 -0.9131043 0.49574077 -0.44697994 0.32591742 -0.28015286
-0.46477613 -0.043234207 -0.00081541843 0.47240365 0.6006668 1.046203 0.3994707 -0.0058681094
0.13392419 0.10857417 -0.06301311 0.86235476 0.7240524 -0.49867648 -0.6013535 0.6108766
0.0023974201 -0.5158002 0.062983274 -0.18270765 -0.5171209 0.43357313 -0.70821166 -0.6381883
-0.21288633 0.87499416 -0.22884049 0.5641218 -0.3159035 0.5896962 0.7879656 0.13172013
0.68339914 -0.8138189 -0.18121728 -0.24094105 0.20307216 -0.6604937 0.6633299 0.36565703
0.28849408 0.38221166 -0.77309316 0.120530546 0.009938823 -0.4998076 -0.30206776 0.5121923
-0.6243578 0.22639881 0.3172742 -0.8018206 -0.76664054 -0.5889354 -0.45657596 -0.011554912
-0.44414145 -0.3709223 0.5010717 0.31704098 0.4262855 -0.28762665 -0.50819093 -0.77517474
-0.19977856 0.5358707 0.8347623 -0.45263064 0.12776838 1.0533311 -0.70284706 -0.32920563
-0.35006273 0.38803282 0.76076305 0.13193792 -0.13151658 -0.62241584 -0.31857082 0.28537214
0.3344435 0.15192959 0.3161912 -0.19561371 0.13553604 0.57426435 0.0117533095 0.81361884
0.3374821 0.25024688 -0.074049756 -0.21587488 -0.54735965 -0.72837996 0.43094355 -0.6871625
0.4335376 0.6574576 0.522763 0.7821712 0.044215977 0.696842 -0.16274926 -0.61428
0.20422682 -0.6390047 0.48002443 -0.7305227 0.30308124 0.4542632 -0.6767099 -0.5077145
00000000: 09e1 563f 5072 373f c6e0 d13e e4bc ea3d
00000010: 8a47 4b3f 1594 e53e 842b 4d3f 95f2 5b3f
00000020: 0b33 10bf 3cb9 343f 2965 763e 34c1 69bf
00000030: bcd1 fd3e 8eda e4be a6de a63e 3270 8fbe
00000040: 23f7 edbe 5a16 31bd cec1 55ba e4de f13e
00000050: 4dc5 193f fbe9 853f 6c87 cc3e 4549 c0bb
00000060: 6c23 093e 225c de3d 040d 81bd 48c3 5c3f
00000070: 805b 393f 8652 ffbe 4ef2 19bf 6962 1c3f
00000080: 091e 1d3b 7b0b 04bf 60fd 803d b717 3bbe
00000090: 0962 04bf 4cfd dd3e 5c4d 35bf 4f60 23bf
000000a0: e0fe 59be 9eff 5f3f 2955 6abe 496a 103f
000000b0: 1bbe a1be 55f6 163f 1db8 493f a4e1 063e
000000c0: 3ff3 2e3f 6f56 50bf 0691 39be 40b9 76be
000000d0: 26f2 4f3e 1d16 29bf fdcf 293f 6637 bb3e
000000e0: 7fb5 933e 3fb1 c33e 6fe9 45bf b8d8 f63d
000000f0: 72d6 223c c8e6 ffbe a0a8 9abe 091f 033f
00000100: ead5 1fbf 17d5 673e c471 a23e 1d44 4dbf
00000110: 8e42 44bf 78c4 16bf 53c4 e9be d050 3dbc
00000120: 8266 e3be 87e9 bdbe 3c46 003f 3253 a23e
00000130: 1842 da3e cd43 93be cd18 02bf da71 46bf
00000140: c092 4cbe d22e 093f fbb2 553f 34bf e7be
00000150: b7d5 023e 8ed3 863f c9ed 33bf a48d a8be
00000160: 6c3b b3be 3dac c63e 5ec1 423f bc1a 073e
00000170: 48ac 06be a556 1fbf b71b a3be 4c1c 923e
00000180: 2e3c ab3e 6e93 1b3e d0e3 a13e f64e 48be
00000190: f6c9 0a3e fd02 133f f490 403c 5349 503f
000001a0: 74ca ac3e 5c20 803e 66a7 97bd 4e0e 5dbe
000001b0: c31f 0cbf 1c77 3abf a2a4 dc3e e2e9 2fbf
000001c0: a4f8 dd3e 244f 283f ccd3 053f 5f3c 483f
000001d0: d01b 353d 3d64 323f bea7 26be 7441 1dbf
000001e0: d620 513e d095 23bf c3c5 f53e 8903 3bbf
000001f0: 772d 9b3e 3095 e83e dc3c 2dbf 94f9 01bf

linear_enc.bias f4 [64]
0.19209056 -0.14756985 0.3261339 0.04746186 -0.42734084 -0.17038049 -0.14520076 -0.54520094
-0.5422161 -0.5582973 -0.60918367 -0.450558 0.082114905 0.63323045 0.66649145 0.103734046
0.07723441 0.23416924 -0.27185988 -0.4151892 -0.26496834 -0.29537934 0.26591435 -0.2552437
0.44273937 -0.047487855 0.6354074 0.51838666 0.036226097 0.4242348 -0.56909275 0.14662476
0.13832341 0.056048445 -0.23058474 -0.37932885 -0.3858313 -0.23063578 -0.2602046 -0.5851075
0.3771192 0.045813907 -0.057032574 -0.08531775 0.5727168 0.30774972 0.1870738 0.6225295
0.08993436 0.06467612 0.09123063 0.44551128 -0.38621438 -0.27231956 0.321834 -0.28507975
-0.4589098 -0.21041068 0.29962212 0.26096898 -0.58668447 -0.1337428 -0.2187539 -0.13643365
00000000: 63b3 443e 8d1c 17be 06fb a63e 5e67 423d
00000010: 6bcc dabe 3978 2ebe 82af 14be 4a92 0bbf
00000020: adce 0abf 92ec 0ebf 76f3 1bbf 8aaf e6be
00000030: dc2b a83d 641b 223f 2f9f 2a3f 8472 d43d
00000040: 132d 9e3d 10ca 6f3e 3831 8bbe ae93 d4be
00000050: eea9 87be f63b 97be ed25 883e 4daf 82be
00000060: bcae e23e a082 42bd 0faa 223f fdb4 043f
00000070: d161 143d 4e35 d93e 10b0 11bf cd24 163e
00000080: a7a4 0d3e 0e93 653d 681e 6cbe 6437 c2be
00000090: ae8b c5be c92b 6cbe 8a39 85be 9bc9 15bf
000000a0: c515 c13e 5da7 3b3d fd9a 69bd 13bb aebd
000000b0: 919d 123f 5f91 9d3e 4690 3f3e 185e 1f3f
000000c0: 812f b83d ea74 843d 20d7 ba3d 0e1a e43e
000000d0: e4bd c5be 786d 8bbe 6dc7 a43e f9f5 91be
000000e0: 3af6 eabe e675 57be 1268 993e ba9d 853e
000000f0: f430 16bf dff3 08be 0601 60be 43b5 0bbe

encoder_lstm.weight_ih_l0 f4 [128, 64]
-0.15415607 -0.23168907 -0.13233377 -0.14659807 -0.048049167 -0.14712024 0.11342702 -0.040117256
0.16356641 -0.11205851 -0.20532206 -0.0952434 0.056124486 0.051678777 -0.1208592 -0.07155508
0.008369679 0.023154927 0.10788415 0.14047505 0.044650592 -0.005100259 0.03176532 0.07449591
0.054575186 -0.056124102 0.17345142 0.08119508 -0.17963232 -0.12416594 0.019115929 0.1290471
-0.09787767 0.14755039 0.15008093 0.009140741 0.0154895075 -0.18563655 0.10388059 0.04582113
-0.09685953 -0.026510589 -0.058729727 0.1341199 -0.055030506 -0.038556192 -0.10947659 0.09284142
0.094540805 -0.2118055 0.061085615 -0.13026662 -0.17733191 0.0594095 0.15974884 0.049697854
-0.008759375 -0.11557472 0.12750909 -0.08756581 0.05461998 -0.18284349 -0.100043654 0.28954658
-0.09379229 -0.03126751 0.21309066 -0.22239774 -0.2786312 0.21499361 0.16335201 -0.23646952
-0.21582118 -0.34063345 -0.38501728 -0.14623387 0.118318 0.28059793 0.3374732 -0.144325
0.5388434 0.40870717 -0.17365932 -0.040140275 -0.44711095 -0.38858527 -0.067686304 -0.26854888
0.37739533 -0.06488058 0.14698991 0.18918562 -0.027075147 0.18437187 -0.17972684 -0.10168704
0.07938732 0.30956236 -0.02770174 -0.26789653 -0.0973298 -0.11827384 -0.0066686124 -0.009028694
-0.040570926 0.31853858 -0.38891274 -0.17030983 0.030978817 0.34442204 0.31759024 0.30686212
0.16936642 0.20187555 0.11657747 0.022494555 -0.19158661 -0.16501114 0.23991427 -0.07286907
-0.33950216 -0.22129272 -0.06773266 0.44963172 -0.06513166 -0.027016945 -0.48693424 -0.08618781
-0.11344995 -0.26006404 0.034283604 -0.16606712 -0.39040533 0.26772174 -0.020939747 -0.2934093
-0.30735734 -0.12119506 -0.19264477 -0.25794825 0.2653529 0.07015839 0.33865115 -0.29807007
0.5399083 0.28389603 -0.5081705 -0.037739493 -0.61300045 -0.4498201 0.113421775 -0.28359205
0.2307271 -0.08959801 0.18099584 0.36576664 0.018934181 0.09465869 -0.13732524 -0.005138606
-0.10436212 0.4869776 -0.07666857 -0.15720388 -0.31829998 -0.40582687 -0.25171608 -0.1445419
0.21456629 0.29172844 -0.5522285 0.0061331 0.27942076 0.34980237 0.3566029 0.058654074
0.23420346 0.14112315 0.063688695 0.23237526 -0.3314529 -0.18313318 0.29006505 0.020101659
-0.31629723 -0.17989728 0.08304036 0.26843062 -0.02591328 0.21411276 -0.48636788 0.0040862216
-0.20164448 0.023304055 -0.1359184 -0.14132725 -0.12752926 0.04905281 -0.023862876 -0.1297664
0.21739706 -0.16070555 -0.07364647 0.07615721 -0.10061206 -0.10482802 -0.18953812 0.15617436
0.00046443637 0.009484242 0.10287912 0.1977657 -0.07332446 -0.037519813 -0.0355379 -0.007513248
-0.121655166 0.1114723 0.0063786185 -0.21728823 -0.2119034 -0.04388279 -0.039170597 -0.14922844
0.09518635 -0.070781656 0.27271944 0.22080997 0.07952842 0.05922241 0.12723045 0.15189278
0.0498605 0.06615366 -0.2507372 -0.01684197 -0.04847918 -0.21557362 -0.13603191 0.09222127
-0.08908043 0.10168287 -0.19866131 -0.04051371 -0.10061387 0.12152614 0.0025525177 0.0132096885
-0.15912138 0.02110184 -0.12119802 0.08999975 -0.019737078 0.06795995 0.09672883 0.1587321
00000000: 17db 1dbe e63f 6dbe 8182 07be ce1d 16be
00000010: 34cf 44bd b0a6 16be 6d4c e83d fe51 24bd
00000020: f47d 273e ef7e e5bd f23f 52be f90e c3bd
00000030: cae2 653d 20ad 533d 0785 f7bd 788b 92bd
00000040: fa20 093c 67af bd3c 5ef2 dc3d b1d8 0f3e
00000050: 8ae3 363d 1320 a7bb 5a1c 023d 5091 983d
00000060: 3b8a 5f3d 63e2 65bd 409d 313e 9b49 a63d
00000070: 89f1 37be b64a febd 0299 9c3c ec24 043e
00000080: 1674 c8bd 7317 173e d1ae 193e 0cc3 153c
00000090: b4c7 7d3c 8217 3ebe 59bf d43d f0ae 3b3d
000000a0: 4a5e c6bd bc2c d9bc 958e 70bd ba56 093e
000000b0: ab67 61bd 19ed 1dbd 4335 e0bd a423 be3d
000000c0: 9c9e c13d 8ae3 58be e934 7a3d 9d64 05be
000000d0: 7f96 35be 6057 733d 3395 233e fa8f 4b3d
000000e0: 7b83 0fbc 70b2 ecbd be91 023e b455 b3bd
000000f0: 33b9 5f3d 533b 3bbe b0e3 ccbd 733f 943e
00000100: 2c16 c0bd 5c12 00bd 7034 5a3e 3cbc 63be
00000110: c0a8 8ebe 4927 5c3e c045 273e 1125 72be
00000120: 3a00 5dbe 8267 aebe fc20 c5be 55be 15be
00000130: b550 f23d 88aa 8f3e 4ac9 ac3e efc9 13be
00000140: a4f1 093f 1142 d13e c0d3 31be 216a 24bd
00000150: baeb e4be a6f4 c6be 1e9f 8abd 3d7f 89be
00000160: f639 c13e 1ce0 84bd 8684 163e e0b9 413e
00000170: b3cc ddbc fbcb 3c3e 500a 38be 4b41 d0bd
00000180: d295 a23d f57e 9e3e c2ee e2bc bc29 89be
00000190: d954 c7bd 8e39 f2bd 6084 dabb 16ed 13bc
000001a0: b32d 26bd 7d17 a33e 921f c7be b365 2ebe
000001b0: 4ac7 fd3c 1658 b03e 309b a23e 081d 9d3e
000001c0: 646e 2d3e 77b8 4e3e 2bc0 ee3d 8046 b83c
000001d0: 482f 44be aef8 28be 16ac 753e 613c 95bd
000001e0: 3ad3 adbe 8f9a 62be 6cb7 8abd 2136 e63e
000001f0: bf63 85bd a452 ddbc 724f f9be 3c83 b0bd
00000200: 7358 e8bd 1d27 85be f76c 0c3d 800d 2abe
00000210: 35e3 c7be d312 893e d589 abbc be39 96be
00000220: f15d 9dbe 1e35 f8bd ac44 45be cb11 84be
00000230: 56dc 873e 34af 8f3d af63 ad3e a49c 98be
00000240: 6e37 0a3f d25a 913e 7617 02bf ba94 1abd
00000250: 99ed 1cbf d24e e6be ad49 e83d fa32 91be
00000260: ba43 6c3e 297f b7bd f956 393e c445 bb3e
00000270: db1b 9b3c 6adc c13d fd9e 0cbe c061 a8bb
00000280: cfbb d5bd 2155 f93e 6904 9dbd 0efa 20be
00000290: 37f8 a2be 8ac8 cfbe eee0 80be cb02 14be
000002a0: 44b7 5b3e 6e5d 953e d95e 0dbf 2cf8 c83b
000002b0: 3d10 8f3e 4c19 b33e a894 b63e 413f 703d
000002c0: 08d3 6f3e 9682 103e 386f 823d c8f3 6d3e
000002d0: 32b4 a9be 4487 3bbe 6883 943e 3cac a43c
000002e0: b6f1 a1be fe36 38be 1011 aa3d bd6f 893e
000002f0: 1648 d4bc 6040 5b3e 3605 f9be b6e5 853b
00000300: e47b 4ebe 25e8 be3c 312e 0bbe 17b8 10be
00000310: 0897 02be 99eb 483d 147c c3bc 7ce1 04be
00000320: 569d 5e3e ff8f 24be f6d3 96bd 50f8 9b3d
00000330: b20d cebd 13b0 d6bd 4816 42be 2cec 1f3e
00000340: 987f f339 cb63 1b3c 4ab2 d23d 1783 4a3e
00000350: 222b 96bd 60ae 19bd 3090 11bd b131 f6bb
00000360: 5826 f9bd 974b e43d bb03 d13b ce80 5ebe
00000370: 34fd 58be 71be 33bd 5971 20bd 57cf 18be
00000380: 10f1 c23d f9f5 90bd e2a1 8b3e 021c 623e
00000390: ccdf a23d 3393 723d b348 023e c889 1b3e
000003a0: 863a 4c3d 927b 873d a060 80be 2cf8 89bc
000003b0: 1b92 46bd 55bf 5cbe f34b 0bbe 81de bc3d
000003c0: cd6f b6bd 1c3f d03d df6d 4bbe b4f1 25bd
000003d0: a50e cebd b2e2 f83d 2448 273b 736d 583c
000003e0: b7f0 22be c4dd ac3c ab36 f8bd ca51 b83d
000003f0: a7af a1bc 962e 8b3d c419 c63d ab8a 223e

encoder_lstm.weight_hh_l0 f4 [128, 32]
0.051392987 -0.14778493 0.031179618 -0.0008955796 -0.13387692 -0.075160734 0.12556098 -0.100421935
-0.14530838 -0.08494407 0.0019283958 -0.19974223 0.19832233 0.01736073 0.06820223 -0.26088175
0.09891836 0.00963709 0.21684517 -0.29255044 0.13970175 -0.09336566 0.05513902 -0.013151109
0.03330948 0.24428405 -0.1787795 0.19849278 0.2069122 -0.15975207 0.22922763 -0.20360225
-0.23759483 0.1623658 0.18735819 -0.12627165 0.33956724 0.14199802 0.14088464 0.023390185
0.2011042 0.36937445 0.34086683 0.13143714 0.043529496 0.31337076 0.08181004 -0.0703583
-0.5497736 -0.03959573 0.24053165 -0.3774038 0.303386 0.44368804 -0.4891562 -0.11123664
0.35705903 -0.0005849139 -0.07810309 0.25503653 -0.1175224 -0.2482875 0.2567464 -0.14849232
-0.18082431 0.10845792 0.19323404 -0.20044512 0.17032883 0.32945627 0.18901345 0.004514007
-0.123292975 -0.00039926823 0.23624562 0.06655914 0.12248656 0.047730297 0.21312447 0.015157129
-0.11618569 0.21797934 0.20104052 -0.29061604 0.116430864 0.42256904 -0.18901305 -0.03742561
0.16269003 0.04477535 -0.24405578 0.18887152 0.17841242 -0.065888785 0.12336151 -0.20508943
0.19874816 -0.08685679 0.3564422 -0.1458596 -0.24385129 0.29502714 0.04453443 0.020219196
0.10001438 -0.071877316 -0.11903244 -0.22550213 0.19154583 0.10488315 0.121275984 0.1029833
0.20359045 0.15209053 -0.18136394 0.011786254 0.07997649 0.031941593 -0.052312918 0.22684363
-0.042676248 0.27985805 -0.051579837 0.12424572 0.18888263 0.04935407 -0.007051693 0.10172285
-0.038028855 -0.49537212 -0.16919588 0.068454295 0.17317107 0.18840621 0.23496357 -0.40128976
0.38909456 0.041291572 0.2341129 0.34837842 0.30594286 -0.11571557 -0.021519186 -0.29048818
0.15837085 -0.62060434 0.102829404 -0.12434386 -0.24094166 0.04707253 0.03847297 -0.2221849
0.32545328 0.20187205 -0.31205627 0.33265778 0.43395653 0.092198946 -0.2616815 -0.31765008
0.005860549 -0.42397156 -0.18027472 -0.08023611 -0.04386892 0.14540777 -0.12320667 -0.36398247
0.30369183 0.10370462 0.26847163 0.18273866 0.22809105 -0.113628134 -0.34627825 -0.47901732
-0.029634401 -0.18633437 0.28759757 0.15343411 -0.056618378 -0.00062830467 0.030851804 -0.06159027
0.07656711 0.20747237 -0.11979185 0.4785547 0.27437618 -0.22133896 -0.099735275 0.09745107
-0.5522555 -0.13292767 -0.0095118815 -0.31564274 0.37180042 0.17302164 -0.017762154 0.25373957
-0.22246769 -0.24962823 -0.15041418 0.05732793 -0.26969457 0.07960953 0.20034622 0.009717201
-0.12456324 -0.2107082 0.11153398 -0.1676144 -0.06538965 0.18828392 -0.13174242 0.24505758
0.12127804 0.18300104 -0.10348289 0.40411472 0.34361014 0.049456608 0.27300146 -0.15319826
-0.20263152 0.27142453 0.2917757 -0.19678864 -0.012221896 0.001261011 -0.16904467 0.28296566
0.018838253 0.00019527576 -0.008453425 0.1113853 0.16993803 -0.007911592 0.35737735 0.06265646
0.123968095 -0.30007178 0.14024392 -0.09608949 -0.11713367 0.0986259 0.06501898 0.10560976
-0.1229901 0.07993617 -0.027686737 -0.008901402 0.103118375 0.22008175 0.11977178 -0.10235041
00000000: 7481 523d ef54 17be 666c ff3c 54c5 6aba
00000010: 0817 09be dfed 99bd 0f93 003e 04aa cdbd
00000020: b8cb 14be 28f7 adbd 3ac2 fc3a 3a89 4cbe
00000030: 0215 4b3e 1738 8e3c 9cad 8b3d 4b92 85be
00000040: b695 ca3d e3e4 1d3c a90c 5e3e 2cc9 95be
00000050: fa0d 0f3e 7f36 bfbd 74d9 613d c077 57bc
00000060: 856f 083d 9925 7a3e f911 37be b141 4b3e
00000070: cbe0 533e 0c96 23be a6ba 6a3e 1c7d 50be
00000080: 0f4c 73be 3843 263e d3da 3f3e 5b4d 01be
00000090: c2db ad3e ee67 113e 1044 103e c69c bf3c
000000a0: 42ee 4d3e a61e bd3e 1986 ae3e 7597 063e
000000b0: fc4b 323d 2272 a03e 068c a73d 0318 90bd
000000c0: f6bd 0cbf 222f 22bd ee4d 763e 123b c1be
000000d0: 6955 9b3e 142b e33e ae72 fabe 09d0 e3bd
000000e0: 71d0 b63e e854 19ba 83f4 9fbd 2694 823e
000000f0: 96af f0bd 143f 7ebe 4474 833e 5f0e 18be
00000100: 022a 39be 301f de3d 25df 453e 7c41 4dbe
00000110: ae6a 2e3e 7eae a83e be8c 413e 3cea 933b
00000120: 0781 fcbd e054 d1b9 5fea 713e 2950 883d
00000130: 3cda fa3d d880 433d 4d3d 5a3e 9b55 783c
00000140: c3f2 edbd fa35 5f3e 91dd 4d3e a0cb 94be
00000150: 4e73 ee3d f85a d83e a38c 41be 994b 19bd
00000160: 3798 263e 5b66 373d c2e9 79be 8967 413e
00000170: bfb1 363e b3f0 86bd f6a4 fc3d f702 52be
00000180: a384 4b3e f9e1 b1bd 987f b63e 385c 15be
00000190: 27b4 79be cc0d 973e bc69 363d baa2 a53c
000001a0: 57d4 cc3d 6a34 93bd 48c7 f3bd 08ea 66be
000001b0: 9724 443e facc d63d 8b5f f83d e9e8 d23d
000001c0: 047a 503e 9fbd 1b3e 78b7 39be 221b 413c
000001d0: b7ca a33d 30d5 023d 1246 56bd b249 683e
000001e0: 4acd 2ebd 8e49 8f3e 6145 53bd 8a74 fe3d
000001f0: 736a 413e 7e27 4a3d e311 e7bb 1254 d03d
00000200: 25c4 1bbd 6aa1 fdbe af41 2dbe c431 8c3d
00000210: c253 313e 8fed 403e 4a9a 703e da75 cdbe
00000220: 6737 c73e 5a21 293d 4bbb 6f3e a85e b23e
00000230: 8ba4 9c3e 49fc ecbd 0149 b0bc deba 94be
00000240: f82b 223e eddf 1ebf 3998 d23d fea7 febd
00000250: 69b9 76be 20cf 403d d595 1d3d 7084 63be
00000260: d0a1 a63e 8cb7 4e3e d7c5 9fbe 1f52 aa3e
00000270: 8d2f de3e cdd2 bc3d 1efb 85be 08a3 a2be
00000280: d909 c03b cd12 d9be f099 38be d452 a4bd
00000290: e6af 33bd c6e5 143e c753 fcbd e95b babe
000002a0: 7f7d 9b3e 1663 d43d 1d75 893e d81f 3b3e
000002b0: b390 693e deb5 e8bd 624b b1be c241 f5be
000002c0: d8c3 f2bc 70ce 3ebe fd3f 933e d51d 1d3e
000002d0: ace8 67bd d0b4 24ba ecbc fc3c 1446 7cbd
000002e0: 38cf 9c3d a373 543e 6e55 f5bd 1f05 f53e
000002f0: 097b 8c3e aea6 62be 0242 ccbd 6d94 c73d
00000300: 9e60 0dbf 311e 08be b9d7 1bbc ed9b a1be
00000310: a05c be3e 962c 313e f081 91bc 27ea 813e
00000320: 92ce 63be 8b9e 7fbe 2d06 1abe b1d0 6a3d
00000330: 6815 8abe 520a a33d 8f27 4d3e e534 1f3c
00000340: 031b ffbd e4c3 57be ed6b e43d 1ca3 2bbe
00000350: 02eb 85bd 80cd 403e 7ce7 06be 60f0 7a3e
00000360: 9f60 f83d a064 3b3e d6ee d3bd 20e8 ce3e
00000370: abed af3e 0393 4a3d d9c6 8b3e 01e0 1cbe
00000380: a37e 4fbe 28f8 8a3e a063 953e f682 49be
00000390: 593e 48bc 8248 a53a 0c1a 2dbe e0e0 903e
000003a0: ae52 9a3c f0c2 4c39 3c80 0abc fa1d e43d
000003b0: 3c04 2e3e 9f9f 01bc 2afa b63e 0852 803d
000003c0: fce2 fd3d 02a3 99be 1a9c 0f3e 91ca c4bd
000003d0: c7e3 efbd 60fc c93d ac28 853d ee49 d83d
000003e0: 3ce2 fbbd 93b5 a33d 4ccf e2bc 30d7 11bc
000003f0: ba2f d33d 1c5d 613e e84a f53d 179d d1bd

encoder_lstm.bias_ih_l0 f4 [128]
0.12416117 0.16383757 0.20808864 -0.0612261 0.060205195 0.21393627 0.11732566 0.15268333
0.21265787 0.22863364 0.03767603 0.28888348 -0.12104303 -0.041645326 -0.14275408 0.13903713
0.11087592 0.4280657 -0.18248832 -0.07329527 0.0416369 -0.045883194 -0.058027655 0.33710906
-0.12043412 0.21411757 0.03293501 -0.07505131 0.0074651805 0.2519748 0.16740361 0.21126851
0.013995079 -0.105691165 -0.129035 -0.14017095 -0.15177588 -0.17083894 0.12653571 -0.08175798
0.16194625 0.16462363 0.07907508 0.14625044 -0.07452105 -0.13594428 -0.12871833 -0.11056042
-0.023596825 -0.12672463 -0.1395405 -0.012990495 0.12398088 0.19409806 -0.1512675 0.01662307
0.123295546 -0.1269534 0.083954304 0.13708417 -0.0077831647 -0.06893103 -0.14121243 -0.082726315
0.06731236 0.02196508 0.15834336 0.03961866 -0.08844217 0.1527342 0.14844936 -0.033411715
0.0041568256 0.056296416 0.04476496 0.037501495 -0.076071106 -0.011288219 -0.023721717 -0.12493688
-0.10534932 -0.06117346 -0.070253536 0.021747544 0.1697948 0.14568794 -0.07795151 -0.15177852
-0.09368565 0.16922645 -0.017340163 0.15371606 0.10460527 0.061574128 -0.049651776 -0.044941507
-0.16589871 0.050582446 0.04087026 -0.027621461 0.19721316 0.14458403 0.1440276 -0.0458674
0.2005989 0.09044668 -0.16482346 0.2900007 -0.03452243 0.17932533 0.14038937 0.13749671
-0.18005577 0.30142298 0.124134496 -0.06687319 0.22670051 -0.099477254 0.13995647 0.33884293
0.03836686 0.13206816 -0.09356879 0.16272703 0.14961904 0.24160206 -0.10954945 -0.01652149
00000000: 3648 fe3d 09c5 273e 3015 553e 38c8 7abd
00000010: b999 763d 1c12 5b3e 7048 f03d 0559 1c3e
00000020: fcc2 593e f01e 6a3e 2e52 1a3d 89e8 933e
00000030: 68e5 f7bd 4a94 2abd 202e 12be c05f 0e3e
00000040: ea12 e33d 6d2b db3e 38de 3abe d51b 96bd
00000050: 748b 2a3d 04f0 3bbd 68ae 6dbd 8f99 ac3e
00000060: 2aa6 f6bd a341 5b3e dce6 063d 80b4 99bd
00000070: 799e f43b d702 813e da6b 2b3e c656 583e
00000080: 9e4b 653c 9c74 d8bd c021 04be f988 0fbe
00000090: 236b 1bbe 67f0 2ebe 9492 013e ba70 a7bd
000000a0: 3dd5 253e 1993 283e 1ef2 a13d adc2 153e
000000b0: 7e9e 98bd fa34 0bbe bdce 03be 806d e2bd
000000c0: 214e c1bc 1ac4 01be b4e3 0ebe 16d6 54bc
000000d0: b0e9 fd3d a4c1 463e dee5 1abe 1b2d 883c
000000e0: 6082 fc3d 1200 02be 3cf0 ab3d cb5f 0c3e
000000f0: eb09 ffbb b62b 8dbd fe99 10be 6a6c a9bd
00000100: 10db 893d 1df0 b33c c324 223e 2d47 223d
00000110: 2b21 b5bd 5b66 1c3e 1c03 183e b9da 08bd
00000120: fb35 883b 1297 663d 765b 373d 2b9b 193d
00000130: 2bcb 9bbd 39f2 38bc 0c54 c2bc e8de ffbd
00000140: 62c1 d7bd 0691 7abd 16e1 8fbd e827 b23c
00000150: b0de 2d3e 382f 153e 0ba5 9fbd d46b 1bbe
00000160: 43de bfbd b349 2d3e f50c 8ebc be67 1d3e
00000170: 4a3b d63d 2735 7c3d a95f 4bbd 9614 38bd
00000180: 5ae1 29be 8a2f 4f3d 9367 273d 6746 e2bc
00000190: 3ff2 493e d60d 143e f97b 133e 74df 3bbd
000001a0: cc69 4d3e 1c3c b93d 7bc7 28be f97a 943e
000001b0: 6467 0dbd 0fa1 373e 3bc2 0f3e f0cb 0c3e
000001c0: 8a60 38be 1d54 9a3e 3a3a fe3d d0f4 88bd
000001d0: 2e24 683e bbba cbbd c050 0f3e d27c ad3e
000001e0: 9226 1d3d e03c 073e fea0 bfbd eaa1 263e
000001f0: bc35 193e 8866 773e 765b e0bd 1358 87bc

encoder_lstm.bias_hh_l0 f4 [128]
-0.019657861 0.17096767 0.19057585 -0.111469425 0.10182363 0.16395353 0.01885688 0.0062489985
0.23823771 0.16241013 0.08659509 0.16587052 -0.08976454 -0.093425475 0.0390434 0.036596633
0.032408908 0.54846746 -0.093940854 0.057538904 -0.12697284 0.07421763 -0.10385642 0.07744647
0.06986184 0.12790443 -0.016423812 0.09314972 0.07566965 -0.079129435 0.20134586 0.012736662
-0.086307764 -0.07056191 0.050056737 0.13411461 -0.19870669 0.03535766 0.06630176 -0.18956478
0.048940085 -0.06293832 0.0010574809 -0.07797715 -0.06587921 -0.0919985 -0.04962364 0.1345976
0.16860852 -0.12516789 -0.09152247 0.035863485 -0.043167002 0.018846419 0.029088533 0.088632725
0.12620589 -0.12622067 -0.06640248 0.09748133 0.15674557 -0.057738565 0.12657464 0.10130957
-0.027104344 -0.13867831 0.085959174 0.0056988117 0.14957055 -0.059969362 -0.03147446 0.11991017
0.021356175 -0.14221537 0.027143287 -0.022765284 -0.14189571 -0.13053297 0.07875571 -0.114837505
-0.036978923 -0.12191017 -0.14162971 -0.12217694 0.14737265 0.0152862305 0.06332646 -0.08631051
0.17141694 -0.043641463 -0.032872044 -0.12065167 0.113737464 -0.17153561 -0.033435244 -0.025857681
0.08906458 -0.007031666 0.13200855 -0.13812906 0.34676552 0.30952954 0.26209313 0.036068335
-0.13048175 0.29172504 -0.019293632 0.16356187 0.20411268 -0.029611979 0.147744 0.17404433
0.1504132 0.12274159 -0.14068535 -0.011930926 0.108043626 0.1710259 0.007969937 0.34834746
-0.05547312 -0.017196141 -0.06988754 0.116059475 -0.122426234 0.23143412 0.054210573 0.17024241
00000000: 8609 a1bc 2612 2f3e 5126 433e 154a e4bd
00000010: e888 d03d 6fe3 273e be79 9a3c 66c4 cc3b
00000020: 96f4 733e d74e 263e c458 b13d f6d9 293e
00000030: 79d6 b7bd db55 bfbd f9eb 1f3d 5ae6 153d
00000040: 34bf 043d 5d68 0c3f 1064 c0bd eaad 6b3d
00000050: 2b05 02be 6aff 973d adb2 d4bd 419c 9e3d
00000060: b913 8f3d 61f9 023e 3b8b 86bc 48c5 be3d
00000070: b1f8 9a3d 9d0e a2bd 9c2d 4e3e 6fad 503c
00000080: 20c2 b0bd c382 90bd 4b08 4d3d 5755 093e
00000090: c479 4bbe 32d3 103d 38c9 873d 451d 42be
000000a0: 6675 483d cee5 80bd 2c9b 8a3a 7cb2 9fbd
000000b0: aeeb 86bd b669 bcbd 2842 4bbd f4d3 093e
000000c0: b6a7 2c3e 032c 00be 2270 bbbd 97e5 123d
000000d0: e2cf 30bd ce63 9a3c 134b ee3c 1385 b53d
000000e0: 1e3c 013e fe3f 01be 06fe 87bd 4ba4 c73d
000000f0: e981 203e 467f 6cbd c89c 013e 647b cf3d
00000100: ee09 debc b001 0ebe 5d0b b03d 19bd ba3b
00000110: 0629 193e 6fa2 75bd 5deb 00bd 7793 f53d
00000120: 25f3 ae3c e8a0 11be 995b de3c 437e babc
00000130: 1c4d 11be 6faa 05be ac4a a13d ed2f ebbd
00000140: 3677 17bd 0aac f9bd 6107 11be e737 fabd
00000150: dbe8 163e 1973 7a3c 4eb1 813d 91c3 b0bd
00000160: ec87 2f3e 64c1 32bd d6a4 06bd 3918 f7bd
00000170: 30ef e83d 08a7 2fbe 65f3 08bd 7dd3 d3bc
00000180: 7e67 b63d e469 e6bb 402d 073e b471 0dbe
00000190: 408b b13e a87a 9e3e 1231 863e 64bc 133d
000001a0: 029d 05be fc5c 953e ae0d 9ebc c37c 273e
000001b0: ea02 513e d294 f2bc 344a 173e ad38 323e
000001c0: eb05 1a3e f15f fb3d d20f 10be ee79 43bc
000001d0: fa45 dd3d 6a21 2f3e 5794 023c 995a b23e
000001e0: c837 63bd ecde 8cbc 3321 8fbd 97b0 ed3d
000001f0: 9bba fabd 11fd 6c3e e80b 5e3d 0754 2e3e

dest_lstm_obs.weight_ih_l0 f4 [128, 2]
0.00825691 -0.19058746 -0.06677437 -0.09866255 0.014440897 0.077977106 0.11130211 -0.018393647
-0.05704162 -0.095141836 -0.17980854 0.08778549 -0.02328739 -0.08501701 0.10296158 0.041236397
-0.15659957 0.08927101 0.088951334 -0.08015129 0.15810679 -0.08914876 0.13903575 -0.05585718
0.004676063 -0.0030555218 -0.13919228 0.14032918 -0.038014 0.0854508 -0.11436701 0.07581873
-0.023738176 -0.017409481 -0.110656664 0.09263697 -0.008785778 0.11674023 0.0106573375 0.062960505
-0.064535655 0.14411494 0.08173944 -0.10189748 0.08403822 -0.08294864 -0.066456765 0.039214637
-0.0045251176 -0.12968594 0.04433741 -0.12249145 -0.098667674 0.0703257 -0.15467815 -0.11593494
-0.09082846 -0.010375483 0.14119126 -0.009857569 0.112883106 -0.074562415 0.114513494 -0.09954804
-0.041158758 0.09457966 -0.04463415 0.0067949267 -0.020421008 -0.048674386 -0.07741341 -0.055074833
-0.04620912 0.027643189 -0.027270153 -0.017327141 0.012902471 0.04628468 -0.17234325 0.045508306
-0.15222636 0.06975064 -0.02723322 -0.095802955 -0.09908648 -0.036596812 -0.112662524 -0.045682043
-0.14082414 0.11963312 -0.07958326 -0.05906172 0.023799272 -0.050603222 0.0020378272 -0.108272076
-0.13940036 -0.08858299 -0.033218373 0.03052036 0.0416833 -0.19645166 -0.10675751 -0.24605134
0.0033319138 -0.1440493 0.036110185 0.08243991 -0.11363938 0.067008115 -0.20040673 0.042468913
0.011057058 0.10581577 -0.04493727 -0.089678705 0.032922152 -0.119433045 -0.025670487 -0.04241729
0.08576046 0.0019513685 -0.09486193 -0.047454234 -0.11611538 -0.04960149 -0.12484903 -0.020442203
-0.10424534 -0.015504217 0.0038354755 0.030582273 -0.058002766 0.027477695 -0.04231306 0.037306942
-0.13710026 0.11548546 0.052096203 0.06670755 0.13520718 -0.11328842 0.021470694 0.051380876
0.013718558 -0.1094114 -0.10711907 -0.007460293 0.071864955 -0.051648915 0.10346769 -0.076323666
0.012264701 0.018609652 0.012393004 0.03424149 -0.021465063 -0.073133685 0.10144192 -0.12949225
-0.052401297 -0.0014976929 -0.04148758 0.062301382 0.05210706 -0.011090421 0.0016602727 -0.013214922
-0.08420089 -0.043561347 -0.00925812 -0.00693918 -0.1400581 0.11001606 0.11554362 -0.08079113
-0.007825065 0.072260305 0.07872621 0.050898604 0.10789953 -0.04511808 0.012610064 0.03857862
-0.029474635 0.08288143 -0.05141606 -0.09678472 -0.02082643 0.045033433 0.08696505 0.018069241
-0.10235782 0.0895682 -0.11899677 -0.004660772 -0.05490514 0.106387734 -0.09488414 0.05280852
-0.056681708 -0.040558316 -0.01967597 0.061416555 0.05175958 -0.05681515 -0.079844736 0.012774378
-0.013364353 0.07332223 0.059267092 0.07210597 0.036548883 -0.053368993 -0.055155892 -0.12924686
0.1348844 -0.12941778 -0.14764602 0.07482189 0.067565836 -0.119696364 -0.16892001 0.119700134
0.026485588 -0.11363974 0.053714886 -0.13248084 0.08031985 -0.15510519 -0.112646945 0.0792097
0.059174825 -0.049399316 -0.17525037 0.06380594 -0.014490376 -0.026996747 0.077562585 -0.033616845
0.0057945997 0.06766939 0.045110658 0.03395089 0.09515781 -0.15745838 0.08969483 0.07677774
-0.026687142 0.06510431 0.043097436 0.088691615 -0.034618553 -0.10251915 -0.071136735 0.06626682
00000000: fe47 073c 5c29 43be 00c1 88bd 970f cabd
00000010: 8399 6c3c 76b2 9f3d 5cf2 e33d 46ae 96bc
00000020: 79a4 69bd b9d9 c2bd bb1f 38be e1c8 b33d
00000030: 32c5 bebc 661d aebd 85dd d23d 7fe7 283d
00000040: a35b 20be b8d3 b63d 1e2c b63d 5c26 a4bd
00000050: bfe6 213e a093 b6bd 635f 0e3e 80ca 64bd
00000060: a939 993b 263f 48bb 6c88 0ebe 74b2 0f3e
00000070: 91b4 1bbd d400 af3d 4039 eabd da46 9b3d
00000080: 9076 c2bc 549e 8ebc f69f e2bd 74b8 bd3d
00000090: 39f2 0fbc 8015 ef3d 1d9c 2e3c 70f1 803d
000000a0: 452b 84bd de92 133e 0267 a73d a0af d0bd
000000b0: 3b1c ac3d fae0 a9bd 7c1a 88bd 879f 203d
000000c0: 7047 94bb 64cc 04be 259b 353d ccdc fabd
000000d0: 4712 cabd ec06 903d f363 1ebe 4c6f edbd
000000e0: 4604 babd eefd 29bc 7194 103e a481 21bc
000000f0: 422f e73d 2eb4 98bd 0d86 ea3d d8df cbbd
00000100: 1696 28bd fbb2 c13d 4cd2 36bd faa7 de3b
00000110: f549 a7bc cb5e 47bd ec8a 9ebd 2696 61bd
00000120: c645 3dbd f873 e23c a865 dfbc a6f1 8dbc
00000130: e364 533c 0195 3d3d c07a 30be eb66 3a3d
00000140: 3ae1 1bbe 6cd9 8e3d 3418 dfbc 5734 c4bd
00000150: daed cabd 8ae6 15bd 9cbb e6bd 181d 3bbd
00000160: 3434 10be 3602 f53d 8cfc a2bd b4ea 71bd
00000170: b1f6 c23c 5345 4fbd 118d 053b c0bd ddbd
00000180: f8be 0ebe 006b b5bd fd0f 08bd d605 fa3c
00000190: 1cbc 2a3d a02a 49be aea3 dabd e2f4 7bbe
000001a0: 3d5c 5a3b a981 13be 46e8 133d 41d6 a83d
000001b0: c3bb e8bd 8d3b 893d 6c37 4dbe e2f3 2d3d
000001c0: aa28 353c f0b5 d83d 2510 38bd 78a9 b7bd
000001d0: 61d9 063d 5099 f4bd ea4a d2bc c1bd 2dbd
000001e0: 2ea3 af3d 10c5 ff3a f946 c2bd 5f5f 42bd
000001f0: e6cd edbd ef2a 4bbd d9b0 ffbd 6876 a7bc
00000200: 957e d5bd 6605 7ebc 9a5c 7b3b ad87 fa3c
00000210: 4f94 6dbd e718 e13c 7650 2dbd 2acf 183d
00000220: 0364 0cbe a483 ec3d d462 553d f89d 883d
00000230: c073 0a3e c203 e8bd 4fe3 af3c c174 523d
00000240: cdc3 603c 1613 e0bd 3e61 dbbd 7975 f4bb
00000250: ef2d 933d d08d 53bd dee6 d33d 954f 9cbd
00000260: e2f1 483c 4573 983c 070c 4b3c ce40 0c3d
00000270: 80d7 afbc 1dc7 95bd c8c0 cf3d 9e99 04be
00000280: bea2 56bd 3c4e c4ba e1ee 29bd bc2f 7f3d
00000290: 366e 553d 99b4 35bc 829d d93a 6683 58bc
000002a0: 8471 acbd 626d 32bd 5faf 17bc 1062 e3bb
000002b0: 646b 0fbe 1a50 e13d 22a2 ec3d d275 a5bd
000002c0: b434 00bc 36fd 933d 353b a13d 0e7b 503d
000002d0: 6efa dc3d bccd 38bd 719a 4e3c 9d04 1e3d
000002e0: ca74 f1bc bdbd a93d a699 52bd 1137 c6bd
000002f0: 309c aabc fa74 383d bb1a b23d f205 943c
00000300: faa0 d1bd 886f b73d 94b4 f3bd 64b9 98bb
00000310: 36e4 60bd d0e1 d93d 9e52 c2bd bf4d 583d
00000320: 142b 68bd 7a20 26bd 802f a1bc ed8f 7b3d
00000330: da01 543d 01b7 68bd a385 a3bd a04b 513c
00000340: 29f6 5abc f729 963d 0dc2 723d 4bac 933d
00000350: 48b4 153d 7299 5abd 25eb 61bd 4a59 04be
00000360: 231f 0a3e 1886 04be 8530 17be 383c 993d
00000370: f55f 8a3d 5e23 f5bd 5ef9 2cbe 5825 f53d
00000380: 4ef8 d83c f4bb e8bd 2404 5c3d 0fa9 07be
00000390: bc7e a43d e5d3 1ebe 71b3 e6bd b238 a23d
000003a0: 4d61 723d f056 4abd d574 33be b0ac 823d
000003b0: 0b69 6dbc 4828 ddbc 22d9 9e3d d1b1 09bd
000003c0: a0e0 bd3b 4096 8a3d f4c5 383d 1710 0b3d
000003d0: 19e2 c23d c53c 21be ecb1 b73d a63d 9d3d
000003e0: fe9e dabc 6955 853d f086 303d f3a3 b53d
000003f0: 2fcc 0dbd 8ff5 d1bd 23b0 91bd e6b6 873d

dest_lstm_obs.weight_hh_l0 f4 [128, 32]
0.23948696 -0.19837286 0.00894677 -0.077889785 0.03700255 0.11021507 0.055089194 -0.17774862
0.18975654 0.21603085 -0.15493098 -0.053928003 -0.1475951 -0.051461127 0.18000346 0.17320769
0.124900684 -0.06126578 -0.061087426 0.08912462 -0.070739925 0.1097589 0.03718926 -0.13735291
-0.030243807 -0.051177952 -0.026206529 -0.21064198 -0.116954744 -0.10493724 -0.14603432 -0.16718422
-0.075093076 -0.006273097 0.17579147 0.011131338 0.059228383 -0.126915 0.020799926 -0.091202304
0.030336373 0.11478497 -0.13555165 0.10037794 0.1590992 -0.025809474 -0.0020007151 -0.07867759
-0.12194613 0.0052513424 -0.18055445 -0.14283139 -0.0043164957 -0.006820084 -0.02866828 -0.12255621
0.04371399 -0.14100644 -0.21426079 -0.06598903 -0.028661123 -0.13512713 0.06904662 0.09031038
-0.049886487 0.086660296 0.18928519 -0.1077416 -0.04091353 0.0803189 0.18245263 -0.03619711
0.24901985 -0.04667597 0.066788636 0.013831677 0.08370478 -0.22982448 -0.037935197 -0.036086768
0.07353012 0.14168453 -0.11574389 0.123847716 0.100385614 -0.118924804 -0.11574791 -0.09172774
-0.06952643 0.12026427 0.060679667 -0.074216105 -0.21576917 -0.07332665 -0.11243774 -0.09665126
0.19299117 0.10421333 0.059805144 -0.1547376 -0.07956339 -0.05879849 0.20882872 -0.022509346
0.0595069 0.1708945 0.045377873 0.23768002 0.09091011 -0.081155345 -0.08568607 -0.020552848
0.07021829 -0.09406381 -0.1427077 0.07574248 0.17137319 0.17735434 0.12555067 0.19755182
0.02281646 0.014069654 0.061874893 0.08236078 -0.11972843 0.21573412 -0.058329385 0.03948067
0.0073678684 -0.015770052 -0.059760865 -0.051696222 -0.09251182 -0.008280536 -0.012069486 -0.021986444
-0.13316633 0.16093105 0.047482044 -0.24074672 -0.21622579 0.038852282 0.15875995 0.045098566
0.06662503 0.04015618 -0.04781991 -0.12468176 -0.082500696 -0.06770003 0.031368125 0.01605071
0.00959787 0.035118595 0.05855642 -0.018888175 -0.050702535 0.026483757 0.07549063 -0.033788305
0.18399465 0.06626308 -0.0815587 0.09370223 0.027827868 0.020538708 0.18112291 -0.11154587
0.19431995 0.03397219 0.11674781 0.07832393 0.0639798 0.057573393 0.08031458 0.14782944
0.09374457 0.055900417 -0.17431091 0.032418527 0.123492114 -0.033638798 0.006349814 0.026926557
0.024645254 -0.16783828 -0.12254068 0.097378075 -0.2160246 -0.048852623 -0.019149434 0.003956289
0.29306966 -0.1520933 0.1975712 0.14032957 0.10798455 0.10845774 -0.071403176 0.09911746
-0.064913906 0.10298918 -0.28444293 0.08511323 -0.13151975 0.16038923 0.019051764 -0.18291578
0.28290084 -0.1228551 -0.017575044 -0.06452614 0.047884766 0.24008128 0.05706965 0.0053005125
-0.15980943 -0.30798605 -0.22342859 0.035307836 0.021846414 0.07953634 0.09943408 -0.054742593
0.06830506 -0.11233837 0.12583804 -0.14134184 0.10429039 -0.026872093 -0.055618994 0.0032769628
0.097955614 0.07230449 -0.13302737 -0.28572068 0.06727956 -0.047179982 -0.061779603 -0.028131932
-0.14342436 -0.03515274 -0.06891164 0.12178751 0.09259367 0.012121896 0.02858978 -0.088846974
-0.038413193 0.03291193 -0.07981339 -0.053763397 -0.00061787205 -0.030674001 0.11879157 0.104497045
00000000: 123c 753e 4122 4bbe 7995 123c ae84 9fbd
00000010: fc8f 173d 70b8 e13d 35a5 613d bc03 36be
00000020: 8a4f 423e 3137 5d3e 3aa6 1ebe 9ce3 5cbd
00000030: 2b23 17be e7c8 52bd d452 383e 5b5d 313e
00000040: eecb ff3d d4f1 7abd cf36 7abd f886 b63d
00000050: 18e0 90bd 46c9 e03d c453 183d 3ea6 0cbe
00000060: dcc1 f7bc f99f 51bd 13af d6bc 88b2 57be
00000070: f885 efbd 56e9 d6bd 058a 15be 5732 2bbe
00000080: 66ca 99bd 8d8e cdbb ae02 343e 3760 363c
00000090: 7699 723d 01f6 01be 9b64 aa3c 46c8 babd
000000a0: fc83 f83c 6214 eb3d 0dce 0abe f392 cd3d
000000b0: e7ea 223e 646e d3bc 6e1e 03bb b721 a1bd
000000c0: e5be f9bd 7413 ac3b 44e3 38be 6442 12be
000000d0: 6471 8dbb 037b dfbb bed9 eabc c0fe fabd
000000e0: 710d 333d fe63 10be 2e67 5bbe 4225 87bd
000000f0: bbca eabc c45e 0abe 5068 8d3d a6f4 b83d
00000100: c655 4cbd f47a b13d fad3 413e a1a7 dcbd
00000110: f294 27bd 3c7e a43d ddd4 3a3e 6c43 14bd
00000120: 0fff 7e3e 4d2f 3fbd 7bc8 883d 429e 623c
00000130: 696d ab3d 1c57 6bbe f061 1bbd b8cf 13bd
00000140: f696 963d c015 113e 220b edbd dfa3 fd3d
00000150: f996 cd3d d98e f3bd 3e0d edbd c1db bbbd
00000160: df63 8ebd 1d4d f63d 3e8b 783d 9dfe 97bd
00000170: 98f2 5cbe 482c 96bd c245 e6bd 19f1 c5bd
00000180: 7a9f 453e cc6d d53d 3df6 743d 8973 1ebe
00000190: 21f2 a2bd afd6 70bd 32d7 553e 8565 b8bc
000001a0: 82bd 733d f8fe 2e3e 26de 393d 6462 733e
000001b0: 142f ba3d c634 a6bd 2e7c afbd 725e a8bc
000001c0: 9bce 8f3d 87a4 c0bd f821 12be e01e 9b3d
000001d0: 747c 2f3e 609c 353e 5b90 003e 064b 4a3e
000001e0: 96e9 ba3c 6884 663c 8770 7d3d c5ac a83d
000001f0: 2e34 f5bd 68e9 5c3e cbea 6ebd 7cb6 213d
00000200: 296e f13b 3230 81bc cfc7 74bd 6bbf 53bd
00000210: d676 bdbd 16ab 07bc 18bf 45bc ea1c b4bc
00000220: c15c 08be 1ccb 243e 887c 423d 4f86 76be
00000230: 4b6a 5dbe 9223 1f3d f891 223e 46b9 383d
00000240: b472 883d ce7a 243d cfde 43bd 2759 ffbd
00000250: 20f6 a8bd 50a6 8abd dd7b 003d c77c 833c
00000260: 6240 1d3c 84d8 0f3d dbd8 6f3d 60bb 9abc
00000270: 76ad 4fbd 77f4 d83c d59a 9a3d 9b65 0abd
00000280: 1869 3c3e f0b4 873d 3f08 a7bd f4e6 bf3d
00000290: 45f7 e33c cb40 a83c 4978 393e 2972 e4bd
000002a0: cffb 463e 6c26 0b3d 7a19 ef3d 4c68 a03d
000002b0: d707 833d 14d2 6b3d f87b a43d 9a60 173e
000002c0: 27fd bf3d d6f7 643d 8f7e 32be 4ac9 043d
000002d0: 6fe9 fc3d d6c8 09bd 1a12 d03b 1595 dc3c
000002e0: d8e4 c93c ccdd 2bbe 9cf6 fabd 286e c73d
000002f0: 8e35 5dbe b019 48bd 46df 9cbc c2a3 813b
00000300: 3a0d 963e 59be 1bbe 1b50 4a3e 8eb2 0f3e
00000310: 0127 dd3d 171f de3d d43b 92bd 18fe ca3d
00000320: 95f1 84bd feeb d23d 81a2 91be d84f ae3d
00000330: 1dad 06be 133d 243e 7212 9c3c 464e 3bbe
00000340: 61d8 903e 749b fbbd 8af9 8fbc 4826 84bd
00000350: d122 443d ded7 753e dec1 693d ecaf ad3b
00000360: 15a5 23be 59b0 9dbe 77ca 64be f39e 103d
00000370: 40f7 b23c f3e3 a23d 18a4 cb3d c539 60bd
00000380: 86e3 8b3d a911 e6bd b0db 003e eabb 10be
00000390: 3396 d53d dd22 dcbc bed0 63bd 50c2 563b
000003a0: f49c c83d 6014 943d 5438 08be fb49 92be
000003b0: dec9 893d cc3f 41bd 9c0c 7dbd f074 e6bc
000003c0: d6dd 12be 52fc 0fbd 8c21 8dbd bb6b f93d
000003d0: c0a1 bd3d eb9a 463c 1d35 ea3c 67f5 b5bd
000003e0: 2757 1dbd a9ce 063d 3475 a3bd 0237 5cbd
000003f0: b1f8 21ba 0b48 fbbc ff48 f33d 8c02 d63d

dest_lstm_obs.bias_ih_l0 f4 [128]
0.088713005 -0.18703634 -0.050835866 -0.08316386 0.08422305 -0.098761335 -0.10976591 -0.01444797
-0.1565466 -0.14636716 -0.06640743 0.07009542 -0.074281424 -0.07668697 0.013800087 0.07023572
0.07805287 -0.04879973 -0.1272798 0.04245572 0.07161629 -0.10388918 -0.23971987 0.01055598
-0.04211647 -0.08282602 -0.07720013 -0.03813302 -0.06586589 0.12024755 0.05872807 -0.11979999
-0.20658195 -0.0900011 -0.17164041 0.06790541 -0.22234511 -0.025173977 -0.063855514 -0.038591683
-0.06272419 0.10042898 -0.16631795 -0.010485604 -0.16741781 0.03289763 -0.0957474 -0.2681032
-0.22160082 0.07740232 -0.24531665 -0.032035682 -0.15651335 -0.0003460329 0.04213755 -0.089023076
-0.145483 0.0762739 -0.042954337 0.04120881 -0.21406254 -0.09794386 0.22938186 -0.01158963
0.0052053817 0.08591725 0.11469386 -0.12649046 0.11588004 -0.015522045 -0.07975511 -0.065110214
-0.049398907 -0.038557123 0.09630412 0.17220484 0.16489108 0.025337592 -0.05311072 -0.21640459
0.0029383805 0.015124892 0.0839288 -0.062184807 -0.020763926 0.028557545 0.10693092 -0.0551921
0.2421063 0.018760249 -0.021641362 -0.056958824 0.063277476 0.079999544 -0.12360964 0.11032266
-0.06975117 0.06832528 -0.09304495 0.09517166 0.030704744 -0.07667964 -0.09893109 -0.21018595
-0.23424003 0.14554277 0.14938706 -0.10392879 0.14692658 0.08142724 -0.02899455 -0.031225344
-0.074768744 -0.034293562 -0.051117137 -0.18055665 0.1263131 -0.031264417 0.10242768 -0.2084843
-0.17726806 -0.05164037 0.055308107 0.0013193048 -0.19118921 -0.1126712 0.14980827 0.12061332
00000000: 2aaf b53d 7486 3fbe 4539 50bd d051 aabd
00000010: 227d ac3d 6243 cabd f3cc e0bd 2eb7 6cbc
00000020: c04d 20be 46e1 15be 9e00 88bd 308e 8f3d
00000030: dc20 98bd 0f0e 9dbd c319 623c bfd7 8f3d
00000040: 2fda 9f3d 3ae2 47bd a355 02be 0de6 2d3d
00000050: 90ab 923d dac3 d4bd 2079 75be fdf2 2c3c
00000060: 5282 2cbd b0a0 a9bd 1a1b 9ebd 5f31 1cbd
00000070: b2e4 86bd 5944 f63d d88c 703d b259 f5bd
00000080: 388a 53be 7f52 b8bd 81c2 2fbe fe11 8b3d
00000090: 70ae 63be a839 cebc aec6 82bd 5012 1ebd
000000a0: 8a75 80bd b6ad cd3d 414f 2abe d0cb 2bbc
000000b0: 936f 2bbe aabf 063d 3617 c4bd d344 89be
000000c0: 53eb 62be 1c85 9e3d 4a34 7bbe d937 03bd
000000d0: 0945 20be c06b b5b9 6c98 2c3d bb51 b6bd
000000e0: 7ff9 14be 7e35 9c3d e3f0 2fbd 92ca 283d
000000f0: 3633 5bbe ca96 c8bd 14e3 6a3e 6ee2 3dbc
00000100: e891 aa3b 62f5 af3d 9de4 ea3d b786 01be
00000110: 8452 ed3d 2d50 7ebc a656 a3bd 8158 85bd
00000120: 8256 4abd 13ee 1dbd 183b c53d 7756 303e
00000130: 35d9 283e c890 cf3c a08a 59bd 2a99 5dbe
00000140: d891 403b 65ce 773c dde2 ab3d 7fb5 7ebd
00000150: 1c19 aabc 83f1 e93c 99fe da3d 1d11 62bd
00000160: b7ea 773e 18af 993c 3a49 b1bc a84d 69bd
00000170: 9f97 813d cdd6 a33d 0d27 fdbd d9f0 e13d
00000180: b4d9 8ebd 20ee 8b3d 5a8e bebd 5ce9 c23d
00000190: 8488 fb3c 370a 9dbd 629c cabd fc3a 57be
000001a0: 9edc 6fbe 2a09 153e ecf8 183e 9ed8 d4bd
000001b0: ec73 163e 53c3 a63d fb85 edbc 4bcc ffbc
000001c0: 5b20 99bd 6877 0cbd 3460 51bd d8e3 38be
000001d0: 3958 013e 1e0f 00bd 9ac5 d13d e97c 55be
000001e0: c285 35be da84 53bd c18a 623d 86ec ac3a
000001f0: 1bc7 43be 28c0 e6bd 5767 193e 1e04 f73d

dest_lstm_obs.bias_hh_l0 f4 [128]
0.035878275 -0.08643887 -0.016820744 0.084731765 -0.15308625 0.11514018 -0.01083887 -0.16194372
-0.14336526 0.06959029 -0.08154282 0.025673224 0.034745898 -0.07640843 0.08430963 -0.09277938
-0.08683686 -0.09865041 -0.2086585 0.04493095 -0.04360024 -0.13817775 -0.2236661 0.09694793
-0.16035426 0.042189553 0.06716646 -0.0742256 0.015795127 0.119730085 0.108457066 -0.0145328725
-0.23383781 0.1256323 -0.05483795 -0.1647492 0.04721186 -0.20936388 -0.18464315 -0.027769469
0.06943036 -0.035610955 0.08257068 -0.13413686 0.16100225 -0.036321014 -0.053083807 0.035608955
0.007831715 -0.14006379 -0.17196514 0.10031079 -0.18955196 -0.17193039 0.055011608 -0.08177863
0.06576228 -0.05756616 -0.021319596 0.07833829 -0.09187642 -0.08011145 -0.06216386 -0.19549464
0.049613442 0.18906751 -0.024582993 -0.13948345 0.04178897 0.13468044 0.018952547 -0.11487518
0.03432674 -0.043155495 0.06443986 -0.043158054 0.0917642 -0.12444705 -0.12798697 -0.094293386
-0.19972555 0.1583786 -0.19291063 0.005734523 0.07943628 -0.017397434 -0.20477228 -0.12088732
-0.060464516 0.24023436 -0.10967257 0.05616743 -0.17340828 -0.16460451 -0.17839949 0.07932155
-0.076427825 -0.012753766 -0.2014673 0.099093 -0.0045066094 0.079616964 0.10741627 0.00856232
0.014105725 0.004378193 0.025021005 -0.004095961 -0.1600501 -0.14951566 0.053075455 -0.08155358
-0.107626125 -0.069433846 0.005247886 -0.13094446 0.082889386 0.038948074 0.06800742 0.03214897
-0.036328264 -0.11341077 -0.223988 -0.14295273 -0.20400149 -0.11220073 -0.12991111 -0.07027221
00000000: 19f5 123d dd06 b1bd a8cb 89bc d987 ad3d
00000010: a4c2 1cbe 9dce eb3d 8495 31bc 93d4 25be
00000020: 58ce 12be 5b85 8e3d ecff a6bd a750 d23c
00000030: b751 0e3d 067c 9cbd 87aa ac3d 1e03 bebd
00000040: 86d7 b1bd 3a09 cabd 93aa 55be 8409 383d
00000050: 2a96 32bd 787e 0dbe ba08 65be a38c c63d
00000060: e833 24be f4ce 2c3d 928e 893d 9703 98bd
00000070: c864 813c 0c35 f53d bd1e de3d 491b 6ebc
00000080: 2e73 6fbe c1a5 003e c29d 60bd 04b4 28be
00000090: 3961 413d 7c63 56be 1813 3dbe cc7c e3bc
000000a0: 8131 8e3d cbdc 11bd d11a a93d 2c5b 09be
000000b0: c6dd 243e 58c5 14bd 686e 59bd b2da 113d
000000c0: 9850 003c e26c 0fbe a117 30be be6f cd3d
000000d0: e919 42be 850e 30be da53 613d 8e7b a7bd
000000e0: 60ae 863d 7eca 6bbd 6fa6 aebc d36f a03d
000000f0: b429 bcbd 7911 a4bd 889f 7ebd bf2f 48be
00000100: 7737 4b3d ea9a 413e 4662 c9bc c0d4 0ebe
00000110: e92a 2b3d abe9 093e 5f42 9b3c ae43 ebbd
00000120: 329a 0c3d d1c3 30bd 0cf9 833d 80c6 30bd
00000130: deee bb3d 18de febd 040f 03be e41c c1bd
00000140: db84 4cbe 002e 223e 5d8a 45be aae8 bb3b
00000150: 7daf a23d 1085 8ebc d3af 51be c593 f7bd
00000160: a4a9 77bd ffff 753e 039c e0bd d20f 663d
00000170: f191 31be 168e 28be 5bae 36be 5673 a23d
00000180: 3186 9cbd 2cf5 50bc 724d 4ebe 45f1 ca3d
00000190: 2eac 93bb 380e a33d 10fd db3d f948 0c3c
000001a0: b31b 673c f276 8f3b daf8 cc3c 6937 86bb
000001b0: 2ce4 23be a21a 19be a665 593d 9005 a7bd
000001c0: 166b dcbd 5533 8ebd 75f6 ab3b 4e16 06be
000001d0: e9c1 a93d 0488 1f3d 7947 8b3d a3ae 033d
000001e0: f2cc 14bd e843 e8bd 1c5d 65be 3362 12be
000001f0: c4e5 50be 7fc9 e5bd 6b07 05be e0ea 8fbd

dest_lstm_fut.weight_ih_l0 f4 [128, 2]
-0.1181731 0.0011085207 0.019023832 -0.06333316 -0.031871356 -0.04017483 -0.064080395 -0.019120047
0.0035828622 -0.088312894 0.12321938 -0.01579538 0.083916634 0.1079786 -0.00088424864 0.019303307
0.035259563 -0.11457351 -0.0212989 -0.0871535 -0.06614938 0.06862802 -0.11042637 0.015890323
-0.03836148 -0.07802238 -0.012898762 -0.034354202 0.12646092 0.039397527 -0.030726887 -0.013131763
-0.10180986 0.016747529 -0.0499954 -0.11396974 0.09836186 -0.108806446 -0.060120247 -0.10388325
-0.1320968 -0.050187107 0.05415667 -0.07087594 -0.012577298 -0.047701 -0.10358053 -0.110813506
-0.12133518 0.10574925 0.0055628167 -0.0281327 -0.10376182 -0.09963161 -0.17222337 -0.0406853
-0.13398013 0.044977937 0.10076324 -0.042918954 0.08759911 -0.07750201 0.14672747 0.10498733
0.048770435 -0.04780878 -0.08157096 -0.04956834 0.007782584 0.1313266 -0.019607998 0.082620256
0.03970519 0.09137897 -0.065378085 -0.0029761242 -0.095289186 -0.028702889 0.00606557 -0.031037584
-0.012365019 0.07587962 -0.017528914 0.13477926 -0.036435436 -0.06920462 0.04674416 0.039002933
-0.089605264 -0.03851922 0.055654198 0.00451829 -0.12618047 0.16429868 0.026259756 -0.10232486
0.08849301 -0.0013880797 0.07894658 0.03888966 -0.017126601 0.0149381645 -0.15421769 0.023032723
-0.028064882 -0.0607678 -0.13505794 -0.08037491 -0.11363618 0.1107825 -0.10920414 -0.0043043224
0.109288216 -0.1777165 -0.056308214 -0.0980486 0.04764314 0.08153322 0.10873008 0.05340814
-0.006921096 0.027900485 -0.011783778 -0.21037863 -0.09340779 0.025066935 -0.14582272 0.08162645
-0.027248744 -0.076540425 -0.02872575 0.054201573 -0.044611894 -0.04018158 -0.015191365 -0.0012785231
0.107070595 -0.047436994 -0.08782309 -0.0008982344 -0.052823324 0.022383772 -0.109618716 0.087412804
-0.12163385 0.054853085 -0.10942644 0.023644427 -0.026685186 -0.07999316 -0.06970424 0.1329432
-0.016534362 -0.046050616 0.07827768 -0.10267742 -0.0036327653 0.0025464795 0.020363867 -0.07194566
-0.092294395 0.10534851 0.053276002 0.09267676 -0.06399678 -0.093765736 -0.013285138 -0.09146506
-0.06609743 0.12009458 0.041890796 0.03147712 -0.022400849 0.06601306 -0.009639351 -0.047398183
-0.007608575 0.072406374 -0.041190587 0.0972636 0.0641759 -0.066698715 0.014919374 0.054801807
-0.0425348 0.04091226 -0.014037551 0.036232688 0.09627707 0.006594291 -0.017791253 0.051105093
-0.111983635 -0.0628494 0.03821725 0.051534023 0.019222062 -0.1704902 -0.17111748 -0.1146365
-0.006585922 -0.03642047 0.03579292 0.06312023 0.08545662 -0.17176239 -0.09357869 -0.09266175
0.013980558 -0.032506123 0.094462566 -0.07794852 -0.112753555 -0.073362544 0.06710404 0.029823655
-0.12240142 -0.117250435 -0.09696231 0.047876637 0.12288074 -0.1561562 -0.10834788 0.0015970094
0.04139768 -0.036032997 -0.04995819 0.06746881 -0.0070657944 0.045877285 -0.003215834 0.027612882
-0.056958728 -0.06580524 -0.185895 0.12572765 0.026533358 -0.029304583 -0.05842389 -0.01970473
0.014796539 -0.04654222 0.058479086 0.04251598 -0.11499701 0.010329954 -0.05711724 -0.117375806
-0.10231754 -0.050136626 -0.13013117 0.013286725 0.05965514 -0.061217178 0.054536194 0.057606146
00000000: bd04 f2bd c84b 913a ded7 9b3c d1b4 81bd
00000010: 8a8b 02bd 5d8e 24bd 953c 83bd a5a1 9cbc
00000020: 74ce 6a3b 64dd b4bd 715a fc3d 5065 81bc
00000030: 7cdc ab3d e223 dd3d eccc 67ba f821 9e3c
00000040: 556c 103d 84a5 eabd 087b aebc 897d b2bd
00000050: 5379 87bd d98c 8c3d 3827 e2bd 6c2c 823c
00000060: ed20 1dbd 33ca 9fbd 5455 53bc feb6 0cbd
00000070: f97e 013e 4d5f 213d f4b6 fbbc 9b26 57bc
00000080: b081 d0bd 1d32 893c fac7 4cbd f868 e9bd
00000090: f171 c93d ead5 debd a640 76bd bec0 d4bd
000000a0: 6244 07be ff90 4dbd 62d3 5d3d 6827 91bd
000000b0: 0311 4ebc 2062 43bd 0722 d4bd 31f2 e2bd
000000c0: 947e f8bd 1093 d83d 4a48 b63b 8c76 e6bc
000000d0: 1481 d4bd a80b ccbd 535b 30be a1a5 26bd
000000e0: 1632 09be c93a 383d f55c ce3d c9cb 2fbd
000000f0: 2a67 b33d 60b9 9ebd ba3f 163e 9903 d73d
00000100: 82c3 473d 24d3 43bd ad0e a7bd 2c08 4bbd
00000110: 0c05 ff3b 7b7a 063e f4a0 a0bc cf34 a93d
00000120: e9a1 223d e624 bb3d f2e4 85bd 140b 43bb
00000130: fa26 c3bd 5222 ebbc b0c1 c63b 8842 febc
00000140: a696 4abc c666 9b3d cc98 8fbc 9303 0a3e
00000150: 533d 15bd 27bb 8dbd ce76 3f3d 8ac1 1f3d
00000160: f782 b7bd 54c6 1dbd a8f5 633d 2a0e 943b
00000170: 7435 01be ea3d 283e b31e d73c b28f d1bd
00000180: d33b b53d 3af0 b5ba bfae a13d c44a 1f3d
00000190: 164d 8cbc 34bf 743c 3eeb 1dbe 1faf bc3c
000001a0: 53e8 e5bc a8e7 78bd a14c 0abe 9a9b a4bd
000001b0: 16ba e8bd efe1 e23d 6ca6 dfbd 460b 8dbb
000001c0: 80d2 df3d 50fb 35be 71a3 66bd b4cd c8bd
000001d0: 7425 433d e4fa a63d e0ad de3d 7ec2 5a3d
000001e0: 5cca e2bb 8f8f e43c bf10 41bc 7f6d 57be
000001f0: 954c bfbd 2c59 cd3c 8d52 15be c52b a73d
00000200: c238 dfbc 3ac1 9cbd 4452 ebbc 7802 5e3d
00000210: f6ba 36bd 7195 24bd 34e5 78bc 1e94 a7ba
00000220: d447 db3d 4b4d 42bd 98dc b3bd 7d77 6bba
00000230: 455d 58bd 2c5e b73c c77f e0bd 7c05 b33d
00000240: 2b1b f9bd a1ad 603d f81a e0bd f5b1 c13c
00000250: e49a dabc 74d3 a3bd 19c1 8ebd 4322 083e
00000260: 1273 87bc 929f 3cbd 0c50 a03d 8a48 d2bd
00000270: b013 6ebb d6e2 263b 20d2 a63c 3f58 93bd
00000280: d804 bdbd f6c0 d73d f037 5a3d 50cd bd3d
00000290: be10 83bd 4008 c0bd e8a9 59bc 0952 bbbd
000002a0: 175e 87bd 26f4 f53d af95 2b3d 27ee 003d
000002b0: fc81 b7bc db31 873d 5eee 1dbc 9924 42bd
000002c0: 5a51 f9bb cb49 943d 76b7 28bd 2332 c73d
000002d0: a76e 833d 5699 88bd 6470 743c dc77 603d
000002e0: f838 2ebd 9d93 273d c2fd 65bc ba68 143d
000002f0: ea2c c53d ec14 d83b f6be 91bc 9353 513d
00000300: ad57 e5bd 30b7 80bd b189 1c3d 5715 533d
00000310: 9677 9d3c fc94 2ebe 6c39 2fbe 8bc6 eabd
00000320: b8ce d7bb a12d 15bd 999b 123d 2e45 813d
00000330: e103 af3d 7be2 2fbe 2fa6 bfbd 72c5 bdbd
00000340: b60e 653c 2425 05bd 9775 c13d 79a3 9fbd
00000350: 56eb e6bd 1a3f 96bd d86d 893d bd50 f43c
00000360: 98ad fabd ff20 f0bd 2d94 c6bd 4b1a 443d
00000370: e6a8 fb3d 69e7 1fbe 7ee5 ddbd be52 d13a
00000380: 9d90 293d 5697 13bd f6a0 4cbd 162d 8a3d
00000390: 2e88 e7bb d2e9 3b3d bec0 52bb 6934 e23c
000003a0: 8e4d 69bd e6c4 86bd 425b 3ebe c0be 003e
000003b0: 7c5c d93c 2a10 f0bc e44d 6fbd d06b a1bc
000003c0: 2f6d 723c 0ea3 3ebd c487 6f3d 3c25 2e3d
000003d0: 8d83 ebbd f83e 293c c4f3 69bd ba62 f0bd
000003e0: dc8b d1bd 105c 4dbd 1b41 05be 90b0 593c
000003f0: f358 743d ddbe 7abd 5861 5f3d 6cf4 6b3d
