do_tp_federated_round_4.pt (torch, 156693 bytes, 26 tensors)

linear_enc.weight f4 [64, 2]
000000 d3 25 49 3f 09 af 2f 3f 52 f0 a8 3e fd ac 91 3d
       0.7857334 0.6862646 0.3299585 0.07113073
000010 c8 a1 3d 3f 44 8b d7 3e e6 17 41 3f aa 70 3d 3f
       0.74074984 0.4209844 0.7542709 0.74000037
000020 64 af 00 bf 91 5d 29 3f fa 44 54 3e 1a cb 48 bf
       -0.50267625 0.66158396 0.20729437 -0.7843491
000030 8a bc e1 3e 67 fc d3 be 5e c1 90 3e fc 36 60 be
       0.44089156 -0.41403505 0.28272527 -0.21895975
000040 a4 2b cf be 22 a8 ce bd fb 21 e1 3c a4 36 dd 3e
       -0.40462983 -0.100906625 0.027482023 0.4320575
000050 f0 22 0d 3f 15 33 63 3f 28 fa b9 3e 4f b4 c8 bc
       0.55131435 0.8874982 0.36323667 -0.02450004
000060 52 97 e7 3d 9c 7c 40 3d 79 da 51 bd aa fe 42 3f
       0.11308159 0.046993837 -0.051233742 0.76169837
000070 8b d4 2d 3f 4f f7 f3 be 84 b9 0f bf 04 b2 06 3f
       0.6790244 -0.4764962 -0.5614245 0.5261538
000080 52 8c b7 3c 8f 00 d3 be 30 40 bc 3d b2 40 d6 bd
       0.022405777 -0.41211364 0.0919193 -0.104615584
000090 91 92 fb be e1 1a be 3e ee db 27 bf 8c 27 10 bf
       -0.4913526 0.37129882 -0.6556996 -0.56310344
0000a0 83 6d 62 be 7a ff 43 3f f4 a8 68 be 8e c7 f2 3e
       -0.22112088 0.765617 -0.227207 0.47417873
0000b0 da f4 96 be 8b 29 03 3f 58 40 3d 3f 3a 34 00 3e
       -0.29483682 0.51235265 0.73926306 0.12519923
0000c0 7d fc 22 3f 1a e5 45 bf 47 bd 0a be 31 13 a9 bd
       0.63666517 -0.77302706 -0.13548766 -0.082556136
0000d0 5f 7c 33 3e a0 5e 2b bf 46 aa 1f 3f 87 bb 87 3e
       0.17527913 -0.6694126 0.6236919 0.2651026
0000e0 f8 03 81 3e 49 4a 92 3e 69 50 33 bf 62 9a d4 3d
       0.2519834 0.285723 -0.7004457 0.10381009
0000f0 a3 84 e1 bc 1d 9e b3 be 06 fe 8b be f5 73 da 3e
       -0.027529066 -0.35081568 -0.27342242 0.42666593
000100 4a cd 08 bf 12 03 7a 3e 7c 50 90 3e ab ab 36 bf
       -0.53438246 0.24415234 0.28186405 -0.71355695
000110 22 31 39 bf d2 73 03 bf 47 70 d9 be 19 a4 b9 3d
       -0.72340596 -0.513486 -0.42468473 0.09064502
000120 d2 14 c5 be c4 b9 a6 be 5a bd e6 3e a6 22 7e 3e
       -0.38492447 -0.32563603 0.4506634 0.24817905
000130 8c f5 af 3e 31 26 57 be 34 c5 ff be ad 7a 20 bf
       0.34367025 -0.21010663 -0.49955142 -0.6268719
000140 e4 b6 29 be 29 d3 07 3f fb 8e 48 3f 70 a5 d5 be
       -0.16573673 0.5305658 0.7834317 -0.4172778
000150 a8 63 e9 3d ca 9f 67 3f 98 2c 26 bf 7d ef 87 be
       0.11395961 0.90478194 -0.64911795 -0.26549903
000160 77 b3 a7 be 82 01 a5 3e 53 f0 37 3f 93 9b cb 3d
       -0.32754108 0.32227713 0.7185108 0.09941783
000170 8a 14 c1 bd 1e 8a 06 bf 1b 10 85 be de f3 77 3e
       -0.09427746 -0.525545 -0.2598885 0.24214122
000180 33 c4 8e 3e cd 4b 99 3d 26 24 93 3e ab 76 17 be
       0.27884063 0.07485161 0.28738517 -0.14791362
000190 c5 98 f1 3d a6 a1 ea 3e 75 2b b0 3d a5 31 2f 3f
       0.117967166 0.45826453 0.08602039 0.68435127
0001a0 bf 71 97 3e 42 e3 23 3e a6 72 a2 bd 49 87 02 be
       0.2957897 0.1600466 -0.07932024 -0.1274692
0001b0 36 dc fc be 5c 2e 0d bf a5 e3 cf 3e b9 3f 1f bf
       -0.49386758 -0.55148864 0.40603366 -0.6220661
0001c0 c4 26 d5 3e 31 6a 0d 3f 91 e0 f2 3e 84 30 22 3f
       0.41631138 0.5524016 0.47436956 0.6335528
0001d0 ec 5c 6d 3d c3 17 16 3f 6e 5a 0a be 77 e2 06 bf
       0.057949945 0.5863001 -0.13511059 -0.5268931
0001e0 f3 14 50 3e 0a 09 0c bf 60 64 e0 3e b4 ea 1f bf
       0.20320491 -0.5470129 0.4382658 -0.62467504
0001f0 15 1b 84 3e 86 8f bd 3e 30 d7 24 bf 0c 0e e7 be
       0.25801912 0.37023562 -0.6439085 -0.45127904

linear_enc.bias f4 [64]
000000 92 87 4e 3e 2f c1 1a be 04 f9 ae 3e c9 16 5b 3d
       0.20168903 -0.15112756 0.3417436 0.053488526
000010 80 6e e9 be eb 71 2e be 1e 4d 1e be 32 b0 10 bf
       -0.45592117 -0.17035644 -0.15459105 -0.5651885
000020 2e 08 14 bf ca f5 14 bf 8b 6b 21 bf 54 df f5 be
       -0.5782498 -0.58187544 -0.6305472 -0.48021948
000030 d8 e3 d2 3d 3f 1c 2b 3f d8 cd 2f 3f c1 4f cd 3d
       0.10297364 0.66839975 0.6867347 0.100249775
000040 e5 9c c0 3d 0a 75 8c 3e 4a 0e 94 be 09 5e dd be
       0.09404925 0.27433044 -0.28917152 -0.43235806
000050 1a 92 94 be cc 9d ab be 4e 6f 8c 3e c5 d4 82 be
       -0.29017717 -0.33518827 0.2742867 -0.25552955
000060 79 c5 ec 3e eb 24 d3 bd f4 2a 29 3f da 15 0a 3f
       0.4624441 -0.10309776 0.66081166 0.5393959
000070 36 48 29 3d 2a c9 e4 3e 8a d6 22 bf b2 fc 19 3e
       0.04132863 0.44684726 -0.6360861 0.15037802
000080 03 ce 0a 3e 60 63 87 3d ec bc 75 be e2 80 cf be
       0.1355515 0.06610751 -0.23997849 -0.40528017
000090 8d 13 d9 be 17 71 74 be f6 76 8c be df dc 1a bf
       -0.4239773 -0.23871265 -0.2743451 -0.6049327
0000a0 ac d4 d3 3e a2 e5 5f 3d d2 89 96 bd 57 5a bb bd
       0.41373193 0.054662354 -0.07350506 -0.0914809
0000b0 2d 51 17 3f b2 8a a3 3e 69 6a 48 3e 60 90 25 3f
       0.5910824 0.31941754 0.19571842 0.64673424
0000c0 2e 6b 00 3e 64 5b 9d 3d 0a bb c0 3d c8 cd fd 3e
       0.12540886 0.07683447 0.09410675 0.4957106
0000d0 40 d3 d4 be f8 0e 9f be bd 74 b2 3e d3 b0 94 be
       -0.4156742 -0.31066108 0.3485469 -0.29041156
0000e0 18 c6 01 bf 8c c5 6e be e1 85 a0 3e 3f 3a 94 3e
       -0.5069289 -0.23317546 0.31352141 0.28950688
0000f0 ff dc 1d bf 43 0a 0d be a9 bb 69 be b2 e4 12 be
       -0.6166534 -0.13773446 -0.22825493 -0.14345053

encoder_lstm.weight_ih_l0 f4 [128, 64]
000000 4c b6 f9 bd 47 6b 6d be fd 90 e9 bd ea 24 06 be
       -0.121929735 -0.23185454 -0.114046074 -0.13100019
000010 4f 57 22 bd c3 51 23 be 42 26 db 3d 5e 7c 2f bd
       -0.039634045 -0.15949158 0.107006565 -0.042843215
000020 42 ec 27 3e 9a 0c df bd ac 5e 4e be 88 05 c6 bd
       0.16398719 -0.108910754 -0.20153302 -0.09669024
000030 c3 d5 4c 3d fe 28 67 3d e4 5b fe bd c2 f8 86 bd
       0.050008547 0.056435578 -0.124198705 -0.065904155
000040 43 01 52 ba de 37 ae 3c ba 43 ee 3d ae c7 07 3e
       -0.0008011052 0.021266874 0.116340116 0.13259766
000050 9f 3d 58 3d d0 15 ca ba 64 53 1a 3d 00 f2 9a 3d
       0.05279314 -0.0015417878 0.037677184 0.07565689
000060 bc a4 36 3d b2 cf 82 bd 91 5d 2e 3e 6e 48 ac 3d
       0.044590697 -0.06387271 0.1702788 0.08412252
000070 9e 2e 24 be 00 cd fb bd e9 94 7c 3c 62 20 0b 3e
       -0.16033408 -0.1229496 0.015416362 0.13586572
000080 6c ad c3 bd c4 70 fe 3d 04 16 ee 3d 47 87 35 3c
       -0.09554562 0.12423852 0.11625293 0.011079616
000090 58 3c 45 3c ae d5 3c be 02 0e cf 3d 61 fe 1f 3d
       0.012038313 -0.18440887 0.10110094 0.039060954
0000a0 05 2a ba bd 21 20 f3 bc 90 3c 15 bd 53 05 fc 3d
       -0.09090046 -0.029678406 -0.03643471 0.12305703
0000b0 6c 7b 56 bd 4f 8e f7 bc ec 57 eb bd e2 c5 c2 3d
       -0.052363798 -0.030219225 -0.11491379 0.095103994
0000c0 28 00 e4 3d 15 79 5b be bc 38 a4 3d d8 12 fd bd
       0.11132842 -0.21432908 0.08018634 -0.1235711
0000d0 ca 89 35 be f0 6b 71 3d 4e 2f 20 3e 5a 8b 32 3d
       -0.17728344 0.058940828 0.15643045 0.043589927
0000e0 55 69 b9 bb cf 5b e3 bd 5b a0 0a 3e 8c 2a bc bd
       -0.0056583085 -0.111014955 0.13537733 -0.09187803
0000f0 0c 90 50 3d 9a 29 43 be 67 e3 c5 bd 02 2d 88 3e
       0.050918624 -0.19058838 -0.09662514 0.26596838
000100 59 23 40 bd 1d 01 31 3d 4e b1 44 3e c9 26 c0 bd
       -0.04690871 0.043213952 0.19208261 -0.09382398
000110 d5 c9 00 be 4a c6 d8 3d 49 b8 d4 3d 75 c7 46 be
       -0.12576993 0.10584696 0.10386712 -0.19412024
000120 87 5e 13 be 6e d2 66 be 76 82 6f be 7c 1f ad bd
       -0.14391528 -0.2254121 -0.2338961 -0.08453271
000130 07 64 c4 3d d9 e0 8a 3e 24 52 62 3e 3f 44 3a bd
       0.09589391 0.2712467 0.22101647 -0.04547524
000140 80 72 94 3e fb 7c 9d 3e b2 89 14 bd 5e 3c c5 bc
       0.28993607 0.30759415 -0.03626413 -0.024076637
000150 27 19 72 be 0a 31 6d be 74 d1 0d bd e8 c8 4c be
       -0.23642407 -0.23163238 -0.03462358 -0.19998515
000160 20 9b 5f 3e 89 cf b6 bd 5a f8 8c 3c f2 38 0d 3e
       0.21836519 -0.08926303 0.017208267 0.13791254
000170 26 33 ad 3d c5 cb 10 3e 9b d4 12 be cb 6c fc bc
       0.084570214 0.14140232 -0.14338915 -0.030813595
000180 10 b6 c8 3d 58 91 98 3d a6 39 2d bd a9 fd 3c be
       0.09800351 0.07449597 -0.042291306 -0.18456139
000190 bf e7 77 bd c2 10 e4 bb 59 fe 81 3b dd 52 5c 3c
       -0.060523745 -0.0069600055 0.003967088 0.0134474905
0001a0 d6 59 24 bd ad 5d 5d 3e 93 83 f2 bd 66 4d 53 be
       -0.040124737 0.21617766 -0.11841502 -0.20634994
0001b0 8a 0e 66 bb 29 94 92 3e d0 c8 dd 3d e9 24 85 3e
       -0.003510388 0.28628662 0.108293176 0.26004723
0001c0 08 40 13 3e ae e2 aa 3d e0 f1 67 3e 0a 0c d7 3c
       0.14379895 0.08344017 0.22650862 0.026250858
0001d0 6f 80 cd bd f3 9c fa bd 93 12 a8 3d 38 68 ec bd
       -0.100342624 -0.12236967 0.08206668 -0.11543316
0001e0 67 2e 54 be 79 6d cf bc 66 e5 2f bd 3b 2f 8b 3e
       -0.20720826 -0.025320755 -0.04294338 0.2718447
0001f0 bc a2 3f bd a2 1d 07 be c9 56 a9 be 19 fb 03 be
       -0.046786055 -0.13194898 -0.33074024 -0.12888755
000200 0c bd cf bd 9b d7 ed bd b8 aa 6c bd 6f 00 29 bd
       -0.1014348 -0.11613389 -0.057779998 -0.04126018
000210 fc 8a d3 bd 6b 46 38 3e fa 3f 00 bd 2c 37 35 be
       -0.103292435 0.17995612 -0.031311013 -0.17696828
000220 7a 50 14 be 23 d4 c7 3d 50 e5 6d 3d fd f4 ef bd
       -0.14483824 0.09757259 0.058080018 -0.1171665
000230 15 0c 24 3e 2e 5f 87 bb 38 40 dc 3d f3 be 6b be
       0.16020234 -0.0041312193 0.10754436 -0.2302206
000240 84 d9 51 3e d8 0f ab 3d 16 79 7b be 7c 2a 39 3d
       0.20493132 0.08352631 -0.2455791 0.045206532
000250 6a 88 87 be 63 4f 27 be a2 ee ba 3d 15 aa 1b be
       -0.26471263 -0.16338877 0.09127547 -0.152016
000260 78 a4 84 bd ad 35 58 bd 16 2a 7e bd 7e ce 6d 3e
       -0.064766824 -0.052785564 -0.062051855 0.23223302
000270 6c a6 f4 3d 0e 53 95 bc d6 22 e1 bc 8c ec 9f 3c
       0.11945805 -0.01822808 -0.027482431 0.019521974
000280 3d 51 0d be 80 d0 55 3e ed 9e 20 bd b2 3a c8 3c
       -0.13800521 0.20880318 -0.039214063 0.02444205
000290 9e 5f 50 be 98 56 60 be b4 7f 33 be e5 4d 5d bd
       -0.20348975 -0.21908033 -0.17529184 -0.054029364
0002a0 e1 53 1b 3e aa fc 30 3e 0e 34 74 be 9f ca 8c 3b
       0.15168716 0.17283884 -0.23847982 0.0042966153
0002b0 13 18 31 3e d8 45 4f 3e 64 5a 22 3d 5f 61 82 bd
       0.1729434 0.20241487 0.039636984 -0.06366228
0002c0 48 7f 09 3e c1 3a 45 bd c6 6c 23 3e cb 82 33 3e
       0.1342746 -0.048151735 0.15959463 0.17530362
0002d0 f9 88 1c be d9 fd 7e bd 35 df 44 3d 30 d6 f6 3c
       -0.15286626 -0.062253807 0.04806443 0.03013143
0002e0 9b b2 b0 bd eb 87 a1 3d b1 e3 57 3d b4 ea 9e bc
       -0.08627816 0.078872524 0.052707378 -0.019399025
0002f0 4b 6d 76 3d 5b 98 0f 3e c4 37 75 be 00 4b 83 b9
       0.060162824 0.14022963 -0.23947054 -0.00025042146
000300 f7 fd ce bd 8c c4 93 3c 5b dc 66 bc b5 42 ae bd
       -0.10107034 0.018038057 -0.014090623 -0.08508817
000310 da 18 20 be a0 72 a7 bc 7e 9b 48 bd 75 b1 24 be
       -0.1563448 -0.0204404 -0.048976414 -0.1608332
000320 01 32 26 3e 18 d5 3a be e8 f8 a2 bd c0 d3 5c 3d
       0.16230012 -0.18245351 -0.07957631 0.053912878
000330 8e 0d c7 bb 92 47 51 bd 8a f8 16 be f8 b1 35 3e
       -0.006074614 -0.051093645 -0.14743248 0.17743671
000340 d6 eb 47 bc fa ef 25 3d 5f 80 80 3d a1 4a 86 3d
       -0.012202224 0.040512063 0.06274485 0.06557203
000350 c2 c4 a0 bd 15 c1 75 bd a2 c4 dc 3b e4 02 22 bc
       -0.078500286 -0.05999859 0.0067373076 -0.0098883845
000360 de 12 be bd 02 1b de 3c cd 55 f2 3c 21 7a 06 be
       -0.092809424 0.027112488 0.029581929 -0.13132526
000370 b9 ee 0d be 16 59 e7 bc 49 32 af bd ef 4a e2 bd
       -0.13860597 -0.028240722 -0.08554513 -0.11049449
000380 29 fa d9 3d e4 bc dd bd 42 fd 25 3e f3 00 26 3e
       0.106434174 -0.10827044 0.16209891 0.162113
000390 ef f1 cc bb 16 53 66 3d c0 66 d2 3d f8 ec 7b 3d
       -0.0062544267 0.05623158 0.10273504 0.061505288
0003a0 41 34 c6 3d e9 07 98 3d ce f5 53 be fa b1 92 bd
       0.096779354 0.07423384 -0.20699236 -0.071628526
0003b0 cb f9 82 bc 08 40 f6 bd 7e 18 0d be 4d 8b fd 3d
       -0.015988251 -0.12023932 -0.13778874 0.12380085
0003c0 00 fd b6 37 94 17 06 3e 71 a8 68 bd 30 e0 d4 3c
       2.1813903e-05 0.13094932 -0.056801263 0.025985807
0003d0 42 80 f1 bd 8f 0f 98 3d ec 77 5d 3b 34 56 d8 bc
       -0.11792041 0.074248426 0.0033793403 -0.026408292
0003e0 70 1c 2c be b0 6c ec 3c 36 c7 28 bd 72 4f c2 3d
       -0.16807723 0.02886042 -0.041205607 0.09487809
0003f0 3a 9f 7f bd 09 31 05 3d 93 ab c1 3d a4 c4 90 3d
       -0.06240771 0.032517467 0.09456553 0.07068756

encoder_lstm.weight_hh_l0 f4 [128, 32]
000000 b9 88 c4 3d 4b 8e e7 bd 00 1a 52 bd 0c 01 c3 3c
       0.0959639 -0.11306437 -0.051294327 0.02380421
000010 5e d5 fc bd c5 19 8d bd f3 64 76 3d c4 ec f1 bd
       -0.12345384 -0.06889681 0.060154866 -0.118127376
000020 a8 fc d1 bd d3 18 89 bd a3 21 01 3c 5d cf 17 be
       -0.102532685 -0.06694188 0.007881555 -0.14825197
000030 56 3c 6f bd 3b f8 ce 3c e7 94 30 3c aa e0 58 be
       -0.05840715 0.02526485 0.010777689 -0.21179453
000040 e0 c9 23 3d 9f 15 5e 3d e2 c5 22 3e ce 1b 28 be
       0.039987445 0.05421984 0.15895799 -0.16416857
000050 b5 5b 22 3e 13 51 b6 bd fa 21 43 3d 46 27 0f bd
       0.15855296 -0.089021824 0.047639824 -0.034949563
000060 b3 b0 9c 3c ca c5 9d 3d fc 85 0a be bd 32 c3 bd
       0.019127226 0.07703741 -0.13527673 -0.09531162
000070 3c 41 98 3d e2 a1 bd bd e9 0e 37 3e dc fd 31 be
       0.074343175 -0.09259392 0.17876782 -0.17381996
000080 03 68 c1 bd 07 47 28 3e f2 32 00 3e d4 28 a6 bd
       -0.09443667 0.16433345 0.12519434 -0.08113256
000090 ce 42 36 3e 1e 30 ea 3d f1 c2 a7 3d c8 91 00 3d
       0.17798921 0.11434959 0.08191479 0.031389028
0000a0 4e b7 84 3e e3 62 86 3d 08 29 92 3e c1 b4 6b 3e
       0.259211 0.0656183 0.2854693 0.23018171
0000b0 76 59 13 3e 51 ba cc 3d 57 ee bc 3c 67 8a a7 3d
       0.14389595 0.099964745 0.023062868 0.08180695
0000c0 c6 d9 90 be 5a a9 6b be 69 95 7a 3e 8c dd e2 bd
       -0.28291148 -0.23013821 0.24471058 -0.11077413
0000d0 f5 1d 97 3d 78 55 a2 3e f5 a1 95 be 1c da a0 bd
       0.07378761 0.31705832 -0.29225126 -0.07854101
0000e0 aa 0a 89 3e 84 4b 79 bd a4 a4 00 bd 8b ff de 3d
       0.2676595 -0.060863033 -0.031407014 0.10888585
0000f0 37 b1 39 3e 16 6d 07 be ea 06 6d 3d 17 f3 c8 bc
       0.18134008 -0.13225207 0.057867922 -0.024529977
000100 77 4d a8 bc ef ca 0f 3e 68 ad 40 3e 3e d6 6c 3d
       -0.02054475 0.14042257 0.18816149 0.057821505
000110 53 05 2f 3e dd 2b 28 3e 18 f7 6d 3e 45 15 1f be
       0.17091875 0.16422983 0.2323879 -0.15535457
000120 e2 f5 36 bd f6 99 94 bd 28 4e ca 3d 50 a8 fa 3d
       -0.044668086 -0.07255928 0.09878188 0.12239134
000130 fb af 96 3d 6b f3 9a 3c 0d b3 51 3d f9 fe b6 3d
       0.07357784 0.018914899 0.051196147 0.08935351
000140 b2 77 e0 3c 78 74 07 3e da 5d 07 3d cb 25 69 3d
       0.027400825 0.13228023 0.03304849 0.056920808
000150 bf ed 45 bc 99 72 67 3e a6 f3 80 bc 7b 78 f9 bd
       -0.012080609 0.2260231 -0.01574118 -0.12181183
000160 dd e8 9a 3c 5b ec 43 bd 64 3d 1b be c2 09 32 3d
       0.018909866 -0.047832828 -0.15160137 0.043466337
000170 ff cb 03 3e 94 ad 0f be e4 93 97 bc 30 41 46 be
       0.12870787 -0.14031059 -0.018503137 -0.19360805
000180 55 b6 0e 3e 5c a2 52 be 95 c7 58 3e c7 98 f1 bd
       0.13936742 -0.20569748 0.21169885 -0.11796718
000190 cd 56 58 be 96 f6 23 3e d3 fd 86 bd b2 cf 2f 3c
       -0.21126862 0.16012034 -0.06591382 0.010730671
0001a0 2d 13 49 3e 88 2c 51 bd ce c4 c8 bd e6 82 28 be
       0.19636221 -0.05106786 -0.098031625 -0.16456184
0001b0 75 d4 41 3e 2d 8e d6 3d a7 84 9b 3d c7 59 8e 3d
       0.18928702 0.10476337 0.07593661 0.069507174
0001c0 98 29 e6 3d 61 9b b0 3d e6 26 03 be 84 33 8f 3d
       0.11238402 0.08623386 -0.12807807 0.06992248
0001d0 e1 86 af 3d a9 f3 8b 3d 8a 6e c4 bd f3 94 32 3e
       0.08570648 0.06833584 -0.09591396 0.17439632
0001e0 16 da b6 3b b6 17 70 3e d2 8c bd bd f7 c8 5f 3d
       0.005580197 0.23446545 -0.09255375 0.054635014
0001f0 d6 b1 ec 3d 5e 18 a2 3c 5f ca c2 bd 05 13 99 3c
       0.11557357 0.01978701 -0.095112555 0.018685827
000200 de 9d 3e bd 65 c9 8f be 78 0b b9 3d aa 9d b8 bc
       -0.046537273 -0.2808334 0.090353906 -0.022536118
000210 5a bf 02 3e af f5 05 3e 10 c5 2d 3e ae d5 96 be
       0.12768307 0.13082002 0.16969705 -0.294599
000220 ac 8c ef 3d 64 e3 cd 3d f7 5e 8f 3e 9d 26 cb 3d
       0.11696753 0.10053137 0.2800214 0.09919474
000230 2b 3a 9f 3e 7c 3a 42 3d e8 69 48 3a 7a 30 dd bd
       0.31099066 0.047419056 0.0007645176 -0.10800262
000240 23 ed 54 bd 0a 6d 42 be 61 1a b4 3d 4d 67 7f be
       -0.051983964 -0.18986908 0.08794094 -0.2494175
000250 54 eb 24 bd e5 d6 cb 3d b2 11 df bc f8 b7 80 bd
       -0.04026349 0.09953097 -0.027230117 -0.06285089
000260 c0 84 92 3e 22 63 06 3e df d6 9a be d2 20 76 3e
       0.28616905 0.13123754 -0.3024206 0.24035957
000270 05 4a ae 3d 04 3e 06 bc 8e ab 03 bd fa 3e 7e be
       0.08510212 -0.008193497 -0.03214603 -0.24828711
000280 d3 17 a3 3d af 6b 13 be f8 5b fd bd 6e 22 1e be
       0.079635285 -0.14396547 -0.12371057 -0.15442821
000290 38 08 3f bd f4 dd 0e 3e 8a 35 51 bd e2 db 28 be
       -0.046638697 0.13951856 -0.05107645 -0.16490129
0002a0 96 76 df 3d 2c ec 60 3e fc e0 85 3e 69 f0 84 bd
       0.1091129 0.21965092 0.26148212 -0.06491167
0002b0 59 f3 25 3e 28 7d 66 3d 37 a3 b7 bd 71 3d 9b be
       0.16206111 0.056271702 -0.08966678 -0.30320314
0002c0 a7 90 35 bd bb e7 b2 bd 04 f5 44 3e 93 d1 a9 3d
       -0.044327404 -0.08735605 0.19234091 0.08291926
0002d0 82 54 f7 3b 18 1a de 3b 86 3b 54 3d d2 1d c1 3c
       0.007547916 0.006778013 0.05181458 0.02357379
0002e0 19 ad 15 bb e0 06 9c 3d be 45 ca bd ad 4a 4e 3e
       -0.002283877 0.07618499 -0.098765835 0.20145674
0002f0 be fd 3f 3d 52 08 f0 bd 08 01 a3 bc 9c 01 9c 3d
       0.046872847 -0.11720337 -0.019897953 0.076174945
000300 0c f0 11 be 82 6c ee bd d0 7d 53 bd c8 60 d1 bd
       -0.14251727 -0.1164179 -0.051633656 -0.10223538
000310 3b 31 e2 3d aa f5 f9 3b 23 97 1b 3e 83 77 27 3c
       0.11044546 0.0076281624 0.15194373 0.010221365
000320 82 7a e0 bd 73 07 c4 bd df 15 26 bd bc ba 0d 3e
       -0.109608665 -0.09571733 -0.0405482 0.13840765
000330 ae 43 28 be 59 a2 91 3c 96 bc 8b 3c 0a 5d 5b bc
       -0.16432068 0.017777609 0.017057698 -0.013388881
000340 56 b0 11 3d c1 0f 45 be a3 83 03 3e 0b 02 5b 3d
       0.035568558 -0.19244291 0.12843184 0.053468745
000350 e5 f8 e2 bd 1c e8 58 3e 0f d1 d7 3c 43 8d 3b 3d
       -0.11082629 0.21182293 0.026344804 0.045789015
000360 50 05 96 3d 89 6f 01 3d ec 17 1e be 8a db 13 3e
       0.07325232 0.03160051 -0.15438813 0.14439216
000370 f7 4f 4d 3e 8d 41 cc bd 30 f1 2e 3e 09 0e f9 bd
       0.20050035 -0.0997344 0.17084193 -0.1216088
000380 89 06 11 be 40 61 e9 3d 57 62 59 3e 0c 7a a1 bd
       -0.14162649 0.11395502 0.2122892 -0.07884607
000390 18 a5 41 3d 42 f3 fd bd 46 69 9a bd ce 81 d9 3d
       0.047276586 -0.12399913 -0.075396106 0.106204614
0003a0 f8 d7 52 bd 32 08 80 3d db 22 86 bd 81 23 06 3e
       -0.051475495 0.06251563 -0.06549617 0.13099481
0003b0 cd 87 20 3e 8c 1e 7a 3c 8c 39 38 3e 85 b2 e5 bc
       0.15676804 0.015266072 0.17990702 -0.028039226
0003c0 94 c2 0e 3e 2d 4c 5d 3d fe 9f 83 3d 04 e9 1d 3d
       0.13941413 0.054027725 0.064270005 0.0385523
0003d0 bf 3d bd bd 96 1a c9 3c e0 e7 06 3e ce 50 99 3b
       -0.09240293 0.02454881 0.13174391 0.004678822
0003e0 ec 2c 33 be f7 70 32 bd 48 dd 74 3d e6 27 49 bd
       -0.17497605 -0.043564763 0.059781343 -0.049110316
0003f0 1c 94 d5 bd 8a 09 87 3d 2c 42 8d 3c 5c 31 88 3d
       -0.1042864 0.06593616 0.017243467 0.066500396

encoder_lstm.bias_ih_l0 f4 [128]
000000 a0 a8 ff 3d 92 17 b8 3d c6 e2 44 3d f0 e4 dd bc
       0.124833345 0.08988871 0.04806783 -0.027086705
000010 da de bb 3d dd b7 43 3e 2d 3b 04 3e 40 60 90 3d
       0.09173365 0.19113107 0.12913199 0.07049608
000020 5a 1a 43 3e 13 d1 23 3e 5b e2 0b 3d 5c c3 8e 3e
       0.19053021 0.15997724 0.034151416 0.27883422
000030 2b d0 ef bd 81 90 1e bd f3 47 16 be fd a4 e5 3d
       -0.11709627 -0.03871203 -0.14675884 0.1121311
000040 50 8e d9 3d cb a0 70 3e fa 83 3f be 51 f2 02 be
       0.10622847 0.23498838 -0.18702689 -0.12787749
000050 e8 61 66 3d b9 c9 09 bd ba 87 4f bd a1 a9 b3 3e
       0.056245714 -0.033639643 -0.05066655 0.35090354
000060 0e 31 15 be 60 e9 ee 3d 92 d7 dd 3c e3 a5 32 be
       -0.14569494 0.116656065 0.027080331 -0.17446093
000070 3a 8c d2 3b e4 bd 56 3e 09 2e 1d 3e e8 d9 2d 3e
       0.0064254077 0.20970875 0.15349592 0.16977656
000080 e1 5a dd 3c 0f ed 91 bd 2b b2 c6 bd 7f 07 0e be
       0.027020874 -0.071252935 -0.097019516 -0.13870047
000090 60 27 0a be a2 80 3e be fe b8 c8 3d 2a d3 3f bd
       -0.13491583 -0.18603757 0.098009095 -0.04683224
0000a0 77 0b 24 3e 74 1b 17 3e 22 8b 9c 3d 06 87 1a 3e
       0.16019998 0.14756566 0.07643725 0.1509057
0000b0 24 3d 75 bd 72 15 0c be 78 c7 1d be 14 e3 11 be
       -0.05987276 -0.13680056 -0.15408123 -0.1424678
0000c0 c2 81 07 bd 1c 47 d2 bd 1f d6 00 be 9c 9c e6 bd
       -0.03308273 -0.10267469 -0.1258168 -0.112603396
0000d0 54 68 b7 3d 61 ae 4e 3e 79 39 34 be 86 29 1a 3c
       0.08955446 0.20183708 -0.17600049 0.009409314
0000e0 da 23 da 3d 48 b6 17 be 23 40 79 3d d3 dd 18 3e
       0.106513694 -0.14815629 0.06085218 0.14928369
0000f0 02 cc d4 bd 2d 92 08 be 21 8e 3f be c2 24 c4 bd
       -0.10390474 -0.13337012 -0.18706562 -0.095773235
000100 c2 56 6b 3d ce ce 87 3c ce 8b 29 3e ee 89 8b 3c
       0.057455786 0.016578104 0.16557238 0.017033543
000110 3e db bf bd e1 08 1d 3e c9 64 1f 3e dd 9f cd bc
       -0.09367989 0.15335418 0.1556579 -0.025100643
000120 54 f2 f4 3b c0 b9 66 3d 53 58 44 3d be 51 bd 3c
       0.007475177 0.05632949 0.047935795 0.023110267
000130 6d 07 7b bd b8 74 cf bb 54 4b ee 3a e1 47 0a be
       -0.06128638 -0.0063310526 0.0018180409 -0.13503982
000140 b6 db dc bd b1 25 67 bd 3e 1f 8f bd e4 4d 7f 3c
       -0.10784094 -0.05643243 -0.06988381 0.015582535
000150 72 9e 1f 3e 51 dd 0b 3e 36 8a a3 bd 45 77 15 be
       0.15587786 0.13658644 -0.07985346 -0.14596279
000160 6a 26 ba bd b8 16 2d 3e 39 f3 3a bd a3 07 3c 3e
       -0.09089358 0.16903198 -0.04564211 0.18362288
000170 1b e1 08 3e 3f 59 52 3d 0e 3e 1a bd c8 fd 66 bd
       0.13367121 0.051354643 -0.037656836 -0.05639437
000180 aa 9b 1f be c2 fe cf 3b 4b 78 5c bd 52 c9 0d bd
       -0.15586725 0.006347508 -0.053825658 -0.034615822
000190 5c d3 dd 3d ff e8 6d 3d aa f8 b6 3d a1 8f d0 bd
       0.10831329 0.05808353 0.08934148 -0.10183645
0001a0 34 64 4f 3e 38 fd f2 bb 29 9e f9 bd 0e 27 82 3e
       0.20253068 -0.00741544 -0.1218837 0.2542042
0001b0 82 de 9c bd be 46 1d 3e dc 35 c5 3d 2e a8 36 3d
       -0.076596275 0.15359017 0.096294135 0.044593982
0001c0 53 1e 26 be c8 87 16 3e 4b 12 01 3e da 8d 17 be
       -0.16222505 0.14700234 0.12604634 -0.14800206
0001d0 7c 7d 17 3e 71 f3 d3 bd 17 d8 d2 3d b0 eb 83 3e
       0.14793962 -0.10349167 0.10295122 0.25765753
0001e0 84 71 65 3d b2 3d 55 3d 6d 38 84 bd d4 e4 f8 3d
       0.05601646 0.05206079 -0.06456075 0.121530205
0001f0 e0 7e 87 3d 12 33 07 3e 23 32 dc bd 74 24 8a bd
       0.06615996 0.13203076 -0.1075175 -0.06745234

encoder_lstm.bias_hh_l0 f4 [128]
000000 d5 87 9b bc cf b1 c6 3d 8b 4e fa 3c 3a 5f 9e bd
       -0.018985668 0.09701883 0.03055503 -0.07733007
000010 72 8d 08 3e 30 89 10 3e a7 31 fb 3c 86 85 9b bd
       0.13335207 0.14114833 0.030663325 -0.07593827
000020 f6 4b 5d 3e f0 01 c0 3d df 20 aa 3d 9b 8f 1f 3e
       0.21611008 0.093753695 0.08307051 0.15582125
000030 46 c1 af bd fa 53 b9 bd c8 84 0f 3d 79 c5 1e 3c
       -0.08581786 -0.090492204 0.03503874 0.009690636
000040 0c 6c e3 3c b2 f5 b5 3e 9b af c9 bd 7a c7 41 3b
       0.027761482 0.35539013 -0.09847947 0.002956836
000050 22 1f e6 bd 92 12 b1 3d 5c 9f c5 bd a4 dc ba 3d
       -0.11236407 0.0864612 -0.09649536 0.09124115
000060 6e af 36 3d 48 63 f9 3c 62 81 b6 bc 06 20 cd bb
       0.044600897 0.030442849 -0.022278491 -0.006259921
000070 80 d7 98 3d 1c 9e f8 bd c8 ef 3f 3e 19 90 eb bc
       0.07462978 -0.12139532 0.18743813 -0.028755235
000080 d9 14 96 bd 5c f6 13 bd 82 15 a8 3d d0 d6 0a 3e
       -0.07328195 -0.03612362 0.08207227 0.13558507
000090 02 36 3a be 02 25 a5 3c 02 ba 1a 3d b2 59 1e be
       -0.18184665 0.020159248 0.037775047 -0.15463904
0000a0 3e 4e 41 3d 12 d5 a3 bd a2 22 cf ba fb 29 96 bd
       0.04719376 -0.07999624 -0.0015803168 -0.07332226
0000b0 75 d7 51 bd a6 2a be bd 62 92 99 bd 2e 4f d2 3d
       -0.051230866 -0.09285478 -0.074986234 0.102690086
0000c0 15 f1 22 3e ec 16 cf bd fd 54 9f bd 0a 8f 82 bd
       0.15912278 -0.10111794 -0.07779882 -0.06374939
0000d0 4e e9 9e bd a3 c9 d9 3c f9 b8 8e 3b 02 bf a6 3d
       -0.07759343 0.026585406 0.0043555466 0.081419006
0000e0 b8 19 e0 3d 31 f6 16 be 2e 4e b7 bd 72 a0 e0 3d
       0.109424055 -0.14742352 -0.089504585 0.109681025
0000f0 01 51 78 3d 4a 38 fa bd 42 51 a5 3d 09 c3 b4 3d
       0.060624126 -0.122177675 0.08072139 0.088262625
000100 5e 64 17 bd d2 85 13 be 83 d9 be 3d 36 55 8a bc
       -0.036960952 -0.14406517 0.09318831 -0.016886335
000110 f3 cb 13 3e 4c 18 73 bd 88 c9 c6 bc 6f 4c 03 3e
       0.14433269 -0.059349343 -0.02426602 0.12822126
000120 36 22 ca 3c 44 98 11 be 40 55 f8 3c 6b 31 18 bd
       0.024674516 -0.14218241 0.030314088 -0.037156504
000130 5f 29 02 be e6 96 00 be e0 98 d5 3d b7 e0 ff bd
       -0.12711094 -0.12557563 0.10429549 -0.12494033
000140 cd ab 21 bd 58 f6 ef bd 73 a6 10 be 0d 6c 03 be
       -0.039470483 -0.11716908 -0.14125995 -0.12834187
000150 9d a8 08 3e 67 aa ca 3b 38 98 7b 3d 5c da a4 bd
       0.13345571 0.0061848643 0.061424464 -0.08049461
000160 e6 63 32 3e 0e 8d 33 bd 8e 91 7a bd 8a d8 b9 bd
       0.1742092 -0.043835692 -0.061173968 -0.09074505
000170 11 3b 12 3e fe 1d 3a be 91 a3 af bc f2 d2 18 bd
       0.14280345 -0.18175504 -0.0214403 -0.037310548
000180 d8 f2 ca 3d f4 fc 51 bd 43 d5 18 3d 3e 9b 14 be
       0.099096 -0.051266626 0.037312757 -0.14512345
000190 f4 06 84 3e a0 61 64 3e 7c 62 54 3e dc 06 a3 bc
       0.25786555 0.22302866 0.20740694 -0.019900732
0001a0 97 a2 03 be 0e 84 46 3e 80 b5 c1 3c e0 d4 02 3e
       -0.12854992 0.19386312 0.023646116 0.12776518
0001b0 87 ed 25 3e a1 b3 62 bd c7 45 d4 3d 90 2d a6 3d
       0.1620389 -0.05534709 0.103648715 0.08114159
0001c0 23 48 2c 3e d6 c1 01 bd a7 1a 0e be 0a 96 be bd
       0.16824393 -0.031678997 -0.13877355 -0.093059614
0001d0 24 e2 ef 3c 08 05 2b 3e 42 db ed bc 7a c9 88 3e
       0.029282637 0.16701138 -0.029035214 0.26716214
0001e0 da ec 1a bd bb 12 c7 bd 53 71 27 bd 91 51 99 3d
       -0.037823536 -0.097203694 -0.04087956 0.07486261
0001f0 93 d3 52 be 2f 93 f9 3d 9c 5e 66 3d 91 59 f4 3d
       -0.20588522 0.12186276 0.05624257 0.11931146

dest_lstm_obs.weight_ih_l0 f4 [128, 2]
000000 0c e3 63 3c e3 8f 3d be d3 49 80 bd c4 20 ca bd
       0.013909113 -0.1851192 -0.06264081 -0.09869531
000010 69 5d 85 3c d8 fb ad 3d 35 38 ea 3d 63 a1 18 bc
       0.016279893 0.08495301 0.11436502 -0.009315821
000020 44 a4 89 bd c9 bc cd bd de 54 3a be c8 fb ae 3d
       -0.06720784 -0.100457735 -0.18196437 0.08544117
000030 fd 45 ca bc fe 48 c8 bd 9e 2d e7 3d 00 bb 74 3d
       -0.024691576 -0.09779547 0.11287998 0.05974865
000040 6d b4 1d be 70 9e b8 3d 18 8f c0 3d 48 f2 94 bd
       -0.15400858 0.090145946 0.09402293 -0.07272774
000050 82 9c 26 3e 48 a1 c6 bd c3 63 0e 3e 2d 87 75 bd
       0.1627064 -0.09698731 0.13905244 -0.059943367
000060 84 cd fe 3b c0 e6 bc ba 48 b9 12 be 2e 01 0b 3e
       0.007775964 -0.001441203 -0.14328492 0.13574669
000070 ca de 1a bd ac a5 c1 3d 96 08 f5 bd fc 1b ac 3d
       -0.037810124 0.094554275 -0.11964528 0.08403775
000080 36 0f 93 bc 03 88 72 bc 4f 8f ee bd 56 56 bd 3d
       -0.01795159 -0.0148029355 -0.11648428 0.09244983
000090 5e a8 c6 bb 1c 59 01 3e e0 c3 55 3d 0a ec d1 3d
       -0.0060625514 0.12631649 0.052188754 0.10250099
0000a0 14 42 92 bd c6 71 1a 3e ff 6e a6 3d d1 f4 c5 bd
       -0.0714151 0.15082464 0.081266396 -0.09665836
0000b0 a4 7a be 3d 4f 7b 9e bd ec d7 82 bd f6 dd 66 3d
       0.093007356 -0.07738363 -0.0638884 0.056364022
0000c0 fb 64 ba bb dc 39 09 be 21 00 23 3d e5 94 fd bd
       -0.0056883073 -0.13400978 0.039795045 -0.12381915
0000d0 1e 09 c0 bd 69 3c a6 3d dd 73 28 be f8 56 00 be
       -0.09376739 0.08116991 -0.16450448 -0.12533176
0000e0 0c 93 d0 bd 52 ca 5b bc 49 55 19 3e 63 88 f6 bb
       -0.10184297 -0.013414936 0.1497394 -0.007523583
0000f0 de ec de 3d b1 bd ab bd a2 87 f8 3d 1e 1c c5 bd
       0.108850226 -0.0838579 0.12135245 -0.096245036
000100 65 02 cc bc fe d5 e3 3d 54 07 1e bd ec 5a 3a 3c
       -0.024903486 0.111248 -0.038581207 0.0113742165
000110 08 79 e7 bb 23 20 1a bd 04 b7 9b bd 63 ab 82 bd
       -0.0070639886 -0.037628304 -0.07603267 -0.06380346
000120 7e bd e4 bc b2 7c 10 3d 3e da 7e bc 8d df f9 bb
       -0.027922388 0.03527517 -0.015554963 -0.0076255263
000130 f7 3e 88 3c a1 37 81 3d b2 ff 39 be 12 42 83 3d
       0.016631586 0.063094385 -0.18163946 0.06409086
000140 83 c9 1a be 5a d3 ac 3d 54 af 78 bc 32 d6 c6 bd
       -0.15115933 0.084387496 -0.01517852 -0.09708823
000150 ec 70 c7 bd 3b 9b 1e bd d0 f3 ba bd f3 a5 3f bd
       -0.09738335 -0.038722258 -0.09128535 -0.04678912
000160 48 f7 11 be 9d 19 f9 3d 68 28 8d bd 6c 2e 3b bd
       -0.14254487 0.121630885 -0.068924725 -0.04569857
000170 cd 73 07 3d c8 92 18 bd b8 f5 65 3c 6a a7 cf bd
       0.03306942 -0.037249357 0.014035635 -0.101393536
000180 a1 20 07 be bc 52 c5 bd 70 08 ac bc 22 47 58 3d
       -0.1319604 -0.09634921 -0.021000117 0.052802213
000190 d2 11 78 3d e4 92 36 be 09 e1 63 bd 3d 7a 5a be
       0.06056387 -0.17829472 -0.055634532 -0.21335693
0001a0 cd 38 54 3c 6f 23 09 be fa 33 72 3d be a8 cb 3d
       0.0129529955 -0.13392423 0.0591316 0.099442944
0001b0 60 33 d9 bd dc eb 8e 3d b1 e2 5e be e5 ed 5f 3d
       -0.10605502 0.0697858 -0.21766163 0.054670233
0001c0 a8 7e 9a 3c 02 17 e5 3d 9d e0 04 bd de df a7 bd
       0.018859223 0.11186029 -0.03244077 -0.08196996
0001d0 25 32 39 3d 38 28 f4 bd fa c1 a1 bc 9c ba 1e bd
       0.045213837 -0.119217336 -0.019745816 -0.038752183
0001e0 7b 46 df 3d 43 a8 57 3c 36 29 ad bd b2 7a 19 bd
       0.10902115 0.013162675 -0.08455126 -0.037470527
0001f0 42 31 ed bd ac 9a 6e bd 16 03 ea bd 25 22 76 bc
       -0.11581661 -0.058252975 -0.1142637 -0.015022789
000200 f7 b4 e9 bd 61 de cd bc 5a 7b 04 3c 5d 34 1b 3d
       -0.114114694 -0.025130453 0.00808605 0.037891734
000210 84 d7 76 bd ae 2e de 3c 0e 85 29 bd 6e 13 26 3d
       -0.060264125 0.027121868 -0.041386656 0.040545873
000220 dd 3b 11 be 4a 10 fa 3d 68 80 81 3d d4 5a 94 3d
       -0.14182992 0.12210138 0.0632332 0.072438866
000230 3e a8 0e 3e cf 8e f4 bd db 80 e8 3c 9f 5c 71 3d
       0.13931367 -0.11941301 0.028381756 0.05892622
000240 d8 ac d0 3b 70 b6 f4 bd d4 51 e3 bd 14 ac 25 bc
       0.006368261 -0.1194886 -0.11099592 -0.010111827
000250 d8 4c 8b 3d 67 25 7a bd 9b a0 d3 3d 0d 4a 9b bd
       0.06801766 -0.061070826 0.103333674 -0.075824834
000260 9d 14 5b 3c 14 2f ac 3c 26 59 81 3c 34 1a 17 3d
       0.013371614 0.021018542 0.01578958 0.036890224
000270 0a 67 a9 bc 1e dc ab bd 9f bd e0 3d 41 70 0c be
       -0.020679016 -0.083915934 0.10973667 -0.13714696
000280 15 a5 81 bd ff 41 7e ba 00 af 0a bd c6 5a 8a 3d
       -0.06330315 -0.0009699165 -0.0338583 0.06755595
000290 76 fb 64 3d ea 0b f9 bb 82 82 d3 3a 6d 26 3d bc
       0.055903874 -0.007600297 0.0016136917 -0.011544806
0002a0 be bb c2 bd 2a 98 4a bd cb 5d 4a bc 11 23 09 bc
       -0.09508465 -0.04946152 -0.012351464 -0.008370177
0002b0 1b 0f 12 be b8 31 f0 3d 97 cc f7 3d 5a 2f a8 bd
       -0.14263575 0.11728233 0.12099569 -0.082121566
0002c0 01 33 b1 bb 55 ef a3 3d 49 c8 ab 3d 4a e3 63 3d
       -0.0054076915 0.08004633 0.08387811 0.05563668
0002d0 1b b3 f4 3d 8e ac 25 bd 9d f6 bb 3c 1e 25 28 3d
       0.11948224 -0.040447764 0.022944743 0.041051023
0002e0 7f e9 ee bc 81 9d b5 3d de 88 46 bd 88 5d da bd
       -0.029164074 0.08867932 -0.04847037 -0.10662371
0002f0 4c 9d b9 bc f4 ec 3c 3d 97 8a b9 3d 13 07 b4 3c
       -0.022658013 0.046124414 0.09059637 0.02197603
000300 9e 95 cf bd 8c 37 c3 3d ec e3 e3 bd 3c 7a 97 ba
       -0.10135959 0.09532079 -0.11127457 -0.0011556814
000310 59 1b 59 bd c6 f6 dc 3d e4 6e b2 bd 4a 5f 68 3d
       -0.053004596 0.10789256 -0.08712557 0.0567315
000320 68 63 7e bd 94 31 10 bd 59 99 66 bc 3a 45 7b 3d
       -0.06210652 -0.03520353 -0.014074647 0.061345316
000330 a6 36 90 3d a1 82 3f bd ef e0 90 bd d6 fb 93 3c
       0.07041673 -0.046755437 -0.07074153 0.01806442
000340 f2 91 0e bc 48 9d af 3d d4 17 84 3d 2d b5 8e 3d
       -0.008701788 0.08574921 0.06449857 0.0696815
000350 2d c3 2e 3d ef 2d 4e bd 59 1a 40 bd d6 4d fb bd
       0.042666603 -0.050336774 -0.046900127 -0.122707054
000360 65 10 0a 3e 49 4a 05 be 72 4b 16 be 63 2e a8 3d
       0.13482817 -0.13016619 -0.14677218 0.082119726
000370 df c0 89 3d 63 66 03 be a4 35 33 be 33 bf 02 3e
       0.0672624 -0.12832026 -0.17500931 0.12768249
000380 ad 21 00 3d 78 2a de bd 3d 65 6b 3d 0f 3e 01 be
       0.031282116 -0.10847944 0.057469595 -0.1262133
000390 4d 1f 99 3d c5 62 1f be 0d ff f0 bd ee 7c c4 3d
       0.07476673 -0.15565021 -0.11767397 0.09594141
0003a0 1c 88 83 3d d0 20 48 bd e4 49 25 be 97 c5 72 3d
       0.06422445 -0.048859417 -0.16141468 0.059270468
0003b0 d6 9b 8a bb a4 69 04 bd 76 4f c8 3d 1a d7 32 bd
       -0.004230003 -0.03232731 0.09780781 -0.043662168
0003c0 f1 52 5b 3c ee fd 9e 3d b5 05 56 3d ea 2c 22 3d
       0.013386474 0.07763277 0.052251536 0.039593615
0003d0 5b 81 e6 3d 7c b4 25 be 07 bb d2 3d 99 5a b7 3d
       0.11255141 -0.1618213 0.10289579 0.08952827
0003e0 b8 11 1a bd 4a 29 82 3d f7 7d 55 3d 85 fa c8 3d
       -0.037614554 0.063555315 0.052122083 0.09813408
0003f0 48 26 05 bd a5 8d d0 bd 50 74 8f bd 5c 58 8e 3d
       -0.03250721 -0.101832666 -0.07004607 0.06950447

dest_lstm_obs.weight_hh_l0 f4 [128, 32]
000000 e3 ad 70 3e ae f6 42 be a3 c9 69 bb 18 79 b7 bd
       0.23503833 -0.19039413 -0.0035673163 -0.08958644
000010 f2 dc 42 3d 12 8f d6 3d d7 41 86 3d 6e 4f 32 be
       0.04757399 0.10476507 0.06555527 -0.17413113
000020 2c fc 42 3e 80 43 54 3e 7c b9 0f be bf 2b 3b bd
       0.19041508 0.20728874 -0.140356 -0.045696016
000030 e3 e6 0d be e7 3b 70 bd 15 cf 2e 3e fa f1 2d 3e
       -0.13857608 -0.058650877 0.17071183 0.16986838
000040 86 4f f3 3d 09 d1 71 bd 50 2c 5a bd fe 50 c0 3d
       0.11880402 -0.059037242 -0.053264916 0.09390448
000050 90 a6 97 bd 39 ef e4 3d 82 ae bf 3c f1 82 01 be
       -0.07404816 0.111784406 0.023398641 -0.12647606
000060 23 32 b4 bc e2 7d 29 bd b4 af 82 bc 7d 40 56 be
       -0.021996563 -0.041379817 -0.015952922 -0.20923038
000070 14 4c f1 bd db 8e e2 bd c5 12 22 be ed a0 22 be
       -0.11782089 -0.11062404 -0.15827473 -0.15881701
000080 e0 8e 9e bd 36 6c 21 3b b7 a7 30 3e 08 03 4f 3b
       -0.07742095 0.002463115 0.17251478 0.00315875
000090 96 04 7b 3d 82 40 fd bd 3c 6e a1 3c a1 6d be bd
       0.06128367 -0.123658195 0.019705884 -0.09298254
0000a0 ab bd e8 3c bd b7 e0 3d 36 9c 05 be 47 d5 e5 3d
       0.028410753 0.10972545 -0.13047871 0.1122232
0000b0 94 dd 26 3e cc 39 e5 bc d0 e9 cb bb 85 f0 a9 bd
       0.16295463 -0.027981661 -0.006222941 -0.082978286
0000c0 8a d1 01 be 21 4a 1f 3c 9f 77 36 be 97 ab 18 be
       -0.12677589 0.009722264 -0.1781907 -0.14909206
0000d0 2f aa e2 bb 25 3b a6 bb bd b2 10 bd d2 d8 f5 bd
       -0.00691726 -0.0050729685 -0.035326708 -0.12004246
0000e0 3f 47 39 3d 72 db 0a be cd ca 58 be 18 98 7d bd
       0.04523396 -0.13560274 -0.21171112 -0.061912626
0000f0 a3 21 e9 bc 82 b1 0c be 7d 3b 61 3d dc 0b c0 3d
       -0.028458422 -0.13739589 0.054988373 0.09377262
000100 dd 15 6b bd 70 e1 bf 3d e0 3d 39 3e b3 cf eb bd
       -0.057393897 0.09369171 0.1809001 -0.11514225
000110 2e 97 4c bd 32 fb bf 3d 1c a2 46 3e 52 7f f3 bc
       -0.049948864 0.093740836 0.19397777 -0.029723797
000120 b2 68 6f 3e 14 c5 69 bd de 3c a0 3d 03 33 00 3d
       0.23379782 -0.057072714 0.078241095 0.03129865
000130 e8 f8 ba 3d fe 03 5f be b7 85 34 bd 06 c9 62 bd
       0.09129506 -0.21778867 -0.044072833 -0.055367492
000140 6e 3b 87 3d 6f 05 13 3e 50 67 dd bd 9e 75 f4 3d
       0.06603132 0.14357542 -0.10810721 0.11936496
000150 d0 7a bf 3d dd 45 fb bd 22 27 01 be fc 5f b3 bd
       0.093495965 -0.12269185 -0.12612584 -0.08758542
000160 56 b9 88 bd 10 9b 04 3e 0b 70 94 3d 24 19 91 bd
       -0.06675975 0.12949777 0.07247933 -0.07084873
000170 42 fb 52 be e3 9e a6 bd 38 30 04 be bd a8 b6 bd
       -0.2060366 -0.08135774 -0.12909019 -0.08918903
000180 6a f8 44 3e de d4 d7 3d 64 c0 68 3d 9a 60 29 be
       0.19235387 0.10538648 0.056824103 -0.16540757
000190 8d b5 b1 bd ea a6 42 bd d8 27 5c 3e c6 83 5d bc
       -0.08677206 -0.047522463 0.21499574 -0.013520187
0001a0 7b de 3d 3d 57 b6 29 3e c2 68 56 3d f1 11 81 3e
       0.046354752 0.16573463 0.052346 0.25209
0001b0 38 9d c8 3d c0 67 91 bd 7e a8 b7 bd 08 3a ed bc
       0.09795612 -0.07099867 -0.08967684 -0.028958336
0001c0 1a fb 86 3d 0f a2 be bd f5 30 0f be 7c 11 8d 3d
       0.065908626 -0.09308254 -0.1398352 0.068881005
0001d0 f9 a8 29 3e 02 21 34 3e 6b fd f1 3d 49 69 4d 3e
       0.16568364 0.17590716 0.11815914 0.20059694
0001e0 cd 08 dc 3c 24 86 85 3c 20 1d 92 3d 30 3b ab 3d
       0.026859665 0.016299315 0.071344614 0.083608985
0001f0 f4 12 df bd 7e 52 54 3e 97 4c 85 bd 95 82 3c 3d
       -0.10892287 0.20734593 -0.06508749 0.04602297
000200 41 a6 0e 3b 5b 81 d4 bb 93 81 78 bd fe d8 8e bd
       0.0021766576 -0.006485147 -0.060670447 -0.06974982
000210 10 7c c0 bd dd f1 6c bc f0 8e 80 bc 73 51 ff bc
       -0.09398663 -0.014461962 -0.015693158 -0.031166768
000220 48 bb fb bd 35 2e 2a 3e d6 6d 49 3d b0 de 6e be
       -0.122915804 0.16619189 0.049177013 -0.23327136
000230 98 e4 52 be ad f3 f9 3c c6 b4 1a 3e 2b 34 57 3d
       -0.20595014 0.030511701 0.15108022 0.052539986
000240 89 cc 7a 3d 9c b9 2f 3d 4c 47 78 bd 66 8a fe bd
       0.061230216 0.04290162 -0.06061487 -0.12428741
000250 a7 1e a8 bd f1 80 6b bd ca f5 ce 3c b2 ec a4 3c
       -0.082089715 -0.057496015 0.025263686 0.020132396
000260 ed a8 4b 3c 8e 62 1a 3d 09 01 57 3d 2b 6f 4b bc
       0.012430412 0.037691645 0.05249122 -0.012416641
000270 ba 8d 7d bd a2 7d 0e 3d 62 46 63 3d 53 00 9b bc
       -0.06190274 0.03478778 0.055487044 -0.018921053
000280 e0 f3 34 3e 7f ba 99 3d 4b ec a0 bd 52 a7 c1 3d
       0.17671156 0.075062744 -0.07857569 0.09455742
000290 2a ac 55 3d d9 18 13 3d 23 1a 10 3e a4 20 e2 bd
       0.05216614 0.03591237 0.1407247 -0.11041382
0002a0 6e c5 3b 3e 8e df 01 3d 82 91 ed 3d da 3c 8e 3d
       0.18337032 0.03170734 0.11600019 0.069452
0002b0 5e b2 87 3d a3 6e 88 3d b8 e9 94 3d 60 00 0a 3e
       0.06625818 0.06661727 0.07271141 0.13476706
0002c0 a3 b4 b4 3d 32 a9 8d 3d cc 91 2d be 30 1f e1 3c
       0.08823516 0.06917037 -0.16950148 0.027480692
0002d0 ae 8d f3 3d 49 e7 2f bd 7d 4a a0 3c 72 bc 78 3c
       0.11892258 -0.04294518 0.019566769 0.015181648
0002e0 b9 f9 f3 3c d4 93 27 be a7 34 0c be b8 3f dc 3d
       0.029782163 -0.16364986 -0.1369196 0.10754341
0002f0 39 ed 51 be 2e 69 5a bd c8 ee 5c bc 1c f5 73 3b
       -0.2050065 -0.053322963 -0.013484664 0.0037224954
000300 03 1f 87 3e 90 4f 11 be fa 97 43 3e 51 f7 01 3e
       0.26390848 -0.14190507 0.19100943 0.12692
000310 bd 9b d1 3d 16 4e f0 3d fc 7a 85 bd 60 21 bf 3d
       0.10234783 0.11733644 -0.06517598 0.09332538
000320 af d0 6d bd 14 d3 b4 3d 8f 0b 8c be 16 73 b7 3d
       -0.058060344 0.088293225 -0.27352569 0.08957498
000330 64 ee f9 bd ed 11 1b 3e 4c 42 b7 3a 07 74 2c be
       -0.122036725 0.15143557 0.001398155 -0.16841136
000340 93 5a 8c 3e 24 8c e8 bd cd 2c d3 bc 42 39 7a bd
       0.27412853 -0.11354855 -0.025778199 -0.06108976
000350 c3 90 f0 3c 5c 24 75 3e 1a 13 3f 3d 59 e5 c1 3c
       0.029365903 0.23939651 0.046649076 0.023668932
000360 2b 95 0a be d6 cb 95 be 22 ac 5d be 9d fc 5b 3d
       -0.13533466 -0.29257077 -0.21647695 0.053707708
000370 5f b0 19 3c 17 76 83 3d 6c 26 d8 3d 1f 41 12 bd
       0.009380429 0.06419008 0.105542034 -0.035706636
000380 24 0e 90 3d 26 91 e2 bd 60 79 f3 3d 60 94 15 be
       0.07033947 -0.11062841 0.11888385 -0.14607382
000390 10 84 db 3d 22 a4 e4 bc 7a 32 4c bd fe 1e 6a 3c
       0.10718548 -0.027910296 -0.049852826 0.014289616
0003a0 73 97 c4 3d 84 17 89 3d 22 dc fe bd 11 b4 90 be
       0.09599199 0.066939384 -0.12444331 -0.2826238
0003b0 42 ef 94 3d d2 ca 4a bd e8 f3 8b bd 95 5d f7 bc
       0.07272197 -0.04950983 -0.06833631 -0.03019599
0003c0 6e 97 13 be 22 39 16 bd df 91 84 bd 26 6c f0 3d
       -0.14413235 -0.03667558 -0.06473135 0.11739378
0003d0 cf e2 b6 3d 83 57 80 3c 35 5d af 3c b2 d0 aa bd
       0.08929979 0.015666729 0.02140675 -0.08340587
0003e0 f2 70 ff bc b9 29 14 3d d5 fd 92 bd 04 38 66 bd
       -0.031181786 0.036172602 -0.07177321 -0.056205764
0003f0 99 70 87 3b 54 08 1d bd 1f fc f9 3d 25 72 e0 3d
       0.0041332957 -0.03833802 0.122062914 0.10959271

dest_lstm_obs.bias_ih_l0 f4 [128]
000000 a7 74 c7 3d f2 b5 39 be 86 b7 22 bd 33 e6 9a bd
       0.097390465 -0.18135813 -0.039725803 -0.07563438
000010 1f f6 ca 3d 1a 6a c1 bd ce 74 ba bd 5a 0b de bb
       0.09910225 -0.094440654 -0.0910431 -0.0067762556
000020 8c e7 1a be b7 66 13 be dd 4b 84 bd d0 bb 9b 3d
       -0.1512739 -0.14394651 -0.06459782 0.07604182
000030 f2 7d 8e bd f7 76 96 bd 0c 88 a1 3c 31 80 a8 3d
       -0.06957616 -0.073469095 0.019718193 0.082275756
000040 7e af b6 3d 8c 88 2b bd 63 21 f0 bd d4 1b a3 3d
       0.08920191 -0.041878268 -0.11725118 0.07964292
000050 5d 1a 9e 3d 30 cd a8 bd 0e c6 68 be 73 21 be 3c
       0.07719872 -0.082422614 -0.22731802 0.02320931
000060 83 2b 19 bd d4 8f a3 bd 62 6d 7d bd 65 02 05 bd
       -0.03739501 -0.079864174 -0.061871894 -0.032472987
000070 f6 9e 69 bd 2e 72 f4 3d 78 a5 56 3d 8f 31 eb bd
       -0.057036363 0.119358405 0.052403897 -0.11484062
000080 87 9b 40 be 40 27 a4 bd 61 1c 1d be 46 e9 b3 3d
       -0.18809329 -0.08015299 -0.15342857 0.08784728
000090 72 27 54 be 0d e5 7a bc 78 3b 32 bd cc c6 d9 bc
       -0.20718172 -0.015313399 -0.043513745 -0.026584052
0000a0 52 12 50 bd d2 8c e4 3d 0a 58 24 be d2 7c ad 3c
       -0.05079872 0.11159672 -0.16049209 0.021177683
0000b0 14 c8 25 be 92 3e 53 3d 00 0a ad bd 18 94 84 be
       -0.16189605 0.051573344 -0.08449173 -0.25894237
0000c0 e3 5f 55 be f3 bb d0 3d 5c f0 6a be 16 ba 94 3c
       -0.20837359 0.101920985 -0.22943252 0.018155139
0000d0 a2 ec 16 be 9a 58 0f 3d 45 55 7b 3d 5d f0 53 bd
       -0.14738706 0.034996606 0.061360616 -0.0517429
0000e0 96 12 0b be 9a d0 b1 3d 5a ca 1d bd b6 b7 61 3d
       -0.13581309 0.08682366 -0.038523056 0.05510684
0000f0 e8 7b 41 be f8 5c c4 bd f0 cf 7a 3e e2 10 a9 bb
       -0.18894923 -0.09588045 0.24493384 -0.0051594833
000100 ba 75 2d bc d8 dd b3 3d b3 8a e7 3d c2 e6 05 be
       -0.01058715 0.08782548 0.11305752 -0.13076308
000110 61 d6 ee 3d 27 0e a8 bc dc c8 a4 bd 50 86 71 bd
       0.11661983 -0.02051456 -0.080461234 -0.05896598
000120 d4 95 55 bd 30 cb 0b bd 4c 43 be 3d f1 b5 2c 3e
       -0.05214484 -0.03412932 0.092901796 0.1686628
000130 ba 3b 2b 3e 1c 08 de 3c e3 83 5e bd 09 27 5a be
       0.16722003 0.027103476 -0.054324996 -0.21303953
000140 f2 d0 9c b9 2d 3d c3 3c f7 7f b4 3d 10 7c 7b bd
       -0.00029910315 0.023832882 0.0881347 -0.061397612
000150 bd 63 42 bc 9d 73 d3 3c 74 3d d8 3d a4 f3 69 bd
       -0.0118646 0.025811965 0.10558596 -0.05711712
000160 4a 2c 7b 3e 98 88 3d 3c d7 a0 84 bc e6 d0 3f bd
       0.24528614 0.011568211 -0.016189976 -0.04683008
000170 16 33 85 3d a6 b1 cd 3d f2 3f ed bd ae d2 d3 3d
       0.065038845 0.100436494 -0.11584462 0.10342918
000180 c5 11 81 bd 55 f5 99 3d c2 62 ae bd 42 97 d5 3d
       -0.063022174 0.075174965 -0.0851493 0.10429241
000190 f6 f7 39 3d d3 c0 91 bd 09 e2 a7 bd 16 48 4c be
       0.04540249 -0.071168564 -0.0819741 -0.19949374
0001a0 5e 96 64 be 83 17 1a 3e 8d 66 1f 3e c4 51 c7 bd
       -0.22322986 0.15048032 0.15566464 -0.097323924
0001b0 82 8a 1a 3e 46 da b4 3d 06 76 ce bc 78 8a ad bc
       0.15091899 0.08830695 -0.025202762 -0.021184191
0001c0 db 2e 83 bd de b5 b7 bc 37 df 2a bd 62 e9 14 be
       -0.06405421 -0.022425588 -0.04171678 -0.14542153
0001d0 6a 5e 09 3e 44 4e 41 bc 97 d5 e5 3d f1 ac 4d be
       0.13414922 -0.011798445 0.1122238 -0.20085503
0001e0 68 a4 2f be 1b f4 3b bd 21 02 7d 3d b3 07 5c 3c
       -0.1715256 -0.045887094 0.06176961 0.01342957
0001f0 d8 b2 36 be 91 1b e6 bd d3 3d 1d 3e 46 1a 01 3e
       -0.17841661 -0.112357266 0.15355615 0.12607679

dest_lstm_obs.bias_hh_l0 f4 [128]
000000 1e 80 36 3d b5 65 a5 bd c4 20 bb bb 74 f3 bc 3d
       0.044555776 -0.0807604 -0.005710693 0.092261225
000010 1b 86 0d be ea a7 f4 3d 88 2b 01 3c 7e f9 1d be
       -0.13820688 0.119460896 0.007883914 -0.15427205
000020 24 68 0d be 8d 7a 93 3d 2e 4b a3 bd 9e 83 01 3d
       -0.13809258 0.07201109 -0.07973324 0.03161966
000030 9f 97 21 3d ed e4 95 bd 4e c9 b8 3d b0 5a a5 bd
       0.039451238 -0.07319055 0.09022771 -0.08073938
000040 3a 02 9b bd 5c dc bb bd 94 65 4b be 8d 2d a8 3d
       -0.07568784 -0.091728896 -0.19862968 0.08211813
000050 95 b8 1b bd 3b 06 ef bd a8 55 58 be a1 76 e0 3d
       -0.038017828 -0.1167111 -0.21126425 0.10960127
000060 34 5e 1f be a0 f0 38 3d fa f2 a8 3d 23 6c 8c bd
       -0.1556328 0.045151353 0.08249469 -0.06856563
000070 a6 b9 c9 3c e1 62 f3 3d 0a 2b d1 3d 1c da 1c bc
       0.024624657 0.11884094 0.10213287 -0.009573486
000080 7e 84 5c be 70 bb 0a 3e 44 05 16 bd 61 48 14 be
       -0.21534917 0.13548064 -0.036626115 -0.14480735
000090 46 7d 7f 3d 9c 4a 4c be 94 3e 28 be f6 1e 81 bc
       0.06237533 -0.19950336 -0.16430122 -0.015761834
0000a0 e1 9d a6 3d 24 3d c8 bc 23 09 b5 3d ad dd d1 bd
       0.08135582 -0.024443217 0.08839633 -0.102473594
0000b0 4a 85 2a 3e dd 8c 90 bc fe 53 2b bd a8 60 37 3d
       0.16652408 -0.017645294 -0.041828148 0.044769913
0000c0 d4 83 ac 3c f2 a2 ec bd b5 d3 1f be 1b 1d 1a 3e
       0.021058954 -0.11554517 -0.15608104 0.15050165
0000d0 84 c1 38 be a0 dd 0b be 4d 08 98 3d 08 44 36 bd
       -0.1804257 -0.13658762 0.07423458 -0.044498473
0000e0 32 7c 9a 3d 54 94 40 bd 57 59 8a bc 62 e6 bc 3d
       0.075432196 -0.047016457 -0.016888304 0.092236295
0000f0 23 bb 88 bd a8 d7 9f bd 40 ec 3e bd 21 9a 41 be
       -0.066763185 -0.07804805 -0.046612024 -0.18906452
000100 b9 87 0a 3d 21 8f 43 3e 00 ca d6 bc ca 34 13 be
       0.03382084 0.19097568 -0.026219368 -0.14375606
000110 a2 32 2e 3d e9 cc 04 3e 74 79 95 3c 5c ae de bd
       0.042528756 0.12968792 0.01824639 -0.108731
000120 e7 5a 01 3d f1 a0 1e bd 80 02 7a 3d a6 48 3f bd
       0.03158083 -0.038727704 0.06103754 -0.046700142
000130 fa b3 c0 3d 3a 40 fb bd 63 4d 04 be 98 38 ba bd
       0.09409328 -0.122681096 -0.12920146 -0.09092826
000140 93 d5 4f be c2 18 2b 3e d8 3b 41 be ea b4 d5 3b
       -0.20296316 0.16708663 -0.18870485 0.006521811
000150 52 e9 b4 3d f7 02 a5 bc 62 10 53 be fe 84 fb bd
       0.08833565 -0.020143015 -0.20611718 -0.122812256
000160 70 a3 6a bd ab a2 6e 3e ec 71 d5 bd 47 c6 87 3d
       -0.057284772 0.2330424 -0.104221195 0.06629615
000170 3f c4 2f be a4 a0 13 be e7 ba 2e be 29 55 94 3d
       -0.17164706 -0.14416748 -0.17063485 0.072428055
000180 43 be 8e bd a2 77 c1 bb a2 37 46 be 2a 9f dd 3d
       -0.06969883 -0.005904154 -0.1935716 0.10821374
000190 c2 f8 26 3c 9f 57 ae 3d 68 b7 fe 3d df bb 9d 3c
       0.010191144 0.08512806 0.12437326 0.019254623
0001a0 fe bf cd 3c 8d a0 18 3c 42 33 00 3d 78 6e 24 3b
       0.025115963 0.009315622 0.031298883 0.0025090259
0001b0 9c cd 1f be 1b 0f 12 be 9f ed 68 3d 1b 75 92 bd
       -0.15605778 -0.14263575 0.056867238 -0.07151242
0001c0 98 79 c6 bd 23 ca 6b bd 5f ff 6f 3c ba 37 c4 bd
       -0.09691161 -0.05756582 0.014648288 -0.095809415
0001d0 3e ce b9 3d 7e 43 6f 3d 76 57 9f 3d 81 ee 22 3d
       0.09072541 0.058413975 0.07780354 0.039778236
0001e0 2f 8f fa bc a0 7b dc bd 4b bf 5e be 8a fb 05 be
       -0.030585853 -0.10765767 -0.2175266 -0.13084236
0001f0 81 d1 43 be e8 24 e5 bd f4 30 01 be 71 ba 84 bd
       -0.19122888 -0.1118868 -0.1261633 -0.064808734
