do_tp_federated_round_5.pt (torch, 156693 bytes, 26 tensors)

linear_enc.weight f4 [64, 2]
000000 c0 37 4c 3f ea 34 30 3f 3d 1d ae 3e 56 48 9e 3d
       0.7977257 0.6883074 0.34006682 0.07728641
000010 e8 ef 40 3f 06 4b d6 3e 49 68 43 3f b4 b0 41 3f
       0.7536607 0.41854113 0.76331 0.7566025
000020 80 3a 04 bf 76 b1 2c 3f be 6b 5b 3e e5 c1 4e bf
       -0.51651764 0.67458284 0.21427819 -0.8076461
000030 1d d3 e6 3e ed 91 d6 be 7b ef 95 3e b4 f2 6e be
       0.45082942 -0.41908208 0.29284272 -0.23334771
000040 20 2a d5 be 00 72 b0 bd f7 bf 9b 3c 8f 8d e4 3e
       -0.416337 -0.08615494 0.019012434 0.4463925
000050 83 db 0e 3f 76 cb 6a 3f 92 5b bc 3e b0 11 8a bc
       0.558037 0.91716707 0.36788613 -0.016854137
000060 42 5f f4 3d 27 64 5b 3d 93 4f 57 bd 9a 16 46 3f
       0.119322315 0.05356231 -0.052566122 0.7737824
000070 3e 98 30 3f b8 40 f7 be a4 32 12 bf 81 99 0a 3f
       0.68982303 -0.48291564 -0.5710852 0.5414048
000080 79 df ab 3c b4 11 db be ae fc bc 3d 4c ab f8 bd
       0.020980584 -0.42786944 0.09227882 -0.12142047
000090 44 3a 00 bf 00 58 c4 3e 86 c6 2a bf 97 b7 12 bf
       -0.50088906 0.3834839 -0.6670917 -0.57311386
0000a0 33 5c 65 be f8 11 49 3f 8d 63 71 be 3b 3e f9 3e
       -0.22398452 0.78543043 -0.23573132 0.4868029
0000b0 38 de 9a be 2f 3c 06 3f 58 fe 3f 3f 6f 08 01 3e
       -0.30247664 0.5243558 0.7499747 0.12600873
0000c0 80 d0 25 3f 16 4f 48 bf bf a1 19 be 16 0b c4 bd
       0.6477127 -0.78245676 -0.15003107 -0.09572427
0000d0 b2 92 3a 3e 12 48 2c bf ae db 21 3f 13 40 90 3e
       0.18220022 -0.6729747 0.6322583 0.28173885
0000e0 01 bf 84 3e cf b7 97 3e 60 e9 35 bf 7a 10 dc 3d
       0.25926974 0.29632422 -0.71059227 0.1074533
0000f0 a6 8f 31 bd c9 84 bd be e6 77 8f be b6 f8 e1 3e
       -0.043349884 -0.3701537 -0.28021163 0.44135064
000100 98 62 0c bf 18 04 77 3e 22 9c 95 3e 0d 5d 3b bf
       -0.5483794 0.24122655 0.29220682 -0.7318886
000110 c3 94 3b bf 82 63 06 bf 5c cf de be 3c 2c a4 3d
       -0.7327387 -0.52495587 -0.43517578 0.080162495
000120 ff df ca be f8 71 a3 be d9 13 eb 3e c4 08 84 3e
       -0.3962402 -0.3192289 0.4591358 0.25787938
000130 4b ed b7 3e 2e c7 67 be 36 8b fe be 9f db 26 bf
       0.35923228 -0.22634575 -0.49715585 -0.65178865
000140 88 a8 26 be bb bb 07 3f cc b3 4b 3f d0 8f d9 be
       -0.16275227 0.5302083 0.79571223 -0.42492533
000150 4c 24 eb 3d 04 6c 6d 3f 4d 0d 29 bf eb 36 8b be
       0.114815325 0.92742944 -0.6603592 -0.27190337
000160 6e fd aa be ae 43 a9 3e ef ab 3a 3f 76 01 c7 3d
       -0.33396477 0.33059448 0.729186 0.097170755
000170 6a 68 d2 bd ac 22 0a bf b3 b4 8b be 0a b3 79 3e
       -0.10273822 -0.53959155 -0.272863 0.24384704
000180 62 79 94 3e 7c 3f 9a 3d 44 18 97 3e 12 1d 23 be
       0.28998858 0.0753164 0.295107 -0.15929058
000190 c0 e1 fa 3d 0a 51 f3 3e be 6b 98 3d bd f1 32 3f
       0.1225009 0.47522765 0.07442425 0.69900113
0001a0 b3 d9 98 3e 56 6d 38 3e ff c6 9a bd f5 e8 0a be
       0.2985359 0.18010458 -0.07557487 -0.13565429
0001b0 e7 a8 fe be cc a8 13 bf aa 8e d3 3e 74 9e 22 bf
       -0.49738237 -0.5767944 0.41319782 -0.6352303
0001c0 b2 6b d2 3e 5a ff 11 3f 05 92 f5 3e 50 44 26 3f
       0.4109779 0.5703026 0.47962967 0.64947987
0001d0 0f 4c 62 3d 3a 54 1a 3f 06 b0 11 be 3b 83 0b bf
       0.055248316 0.6028477 -0.14227304 -0.54497117
0001e0 46 f1 51 3e e1 8c 10 bf a4 aa e4 3e f1 45 24 bf
       0.20502195 -0.56464964 0.44661438 -0.6416922
0001f0 0c 56 89 3e 9b e0 c6 3e 0b da 26 bf 0b f7 ea be
       0.2682346 0.38843235 -0.6517646 -0.45891604

linear_enc.bias f4 [64]
000000 ee ea 4b 3e 61 97 1a be e5 75 ad 3e f1 29 53 3d
       0.19913837 -0.15096809 0.3387901 0.05155367
000010 ee 12 e7 be ec e7 2c be a4 d0 1b be d8 cb 0f bf
       -0.4513163 -0.16885346 -0.15216309 -0.56170416
000020 91 ea 12 bf 12 f8 13 bf 6f 29 21 bf 25 e8 f3 be
       -0.5738917 -0.578004 -0.6295385 -0.4763805
000030 82 42 cc 3d 08 a7 29 3f 56 10 2f 3f ce c4 cd 3d
       0.09973623 0.66270494 0.683843 0.10047303
000040 cc de be 3d 88 34 8b 3e ee da 92 be 34 84 db be
       0.09319839 0.27188516 -0.28682655 -0.428743
000050 29 00 93 be 16 c1 a8 be b8 c4 8b 3e 99 30 83 be
       -0.2871106 -0.32959813 0.27298522 -0.25623015
000060 4b ee ea 3e 1e 99 ab bd 96 67 28 3f b8 0c 09 3f
       0.45884928 -0.08378814 0.6578306 0.5353503
000070 3a 0d 22 3d 3c 71 e3 3e 45 f6 1e bf c1 fe 18 3e
       0.039563395 0.44422328 -0.6209453 0.14940931
000080 74 cb 0a 3e 07 d5 85 3d 66 10 74 be 79 28 cd be
       0.13554174 0.06534772 -0.2383438 -0.4006994
000090 f6 67 d5 be 87 b0 73 be 62 8c 8b be d2 fe 19 bf
       -0.41680878 -0.23797809 -0.2725554 -0.6015445
0000a0 b4 ef d1 3e 60 66 5a 3d 00 b2 95 bd 7c 0c b7 bd
       0.4100319 0.05332029 -0.073093414 -0.08937928
0000b0 66 a6 16 3f d4 6c a2 3e c7 82 48 3e 84 d0 24 3f
       0.58847654 0.31723654 0.19581138 0.6438067
0000c0 24 7f f1 3d 96 78 99 3d 7a c3 bb 3d 71 4b f9 3e
       0.11791828 0.07493703 0.091681436 0.4869037
0000d0 be 6f d3 be dc 0c 9d be 81 9a b1 3e 30 56 94 be
       -0.4129619 -0.30673873 0.3468819 -0.28972006
0000e0 82 d1 ff be aa 01 6d be 2b af 9f 3e 68 36 92 3e
       -0.4996453 -0.23145166 0.3118833 0.28557134
0000f0 22 0e 1d bf 73 d1 0a be 9e e6 68 be 03 60 11 be
       -0.6134969 -0.13556461 -0.22744223 -0.14196782

encoder_lstm.weight_ih_l0 f4 [128, 64]
000000 c5 d5 0e be 5c 2e 6f be ff 60 01 be 27 3a 0f be
       -0.13948734 -0.23357528 -0.12634657 -0.13987027
000010 e2 06 18 bd 30 41 22 be 94 1c d9 3d 4c bb 2e bd
       -0.03711594 -0.1584518 0.10601154 -0.04265909
000020 05 0e 2a 3e 2b a8 df bd 7a 0f 50 be 9a b3 c6 bd
       0.1660691 -0.10920747 -0.20318404 -0.09702225
000030 0e 1a 40 3d f7 7c 62 3d 28 ff 01 be 4e 4d 83 bd
       0.046899848 0.055294957 -0.1269499 -0.06411229
000040 e0 0c af b9 ae d3 a8 3c 75 8c f9 3d 83 62 0e 3e
       -0.00033388194 0.02060875 0.12184993 0.13904767
000050 36 6a 5b 3d 00 03 a1 b6 5e 1f 1a 3d 03 26 96 3d
       0.053568088 -4.798523e-06 0.03762757 0.07331469
000060 cf 5d 28 3d ec 1c 74 bd f9 0c 2e 3e 97 a7 a3 3d
       0.041105088 -0.059597895 0.16997136 0.079909496
000070 d8 1d 31 be 52 6f f9 bd 95 be 87 3c ea 85 0b 3e
       -0.1729654 -0.12179436 0.016570369 0.13625303
000080 e0 ad bf bd 06 81 fe 3d ed 65 08 3e c5 05 69 3c
       -0.09359336 0.12426953 0.13320132 0.014222567
000090 cf f7 7a 3c 00 ac 3e be 54 d1 cd 3d 0b 91 2e 3d
       0.015317871 -0.186203 0.10049692 0.042618793
0000a0 88 e3 bb bd 3e 0c 0b bd 86 38 2c bd b7 0d 08 3e
       -0.091742575 -0.033947222 -0.042046092 0.13286482
0000b0 07 fb 56 bd c8 f9 29 bd ef 2f e9 bd 2f 2c c2 3d
       -0.052485492 -0.041497976 -0.11386096 0.094810836
0000c0 ba e7 cd 3d bc 48 64 be 71 e1 97 3d 4a 5e 00 be
       0.10053964 -0.22293371 0.074160464 -0.12535968
0000d0 bc 00 36 be 8b 5e 76 3d 72 ee 21 3e f8 dc 31 3d
       -0.17773718 0.060148757 0.15813616 0.043423623
0000e0 bb c7 dc bb 82 b8 e7 bd d5 8c 08 3e cf 9f b9 bd
       -0.006737677 -0.11314489 0.13334973 -0.09063684
0000f0 1d e8 52 3d 62 f2 43 be ae df c8 bd df 29 90 3e
       0.05149089 -0.1913543 -0.098082885 0.28156945
000100 a6 d7 1f bd 2c 83 a7 3c 7c 02 60 3e 35 d3 da bd
       -0.039024018 0.02044829 0.21875948 -0.10684816
000110 58 cd 30 be 22 aa dc 3d f6 d4 cc 3d 25 d7 63 be
       -0.17265832 0.10774638 0.100015566 -0.2225004
000120 70 c3 39 be 6a 63 88 be 8a f1 8b be d9 1e e9 bd
       -0.1814096 -0.26638347 -0.27332717 -0.11382837
000130 49 a6 00 3e 3f 41 97 3e 8e df 87 3e 78 c6 4e bd
       0.12563433 0.29541966 0.26537746 -0.050482243
000140 5c 82 ab 3e b9 7b b1 3e aa 9f a2 bd 8e 9f 53 bd
       0.33497894 0.34664705 -0.0794061 -0.051665835
000150 e6 d9 91 be b0 25 8e be c2 ac b2 bc 9b c7 61 be
       -0.28486556 -0.27763128 -0.021810893 -0.220488
000160 08 ad 87 3e c0 2d eb bd 9e 42 7c 3d b7 2b 31 3e
       0.264992 -0.114833355 0.06158697 0.17301832
000170 d5 92 9e 3d eb 1f 28 3e 1d 60 32 be d2 dd d5 bc
       0.0774285 0.16418426 -0.17419477 -0.026106749
000180 16 30 d6 3d 76 f3 df 3d a4 c5 74 bd 25 81 66 be
       0.104583904 0.10935108 -0.059758797 -0.22510202
000190 bc 03 bd bd a6 1a 11 bd b3 45 83 bc 2a f5 84 bc
       -0.09229228 -0.035425805 -0.016024446 -0.016230185
0001a0 66 2f a0 bc f9 76 6e 3e a9 ca 23 be 1c c8 58 be
       -0.019553851 0.23287572 -0.15995277 -0.21170086
0001b0 3c c2 be 3c f1 56 a3 3e 60 dd 1c 3e 68 28 94 3e
       0.023285978 0.3190227 0.15318823 0.28937078
0001c0 26 3c 30 3e 35 d2 e5 3d 4d cf 65 3e 40 bc 48 3d
       0.17210445 0.112217344 0.2244236 0.049007654
0001d0 70 a8 08 be 5c 7b 1e be 78 49 f1 3d 38 7e 00 be
       -0.13345504 -0.15476745 0.11781591 -0.12548149
0001e0 b1 75 7a be 12 24 7d bd ac 1f cc bc de 54 a1 3e
       -0.24458958 -0.061801977 -0.024917446 0.3151006
0001f0 0d 54 93 bd fd a8 03 be fc 86 bc be 06 0f 0c be
       -0.07193766 -0.12857433 -0.36821735 -0.13677606
000200 83 27 be bd e2 7e 1b be 4d c0 ff bc 69 98 62 bd
       -0.0928488 -0.1518512 -0.031219626 -0.05532113
000210 46 fe 12 be ec 7e 33 3e b8 e9 54 bd 7b 4c 5b be
       -0.1435481 0.17528886 -0.051980704 -0.21415894
000220 92 0c 3a be 06 b6 66 3d a1 65 7f 3c 4c 13 1f be
       -0.18168858 0.056325935 0.015588195 -0.15534705
000230 57 06 45 3e 82 d1 ef 3c 1f 3d 16 3e c7 8e 67 be
       0.192407 0.029274706 0.14671753 -0.22613059
000240 2d ed 7d 3e 5c c2 fb 3d 82 f0 90 be be cc 86 3c
       0.24797507 0.122929305 -0.28308493 0.01645505
000250 95 56 9d be db 84 51 be 24 ca f5 3d cb e5 3d be
       -0.3073012 -0.20460837 0.12001446 -0.1854469
000260 e3 1b cd bc 1e e1 a3 bd 6d 25 a7 bc 7d 4a 88 3e
       -0.025037711 -0.08001922 -0.020403588 0.2661933
000270 47 5e e7 3d 43 e9 8e 3c 98 46 82 bd 88 50 22 3d
       0.11297279 0.017445212 -0.06361121 0.03962758
000280 26 6e e9 bd e5 4f 79 3e 78 42 6c bd be 8d 4e bc
       -0.11397962 0.24346884 -0.057680577 -0.012607036
000290 fe 72 72 be ab f2 83 be 44 3e 56 be 51 3e b1 bd
       -0.23676679 -0.25771078 -0.2092219 -0.08654464
0002a0 9e 8b 3c 3e 4d f7 41 3e ab 60 8f be d9 f4 81 ba
       0.18412635 0.18941994 -0.2800344 -0.0009914889
0002b0 3b 75 56 3e 38 2a 6e 3e c8 43 ab 3d 12 f1 d6 bc
       0.20943157 0.23258293 0.083625376 -0.026237998
0002c0 17 c3 25 3e fa 70 9d bc 74 f6 24 3e 80 ff 53 3e
       0.16187702 -0.01921891 0.1610964 0.20702934
0002d0 6d 5b 45 be a6 10 ca bd c1 64 b7 3d d8 ce 53 3b
       -0.19273157 -0.09866457 0.08954764 0.0032319333
0002e0 98 ef 02 be 27 6d 19 3d ce 59 a7 3d a7 64 c3 3c
       -0.1278671 0.03745761 0.08171426 0.023851706
0002f0 e0 11 d0 3c 35 2a 09 3e 6c 1a 90 be 07 52 12 bc
       0.025399148 0.13395007 -0.28145158 -0.00893069
000300 48 9e 00 be 94 c7 91 3c d0 29 f5 bc 40 00 cd bd
       -0.1256038 0.017795362 -0.029927164 -0.10009813
000310 33 6b 1e be 64 e4 17 bc b7 8f 37 bd 2d 06 21 be
       -0.15470581 -0.009270761 -0.04481479 -0.15725012
000320 60 fc 2b 3e bf 64 39 be 1f c0 a4 bd a2 4a 66 3d
       0.16795492 -0.18104838 -0.08044457 0.05622352
000330 bb 56 5c bc e6 89 6b bd d2 d7 1a be 23 d6 31 3e
       -0.0134484125 -0.057504557 -0.15121391 0.17366843
000340 ca aa fb bb 9d e3 19 3d 13 61 87 3d 6d 95 a1 3d
       -0.0076802718 0.037570585 0.06610312 0.07889829
000350 af 54 a4 bd d5 af 70 bd 58 71 3c 3a 5d b4 2c bc
       -0.080239646 -0.058761436 0.00071885204 -0.010541049
000360 96 2f c1 bd 4b 49 16 3d fd 6e e7 3c 49 3d 0f be
       -0.094329044 0.03669099 0.028251166 -0.13988222
000370 d0 60 23 be 0e fb f2 bc dd 93 a4 bd da e1 ee bd
       -0.159549 -0.029660728 -0.08036015 -0.116641715
000380 3a aa d6 3d 4e 09 c8 bd 44 cb 3b 3e 4b 8d 2b 3e
       0.10481687 -0.097674 0.18339258 0.16753118
000390 f4 28 16 3b bc 76 62 3d a9 7a d8 3d 57 04 91 3d
       0.0022912594 0.055289015 0.105702706 0.07080906
0003a0 e0 c5 b9 3d d4 b6 95 3d 5d 76 60 be 54 0a 6a bd
       0.09070945 0.07310262 -0.21920152 -0.057138756
0003b0 5b 11 a2 bc ab e0 06 be b2 c2 0a be 66 f3 f5 3d
       -0.019783666 -0.13171642 -0.13550833 0.12009315
0003c0 2a ea 47 bc 22 11 02 3e 90 00 a6 bd 9d db 94 3c
       -0.012201825 0.12701848 -0.08105576 0.018171126
0003d0 d4 92 ee bd 6c 20 a2 3d 96 c0 a0 3b c5 97 a8 bc
       -0.11649099 0.0791634 0.0049057705 -0.020580182
0003e0 40 67 2c be 45 09 d3 3c 84 39 4f bd 9d cb c4 3d
       -0.16836262 0.025761256 -0.05059196 0.09609149
0003f0 f9 ca 6a bd a1 8b 1e 3d 99 e5 be 3d 9f 6b bd 3d
       -0.057322476 0.03870738 0.09321136 0.09249043

encoder_lstm.weight_hh_l0 f4 [128, 32]
000000 0a 17 c4 3d f6 e7 e5 bd 67 9d f0 bc 89 b2 c1 3c
       0.09574707 -0.11225884 -0.02937193 0.023644703
000010 d1 45 fc bd 9c 76 8a bd 4d f0 a3 3d d4 93 ec bd
       -0.12318004 -0.06760904 0.08004818 -0.115516335
000020 37 e1 d0 bd 6a 95 8a bd aa 6f fe 3b 8b ad 1c be
       -0.10199206 -0.0676678 0.0077647762 -0.15300576
000030 64 98 43 bd 31 a2 c4 3c 87 09 92 3c 7c 40 5c be
       -0.047752753 0.02400312 0.017826809 -0.21508974
000040 d1 17 37 3d 85 8f 4e 3d a4 b9 23 3e a5 74 26 be
       0.044700447 0.05042984 0.15988785 -0.16255434
000050 23 47 24 3e 3a 61 b8 bd ec e0 41 3d 90 a2 ea bc
       0.16042762 -0.090029195 0.047333643 -0.028641969
000060 64 ee a3 3c 2e b6 be 3d 7e a6 09 be 8e 00 ad bd
       0.020011134 0.09312092 -0.13442418 -0.084473714
000070 6a c9 b6 3d 9a d3 c5 bd 78 be 3e 3e 32 23 35 be
       0.089251354 -0.096595004 0.18627346 -0.17689207
000080 cc cd 07 be 0e 04 33 3e dc 79 06 3e 1f 0f 04 be
       -0.13262099 0.17482015 0.13132423 -0.12896393
000090 a0 a8 47 3e bf 86 e2 3d 08 6e 85 3d 18 84 49 3c
       0.19497919 0.11060857 0.065151274 0.01229956
0000a0 cd f1 84 3e 22 d2 b0 3d ea 69 a2 3e 49 7a 5b 3e
       0.2596573 0.0863383 0.3172143 0.21433367
0000b0 4c 83 14 3e 73 60 0e 3e c6 60 8b 3d c6 45 c8 3d
       0.14503211 0.1390398 0.068055674 0.09778933
0000c0 52 c1 a8 be 8e 0c 81 be 9f 17 88 3e 0c c5 16 be
       -0.32959992 -0.2520489 0.2658052 -0.14723605
0000d0 d2 8a 04 3e bc 5b b7 3e 58 c1 ac be 4e e5 9d bd
       0.12943581 0.35812175 -0.3374126 -0.07709752
0000e0 03 b9 9d 3e 01 e7 0a bd 89 5d 87 bd eb 8d 0e 3e
       0.30805215 -0.03391171 -0.06609637 0.13921325
0000f0 f0 56 e5 3d 0a fd 0d be 4d da dd 3d 53 bd 8b bd
       0.11198223 -0.13866058 0.10832653 -0.0682322
000100 02 99 8e bd da c4 fc 3d 30 92 46 3e 18 4b 74 3c
       -0.06962778 0.12342234 0.19391704 0.014910482
000110 2f ef 40 3e da ad 35 3e 59 ae 63 3e 62 9d 23 be
       0.18841241 0.177421 0.22234477 -0.15978006
000120 b5 ff 09 bd 47 bc 3e bd 1e 02 05 3e 03 11 eb 3d
       -0.033691127 -0.046566274 0.12989089 0.11477854
000130 f4 08 bc 3d d8 19 f9 3c e8 39 df 3d b9 d8 99 3d
       0.09181395 0.030407831 0.108997166 0.0751204
000140 fe ea 07 3b 84 c5 ee 3d de ca 96 3d 26 03 40 3b
       0.0020739431 0.11658767 0.073629126 0.0029298752
000150 72 90 c8 b9 4d e9 86 3e 35 6d 5d bd 7b 1f d8 bd
       -0.00038254593 0.2634987 -0.054059226 -0.105528794
000160 33 5e 6f 3d 35 42 07 bc 4c 47 3e be d9 1d cf 3d
       0.058439445 -0.008255531 -0.18581885 0.10113115
000170 0d 05 4d 3e 29 24 04 be 19 cd aa 3c 39 c8 6d be
       0.20021458 -0.12904419 0.020849751 -0.2322091
000180 38 68 12 3e 28 c7 48 be 55 89 5c 3e af 49 ec bd
       0.14297569 -0.19607222 0.21536763 -0.115374915
000190 b1 32 5b be c0 3c 4d 3e d3 2a 2a bd 6f 62 b7 3c
       -0.21406056 0.20042706 -0.041544747 0.022385804
0001a0 10 cf 42 3e 60 a2 69 bd 56 1d cd bd e0 1f 32 be
       0.190243 -0.05703962 -0.10015361 -0.17394972
0001b0 a3 e5 48 3e 42 46 c5 3d 73 19 a5 3d fe cb 96 3d
       0.1961885 0.09632541 0.08061495 0.07363127
0001c0 db af f7 3d ce f5 ca 3d c6 96 04 be b7 6d a1 3d
       0.12094089 0.09910165 -0.1294814 0.078822546
0001d0 81 33 ab 3d c1 a1 82 3d eb 41 b9 bd 54 13 44 3e
       0.08359433 0.06378508 -0.09045776 0.19147998
0001e0 c4 a0 43 3b e5 6b 6c 3e bf 36 b3 bd a4 94 79 3d
       0.0029850462 0.23088033 -0.08750676 0.06093277
0001f0 8d 16 10 3e cb a3 2c 3d 68 1f b1 bd e3 61 05 3d
       0.14071102 0.042148393 -0.086485684 0.032564055
000200 56 93 83 bd c3 db 9d be fd d6 97 3d 25 d4 18 bd
       -0.064245865 -0.30831727 0.07414053 -0.03731169
000210 6c dc 08 3e 5f fa 24 3e 75 7b 3d 3e 6a e2 9a be
       0.13365334 0.16111134 0.18504126 -0.30250865
000220 3d bf 0f 3e e7 a9 ca 3d de 26 98 3e b8 b2 06 3e
       0.14037795 0.098956876 0.29717153 0.13154113
000230 fb 3e a8 3e 5b 92 10 3d 02 08 93 3c e4 90 02 be
       0.3286055 0.035295825 0.017948154 -0.12750584
000240 3e 73 5f bd bd 47 5a be d0 fe d2 3d 6c 63 78 be
       -0.054553263 -0.21316428 0.10302508 -0.24256676
000250 8c 90 79 bd c8 1a eb 3d d1 85 32 bd 10 2c 82 bd
       -0.060928866 0.114797175 -0.04358465 -0.063560605
000260 db a0 9b 3e ad 58 19 3e 80 9c a0 be a1 76 86 3e
       0.3039616 0.14975233 -0.313694 0.26262382
000270 c9 f0 03 3e dd bb c7 3c 8f 74 83 bd 84 37 82 be
       0.12884821 0.024381572 -0.06418716 -0.2543298
000280 d9 fc 99 3d f8 10 51 be 4d 13 1f be 0a 8b 14 be
       0.0751893 -0.2041663 -0.15534706 -0.14506164
000290 d9 be 29 bd 4d 96 1a 3e 6c d7 f9 bc 79 cf 47 be
       -0.041441772 0.15096398 -0.030498229 -0.19512738
0002a0 f2 7a 31 3e 3e e4 48 3e 5f 69 89 3e 6c 20 0c bd
       0.17332056 0.19618317 0.26838204 -0.034210607
0002b0 c4 28 4b 3e c0 0c 99 3c 70 49 f4 bd 69 7d bd be
       0.1983977 0.018682837 -0.119280696 -0.37009743
0002c0 fb 55 fd bc 24 5f bc bd e8 ec 5a 3e d4 cc d9 3d
       -0.030924788 -0.09197834 0.21379435 0.10634771
0002d0 fc 64 87 bc f9 9c ab 3b 74 f9 49 3d e5 48 5e 3c
       -0.016527645 0.0052372185 0.049310163 0.013567184
0002e0 af 1c dc 3a fb 80 bc 3d 60 7e ca bd fa cb 65 3e
       0.0016793216 0.092042886 -0.09887385 0.22441092
0002f0 7b 02 fd 3d 20 61 0b be 20 a8 37 bd 9c 6b a3 3d
       0.12353989 -0.13611269 -0.04483807 0.07979509
000300 53 13 36 be fc 6f d2 bd 88 fd 2c bd a7 e5 00 be
       -0.17780809 -0.102752656 -0.042233974 -0.12587605
000310 c9 b3 00 3e 48 ca 23 3d c0 ea 10 3e d7 09 65 3d
       0.12568583 0.039987832 0.1415205 0.055917587
000320 3c bc ef bd 45 7c da bd 51 59 15 bd db 3e fd 3d
       -0.11705825 -0.10668234 -0.036462132 0.12365504
000330 00 67 2f be da 88 7e 3c 1a 3d 09 3d 8f 20 53 bc
       -0.17129135 0.015535558 0.033505537 -0.012886181
000340 43 93 61 3c 52 c5 4a be fb cd 0d 3e 43 eb 0f 3d
       0.01376802 -0.19801834 0.13848107 0.035136472
000350 0b 99 d5 bd 61 76 61 3e a0 52 24 3c 34 37 9f 3d
       -0.10429581 0.22017814 0.010029465 0.07774201
000360 2e 4d b1 3d 77 17 5e 3d c2 77 26 be 30 60 26 3e
       0.08657299 0.054221597 -0.16256621 0.1624763
000370 1f fa 67 3e 1c b5 53 bd 23 a6 4c 3e 24 58 c5 bd
       0.22654007 -0.05168639 0.19985251 -0.09635952
000380 d3 f0 28 be 29 f1 0f 3e ea 57 78 3e fe 25 d9 bd
       -0.16498117 0.14056839 0.24252287 -0.106029496
000390 68 84 39 3d 34 e1 cb bd 0a 77 cf bd 93 77 13 3e
       0.045292288 -0.099550635 -0.10130127 0.14401083
0003a0 7c b1 1f bd be 61 8c 3d 31 2f 44 bd 48 8a f6 3d
       -0.03898762 0.0685458 -0.047896568 0.12038094
0003b0 64 13 2d 3e 28 a9 2e 3c e5 86 5b 3e e0 30 04 bd
       0.16901928 0.010660447 0.21438177 -0.032273173
0003c0 db 23 01 3e b8 48 25 3c 1e f7 b7 3d 56 17 61 bc
       0.12611334 0.010088138 0.08982681 -0.013738474
0003d0 05 da e4 bd 7a ce 39 3d 9a 7e ed 3d 60 b9 2d 3d
       -0.111743964 0.045362927 0.11596413 0.042413116
0003e0 be 30 1c be 76 c6 24 bd 0b 73 17 3d 74 ac ba ba
       -0.15252969 -0.04022833 0.036974948 -0.0014242069
0003f0 32 39 cc bb dd 7c ab 3d e8 31 30 3d ef 55 b7 3d
       -0.006232404 0.08373425 0.043016344 0.089519374

encoder_lstm.bias_ih_l0 f4 [128]
000000 6b 13 fe 3d e8 ee 00 3e a7 7e b2 3d c4 db fa bc
       0.124060474 0.12591136 0.08715563 -0.03062237
000010 28 7f de 3d 71 71 4c 3e 47 d5 11 3e 66 cf bb 3d
       0.10864097 0.1996515 0.14241515 0.091704175
000020 67 ee 45 3e 64 cc 1e 3e c2 f3 05 3d 72 50 94 3e
       0.19329225 0.15507656 0.03270317 0.28967625
000030 4a 21 f9 bd c5 55 20 bd df 11 18 be 1d 53 e4 3d
       -0.121645525 -0.039144296 -0.14850567 0.11148665
000040 18 51 d8 3d 56 17 94 3e 49 eb 40 be c9 a8 02 be
       0.105623424 0.28924054 -0.18839754 -0.12759699
000050 fe ff 41 3d 6a b3 0e bd 9f a0 56 bd 1c 6a b9 3e
       0.047363274 -0.03483907 -0.052399274 0.36213768
000060 e9 d3 12 be 84 c5 19 3e 18 74 ca 3c 3a 53 2b be
       -0.1433865 0.15016752 0.024713561 -0.16730967
000070 04 c5 d4 3b ca 4a 67 3e cf e8 2b 3e 27 02 2e 3e
       0.0064932127 0.22587124 0.16788028 0.16993009
000080 30 32 d6 3c 04 53 88 bd 16 ef c0 bd 1b e4 10 be
       0.026146978 -0.06656459 -0.09420602 -0.14149515
000090 ec 9a 10 be ea 13 3b be 08 8d d0 3d c5 97 48 bd
       -0.14121598 -0.18269315 0.101831496 -0.048972864
0000a0 b5 24 23 3e c7 67 2a 3e e2 4d 9b 3d 24 5a 13 3e
       0.15931971 0.1664115 0.07583214 0.14389855
0000b0 74 75 7e bd 1f b4 07 be e7 c3 1e be b0 05 fe bd
       -0.06212373 -0.13252304 -0.15504418 -0.124034286
0000c0 fc cf f5 bc 11 e3 d2 bd bd ae 05 be 4d a7 ec bd
       -0.030006401 -0.10297216 -0.13054939 -0.115553476
0000d0 04 7a d6 3d 2e 14 4d 3e bf 88 35 be 8a 1d f3 3b
       0.104724914 0.20027229 -0.17727946 0.007419293
0000e0 62 6b de 3d 73 91 11 be 7f 31 82 3d a3 88 13 3e
       0.108603254 -0.1421564 0.06357097 0.14407592
0000f0 13 ef 94 bd d2 55 fa bd f9 f9 30 be 84 84 d0 bd
       -0.07272162 -0.122234 -0.17282857 -0.10181525
000100 1a 90 72 3d 25 f8 a2 3c ed 68 28 3e 89 35 9c 3c
       0.059219457 0.019893715 0.16446276 0.019068496
000110 0d e1 bd bd 5c 33 1f 3e 47 af 1c 3e a3 41 da bc
       -0.09271441 0.15546936 0.15301238 -0.026642626
000120 65 a7 c5 3b 7e fd 6e 3d f8 5d 44 3d a8 fd d4 3c
       0.006031918 0.058347218 0.047941178 0.025999859
000130 1c f4 82 bd d0 fb bf bb 08 e7 80 bb d2 c4 03 be
       -0.063942164 -0.005858876 -0.003933791 -0.1286805
000140 c4 87 d6 bd 7a 9b 6a bd 23 8f 88 bd ac e1 89 3c
       -0.10475114 -0.05727718 -0.06667926 0.016831242
000150 75 64 27 3e 3a eb 0c 3e e7 6a aa bd 53 75 16 be
       0.16346915 0.13761607 -0.08321171 -0.14693193
000160 f7 0a b0 bd 72 32 2b 3e c8 af 3b bd 45 a8 3a 3e
       -0.085958414 0.16718462 -0.045821935 0.18228252
000170 e1 f2 03 3e 9e 55 60 3d 5f eb 32 bd f6 03 60 bd
       0.1288562 0.05476915 -0.0436815 -0.054691277
000180 81 b9 22 be ba fe a7 3c e4 14 02 bd 83 e9 19 bd
       -0.15891077 0.020507205 -0.031758204 -0.03757621
000190 bc 27 fb 3d 22 29 a0 3d 72 23 ca 3d a4 f5 db bd
       0.12263438 0.078203455 0.09870042 -0.107402116
0001a0 36 b1 51 3e 72 15 c6 3b f6 e2 03 be 0e c9 85 3e
       0.20477757 0.006045037 -0.12879547 0.26129955
0001b0 d2 df a0 bd 0c 77 1c 3e 13 ed db 3d ce 35 68 3d
       -0.0785519 0.15279788 0.10738578 0.056691937
0001c0 89 06 29 be f7 13 2c 3e 33 97 00 3e 26 69 10 be
       -0.16506399 0.16804491 0.12557678 -0.14102611
0001d0 4b 43 1c 3e cb cf d4 bd 2a c2 cd 3d e8 bf 8a 3e
       0.15260045 -0.10391196 0.100467995 0.27099538
0001e0 a6 84 57 3d d4 45 6b 3d 29 42 96 bd fd fc f4 3d
       0.052616738 0.05743964 -0.07336838 0.11962316
0001f0 8e 7e c2 3d 2c eb 12 3e 4c 15 df bd 23 ff 80 bd
       0.09496795 0.14347523 -0.10892734 -0.062986635

encoder_lstm.bias_hh_l0 f4 [128]
000000 bb dc a1 bc 07 3c 08 3e e6 a0 8e 3d ec 9c a5 bd
       -0.019758573 0.13304149 0.06964283 -0.08086571
000010 97 dd 19 3e c3 42 19 3e 36 01 34 3d c2 2c 60 bd
       0.15025936 0.14966874 0.043946467 -0.054730184
000020 04 20 60 3e 8f f8 b5 3d 8d 29 a7 3d c4 a9 2a 3e
       0.21887213 0.088852994 0.08162222 0.16666323
000030 65 12 b9 bd a4 36 ba bd 0f 5d 08 3d 6a 36 14 3c
       -0.090367116 -0.09092453 0.033291873 0.009046176
000040 24 77 de 3c a5 bc d1 3e 34 7e cc bd e6 27 54 3b
       0.02715642 0.40964237 -0.09985009 0.0032372414
000050 1b 50 f8 bd bd 9d ae 3d ce 2b c9 bd 79 de d1 3d
       -0.12124654 0.0852618 -0.09822808 0.102475114
000060 02 24 40 3d 76 fa 82 3d dc e4 c9 bc a6 a7 69 3a
       0.04690934 0.06395428 -0.024645261 0.0008913226
000070 0d fb 98 3d 4f 84 d7 bd 8e aa 4e 3e 3c 4e ea bc
       0.07469759 -0.10523283 0.20182249 -0.028601758
000080 05 df 97 bd 3a c2 00 bd 96 d8 ad 3d 34 fa 07 3e
       -0.074155845 -0.03143523 0.08488576 0.13279039
000090 8d a9 40 be ac 8a c0 3c 23 62 2a 3d d8 8a 20 be
       -0.18814678 0.023503624 0.041597497 -0.15677965
0000a0 35 b3 3d 3d cc 78 7a bd 33 39 0f bb c6 83 a4 bd
       0.046313483 -0.061150357 -0.0021854162 -0.08032946
0000b0 ca 0f 5b bd fe 67 b5 bd 47 8b 9b bd ab 0f f8 3d
       -0.053481854 -0.088577256 -0.075949244 0.121123634
0000c0 83 17 26 3e e1 b2 cf bd 39 06 a9 bd bf 99 88 bd
       0.16219907 -0.1014154 -0.0825314 -0.0666995
0000d0 3c af 7f bd 33 f8 cc 3c bc 9f 49 3b a9 ab a2 3d
       -0.062422976 0.025020694 0.0030765375 0.07942898
0000e0 40 61 e4 3d 5c d1 10 be c1 bc b1 bd 08 f6 d5 3d
       0.111513615 -0.14142364 -0.0867858 0.10447317
0000f0 70 05 bc 3d c6 69 e3 bd 9c 79 c2 3d 49 63 a8 3d
       0.091807246 -0.11104159 0.094958514 0.08222062
000100 07 2b 10 bd a4 20 10 be b4 93 bc 3d 32 53 73 bc
       -0.035197284 -0.14074951 0.0920786 -0.014851378
000110 11 c9 14 3e 6a 6e 6a bd 86 75 dc bc 37 b8 01 3e
       0.14529826 -0.057234205 -0.026911508 0.12667929
000120 79 4f be 3c 58 87 0f be 86 60 f8 3c 76 5b 0c bd
       0.023231255 -0.14016473 0.030319463 -0.03426691
000130 97 e1 04 be 20 1b 00 be 3c d1 c9 3d 9e da f2 bd
       -0.1297668 -0.12510347 0.098543614 -0.11858104
000140 ec 03 15 bd 40 b1 f1 bd 66 5e 0d be b7 24 02 be
       -0.036380693 -0.11801386 -0.13805541 -0.12709318
000150 9f 6e 10 3e 17 68 ec 3b dc d6 6d 3d 78 d6 a6 bd
       0.14104699 0.007214557 0.058066234 -0.081463754
000160 9e 71 37 3e 2a 1e 3b bd 16 4e 7b bd 3c 97 bc bd
       0.17914435 -0.045683064 -0.061353765 -0.09208533
000170 d9 4c 0d 3e e0 9e 36 be 32 fe e0 bc 1e d9 11 bd
       0.13798846 -0.17834044 -0.02746496 -0.03560745
000180 22 b7 c4 3d 6e fd 17 bd a8 38 73 3d 48 a3 17 be
       0.09605242 -0.037106924 0.059380203 -0.1480838
000190 0c 5c 8b 3e f1 fb 78 3e de f7 5d 3e ed 9e d0 bc
       0.27218664 0.24314858 0.21676585 -0.025466407
0001a0 95 55 01 be a8 4c 54 3e 6b 16 89 3c e8 18 0a 3e
       -0.12630303 0.20732367 0.016734323 0.13486063
0001b0 e2 ec 23 3e 65 f2 65 bd 00 fd ea 3d 5e f4 be 3d
       0.16008332 -0.05613937 0.11474037 0.09323953
0001c0 ee 5f 29 3e 7c 44 2e bc c1 95 0e be ab 4c b0 bd
       0.165405 -0.010636445 -0.13924314 -0.08608373
0001d0 57 08 0b 3d dd 96 2a 3e 82 19 01 bd b2 9d 8f 3e
       0.0339435 0.16659112 -0.031518467 0.2805
0001e0 b7 d9 28 bd a8 0e bc bd be 84 4b bd bb 69 95 3d
       -0.041223254 -0.09182483 -0.04968714 0.07295557
0001f0 c1 53 35 be b7 81 08 3e 45 98 60 3d e2 7e fd 3d
       -0.17707731 0.13330732 0.054832716 0.123777166

dest_lstm_obs.weight_ih_l0 f4 [128, 2]
000000 ed 74 47 3c e2 6d 3e be d0 e7 80 bd a7 d5 c9 bd
       0.012173873 -0.18596604 -0.06294215 -0.09855204
000010 c8 03 82 3c 0a 07 ab 3d 26 1c ea 3d 3d 0b 2a bc
       0.015870944 0.08350952 0.1143115 -0.010378656
000020 6c c9 84 bd f6 d7 cb bd 90 30 3a be 9b c4 af 3d
       -0.06483731 -0.09953301 -0.18182588 0.085824214
000030 88 2a bf bc a6 b8 be bd f3 8a e1 3d 6d 55 5f 3d
       -0.02333571 -0.09312563 0.110128306 0.054524828
000040 b6 dc 1d be f2 1e b8 3d 5a bb bf 3d 4b f9 96 bd
       -0.15416226 0.08990277 0.09361906 -0.073717676
000050 4a ef 24 3e 6c 13 c0 bd 7d 4d 0e 3e fe 22 73 bd
       0.16106907 -0.093787044 0.13896747 -0.059359543
000060 52 7d f3 3b 46 e2 d5 ba ac 07 11 be 13 a8 0c 3e
       0.007430711 -0.0016318045 -0.14163083 0.1373599
000070 4c b8 1a bd 1e 26 bf 3d f9 19 f1 bd f4 0d a8 3d
       -0.037773415 0.09333442 -0.11772532 0.08205786
000080 84 34 9d bc 63 5c 71 bc 43 a1 ec bd 85 a1 bd 3d
       -0.01919008 -0.014731499 -0.11554196 0.09259323
000090 28 7d d8 bb b4 b0 fd 3d 5c d5 3d 3d 0b ee bb 3d
       -0.0066067167 0.12387219 0.046346053 0.091762625
0000a0 8d 5f 8e bd f7 7c 18 3e 2c 7b a5 3d f8 d9 c8 bd
       -0.069518186 0.1489142 0.08080134 -0.09807199
0000b0 c7 cb ba 3d 36 ce a0 bd e0 ce 82 bd 67 aa 55 3d
       0.09120899 -0.078518316 -0.063871145 0.05216446
0000c0 65 5d b7 bb 9b 98 08 be 1d 9b 29 3d 49 d4 fc bd
       -0.0055958503 -0.13339464 0.041407693 -0.12345178
0000d0 83 c6 c1 bd 32 c7 a2 3d c7 0d 26 be 38 9d fb bd
       -0.09461691 0.0794815 -0.16216193 -0.122858465
0000e0 e2 c5 cd bd 6c 6c 49 bc 81 be 17 3e 0e bb 05 bc
       -0.10047509 -0.012293916 0.14818765 -0.008162273
0000f0 55 f2 e0 3d 52 a6 a5 bd 94 c0 f4 3d b4 30 c7 bd
       0.10983721 -0.08088364 0.11950794 -0.09726086
000100 bd 47 ef bc 77 7d dc 3d 3c 30 20 bd 66 99 35 3c
       -0.029209012 0.10766118 -0.0391085 0.011083936
000110 99 37 11 bc e0 c2 22 bd ad 86 99 bd 1d e9 76 bd
       -0.008863353 -0.03973663 -0.074963905 -0.060280908
000120 96 64 f7 bc 25 4f 08 3d a7 5a 94 bc 78 71 1d bc
       -0.03019933 0.033278603 -0.018109633 -0.009609573
000130 8d 93 76 3c 48 d1 73 3d d4 fe 37 be bb 94 72 3d
       0.015049827 0.059525758 -0.17968303 0.05922387
000140 33 34 1b be 97 63 a6 3d 48 37 87 bc 34 8f c5 bd
       -0.15156631 0.08124464 -0.016505852 -0.096464545
000150 f2 2a c6 bd 9b 87 14 bd 91 a7 c3 bd 45 cc 44 bd
       -0.0967616 -0.036262136 -0.09553445 -0.04804637
000160 a9 b5 11 be c2 0c f8 3d da 1b 92 bd b0 46 47 bd
       -0.14229454 0.12111808 -0.071342185 -0.048651397
000170 e8 bc 02 3d 58 12 1f bd ba b6 00 3c 90 a4 d5 bd
       0.031918436 -0.038835853 0.007856065 -0.104317784
000180 f5 67 09 be c0 72 c0 bd bd cc b9 bc 55 28 48 3d
       -0.13418563 -0.09396887 -0.022680635 0.04886659
000190 bc f3 5e 3d 4e 9d 3b be 50 cd 73 bd 96 03 61 be
       0.054431662 -0.18321726 -0.059521973 -0.21974024
0001a0 8b 4d 36 3c 65 a3 0b be 07 f4 5c 3d 47 69 c3 3d
       0.011126886 -0.13636549 0.05394366 0.095415644
0001b0 92 13 db bd 1a 51 8e 3d 46 b0 59 be a2 5a 4a 3d
       -0.10697092 0.06949063 -0.21258649 0.04940284
0001c0 e9 01 8e 3c 55 b0 e2 3d c1 6f 11 bd fb ff aa bd
       0.017334895 0.11068789 -0.035506967 -0.08349606
0001d0 0c 9d 2d 3d b6 d6 f2 bd 57 bf a9 bc d3 18 20 bd
       0.0423861 -0.11857359 -0.02072112 -0.039086174
0001e0 0b c6 d6 3d f5 d7 42 3c 2b 71 b1 bd eb 14 22 bd
       0.104869924 0.0118923085 -0.08664163 -0.03957073
0001f0 9e c8 e9 bd 44 5c 60 bd 05 67 ef bd 90 9e 89 bc
       -0.11415218 -0.05477549 -0.11689571 -0.016799241
000200 9f 69 e3 bd 82 c2 bd bc 54 53 f3 3b 33 3c 15 3d
       -0.1110413 -0.023164038 0.007425705 0.036434364
000210 7e e0 74 bd 07 37 de 3c b7 e3 2b bd c1 79 21 3d
       -0.059784405 0.027125848 -0.041965213 0.039422754
000220 a8 ff 0f be 6d c6 f5 3d 70 16 76 3d a2 89 91 3d
       -0.14062369 0.12000737 0.06007999 0.071063295
000230 5a ac 0d 3e 66 1e f1 bd b8 c4 dd 3c d5 64 69 3d
       0.13835278 -0.11773376 0.027071342 0.056980927
000240 e5 ab 03 3c a7 9f ee bd f2 46 e2 bd dc 35 1c bc
       0.008036588 -0.11651545 -0.11048688 -0.009534325
000250 d6 0a 8c 3d ec 39 6e bd cc 4c d4 3d 4e a8 9a bd
       0.06838004 -0.058160707 0.1036621 -0.07551633
000260 28 10 56 3c 19 6f a7 3c 54 14 6e 3c 42 b6 14 3d
       0.013065375 0.020438718 0.014531214 0.036306627
000270 28 b0 a9 bc 5b d5 a7 bd 0c 67 da 3d 88 91 08 be
       -0.02071388 -0.08194991 0.10664186 -0.13336766
000280 bd d0 78 bd fe 0f df ba 5e 9b 0e bd f6 d7 87 3d
       -0.060745943 -0.0017018316 -0.03481614 0.06632988
000290 70 c4 62 3d 78 d6 03 bc 32 c1 db 3a 4b 67 48 bc
       0.05536312 -0.008046739 0.0016765951 -0.012231658
0002a0 56 8d bb bd 25 49 43 bd 59 94 3c bc 74 9b fc bb
       -0.09157817 -0.047677178 -0.011509978 -0.007708961
0002b0 76 9e 11 be 16 93 eb 3d 9d 58 f6 3d a4 08 a6 bd
       -0.14220604 0.11502664 0.120286204 -0.08107117
0002c0 59 10 ca bb b0 19 a1 3d 85 a0 a9 3d 7e 6c 60 3d
       -0.0061664996 0.078662276 0.0828257 0.054790966
0002d0 74 b9 ee 3d d5 22 29 bd 39 a7 a9 3c 67 b9 24 3d
       0.11656466 -0.041292984 0.02070962 0.040215876
0002e0 8d f0 eb bc ad 6d b3 3d 07 1d 49 bd d8 b5 d4 bd
       -0.028801227 0.08761153 -0.04909995 -0.103862464
0002f0 e4 58 b3 bc 72 1d 3a 3d 53 5c b7 3d a6 e9 ad 3c
       -0.021892972 0.045438237 0.08953156 0.021229576
000300 71 89 cf bd 79 65 be 3d 48 38 e5 bd c1 24 a0 ba
       -0.10133637 0.09296698 -0.111923754 -0.0012217985
000310 70 4d 59 bd 02 4c db 3d c2 68 b5 bd 5a 06 61 3d
       -0.053052366 0.10707857 -0.088578716 0.054937698
000320 8e 56 77 bd da 6e 17 bd 50 e5 7d bc f9 4b 7b 3d
       -0.06038528 -0.03697095 -0.015496567 0.06135175
000330 1a 08 84 3d 2e fc 4b bd f0 30 94 bd 9c 5f 8f 3c
       0.06446858 -0.049801044 -0.072358966 0.017501645
000340 0f 98 14 bc fb 15 aa 3d 55 c5 82 3d c8 3f 90 3d
       -0.009069457 0.08304974 0.06385294 0.07043415
000350 b8 f3 26 3d 2a a8 54 bd 1b b2 44 bd a5 1a fe bd
       0.040759772 -0.051918186 -0.048021417 -0.12407426
000360 c9 06 0a 3e 94 62 05 be 34 0c 16 be bf 7c a5 3d
       0.13479151 -0.13025886 -0.14653093 0.08080434
000370 16 18 8a 3d 46 c2 01 be 62 47 31 be 7f d8 00 3e
       0.06742875 -0.12671766 -0.17312387 0.12582587
000380 8b f2 f9 3c e2 4a df bd 68 97 6a 3d d0 51 01 be
       0.030511161 -0.10902955 0.0572733 -0.12628865
000390 75 76 9d 3d 28 f6 1f be b8 3d f0 bd 88 71 b7 3d
       0.076886095 -0.15621245 -0.11730522 0.08957201
0003a0 ec 18 81 3d dc 04 47 bd c4 ff 27 be 78 b9 75 3d
       0.063035816 -0.04858862 -0.1640616 0.05999133
0003b0 e6 68 d5 bb 0b 6d f5 bc 5c 02 bd 3d 51 c6 22 bd
       -0.006512749 -0.029959222 0.09228966 -0.03973991
0003c0 9a 39 44 3c 8f 17 9b 3d 50 cf 4e 3d fe ec 1c 3d
       0.011976624 0.07572853 0.050490677 0.03831195
0003d0 af 7f dd 3d 5e be 24 be 0f f4 cb 3d 18 6c b2 3d
       0.10815369 -0.16088244 0.0995866 0.087120235
0003e0 6f dd 13 bd e8 ab 83 3d 9b 7e 4f 3d e1 bd c5 3d
       -0.036099847 0.06429273 0.05065785 0.09655357
0003f0 1e a0 06 bd 8e 5f d3 bd df 5a 8f bd 48 c3 8c 3d
       -0.032867543 -0.1032096 -0.06999754 0.068731844

dest_lstm_obs.weight_hh_l0 f4 [128, 32]
000000 9e 8f 72 3e 57 be 44 be e3 88 6b ba 06 67 b0 bd
       0.23687598 -0.19213234 -0.0008984936 -0.086134
000010 c7 07 38 3d 41 37 d9 3d f8 24 7e 3d 3c 55 33 be
       0.044929292 0.10606242 0.062046975 -0.17512983
000020 91 9b 42 3e e5 1a 57 3e fa 35 14 be 14 1e 44 bd
       0.19004656 0.21006353 -0.14473715 -0.047880247
000030 92 a1 10 be cc 1b 65 bd 0d c1 31 3e d3 f1 2d 3e
       -0.14124134 -0.055934712 0.173588 0.1698678
000040 dc f6 f6 3d 95 97 73 bd dd d9 5f bd ee 58 bb 3d
       0.120588034 -0.05947073 -0.05465113 0.09147821
000050 1e 53 95 bd ef 77 e3 3d 37 b3 df 3c 60 fc 04 be
       -0.07291244 0.1110686 0.027307136 -0.12986898
000060 6e 12 cd bc 64 06 36 bd 94 4f 97 bc b0 b9 56 be
       -0.025033202 -0.04443969 -0.018470563 -0.20969272
000070 4f c9 ee bd d9 97 de bd 01 79 1f be 30 24 25 be
       -0.1165949 -0.108688064 -0.15573503 -0.16127086
000080 66 fe 9c bd be c6 3f 3a 6a 02 32 3e ed a8 9c 3b
       -0.0766571 0.00073156867 0.17383733 0.0047808797
000090 9b d1 7a 3d b9 2d ff bd de 7c a1 3c 5c 9e be bd
       0.06123505 -0.12459893 0.019712862 -0.093075484
0000a0 cb 2b f0 3c 54 c0 e2 3d 4b b8 06 be 0b 7f e1 3d
       0.029317757 0.1107184 -0.1315624 0.1101056
0000b0 3b 48 26 3e ec de ed bc 88 0a a8 bb 1c b8 a7 bd
       0.16238491 -0.029036961 -0.0051282085 -0.08189413
0000c0 5d f2 00 be a4 b7 09 3c 68 a7 38 be cc 0e 15 be
       -0.12592454 0.0084056 -0.1803261 -0.14556426
0000d0 98 25 cf bb 3b 17 67 bb 6f 30 07 bd 96 c1 f9 bd
       -0.00632162 -0.003526165 -0.033005174 -0.12195127
0000e0 a8 18 38 3d 18 e9 0b be 90 fb 5a be 87 66 81 bd
       0.04494539 -0.13663137 -0.21385026 -0.06318384
0000f0 0a 5d f1 bc c9 44 0c be c8 df 69 3d 8a a9 be 3d
       -0.02946331 -0.13698114 0.05709818 0.09309681
000100 9a f8 65 bd c4 bb bc 3d d3 44 3b 3e f5 6e e8 bd
       -0.056145288 0.09215501 0.18287973 -0.113492884
000110 af d3 3e bd ec b0 ba 3d 5e fb 43 3e 21 dd 00 bd
       -0.046588596 0.091157764 0.19138858 -0.031460885
000120 96 a6 72 3e ae 45 62 bd c2 a0 9c 3d 98 a0 e6 3c
       0.2369636 -0.055242233 0.076478496 0.028152749
000130 66 8b b8 3d 4c a5 62 be 34 4b 30 bd 83 f3 52 bd
       0.09010963 -0.22133368 -0.04304047 -0.051501762
000140 0a aa 89 3d 0a c1 11 3e 49 7b e1 bd 66 e5 fa 3d
       0.067218855 0.14233795 -0.11009843 0.122507855
000150 c2 2b c2 3d c6 85 f6 bd ed d9 fd bd f6 ac b6 bd
       0.094810024 -0.12037234 -0.12395082 -0.089197084
000160 ce b1 89 bd 7e 39 03 3e f5 8f 8e 3d 28 8d 92 bd
       -0.06723367 0.128149 0.069610514 -0.0715583
000170 97 8a 56 be f4 c0 a3 bd f0 6e 01 be d2 d0 b9 bd
       -0.20951305 -0.07995787 -0.12639976 -0.090730324
000180 d6 62 45 3e 0c 08 d8 3d ed 61 6b 3d 5a 23 27 be
       0.19275984 0.1054841 0.057466436 -0.1632208
000190 00 18 ac bd 6c 28 4c bd b2 34 5a 3e ae f8 78 bc
       -0.08403015 -0.049843237 0.21309164 -0.015196009
0001a0 4c f4 47 3d c9 dd 2a 3e 0d 46 50 3d 4c 7c 7e 3e
       0.048816964 0.16686167 0.050848056 0.24852103
0001b0 d2 a3 c6 3d ba db 95 bd 0a 78 b6 bd c4 9c e6 bc
       0.09699215 -0.073173 -0.089096144 -0.028150924
0001c0 7a dd 87 3d 8a fd bd bd 22 a8 0f be 4f 4a 8f 3d
       0.0663404 -0.09276874 -0.14028981 0.06996595
0001d0 02 92 2a 3e d4 4e 34 3e b2 0b f6 3d 89 1f 4c 3e
       0.1665726 0.17608196 0.120139495 0.19933905
0001e0 d8 bf d9 3c 13 d5 81 3c 66 15 8d 3d 08 db aa 3d
       0.026580736 0.015848672 0.06888847 0.08342558
0001f0 b0 d5 e2 bd 03 c1 55 3e 72 8c 82 bd 67 ca 36 3d
       -0.11075914 0.2087441 -0.06374444 0.04462662
000200 6e 6b 69 3b 21 f2 0e bc 72 a0 78 bd 74 9d 86 bd
       0.0035617012 -0.00872472 -0.060699888 -0.065730006
000210 0c dd bf bd e2 bd 58 bc f4 67 71 bc ce 2d f1 bc
       -0.09368333 -0.013228865 -0.014734257 -0.029440787
000220 6f ac ff bd 85 58 29 3e cc 66 47 3d 68 aa 70 be
       -0.12484061 0.16537674 0.04868202 -0.23502505
000230 92 0f 55 be 4f 5e 06 3d fb de 1c 3e 28 2c 51 3d
       -0.20806721 0.032804783 0.15319435 0.0510675
000240 11 aa 7f 3d 44 55 2c 3d 7a ba 6d bd 8a 5b fe bd
       0.062418047 0.042073503 -0.058039166 -0.124198034
000250 5b fd a7 bd 5b 31 76 bd 4a 89 dc 3c bd 04 9c 3c
       -0.082026206 -0.060105663 0.026920933 0.019045228
000260 16 ed 3b 3c e3 c5 17 3d c5 a0 5c 3d 62 72 69 bc
       0.0114701 0.037053954 0.05386426 -0.014248462
000270 74 b9 72 bd 68 5a 0a 3d cc 10 75 3d 8d 1d b3 bc
       -0.059258893 0.033777624 0.059830472 -0.021864677
000280 f2 05 36 3e 74 10 95 3d 23 fb a1 bd 10 9c c1 3d
       0.17775705 0.07278529 -0.07909229 0.09453595
000290 be d4 3f 3d e1 4f 06 3d 72 a6 18 3e 8f 1a e3 bd
       0.046833746 0.032791022 0.14907244 -0.1108905
0002a0 0f 54 3e 3e 92 a0 04 3d 78 1f ee 3d 6b b7 94 3d
       0.18586753 0.032379694 0.11627096 0.07261547
0002b0 d5 a4 86 3d b7 03 84 3d c6 9f 98 3d f0 29 0d 3e
       0.06574408 0.06446021 0.07452349 0.13785529
0002c0 95 51 b7 3d 81 f1 86 3d 7c aa 2f be 7d b8 00 3d
       0.089511074 0.06589032 -0.17154878 0.03142594
0002d0 73 5a f5 3d 40 8a 26 bd 50 72 85 3c 68 f7 8b 3c
       0.119801424 -0.04065919 0.01628986 0.017085746
0002e0 a4 2d eb 3c 12 a2 28 be bb fa 09 be cb d5 d7 3d
       0.028708287 -0.16468075 -0.13474552 0.10538825
0002f0 c9 e8 54 be 0b 18 56 bd 42 45 73 bc b9 9b 72 3b
       -0.20791925 -0.052269023 -0.014848055 0.0037019087
000300 9f 3c 8b 3e 62 07 14 be e4 f6 44 3e da 10 05 3e
       0.27194688 -0.14455941 0.19234806 0.1299471
000310 40 b8 d3 3d 04 8a eb 3d c0 f2 87 bd 2c e5 c2 3d
       0.10337877 0.11500934 -0.06638098 0.09516367
000320 1f 2c 75 bd 15 c5 bc 3d 1a 66 8d be 51 76 b5 3d
       -0.05985653 0.09217278 -0.2761696 0.08860458
000330 ee eb fd bd a2 2c 1d 3e ac ee c8 3b 4a 20 30 be
       -0.12398516 0.15349057 0.0061319675 -0.17199817
000340 b3 68 8d 3e e8 e5 ec bd e9 1f be bc 6c e1 7e bd
       0.27618942 -0.11567289 -0.023208575 -0.062226698
000350 86 7c 0c 3d 36 31 75 3e 3c 4a 49 3d e4 db 9e 3c
       0.034298442 0.23944554 0.04914306 0.019391961
000360 9e 37 10 be 64 e7 97 be 48 80 5f be 08 cf 47 3d
       -0.14083716 -0.29668725 -0.21826279 0.048781425
000370 9b cf 52 3c 73 a6 8b 3d ca 5a d3 3d 92 33 24 bd
       0.01286688 0.06818857 0.10320051 -0.040088244
000380 2d 90 8f 3d 14 b3 e2 bd f0 ab f6 3d 52 36 15 be
       0.07009921 -0.11069313 0.12044513 -0.14571503
000390 44 fd d8 3d 0e 7b e9 bc 71 7a 50 bd f7 69 2d 3c
       0.105951816 -0.02850106 -0.05089802 0.010584346
0003a0 c2 15 c7 3d 92 85 8b 3d 4e 7f 01 be 7b c0 90 be
       0.09720947 0.06812586 -0.12646219 -0.2827185
0003b0 55 cc 91 3d fe 7d 4d bd 80 6a 88 bd 72 3e ee bc
       0.07119051 -0.050168984 -0.06660938 -0.02908251
0003c0 3b 66 13 be e0 17 15 bd 9d b5 86 bd 92 06 f2 3d
       -0.14394467 -0.036399722 -0.06577609 0.118176594
0003d0 54 bd b9 3d 4f 79 7c 3c d4 d9 b8 3c 86 cf ab bd
       0.090693146 0.015409782 0.022564806 -0.08389191
0003e0 6b 3d 09 bd dd c1 11 3d 7e 29 97 bd 65 08 63 bd
       -0.03350584 0.035585273 -0.07380961 -0.055427928
0003f0 1b 6c 03 3b e5 bf 12 bd de 1a f5 3d 6d 26 de 3d
       0.002005345 -0.035827536 0.11968015 0.10847173

dest_lstm_obs.bias_ih_l0 f4 [128]
000000 43 7a c2 3d 58 6e 3a be 4f 84 29 bd 8b b6 9d bd
       0.09495976 -0.18206155 -0.041385945 -0.07700833
000010 37 38 c4 3d c4 cf c3 bd bb f0 c3 bd 1e de 06 bc
       0.09581035 -0.095611125 -0.095674 -0.008231668
000020 3d 38 1c be 95 a1 13 be 60 1d 85 bd 0e 04 9b 3d
       -0.15255828 -0.14417107 -0.064997435 0.07569133
000030 3e bb 8f bd c3 19 97 bd a4 63 9a 3c e1 db a1 3d
       -0.070181355 -0.073779605 0.01884634 0.07903267
000040 3a 1f b2 3d 3a d4 30 bd a4 2d f5 bd 5d 0c 96 3d
       0.08697362 -0.043171145 -0.11971596 0.07326577
000050 8d 46 9b 3d 4f 88 b1 bd 52 16 6c be 56 70 a1 3c
       0.07581816 -0.08668577 -0.2305539 0.019706886
000060 e2 69 1c bd 66 77 a4 bd 99 5b 86 bd 8e 84 09 bd
       -0.038186915 -0.08030586 -0.065604396 -0.03357368
000070 7b f5 6f bd aa 23 f5 3d e8 8a 5d 3d 46 8d ed bd
       -0.058583718 0.11969693 0.05408755 -0.115992114
000080 d2 9a 45 be 5c b7 a6 bd 26 ac 1f be b7 34 aa 3d
       -0.1929734 -0.08140442 -0.15593013 0.08310836
000090 cb 2d 57 be f9 6a 90 bc 5e 93 47 bd f4 10 ef bc
       -0.21013562 -0.017629134 -0.048724525 -0.029182889
0000a0 c8 3d 5c bd 46 f2 e0 3d 40 12 25 be b7 ee 77 3c
       -0.053769857 0.1098371 -0.16120243 0.015132598
0000b0 3e 9f 26 be 5e 44 42 3d 77 58 b0 bd fe e7 85 be
       -0.16271684 0.04742848 -0.08610623 -0.26153558
0000c0 13 51 57 be 97 08 c7 3d 98 5b 6f be 6e 79 df 3b
       -0.21027021 0.09718435 -0.23374784 0.0068198955
0000d0 42 b5 18 be 1e 2b df 3c 4c b5 64 3d d2 4e 82 bd
       -0.14912894 0.02724224 0.05583696 -0.0636269
0000e0 35 b5 0c be fe 5b ad 3d c2 1d 25 bd 42 c2 54 3d
       -0.13741 0.08464812 -0.040311582 0.05194307
0000f0 60 41 46 be f9 4a c5 bd e5 98 78 3e ce d4 c4 bb
       -0.19360876 -0.096334405 0.24277075 -0.0060068136
000100 bc ed fb bb 97 66 b4 3d 3e 0f e7 3d 64 50 05 be
       -0.0076882523 0.0880863 0.11282204 -0.13018948
000110 16 15 ee 3d f5 49 9f bc fe 5b a4 bd 42 68 74 bd
       0.116251156 -0.019444445 -0.080253586 -0.05966974
000120 16 39 56 bd ec 8f 11 bd b3 4a c0 3d 34 bb 2e 3e
       -0.052300535 -0.035537645 0.09389248 0.170636
000130 c6 c8 2a 3e 40 49 d9 3c c8 5b 5e bd 56 77 5b be
       0.16678151 0.026524186 -0.05428675 -0.21432242
000140 18 30 4c b8 99 bf bc 3c 3d 38 b3 3d db d3 7e bd
       -4.868218e-05 0.02304058 0.08750961 -0.06221376
000150 34 52 66 bc 5d 6f da 3c b4 d9 d7 3d b6 25 66 bd
       -0.014057685 0.02666443 0.105395705 -0.056188308
000160 5b 7d 7a 3e 8f a6 61 3c 4a 11 86 bc 59 d3 48 bd
       0.24461882 0.013772621 -0.016365666 -0.04902968
000170 1b 1e 85 3d 8e ad c3 3d f8 1a f1 bd da 73 d7 3d
       0.06499883 0.09554587 -0.11772722 0.10520144
000180 e5 9d 83 bd c8 39 98 3d 24 9f b0 bd b2 ad d2 3d
       -0.064266 0.07432896 -0.08624104 0.10287036
000190 1d e0 2d 3d 9a 9a 94 bd 9b 2d ae bd 6f 85 4e be
       0.04245006 -0.072560504 -0.08504792 -0.20168088
0001a0 3f 40 67 be e9 3c 19 3e 93 f2 1d 3e 19 ec c8 bd
       -0.22583102 0.14964642 0.15424566 -0.09810657
0001b0 12 e4 19 3e e6 31 b2 3d 7c 9d d1 bc 92 cc c1 bc
       0.15028408 0.087009236 -0.02558779 -0.023657117
0001c0 30 53 87 bd 36 d6 c7 bc 63 50 35 bd 31 54 1a be
       -0.06607664 -0.024394136 -0.044266116 -0.15071179
0001d0 d3 99 07 3e f8 0b 82 bc a6 74 e1 3d cb be 4f be
       0.13242273 -0.015874848 0.11008577 -0.20287625
0001e0 e3 84 30 be 1c 89 40 bd e4 25 76 3d af 73 2c 3c
       -0.17238192 -0.047005758 0.06009473 0.010525628
0001f0 00 21 39 be 0f 6f e6 bd 46 bb 1c 3e c7 0f 00 3e
       -0.18078995 -0.112516515 0.15305814 0.12506019

dest_lstm_obs.bias_hh_l0 f4 [128]
000000 5f 8b 2c 3d 8a d6 a6 bd 07 87 f1 bb 1c 23 ba 3d
       0.042125102 -0.08146389 -0.007370833 0.09088728
000010 0f e5 10 be 40 42 f2 3d 64 30 55 3b 03 77 1f be
       -0.14149879 0.118290424 0.0032530064 -0.15572743
000020 d5 b8 0e be c3 04 93 3d b1 1c a4 bd 1b 14 00 3d
       -0.13937695 0.071786426 -0.08013285 0.031269174
000030 03 1d 1f 3d ba 87 96 bd 36 00 b7 3d ff fe ab bd
       0.038846027 -0.073501065 0.08935587 -0.08398246
000040 7e 92 9f bd 32 82 be bd b9 eb 4d be 16 1e 9b 3d
       -0.07791613 -0.093021765 -0.20109452 0.07574098
000050 33 60 21 bd 5a c1 f7 bd ec a5 5b be 5a 4a d9 3d
       -0.039398383 -0.12097426 -0.21450013 0.106098846
000060 cb 2d 20 be 73 21 37 3d 13 4e a1 3d 36 ad 8e bd
       -0.15642469 0.044709634 0.078762196 -0.06966631
000070 9e 0c bd 3c 5e 14 f4 3d c0 9d d4 3d ca b7 2f bc
       0.023077305 0.11917947 0.10381651 -0.010724971
000080 ca 83 61 be 5f 73 09 3e 5c 44 20 bd a7 22 19 be
       -0.2202293 0.13422917 -0.039127693 -0.14954625
000090 df 63 73 3d a9 a9 4e be 8b 94 2d be 1e 69 96 bc
       0.059421416 -0.20181908 -0.16951196 -0.01836067
0000a0 29 88 a0 3d 4d a7 d6 bc c2 94 b3 3d 04 3f de bd
       0.078384705 -0.026202822 0.08768608 -0.10851863
0000b0 1f ae 29 3e 42 81 b2 bc ed f0 31 bd 41 c1 2c 3d
       0.16570328 -0.02179015 -0.043442655 0.04217649
0000c0 78 fa 9c 3c 4e 56 f6 bd f0 3e 24 be a3 81 0e 3e
       0.019162402 -0.1202818 -0.16039634 0.1391664
0000d0 24 8a 3a be 63 ce 13 be 54 b8 8c 3d 4b f1 66 bd
       -0.18216759 -0.14434199 0.06871095 -0.05638246
0000e0 fa 36 97 3d 8c 7d 49 bd 2c 00 99 bc a0 6b b6 3d
       0.07383533 -0.049191996 -0.01867684 0.089072466
0000f0 12 46 92 bd aa c5 a0 bd 66 c8 47 bd 40 78 42 be
       -0.07142271 -0.078502014 -0.0487751 -0.18991184
000100 73 67 16 3d 7f d3 43 3e de b7 d8 bc 6c 9e 12 be
       0.03671975 0.19123648 -0.026454862 -0.14318246
000110 0b b0 2c 3d 6d e5 05 3e ef 2c 97 3c 4e 1f e0 bd
       0.042160075 0.130758 0.018454043 -0.10943471
000120 a7 b7 00 3d ac 65 24 bd 4c 11 7e 3d 92 33 37 bd
       0.031425145 -0.040136024 0.062028214 -0.044726916
000130 0f ce bf 3d f2 6f fc bd 5e 43 04 be 39 d9 bc bd
       0.093654744 -0.123260394 -0.12916324 -0.092211194
000140 ec 93 4f be 15 49 2a 3e b4 df 41 be 7a f6 ba 3b
       -0.20271271 0.16629441 -0.18932992 0.005705652
000150 7f 6b b0 3d 36 07 9e bc 42 42 53 be 12 9e f9 bd
       0.08614253 -0.019290548 -0.20630744 -0.12188353
000160 2b 5f 6d bd 8d e4 70 3e 05 ce d5 bd 12 45 83 3d
       -0.057952087 0.23524685 -0.10439686 0.064096585
000170 ba ce 2f be b0 a2 18 be 67 a8 30 be 54 f6 97 3d
       -0.17168704 -0.1490581 -0.1725174 0.0742003
000180 63 4a 91 bd 5f 30 dd bb dc 55 47 be 9c b5 da 3d
       -0.07094266 -0.006750151 -0.19466347 0.106791705
000190 b9 32 ed 3b d7 7d ab 3d d8 6b f8 3d ea d0 8b 3c
       0.0072387126 0.083736114 0.121299446 0.017067391
0001a0 f3 70 b8 3c fe f6 0a 3c 8b c6 f4 3c d0 45 e2 3a
       0.022514796 0.008481739 0.029879829 0.0017263237
0001b0 0c 74 20 be 4f 63 13 be df 59 67 3d a0 85 97 bd
       -0.15669268 -0.14393352 0.056482192 -0.07398534
0001c0 ed 9d ca bd 52 da 73 bd a7 3a 46 3c 4f 0d cf bd
       -0.09893403 -0.05953438 0.012098945 -0.1010996
0001d0 13 45 b6 3d 14 91 5e 3d 84 f6 9a 3d 16 a7 1a 3d
       0.088998936 0.054337576 0.075665504 0.037757
0001e0 89 c9 00 bd 22 c6 de bd 58 76 60 be cc f4 08 be
       -0.0314422 -0.108776346 -0.21920145 -0.13374633
0001f0 a9 3f 46 be 66 78 e5 bd 80 b3 01 be 6e cf 86 bd
       -0.19360222 -0.11204605 -0.1266613 -0.06582533
