do_tp_federated_round_7.pt (torch, 156693 bytes, 26 tensors)

linear_enc.weight f4 [64, 2]
00000000: 71de 513f fedb 323f 381d bd3e f7d3 b63d
00000010: 7bca 453f 1781 da3e 38c9 473f c336 4c3f
00000020: c9e0 0abf a4c6 303f 7c94 6a3e 281f 5cbf
00000030: 14f4 f23e fc45 dbbe a440 9e3e a6e1 84be
00000040: e28d e0be 5d7c 78bd 5968 c53b 9e60 ef3e
00000050: 2192 123f e13d 7b3f d07f c33e 16a5 c6bb
00000060: 0379 023e 62d5 933d b023 66bd 9a7d 4f3f
00000070: dbaa 353f b55f fcbe 32c1 16bf fda8 133f
00000080: aec2 673c 3233 f0be a75e b03d 64c5 19be
00000090: 8c88 03bf 5066 d13e 3633 30bf 75e1 18bf
000000a0: 246b 64be b6df 543f 33b4 74be 8f1e 053f
000000b0: 86e6 9fbe 2021 0e3f f20b 453f 7dd9 033e
000000c0: bf4e 2b3f 9c7a 4cbf f2ed 29be 74ed 1fbe
000000d0: b2a2 453e 8444 2cbf 2bcc 253f 8c37 a33e
000000e0: 0d16 8b3e c672 a83e c67d 3cbf 5d57 e43d
000000f0: 6aa7 e0bc 48d8 dabe f333 96be 87d1 f33e
00000100: 9888 15bf d21d 6d3e f898 9d3e 8263 45bf
00000110: 02dd 3fbf 1a3a 0dbf 0857 e5be 9efc 3c3d
00000120: a565 d4be 1e59 a3be 2280 f43e 0406 903e
00000130: 4c91 c83e 0916 82be 3377 febe 3fdc 36bf
00000140: 7237 31be 0a74 063f ac1f 513f 6775 e1be
00000150: f973 ee3d cb03 7c3f 0239 2ebf 3ae3 95be
00000160: 862d afbe b8c9 b63e 73f6 3e3f cedb d83d
00000170: 27e4 efbd 7dd4 12bf 17b0 97be 04d7 813e
00000180: 2789 9e3e b49f d73d 2019 9d3e 8903 3bbe
00000190: e866 023e 047d 043f 1a51 3e3d 3a1d 3e3f
000001a0: ac47 9f3e 5015 5f3e c34f 9bbd 3b25 28be
000001b0: 0e2e 03bf baa6 23bf 1a01 d93e ee70 29bf
000001c0: 9aeb d33e 0acd 1d3f 100d fc3e 11de 323f
000001d0: 4549 4c3d 4c11 253f add5 1cbe ba50 14bf
000001e0: de55 533e 7695 19bf 82cc ed3e 1f05 2ebf
000001f0: e32f 923e 8b8c d73e 6618 2abf b6e6 f3be
0.81980044 0.6986693 0.36936355 0.08927148 0.77262086 0.42676613 0.7804141 0.7977106
-0.54249245 0.690531 0.22908205 -0.8598504 0.47451842 -0.4282683 0.30908692 -0.25953406
-0.43858248 -0.060665477 0.006024402 0.467534 0.57254225 0.98141295 0.3818345 -0.0060621602
0.12741475 0.07218434 -0.056186378 0.8105103 0.7096383 -0.4929177 -0.5888854 0.5767973
0.014145536 -0.4691406 0.086118035 -0.15016705 -0.5138023 0.4089837 -0.6882814 -0.5971902
-0.22306496 0.83153856 -0.23896866 0.51999754 -0.31230563 0.55519295 0.7697135 0.12875934
0.6691703 -0.7987459 -0.16594675 -0.15617925 0.19300345 -0.67292047 0.6476466 0.31878316
0.2716526 0.32900065 -0.73629415 0.11149476 -0.02742358 -0.42743134 -0.2933651 0.47620794
-0.5841155 0.23155907 0.30780768 -0.7710496 -0.74946606 -0.5516678 -0.44792962 0.046139352
-0.414838 -0.3190393 0.47754008 0.2812959 0.39173353 -0.25407436 -0.49700317 -0.7142982
-0.17306307 0.5252081 0.8168895 -0.44034883 0.11643214 0.9844329 -0.68055737 -0.29274923
-0.3421442 0.35700774 0.745948 0.105887994 -0.117134385 -0.5735548 -0.29626533 0.25359356
0.30964014 0.10528508 0.3068323 -0.18263067 0.12734568 0.5175326 0.046464063 0.74263346
0.3110937 0.21785474 -0.07583573 -0.16420452 -0.5124215 -0.6392628 0.42383653 -0.6618794
0.41390687 0.6164099 0.49228716 0.69870096 0.049874563 0.6447952 -0.15315886 -0.5793568
0.20638224 -0.59993684 0.4644509 -0.67976564 0.2855216 0.42099413 -0.6644348 -0.47636956

linear_enc.bias f4 [64]
00000000: 3d5f 473e dac1 19be bbb2 aa3e c182 493d
00000010: 64a4 e1be 9b80 2dbe 69b5 18be 1ec7 0dbf
00000020: aae3 0fbf d7f5 11bf 88a4 1fbf 7c3d efbe
00000030: 9d5b bd3d d3b9 263f 6634 2d3f aed1 cf3d
00000040: c2b9 b53d f6b7 853e dfca 8fbe c4a0 d8be
00000050: 9e8b 8fbe 6c15 a3be 257c 8a3e 3773 83be
00000060: 4cf1 e63e e318 70bd a13e 263f 75b3 073f
00000070: 2f75 173d 4bf9 de3e 0054 19bf c717 183e
00000080: 072a 0d3e c863 7c3d 1817 71be b3fd c8be
00000090: 27d8 cebe b6df 70be 5c01 89be c984 18bf
000000a0: c418 cc3e 8b8f 4c3d 9f14 8bbd 894a b2bd
000000b0: 1c01 153f befd 9f3e 2392 463e 8000 233f
000000c0: 0e27 d83d ff8c 903d 9ab5 b83d 6970 f03e
000000d0: 568c cfbe cc03 97be 4573 ad3e 016f 93be
000000e0: 5c9b f7be 5553 66be e5a6 9d3e de43 8d3e
000000f0: 9789 1abf 4e20 09be a76f 66be a7a8 0ebe
0.19469924 -0.15015355 0.33339486 0.049196962 -0.44070733 -0.1694359 -0.14912952 -0.55381954
-0.5620676 -0.57015747 -0.6236043 -0.46726596 0.092459895 0.65127295 0.6765808 0.10147415
0.08873321 0.26116914 -0.28084466 -0.42310154 -0.28036207 -0.3185228 0.2704784 -0.2567384
0.4510597 -0.058617484 0.64939314 0.53008205 0.03697699 0.4354957 -0.598938 0.1485282
0.13785563 0.061618596 -0.23543966 -0.39256057 -0.40399286 -0.23522839 -0.2675885 -0.59577614
0.39862645 0.04994158 -0.067910425 -0.08705623 0.5820482 0.31248277 0.19391684 0.6367264
0.10554324 0.07058143 0.09019013 0.46960762 -0.40536755 -0.29495084 0.33877006 -0.28795627
-0.48360717 -0.22492726 0.30791393 0.2759084 -0.60366195 -0.1339123 -0.2250353 -0.13931523

encoder_lstm.weight_ih_l0 f4 [128, 64]
00000000: de23 1fbe 6b8d 6dbe 2a87 12be 78ce 15be
00000010: 52c9 07bd 00dd 1bbe 768d e03d 2b33 20bd
00000020: 823a 2f3e 11f7 dabd 3201 4fbe ecbb c0bd
00000030: 146a 283d c851 4f3d c72e 07be f130 89bd
00000040: 8496 eab9 1fe5 8d3c f22c 033e eee2 193e
00000050: 7e8f 633d 04ca 773b ff5e 083d c823 983d
00000060: b491 163d 0e20 4fbd 3948 2b3e fcdb 933d
00000070: 5cb7 38be 3908 febd 0c9f ad3c 804d 073e
00000080: 1192 c3bd 767d 073e dfeb 1c3e 84ed a33c
00000090: af51 b73c 8d58 3dbe efb3 d33d d0a4 4c3d
000000a0: d169 c5bd ef2b 09bd 9ffd 43bd ea97 0d3e
000000b0: 1036 65bd c7c3 5fbd 30a7 eabd f1ec ba3d
000000c0: f20a b23d a826 66be 46b8 7d3d da07 06be
000000d0: b464 33be ca6b 833d 5c4a 213e 4958 433d
000000e0: 7257 b6bb 2a57 e8bd 1bff 013e dfe8 bbbd
000000f0: f06a 633d 98d4 3fbe 2c50 c7bd 2fee 953e
00000100: 84d9 a6bb 6cc5 903b aa49 8a3e a348 d2bd
00000110: fbd0 7ebe 7881 f63d e40c ec3d 5a64 83be
00000120: 3a49 72be 2663 a5be 92a2 a6be 05e1 17be
00000130: f838 2a3e 30bb a73e b5e8 aa3e d83a abbd
00000140: 76ef d23e ea48 cd3e 5a0d 1ebe f1bc cabd
00000150: 5741 bbbe f239 b2be 0e04 56bc eced 6dbe
00000160: c744 b03e 9bad 18be 4a5d 003e 9320 693e
00000170: 117e aa3d d36e 3c3e 618f 5bbe 1091 0dbd
00000180: 9019 b83d 52c8 403e 8321 d3bd 73b7 92be
00000190: f9f6 0fbe 33ab 83bd 9faa ffbc 1868 78bd
000001a0: 547f 973b eafe 963e 7dd1 6bbe d7ca 7dbe
000001b0: ec5b 623d 03e7 c23e c0c3 603e b2d3 a63e
000001c0: 37f8 643e 6129 393e 5f4d 663e ffe1 a23d
000001d0: db09 32be 8650 4abe 93cd 253e 02d8 03be
000001e0: 3dd6 95be 48de dcbd 80af 34ba 35c8 c03e
000001f0: 5a22 d3bd ab77 d4bd a4c4 d4be bbad 2fbe
00000200: bcc2 babd 1011 57be 239a d53c 20a3 e8bd
00000210: 40f4 90be 7ea2 633e b20d 1ebd 733a 8abe
00000220: a801 89be fc05 45bd 0650 c0bd a8ad 61be
00000230: 3c97 823e 84cb 893d a486 873e a43a 88be
00000240: 0683 d03e cd15 623e b7d1 d4be c8f7 0cbd
00000250: b72c efbe 6f7c adbe 5189 013e 9d16 73be
00000260: a5db f43d 924f e9bd 412a c63d ff32 af3e
00000270: 515b 893d ac90 853d ce68 f8bd 689f b13c
00000280: ca14 e1bd 179b c53e dac1 b0bd 0ae1 e3bd
00000290: 949d 9abe b4d3 abbe ba85 77be 5ace 0dbe
000002a0: 0943 5b3e 7a0d 843e b6c0 e0be febf 20bc
000002b0: 1b36 853e c402 a33e 50d4 643e 1813 073d
000002c0: d705 683e e759 ab3d 66d8 e73d 8d99 733e
000002d0: 422b 8cbe c3f3 26be 9afd 443e c68c 883b
000002e0: 6495 6abe ca00 9abd 4bce c73d 2884 193e
000002f0: 5e63 89bc 67cb 333e ba7b c6be c57d 7abc
00000300: 7bca 2fbe 1e6a 9d3c 59fa 97bd eac4 02be
00000310: 692b 1cbe c26d e03c a0c7 fdbc dc49 15be
00000320: f6e4 3c3e 81dd 34be 06c7 a7bd 516c 823d
00000330: a36b 21bd ba7e a0bd f338 24be 113c 233e
00000340: 36ba ef3b fcbe f13c 1ab8 923d 99ce f83d
00000350: faba b2bd 145c 6abd 1370 94bc c638 27bc
00000360: 12ab c3bd 5f49 a13d 4161 c73c 427b 29be
00000370: dd88 48be 3c07 13bd 4dd9 81bd 0e20 0cbe
00000380: 4863 c93d a4c2 84bd acb2 6e3e 5a2e 3b3e
00000390: ae6f e93c 2cd9 5e3d 4f40 ee3d d99b ce3d
000003a0: 1c30 923d 67a1 9a3d 7a61 7ebe e5f5 07bd
000003b0: dc3e 04bd 21f8 25be 6aa6 03be 837d de3d
000003c0: 1e3d 3fbd 7198 ff3d ee98 20be 67f1 febb
000003d0: c130 e5bd 6abf c23d 3661 033c 3be6 09bb
000003e0: 4645 2cbe 377c 943c 205a a8bd 8442 cb3d
000003f0: de68 26bd defd 733d faf5 b83d 2949 073e
-0.15541026 -0.23198478 -0.14309373 -0.14629543 -0.03315098 -0.15221024 0.109644815 -0.039111298
0.17112163 -0.106916554 -0.202153 -0.09410843 0.04111679 0.050615102 -0.13201438 -0.06698788
-0.000447441 0.017321168 0.12810114 0.15027973 0.055556767 0.003780962 0.03329372 0.074287
0.036760047 -0.05056768 0.1672677 0.07219693 -0.18038696 -0.12403912 0.021194004 0.13213158
-0.09549344 0.13231453 0.15324353 0.020010717 0.022377817 -0.1849081 0.10337054 0.049961865
-0.096393235 -0.033489164 -0.047849294 0.13827482 -0.05595976 -0.054630067 -0.1145767 0.09127224
0.08693494 -0.22475684 0.061943315 -0.13088933 -0.17518884 0.064170435 0.15751022 0.047691617
-0.0055646235 -0.1134475 0.12694971 -0.09175276 0.055521905 -0.18733442 -0.097320884 0.29283282
-0.005091848 0.004418066 0.27009326 -0.102677606 -0.24884407 0.12036413 0.11525896 -0.256625
-0.23660746 -0.32302207 -0.32545906 -0.14831932 0.16623294 0.3276 0.33380666 -0.08360833
0.4119832 0.40094692 -0.1543478 -0.09899319 -0.36573288 -0.34809834 -0.01306249 -0.23235291
0.34427473 -0.14909975 0.12535587 0.22766332 0.083248265 0.18401651 -0.21441413 -0.03456217
0.08989251 0.18826416 -0.10309126 -0.28655586 -0.14059056 -0.06429138 -0.031209288 -0.060646147
0.004623333 0.2949136 -0.23029132 -0.24784409 0.055263445 0.38066873 0.21949673 0.32583386
0.22360311 0.18082191 0.22490452 0.079532616 -0.17386572 -0.1975728 0.16191702 -0.12875369
-0.29265013 -0.10784584 -0.00068926066 0.37652746 -0.103092864 -0.10374387 -0.41556275 -0.17156117
-0.09119174 -0.21002603 0.026074475 -0.113592386 -0.28311348 0.22229955 -0.03858728 -0.26997718
-0.26759076 -0.04810141 -0.09390263 -0.22038901 0.25506008 0.06728271 0.2646991 -0.2660724
0.40724963 0.22078629 -0.4156625 -0.03441599 -0.46713802 -0.33883998 0.12650038 -0.23739095
0.11955956 -0.1139213 0.09676028 0.34218594 0.0670687 0.065217346 -0.12129365 0.021682456
-0.10990293 0.38594887 -0.08630724 -0.11126907 -0.30198348 -0.33559954 -0.24172106 -0.13848248
0.2141229 0.25791532 -0.43897027 -0.0098113995 0.26017842 0.31838048 0.22346616 0.032977194
0.22658478 0.08366757 0.113205716 0.23789044 -0.27376753 -0.16303925 0.19237366 0.004167172
-0.2290855 -0.07519682 0.09756144 0.1499182 -0.016771015 0.1755806 -0.3876627 -0.015288775
-0.17167084 0.01921564 -0.07420797 -0.12770429 -0.15250935 0.027396087 -0.030978978 -0.14578956
0.18446717 -0.17662622 -0.081922576 0.06368316 -0.03940929 -0.07836671 -0.1603735 0.15940882
0.0073158992 0.029510014 0.07164021 0.121487804 -0.08727069 -0.05721672 -0.018119847 -0.010206407
-0.095541134 0.078753226 0.024338366 -0.16550925 -0.19583459 -0.03589557 -0.06340275 -0.13684103
0.098333895 -0.06482437 0.23310345 0.182794 0.028495636 0.05440633 0.1163336 0.10088319
0.071380824 0.07550316 -0.24841872 -0.033193488 -0.03228651 -0.16207935 -0.1285645 0.10863783
-0.046689145 0.12480248 -0.15683338 -0.0077802422 -0.1119094 0.095091656 0.008018782 -0.002104177
-0.168233 0.018125637 -0.08220315 0.09924796 -0.040627353 0.05956828 0.09031291 0.13211502

encoder_lstm.weight_hh_l0 f4 [128, 32]
00000000: 3a8b be3d 632e eebd 3f55 6fba bee0 bc3c
00000010: 98c2 03be 943b a2bd 78b2 cd3d 8fa5 dfbd
00000020: cf75 edbd aaf4 8dbd d8f6 003c 5028 2ebe
00000030: b9e8 6d3c 9d8e 9f3c 194f af3c 43ac 6dbe
00000040: 15fb 7e3d b114 323d e399 283e 03a2 48be
00000050: 73c1 1d3e 6419 c1bd a841 363d 9f67 99bc
00000060: 6949 a43c b653 1a3e d9ef 07be 2fc1 423b
00000070: 6654 0a3e 9423 f1bd aaa8 4c3e 6869 39be
00000080: da84 34be eeec 033e 27a6 323e bf9b 38be
00000090: 920c 4f3e 97f9 853d f362 313d 30ca d4ba
000000a0: 1ada 7b3e 236a 113e cb05 b53e ab21 4e3e
000000b0: 0340 1c3e c38d 433e 3011 a43d 1c51 823d
000000c0: d4f2 cebe 24bd 66be 7459 993e 2106 92be
000000d0: de19 673e b663 d73e ead7 c9be 4e15 97bd
000000e0: 2eb5 b73e c518 e03c bc4b 06be c637 373e
000000f0: 94ea 1ebc f8a0 4abe 0533 213e ff7d 1abe
00000100: 9be3 3bbe b168 d23d 2c96 453e d93a d9bd
00000110: 8c75 5c3e c85f 863e a811 563e 2c58 57bd
00000120: 4190 97bd fbe1 cfbc a0e5 3b3e 2815 a63d
00000130: 0480 f23d 62b5 003d b2f7 443e 991c 283d
00000140: 9d3d 71bd 0ee0 0e3e 5a76 343e cd23 52be
00000150: 53ce 903d 63fb b43e 97fe f4bd de17 fdbc
00000160: acb2 0d3e b392 183d 47f5 82be 6616 7d3e
00000170: 9d63 813e bfe7 62bd eed6 e33d 9bf0 6dbe
00000180: 5b34 1e3e 0485 10be 1800 803e 38be f9bd
00000190: da14 67be f6b3 803e 92a0 9dbb 6fd8 0d3d
000001a0: 4e4f 1c3e 5674 84bd b0d9 d2bd 3ead 4dbe
000001b0: 38a5 5f3e ae92 b13d 4bf1 cb3d 299f ab3d
000001c0: 230e 193e f823 1b3e f694 10be 8630 7a3d
000001d0: 1981 9e3d bc3d 573d e5ae a1bd 1c4d 683e
000001e0: 7c99 d6bb 592e 753e 6915 98bd ae4a 783d
000001f0: aa49 173e efcf 993d c1ba 84bd 3b4f b63d
00000200: 7309 74bd 999d e1be 897f 6fbd 0902 b33c
00000210: 8871 2b3e ae18 223e 1687 743e c46e cfbe
00000220: 5cb9 833e cb07 d73d 7aa9 923e c7a9 823e
00000230: 1096 af3e b78d 06bd be4d 2ebd af43 61be
00000240: c256 ca3c bb98 a5be 8eea d73d ca96 10be
00000250: 3086 2ebe 4e41 b33d 41de e6bb cf0f 15be
00000260: c55b 983e 2e6a 293e 1b9c 9abe 3f9b 9a3e
00000270: b453 6a3e 1c6f 0d3d a47e 43be 2d61 7abe
00000280: 6ae9 5c3d 30df aebe 7db9 39be 3ef2 d2bd
00000290: cdfa 233c e0ec 1c3e 5487 40bc 7c24 a8be
000002a0: ea22 893e 6b62 423e 2198 883e 2b85 843d
000002b0: 43b3 833e 417b 38bd 7611 6abe 0cd0 edbe
000002c0: 1e9a 66bc a219 babd 7e0e 743e f966 243e
000002d0: d346 6bbd 6736 0dbc 372c 773d 5a7f 14bd
000002e0: dcfb d33b 2073 073e a833 bbbd 83f2 a03e
000002f0: 9e59 8e3e b976 52be 0814 d9bd 2085 8d3d
00000300: 1958 9dbe 026c babd bf46 afbc 8a45 58be
00000310: 5c54 513e eede 083e c84d d53d 7ea6 393e
00000320: f087 2bbe 60f8 0bbe 7084 9bbd b6da 6f3d
00000330: 4abd 5fbe bea1 193d d2af 003e ba68 5b3c
00000340: 695d 48bd b2a2 47be 936c 0a3e fae1 86bd
00000350: bb8c a2bd 4a13 583e c1a2 29bd cecd 303e
00000360: 02dd c83d c214 fd3d 0905 10be 5831 883e
00000370: c608 8c3e dc45 f93c 9cd4 963e c8ac 91bd
00000380: fed8 4dbe feb6 823e 5c37 643e 4a69 2dbe
00000390: d495 443d e257 b93b 24d5 11be 9b01 903e
000003a0: 7517 c8bc 28c3 033d 2fa8 1bbd dde1 983d
000003b0: e1d9 173e 835d 2a3c 9a23 a83e a15b 7a3c
000003c0: 4919 e53d 8927 2fbe de99 ef3d da88 efbd
000003d0: 8b24 eabd 0e74 8e3d 4247 ac3d 0073 db3d
000003e0: 072a 02be d0d6 d2ba 31ef 713c 3154 463d
000003f0: de57 cd3d 46cc 483e 22bf 083e f443 8e3d
0.09303899 -0.11629941 -0.0009129829 0.023056384 -0.128672 -0.0792152 0.10043806 -0.1092025
-0.11594736 -0.069314316 0.007871352 -0.17007565 0.014520817 0.019477183 0.021400021 -0.23210244
0.06225117 0.043476764 0.16464953 -0.19593053 0.15405826 -0.09428671 0.04449621 -0.018726168
0.020054536 0.15070996 -0.13275088 0.0029717197 0.13508758 -0.11774364 0.19986215 -0.18106616
-0.17628804 0.1288335 0.17446195 -0.18028162 0.20219639 0.06541746 0.043307256 -0.0016234573
0.24594918 0.14200644 0.35355982 0.20130031 0.15258794 0.19097047 0.08011091 0.06363127
-0.40419638 -0.22533089 0.2995106 -0.285203 0.22568461 0.4206826 -0.39422542 -0.073771104
0.35880417 0.027355561 -0.13114828 0.1789237 -0.0096994825 -0.19787967 0.15742119 -0.15087126
-0.18348543 0.102738746 0.19295567 -0.106069274 0.21529216 0.2624495 0.20905173 -0.05257432
-0.07400561 -0.02537631 0.18349314 0.08109504 0.11840823 0.03142298 0.19235113 0.041042898
-0.05889665 0.13952658 0.17623273 -0.2052147 0.07070603 0.35348043 -0.11962622 -0.03089517
0.13837689 0.03724928 -0.25577757 0.24715576 0.2527131 -0.05539679 0.11124979 -0.23236315
0.1544966 -0.14113241 0.25000072 -0.121944845 -0.22566548 0.251373 -0.0048104012 0.034630235
0.15264627 -0.06467502 -0.10295427 -0.20085618 0.2184037 0.08670555 0.09958132 0.08379967
0.14946799 0.1515044 -0.14119324 0.06108143 0.07739467 0.05254911 -0.078946866 0.22685665
-0.0065490585 0.23943461 -0.07425959 0.060618095 0.14774194 0.07510363 -0.06480933 0.08901831
-0.059579324 -0.4406555 -0.058471236 0.021851556 0.16742527 0.15829727 0.23879656 -0.40514195
0.25727355 0.10499533 0.28644925 0.25520155 0.34294176 -0.032849994 -0.04255461 -0.21998475
0.024699572 -0.32343087 0.10542785 -0.14120021 -0.17043376 0.0875269 -0.0070455377 -0.14556812
0.29757515 0.1654441 -0.30197224 0.30196568 0.22883493 0.03452979 -0.19091278 -0.24451132
0.05393354 -0.34154654 -0.18137164 -0.1030011 0.010008526 0.15324736 -0.011751015 -0.32840335
0.2678445 0.18982856 0.26678565 0.06470712 0.25722703 -0.04503942 -0.22858223 -0.4644779
-0.01407483 -0.0908692 0.23833653 0.16054906 -0.05744059 -0.008618928 0.0603449 -0.036254264
0.006469233 0.1322751 -0.09140712 0.31435022 0.27802747 -0.20553102 -0.10599524 0.06910157
-0.30731276 -0.09102632 -0.021396039 -0.21120277 0.20442337 0.13366291 0.10415226 0.18129918
-0.16751075 -0.13668966 -0.0759362 0.05855819 -0.21849552 0.037507765 0.1256707 0.013391668
-0.048917208 -0.19495657 0.1351798 -0.0658607 -0.079369985 0.21101108 -0.04141498 0.17266008
0.09807779 0.12357475 -0.14064421 0.26600146 0.27350444 0.03042882 0.29459083 -0.071130335
-0.20102307 0.25530237 0.22286743 -0.16934696 0.04799445 0.0056562284 -0.14241463 0.28126225
-0.024425248 0.032168537 -0.03800219 0.07464955 0.14829208 0.0103982715 0.32839662 0.015280635
0.111864634 -0.17104925 0.1169927 -0.11696024 -0.11432751 0.069557294 0.08412029 0.10715294
-0.12711345 -0.0016085748 0.0147665 0.048420135 0.10026525 0.19609174 0.13354161 0.06946555

encoder_lstm.bias_ih_l0 f4 [128]
00000000: 02fc f63d 13ab 323e 18d5 2a3e 2aaa 29bd
00000010: 2062 be3d bde6 4d3e e87e 0a3e b80e f13d
00000020: 311e 4f3e 796d 383e 9887 da3c ee54 9a3e
00000030: c7b9 ffbd f695 2cbd 8ec6 15be 36d0 0d3e
00000040: a892 db3d ae17 bd3e 2f09 42be ae2c e0bd
00000050: 0fae 373d e87f 1fbd d060 6cbd 93d6 b63e
00000060: 912f 0dbe c9ee 443e d1db 953c 44a4 09be
00000070: f0b7 663a c381 6f3e 76d9 353e 0843 383e
00000080: 5206 af3c 7f51 b0bd 3fd8 c8bd e253 10be
00000090: f450 16be 6ce7 29be 9c4b f13d b181 73bd
000000a0: 805f 243e 588d 293e 884c 973d 7ed5 0c3e
000000b0: 618f 84bd 6eef 0dbe e81b 19be eb93 ecbd
000000c0: 53ae debc 7bed d7bd 8c45 0cbe 1400 aabd
000000d0: 420e ee3d 97ff 4b3e f415 32be 2cf8 003c
000000e0: 71fa e63d 6325 16be 4038 913d 5c47 0b3e
000000f0: ab83 13bd a6a0 babd af39 19be d248 d1bd
00000100: e172 833d 26cd b73c 2a15 253e 52e2 003d
00000110: 35a6 b9bd 6302 1f3e 3746 193e 3f3d f8bc
00000120: b99e 903b fb94 603d 5e6d 323d 6528 003d
00000130: 1a59 8cbd f39d 1bbc 2987 afbc 2979 febd
00000140: f2b6 d2bd da92 6ebd 6d1a 86bd 8039 933c
00000150: b863 2d3e 97a1 113e d263 a8bd 8851 19be
00000160: d2aa afbd 6414 293e 043f 03bd e7fa 273e
00000170: 7a6b ee3d 5abf 793d c4cf 49bd c2c2 4fbd
00000180: c680 26be 82a4 3f3d de68 d53c 6d72 0fbd
00000190: 6f98 1e3e eb6e d53d 60ea e83d ee1f 9abd
000001a0: 883c 533e 88bd 383d e51f 13be 7372 8c3e
000001b0: a200 89bd cdce 1d3e e9d0 083e 6614 c53d
000001c0: 8510 30be b065 633e ba4c 003e 0364 d7bd
000001d0: 40cc 353e 8738 d6bd 3ecf ce3d 290a 963e
000001e0: 89a6 373d cc2d b73d 497b b9bd 845a 0e3e
000001f0: a60f 063e e2a6 3f3e 4c74 e3bd 6a86 39bd
0.120597854 0.17448072 0.16682851 -0.041422047 0.092960596 0.20107551 0.13524973 0.117703855
0.20226361 0.1801051 0.026675984 0.3014292 -0.12486606 -0.0421352 -0.14626524 0.13848957
0.10721332 0.3693213 -0.18948816 -0.10946022 0.04484373 -0.03894034 -0.057709515 0.35710582
-0.13787676 0.19231714 0.018293293 -0.13441569 0.00088012125 0.23389344 0.17758736 0.1799432
0.021365318 -0.08609294 -0.09806871 -0.14094499 -0.14679319 -0.16592187 0.117819995 -0.059449855
0.16052055 0.16557825 0.07387644 0.13753316 -0.0647266 -0.13860866 -0.14952052 -0.115516506
-0.027182734 -0.10543343 -0.13698405 -0.08300796 0.11623813 0.19921719 -0.17391187 0.007871669
0.11278237 -0.146627 0.07090807 0.1360144 -0.03601424 -0.091126725 -0.14963411 -0.102189675
0.06418396 0.02243669 0.16121355 0.031465836 -0.090649046 0.15528254 0.14968191 -0.030302642
0.0044134525 0.05482958 0.043561332 0.031288523 -0.06852932 -0.009498107 -0.021426754 -0.12425453
-0.102888 -0.058245517 -0.06548009 0.017971754 0.16932571 0.14221798 -0.08222164 -0.14972508
-0.08577503 0.16511685 -0.03204252 0.16404305 0.11641593 0.060973503 -0.049270406 -0.050722845
-0.1626006 0.046787746 0.026050981 -0.035021234 0.15487836 0.104215465 0.113728285 -0.07525621
0.2062856 0.045102626 -0.14367636 0.27431068 -0.06689574 0.1541092 0.13360943 0.09623031
-0.17193802 0.2220676 0.12529269 -0.105171226 0.17753696 -0.104600005 0.10098122 0.29304627
0.044836555 0.08944282 -0.09056718 0.13901716 0.13091907 0.18716004 -0.11106166 -0.045294203

encoder_lstm.bias_hh_l0 f4 [128]
00000000: 5a3a bebc 31f8 393e 3be6 183e 12bb bbbd
00000010: 18cf 093e 10b8 1a3e a8a7 163d 465c ebbc
00000020: ce4f 693e c03a e93d 93d1 9a3d ceb2 363e
00000030: dcaa bfbd bb56 c0bd 498a 113d 33a8 133d
00000040: 3e7d eb3c febc fa3e 01ba cebd 8d18 af3c
00000050: 1279 fdbd 7a37 a63d e80b d4bd 5090 c73d
00000060: 66b5 563d 074d d93d 1a7d febc 8a62 0a3d
00000070: 2a7c 8d3d 5e16 c7bd 379b 583e 2447 98bc
00000080: fca9 a1bd 3cbf 50bd 6eef a53d 6e8a 083e
00000090: 955f 46be 27f7 243d 48df 6b3d 5245 2bbe
000000a0: 659e 423d 8de2 7dbd 75b2 87bb fd8c b1bd
000000b0: 24b9 65bd a6de c1bd 5c3b 90bd bdc0 043e
000000c0: b4fb 283e 4abd d4bd d633 b6bd 0be5 0bbd
000000d0: bc86 50bd 6353 c43c f028 d33b d598 a33d
000000e0: 4ff0 ec3d 4e65 15be 00b6 a2bd 6c73 c53d
000000f0: 5299 033e 9bb4 a3bd 26fa f13d fb9e a73d
00000100: b0aa f7bc 0b86 0dbe 25ec b53d abd3 20bb
00000110: 7ce6 163e 6132 6bbd 1cbe f7bc 87f1 fb3d
00000120: 4f0d b13c 7021 13be 607f d43c cf63 edbc
00000130: 1694 09be 29d5 03be dffd a53d 29ca e9bd
00000140: 4d62 0dbd ebac f3bd 0824 0cbe c0f9 00be
00000150: e26d 163e b399 413c 0ce5 713d f28e acbd
00000160: a8a1 373e 6996 43bd 54dd 42bd fcf1 e1bd
00000170: b18f 003e 7744 30be 8163 07bd e797 01bd
00000180: 9a28 bd3d 2261 31bc f300 f03d 8105 15be
00000190: 5ade 9b3e 71cf 893e 525b 6d3e 8cdf da3b
000001a0: 8c94 ffbd 604b 7c3e a8f0 f23a c06b 173e
000001b0: 72dc 2f3e 4e93 60bd e258 103e ecf6 073e
000001c0: f055 223e beb5 313d 34e0 0ebe d4bc 4dbd
000001d0: 2e2c 713d 86e2 293e ecfe fdbc f1e7 9a3e
000001e0: d1b7 48bd 8307 75bd 81fb 88bd d121 bd3d
000001f0: 6283 10be 6e3d 353e 40da 573d 6bdd 103e
-0.023221184 0.18161084 0.14931576 -0.0916654 0.13457906 0.15109277 0.036780983 -0.028730523
0.2278435 0.11388159 0.07559504 0.17841646 -0.09358761 -0.093915425 0.03553227 0.03604908
0.028746244 0.48972315 -0.10094071 0.021374011 -0.12376608 0.0811605 -0.103538334 0.09744322
0.05241909 0.10610395 -0.031065512 0.03378538 0.06908448 -0.09721063 0.2115296 -0.01858861
-0.0789375 -0.050963625 0.08102308 0.13334057 -0.19372399 0.040274765 0.057585984 -0.16725662
0.047514338 -0.061983634 -0.004141147 -0.086694695 -0.056084767 -0.09466295 -0.07042572 0.12964149
0.16502267 -0.103876665 -0.08896606 -0.03415398 -0.050909743 0.023965543 0.006444089 0.07988135
0.11569273 -0.14589426 -0.0794487 0.096411556 0.12851456 -0.07993432 0.1181529 0.0818462
-0.030232757 -0.13820665 0.088829316 -0.0024540226 0.1473636 -0.057421092 -0.030242018 0.12301927
0.021612791 -0.14368224 0.025939643 -0.028978257 -0.13435397 -0.12874283 0.08105063 -0.11415512
-0.034517575 -0.11898216 -0.1368562 -0.12595272 0.14690354 0.01181643 0.059056327 -0.08425702
0.1793276 -0.047750864 -0.047574356 -0.11032483 0.12554814 -0.17213617 -0.03305388 -0.031639006
0.0923626 -0.010826381 0.11718931 -0.14552881 0.30443078 0.26916078 0.23179367 0.006679481
-0.12479505 0.24638128 0.0018534856 0.14787197 0.17173937 -0.05482798 0.14096406 0.13277787
0.15853095 0.043386213 -0.13952714 -0.05022891 0.058880024 0.16590318 -0.031005345 0.30255082
-0.049003426 -0.059821617 -0.066885956 0.092349656 -0.14112619 0.17699215 0.052698374 0.14146964

dest_lstm_obs.weight_ih_l0 f4 [128, 2]
00000000: 36e4 283c 30fd 3fbe 2521 84bd 77fa c9bd
00000010: 998d 743c 2cc8 a63d b809 e83d 6f60 5ebc
00000020: 20bf 7cbd c2cf c6bd dfec 38be 9c55 b23d
00000030: c263 c1bc c95c b7bd 544e da3d 6605 433d
00000040: 4524 1fbe 15b2 b73d 9f44 bc3d 26a2 9dbd
00000050: a08b 233e 63f3 bbbd de9d 0e3e e64b 6cbd
00000060: a478 de3b e0f7 0bbb d0c1 0fbe 53f8 0d3e
00000070: b0cb 1bbd 52c9 b73d 52a8 ecbd 3fc4 a13d
00000080: af5c adbc 3e5d 83bc d6ac e9bd a677 bc3d
00000090: a08a eebb e90c f73d 4619 003d d476 9b3d
000000a0: f0ee 89bd aa5e 163e 8292 a33d 46d5 ccbd
000000b0: 3386 b33d 01bb a5bd 0476 83bd e447 393d
000000c0: 0004 99bb 6f29 06be 66d7 2e3d 7b02 fcbd
000000d0: 5275 c4bd e133 9a3d a978 22be 0ebe f4bd
000000e0: 7851 c7bd 7542 3bbc 7642 143e 6bfb 0dbc
000000f0: eae2 e43d cbf1 9cbd 59e3 f03d 5353 c9bd
00000100: 41cd 0cbd e34f d23d 2390 28bd 0071 1c3c
00000110: 46fb 49bc c9d4 2fbd 21af 9abd 31f1 6bbd
00000120: 4edc 12bd c929 003d d433 b4bc c17e 53bc
00000130: ec58 5e3c 5a35 5d3d 203c 34be d862 593d
00000140: faac 1bbe 0ebd 9b3d e0cf a8bc e717 c5bd
00000150: 36a0 c7bd 20ff 12bd a1ba d1bd 663a 41bd
00000160: 55de 10be 2334 f63d bc18 98bd 62a6 59bd
00000170: afb7 ec3c e0c8 31bd 8cc8 5b3b f693 dbbd
00000180: a0f4 0bbe c551 bcbd 748c dabc bf77 273d
00000190: 785c 453d dc38 42be bfd4 98bd bab0 6ebe
000001a0: 9385 073c 64f5 0ebe fa5d 3d3d fb9c b73d
000001b0: 2866 e0bd 9dae 8c3d cc7a 50be 82a3 333d
000001c0: 86a4 673c b4b7 dd3d 3ae9 20bd 02da afbd
000001d0: d077 1d3d e4c0 f2bd 7ef6 babc b44d 25bd
000001e0: 2af1 c63d 8872 053c bdfa b9bd f3c4 32bd
000001f0: 9ebb eabd 75c6 52bd e1c2 f5bd 092e 97bc
00000200: 0446 ddbd 2607 a9bc 1a94 ba3b 8d4b 0a3d
00000210: 5852 71bd 3bd8 e03c 0bea 2bbd c647 1c3d
00000220: 0fe4 0dbe 7190 f13d 0cc2 653d 63cb 8d3d
00000230: a9e0 0c3e 7ca7 edbd 1a90 c43c 7f80 5d3d
00000240: 1636 303c 41ee e6bd 8a74 dfbd 729e 0dbc
00000250: 0578 8e3d 9e43 64bd d5f9 d33d a3b8 9bbd
00000260: 9820 523c c66a 9e3c ec65 5e3c 18ac 113d
00000270: 3bbb aabc 5b02 9fbd 64cc d53d f617 06be
00000280: 7b12 68bd 022d f9ba 6552 1abd 4393 833d
00000290: 87c5 5c3d 0cdd 1cbc 0dee f93a 0924 52bc
000002a0: c327 b5bd a289 3cbd b701 2fbc abcc f2bb
000002b0: 9a2c 10be 9f17 e53d 6a10 f13d 79c8 a4bd
000002c0: 928f e4bb 03c6 9a3d f44a a63d a603 593d
000002d0: 24bd e53d 44dd 2ebd e224 8c3c ac48 1f3d
000002e0: ecbf edbc 438d ae3d f52d 4ebd a890 ccbd
000002f0: b431 acbc e568 3a3d e7d6 b53d 96f4 a63c
00000300: fc10 d0bd 0ed0 ba3d 2e5e ebbd 8f65 21bb
00000310: 2eef 5cbd 5253 d93d ea93 babd 57da 5b3d
00000320: 86c5 71bd 59a4 1fbd bdd0 8cbc 73d3 7c3d
00000330: 34c7 733d 2313 5dbd a26b 9bbd 2959 803c
00000340: 9233 33bc 98ed a03d a966 7e3d dc46 923d
00000350: 6c28 1d3d eb13 59bd 6436 52bd 1319 02be
00000360: c446 0a3e 821a 05be f020 16be bfbd a03d
00000370: f82e 8a3d 154a fdbd 99c7 2ebe 6180 fb3d
00000380: 06d3 ec3c 47cf e3bd 8a47 653d 1bca 03be
00000390: b328 a13d 616a 20be 5db4 e6bd b487 ab3d
000003a0: 8cae 7b3d ca37 48bd b22b 2dbe ab78 783d
000003b0: 62ed 2ebc de02 e1bc ad1c ac3d 22fc 0fbd
000003c0: 79b1 113c 1ec1 923d fab3 453d 23ff 153d
000003d0: 546d d03d 41c3 22be 4c21 c13d 00fe a83d
000003e0: e151 06bd 9259 843d e1aa 413d ae49 be3d
000003f0: 7e8c 09bd ad74 d3bd 1a92 8fbd 30e6 8a3d
0.010308316 -0.18748927 -0.06451634 -0.098622255 0.014926338 0.081436485 0.11329979 -0.013572796
-0.06170571 -0.097075954 -0.18059109 0.08707735 -0.023607139 -0.08953244 0.10659471 0.04761257
-0.1554118 0.08969513 0.09192776 -0.07696943 0.15971231 -0.09177282 0.13927409 -0.05768957
0.006789284 -0.0021357462 -0.14038777 0.1386426 -0.03803605 0.08973946 -0.11555542 0.07898759
-0.021162359 -0.016035672 -0.11409919 0.09202509 -0.007279709 0.12063009 0.031274103 0.07591024
-0.06735027 0.14684549 0.079869285 -0.10001616 0.08765831 -0.08092309 -0.06418994 0.045234576
-0.0046696663 -0.13101743 0.04268589 -0.123051606 -0.095926896 0.07529426 -0.1586634 -0.119503126
-0.09732336 -0.011429419 0.14478478 -0.0086659 0.11176093 -0.07663306 0.11762113 -0.09830346
-0.034375433 0.102691434 -0.041153084 0.009548426 -0.012327975 -0.042927537 -0.075529344 -0.057603065
-0.03585463 0.03128985 -0.02199737 -0.012908638 0.013571005 0.05400596 -0.17601061 0.05307278
-0.15202704 0.07604419 -0.020606935 -0.096237 -0.09747355 -0.035887837 -0.10240675 -0.047174834
-0.14147313 0.12021663 -0.07426593 -0.05313719 0.02889618 -0.04340446 0.0033536283 -0.10721581
-0.13667536 -0.09195284 -0.026678301 0.040885683 0.04818389 -0.18967003 -0.07462453 -0.23309603
0.008271593 -0.13960797 0.0462322 0.089654885 -0.10956985 0.06869242 -0.20359343 0.043857105
0.014138347 0.10826054 -0.039284922 -0.085865036 0.03844434 -0.11853197 -0.022822615 -0.040357307
0.09713967 0.008144982 -0.09081028 -0.043644857 -0.114615664 -0.051458795 -0.12000061 -0.018454568
-0.1080437 -0.020633291 0.0056939246 0.033763457 -0.05891642 0.027446857 -0.041971248 0.038154386
-0.13856529 0.11795128 0.05609326 0.069235586 0.13757576 -0.11604211 0.023994494 0.05407762
0.010755083 -0.11275912 -0.109109 -0.008643733 0.06956486 -0.055728547 0.10350386 -0.07603576
0.012825154 0.019338023 0.013574105 0.035564512 -0.020841232 -0.07764121 0.10439375 -0.13095078
-0.05665825 -0.0019010606 -0.037676234 0.06424572 0.053899314 -0.009574186 0.0019068137 -0.012825974
-0.088454746 -0.046029694 -0.010681561 -0.007409652 -0.14079514 0.11186146 0.11770709 -0.080460496
-0.0069751227 0.07557299 0.08119765 0.052981995 0.11217716 -0.042691484 0.01710743 0.038887665
-0.02902218 0.08523037 -0.050336797 -0.099885285 -0.021019794 0.04551019 0.0887888 0.0203803
-0.101594895 0.091217145 -0.11492573 -0.0024627184 -0.053939037 0.10611595 -0.091102436 0.053675022
-0.059026264 -0.038975094 -0.017189378 0.06172509 0.059516147 -0.05397333 -0.07588889 0.015667515
-0.010937588 0.078578174 0.062109623 0.071424216 0.038368627 -0.05299751 -0.051321402 -0.12704878
0.13503557 -0.12998393 -0.14661002 0.07848691 0.0674724 -0.12367646 -0.17068328 0.12280346
0.028909218 -0.111235194 0.055976428 -0.12870066 0.07869091 -0.1566558 -0.1126487 0.08375493
0.061445758 -0.04888133 -0.169112 0.060661953 -0.010676714 -0.027467187 0.08403907 -0.035152562
0.00889241 0.071657404 0.048267342 0.03662027 0.10177103 -0.15894796 0.09430179 0.08251572
-0.03279293 0.06462397 0.047282103 0.09291397 -0.03358125 -0.103249885 -0.070102885 0.06782186

dest_lstm_obs.weight_hh_l0 f4 [128, 32]
00000000: 1471 743e 41fe 47be 8cf6 903b 9f91 a7bd
00000010: 0c9b 1f3d 1b13 dc3d 48ad 733d 36af 34be
00000020: ae7f 423e 2c4d 5a3e a9c7 19be a513 53bd
00000030: cccb 13be 545c 60bd 42c7 353e 90ad 2f3e
00000040: 60aa fb3d 165e 78bd 9e93 6bbd c441 b33d
00000050: 121b 92bd dccc e43d e910 093d aa05 09be
00000060: 7a12 e2bc c24e 43bd a2e2 b9bc f2d1 57be
00000070: fe9e f0bd 4a95 dabd a0a5 1abe b915 28be
00000080: edfc 9cbd 0446 b1ba 12e8 313e 3944 c83b
00000090: 4038 793d 8af2 ffbd 811b a43c 8c4e bcbd
000000a0: 4480 ef3c 86f3 e43d 4729 07be 7820 db3d
000000b0: 94f7 253e e29b dabc 5cd2 9bbb d49a a6bd
000000c0: 256d 00be 62a9 043c a237 38be 92e7 13be
000000d0: 3a48 d7bb 21d5 c9bb f865 04bd 7653 f9bd
000000e0: 3c02 393d 3201 0dbe adb7 5bbe 0a8c 81bd
000000f0: 3fa9 ecbc 5507 0cbe e4f7 783d 87fd bd3d
00000100: aa31 5dbd 1909 b93d 7cf4 3d3e 0d38 e5bd
00000110: 9840 36bd c1c8 b23d 88d7 403e 1a40 09bd
00000120: bc81 763e 5140 57bd 26bc 963d 1630 b73c
00000130: 53e5 b53d a0fe 65be 1b9f 29bd 4230 3ebd
00000140: 9c55 8c3d 3c87 123e d80f e4bd 6322 f83d
00000150: e4b8 c53d 805d f4bd 77cb f7bd 8422 b8bd
00000160: fcb2 89bd b54a 013e 4516 863d fcf6 93bd
00000170: 18ad 5abe ed99 9fbd 68d3 f9bd f76b bdbd
00000180: 6c11 453e 3a24 d83d 41bd 6a3d 5212 24be
00000190: a853 a5bd 14ea 5abd e267 573e 3447 97bc
000001a0: 8c9c 5b3d b54f 2c3e fa7a 493d e9f3 793e
000001b0: 9018 c23d 8eb5 9bbd d06d b5bd f046 d0bc
000001c0: c31e 8a3d 88ce bdbd 5396 10be ca62 963d
000001d0: 0be5 2b3e 47f1 333e 04d1 f83d 264b 4b3e
000001e0: bd59 cc3c c219 793c 1f3d 873d 91f6 aa3d
000001f0: d252 e8bd ef82 583e 9fd5 7cbd 8963 2e3d
00000200: b44f bc3b 9716 4cbc d87d 78bd 5072 71bd
00000210: 5ed5 bfbd f0f7 32bc 2277 57bc cb61 d4bc
00000220: 36c7 03be d553 273e 38d1 443d 7420 73be
00000230: 714f 59be b00f 143d 49fb 1f3e 1c2c 473d
00000240: ed58 843d 0242 273d 2608 59bd 9eee ffbd
00000250: 394c a8bd 647a 82bd e8bc eb3c 87df 923c
00000260: 7841 293c 2e7d 123d f07a 683d 637d 8abc
00000270: 665b 62bd 4501 f83c 1569 8a3d 7a25 e1bc
00000280: 0c99 383e 28bb 8f3d 6a0f a6bd 9f6c be3d
00000290: 6b3b 193d 764a e13c a618 2a3e 99dc e2bd
000002a0: 49d9 413e 458f 063d 734d f03d f49c 9c3d
000002b0: 33b0 873d 22d9 7f3d 129e 9d3d b06c 113e
000002c0: 20a5 b83d 8501 803d 0e1a 30be 6a43 ef3c
000002d0: 2e27 f73d 67f5 18bd 180a 293c 9d0b b83c
000002e0: 9703 e33c 8599 29be 8e75 05be 7a92 d03d
000002f0: 88dd 58be a050 51bd fd64 95bc 2162 953b
00000300: 78b9 903e 3ac5 18be f27d 473e 8aea 093e
00000310: 5c1c d73d 1456 e43d c652 8bbd abe5 c73d
00000320: 2167 7fbd e61f c63d b511 8fbe f8ce b33d
00000330: 70bd 02be 58c5 203e b37d 413c cd4d 35be
00000340: 853c 8f3e 386b f7bd ba12 aabc ecfb 82bd
00000350: 98f1 253d 7c28 763e 7dd2 553d 4ca5 5f3c
00000360: 7054 1abe 6a8c 9abe 833a 61be f5c5 263d
00000370: 821f 8e3c 49fa 953d 808d cf3d a7ec 3ebd
00000380: a425 8c3d 1ec2 e3bd d691 fb3d 61fb 13be
00000390: 8806 d53d a0e7 e2bc 4ab9 56bd 045b e43b
000003a0: 7471 c73d 4afc 8d3d 6c96 03be 4816 91be
000003b0: e7d8 8e3d e790 49bd 29fd 83bd 2b8f eabc
000003c0: 5cd8 13be f0b4 11bd 2981 88bd 6869 f53d
000003d0: d0c7 ba3d 4898 653c a363 cb3c d2ca adbd
000003e0: 0634 11bd 882a 113d e968 9bbd adb3 5cbd
000003f0: 2f74 1eb6 7e15 09bd 86d6 f13d d736 dc3d
0.23871261 -0.19530584 0.004423922 -0.08182072 0.038966224 0.107458316 0.059491426 -0.17644963
0.18994018 0.21318501 -0.1501757 -0.051532406 -0.14433211 -0.05477555 0.17751792 0.17156053
0.12288356 -0.060636602 -0.057513826 0.08752778 -0.071340695 0.11171886 0.033463392 -0.13381067
-0.027596701 -0.04768253 -0.022691075 -0.21076182 -0.11749075 -0.10673006 -0.15102243 -0.16414537
-0.07665429 -0.0013524895 0.17373684 0.0061116484 0.06084466 -0.124974325 0.020032646 -0.09194669
0.029235967 0.11179261 -0.1319934 0.10699552 0.16207725 -0.026685659 -0.0047553014 -0.08135
-0.12541635 0.008097025 -0.17989972 -0.14443806 -0.0065698894 -0.00615944 -0.032323807 -0.12174122
0.045168146 -0.13769987 -0.21456786 -0.063255385 -0.028889297 -0.13674672 0.060783282 0.09276872
-0.05400244 0.09034938 0.18550295 -0.111923315 -0.044495195 0.08729697 0.18832219 -0.033508398
0.24072927 -0.05255157 0.07360105 0.022361796 0.08881631 -0.22460413 -0.0414115 -0.04643274
0.06852266 0.143094 -0.111358345 0.12115934 0.09654406 -0.11931896 -0.12099355 -0.08990958
-0.06723592 0.12626155 0.06547216 -0.07224843 -0.21355093 -0.07793031 -0.12198526 -0.09249108
0.19244927 0.10553785 0.057309393 -0.16022614 -0.08072597 -0.05344589 0.21035722 -0.01846657
0.05361609 0.16827281 0.049189545 0.2440945 0.09477341 -0.07602988 -0.08858836 -0.02542445
0.067441486 -0.09267908 -0.14119844 0.07343061 0.16786592 0.17572509 0.121492416 0.19852886
0.024945134 0.015203895 0.06603455 0.0834781 -0.11343922 0.21143697 -0.061727162 0.042575393
0.005746806 -0.012456558 -0.06066689 -0.058946908 -0.093668684 -0.010923371 -0.013150962 -0.025925538
-0.12868962 0.16340573 0.04805109 -0.23742849 -0.2122171 0.036147773 0.15623201 0.04862605
0.06462274 0.040834434 -0.052986287 -0.124966845 -0.08217663 -0.063710004 0.028776601 0.017928852
0.01033055 0.035763912 0.056757867 -0.016905492 -0.055262946 0.030274043 0.06758324 -0.02748369
0.18027133 0.07018119 -0.08108409 0.092980616 0.03741018 0.027501326 0.16610965 -0.11077232
0.18930544 0.032851476 0.11733522 0.07647124 0.06625404 0.062462933 0.07696165 0.14201617
0.0901587 0.0625029 -0.17197439 0.02920695 0.1206802 -0.03734341 0.010317348 0.022466475
0.027711673 -0.1656247 -0.13033125 0.10184188 -0.21178257 -0.05110228 -0.018236632 0.004558817
0.282665 -0.14918986 0.19481638 0.13468376 0.10503456 0.111492306 -0.06802897 0.097606026
-0.06235421 0.09674053 -0.27943197 0.087797105 -0.12767577 0.1570028 0.011809754 -0.1770546
0.2797586 -0.12080997 -0.020760883 -0.063957065 0.040513605 0.24038881 0.05220269 0.01365025
-0.15071273 -0.30185252 -0.21994977 0.04071613 0.017349008 0.07323129 0.10134411 -0.046612408
0.06843117 -0.11121009 0.122836754 -0.14451362 0.10401636 -0.027698338 -0.0524228 0.0069688577
0.09738436 0.06932886 -0.1285035 -0.28337312 0.069749646 -0.049210455 -0.06444771 -0.028632721
-0.14438003 -0.035572946 -0.0666526 0.11982995 0.091201425 0.014013357 0.024827784 -0.084859505
-0.035450004 0.03544095 -0.075883694 -0.05388229 -2.3611462e-06 -0.033467762 0.11808495 0.10752647

dest_lstm_obs.bias_ih_l0 f4 [128]
00000000: 34bd bc3d 5f03 3cbe de01 35bd ef85 a2bd
00000010: d1ee b73d b023 c6bd 2ed6 cfbd 04b7 28bc
00000020: 4155 1ebe 1174 14be 74cc 86bd e051 973d
00000030: 0c26 92bd a48d 99bd c463 8b3c aa18 993d
00000040: d2f8 aa3d 220a 3abd be1d fcbd e4de 6d3d
00000050: 6bc6 973d 0b17 bfbd 3872 70be 1f29 713c
00000060: 3234 23bd 4d4e a6bd 824f 91bd ecd0 13bd
00000070: 0272 7abd 99d5 f53d 4165 693d 0d5a f0bd
00000080: baf1 4bbe c450 acbd c946 24be f662 9d3d
00000090: 2db5 5cbe 245a abbc 388d 63bd f88c 06bd
000000a0: f3fe 6dbd e868 d83d 1757 27be ac7c 7e3b
000000b0: 4940 28be a72c 293d c892 b7bd 9273 87be
000000c0: b27c 5bbe fa45 b63d 3ed1 74be 24c9 52bc
000000d0: e59c 1bbe 6e49 833c 1615 4a3d 5043 9fbd
000000e0: eda9 10be 4498 a63d c84f 29bd 8cec 3c3d
000000f0: 0cc2 4ebe e11c c7bd a515 713e 103a 02bc
00000100: 6912 25bb a62e b43d f2f1 e73d 307c 03be
00000110: b0d3 ed3d 5866 8ebc c406 a3bd 396e 7ebd
00000120: 72f1 53bd 9871 18bd 8c9c c13d 6de0 2f3e
00000130: c44a 2a3e deaa d43c 0546 5fbd 4464 5cbe
00000140: 7b7e c239 c028 a53c a6f5 af3d cb69 80bd
00000150: 8e6c 89bc 47d7 de3c ff19 d93d 906a 61bd
00000160: 0f1f 793e a536 863c 0d1c 95bc 4464 5abd
00000170: ae4e 833d 5a49 b33d 06a0 f7bd 3199 dc3d
00000180: a91f 88bd 5b47 943d dcf1 b4bd 6ca7 cc3d
00000190: 029f 153d d1f8 97bd baed babd f448 52be
000001a0: 9875 6bbe eb87 173e c86e 1b3e ee2e cdbd
000001b0: 0ecb 183e b878 ad3d 3d53 dbbc 939f dfbc
000001c0: 157b 8ebd ce60 e7bc 8750 43bd 3bda 28be
000001d0: eb19 053e 6406 b5bc 48a8 da3d a6c3 52be
000001e0: beb1 32be b2bf 47bd 4281 6d3d c518 a93b
000001f0: f01c 3dbe 97aa e6bd 581b 1b3e d424 fd3d
0.09215775 -0.18360661 -0.044191234 -0.07935702 0.089810975 -0.096747756 -0.101482734 -0.010297541
-0.1546221 -0.14497401 -0.06581965 0.07388663 -0.07136163 -0.07497719 0.017015345 0.074754074
0.0834824 -0.04541982 -0.1231036 0.058073893 0.07410892 -0.09330567 -0.23481071 0.014719277
-0.0398447 -0.081204034 -0.07095243 -0.036087915 -0.061143883 0.12003631 0.05698133 -0.11735926
-0.1991643 -0.08413842 -0.16042627 0.07684891 -0.21553488 -0.020917006 -0.0555546 -0.032849282
-0.058104467 0.10566884 -0.16341816 0.0038831634 -0.16430773 0.04130235 -0.08963543 -0.2645536
-0.21434286 0.08900066 -0.23907945 -0.0128653385 -0.1519657 0.016026225 0.049336515 -0.07776511
-0.14127322 0.08134511 -0.04133585 0.046124026 -0.2019121 -0.09722305 0.23543413 -0.0079484135
-0.0025187975 0.0879796 0.11325444 -0.12840343 0.11612642 -0.017382786 -0.07960275 -0.062116835
-0.051743932 -0.037217706 0.09453687 0.17175455 0.16630083 0.025960382 -0.054510135 -0.21522623
0.000370968 0.020161033 0.085917756 -0.062701784 -0.016775396 0.027202262 0.106006615 -0.055033267
0.24328254 0.016383478 -0.018201852 -0.053318277 0.06411491 0.08754225 -0.12091069 0.107714064
-0.06646664 0.072401725 -0.088351935 0.09992871 0.036528595 -0.07420505 -0.09127374 -0.20535642
-0.22994077 0.14797942 0.15178978 -0.10018717 0.14921209 0.08470291 -0.02677309 -0.02729777
-0.0695707 -0.028244402 -0.04768422 -0.16489498 0.12998168 -0.022097774 0.10676628 -0.20582446
-0.17450616 -0.0487668 0.057984598 0.0051604235 -0.1846807 -0.11263006 0.1514715 0.1236054

dest_lstm_obs.bias_hh_l0 f4 [128]
00000000: 3611 213d 9e00 aabd a9b9 26bc b853 b53d
00000010: cd09 17be 53ee ef3d af7e 27bb 9694 21be
00000020: d8d5 10be d25f 913d c4cb a5bd 925f f13c
00000030: 5c47 1a3d 9cfb 98bd 4040 b33d 34c2 b4bd
00000040: e6b8 a6bd 271d c3bd cf63 51be 5a02 783d
00000050: 7c60 28bd 11a8 02be d201 60be 6713 cf3d
00000060: 5ae0 21be af73 333d 2a5a 963d 62d3 93bd
00000070: 8b13 a83c 4dc6 f43d f08a da3d 101e 46bc
00000080: b0da 67be a3a6 063e ffae 32bd 848b 1fbe
00000090: 4946 5d3d 8d07 52be 0993 34be 1472 b4bc
000000a0: 8fa7 973d c3cc f8bc 180b af3d f248 f5bd
000000b0: 120d 283e b8b0 e4bc 7e65 40bd bd64 203d
000000c0: ee3a 773c 6d8c 03be 95b4 29be 84b2 f43d
000000d0: c671 3dbe 984a 1fbe 84d0 7e3d 226d 90bd
000000e0: 7b4d 8f3d f204 57bd 3764 a1bc cc80 aa3d
000000f0: 6447 a3bd 9197 a2bd 47d5 65bd 3a75 44be
00000100: 0c94 2b3d 7eb7 433e 092d d5bc 38ca 10be
00000110: 3c2d 2c3d de01 083e e881 9c3c 4a22 e5bd
00000120: 46ff 023d 5947 2bbd 805a 803d 9c9e 32bd
00000130: f3d1 be3d 9297 fdbd e97d 04be 1ab3 bebd
00000140: e825 4fbe 3856 273e 0281 43be 8cf8 aa3b
00000150: a4da aa3d 4b9f 99bc 1ea2 52be 8440 f7bd
00000160: 40d8 72bd ed90 733e b890 d9bd 39f9 743d
00000170: 6fb6 30be c8d4 20be e1ea 33be ad1b 9d3d
00000180: 27cc 95bd 7b2b 0ebc 347f 49be 55af d43d
00000190: d0a7 ac3a 9f1f a83d baab eb3d 6269 5b3c
000001a0: 3ec6 963c a74e df3b f1a7 e03c 96c4 b9b9
000001b0: 0e8d 21be f1bf 15be 017f 623d 61fa 9ebd
000001c0: d3c5 d1bd d3cf 81bd f739 0e3c 5819 ecbd
000001d0: 4a45 b13d e313 453d 262a 943d a793 0e3d
000001e0: de7c 09bd 6261 e2bd 7d9f 62be 4273 0ebe
000001f0: 983b 4abe edb3 e5bd 6c53 03be 2aca 89bd
0.039323054 -0.08300899 -0.010176101 0.08853859 -0.14749832 0.117153786 -0.0025557687 -0.15779337
-0.14144075 0.070983544 -0.08095506 0.029464517 0.03766571 -0.07469866 0.08752489 -0.08826104
-0.08140735 -0.09527045 -0.2044823 0.060549118 -0.04110764 -0.12759425 -0.21875694 0.101111226
-0.1580824 0.043811496 0.07341416 -0.072180524 0.020517131 0.11951885 0.106710315 -0.012092128
-0.22642016 0.13149504 -0.04362392 -0.15580565 0.054022107 -0.20510693 -0.17634214 -0.022027053
0.07405006 -0.030371075 0.08547038 -0.11976804 0.16411236 -0.027916297 -0.04697179 0.03915857
0.0150897335 -0.12846537 -0.16572793 0.11948112 -0.18500432 -0.15555799 0.062210575 -0.070520654
0.069972 -0.05249495 -0.019701106 0.08325347 -0.07972601 -0.07939065 -0.0561116 -0.19185343
0.041889235 0.19112965 -0.026022451 -0.1413964 0.042035326 0.13281962 0.019104913 -0.11188181
0.03198173 -0.04181609 0.062672615 -0.043608293 0.093173884 -0.12382425 -0.12938656 -0.09311505
-0.20229304 0.16341484 -0.19092181 0.0052176174 0.08342484 -0.018752715 -0.20569655 -0.12072852
-0.059288263 0.23785754 -0.10623306 0.05980799 -0.17257093 -0.1570617 -0.17570068 0.07671294
-0.073143296 -0.008677359 -0.1967743 0.103850044 0.0013172571 0.08209156 0.115073636 0.013391824
0.018405076 0.006814796 0.02742383 -0.00035432418 -0.15776464 -0.14624001 0.0552969 -0.077626
-0.1024281 -0.063384674 0.008680812 -0.115282714 0.08655794 0.04811467 0.07234602 0.03480878
-0.03356635 -0.110537305 -0.22131152 -0.13911155 -0.19749296 -0.11215959 -0.12824792 -0.06728013

dest_lstm_fut.weight_ih_l0 f4 [128, 2]
00000000: 6c37 f5bd ce0d 2e3b 1a3d 973c ffbc 83bd
00000010: 6dc2 0bbd d4b8 1fbd f4ba 78bd f5d8 afbc
00000020: 48f5 6b3b b7ab b5bd 0963 003e b161 68bc
00000030: a753 aa3d 4c9f e93d 6069 9e3b f025 bd3c
00000040: 5db1 153d a96e edbd a249 bcbc ca92 b1bd
00000050: 848d 87bd 21d5 933d 89c2 e1bd a189 7d3c
00000060: 82e1 1cbd 4d3f afbd 6b9c 4cbc b175 18bd
00000070: 008c 023e 853b 303d 5db5 fbbc b90a 33bc
00000080: 4169 d2bd d85b 493c 818b 47bd cb74 edbd
00000090: 69fc cb3d 4669 dfbd 60c7 75bd 466d d5bd
000000a0: 88d0 08be 7426 73bd 2d99 623d 1e21 97bd
000000b0: 1b59 13bc 5edd 46bd 60e5 cfbd 164d debd
000000c0: 3d50 fcbd 07c4 df3d b800 e13b f60f e1bc
000000d0: 9910 e3bd 4278 d2bd feb0 31be c613 2abd
000000e0: 0111 09be 0f69 433d cbc2 bd3d 5afc 6bbd
000000f0: dbce b83d 7e0e a1bd 19ca 163e 8c91 e33d
00000100: 7ea5 4a3d c314 39bd ff1d 9cbd ec6a 47bd
00000110: 1a7c 173c 6348 0a3e 5699 87bc a1c7 b63d
00000120: a3f0 333d 0e9f c13d 1bc1 7ebd 3115 63ba
00000130: a398 bdbd cfca cebc 6d7e 3a3b 6779 09bd
00000140: e287 0dbc c693 a33d 1237 97bc 3cbd 0d3e
00000150: bc38 15bd f6cc 88bd 383e 4a3d 22bd 2a3d
00000160: 939c b3bd e0fa 25bd 198f 6f3d 9525 cf3a
00000170: ab3e febd 69b1 2a3e b97b 063d 4021 d0bd
00000180: 7298 b63d ad17 8cbb 884a a93d 9ce4 1d3d
00000190: 0734 75bc e4cc 783c 73d8 20be a241 b63c
000001a0: 263e eabc d690 77bd 3dc6 0dbe 3553 aebd
000001b0: 45e7 e2bd 4f20 ef3d 936b e7bd 0aec 6fbb
000001c0: 6d9c ed3d 849f 35be e620 61bd 714c c4bd
000001d0: 45a7 503d 7e23 b33d 819c e23d 6cee 5e3d
000001e0: 4094 0cbc caf0 f73c 492e e1bc 5bff 44be
000001f0: 4035 babd 26fb d33c b2c7 17be 70bb b43d
00000200: d4c3 f9bc d9c1 a1bd f0f9 eebc 6dc8 5c3d
00000210: 9ea0 45bd 261e 37bd e578 91bc 330f d9ba
00000220: 2c05 e03d 4796 4dbd 4426 b4bd 8727 2e3a
00000230: 9961 5bbd 1ad9 b23c f7d3 e6bd adc3 ba3d
00000240: 44e0 ffbd d863 6c3d 457b e1bd c06e d23c
00000250: f561 e0bc 3052 abbd 94cc 90bd 0c5e 0e3e
00000260: 7029 79bc c53c 40bd 21ef a43d 1658 d6bd
00000270: 21f8 79bb e4a4 fe3a ad49 a23c cb3f 92bd
00000280: 15b7 bebd 46dc dc3d 224f 6a3d 5edd c33d
00000290: 381f 87bd a433 c8bd b4ce 6ebc 2f1d c2bd
000002a0: d108 8cbd d5ae fa3d 06e2 323d 1d99 073d
000002b0: 0cea a7bc 8ed3 883d b12d 29bc dac9 40bd
000002c0: 89e2 c6bb 80e0 9c3d 9355 25bd f3da cb3d
000002d0: f89b 853d 4a9b 8bbd 947c 743c 288b 663d
000002e0: ccea 32bd ec49 2a3d 2fcf 92bc ccc5 153d
000002f0: 0cc6 cf3d dade d73b 6a4f 93bc 29e3 5a3d
00000300: 25e4 eabd fdbe 80bd 2fe7 0f3d 2e34 713d
00000310: 1e7d be3c 27e5 2cbe 1926 2cbe 1581 e4bd
00000320: 7937 07bc 5215 0fbd d4fd 203d 385c 863d
00000330: edb8 b43d 9c7c 31be a09f b6bd 7077 c0bd
00000340: 11b5 733c b758 04bd b077 c73d 045d 9fbd
00000350: e475 eabd 5ac9 98bd 48c3 943d 8af7 013d
00000360: 40c0 fdbd 711c f4bd 286d c5bd 3ffd 273d
00000370: c2dc fb3d 860d 20be 56ac d6bd e0d1 6a3b
00000380: 8fb6 203d 0acd 22bd 5f8f 46bd 0e6c 903d
00000390: 6d4e a3bb 7c08 413d 7827 52bb a34c f63c
000003a0: 4182 79bd fad6 86bd 9852 3bbe 442f 053e
000003b0: 664e cc3c e8c0 ddbc 85f9 5abd 4373 9dbc
000003c0: 1b76 6e3c 5eff 34bd c88f 723d b1e6 453d
000003d0: d567 e8bd a827 373c ce8b 69bd f46e f0bd
000003e0: b286 d2bd 0424 50bd 179f 0cbe fcb8 063c
000003f0: 9f8c 823d cf5c 77bd c208 6e3d 064a 7c3d
-0.119734615 0.0026558521 0.018461753 -0.064325325 -0.034120966 -0.038994625 -0.060725167 -0.021465758
0.0036004353 -0.08870643 0.12537779 -0.014183448 0.08316737 0.114073366 0.004834339 0.02308938
0.0365461 -0.115933724 -0.02298433 -0.08670576 -0.06618789 0.072183855 -0.11023433 0.015474708
-0.038301 -0.085569955 -0.012488465 -0.037221614 0.12748718 0.043025512 -0.03072613 -0.010927849
-0.10273982 0.012289964 -0.048717026 -0.11594542 0.09960253 -0.10908751 -0.060004592 -0.10421233
-0.13360798 -0.059362844 0.05532186 -0.073793635 -0.008993412 -0.048550956 -0.10151172 -0.10854547
-0.12319992 0.10926061 0.0068665408 -0.027473431 -0.1108715 -0.102768436 -0.17352673 -0.041522764
-0.13385393 0.047707614 0.092656694 -0.057613708 0.090238295 -0.07864092 0.14725532 0.11111745
0.049474232 -0.045185816 -0.07622909 -0.048685953 0.009245897 0.13504176 -0.016552608 0.08924795
0.04393066 0.094541654 -0.06219588 -0.00086625206 -0.09257629 -0.025243191 0.0028456703 -0.033563044
-0.008638354 0.0798717 -0.018458877 0.13841718 -0.03643106 -0.06679718 0.049375743 0.041684277
-0.087700985 -0.040522456 0.058486078 0.0015804047 -0.12414297 0.16669239 0.032832835 -0.10162592
0.089157954 -0.0042752833 0.08266169 0.038548097 -0.014966018 0.0151855685 -0.15707569 0.022248093
-0.028594088 -0.06044086 -0.13845153 -0.08511964 -0.110792674 0.11676084 -0.11299815 -0.0036609196
0.116021015 -0.17736632 -0.054963015 -0.095848925 0.05094077 0.08747004 0.11065007 0.054426596
-0.008580267 0.030266184 -0.02748789 -0.19238035 -0.09092188 0.025876593 -0.14822271 0.08824813
-0.030488886 -0.07898302 -0.029171914 0.05390208 -0.04824888 -0.044706486 -0.017757842 -0.0016560316
0.109384865 -0.050192144 -0.08796361 0.0006643463 -0.053559873 0.021832038 -0.11270898 0.091193534
-0.12493947 0.057712406 -0.1100984 0.025687575 -0.02739046 -0.083652854 -0.0707027 0.13903064
-0.015207633 -0.046932954 0.08053423 -0.1046602 -0.003814228 0.0019427803 0.019810522 -0.07141074
-0.09312264 0.10784201 0.057204373 0.09563707 -0.065977514 -0.09775475 -0.014575649 -0.094782226
-0.06837619 0.12240378 0.043672584 0.033105005 -0.020497344 0.06680976 -0.010325835 -0.0470675
-0.0060694856 0.076600075 -0.040364813 0.099538706 0.06523889 -0.068167284 0.01492228 0.056285053
-0.04368095 0.041574404 -0.017921058 0.036565587 0.10145196 0.0065878453 -0.017982204 0.053439293
-0.11469296 -0.06286428 0.035132583 0.058887653 0.02325302 -0.1688429 -0.16811408 -0.11157433
-0.008252972 -0.034932442 0.03930457 0.06560558 0.08824334 -0.17332691 -0.08917165 -0.09397781
0.014874713 -0.032311168 0.097396255 -0.07781413 -0.11448267 -0.0746028 0.072638094 0.031730212
-0.123901844 -0.11919487 -0.096399605 0.041013 0.122979656 -0.15630159 -0.10482089 0.0035830662
0.0392366 -0.03974632 -0.048476573 0.0705186 -0.0049837143 0.047127232 -0.0032066982 0.03006584
-0.060915235 -0.06583972 -0.18293226 0.13006312 0.024939727 -0.027069524 -0.053460617 -0.01922
0.014554526 -0.04418885 0.05921915 0.048315708 -0.113479294 0.011178888 -0.057018094 -0.11739913
-0.10279597 -0.050815597 -0.13732563 0.008222815 0.063744776 -0.060391244 0.05811382 0.06159403
