do_tp_zara1_final.pt (torch, 156437 bytes, 26 tensors)

linear_enc.weight f4 [64, 2]
000000 67 2f cf 3e e5 09 bc be f5 2a 00 bf 06 b3 21 bf
       0.40465853 -0.367263 -0.5006555 -0.63163793
000010 27 c9 d8 be 0b 51 07 3f c7 9f ec be e9 5f 96 3e
       -0.42340967 0.52858037 -0.4621565 0.2937005
000020 54 ab db bd 25 c8 9d bd b7 c8 20 3f eb 2d fa bd
       -0.107260376 -0.0770419 0.62806267 -0.122157894
000030 a2 b3 a7 3d fb 0b 58 bf 00 58 62 3c 2b 9a 79 be
       0.08188559 -0.8439328 0.013814926 -0.24375217
000040 ae 34 07 bf e9 3e 85 3e d3 3e fd be de b1 48 3f
       -0.5281476 0.2602456 -0.49461994 0.78396404
000050 de 38 01 bf ed a6 34 3f 49 04 5b be be 8b 43 bf
       -0.504774 0.7056721 -0.21388353 -0.76385105
000060 ac 43 96 3e 8a 84 03 bf 38 1a a6 3e a2 39 0c bf
       0.29348505 -0.51374114 0.32441878 -0.5477544
000070 f8 97 5c 3d 91 dc 2c bf e2 f8 15 3f fc 89 2b 3f
       0.053855866 -0.6752406 0.5858289 0.6700742
000080 95 19 3b bc e4 c9 a0 be f5 7e f2 3d db e4 09 3e
       -0.011419673 -0.3140403 0.118406214 0.13466208
000090 de a7 94 bd 1c c1 b3 3e 4c 78 c8 be 33 fb 32 bf
       -0.072585806 0.35108268 -0.3915428 -0.6991455
0000a0 40 03 12 3f ab 9c 30 be c5 9c b8 3e a6 98 93 be
       0.5703621 -0.17247264 0.36057106 -0.288274
0000b0 67 63 cd be b1 04 9b be 4b 1a 91 3e 4b d5 e7 be
       -0.401149 -0.30277017 0.28340372 -0.45279917
0000c0 cd 2f 71 be 31 70 ea 3e ca ad 83 be 79 fc f8 be
       -0.23553391 0.4578872 -0.25718528 -0.4863012
0000d0 93 5e b5 3e 45 60 07 3e c1 cd 3f bf 6a 92 bb 3e
       0.35423717 0.13220318 -0.7492333 0.36635143
0000e0 94 bc b5 be b6 df dc be 46 5e 28 3f 14 de 4b 3d
       -0.35495436 -0.43139428 0.6576885 0.049772337
0000f0 22 1c 0f bf 25 63 f6 be 0f a8 d1 be 44 30 58 3f
       -0.559023 -0.48122516 -0.4094853 0.8444865
000100 ff a4 d2 be da 6b e0 bd 34 1b a2 be 2b 0f e8 3e
       -0.41141507 -0.10958071 -0.3166138 0.45324072
000110 69 90 ee 3e b6 36 41 bf 74 d6 0b 3e ff 7d 6a 3e
       0.4659455 -0.7547411 0.13656026 0.22899626
000120 da 25 15 3f d9 61 5b bf 87 ef fc 3e cf b8 17 bf
       0.5826088 -0.8569618 0.49401495 -0.5926637
000130 ee 8c 86 3e 3d 05 87 be 9c 10 14 bf b5 fa e8 3e
       0.26279396 -0.26371184 -0.57837844 0.45503774
000140 77 35 b4 bd 90 1b 22 bf 62 aa 2d 3e 70 3c 28 bf
       -0.0879926 -0.6332331 0.16959527 -0.6571722
000150 c4 f6 fc 3e c4 c0 08 3f 60 f1 04 3f 44 5b 26 be
       0.49407017 0.53419137 0.5193081 -0.16245753
000160 09 1f 04 3e d1 5c 25 3f 34 22 d0 3e 50 01 b1 3e
       0.12902464 0.6459475 0.40651095 0.34571314
000170 2d 5f 21 3f 8e 87 a7 bc f2 eb c5 3e 76 53 0c 3f
       0.6303585 -0.02045038 0.38656574 0.5481485
000180 6f 42 36 3e aa 1d 4b 3f 0b 24 74 be 86 e9 3b 3f
       0.1779878 0.7934214 -0.23841874 0.73403203
000190 92 f9 2f bf 42 fc 1b bf 06 46 1d bf 03 b8 ac 3e
       -0.6874019 -0.6093179 -0.6143497 0.3373414
0001a0 8a 06 30 3d 2a 16 2c bf 13 51 13 bd 43 e7 62 bf
       0.042974986 -0.6722132 -0.03596599 -0.8863413
0001b0 d0 89 22 3f 2f 6e 25 3e 93 36 3d bf a2 35 0c bf
       0.63491535 0.16155313 -0.739114 -0.5476934
0001c0 66 1a 03 3f 95 fc 81 bc f7 f8 1f be cf 73 1a be
       0.51212156 -0.01586751 -0.15622316 -0.1508324
0001d0 e7 bf da be 8c c9 f5 be fc d4 27 bf fa 4b c7 3e
       -0.42724535 -0.4800533 -0.65559363 0.38925153
0001e0 94 27 1f 3f 31 c8 00 3f d4 0f 47 bf 62 93 ee 3d
       0.62169766 0.5030547 -0.77758527 0.11649205
0001f0 e1 52 b0 3e f5 51 5c be ed 92 2d 3f bf df 26 3f
       0.34438232 -0.21515639 0.67802316 0.6518516

linear_enc.bias f4 [64]
000000 64 2f 0a bf 8f c1 3f 3e d3 f7 24 3d 39 f8 1d 3f
       -0.5397856 0.1872618 0.040275406 0.6170688
000010 df 0c 15 be de cc ec be 77 0a 0e 3f 8d 5b 21 3f
       -0.14555691 -0.4625005 0.5548472 0.6303032
000020 fd 2b e1 be 12 ca f9 3c 2a 9e 94 be c8 67 2b 3e
       -0.43978873 0.030491862 -0.2902692 0.16738808
000030 48 97 2f 3f 39 6f 03 bf 6a d7 19 3f e6 a4 13 3f
       0.6859021 -0.5134159 0.6009432 0.5767349
000040 37 5e e5 be ac 97 33 3f 92 b2 97 be 1e bc 74 3d
       -0.44798443 0.7015331 -0.29628426 0.059749715
000050 0f de b6 be f1 04 c1 3d 91 03 07 bf 26 38 d0 3e
       -0.35716292 0.094247706 -0.52739817 0.40667838
000060 fc 04 ef be 5a 59 23 bf cf 1b ef bd 47 64 0e 3f
       -0.4668349 -0.63808215 -0.11675226 0.5562176
000070 70 89 d7 be 1c 5a 80 be b3 13 3b 3d 0c a4 07 3f
       -0.42097044 -0.25068748 0.045673084 0.5298469
000080 5e 1f c9 3c 22 fb 06 3e f6 91 27 bf 8b a0 29 bf
       0.02455109 0.13181737 -0.65457094 -0.66260594
000090 13 3a be be d5 41 f0 3e 8d 9a 06 bf 54 c2 d8 be
       -0.37153682 0.46925226 -0.52579576 -0.4233576
0000a0 48 c2 1c bf a3 70 0c bf 10 22 73 3c fc a9 29 3f
       -0.6123395 -0.5485937 0.014839664 0.66275
0000b0 22 43 17 3f 5e b0 2b bf 47 a7 8f be 86 db 0a 3f
       0.5908681 -0.6706599 -0.2805731 0.54241216
0000c0 86 34 7e 3e 49 df e0 bd 50 b3 d6 be 6f de c1 3e
       0.24824724 -0.10980088 -0.4193368 0.37865016
0000d0 f9 b1 19 3f f9 72 4a 3e d0 9a cc 3e 0a b6 c3 be
       0.6003719 0.19770421 0.39961863 -0.38224822
0000e0 05 a0 d9 be 98 e4 8a 3e 55 84 41 3e 5d 54 13 3e
       -0.42504898 0.27127528 0.18898137 0.14387651
0000f0 d9 62 52 3e a8 1b 3f 3d df 02 c9 be 7e e8 17 bf
       0.2054552 0.046657234 -0.39260003 -0.5933913

encoder_lstm.weight_ih_l0 f4 [128, 64]
000000 f5 7f ab bd ca 0f 64 3d f6 09 06 3e df bd 02 3d
       -0.08374015 0.05567912 0.13089737 0.031919356
000010 74 77 44 bd 62 c1 c0 bc c6 15 87 3d 29 fa e2 bd
       -0.047965482 -0.023529712 0.0659595 -0.110828705
000020 51 d9 ef 3d 40 fd 98 3d ea c1 ad bd c4 84 bd bd
       0.11711372 0.074701786 -0.08484252 -0.09253839
000030 ce 1b ed bd 39 46 2e bd 8e 58 2b 3e 4e 9e 73 3a
       -0.11577569 -0.04254744 0.16733 0.00092933036
000040 3b 2b 32 be e4 16 f0 3b 35 ee de 3d 18 39 a5 bd
       -0.17399304 0.0073269475 0.10885278 -0.080675304
000050 92 6f d1 bd 17 46 18 3e f2 52 b8 3c 85 2e a0 bd
       -0.102263585 0.14870487 0.022500489 -0.07821373
000060 57 6d 3f be c7 04 ee bc 1a 80 a4 bc d6 f7 8f bc
       -0.18694054 -0.029055012 -0.020080615 -0.017574232
000070 10 da de 3c cb ff b0 bd 92 fc 10 be 85 b4 85 bd
       0.02720359 -0.08642539 -0.14158848 -0.06528572
000080 ea 6c 05 be fd 60 1e be 88 15 16 3e 66 ec ed bd
       -0.13029829 -0.15466686 0.14656651 -0.11617355
000090 ab 2e 90 3d 56 17 b4 3d 99 e0 fb 3d b8 e4 71 bd
       0.07040151 0.087935135 0.12298698 -0.059056014
0000a0 26 3a ff 3d 24 c7 ad bd 89 85 97 3c 33 54 49 3d
       0.12462263 -0.08485249 0.018496292 0.049152564
0000b0 ce 03 c9 3d fb 73 3b bd 87 38 ab bd 13 a2 76 bc
       0.09815179 -0.045764904 -0.08360391 -0.01505329
0000c0 9c 13 23 3c be 8b 02 3d 45 94 24 bd a6 bd 9d bd
       0.009953406 0.03187155 -0.040180463 -0.07702188
0000d0 c1 af c3 3d 76 16 28 3e 94 70 ed bd 54 46 48 3c
       0.09555007 0.16414818 -0.11593738 0.012223799
0000e0 c2 64 ef bd 00 41 95 bc f8 a8 22 3e 70 23 f6 bd
       -0.1168914 -0.018219471 0.15884769 -0.12018478
0000f0 3c be 59 bd 3a b7 06 3e ea af 8b 3c ab 2b d0 bd
       -0.053159937 0.13155833 0.017051656 -0.10164579
000100 9b 07 06 3c 0b 06 c7 3d e7 e0 d2 bb ba 2e 28 3d
       0.008180524 0.097179495 -0.006435502 0.041060187
000110 6c 6b 73 3d 84 80 17 3e 55 27 bb 3d 54 d0 7e bd
       0.059428617 0.14795119 0.09138361 -0.062210396
000120 b9 d2 09 bd 3a be f3 bd d1 cb 91 3d 11 82 eb 3d
       -0.033648226 -0.11901517 0.07118953 0.114994176
000130 38 c1 e5 bc 98 7f 34 be 44 be 39 3d f9 d2 69 bd
       -0.028046235 -0.17626798 0.045347467 -0.057085965
000140 79 ab ab 3d 3e 7a 52 bd 91 b9 10 3e f3 51 ac 3d
       0.08382315 -0.05138611 0.14133288 0.08414068
000150 61 34 07 be 40 49 3a bd 66 2d e9 bd 69 fb 14 bc
       -0.13203575 -0.045480013 -0.11385612 -0.009093144
000160 13 90 91 3d 0b f1 fa bd c0 02 ec 3d b8 7d 29 3e
       0.07107558 -0.122530065 0.11523962 0.16551864
000170 22 da 6a bd 2e 19 15 be 4f af ca 3d 1d 07 00 bc
       -0.057336934 -0.14560387 0.09896719 -0.007814196
000180 1d 33 f6 bd 05 a2 cb bd c0 ca f1 bb 6d 6b 20 3e
       -0.12021468 -0.09943012 -0.007378906 0.1566598
000190 6b 75 2a 3c 5a 6b f9 bd 0f 15 d1 bd 51 18 0e 3e
       0.010403971 -0.12178679 -0.10209095 0.13876463
0001a0 a4 37 2a be cc 65 1f 3e 9e 3b 90 3d 4c 1a d5 bd
       -0.16622788 0.15566176 0.07042621 -0.10405406
0001b0 8b a1 c6 3d 3a 36 fb bd 98 f3 a2 3d 75 33 90 3d
       0.096987806 -0.12266202 0.07956618 0.07041065
0001c0 02 55 79 bd 69 c1 10 bd a5 2e 5b bd 54 fd 64 bc
       -0.060872085 -0.0353407 -0.05351128 -0.013976414
0001d0 9c 66 65 bd 55 9a b9 ba 6a e8 cf bd f8 b6 4e 3e
       -0.05600606 -0.0014160374 -0.10151751 0.20186985
0001e0 11 69 f4 3c 75 89 2c 3e 46 e8 5c 3d f0 2d 53 bc
       0.029835256 0.1684931 0.05393245 -0.01288937
0001f0 d5 2c c4 3d d2 a3 de 3d 63 97 0e be 5b 17 b4 3d
       0.095788635 0.1087109 -0.13924937 0.08793517
000200 ab b8 83 bc e6 3d 24 3d 97 a1 3e be d1 af bf bc
       -0.016079267 0.040098093 -0.18616329 -0.023399265
000210 f3 72 6d bd 5a c8 a5 bd 74 8d 1b 3e ac d8 79 3d
       -0.057970952 -0.08094855 0.15190679 0.06099765
000220 40 1c 24 be 68 31 99 be 37 89 8b be cb f9 fd 3d
       -0.16026402 -0.29920506 -0.27253124 0.1240116
000230 bf e2 ad bc 61 7d d4 3d 3b 6f c7 3c f3 00 ac bd
       -0.021226285 0.10375477 0.024345031 -0.083986185
000240 e1 a3 25 be 91 69 57 3e 49 b0 18 be 73 ad 14 3e
       -0.16175796 0.21036364 -0.14910997 0.1451929
000250 94 7c 25 bd 0d f2 74 3e 77 a0 ac bc 44 74 18 3e
       -0.04040201 0.2392046 -0.02107261 0.14888102
000260 be 87 59 be f6 7e 58 bc ef c1 df 3c 0c ef 29 3e
       -0.21243188 -0.013213864 0.027314154 0.16595095
000270 a2 6c 62 be d6 4c 67 3d a1 67 49 3e 90 8d 61 bc
       -0.22111753 0.05646976 0.19668438 -0.013766661
000280 a8 59 ce 3d ad 76 cd bd b0 c1 34 be b5 f7 a4 3c
       0.10075694 -0.10032401 -0.17652011 0.020137647
000290 b0 f4 d8 3d 9a 7f fb 3d ba ca 04 be 71 17 dd 3c
       0.105935454 0.122801974 -0.12967959 0.026988717
0002a0 cc bb 69 bd 19 a0 e6 3d 5f f3 2d be c4 5d 93 bd
       -0.057063863 0.11261005 -0.1698737 -0.07195619
0002b0 79 d4 3d 3e ac 12 83 3d 75 a3 16 bd 0c 16 27 3e
       0.18538083 0.06400046 -0.03677698 0.16317004
0002c0 0b a9 d9 3d f8 66 60 be a1 cb 7c bd 04 a9 05 3d
       0.106279455 -0.2191428 -0.061717633 0.03263189
0002d0 73 4e 82 3d 7d a5 e1 3d 58 f1 ee 3d 19 cd 37 3d
       0.06362619 0.110178925 0.116671264 0.04487333
0002e0 06 d2 e2 bd fd f0 49 3e fc b2 e0 ba 6e ae 2a 3c
       -0.11075215 0.19720836 -0.0017143185 0.010417564
0002f0 d1 e4 d6 bd 59 74 0c be db 0d 37 be 43 9d 0b be
       -0.10492862 -0.13716258 -0.17876379 -0.1363421
000300 40 b2 5a be f0 60 2d 3e f9 dd c0 3c ba 78 4d 3e
       -0.2135706 0.1693151 0.023543345 0.20065585
000310 03 b9 48 3d d2 9b 3b 3d 24 da 03 3e 0c 81 49 3e
       0.049004566 0.0458029 0.12876183 0.19678134
000320 c2 ce c5 bc dd 4e 89 be f5 fc 68 be 4b 6a 76 3d
       -0.024146441 -0.2681798 -0.22752745 0.060159963
000330 98 c7 8c bd bb 2d f7 bc 02 cc cd bc e5 da 71 3d
       -0.06874007 -0.030173173 -0.025121693 0.059046645
000340 cf dc 1f be 78 3d 1d 3e 88 f2 b4 bc 75 98 f4 bc
       -0.15611576 0.1535548 -0.022088304 -0.029857853
000350 a0 8c 5c be 37 47 ee 3d 73 4a 7c 3d e6 98 af 3a
       -0.21538019 0.11634677 0.061594438 0.0013397008
000360 af d2 f3 bb b4 cf 84 bd 85 db 57 bc 27 53 a7 bc
       -0.007440887 -0.06484929 -0.013174896 -0.020425392
000370 b9 a1 33 bd 9a 80 9b 3c 6e 64 54 3d 62 78 d4 bd
       -0.043855403 0.01898222 0.05185359 -0.10374524
000380 03 18 b1 bd b8 39 00 be 2b d8 eb bc d7 fc ff 3c
       -0.08647158 -0.12522018 -0.0287896 0.031248493
000390 ab 5a fd bd 2f 47 c4 bc 47 26 4c be 0f fa 1e 3d
       -0.12370809 -0.023959724 -0.19936477 0.038812693
0003a0 04 5c fb bd b4 75 ce bd 8d f1 8b 3d c2 14 78 3e
       -0.1227341 -0.10081044 0.068331815 0.24226668
0003b0 74 3a c3 3d 95 f9 5c be 50 59 d9 3c 50 a2 d5 bd
       0.095326334 -0.21579583 0.026531845 -0.10431349
0003c0 11 f9 45 3e 35 89 87 be 24 3c a1 ba b8 c9 d9 bd
       0.19333293 -0.26471868 -0.0012301248 -0.10634178
0003d0 6c bf 07 3d cc ed 46 3e ce e1 54 3e ad 8e d1 bd
       0.03314154 0.1942665 0.20789263 -0.10232291
0003e0 29 a2 18 3d ea fa e4 3c 7c 42 fe bc f8 b1 a0 3d
       0.037264023 0.027951676 -0.031037562 0.07846445
0003f0 de 67 b1 bd 71 57 2d bd ca f3 22 be 94 27 be bd
       -0.08662389 -0.04231972 -0.1591331 -0.09284893

encoder_lstm.weight_hh_l0 f4 [128, 32]
000000 e7 14 a9 3d 68 32 56 bd 55 19 e7 bd c6 46 14 3e
       0.0825594 -0.052294165 -0.112841286 0.14480123
000010 9b 11 11 be 84 24 14 3e 45 64 5f 3e 43 4f 8b bd
       -0.14166872 0.14467055 0.21815594 -0.06802227
000020 5e 59 a6 bd 7a 98 1d 3e b9 e8 e7 3d 9e bf 22 be
       -0.08122514 0.15390196 0.11323685 -0.15893409
000030 9c ce 65 3d 27 94 01 3e a4 7f aa 3d bc c9 09 be
       0.05610524 0.12654172 0.08325127 -0.13455862
000040 9e 3a 5e bd 47 fa 23 be 51 cf e7 be 8a a9 b2 3c
       -0.05425512 -0.16013442 -0.45275357 0.021809358
000050 ba 24 aa 3d 86 82 a6 3d 07 5d 3f 3c dd 34 ab 3d
       0.08307786 0.08130364 0.011679894 0.08359692
000060 f5 ad 71 3d d5 f3 31 3c 9e 1b 54 3e 99 d4 ca 3d
       0.05900379 0.010861357 0.2071366 0.09903831
000070 70 f4 94 3d 0b ed 00 3e aa e4 91 bd 1f b2 be 3d
       0.07273185 0.12590425 -0.07123692 0.09311318
000080 2d 01 f3 bd 61 66 08 be 4e bf 31 3d a0 c7 13 3e
       -0.11865459 -0.13320304 0.043395333 0.1443162
000090 2a 31 32 3e 81 50 b9 bd 65 b3 4e 3e 03 88 36 be
       0.17401567 -0.09048558 0.20185621 -0.17825322
0000a0 cb ed dc bc fc 47 71 bb 51 02 19 3d ca 24 2e be
       -0.026968857 -0.0036816588 0.037355725 -0.17006221
0000b0 6d a9 9c 3d 4b a1 d8 3d c8 38 1c be cc 9f ce bd
       0.07649503 0.10577639 -0.15256035 -0.100890726
0000c0 d4 a6 13 3e 6b a6 20 3d 5a 50 e2 bd 7c 73 12 3e
       0.14419109 0.03922121 -0.11050482 0.14301866
0000d0 5e 95 ce bd 99 6b 87 bd f3 67 c5 bc b8 34 6b be
       -0.10087083 -0.066123195 -0.024097418 -0.2296933
0000e0 cf 13 2c 3e f0 98 d0 3d e2 fd a1 3e 67 1d 81 bd
       0.16804431 0.101854205 0.3163901 -0.06304436
0000f0 da 09 01 bd 4d 1f ab 3c 0e 75 cf bd 80 ba 05 bd
       -0.031503536 0.020888949 -0.10129748 -0.032648563
000100 c7 32 81 3c d8 f2 86 3e d4 9b 48 bd 27 72 d0 bc
       0.015771283 0.2635715 -0.048976734 -0.025445057
000110 fe 94 d1 3c cb e8 d5 bd 21 cf 3b be 7a e2 23 be
       0.02558374 -0.10444792 -0.18340732 -0.16004363
000120 19 96 09 be 06 9d 77 3c 77 c4 94 be 9b 5d 17 be
       -0.13436164 0.015113121 -0.2905614 -0.14781801
000130 1e 88 8c 3e 11 42 48 3d 3d ae ec 3d e3 44 e6 bd
       0.274476 0.04889113 0.11556671 -0.11243608
000140 ac ec 51 3d c2 2b 33 be 8e 9c 43 be a5 36 79 be
       0.0512511 -0.17497161 -0.1910269 -0.24337251
000150 7e 4a b2 3d 7c 45 a5 3d 7a d3 0c be 96 9a b5 bc
       0.087056145 0.08069894 -0.13752547 -0.022168439
000160 b8 b6 77 3d 3a 4c 56 3d df ae 80 3d 08 90 a1 bd
       0.06047699 0.05231879 0.06283354 -0.078888
000170 e1 53 60 3d 56 1f 49 3e 00 03 c1 bd 5b da 9a 3e
       0.054767493 0.1964086 -0.094244 0.30244717
000180 11 f7 ef bd f0 08 8d 3d 11 34 58 3c db 20 2c 3e
       -0.11717046 0.0688647 0.013196007 0.16809408
000190 84 fb 3a 3e ae b8 11 3b 1b a1 2b be 13 b6 56 be
       0.18260008 0.0022235322 -0.16760676 -0.20967893
0001a0 94 8b a8 3d 08 73 f4 bc 78 dd c1 bd 67 9e 9d bd
       0.082297474 -0.029840007 -0.0946607 -0.076962285
0001b0 75 36 02 3e c2 3b e2 bd cc 6e 1d bd 07 46 fd 3c
       0.12716086 -0.11046554 -0.038435742 0.03091718
0001c0 fc 37 85 3e af 00 e7 bd 7e 22 3c bd 4f 05 53 be
       0.26019275 -0.11279427 -0.04593133 -0.20607494
0001d0 2d 10 3d bd 29 91 14 3d 37 a7 e5 3c 50 0a 00 bd
       -0.046158005 0.036271248 0.028033836 -0.031259835
0001e0 53 ff 0e be 2e f8 ac bd 38 16 e3 bd b7 7e fd bd
       -0.13964586 -0.08445774 -0.11088222 -0.123776846
0001f0 63 9d 9a 3d 89 03 ff 3d c0 1c 55 bd 45 2a 85 bd
       0.075495504 0.12451846 -0.05202937 -0.06502203
000200 95 f6 b8 bd 08 3d 46 3d 0b 3b 4b 3d 32 d5 57 3e
       -0.09031407 0.048398048 0.049616855 0.21077421
000210 bd 74 c1 bd 99 5f dd 3d 4f 44 0f be bd 6e 09 be
       -0.09446094 0.108092494 -0.13990901 -0.1342115
000220 c7 93 d2 bd 83 5f 4e 3d 66 a3 ff 3d 5b 52 e1 bd
       -0.102820925 0.050384056 0.12482338 -0.11002036
000230 d0 8a 63 3e 68 50 3a be 5e 75 21 3e 71 35 58 3d
       0.22220922 -0.18194735 0.15767428 0.05278534
000240 a1 3d 0f 3e 60 4f 0b 3d 4a a2 1a 3e ba 17 56 be
       0.13988353 0.034011245 0.15100971 -0.20907488
000250 10 6a 1f 3c e5 8e d7 bd 66 78 66 be 01 b4 4e 3b
       0.009729877 -0.10525302 -0.22506866 0.0031540396
000260 1d cb 42 be 96 0c e9 bc 5e ef 31 bc c4 6a e5 bd
       -0.19022794 -0.028448384 -0.010860292 -0.112020046
000270 92 0f 0d bd 81 67 71 3e 61 1c 02 3c 46 a3 90 3d
       -0.034438677 0.2357464 0.007941336 0.07062392
000280 ae 58 b8 3c c4 92 15 be a2 93 14 be 9c 92 8b 3e
       0.022503223 -0.14606768 -0.14509442 0.27260292
000290 a9 c0 06 3e 80 27 18 be 88 88 ca 3b 9f 00 9b bd
       0.13159432 -0.14858818 0.0061808266 -0.07568478
0002a0 ad 90 30 be 46 11 97 bc 76 fa bf bc 5b e2 31 be
       -0.1724269 -0.018440854 -0.023434859 -0.17371504
0002b0 31 43 81 3c 54 f4 33 3d 8d 7e cf 3d 90 37 81 3d
       0.01577911 0.04393418 0.101315595 0.06309426
0002c0 e3 1f f7 bd e9 3d 7d be 45 05 1a be f2 c7 16 3b
       -0.12066629 -0.24730648 -0.15041073 0.002300736
0002d0 58 7a a1 bd 8e 05 08 3d 40 1f 2e 3d 03 32 5a bd
       -0.07884663 0.033208422 0.04251027 -0.05327035
0002e0 83 6b c2 bd 05 f6 96 bd 16 c6 e9 3c 73 48 8b 3d
       -0.094931625 -0.07371143 0.028536838 0.06800928
0002f0 2a 3f b1 bd 78 62 4f 3c b9 7c 0f bd 8e 77 18 bc
       -0.08654626 0.012657754 -0.035031054 -0.009305848
000300 37 47 ad be 8f c3 0a 3d c0 40 d7 3d 0a 0e e2 bc
       -0.33843395 0.033877905 0.10510397 -0.027594585
000310 1d 7c 96 3d 11 2a a0 3e 74 6f 06 be 9a b7 67 be
       0.073478915 0.31282094 -0.13128453 -0.22628632
000320 32 8d a2 be fa 79 00 be cd 5d 92 be 0e 96 b4 be
       -0.31748348 -0.1254653 -0.2858719 -0.35270733
000330 3a 7f 8c 3e c0 20 87 bd 12 c5 c2 3d 71 3a d0 3e
       0.27440816 -0.065980434 0.095102444 0.40669587
000340 a6 e6 64 3d f1 5e 6e be f1 43 3e be 84 46 8a be
       0.055884026 -0.23278405 -0.18580605 -0.27006924
000350 6e 62 ac 3d e4 fb 3d be bf 97 dc 3c b8 69 bb 3d
       0.084172115 -0.1855312 0.026927827 0.091510236
000360 2c 14 c3 be 96 75 74 3e 8e 1a bd bd 28 bd 38 3e
       -0.38101327 0.2387298 -0.092335805 0.18040907
000370 7c 3b 01 be cc 4b b3 3c 68 22 c4 bd 42 a8 ee bd
       -0.12620348 0.021886729 -0.09576875 -0.116531864
000380 08 96 b1 3b d9 02 57 3d ae fe c5 bd ae 50 1f be
       0.0054194964 0.05249295 -0.09667717 -0.1555812
000390 60 b5 64 bd 12 79 fe bd ba 13 40 be 05 c5 21 be
       -0.055837035 -0.12425436 -0.18757525 -0.15797813
0003a0 2b 53 78 3d 33 e4 11 bd cc cb 6f 3b 25 6a 3f be
       0.06062619 -0.03561802 0.0036589978 -0.18692835
0003b0 c8 bd b1 bd de d9 fb bc 4c 30 3a bd 44 ea 23 be
       -0.08678776 -0.030743536 -0.045456216 -0.16007334
0003c0 5c fb 02 be 02 45 e8 3d 74 7b 8b be 1d 35 93 bb
       -0.12791198 0.11341287 -0.27242625 -0.0044924156
0003d0 80 aa 4c 3e ac e6 a8 bd 9c d7 90 b9 6d 40 63 3e
       0.19986916 -0.08247122 -0.00027626462 0.22192545
0003e0 fe 49 f1 bd bf c6 ed 39 ae fd 5d bd 5a 44 bc 3c
       -0.11781691 0.0004535224 -0.054197006 0.022981811
0003f0 1e aa 41 be 63 8e cb 3d cf 56 45 3e 82 3d 65 39
       -0.18912551 0.099392675 0.19271396 0.00021862055

encoder_lstm.bias_ih_l0 f4 [128]
000000 13 51 4c bd 47 6e 34 be eb 71 20 3e 62 1b e4 3d
       -0.049882006 -0.17620192 0.15668456 0.11138035
000010 db a5 cd 3d 79 9c c5 3d f8 d6 94 3e 9a 59 f2 3d
       0.100414 0.096489854 0.29070258 0.118334964
000020 f8 75 ec bd a9 78 2e 3d e3 6b 88 3d 0e ff 8b 3d
       -0.11545938 0.04259554 0.06661203 0.06835757
000030 d7 05 9d bd 1c 3b a8 3d 7a 11 c6 bd 96 81 8e 3a
       -0.076671295 0.08214399 -0.09671302 0.001087236
000040 6e 76 30 3e a3 32 db 3d 60 9c 4e 3e 65 fd 1b be
       0.17232677 0.107030176 0.2017684 -0.15233381
000050 b9 f8 19 3e f3 3b c8 ba d0 ba ef 3d d9 b8 b0 3c
       0.15036286 -0.0015276655 0.117055535 0.021572517
000060 1a 79 15 bd 2e e1 47 bd 4c 74 d9 3c 60 6a 00 3c
       -0.036492445 -0.048798732 0.026544712 0.007837862
000070 57 5d ee 3d f5 94 cd bd 14 9c 66 bd 00 cf c1 3d
       0.11638897 -0.10038177 -0.05630119 0.0946331
000080 7e 56 29 3e 3d 7d 80 3d c5 b0 ce 3c 7b 9e d4 3d
       0.165369 0.06273887 0.025230775 0.1038179
000090 7c 01 bf 3d 07 6e 89 bd 99 eb 07 3d 09 dc 9f 3d
       0.09326455 -0.06710439 0.033183668 0.0780564
0000a0 a5 4d 1b 3e ea b4 23 be e7 7a cd 3d bf d4 41 3d
       0.15166338 -0.15986982 0.100332074 0.04732203
0000b0 26 2c c6 bd a7 9e 5a bc ef 0c 38 3d a1 5f 48 3e
       -0.096763894 -0.01334349 0.04493421 0.1956773
0000c0 8a b6 0b 3e 7d cc 02 bd 84 2e 28 be 55 dc 0c be
       0.13643852 -0.031933296 -0.16423994 -0.13755925
0000d0 31 d4 12 be 7b 18 46 3d 42 19 eb 3d 71 7b 91 3d
       -0.14338757 0.04836319 0.11479427 0.07103623
0000e0 d0 be 15 3e 55 21 01 bd 2b 03 34 be 68 ec 30 3e
       0.1462357 -0.03152593 -0.17579333 0.17277682
0000f0 16 57 87 bd 17 1a 32 be 5d 86 2f 3d f3 3e 10 3e
       -0.06608407 -0.17392765 0.04285275 0.14086513
000100 47 0e 38 be 37 1a 7d 3d 8c 22 31 3e 0b e3 79 3d
       -0.17974196 0.06179258 0.17298335 0.06100754
000110 62 67 0f be 7a 26 08 be f9 33 34 bd 25 33 91 3d
       -0.14004281 -0.13295928 -0.043994877 0.07089833
000120 25 95 8f 3d 2a 25 17 be 2d af 20 be 5c cc 99 bd
       0.07010869 -0.1476027 -0.15691824 -0.075096816
000130 6a 4f 72 3c 38 dc da bd 5f 5c 31 3e f3 f9 e4 bc
       0.014789442 -0.10686535 0.17320393 -0.027951216
000140 e9 60 28 3e c5 ed 4a be e2 1e 03 be a8 34 18 3e
       0.16443218 -0.19817264 -0.1280475 0.14863837
000150 46 c5 16 3e 15 c7 15 be 2c bc de 3d cd 30 ca bc
       0.14723691 -0.14626725 0.10875735 -0.024681473
000160 c1 cf 41 3d b4 35 c3 3d 3d c8 88 bd 1d cb 8a 3d
       0.04731727 0.095317274 -0.066788174 0.06777022
000170 7a fd 8f 3b f8 ab 16 3e d2 5a 17 be a2 fa 56 3d
       0.0043942304 0.14714038 -0.14780739 0.052485116
000180 cc 6e 0f be da 3e b7 3c 02 08 e9 3d c9 1c 2a 3d
       -0.1400711 0.022368837 0.113784805 0.041531358
000190 f3 26 50 bd 3d 79 1f 3e 10 8f e6 3d b9 90 21 3d
       -0.050818395 0.15573592 0.11257756 0.03944466
0001a0 69 e4 1d 3e a3 d4 bc bb 47 02 03 3e c3 74 81 bd
       0.15419163 -0.005762653 0.12793837 -0.06321099
0001b0 81 9f ed bd ff 84 0b 3e 44 9a 53 3c 07 fc 3f 3e
       -0.116026886 0.13624953 0.012915198 0.18748485
0001c0 41 9d 11 be 1e 7d bd 3d 35 07 b9 3c 11 d2 21 bd
       -0.14220144 0.0925238 0.022586444 -0.039506976
0001d0 c5 87 3e be 6f 6b 95 3c 8d bc 37 3e 7f 3e 05 3e
       -0.1860648 0.018239705 0.1794302 0.13012122
0001e0 fe d9 ca 3d d8 d2 71 3d ef 64 7b 3e 97 a5 20 be
       0.0990486 0.059038967 0.24550222 -0.15688168
0001f0 69 30 0e be 1e d6 99 3c 7e 5f 10 be ee 6d f2 3d
       -0.13885655 0.018778857 -0.14098927 0.11837374

encoder_lstm.bias_hh_l0 f4 [128]
000000 bf 4c 85 bd a7 37 44 bb 46 87 54 bd b7 8c 9b 3d
       -0.06508779 -0.0029940398 -0.05188682 0.075951986
000010 fa 61 6f 3d 32 bd d8 bd a2 40 5b 3e dd 79 4c 3e
       0.058443047 -0.10582961 0.21411374 0.19968362
000020 71 d2 75 3d d1 be d5 3d c3 29 15 3e bf 75 2f 3e
       0.060015146 0.10436786 0.14566712 0.1713476
000030 b1 00 c0 3d 16 ae 10 3e 2e e2 0d bc 36 73 03 be
       0.09375132 0.14128909 -0.0086598825 -0.12836918
000040 a8 05 0c 3e e8 51 83 bd e1 95 6f 3e 4f 16 d0 3d
       0.13674033 -0.06412107 0.23397018 0.10160505
000050 3d b4 06 3e 6e 01 07 3e f4 8b 9b bd 9e a3 a1 3c
       0.13154693 0.13184139 -0.07595053 0.019731339
000060 e7 68 28 3e 59 cf 8a bd 31 4e 69 3e 97 96 45 3e
       0.16446267 -0.0677783 0.22783734 0.19295727
000070 74 4b 8b bd 09 f5 63 3d 48 68 f5 bd bc 89 91 bd
       -0.06801501 0.055653606 -0.11982781 -0.07106349
000080 a2 29 df bd 8c 3c 28 be 91 ea 26 3e ee b4 fa bc
       -0.10896613 -0.16429347 0.16300417 -0.030603852
000090 0f 2e 45 be b8 9c 26 be a4 1d 05 3e 2e 84 60 3d
       -0.19255851 -0.16270721 0.12999588 0.054813556
0000a0 0c fd 3f bd 8c 04 e7 3d 36 a8 b5 bd 75 b4 16 3e
       -0.046872184 0.11280164 -0.08869974 0.14717276
0000b0 d9 5d bf bd 72 1e c3 3d 31 f3 42 bd 1d ce 9c 3d
       -0.09344072 0.09527291 -0.047595207 0.076565005
0000c0 68 ad 94 3d ac 4f 9c 3d d6 31 1c be 72 7a ed 3d
       0.07259637 0.07632384 -0.15253386 0.1159562
0000d0 ac 42 85 3d 92 14 ce bd 30 6a 51 be 6b b3 4b be
       0.06506857 -0.10062517 -0.20450664 -0.19892661
0000e0 3c 2d da bd c5 a1 cb bc ce 40 9b 3d 5c 4c 23 be
       -0.10653159 -0.024857411 0.0758072 -0.15947098
0000f0 5d 33 10 3e e6 79 16 3d 28 d5 c8 3b e6 f1 0e 3e
       0.14082094 0.036737345 0.006128926 0.13959464
000100 06 c9 cc 3d 09 58 b2 3d be c0 2f be cf 42 f3 bd
       0.0999928 0.087081976 -0.17163369 -0.11877977
000110 12 4e 36 be 77 cf f1 3d 32 9d e6 ba 62 e0 26 be
       -0.17803219 0.11807149 -0.0017594455 -0.16296533
000120 8c d6 05 be 70 b2 20 be 8d 0d dc bc 78 2c 97 3c
       -0.13070124 -0.15693069 -0.02686193 0.018453822
000130 de 91 e6 bd 9d 4b 17 be 6e 90 2f 3e 95 45 0c 3d
       -0.11258291 -0.14774938 0.1714494 0.034246046
000140 83 48 ac 3d 94 84 5c bd ac a1 94 bd 20 4c f7 bb
       0.08412268 -0.053837374 -0.07257399 -0.0075469166
000150 42 a7 32 bd 8d c9 d3 bb b6 de 06 be 89 b5 a3 bd
       -0.04361654 -0.0064632357 -0.13170895 -0.079936095
000160 8d 81 1f 3e 71 97 de 3c 04 62 e9 3c a8 b6 4c 3d
       0.15576763 0.027171822 0.02848912 0.049978882
000170 99 9d 15 3e 19 03 c1 3d 09 25 a5 3b b9 c2 4d bc
       0.146109 0.09424419 0.0050398153 -0.0125586325
000180 50 07 16 be 63 b6 85 bd 65 2c 2a 3e 91 64 d7 3d
       -0.14651227 -0.06528928 0.16618498 0.105172284
000190 bb a6 8f bd 43 b9 37 3d 08 a8 53 3e e9 1b 0d 3d
       -0.07014223 0.044854414 0.20669568 0.034450445
0001a0 2e f5 a1 3c 89 53 dd 3b 92 96 56 3d 2a 4b 30 be
       0.019770231 0.006754343 0.05238969 -0.17216173
0001b0 c1 59 9d 3c b4 60 2d 3e fe 60 bc ba f3 28 bd 3c
       0.019207837 0.1693142 -0.0014372168 0.023090815
0001c0 68 9a 86 3d d1 b4 27 3e 23 b5 1a 3e ec fc 08 be
       0.065724194 0.1637757 0.1510816 -0.13377732
0001d0 ed ae 01 be d2 4b 9b 3d 45 2e 0b be dc cf 1e 3e
       -0.12664385 0.07582821 -0.13591869 0.1550898
0001e0 33 94 59 3d 78 15 b6 bd 5f cf 5e bd 90 29 f8 bc
       0.05311985 -0.088908136 -0.054396983 -0.030293256
0001f0 b8 8f 89 bd cc c2 3e 3e 93 c8 d3 bd be 3c 53 bd
       -0.06716865 0.18628997 -0.10340991 -0.0515716

dest_lstm_obs.weight_ih_l0 f4 [128, 2]
000000 f2 f5 77 bd ba 06 20 bd a9 da 28 3b 7f 34 f7 bd
       -0.060537286 -0.039068915 0.0025765097 -0.1207056
000010 30 e0 70 bd 35 45 83 3d fd e4 18 3d a5 6e c8 bd
       -0.05880755 0.064096846 0.037327755 -0.09786729
000020 3b b3 42 3d f2 e3 03 be 2c 50 a9 bd 41 42 0f 3d
       0.04753421 -0.12879923 -0.08267245 0.034975294
000030 d5 16 1a be ab cc 1b be 92 00 ab 3d 45 7b 53 3d
       -0.15047772 -0.15214793 0.08349718 0.05163123
000040 28 d1 2b be 26 14 0a bd e0 ae 80 bc 94 71 34 be
       -0.16779006 -0.03371062 -0.015708387 -0.17621452
000050 a1 9d 3b 3a 6a fb 13 bd 5a 93 66 bd 57 96 cd bd
       0.00071569724 -0.03612844 -0.05629287 -0.10038441
000060 3d 09 ae bd ad 71 26 be 2f 17 3d bc 95 2c cb bd
       -0.08497856 -0.16254301 -0.011541172 -0.09920613
000070 26 15 6b 3d 20 ec 59 3d 1f 7b a7 bd 5c a8 86 3c
       0.057393216 0.053203702 -0.0817778 0.016437702
000080 7b 43 ca 3d 60 ea 02 3e 53 12 0b bd 9f 41 01 be
       0.09876152 0.1278472 -0.033953022 -0.12622689
000090 8b ec 12 bc 16 7b f0 bd 0f d9 a8 bd f2 04 14 be
       -0.008967529 -0.11742227 -0.08244526 -0.14455011
0000a0 09 0e be 3d ef 99 22 3e e1 50 b3 bb c1 e6 1d be
       0.09280021 0.15879034 -0.005472288 -0.15420057
0000b0 e5 a5 c4 bd 3f 8b 9b 3d a5 a8 6f bc f7 73 86 bc
       -0.09601954 0.075949185 -0.01462761 -0.016412718
0000c0 24 f8 92 3d 9e 67 2e be bb ee 15 be e1 b7 5b 3d
       0.07176235 -0.17031714 -0.1464185 0.053642157
0000d0 57 cf 21 be 24 1d c1 bd 80 9a 0f be 0e 4c 1e be
       -0.1580175 -0.09429386 -0.14023781 -0.154587
0000e0 97 a6 fc 3d 07 bf d9 3c 98 7c d8 3d a1 a6 31 3d
       0.12336462 0.026580347 0.10570639 0.0433718
0000f0 21 a2 91 bd f2 66 f8 3d 81 e8 af bd 13 90 d3 3d
       -0.07111002 0.1212901 -0.085892685 0.10330214
000100 e1 e7 55 3d b2 f7 eb 3d 7e 97 92 3d 0b 1e 64 3d
       0.05222309 0.115218535 0.07157801 0.055692714
000110 57 86 35 3d e2 2b 01 be 48 41 70 3d 63 f9 9a bd
       0.04431757 -0.12614396 0.058656007 -0.07567098
000120 5d ca 4d 3b f2 05 b5 bd 83 98 1a be db 15 91 3d
       0.0031401135 -0.088390246 -0.15097241 0.07084247
000130 97 75 b5 bd 4c 67 da bd f4 dc ac bd cb 38 2c bd
       -0.08860319 -0.106642336 -0.08440581 -0.04204635
000140 dc 9b b4 3d c2 ff 63 3d 4b 23 39 be 2e 5c 18 be
       0.0881879 0.05566383 -0.1807987 -0.14878914
000150 d7 3e 0b be 44 48 c4 3d d9 d0 b1 bd 30 71 08 3e
       -0.1359819 0.09584096 -0.08682413 0.13324428
000160 c8 f9 a6 3d 13 be 4b 3c 6d 7c 0c 3d c7 65 fc 3d
       0.08153111 0.012435454 0.03429835 0.123241
000170 e0 24 95 bd 8f 11 8f 3b c3 6e 1e 3d 99 a2 56 3d
       -0.07282424 0.004366107 0.03867985 0.05240116
000180 da a8 86 bc a6 fc 47 3b 74 59 52 3d 02 f0 8e bd
       -0.016437937 0.003051558 0.05135484 -0.069793716
000190 ce 70 e2 bc 6e e0 51 3d 8b a7 53 3c 17 aa 0a 3e
       -0.02764168 0.051239423 0.012918363 0.13541447
0001a0 e1 01 95 bd 92 64 e7 bd 74 21 86 3d b9 db b5 bd
       -0.07275749 -0.11298479 0.065493494 -0.088797994
0001b0 68 6a 91 bd 83 cc 5c 3d 63 78 cb bd 12 1e 22 3b
       -0.071003735 0.053905975 -0.09935071 0.0024737162
0001c0 5c 2f ae 3d 03 82 c0 bd 7f 91 af 3d e1 f3 10 bd
       0.08505127 -0.09399798 0.08572673 -0.03538883
0001d0 55 be 91 3d 84 10 5e 3d db 4e 27 be 5c d9 c5 bd
       0.07116381 0.05421497 -0.16338675 -0.09660599
0001e0 d1 f3 16 3d f3 9f a0 bd 10 13 12 be 22 44 28 be
       0.036853615 -0.07843008 -0.14265084 -0.1643224
0001f0 80 f9 f6 3d 8c 42 72 3d a8 d3 ad 3d 5c 75 1d be
       0.12059307 0.059145495 0.08487636 -0.153768
000200 02 92 d9 3d 07 4f cd 3d e4 e7 a4 3d 62 95 28 bd
       0.10623552 0.10024839 0.08052042 -0.041158088
000210 9e dc d3 bd 6b 89 98 bd 21 db 16 bd 86 1d e1 3d
       -0.10344814 -0.074480854 -0.03683007 0.10991959
000220 82 da 0e be 9e 48 7a 3d b6 55 85 bd 19 97 07 3e
       -0.13950542 0.06110441 -0.06510489 0.13241233
000230 b4 68 19 bd d2 da 43 bd 18 ef 46 ba e4 9e 6b 3c
       -0.03745337 -0.047816105 -0.00075887283 0.014381144
000240 03 ae ba bd f7 c2 af 3d 41 06 95 3d ec bb d1 3d
       -0.09115221 0.085821085 0.072765835 0.102409214
000250 45 35 3d bd aa b6 1a 3e a5 3f 83 3c 18 f5 2c 3d
       -0.04619338 0.15108743 0.016021559 0.042225927
000260 75 db 73 3b 40 a9 9e bd aa 11 0a 3e 3c 83 f6 3c
       0.0037209664 -0.077471256 0.13483301 0.030091874
000270 2b 25 0b 3a 60 73 00 bd 62 95 65 3d ae 50 26 3c
       0.00053079677 -0.03136003 0.056050666 0.0101510715
000280 a3 45 e4 3d 5b 7b 8c 3d 34 46 80 3d b5 16 6e 3d
       0.11146095 0.06859466 0.0626339 0.058127124
000290 b9 0c b4 bc 0f 98 88 bc 80 f3 df 3d af 5b 0e 3b
       -0.021978723 -0.01667407 0.10935116 0.0021722128
0002a0 c9 32 ad bd 5d da d9 bd 65 f4 1d be 54 1c 81 3d
       -0.08456952 -0.106373526 -0.1542526 0.06304231
0002b0 52 37 a3 3d f5 8c 76 bd f8 ce 95 bb e2 76 60 bd
       0.07969536 -0.06019302 -0.0045717917 -0.054800875
0002c0 d5 3b e9 bc f0 6e b6 3d 59 cd 58 3d 97 48 4a 3c
       -0.028470913 0.089078784 0.05293021 0.012346408
0002d0 c2 54 a4 bd b9 8f 20 3e c8 09 84 bd 59 a6 3a bd
       -0.08023979 0.15679826 -0.06447178 -0.045568798
0002e0 ef 3a 17 3e cc 16 9d 3c 12 df 19 3c 5d 39 01 be
       0.14768575 0.01917591 0.009391563 -0.12619539
0002f0 ee c6 7d bd fa ed e3 bd 86 a2 c4 3c 22 af 93 bc
       -0.061957292 -0.11129375 0.024003278 -0.018027846
000300 8a 73 c4 bd 77 c1 b4 bd 68 a7 88 bc 54 38 7e 3d
       -0.0959235 -0.08825963 -0.016681388 0.062065437
000310 76 3f 02 3d 25 ed b6 bd 5c d2 00 bd b6 6d e3 bd
       0.031798802 -0.089319505 -0.031450614 -0.1110491
000320 ab b7 88 bc ac 96 c7 3d 1c 59 c4 3d 4f c3 71 bc
       -0.016689142 0.09745535 0.09587309 -0.014756038
000330 57 b2 1c be e1 c9 fd 3d 27 0b 7a 3c f2 82 54 3d
       -0.15302406 0.12392021 0.015261448 0.05188269
000340 69 c3 00 3d 39 fb 0d be da 58 92 bd 0e f6 06 3e
       0.031436358 -0.13865365 -0.07145853 0.131798
000350 5f 21 4b 3d 76 2f a9 bd df 85 a5 3d 1b e2 83 bc
       0.049592372 -0.082610056 0.080821745 -0.016099026
000360 ab fb dd 3d bc 61 ad bd 11 a2 d1 bb c9 b5 b8 bd
       0.108390175 -0.08465907 -0.0063974936 -0.09019048
000370 ce 8b f6 3d c3 88 18 3e da 8a e4 bd dd 2f 16 be
       0.120383844 0.1489592 -0.11159296 -0.14666696
000380 6d 08 26 3d 8c f9 d1 bc 5b b7 e9 bd aa 1e fa bc
       0.04053538 -0.025631689 -0.114119254 -0.0305322
000390 16 82 5d 3d d0 9e 6c 3d 0f 5c ed bd 2c 66 f2 bd
       0.054079138 0.057768643 -0.115898244 -0.11835894
0003a0 e0 3d 55 bd 5d 23 8f bd 4d 61 2d 3d 5f d4 05 3d
       -0.05206096 -0.06989167 0.04232912 0.032673236
0003b0 89 f1 ff 3d 82 20 2f be e1 63 dd 3d 05 76 12 3d
       0.12497241 -0.17102244 0.10810066 0.035757083
0003c0 59 c2 94 3d d9 4c ff 3b 64 d3 06 3d ae f9 fb bd
       0.072636314 0.0077911434 0.03291644 -0.12303482
0003d0 c4 0a 9a 3d f0 0d 59 3d 35 a6 2b bd ce 3c 11 3d
       0.07521585 0.052991807 -0.041906554 0.03545838
0003e0 dd e9 04 3d 0a 6a f8 bd ce 2c eb 3b 98 9f 20 be
       0.032449592 -0.121296 0.007176972 -0.1568588
0003f0 a6 df 69 ba 5d d3 d7 bb 5b 7e ae bd 39 84 36 be
       -0.0008921571 -0.0065864758 -0.08520194 -0.17823876

dest_lstm_obs.weight_hh_l0 f4 [128, 32]
000000 8d 0a 21 be 97 e9 87 3d da 35 78 3c 79 f7 73 bd
       -0.15726681 0.066363506 0.015149558 -0.05956218
000010 b3 02 c2 3c 6e e2 72 3d 5c 56 df 38 1b 64 c3 bc
       0.023682928 0.05929797 0.00010649554 -0.023851445
000020 24 26 66 3d 37 c8 13 3e 20 65 07 3d 2f c0 09 3e
       0.056188717 0.14431845 0.033055425 0.13452218
000030 9f 6b 6b 3d c3 91 f2 3d 3d 47 2f 3d c7 7a ad bd
       0.057475682 0.11844208 0.042792547 -0.084706835
000040 f7 f9 1d 3d a2 44 06 3e 2e b3 09 3e 9e 9e 19 bd
       0.038568463 0.13112119 0.13447258 -0.037504785
000050 f4 c4 29 3d 4f c8 64 3d 30 ff 87 bd e9 5b 81 3d
       0.041447595 0.05585509 -0.0664047 0.063163586
000060 cd 78 a9 3d 45 8a 96 3d 3c 7f b1 bd 12 ba 75 3c
       0.08274994 0.073505916 -0.08666846 0.014997976
000070 76 fe c6 bd cc b8 32 3d f6 6b fb bd 5e b7 d1 bc
       -0.09716503 0.043633267 -0.12276451 -0.025600132
000080 60 7d 12 be 97 ee 3b bd 3e 53 b7 bd 8a 2b fc bc
       -0.1430564 -0.045881834 -0.08951424 -0.03078248
000090 16 b4 8a bd 77 9c ba bd 72 f2 f3 3d c9 f1 37 3e
       -0.0677263 -0.091118746 0.11911477 0.17963327
0000a0 77 55 7b bc 05 b4 3f 3d e8 90 84 3d b6 24 36 3d
       -0.015340201 0.04680254 0.06472951 0.044468604
0000b0 d7 23 b8 bd 90 aa 23 be f8 cc 49 3e 24 cf fd 3d
       -0.08991211 -0.15983033 0.19707096 0.123930246
0000c0 30 e6 bf bd 30 d8 30 3c c7 91 0e 3e 30 0c be bd
       -0.09370077 0.010793731 0.13922797 -0.09279668
0000d0 fc 4b cc bd d6 72 3b 3e c2 a4 22 3e f7 1a b2 3d
       -0.0997543 0.18305525 0.15883163 0.086965494
0000e0 94 ec c4 bd 1b 19 d0 3c b3 d5 5f bc b5 00 12 3d
       -0.09615436 0.025402596 -0.01366179 0.035645206
0000f0 29 7c 30 3d 27 f8 af 3d 16 04 d1 bd d4 3a 9f bd
       0.04308716 0.08592253 -0.102058575 -0.077748924
000100 86 9e 0b be 42 cb 98 bd 86 f8 09 be 63 e8 b0 bd
       -0.1363469 -0.07460643 -0.1347371 -0.08638074
000110 22 3b a0 bd 38 a5 be 3d e4 fd 20 3d ac 31 bf bb
       -0.07823779 0.09308857 0.03930463 -0.005834779
000120 0c 5c 54 3e c1 4d 42 bc 5e df 0b 3e f2 a4 b2 3d
       0.20738238 -0.011859358 0.13659427 0.08722867
000130 81 bf 62 3d 2f 81 29 bd 19 36 b2 bd 5a e7 0f 3e
       0.055358414 -0.041382965 -0.087017246 0.14053097
000140 88 98 0a be de c0 82 3d ac 41 d7 3d 9e 05 cd bd
       -0.13534749 0.06384443 0.10510573 -0.10010837
000150 a6 56 16 3e 6e ff 02 3c f3 52 7f bd 7c 90 3b bd
       0.14681491 0.0079954695 -0.062334966 -0.045792088
000160 f8 77 3c bd 96 03 8c bc de b4 60 3e ff 57 d9 3c
       -0.04601285 -0.017091554 0.21943995 0.026531218
000170 d7 17 8f 3d f0 57 74 be 95 ab 36 bc 5a 2b 35 be
       0.06986969 -0.2386167 -0.011149307 -0.17692319
000180 7c f2 e5 bd 3b 56 ac 39 89 2e 4e 3d ec ef 4d bd
       -0.11227891 0.00032870643 0.050337348 -0.050277635
000190 38 78 75 3e 85 bc ef 3d e3 ec 01 3d a7 3a e7 bd
       0.23971641 0.11705879 0.031720053 -0.11290484
0001a0 5e 6c bd 3d fc 83 5d bd a2 5d 1b be 7b d1 0e 3d
       0.09249185 -0.05408095 -0.15172437 0.034867745
0001b0 98 a8 5a 3e 00 b6 80 3c 26 93 e0 3d 5b 82 8c 3d
       0.21353376 0.015711784 0.10965566 0.06860801
0001c0 0e ba 4e be 71 54 c4 bd 35 5f 4e 3d 6f 8c d0 bd
       -0.20188162 -0.095864184 0.050383765 -0.101830356
0001d0 49 18 eb 3d b4 46 ae 3c 76 da d5 bc 20 3e e3 bd
       0.114792414 0.021273948 -0.026105147 -0.11095834
0001e0 1c 3b 0f bd 52 e1 44 be 2d b2 ff 3d e6 10 2a bd
       -0.03496848 -0.19226578 0.12485156 -0.04152002
0001f0 f7 33 bb bd b6 9b a7 3c d6 76 ac bb c4 f2 9e bd
       -0.09140771 0.020459991 -0.00526319 -0.077611476
000200 dd de 0e be 36 82 e2 bd a9 d1 3e bd f3 3a 26 3e
       -0.13952203 -0.11059992 -0.046586666 0.16233425
000210 5d d6 d6 3d 22 ce 6a be d7 52 74 3d 96 3d 2c 3e
       0.10490105 -0.22930196 0.059649315 0.16820368
000220 08 a4 51 3e cc 77 ec 3c 95 d6 68 bd 1b 58 0f 3e
       0.20472729 0.028865717 -0.056845266 0.13998453
000230 5a 62 1d 3e cc 98 1a 3d f2 f8 20 3e 9d 70 e7 3d
       0.1536955 0.037743375 0.15719965 0.11300776
000240 fa c8 0c 3e 3c 3b 47 bd 60 89 03 3e a1 42 0a 3d
       0.13748541 -0.048640475 0.12845373 0.03375495
000250 be 13 82 bd a8 b8 35 3e 5e 23 bd 3d a6 41 32 3e
       -0.06351422 0.17746222 0.092352614 0.17407855
000260 a3 28 fa bd 01 aa e1 3d 43 6a 5b be 93 bf f4 bc
       -0.12214782 0.11018754 -0.21427254 -0.029876506
000270 68 2b 90 bc 74 ff ee bd d2 ba ea bb 50 d2 66 be
       -0.017598823 -0.116698176 -0.007163384 -0.22541165
000280 68 a7 ce bd fe 9d 98 3d 3c 4c 14 3e 49 73 21 be
       -0.10090524 0.074520096 0.14482206 -0.15766634
000290 7c 44 11 be b4 13 da bc 46 3a 14 bd 3b ab 31 be
       -0.14186281 -0.026620723 -0.036188386 -0.17350475
0002a0 9e 80 35 be 88 f3 d3 bb 64 ba 86 bd 59 ab 37 bd
       -0.17724845 -0.00646824 -0.0657852 -0.044841144
0002b0 1b a3 2b 3e 12 2f 25 3e 15 b4 3d 3d 80 ea 25 bc
       0.16761439 0.16131237 0.046314318 -0.01012671
0002c0 65 7d 21 3d 14 a5 2b be a9 85 c4 bd f5 f7 9b bc
       0.039426226 -0.16762191 -0.09595806 -0.019039134
0002d0 e1 94 76 3d 55 b9 12 bd fb ac 83 3e 7e d3 c7 bd
       0.060200576 -0.035821278 0.2571791 -0.09757136
0002e0 cc 8e 15 be 3c 06 2a be fd e9 bd 3c 88 c7 c3 bd
       -0.14605254 -0.1660394 0.023182863 -0.09559542
0002f0 0f c7 66 bd f2 27 cc 3b 96 27 f0 3d 68 09 12 3d
       -0.05634218 0.006230348 0.117263004 0.0356535
000300 01 c6 c8 bd 15 7c 00 3e 90 b5 60 3d cd d0 b5 3d
       -0.09803391 0.12547334 0.05486065 0.08877716
000310 a4 18 be bc 94 e5 ef bd 37 62 7b bd 73 46 38 3e
       -0.023205109 -0.117137104 -0.06137296 0.17995624
000320 8f 7a 5d bd 82 ab 0f 3e d8 fb 0a 3e f6 3a ce 3b
       -0.05407196 0.14030269 0.13572633 0.00629365
000330 dd ae dc bd 7f a6 8e 3c c9 ee e0 3c f7 53 b6 bc
       -0.1077554 0.017413376 0.027457612 -0.022256834
000340 f2 48 3f be 16 11 91 3d 91 08 c0 bd 20 d2 94 bd
       -0.1868017 0.07083337 -0.09376634 -0.07266641
000350 15 68 4a 3e 39 2d 0f 3c 38 59 5d bc 7d 23 b2 3c
       0.19766267 0.008738809 -0.013510041 0.021745438
000360 5e 0d 9e 3c ca 92 13 be aa e1 19 3d b5 de 42 3d
       0.019293483 -0.14411464 0.037568726 0.04757567
000370 5b e0 f0 bd 7b 41 ae bc 69 43 38 bd 60 2c 10 3b
       -0.117615424 -0.021271458 -0.044986162 0.0021999106
000380 0b 39 01 be 24 9d e8 bc 15 76 14 bd a8 6e 40 bd
       -0.12619416 -0.028395243 -0.036245424 -0.04698053
000390 5a 8a 8e 3c c8 b3 24 be 8b cd 2d 3e 1a dc fd 3d
       0.017399956 -0.16084206 0.1697294 0.12395497
0003a0 44 fc 0c bd 79 87 92 3d 17 d8 00 3e 93 85 58 bd
       -0.034420267 0.071547456 0.12582432 -0.05286176
0003b0 c8 92 89 bd 2e 86 f4 3d 39 2c f7 3d 26 bf 3f be
       -0.067174494 0.11939655 0.12068982 -0.18725261
0003c0 62 dd 10 be ca b7 46 bd ba 7e 34 3c a1 11 d6 3d
       -0.14146951 -0.04851512 0.011016542 0.10452581
0003d0 d3 50 21 be 56 79 60 3c 92 cd b5 3d f1 b8 66 3d
       -0.15753488 0.013700804 0.088771 0.056328718
0003e0 69 ba db bd 4a 8c 87 3a 07 e9 02 be d5 c2 f9 3c
       -0.10728914 0.0010341492 -0.12784205 0.030488411
0003f0 93 d6 28 bd 01 73 0d 3e b5 db 0b be 18 75 a7 3d
       -0.04122026 0.13813402 -0.1365803 0.08176631

dest_lstm_obs.bias_ih_l0 f4 [128]
000000 e5 34 65 3d ef 39 49 be 3c 3b 45 be 04 f8 0c 3e
       0.055958647 -0.19651006 -0.19260877 0.13766485
000010 84 54 e9 3c 50 e7 68 3d eb d0 e5 3d 09 8c 39 be
       0.028482683 0.05686122 0.112214886 -0.18119825
000020 89 0e df bd 7e c9 4c 3d bd 16 0c be b1 a5 8f bd
       -0.10891444 0.049996845 -0.13680549 -0.07014025
000030 52 9d 41 bd 53 7b a7 3d 3f f6 36 bc 71 6d 28 be
       -0.047269173 0.08177819 -0.011167108 -0.16447999
000040 de 11 d2 3c 34 d0 10 be c8 21 13 be 26 03 90 3c
       0.025643285 -0.14141923 -0.14368355 0.017579626
000050 d0 43 12 3e 7b b5 3f bd b3 3f d3 bd f4 c2 f8 bb
       0.14283681 -0.046803933 -0.10314884 -0.0075915996
000060 08 4b f4 bd 62 8c 2b be 98 51 e6 3d 84 5e 57 3c
       -0.119283736 -0.1675277 0.112460315 0.013145093
000070 2d 2d 25 bd c5 b5 3e bd ae c3 29 3e 14 bb 98 3d
       -0.040326286 -0.046560068 0.16578552 0.07457557
000080 66 d8 20 be 04 45 17 be 43 a9 aa 3d 19 7c bf 3d
       -0.1570755 -0.14772421 0.08333065 0.093498416
000090 a0 56 e4 3d 1d e3 c8 3c 70 83 6a 3d 27 ad 29 be
       0.11149335 0.024522359 0.057254255 -0.16569959
0000a0 b3 15 29 be 76 3b 3f be 68 cc 13 3d a6 8f 05 3d
       -0.16512184 -0.18675026 0.03608361 0.032607697
0000b0 f7 d0 0e 3d 31 fd 15 be 9e d3 cf 3d 13 a4 21 3d
       0.034867253 -0.14647366 0.10147785 0.039463114
0000c0 dc 09 a3 3d ff 74 bc bc a2 e7 a8 3d 8d 9e 8f 3d
       0.07960865 -0.023005007 0.082473055 0.07012663
0000d0 05 31 bd bd 82 8f 1e be 20 2a eb 3d 58 4f bc 3d
       -0.09237865 -0.15484431 0.11482644 0.09194821
0000e0 b4 34 f8 3c 3a 10 4f 3d e4 fd 24 bd 7d a7 14 3d
       0.030298568 0.050552584 -0.04028119 0.03629254
0000f0 1a 70 7f bd d2 64 00 3e 5d 49 0d 3e 28 5e 36 3c
       -0.062362768 0.1253846 0.13797517 0.011130847
000100 24 da f5 bc 5d 6f fd bd f3 d3 07 bc 0b ac 76 bd
       -0.030011244 -0.123747565 -0.008290279 -0.060222667
000110 d0 51 23 be 06 dd b1 bd 7b 64 7c bc 41 f0 55 3d
       -0.15949178 -0.08684735 -0.015404816 0.052231077
000120 56 77 5d 3d 38 b7 94 3d 9f d3 0b 3e e6 b2 23 be
       0.054068886 0.07261509 0.13654946 -0.15986213
000130 23 ae f1 bd ca 2c 43 3e b8 83 dd bd 98 5a 39 3e
       -0.11800792 0.19060054 -0.10816139 0.18100965
000140 35 fc 38 3e 2c 3c ca bc f8 32 f0 bd 00 40 d0 ba
       0.1806496 -0.024686895 -0.117284715 -0.0015888214
000150 f5 f8 86 bd f5 ff 96 bd 08 60 d0 bd 94 08 e4 bd
       -0.065904535 -0.07373039 -0.101745665 -0.11134449
000160 ef 10 0b 3d cc 67 03 bb 39 2b 99 3d ba 9f f2 3d
       0.033951696 -0.0020050881 0.07478947 0.11846872
000170 e1 79 fa 3b 20 7a fd ba bc 6c 1e bd 3b d1 20 3e
       0.0076439236 -0.0019338764 -0.038677916 0.15704815
000180 61 2f 83 bd 7e e8 2b bd 1b 1d 35 3e 21 66 01 3e
       -0.06405521 -0.04196977 0.17686884 0.12636615
000190 47 92 b5 3d 18 f2 84 bd 0b f5 bb bd 07 d1 ba 3d
       0.08865791 -0.06491488 -0.091775976 0.091219
0001a0 8a 69 47 3d 43 8d e3 bd e4 a0 9b bd da 3e b7 bd
       0.048684634 -0.11110928 -0.07599047 -0.08947535
0001b0 a7 6e 31 be 2b aa a7 bd 58 0f 51 3d 88 43 89 3d
       -0.17327367 -0.08186754 0.051040024 0.06702334
0001c0 32 57 09 be 19 49 a2 bd fd b9 08 3e 14 cc 05 3e
       -0.13412169 -0.079240985 0.13352199 0.13066131
0001d0 42 b3 d9 3d 68 54 e3 3c 8d 02 78 bd a0 b4 68 bd
       0.10629894 0.027750209 -0.060549308 -0.056812882
0001e0 60 90 1c 3c d6 10 bf 3d 5a 0c 73 be 65 4d 23 3e
       0.009555906 0.09329383 -0.2373518 0.15947492
0001f0 a5 a4 b9 bc c6 1a 46 bd cb 5a 94 bc 9e d2 cd bd
       -0.022661516 -0.048365377 -0.0181097 -0.10049938

dest_lstm_obs.bias_hh_l0 f4 [128]
000000 44 47 83 bd 80 a5 af 3d 07 d2 63 3b 17 9a 39 bd
       -0.06410077 0.085764885 0.0034762637 -0.045312967
000010 f5 cb f1 bd df 22 51 bd cd d6 0a 3e fb d8 9d bd
       -0.1180648 -0.051058646 0.13558502 -0.07707401
000020 97 d8 d2 3d 7b 03 8b 3d 8e ad b5 bd 94 fa 83 3d
       0.102952175 0.06787773 -0.088709936 0.06444278
000030 f9 59 40 3d 59 6b 73 b9 f8 b9 22 be 28 12 65 bd
       0.046960805 -0.00023214276 -0.15891254 -0.05592552
000040 f7 65 ef 3d f8 cc ec bd c7 21 e8 3d 38 a4 16 bd
       0.1168937 -0.11562532 0.113345675 -0.036777705
000050 0b 94 2d bd 41 c6 45 be b8 81 a3 3d f9 4c c9 bd
       -0.042377513 -0.19313909 0.07983726 -0.098291345
000060 ea a9 4d be 1b cd f1 3c 04 2a 37 3d a2 02 20 3e
       -0.20084348 0.029516747 0.044717804 0.15626004
000070 46 ba b5 bd 6f 7d 26 bd 5b fd 1e 3d cd 73 d7 3d
       -0.088734195 -0.040646967 0.038815837 0.10520134
000080 22 39 23 be 22 7f d0 bc e1 64 be 3d 12 1b 8f 3d
       -0.15939763 -0.025451247 0.09296585 0.06987585
000090 57 61 e0 bd cc 5d b0 bd 95 de c2 bd f9 92 89 bc
       -0.10956066 -0.0861164 -0.095151104 -0.016793715
0000a0 27 e2 01 bd 4c ac e7 3d fb 48 26 be b5 a0 30 bd
       -0.031709816 0.1131216 -0.16238777 -0.043122012
0000b0 e2 16 8c 3d b4 52 00 bd 46 72 04 be d8 ef 91 3d
       0.06840302 -0.03132887 -0.12934217 0.07125825
0000c0 ac e7 60 bd 55 a9 12 3e 95 11 7e bd c1 75 ce bd
       -0.05490844 0.14322408 -0.062028486 -0.100810535
0000d0 60 78 9e 3d 46 3d 90 bd 3f 73 03 bd 09 5e a6 bc
       0.077378035 -0.07042937 -0.03209233 -0.020308511
0000e0 2d 5c 99 bd c0 67 58 be d0 32 0e bd 6d d8 c9 bd
       -0.07488284 -0.21133327 -0.034716427 -0.09855733
0000f0 42 55 7a 3d 63 d8 2f 3b bd 7c 30 bb d8 c8 ca 3d
       0.061116464 0.0026831857 -0.0026929819 0.09901589
000100 9a 53 28 3d b9 48 25 bc a2 02 c9 bc c5 9a d6 3d
       0.041095354 -0.010088139 -0.024537388 0.10478739
000110 c5 27 9f bd c8 f4 ca 3d 37 01 10 be c3 ce 4f 3d
       -0.07771257 0.099099696 -0.14062963 0.050734293
000120 9e b9 46 be 31 e0 55 3e 4f 0d 7b bd ff 33 13 3e
       -0.19406745 0.20886303 -0.06129199 0.14375304
000130 2b c0 bc bb 89 ba a7 bd 59 79 00 be 42 64 1d 3d
       -0.005760213 -0.08189876 -0.1254629 0.03842569
000140 9d 3d 52 bc d5 8b 22 be a3 ab 21 3b 90 67 33 3e
       -0.012832073 -0.15873654 0.0024668954 0.17519975
000150 e6 bb fd bd a8 f9 9c 3d 4d 18 a4 3d e9 1e ca bd
       -0.123893544 0.07664806 0.080124475 -0.09869177
000160 42 c2 09 3e b2 ea b4 bd 53 e7 1b 3c 92 b2 80 3e
       0.1345301 -0.08833827 0.009515601 0.25136238
000170 9c bd 6f 3d 99 02 c4 3d 9b ac 91 be 0b f2 11 3e
       0.058530435 0.09570808 -0.28452 0.14252488
000180 c8 81 4e 3d a3 95 14 be c7 09 f3 3d a7 41 35 be
       0.050416738 -0.14510207 0.11867099 -0.17700826
000190 d1 86 b0 3d 2c 9b e9 bd 8e 63 55 3d d1 76 84 bd
       0.08619464 -0.1140655 0.052096896 -0.06467975
0001a0 cf 35 aa ba 09 39 d3 3d cc 4f 57 bd ad f9 f5 3c
       -0.0012986007 0.10313613 -0.052566335 0.030026281
0001b0 de fb 4a bd 4a 71 eb 3d 7c 96 a4 3d fd 88 b3 bb
       -0.049556606 0.114962175 0.08036515 -0.0054789768
0001c0 68 a2 16 3d 6f a7 be 3d 4f e0 43 3e 05 3b ff bd
       0.036775976 0.09309279 0.19128536 -0.12462429
0001d0 f6 f4 f5 3d a5 55 cf bd ce c9 c0 bd 04 24 b4 bd
       0.12009613 -0.10123757 -0.09413491 -0.08795932
0001e0 43 af f6 bd 6b 90 a4 bd a7 24 ea bc e0 ff 11 3d
       -0.12045147 -0.08035358 -0.02858193 0.035644412
0001f0 42 43 9d bd 10 78 05 be 9d e3 e2 bd a9 eb 86 3d
       -0.07678844 -0.13034081 -0.1107857 0.06587917
