do_tp_federated_round_3.pt (torch, 156693 bytes, 26 tensors)

linear_enc.weight f4 [64, 2]
0	0x3f452761	0.7701321
1	0x3f2f4597	0.6846556
2	0x3ea1f457	0.3163173
3	0x3d86e17e	0.06585978
4	0x3f38a006	0.72119176
5	0x3edd8826	0.43267936
6	0x3f3d7e74	0.7402108
7	0x3f39b484	0.7254107
8	0xbef773df	-0.4833059
9	0x3f23058f	0.63680357
10	0x3e49ba93	0.19700079
11	0xbf41d9f4	-0.75723195
12	0x3edbc80c	0.4292606
13	0xbed18ec7	-0.40929243
14	0x3e880832	0.26568753
15	0xbe4a98d2	-0.19784859
16	0xbec61c6a	-0.38693553
17	0xbdf9a8f8	-0.12190431
18	0x3d2c3d23	0.042050492
19	0x3ed21cfb	0.41037735
20	0x3f0b69f0	0.5445852
21	0x3f5a15ec	0.851897
22	0x3eb46a5d	0.352374
23	0xbd0ecdd5	-0.034864265
24	0x3dc7b064	0.09750441
25	0x3d3b0e7a	0.045668103
26	0xbd637864	-0.055534735
27	0x3f3f65d3	0.74764746
28	0x3f290438	0.6602206
29	0xbeec3e50	-0.4614129
30	0xbf0b9497	-0.54523605
31	0x3f013b5d	0.50481206
32	0x3cf73b94	0.030179776
33	0xbec9d58f	-0.39420745
34	0x3da86d53	0.08223977
35	0xbda33c18	-0.07970446
36	0xbef53b08	-0.478966
37	0x3eb529c3	0.35383424
38	0xbf236469	-0.6382509
39	0xbf0de4f0	-0.55427456
40	0xbe5ce69c	-0.21572345
41	0x3f3d1f64	0.73876023
42	0xbe5dccd0	-0.21660161
43	0x3ee6e60d	0.4509739
44	0xbe906279	-0.2820013
45	0x3efe9f7f	0.4973106
46	0x3f3877a8	0.7205758
47	0x3e070e2f	0.13189004
48	0x3f1e16f7	0.6175379
49	0xbf4189dc	-0.7560098
50	0xbdedd2c6	-0.116124675
51	0xbda496e4	-0.080365926
52	0x3e250745	0.16116054
53	0xbf287515	-0.65803653
54	0x3f1e727d	0.61893445
55	0x3e74f8f0	0.23923087
56	0x3e76f3b1	0.24116398
57	0x3e8b3184	0.27186215
58	0xbf309a72	-0.68985665
59	0x3dc24809	0.09486396
60	0xbb79850c	-0.0038073687
61	0xbeafdc18	-0.34347606
62	0xbe86770a	-0.26262695
63	0x3ecfc054	0.40576422
64	0xbf03c9e6	-0.5147995
65	0x3e77b496	0.24189982
66	0x3e88e788	0.26739144
67	0xbf307f45	-0.689442
68	0xbf36a0d6	-0.71339166
69	0xbf00264c	-0.50058436
70	0xbed16cfa	-0.40903455
71	0x3dbcbde7	0.092159085
72	0xbebdde91	-0.37083867
73	0xbeae6388	-0.3406031
74	0x3ee0b2ed	0.4388651
75	0x3e761fab	0.24035518
76	0x3ea64368	0.32473302
77	0xbe4577b8	-0.1928395
78	0xbf01d41d	-0.50714284
79	0xbf181875	-0.5941232
80	0xbe287bbb	-0.1645345
81	0x3f07f014	0.53100705
82	0x3f4448bc	0.76673484
83	0xbecfdb9e	-0.40597242
84	0x3decca26	0.11561994
85	0x3f603030	0.8757353
86	0xbf222a27	-0.6334557
87	0xbe85439f	-0.26028153
88	0xbea0d06c	-0.31409013
89	0x3e9f1535	0.31070867
90	0x3f33df56	0.7026266
91	0x3dde6898	0.108597934
92	0xbd9c8aba	-0.076436475
93	0xbf03aad4	-0.5143254
94	0xbe72ec44	-0.2372294
95	0x3e6d0782	0.23147395
96	0x3e84e483	0.2595559
97	0x3da86698	0.08222693
98	0x3e8cebcc	0.2752365
99	0xbe043aff	-0.1291313
100	0x3dde7970	0.10863006
101	0x3edfb09d	0.43689433
102	0x3db72efc	0.089445084
103	0x3f2ccd4a	0.67500746
104	0x3e959913	0.2921835
105	0x3e052f11	0.13006236
106	0xbd9d0932	-0.076677695
107	0xbdef5482	-0.116860405
108	0xbef9154e	-0.48649067
109	0xbf090125	-0.5351737
110	0x3ec9386c	0.3930086
111	0xbf1ac116	-0.60450876
112	0x3edd1948	0.4318335
113	0x3f044d02	0.51680005
114	0x3eee9532	0.46598202
115	0x3f1d520e	0.6145333
116	0x3d7a9634	0.0611784
117	0x3f0ef123	0.55836695
118	0xbdf6f0b0	-0.12057626
119	0xbf02d892	-0.5111171
120	0x3e4c5458	0.1995405
121	0xbf05517b	-0.52077454
122	0x3ed9b992	0.4252439
123	0xbf199c78	-0.6000438
124	0x3e74d4e6	0.2390934
125	0x3eb6b40a	0.35684234
126	0xbf216d46	-0.63057363
127	0xbee1d7f4	-0.44110072

linear_enc.bias f4 [64]
0	0x3e4ef4dd	0.20210595
1	0xbe1d5401	-0.15364076
2	0x3eb06003	0.3444825
3	0x3d5df1c0	0.05418563
4	0xbeeade7a	-0.4587286
5	0xbe306450	-0.17225766
6	0xbe22dbcf	-0.15904163
7	0xbf11d15d	-0.5696009
8	0xbf14e0ba	-0.58155406
9	0xbf160a29	-0.58609253
10	0xbf22817a	-0.63478816
11	0xbef7877b	-0.4834555
12	0x3dda26df	0.10651945
13	0x3f2cc5e0	0.67489433
14	0x3f30831c	0.6895006
15	0x3dce8815	0.10084549
16	0x3dc8ec80	0.09810734
17	0x3e8e0403	0.27737436
18	0xbe953edf	-0.2914953
19	0xbedeeba6	-0.4353916
20	0xbe970c6f	-0.29501674
21	0xbeaddf09	-0.33959225
22	0x3e8cca4c	0.2749809
23	0xbe8347bb	-0.25640664
24	0x3eee7889	0.46576336
25	0xbdf19194	-0.11795345
26	0x3f2a07b5	0.6641801
27	0x3f0ac816	0.54211557
28	0x3d32ca0a	0.04364971
29	0x3ee62ca0	0.4495592
30	0xbf28588e	-0.65760124
31	0x3e1b84ce	0.1518738
32	0x3e0d1245	0.137765
33	0x3d88da37	0.06682246
34	0xbe760d08	-0.24028409
35	0xbed1794d	-0.40912858
36	0xbedbf242	-0.42958266
37	0xbe769ad6	-0.24082503
38	0xbe8f3579	-0.27970484
39	0xbf1b8191	-0.6074458
40	0x3ed6ebf7	0.41976902
41	0x3d675e3c	0.056486353
42	0xbd9bd605	-0.0760918
43	0xbdbe140e	-0.09281169
44	0x3f1824fc	0.59431434
45	0x3ea47725	0.3212215
46	0x3e496505	0.19667442
47	0x3f269dab	0.6508433
48	0x3e08107f	0.13287543
49	0x3da1e254	0.07904497
50	0x3dc5494c	0.09633121
51	0x3f024fd3	0.5090305
52	0xbed6d864	-0.41961968
53	0xbea180d2	-0.31543595
54	0x3eb395ac	0.35075128
55	0xbe942e58	-0.28941607
56	0xbf041e88	-0.51609087
57	0xbe706a43	-0.23478036
58	0x3ea2b9a9	0.31782272
59	0x3e968110	0.29395342
60	0xbf1e3f1c	-0.6181505
61	0xbe0fd41e	-0.1404576
62	0xbe6f89fe	-0.23392484
63	0xbe146a8c	-0.1449377

encoder_lstm.weight_ih_l0 f4 [128, 64]
0	0xbdcfa614	-0.10139099
1	0xbe69585c	-0.22787613
2	0xbdd3cbe3	-0.10341623
3	0xbdf25636	-0.1183285
4	0xbd2608da	-0.040535785
5	0xbe229c90	-0.15880036
6	0x3de16538	0.11005634
7	0xbd2902ce	-0.04126244
8	0x3e274c8d	0.16337796
9	0xbddb5b00	-0.10710716
10	0xbe4ae276	-0.1981295
11	0xbdc16f88	-0.09445101
12	0x3d529941	0.051415686
13	0x3d65d7c5	0.056113977
14	0xbdfb9528	-0.12284309
15	0xbd8e7566	-0.06955986
16	0xbb44301b	-0.00299359
17	0x3ca8edae	0.020621147
18	0x3de62cd6	0.112390205
19	0x3e01d842	0.12680152
20	0x3d5c1f6c	0.053740904
21	0xbabe1538	-0.0014502173
22	0x3d139f42	0.036040552
23	0x3da4d54c	0.08048496
24	0x3d3e4cf8	0.046460122
25	0xbd86b570	-0.06577575
26	0x3e2d79f7	0.16941057
27	0x3db32d18	0.08748835
28	0xbe122331	-0.14271237
29	0xbe014011	-0.12622096
30	0x3c82fc6a	0.015989501
31	0x3e08d734	0.13363343
32	0xbdcc7294	-0.099827915
33	0x3e001972	0.12509707
34	0x3dca05cf	0.09864389
35	0x3c17ad15	0.009257575
36	0x3c22dc21	0.009940178
37	0xbe38a402	-0.18031314
38	0x3dd441da	0.10364123
39	0x3d174913	0.036934923
40	0xbdbba7c3	-0.091628574
41	0xbcb13c7b	-0.021635285
42	0xbcec1269	-0.028817372
43	0x3dddf22c	0.10837206
44	0xbd5d3f22	-0.054015286
45	0xbca5f4b5	-0.020258287
46	0xbdf153db	-0.11783572
47	0x3dbfd8f8	0.093675554
48	0x3df54700	0.11976433
49	0xbe4ffb66	-0.20310745
50	0x3dae9266	0.08524017
51	0xbdfc0e4e	-0.12307416
52	0xbe330de2	-0.17485765
53	0x3d72c24f	0.05926734
54	0x3e1c121c	0.15241283
55	0x3d3a8387	0.04553559
56	0xbb1f5f16	-0.002431815
57	0xbdd8fed6	-0.10595481
58	0x3e0b77f9	0.13619985
59	0xbdc16b96	-0.094443485
60	0x3d54e14b	0.05197267
61	0xbe40586e	-0.18783733
62	0xbdbe4e7b	-0.09292313
63	0x3e7c5ed4	0.24645549
64	0xbd297373	-0.041369867
65	0x3db04fb0	0.08608949
66	0x3e2ee46d	0.17079325
67	0xbd8112ed	-0.06302438
68	0xbd9b3c6b	-0.07579883
69	0x3deca7ce	0.11555444
70	0x3e01716d	0.12640925
71	0xbe1c02fa	-0.1523551
72	0xbdd13ef1	-0.10217083
73	0xbe338557	-0.17531334
74	0xbe39770b	-0.18111818
75	0xbd2764e4	-0.0408677
76	0x3d7a0b86	0.061046146
77	0x3e72c445	0.23707683
78	0x3e317af2	0.17332056
79	0xbd76e871	-0.060280267
80	0x3e744ad7	0.23856674
81	0x3e85d175	0.26136366
82	0x3bedbee4	0.007255422
83	0x3b0988cc	0.0020986078
84	0xbe3bbf73	-0.18334751
85	0xbe3872f4	-0.18012601
86	0xbd7fcee4	-0.062453166
87	0xbe21d763	-0.1580482
88	0x3e2e0415	0.16993745
89	0xbd6e96c8	-0.058249265
90	0xbd0d5496	-0.034504496
91	0x3dce419f	0.1007111
92	0x3dd41608	0.103557646
93	0x3dcdc536	0.100473806
94	0xbdd54d4b	-0.10415133
95	0xbd553343	-0.05205084
96	0x3d90aec4	0.07064584
97	0x3d4077d1	0.046989266
98	0xbd111ac5	-0.03542592
99	0xbe101382	-0.14069942
100	0xbcd47f62	-0.025939647
101	0x3d25c76b	0.040473383
102	0x3d29063b	0.041265707
103	0x3d3eba6c	0.046564505
104	0xbd955cac	-0.072930664
105	0x3e5e7a95	0.21726449
106	0xbd960a8f	-0.07326233
107	0xbe60474f	-0.21902202
108	0xbd334985	-0.043771286
109	0x3e840d28	0.25791287
110	0x3d581341	0.052752737
111	0x3e5f6066	0.21814117
112	0x3df055ff	0.117351525
113	0x3d7d5abd	0.061854113
114	0x3e67854a	0.2260944
115	0xbb913c7c	-0.004432259
116	0xbd5bffd4	-0.053710774
117	0xbda81a4e	-0.08208142
118	0x3cf712f9	0.030160414
119	0xbdb7d40d	-0.08975992
120	0xbe1fe187	-0.15613376
121	0x3ce3ed60	0.02782315
122	0xbd8dd84e	-0.069260225
123	0x3e5eb15a	0.21747342
124	0xbc1b99e5	-0.0094971405
125	0xbdf0c9ca	-0.11757238
126	0xbe8e7ce4	-0.2782966
127	0xbe0aa995	-0.13541253
128	0xbdceb4c2	-0.100930706
129	0xbdb4be0b	-0.0882531
130	0xbd8a4e4c	-0.06753215
131	0xbcf7950f	-0.030222444
132	0xbda3e9ae	-0.08003555
133	0x3e3a2f8e	0.18182203
134	0xbc9904e0	-0.018679082
135	0xbe1b2d38	-0.15153968
136	0xbdff3997	-0.12462156
137	0x3dfeca8b	0.12440976
138	0x3db71e7c	0.08941361
139	0xbdb87217	-0.09006136
140	0x3e134d05	0.1438485
141	0xbcc4cb14	-0.024022616
142	0x3db05698	0.086102664
143	0xbe6edbe2	-0.23326066
144	0x3e339ae0	0.17539549
145	0x3d746059	0.059662197
146	0xbe675a6f	-0.22593091
147	0x3d695db4	0.056974128
148	0xbe738421	-0.23780872
149	0xbe0d6d3e	-0.13811204
150	0x3d95af46	0.073088214
151	0xbe01896f	-0.12650083
152	0xbdb290c5	-0.08719019
153	0xbd1edea5	-0.03878655
154	0xbdb4f2fa	-0.088354066
155	0x3e5ca617	0.21547733
156	0x3e01a72e	0.1266143
157	0xbd39c20d	-0.045351077
158	0xbbaee500	-0.0053373575
159	0x3be6cf0a	0.007043724
160	0xbe1d088c	-0.15335292
161	0x3e3f3c9f	0.18675469
162	0xbd0eb7fd	-0.034843434
163	0x3d345774	0.044028714
164	0xbe3fb23a	-0.18720332
165	0xbe41a2e1	-0.1890979
166	0xbe19a6e8	-0.15005076
167	0xbd1c81ab	-0.0382096
168	0x3e06d916	0.13168749
169	0x3e29ff4f	0.16601299
170	0xbe54abd4	-0.20768672
171	0x3b48b877	0.0030627528
172	0x3e17a93d	0.14810653
173	0x3e422c3f	0.18962191
174	0x3c06fbc1	0.008238734
175	0xbdb5c3a9	-0.0887521
176	0x3dfa86c6	0.12232737
177	0xbd7bb43a	-0.061451174
178	0x3e26c52f	0.16286157
179	0x3e219335	0.15778811
180	0xbdfee784	-0.12446502
181	0xbd2721cb	-0.04080371
182	0x3c86219a	0.016373444
183	0x3d408551	0.04700214
184	0xbd652170	-0.05594009
185	0x3de29e02	0.11065294
186	0x3d1b36c9	0.037894044
187	0xbd4cc2ae	-0.04999035
188	0x3da8a544	0.08234647
189	0x3e140075	0.144533
190	0xbe54aff8	-0.20770252
191	0xb9b00450	-0.0003357255
192	0xbda6b741	-0.08140422
193	0x3c9e46ca	0.019320864
194	0xbb5399c0	-0.0032287687
195	0xbd921262	-0.071324125
196	0xbe21dcb5	-0.1580685
197	0xbcd56d32	-0.026053045
198	0xbd4be927	-0.0497829
199	0xbe2677b3	-0.16256599
200	0x3e22ab0d	0.15885563
201	0xbe3b583a	-0.18295375
202	0xbda10dfd	-0.07863996
203	0x3d59785d	0.053093303
204	0xbb062c29	-0.00204731
205	0xbd43f7a0	-0.047843575
206	0xbe13f3b3	-0.14448433
207	0x3e35fefd	0.17773052
208	0xbc6c406e	-0.014419658
209	0x3d2be161	0.041962985
210	0x3d72711f	0.059189912
211	0x3d6a59d2	0.057214566
212	0xbd9f96c2	-0.07792427
213	0xbd7ac465	-0.061222453
214	0x3c1b0b13	0.0094630895
215	0xbbfac09e	-0.0076523563
216	0xbdba0ba4	-0.090842515
217	0x3cb67bd0	0.022275835
218	0x3cf8309d	0.030296618
219	0xbe00b986	-0.12570772
220	0xbdf5582c	-0.11979708
221	0xbce8c26c	-0.02841302
222	0xbdb4274e	-0.08796559
223	0xbddde928	-0.10835487
224	0x3dd836ca	0.10557325
225	0xbde6ab48	-0.11263138
226	0x3e157928	0.14596999
227	0x3e220e20	0.15825701
228	0xbc3e01fc	-0.011597153
229	0x3d6d55c6	0.057943128
230	0x3dd06a54	0.101765305
231	0x3d645500	0.055745125
232	0x3dcc2a46	0.099690005
233	0x3da35bd7	0.079765014
234	0xbe4b27d0	-0.19839406
235	0xbdb1eef9	-0.086881585
236	0xbc684073	-0.014175522
237	0xbde37d98	-0.111079395
238	0xbe0ebef4	-0.1394003
239	0x3e00b8db	0.12570517
240	0x3c087ae0	0.008330077
241	0x3e0d0fd5	0.1377557
242	0xbd32647c	-0.04355286
243	0x3cf49f3c	0.029861085
244	0xbdf22a9b	-0.118245326
245	0x3d930e98	0.07180518
246	0x3aebd835	0.0017993512
247	0xbce9d1ce	-0.028542425
248	0xbe2b2b9c	-0.16715854
249	0x3d02cef2	0.03193564
250	0xbd15292c	-0.036416218
251	0x3dc0d161	0.09414936
252	0xbd846e28	-0.06466323
253	0x3cfb0368	0.030641273
254	0x3dc436b6	0.09580748
255	0x3d55da5f	0.052210208

encoder_lstm.weight_hh_l0 f4 [128, 32]
0	0x3dc62465	0.096749105
1	0xbde23840	-0.11045885
2	0xbd9abbbd	-0.075553395
3	0x3cc908f5	0.024540404
4	0xbdfd4115	-0.12365929
5	0xbd8918bd	-0.066941716
6	0x3d2ac564	0.041692153
7	0xbdeb4a85	-0.11488823
8	0xbdd92b4a	-0.1060396
9	0xbd8d9589	-0.06913287
10	0x3bd82662	0.0065963725
11	0xbe1259fe	-0.14292142
12	0xbd876e1f	-0.06612801
13	0x3cc83a3f	0.024441836
14	0x3b80244b	0.0039105765
15	0xbe56d74a	-0.20980564
16	0x3d1c89a4	0.0382172
17	0x3d51316e	0.05107253
18	0x3e20f6bd	0.15719123
19	0xbe29a306	-0.16566095
20	0x3e1c3e58	0.15258157
21	0xbdb712a7	-0.089391045
22	0x3d436acb	0.047709268
23	0xbd2f5c85	-0.042812843
24	0x3c8854be	0.01664197
25	0x3d7dfb64	0.062007323
26	0xbe091e7d	-0.13390537
27	0xbdce1ca4	-0.100640565
28	0x3d99598c	0.07487783
29	0xbdad9e00	-0.08477402
30	0x3e2ef375	0.17085059
31	0xbe2f5ce6	-0.17125282
32	0xbd38b110	-0.045090735
33	0x3e0d27a6	0.13784656
34	0x3e1e2bef	0.15446447
35	0xbd066488	-0.032810718
36	0x3e2136dc	0.15743583
37	0x3dfacfc1	0.12246657
38	0x3db919d2	0.09038128
39	0x3d7886ad	0.06067531
40	0x3e7cd362	0.24690011
41	0x3d44fc8f	0.04809242
42	0x3e783c94	0.24241859
43	0x3e6a235d	0.22865053
44	0x3e033f92	0.12817219
45	0x3d4e1b60	0.050319076
46	0xbbb18d18	-0.005418431
47	0x3d9f9e8f	0.077939145
48	0xbe6cbdcf	-0.23119281
49	0xbe4cd2b2	-0.20002249
50	0x3e5d816c	0.21631402
51	0xbdbb2a60	-0.09138942
52	0x3d462cdc	0.048382625
53	0x3e8b56a4	0.2721454
54	0xbe730536	-0.23732457
55	0xbd8120ca	-0.06305082
56	0x3e61c960	0.22049475
57	0xbd7640c0	-0.060120344
58	0x3be3e92c	0.0069552865
59	0x3dacd83f	0.08439683
60	0x3e5da081	0.21643259
61	0xbdf53e5c	-0.11974785
62	0x3c8d915b	0.017281225
63	0x3cb61104	0.02222491
64	0x3c75eb76	0.015009752
65	0x3e1aac44	0.15104777
66	0x3e3f3262	0.18671563
67	0x3db72ffe	0.08944701
68	0x3e23f4d8	0.16011369
69	0x3e26f205	0.1630326
70	0x3e67debe	0.22643563
71	0xbe0afd70	-0.13573241
72	0xbd63e2aa	-0.055636086
73	0xbdb4b8e8	-0.088243306
74	0x3d9b5e79	0.075863786
75	0x3df64b92	0.12026133
76	0x3d6b8e54	0.05750878
77	0x3b6497ac	0.0034880443
78	0x3c3d1b45	0.011542146
79	0x3dc5b99f	0.09654545
80	0x3d33fe06	0.043943428
81	0x3e0644c2	0.13112167
82	0x3c17ed8e	0.009272946
83	0x3d9f67ea	0.07783492
84	0xbb310c36	-0.0027015335
85	0x3e4d540f	0.20051597
86	0x3c962bb1	0.01833138
87	0xbe01b22b	-0.12665622
88	0xbc073591	-0.008252517
89	0xbd6c8193	-0.05774076
90	0xbe0497fa	-0.129486
91	0x3c627b8e	0.013823403
92	0x3db2991c	0.087206095
93	0xbe0f0188	-0.13965428
94	0xbd39f9dd	-0.045404304
95	0xbe258eba	-0.16167727
96	0x3e0b44bf	0.13600443
97	0xbe50ac80	-0.20378304
98	0x3e4e9d21	0.20177127
99	0xbdf81237	-0.12112849
100	0xbe54292f	-0.20718835
101	0x3e09880e	0.13430807
102	0xbdb5cff0	-0.088775516
103	0x3bd52f04	0.006505849
104	0x3e47dfde	0.19518992
105	0xbd47d1c2	-0.048784025
106	0xbdc7dd9a	-0.09759064
107	0xbe215fcf	-0.15759204
108	0x3e3abefe	0.1823692
109	0x3de30b98	0.11086196
110	0x3d9488e3	0.072526716
111	0x3d92b545	0.07163481
112	0x3ddb050f	0.10694324
113	0x3d9c957a	0.07645698
114	0xbe03c039	-0.12866296
115	0x3d83e9bf	0.06441068
116	0x3dac33a0	0.08408284
117	0x3d902964	0.07039145
118	0xbdce441d	-0.10071585
119	0x3e224f57	0.15850578
120	0x3bc63ea0	0.006049946
121	0x3e717ef1	0.2358358
122	0xbdc16376	-0.09442799
123	0x3d4e0014	0.050293043
124	0x3de5b96a	0.112170056
125	0x3c85c4f8	0.016329274
126	0xbdc9f416	-0.09861009
127	0x3c45fe63	0.012084576
128	0xbcc3cb90	-0.023900777
129	0xbe8245c0	-0.2544384
130	0x3dc89910	0.09794819
131	0x3aa80639	0.0012819237
132	0x3e03b160	0.12860632
133	0x3dd8f83c	0.10594222
134	0x3e2324c8	0.15932
135	0xbe893182	-0.26795584
136	0x3dad43de	0.0846021
137	0x3dd5cb77	0.104391985
138	0x3e804a32	0.25056607
139	0x3d7234f3	0.059132528
140	0x3e8ecaee	0.27889198
141	0x3d625fad	0.055267025
142	0xbc5ba28c	-0.013405453
143	0xbdab83a2	-0.08374716
144	0xbcff29d4	-0.031147875
145	0xbe305e1f	-0.17223404
146	0x3d77aafd	0.0604658
147	0xbe767c10	-0.24070764
148	0xbcb0b9a3	-0.021572893
149	0x3d90ae1d	0.070644595
150	0xb90a3700	-0.00013181195
151	0xbd8bfecd	-0.06835709
152	0x3e8238e9	0.25434044
153	0x3e03842f	0.12843393
154	0xbe8e890f	-0.27838942
155	0x3e5a28a8	0.21304572
156	0x3d83dce8	0.06438619
157	0xbb7c6cb6	-0.0038516945
158	0xbbe6ead2	-0.0070470357
159	0xbe72a1c9	-0.23694529
160	0x3dbd84ab	0.0925382
161	0xbdc7ae48	-0.097500384
162	0xbde05f27	-0.10955649
163	0xbe172f07	-0.14764033
164	0xbd18f5ef	-0.037343916
165	0x3e026a79	0.12735929
166	0xbd6a1b14	-0.05715473
167	0xbe162db4	-0.14665872
168	0x3d63c108	0.05560401
169	0x3e78f867	0.24313508
170	0x3e78e978	0.24307811
171	0xbda3515c	-0.079745024
172	0x3e03a1f6	0.12854752
173	0x3daa071f	0.083021395
174	0xbd9fec9a	-0.078088
175	0xbe7cf943	-0.24704461
176	0xbd341c77	-0.04397246
177	0xbd988e18	-0.07448977
178	0x3e28bddc	0.16478676
179	0x3da6f8e1	0.08152939
180	0x3d0347df	0.032050963
181	0xbb9e1675	-0.0048244544
182	0x3d8e04fd	0.06934545
183	0x3ca26fc7	0.01982869
184	0xbc9bc7c8	-0.019016162
185	0x3d7a932f	0.06117552
186	0xbdb0193d	-0.08598564
187	0x3e3706d7	0.17873703
188	0x3cbf226e	0.023331847
189	0xbde7304e	-0.1128851
190	0xbc804cc5	-0.015661607
191	0x3da3664f	0.07978498
192	0xbdeee3a2	-0.11664511
193	0xbdf69896	-0.12040822
194	0xbd737f9a	-0.059447862
195	0xbdb36cc2	-0.08760978
196	0x3dd50b86	0.104025885
197	0xbc611471	-0.013737784
198	0x3e28fc8b	0.16502587
199	0xbc594e61	-0.013263316
200	0xbdd91e39	-0.10601468
201	0xbdbb034a	-0.09131487
202	0xbd41e006	-0.047332786
203	0x3e1a0745	0.15041836
204	0xbe288e80	-0.1646061
205	0x3ca44476	0.020052176
206	0x3b8ab966	0.004233527
207	0xbc04de5c	-0.008109655
208	0x3d3caa1d	0.04606067
209	0xbe22a901	-0.15884782
210	0x3df0431c	0.1173155
211	0x3d830231	0.06396902
212	0xbde3bf7c	-0.11120507
213	0x3e51db26	0.20493755
214	0x3d1e5408	0.038654357
215	0x3cb68b7a	0.022283304
216	0x3d7e7ea1	0.06213248
217	0x3c5c37d7	0.013441048
218	0xbe13b5ca	-0.14424816
219	0x3e089d29	0.13341202
220	0x3e29c6a8	0.16579688
221	0xbe06fb2d	-0.13181753
222	0x3e161ce8	0.14659464
223	0xbe0dcf45	-0.13848598
224	0xbe0b4c64	-0.1360336
225	0x3dd1d3f0	0.10245502
226	0x3e3e38f8	0.1857642
227	0xbd9829b7	-0.074298315
228	0x3d13e4cb	0.036106866
229	0xbdfda14b	-0.1238428
230	0xbdb424e3	-0.08796098
231	0x3de511ea	0.111850575
232	0xbd2be241	-0.04196382
233	0x3c046685	0.008081083
234	0xbd85e59e	-0.06537937
235	0x3e11d327	0.14240704
236	0x3e274964	0.1633659
237	0xbce60d61	-0.028082551
238	0x3e105d43	0.14098077
239	0xbd43464d	-0.047674466
240	0x3e116855	0.14199956
241	0x3d86f49b	0.065896235
242	0x3d894308	0.06702238
243	0x3d305b57	0.04305586
244	0xbdd4b0f9	-0.10385317
245	0x3ccbd78c	0.024883054
246	0x3e045992	0.12924793
247	0xbbb23b03	-0.0054391637
248	0xbe32981a	-0.17440835
249	0xbd82c9e6	-0.06386165
250	0x3d808f7e	0.06277369
251	0xbd60a787	-0.054847267
252	0xbdf03098	-0.117280185
253	0x3d9272de	0.071508154
254	0x3c6b1a26	0.014349496
255	0x3d812a78	0.063069284

encoder_lstm.bias_ih_l0 f4 [128]
0	0x3dfdb581	0.12388135
1	0x3d38dc8a	0.045132197
2	0x3cbf9636	0.023387056
3	0xbcd0e96a	-0.025501925
4	0x3d803b0e	0.06261264
5	0x3e2c8252	0.16846588
6	0x3debaf34	0.11508027
7	0x3d8fe2f5	0.070257105
8	0x3e3f1f90	0.18664384
9	0x3e2562a9	0.16150917
10	0x3d1403c6	0.03613641
11	0x3e815d87	0.25266668
12	0xbdeb1a40	-0.11479616
13	0xbd206b99	-0.039165113
14	0xbe0abb8c	-0.13548106
15	0x3dbad406	0.091224715
16	0x3de0e280	0.109807014
17	0x3e3b6654	0.18300754
18	0xbe3f76b1	-0.18697621
19	0xbdf6d41a	-0.12052174
20	0x3d4d9702	0.05019284
21	0xbd0908b8	-0.03345558
22	0xbd4a61b8	-0.049409598
23	0x3ea9141f	0.33023164
24	0xbe1581d9	-0.14600314
25	0x3d74f498	0.059803575
26	0x3ceee809	0.029163377
27	0xbe2c3a38	-0.16819084
28	0x3c7fe0b3	0.015617537
29	0x3e45b216	0.19306216
30	0x3e12a3b0	0.14320254
31	0x3e2f8616	0.17140993
32	0x3cdf96c0	0.027293563
33	0xbda57803	-0.08079531
34	0xbdb89b95	-0.0901405
35	0xbe0b3dde	-0.13597819
36	0xbe058020	-0.13037157
37	0xbe393516	-0.18086657
38	0x3dc1484e	0.09437619
39	0xbd196da8	-0.037458092
40	0x3e257154	0.16156512
41	0x3e013b08	0.12620175
42	0x3da25e22	0.07928111
43	0x3e1960fc	0.14978403
44	0xbd742273	-0.059603166
45	0xbe11e5e4	-0.14247853
46	0xbe1501d8	-0.14551485
47	0xbe23c0da	-0.15991536
48	0xbd0b22c9	-0.03396872
49	0xbddc1426	-0.107460305
50	0xbdf9e306	-0.122015044
51	0xbdcf4bc9	-0.10121877
52	0x3d9b4d09	0.07583053
53	0x3e4f8f6c	0.20269555
54	0xbe31ada0	-0.17351389
55	0x3c20ee26	0.009822404
56	0x3dd87f44	0.10571149
57	0xbe1c13cc	-0.15241927
58	0x3d71bf39	0.059020255
59	0x3e27878d	0.16360302
60	0xbe060df2	-0.13091257
61	0xbdfec3b2	-0.1243967
62	0xbe4f7af0	-0.2026174
63	0xbdbbfb56	-0.09178798
64	0x3d6a5aad	0.05721538
65	0x3c8107b0	0.015750736
66	0x3e2be1d8	0.16785371
67	0x3c962ac5	0.018330941
68	0xbdc02e76	-0.09383862
69	0x3e1f2d3b	0.15544598
70	0x3e2728ff	0.16324233
71	0xbce7c7c4	-0.028293498
72	0x3c0ce1ec	0.008598786
73	0x3d86147f	0.06546878
74	0x3d4483c1	0.047977213
75	0x3ca1c4ac	0.0197471
76	0xbd7513b7	-0.059833255
77	0xbab49eed	-0.0013780274
78	0x3c0929f7	0.008371822
79	0xbe073fee	-0.13207981
80	0xbde4c8fe	-0.11171149
81	0xbd6a2842	-0.0571673
82	0xbd9735f4	-0.073833376
83	0x3c4cb31a	0.012493873
84	0x3e1eb554	0.15498859
85	0x3e0b6a08	0.13614666
86	0xbd9d12bc	-0.07669589
87	0xbe1402aa	-0.14454141
88	0xbdc40ced	-0.09572778
89	0x3e278585	0.16359527
90	0xbd40360c	-0.046926543
91	0x3e4207dc	0.1894831
92	0x3e0764f2	0.13222101
93	0x3d3df7a5	0.04637875
94	0xbd0ec795	-0.034858305
95	0xbd74c8bc	-0.059761748
96	0xbe1d97ae	-0.15389892
97	0xbb4246ae	-0.002964418
98	0xbd84b8e3	-0.06480577
99	0xbce8fdf2	-0.028441403
100	0x3dc06078	0.093934
101	0x3cf66301	0.030076506
102	0x3da4d66d	0.08048711
103	0xbdbc0d5f	-0.09182238
104	0x3e4d6f8a	0.2006208
105	0xbcc2236d	-0.023698533
106	0xbdeb5292	-0.114903584
107	0x3e7b28f8	0.24527347
108	0xbd96b0ff	-0.07357978
109	0x3e1c0c8a	0.15239158
110	0x3dd70c4e	0.10500394
111	0x3d01a004	0.031646743
112	0xbe210323	-0.15723853
113	0x3e099700	0.13436508
114	0x3e0259ae	0.12729523
115	0xbe127216	-0.14301333
116	0x3e0ae62c	0.13564366
117	0xbddac512	-0.106821194
118	0x3dd14184	0.10217574
119	0x3e78c042	0.2429209
120	0x3d754770	0.05988258
121	0x3d65b05a	0.056076385
122	0xbd500aee	-0.050791673
123	0x3e01e63e	0.12685487
124	0x3da08ab0	0.078389525
125	0x3e034209	0.12818159
126	0xbdd39504	-0.10331157
127	0xbd9274cb	-0.07151183

encoder_lstm.bias_hh_l0 f4 [128]
0	0xbca35439	-0.019937621
1	0x3d561104	0.05226232
2	0x3bc07cc4	0.005874248
3	0xbd9b205e	-0.07574533
4	0x3dd57719	0.10423107
5	0x3df2a744	0.1184831
6	0x3c881524	0.016611643
7	0xbd9c02d1	-0.07617725
8	0x3e59512c	0.21222371
9	0x3dc32525	0.09528569
10	0x3dae3193	0.08505549
11	0x3e04c3e8	0.12965357
12	0xbdab0b5c	-0.08351776
13	0xbdba4186	-0.09094529
14	0x3d3db674	0.04631658
15	0xbc37c249	-0.011215755
16	0x3d005e67	0.03134003
17	0x3e9b5875	0.30340925
18	0xbdc99510	-0.098428845
19	0x3c28f627	0.010312594
20	0xbdf28499	-0.11841697
21	0x3db17316	0.08664529
22	0xbdc30c5e	-0.09523843
23	0x3d908696	0.0705692
24	0x3d356c51	0.04429275
25	0xbcd85910	-0.026409656
26	0xbca570ed	-0.020195449
27	0x372a13c0	1.0137388e-05
28	0x3dabaacd	0.08382187
29	0xbe0d5ade	-0.13804194
30	0x3e35656e	0.17714474
31	0xbcde2eb1	-0.027121874
32	0xbd9585de	-0.07300924
33	0xbd3b0c41	-0.045665983
34	0x3db62c18	0.08895129
35	0x3e0da071	0.13830735
36	0xbe358ec3	-0.1773024
37	0x3ccf8146	0.025330197
38	0x3d0bd8ab	0.034142178
39	0xbe14c050	-0.14526486
40	0x3d46e5ac	0.048558876
41	0xbdcf95ee	-0.10136019
42	0x3aa59dee	0.0012635568
43	0xbd987614	-0.074443966
44	0xbd50bcc6	-0.05096128
45	0xbdc9cb7f	-0.09853267
46	0xbd880723	-0.06641986
47	0x3dae93ab	0.08524259
48	0x3e2208d4	0.1582368
49	0xbdd8e3f6	-0.10590355
50	0xbd978bc6	-0.073997065
51	0xbd567c73	-0.052364778
52	0xbdbb049a	-0.09131737
53	0x3ce0d1e3	0.027443832
54	0x3be033e8	0.006842125
55	0x3da7979a	0.081832126
56	0x3dde7522	0.10862185
57	0xbe1b53b5	-0.1516865
58	0xbdbb0ea5	-0.091336526
59	0x3dfdf3ea	0.124000385
60	0x3d09b13c	0.03361629
61	0xbde7d7a3	-0.11320426
62	0x3d8577a2	0.06516959
63	0x3dbcec76	0.09224789
64	0xbd186074	-0.03720136
65	0xbe145eb2	-0.14489248
66	0x3dc385a0	0.09546971
67	0xbc7f68b6	-0.01558893
68	0x3e13a25e	0.14417407
69	0xbd6a86cf	-0.05725747
70	0xbc88a7c6	-0.016681563
71	0x3e000770	0.12502837
72	0x3cd35691	0.025798114
73	0xbe083c74	-0.13304311
74	0x3cf8ac14	0.03035549
75	0xbd25f7f6	-0.040519677
76	0xbe00ac6e	-0.12565777
77	0xbdf70902	-0.12062265
78	0x3de304f4	0.11084929
79	0xbdf9d0d2	-0.121980324
80	0xbd318659	-0.043341015
81	0xbdf177a6	-0.11790399
82	0xbe14b1c8	-0.14520943
83	0xbe0695be	-0.1314306
84	0x3e07bf7e	0.13256642
85	0x3bbc4120	0.005745068
86	0x3d844395	0.06458203
87	0xbda1f120	-0.07907319
88	0x3e2d709e	0.16937491
89	0xbd49d1cc	-0.049272344
90	0xbd7fd462	-0.062458403
91	0xbdadd81b	-0.084884845
92	0x3e10bee7	0.14135323
93	0xbe3f3660	-0.18673086
94	0xbc98b69e	-0.018641766
95	0xbd269de4	-0.04067792
96	0x3dcefac8	0.101064265
97	0xbd782138	-0.060578555
98	0x3cd7b7a8	0.026332691
99	0xbe0e48a2	-0.13894895
100	0x3e79546e	0.24348614
101	0x3e47b3ba	0.19502154
102	0x3e4b5159	0.1985525
103	0xbc21fbdc	-0.009886708
104	0xbe059742	-0.13045982
105	0x3e35d790	0.17758012
106	0x3cfae3e2	0.030626241
107	0x3df35f6b	0.11883434
108	0x3e29044c	0.16505545
109	0xbd679c88	-0.056545764
110	0x3de61c39	0.11235852
111	0x3d8ba979	0.06819434
112	0x3e316352	0.17323044
113	0xbd3584f6	-0.044316255
114	0xbe0cd345	-0.13752468
115	0xbdb45e82	-0.088070884
116	0x3c8b2797	0.016986651
117	0x3e279c37	0.16368185
118	0xbcf4358c	-0.02981069
119	0x3e813ded	0.25242558
120	0xbd0b16f1	-0.033957426
121	0xbdbed966	-0.09318809
122	0xbcde16d8	-0.027110502
123	0x3da43930	0.0801872
124	0xbe464db1	-0.19365574
125	0x3df1b11e	0.118013605
126	0x3d7798d8	0.060448498
127	0x3dec093a	0.11525197

dest_lstm_obs.weight_ih_l0 f4 [128, 2]
0	0x3c7dee11	0.015498654
1	0xbe3d1928	-0.18466628
2	0xbd80341b	-0.06259938
3	0xbdcae130	-0.09906232
4	0x3c897153	0.01677767
5	0x3db16078	0.08660978
6	0x3de9c457	0.11414402
7	0xbc1aeb26	-0.009455478
8	0xbd8f380d	-0.06993113
9	0xbdd02ef4	-0.101652056
10	0xbe3afb22	-0.18259862
11	0x3dacad5e	0.08431505
12	0xbcebac72	-0.028768752
13	0xbdd5d0e8	-0.10440236
14	0x3decda34	0.115650564
15	0x3d871ecb	0.0659767
16	0xbe1d8a78	-0.15384853
17	0x3dbc9c28	0.09209472
18	0x3dc2acc2	0.09505607
19	0xbd8e7aa1	-0.06956983
20	0x3e290655	0.16506322
21	0xbdcbe774	-0.099562556
22	0x3e0eafb5	0.13934214
23	0xbd7aafc6	-0.061202787
24	0x3c069f06	0.008216625
25	0xbaaca10b	-0.0013170553
26	0xbe15171f	-0.14559601
27	0x3e093c79	0.13401975
28	0xbd1e2d66	-0.038617514
29	0x3dc5e8c3	0.096635364
30	0xbdf6fce0	-0.12059951
31	0x3dafcebb	0.085843526
32	0xbc80c75d	-0.015720064
33	0xbc88f299	-0.016717242
34	0xbdf081c3	-0.117435
35	0x3dbdb506	0.09263043
36	0xbb978b73	-0.004624778
37	0x3e03740a	0.12837234
38	0x3d5e839d	0.054324735
39	0x3de5bfc0	0.11218214
40	0xbd989250	-0.07449782
41	0x3e1ca487	0.15297137
42	0x3da9bbce	0.08287774
43	0xbdc1bf23	-0.094602846
44	0x3dc414ca	0.09574278
45	0xbd99aaed	-0.07503305
46	0xbd83d4e8	-0.06437093
47	0x3d7f490c	0.062325522
48	0xbbd1b3e8	-0.0063996203
49	0xbe0bc5f9	-0.1364974
50	0x3d197893	0.037468504
51	0xbdfeb1b9	-0.12436242
52	0xbdbed97c	-0.093188256
53	0x3dab9911	0.083788045
54	0xbe2e6978	-0.1703242
55	0xbe0543cc	-0.13014144
56	0xbdd5e995	-0.10444943
57	0xbc7731d4	-0.015087564
58	0x3e1b7b71	0.15183808
59	0xbbda9088	-0.0066700615
60	0x3ddc3b3b	0.10753485
61	0xbdb39074	-0.087677866
62	0x3dfd909e	0.12381099
63	0xbdc23506	-0.0948277
64	0xbcaa7965	-0.020809839
65	0x3deac220	0.11462808
66	0xbd1dfcf3	-0.03857131
67	0x3c339318	0.010960363
68	0xbb9d4708	-0.0047997274
69	0xbd0eef00	-0.034895897
70	0xbd9e5e33	-0.07732811
71	0xbd8ab98a	-0.0677367
72	0xbcc09709	-0.02350952
73	0x3d1970c2	0.03746105
74	0xbc38b9e3	-0.011274788
75	0xbb96f4d8	-0.0046068244
76	0x3c955bb0	0.018232197
77	0x3d88bde3	0.06676843
78	0xbe3c0ac6	-0.18363485
79	0x3d8f1cf7	0.069879465
80	0xbe193798	-0.14962614
81	0x3db6ae7c	0.08919999
82	0xbc4c2fd4	-0.012462575
83	0xbdcabe00	-0.09899521
84	0xbdcadcf0	-0.09905422
85	0xbd30a776	-0.043128453
86	0xbdb2238c	-0.08698186
87	0xbd37d09f	-0.04487669
88	0xbe1267ae	-0.14297363
89	0x3df9c4ba	0.12195726
90	0xbd8a6fc0	-0.06759596
91	0xbd2e48db	-0.04254995
92	0x3d10b0a1	0.035324696
93	0xbd0afea8	-0.033934265
94	0x3c93cd78	0.018042311
95	0xbdc83b9c	-0.097769946
96	0xbe027b9f	-0.1274247
97	0xbdcb8f16	-0.09939401
98	0xbc9592ba	-0.018258441
99	0x3d738c16	0.05945977
100	0x3d8a195e	0.0674312
101	0xbe31ce06	-0.17363748
102	0xbd5c2a0c	-0.053751037
103	0xbe513083	-0.20428662
104	0x3c812522	0.015764777
105	0xbe05a6c4	-0.13051897
106	0x3d8ab751	0.06773246
107	0x3dd896bd	0.10575626
108	0xbdd762cc	-0.10516891
109	0x3d8f69da	0.070026115
110	0xbe66f0b7	-0.22552763
111	0x3d842d26	0.06453924
112	0x3cb106af	0.021609632
113	0x3de8f218	0.11374301
114	0xbce3ee82	-0.02782369
115	0xbda16b66	-0.07881813
116	0x3d44de27	0.048063423
117	0xbdf14d7a	-0.117823556
118	0xbca1a565	-0.019732187
119	0xbd1cefc8	-0.03831461
120	0x3def9e6b	0.11700138
121	0x3c837d50	0.016050965
122	0xbda77e37	-0.081783704
123	0xbd0f3714	-0.034964636
124	0xbdf1b15c	-0.11801407
125	0xbd84ceed	-0.064847805
126	0xbde184ad	-0.11011634
127	0xbc435457	-0.011921964
128	0xbdefe83e	-0.117142186
129	0xbcdd234c	-0.02699437
130	0x3c263060	0.010143369
131	0x3d2747a9	0.040839825
132	0xbd7aa3a1	-0.061191205
133	0x3cdca0ac	0.026932083
134	0xbd29933f	-0.04140019
135	0x3d2d7092	0.042343684
136	0xbe13c2ce	-0.14429781
137	0x3e01801c	0.12646526
138	0x3d8e5d86	0.06951432
139	0x3d99d381	0.07511044
140	0x3e0fbb13	0.14036207
141	0xbdfcfe06	-0.123531386
142	0x3cf170f8	0.029472813
143	0x3d7adc8d	0.06124549
144	0x3b899045	0.0041981065
145	0xbdff0620	-0.1245234
146	0xbde543bc	-0.1119456
147	0xbc3c6c35	-0.011500408
148	0x3d8a077e	0.0673971
149	0xbd84571b	-0.064619265
150	0x3dd37bfe	0.10326384
151	0xbd9cde60	-0.07659602
152	0x3c5ecc58	0.013598524
153	0x3cb02626	0.021502566
154	0x3c88a984	0.016682394
155	0x3d19782a	0.037468113
156	0xbca71f95	-0.020400802
157	0xbdb358a3	-0.087571405
158	0x3de744a0	0.11292386
159	0xbe0f6d17	-0.14006458
160	0xbd89a628	-0.06721145
161	0x3763b58c	1.3572524e-05
162	0xbd03f668	-0.032217413
163	0x3d8e9f0f	0.06963932
164	0x3d67196e	0.056420736
165	0xbbf46849	-0.007458721
166	0x3aa5b0ce	0.0012641193
167	0xbc3c8111	-0.011505381
168	0xbdcd76ac	-0.100324005
169	0xbd5148a2	-0.05109466
170	0xbc5d6cca	-0.013514707
171	0xbc1302b0	-0.008972809
172	0xbe12cabf	-0.14335154
173	0x3df9b275	0.12192241
174	0x3dfadc71	0.12249077
175	0xbdace432	-0.08441962
176	0xbb8f576f	-0.0043744366
177	0x3da89332	0.082312
178	0x3dae3a4a	0.085072115
179	0x3d6b10ca	0.05738906
180	0x3dfa0682	0.122082725
181	0xbd1f8829	-0.03894821
182	0x3cdf3309	0.027246015
183	0x3d36c450	0.044620812
184	0xbcf598dc	-0.029980116
185	0x3dbae55d	0.09125779
186	0xbd42787e	-0.04747819
187	0xbde1c701	-0.11024285
188	0xbcbd9e64	-0.023146816
189	0x3d3e7787	0.04650071
190	0x3dbca47c	0.092110604
191	0x3cbd1980	0.023083448
192	0xbdcf91f6	-0.10135262
193	0x3dc820b0	0.0977186
194	0xbde1ed5e	-0.11031602
195	0xbafe20c9	-0.0019388433
196	0xbd58a6c2	-0.052893408
197	0x3ddeca54	0.10878435
198	0xbdaf910c	-0.08572587
199	0x3d6e723e	0.05821442
200	0xbd84b13b	-0.064791165
201	0xbd0d0ce0	-0.034436107
202	0xbc494c68	-0.012286283
203	0x3d7322dd	0.05935942
204	0x3da5e1ab	0.080996834
205	0xbd2596e9	-0.040427122
206	0xbd8fd40b	-0.07022866
207	0x3c92dd73	0.01792786
208	0xbc0cf171	-0.008602486
209	0x3db74f8b	0.089507185
210	0x3d8811e8	0.0664404
211	0x3d8b6b86	0.06807618
212	0x3d371c65	0.044704814
213	0xbd458bd1	-0.048229042
214	0xbd3a3bb4	-0.045467094
215	0xbdf851df	-0.12124991
216	0x3e0a0cfd	0.13481517
217	0xbe05a000	-0.13049316
218	0xbe172289	-0.14759268
219	0x3dab5d02	0.08367349
220	0x3d891de5	0.06695155
221	0xbe06d76a	-0.13168111
222	0xbe340bed	-0.17582674
223	0x3e04706f	0.12933515
224	0x3d02175f	0.03176057
225	0xbddf1851	-0.1089331
226	0x3d6a5272	0.057207532
227	0xbe0173c8	-0.12641823
228	0x3d9586ec	0.07301125
229	0xbe1f4e40	-0.15557194
230	0xbdee493c	-0.11635062
231	0x3dce3fa2	0.10070731
232	0x3d86b555	0.06577555
233	0xbd496541	-0.04916883
234	0xbe21c3f4	-0.15797406
235	0x3d71d3e8	0.05903998
236	0xb9b378da	-0.00034231582
237	0xbd0e3cdb	-0.034726005
238	0x3dd72343	0.105047725
239	0xbd4c5b90	-0.04989201
240	0x3c800620	0.01562792
241	0x3da586e2	0.080823675
242	0x3d607da0	0.054807305
243	0x3d2cb790	0.042167246
244	0x3ded5912	0.115892544
245	0xbe25fbea	-0.16209379
246	0x3ddd3de8	0.10802823
247	0x3dbf9a58	0.093556106
248	0xbd2a2a15	-0.04154404
249	0x3d7e0484	0.062016025
250	0x3d5ce862	0.053932555
251	0x3dccea0e	0.1000558
252	0xbd047a9e	-0.0323435
253	0xbdcff6fc	-0.101545304
254	0xbd90c1e7	-0.07068234
255	0x3d8fbcf4	0.07018462

dest_lstm_obs.weight_hh_l0 f4 [128, 32]
0	0x3e6db76d	0.23214503
1	0xbe41294c	-0.1886341
2	0xbc04a731	-0.008096502
3	0xbdc0bac8	-0.09410626
4	0x3d4a9923	0.04946245
5	0x3dd440af	0.103639
6	0x3d940426	0.07227354
7	0xbe30ba2e	-0.17258522
8	0x3e43513c	0.19073957
9	0x3e511406	0.20417795
10	0xbe0a0bb6	-0.1348103
11	0xbd2f1d95	-0.04275282
12	0xbe0b52a2	-0.1360574
13	0xbd77f072	-0.06053204
14	0x3e2abe31	0.16674115
15	0x3e2ecb60	0.17069769
16	0x3deef961	0.11668659
17	0xbd6f8494	-0.058476046
18	0xbd4c86e4	-0.04993333
19	0x3dc8bfdc	0.09802219
20	0xbd9b38e0	-0.075792074
21	0x3de379a1	0.11107183
22	0x3c84cc46	0.016210686
23	0xbdf659c0	-0.12028837
24	0xbc99f06b	-0.018791398
25	0xbd1bc9ee	-0.038034372
26	0xbc2ff1a5	-0.010738765
27	0xbe5565ea	-0.20839658
28	0xbdf257fb	-0.11833187
29	0xbde6ab9c	-0.11263201
30	0xbe23feb0	-0.16015124
31	0xbe1fc8f9	-0.15604009
32	0xbd9ca137	-0.07647937
33	0x3b65185e	0.003495715
34	0x3e325e6c	0.17418832
35	0x3b107124	0.0022040093
36	0x3d768589	0.060185943
37	0xbdfbbbec	-0.12291703
38	0x3cad83bb	0.021180978
39	0xbdbf6d78	-0.093470514
40	0x3ce1ccad	0.027563417
41	0x3de0b04e	0.109711275
42	0xbe055586	-0.13020906
43	0x3deef34e	0.116675004
44	0x3e2748cc	0.16336364
45	0xbce81e80	-0.028334856
46	0xbbabed16	-0.0052467687
47	0xbdac7512	-0.08420767
48	0xbe025aff	-0.12730025
49	0x3c226877	0.009912602
50	0xbe36cde6	-0.17851982
51	0xbe1ad1ee	-0.15119144
52	0xbbd0e57e	-0.006375014
53	0xbb9abba6	-0.0047220765
54	0xbd11910e	-0.035538726
55	0xbdf738c3	-0.12071373
56	0x3d36ccad	0.044628788
57	0xbe0a9e49	-0.13536943
58	0xbe577d9c	-0.2104401
59	0xbd7c4e51	-0.061598126
60	0xbce94bd6	-0.028478544
61	0xbe0c7728	-0.1371733
62	0x3d50c456	0.05096849
63	0x3dbff0e9	0.09372122
64	0xbd711a09	-0.05886272
65	0x3dc0634a	0.09393938
66	0x3e36e79c	0.1786179
67	0xbdeed803	-0.11662295
68	0xbd62c88c	-0.055367038
69	0x3dc536a2	0.09629561
70	0x3e4b45de	0.19850871
71	0xbcdc72a7	-0.02691014
72	0x3e6b77ad	0.22994871
73	0xbd71c5c0	-0.05902648
74	0x3da5c21b	0.08093663
75	0x3d15bdad	0.036557842
76	0x3dbdf1ec	0.092746586
77	0xbe5aea72	-0.21378496
78	0xbd36ac6c	-0.044598028
79	0xbd722c9e	-0.05912458
80	0x3d841904	0.06450084
81	0x3e12f49d	0.14351125
82	0xbdda601d	-0.106628634
83	0x3df8d130	0.12149274
84	0x3dbc324c	0.09189281
85	0xbdfdf497	-0.124001674
86	0xbe0409c6	-0.12894353
87	0xbdb00cc2	-0.08596183
88	0xbd885a2c	-0.06657824
89	0x3e05e415	0.13075288
90	0x3d9d0be4	0.076682836
91	0xbd90e962	-0.07075764
92	0xbe4f339c	-0.20234531
93	0xbda9bccd	-0.08287964
94	0xbe0880a6	-0.13330325
95	0xbdb27cff	-0.08715247
96	0x3e45714b	0.19281499
97	0x3dd7abc6	0.1053081
98	0x3d6d8cf4	0.05799575
99	0xbe2adb6c	-0.16685265
100	0xbdb6fe03	-0.08935168
101	0xbd3b7c5b	-0.04577289
102	0x3e5d6cd2	0.21623543
103	0xbc520f98	-0.012821101
104	0x3d364583	0.044499885
105	0x3e295d98	0.1653961
106	0x3d5896bb	0.052878123
107	0x3e82d064	0.25549614
108	0x3dca50dc	0.09878704
109	0xbd8f58f5	-0.06999389
110	0xbdb69eae	-0.089169845
111	0xbcf3ff43	-0.029784804
112	0x3d86d636	0.06583826
113	0xbdbfc706	-0.093641326
114	0xbe0fe876	-0.1405352
115	0x3d88c012	0.066772595
116	0x3e2a1ef3	0.16613369
117	0x3e356cb4	0.17717248
118	0x3df06ca0	0.117394686
119	0x3e4d7c3d	0.20066924
120	0x3cdbd75c	0.02683609
121	0x3c85f90c	0.016354106
122	0x3d947366	0.07248573
123	0x3daac15e	0.08337663
124	0xbdde0a1a	-0.108417705
125	0x3e53eaef	0.20695089
126	0xbd889389	-0.06668765
127	0x3d3f421e	0.046693914
128	0x3adbd5a2	0.0016772042
129	0xbb990360	-0.004669592
130	0xbd793bd8	-0.060848087
131	0xbd986248	-0.07440621
132	0xbdc17418	-0.09445971
133	0xbc889ca8	-0.016676262
134	0xbc950df2	-0.018195126
135	0xbd0ab311	-0.033862177
136	0xbdf5e0fa	-0.120058015
137	0x3e2d19a0	0.16904306
138	0x3d45a0c6	0.04824903
139	0xbe6d6ee4	-0.23186833
140	0xbe51bd3d	-0.20482345
141	0x3ce47fe8	0.027893022
142	0x3e1a2986	0.15054902
143	0x3d60e35f	0.054904338
144	0x3d7911ab	0.060807865
145	0x3d330e17	0.04371461
146	0xbd85d036	-0.06533854
147	0xbdfdcd06	-0.12392621
148	0xbda5d472	-0.08097161
149	0xbd5c9cd0	-0.053860486
150	0x3cc621e2	0.024186078
151	0x3ca72e36	0.020407777
152	0x3c4a6a01	0.012354375
153	0x3d14b16d	0.03630202
154	0x3d477c82	0.048702724
155	0xbc35f144	-0.0111048855
156	0xbd8586b8	-0.06519836
157	0x3d188b81	0.037242416
158	0x3d4dd7a7	0.05025449
159	0xbc8886f4	-0.016665913
160	0x3e35453c	0.17702192
161	0x3da0b19a	0.07846375
162	0xbd98b715	-0.07456795
163	0x3dc7b219	0.09750766
164	0x3d83d926	0.06437902
165	0x3d270aad	0.040781666
166	0x3e00882e	0.12551948
167	0xbde25af8	-0.11052507
168	0x3e37845a	0.17921582
169	0x3d05c9a3	0.032663
170	0x3de72cba	0.11287828
171	0x3d79cea7	0.060988095
172	0x3d884992	0.066546574
173	0x3d8b7d22	0.068109766
174	0x3d910b5d	0.070822455
175	0x3e0468d8	0.1293062
176	0x3db2bc39	0.08727307
177	0x3d98f144	0.07467893
178	0xbe2d1a15	-0.16904481
179	0x3cdaec7a	0.026724089
180	0x3df324c2	0.11872245
181	0xbd3bae07	-0.045820262
182	0x3cf5d085	0.030006656
183	0x3c07d4f6	0.00829052
184	0x3d006436	0.03134557
185	0xbe275dfb	-0.16344444
186	0xbe13ddc8	-0.14440072
187	0x3de3787e	0.111069664
188	0xbe4cd3c7	-0.20002662
189	0xbd5ead38	-0.054364413
190	0xbc0da262	-0.008644672
191	0x3b10592e	0.0022025811
192	0x3e80f188	0.25184274
193	0xbe0c693a	-0.13712016
194	0x3e4360ce	0.19079897
195	0x3dfc74ef	0.12326991
196	0x3dd151e0	0.102206945
197	0x3dfb399b	0.12266847
198	0xbd82cb5f	-0.06386446
199	0x3db9a48b	0.09064587
200	0xbd6c12f2	-0.057635255
201	0x3da804f2	0.08204068
202	0xbe89d3b1	-0.2691932
203	0x3db9fb90	0.09081185
204	0xbdf5809e	-0.119874224
205	0x3e1a1cc4	0.15050036
206	0xbbbdbbda	-0.005790216
207	0xbe29b13f	-0.1657152
208	0x3e8a8852	0.2705713
209	0xbde1debd	-0.11028812
210	0xbce9393d	-0.028469676
211	0xbd6fb339	-0.05852053
212	0x3cbc5113	0.022987878
213	0x3e7449c6	0.23856267
214	0x3d305db9	0.04305813
215	0x3cec8668	0.028872684
216	0xbe049da1	-0.12950756
217	0xbe91c200	-0.28468323
218	0xbe5aee23	-0.21379904
219	0x3d7fde42	0.06246782
220	0x3b83535c	0.00400774
221	0x3d7529b4	0.059854224
222	0x3ddd9577	0.10819524
223	0xbcf7970c	-0.030223392
224	0x3d8f85ba	0.07007928
225	0xbde32d6d	-0.11092649
226	0x3ded4439	0.11585278
227	0xbe15fcde	-0.14647242
228	0x3dde9407	0.10868078
229	0xbcd86659	-0.02641599
230	0xbd4713d5	-0.048602898
231	0x3ca342cc	0.019929312
232	0x3dbf6ea4	0.09347275
233	0x3d86527c	0.065587014
234	0xbdf99e8c	-0.121884435
235	0xbe9099cc	-0.28242338
236	0x3d9866e5	0.074415006
237	0xbd3e5f9a	-0.04647789
238	0xbd917097	-0.07101553
239	0xbd02aa69	-0.031900797
240	0xbe138a73	-0.14408283
241	0xbd170c15	-0.036876757
242	0xbd7f9cbd	-0.062405337
243	0x3df0a1d8	0.11749619
244	0x3db2108a	0.08694561
245	0x3c63485a	0.01387223
246	0x3c9ba9cf	0.01900187
247	0xbda8ddd1	-0.08245433
248	0xbce8ddd4	-0.028426088
249	0x3d15e469	0.036594782
250	0xbd8bc190	-0.068240285
251	0xbd696ec9	-0.05699042
252	0x3c0e5d6e	0.008689268
253	0xbd2b07cd	-0.041755486
254	0x3e00a0ab	0.1256129
255	0x3de37959	0.111071296

dest_lstm_obs.bias_ih_l0 f4 [128]
0	0x3dcc03f2	0.0996169
1	0xbe390a28	-0.1807028
2	0xbd19f3cb	-0.037586015
3	0xbd98ae71	-0.07455147
4	0x3dd225f5	0.10261146
5	0xbdbf6c56	-0.09346835
6	0xbdae348a	-0.08506115
7	0xbb9f29f8	-0.004857298
8	0xbe192fef	-0.14959691
9	0xbe130630	-0.14357829
10	0xbd8271a4	-0.063693315
11	0x3d9c3641	0.076275356
12	0xbd8cf0b8	-0.06881851
13	0xbd96e5b3	-0.073680304
14	0x3cad264c	0.021136425
15	0x3dad3f27	0.08459311
16	0x3dbd324c	0.09238109
17	0xbd290e14	-0.04127319
18	0xbdeb9aa0	-0.11504102
19	0x3dac8c71	0.084252246
20	0x3da2941a	0.079384044
21	0xbda24004	-0.07922366
22	0xbe63e736	-0.22256169
23	0x3ce48c75	0.027899006
24	0xbd15b240	-0.036546946
25	0xbda1e8ee	-0.07905756
26	0xbd6bc83f	-0.057564016
27	0xbd00f857	-0.031486835
28	0xbd605b64	-0.054774657
29	0x3df46e27	0.119350724
30	0x3d4f2bf1	0.050579015
31	0xbde7e927	-0.11323767
32	0xbe3b81db	-0.18311255
33	0xbda0bb8e	-0.07848273
34	0xbe19dd64	-0.1502586
35	0x3dba6bee	0.09102617
36	0xbe50263e	-0.20327088
37	0xbc3bb06c	-0.0114556365
38	0xbd131e2e	-0.035917453
39	0xbcbf9557	-0.02338664
40	0xbd40b3ef	-0.047046598
41	0x3debffde	0.11523412
42	0xbe2308c6	-0.15921316
43	0x3ce5f9c6	0.028073203
44	0xbe24d1bf	-0.16095637
45	0x3d632c2a	0.05546204
46	0xbda651f4	-0.081211
47	0xbe830d01	-0.2559586
48	0xbe52d91c	-0.20590633
49	0x3ddc633b	0.10761114
50	0xbe6610ac	-0.22467297
51	0x3ce28bcb	0.02765455
52	0xbe1393a6	-0.14411792
53	0x3d3265dd	0.043554176
54	0x3d8e8fae	0.069609985
55	0xbd0b135c	-0.03395401
56	0xbe084712	-0.13308361
57	0x3db8db93	0.090262555
58	0xbd0e2e69	-0.03471223
59	0x3d749aaf	0.05971783
60	0xbe397ef0	-0.18114829
61	0xbdc27ddc	-0.09496662
62	0x3e7cf094	0.24701148
63	0xbb9100f1	-0.004425161
64	0xbc4deffa	-0.012569422
65	0x3db05171	0.08609284
66	0x3de893fe	0.11356352
67	0xbe062701	-0.13100816
68	0x3df0d6c4	0.11759713
69	0xbcbd9b02	-0.023145203
70	0xbda7face	-0.08202134
71	0xbd7062a3	-0.058687817
72	0xbd5036a0	-0.050833344
73	0xbd0157d8	-0.031577915
74	0x3dbb191c	0.091356486
75	0x3e2ad62e	0.16683266
76	0x3e2bb469	0.1676804
77	0x3cded18c	0.02719953
78	0xbd6052ff	-0.05476665
79	0xbe5786e2	-0.21047547
80	0x39a5a0ba	0.00031591003
81	0x3cc05a2c	0.023480497
82	0x3db5267f	0.08845233
83	0xbd7a7a16	-0.061151586
84	0xbbe53712	-0.0069950903
85	0x3cccb061	0.024986448
86	0x3dd7979d	0.10526965
87	0xbd7022c7	-0.058626916
88	0x3e7c5b2e	0.24644157
89	0x3bfaaa45	0.0076496922
90	0xbc8b57d5	-0.017009655
91	0xbd2c149c	-0.042011842
92	0x3d860d83	0.06545546
93	0x3dda23df	0.10651373
94	0xbde9a680	-0.114087105
95	0x3dcc9467	0.09989243
96	0xbd7da4e9	-0.06192485
97	0x3d9c0e50	0.076199174
98	0xbdab9ac0	-0.083791256
99	0x3dd789cb	0.10524329
100	0x3d474b3c	0.048655733
101	0xbd8f0042	-0.06982471
102	0xbda08de0	-0.078395605
103	0xbe4a0d00	-0.19731522
104	0xbe6183a6	-0.22022876
105	0x3e1bfc88	0.15233052
106	0x3e21e23c	0.15808958
107	0xbdc6570d	-0.09684572
108	0x3e1b2fbf	0.15154932
109	0x3db6ef04	0.08932307
110	0xbccae669	-0.024768071
111	0xbc9fc499	-0.019502925
112	0xbd7b1a76	-0.061304532
113	0xbca5eb84	-0.020253904
114	0xbd242148	-0.040070802
115	0xbe1162ee	-0.14197895
116	0x3e0c5b76	0.13706765
117	0xbc07b395	-0.008282562
118	0x3deb3387	0.114844374
119	0xbe4b6e49	-0.19866289
120	0xbe2e5e71	-0.17028214
121	0xbd34f402	-0.044178016
122	0x3d844063	0.06457593
123	0x3c8fc564	0.017550178
124	0xbe3326ba	-0.17495242
125	0xbde550ba	-0.11197038
126	0x3e1d1de8	0.1534344
127	0x3e0282be	0.12745187

dest_lstm_obs.bias_hh_l0 f4 [128]
0	0x3d3f9eb9	0.04678223
1	0xbda40e1d	-0.080105044
2	0xbb6a05b4	-0.0035708966
3	0x3dbf2b36	0.09334414
4	0xbe09ee31	-0.13469769
5	0x3df6a5af	0.120433204
6	0x3c632d91	0.013865844
7	0xbe1c026f	-0.15235303
8	0xbe0bb087	-0.13641559
9	0x3d943ba3	0.07237937
10	0xbda170f5	-0.07882873
11	0x3d027884	0.031853214
12	0x3d24b201	0.04020882
13	0xbd9653a8	-0.07340175
14	0x3dbbb0e0	0.091645956
15	0xbda09bb9	-0.07842202
16	0xbd947f6c	-0.07250866
17	0xbdba9f21	-0.09112383
18	0xbe492232	-0.1964195
19	0x3db19e2a	0.086727455
20	0xbd12c51b	-0.035832506
21	0xbde8790f	-0.11351215
22	0xbe5376cf	-0.2065079
23	0x3dea1164	0.11429098
24	0xbe1e7fea	-0.15478483
25	0x3d3c3e74	0.045957997
26	0x3db1c592	0.08680262
27	0xbd8a6726	-0.06757955
28	0x3cdc40d4	0.026886381
29	0x3df35edb	0.118833266
30	0x3dcd6e47	0.10030799
31	0xbc0296ca	-0.007970521
32	0xbe576ad2	-0.21036842
33	0x3e0c7145	0.13715084
34	0xbd09094c	-0.03345613
35	0xbe110713	-0.14162855
36	0x3d87c10d	0.066286184
37	0xbe48574f	-0.19564556
38	0xbe20773d	-0.15670486
39	0xbc4ddb07	-0.012564427
40	0x3dae4d10	0.08510792
41	0xbcaa70e8	-0.020805791
42	0x3db7a7a5	0.089675225
43	0xbdc3be6e	-0.09557806
44	0x3e2b7ba0	0.16746378
45	0xbc616349	-0.013756582
46	0xbd1de3d9	-0.03854737
47	0x3d439944	0.047753587
48	0x3cc0ba14	0.023526229
49	0xbde0fbaa	-0.10985501
50	0xbe1af405	-0.15132149
51	0x3e23d74e	0.16000101
52	0xbe356887	-0.17715655
53	0xbe031a53	-0.1280301
54	0x3da8ed59	0.082483955
55	0xbcdace0a	-0.026709575
56	0x3da0133d	0.078161694
57	0xbd327e6a	-0.04357759
58	0xbc5642ea	-0.013077477
59	0x3dc657e0	0.096847296
60	0xbd71827d	-0.058962334
61	0xbd9df88c	-0.07713422
62	0xbd3669a2	-0.044534333
63	0xbe40d99e	-0.18833014
64	0x3d02692f	0.031838592
65	0x3e41c8f1	0.1892431
66	0xbcd2a4db	-0.025713375
67	0xbe137509	-0.14400114
68	0x3d32336b	0.043506067
69	0x3e021b52	0.12705734
70	0x3c88b1be	0.016686317
71	0xbdde1c8c	-0.10845289
72	0x3d06ba1c	0.03289233
73	0xbd142d9a	-0.0361763
74	0x3d73ae22	0.059492238
75	0xbd46c7a3	-0.048530232
76	0x3dc1a55b	0.09455367
77	0xbdfb0dde	-0.12258504
78	0xbe04c127	-0.12964307
79	0xbdb4f83f	-0.08836412
80	0xbe4f3459	-0.20234813
81	0x3e2abc61	0.16673423
82	0xbe40e899	-0.18838729
83	0x3bddc492	0.006767818
84	0x3dbee255	0.09320513
85	0xbcabc633	-0.020968532
86	0xbe536344	-0.20643336
87	0xbdfe9c92	-0.12432207
88	0xbd65e7d0	-0.056129277
89	0x3e6a9f76	0.22912392
90	0xbdd71faa	-0.10504086
91	0x3d91a469	0.07111437
92	0xbe2f5707	-0.17123042
93	0xbe0d6788	-0.13809025
94	0xbe2cee34	-0.16887742
95	0x3d8d16e2	0.0688913
96	0xbd8c7ef3	-0.06860151
97	0xbb9fe7cd	-0.0048799277
98	0xbe44d3a5	-0.19221361
99	0x3ddf91b3	0.10916462
100	0x3c5c45ca	0.013444373
101	0x3db11832	0.08647193
102	0x3e0305c7	0.12795173
103	0x3caf9476	0.021433096
104	0x3ce655c8	0.028117076
105	0x3c36f0a6	0.0111657735
106	0x3d0a21fc	0.033723816
107	0x3b43c5cf	0.0029872542
108	0xbe1f285f	-0.15542744
109	0xbe1104b6	-0.14161953
110	0x3d6ab56f	0.057301935
111	0xbd8f03a6	-0.06983118
112	0xbdc0d7f9	-0.094161935
113	0xbd62e4f3	-0.055394124
114	0x3c857b8b	0.016294261
115	0xbdbd2ad5	-0.09236685
116	0x3dbfc84f	0.09364378
117	0x3d7daa2a	0.06192986
118	0x3da4b567	0.08042412
119	0x3d2be917	0.04197034
120	0xbcf05f8f	-0.02934244
121	0xbdd8fb92	-0.10594858
122	0xbe5bdfa0	-0.21472025
123	0xbe01c35a	-0.12672177
124	0xbe404562	-0.18776467
125	0xbde45a12	-0.11149992
126	0xbe0150e0	-0.12628508
127	0xbd81e983	-0.06343367
