do_tp_zara1_final.pt (torch, 156437 bytes, 26 tensors)

linear_enc.weight f4 [64, 2]
0	0xbf536dba	-0.82589304
1	0xbc838712	-0.016055617
2	0xbf4a9655	-0.7913564
3	0x3ed68030	0.41894674
4	0xbe91d7df	-0.2848501
5	0xbebf1d56	-0.3732707
6	0x3f4e378b	0.805535
7	0x3e817f72	0.25292546
8	0x3e5ad559	0.21370448
9	0xbf46c209	-0.77639824
10	0xbdab00d4	-0.08349767
11	0xbe9df3aa	-0.30849963
12	0x3f2133e6	0.62969816
13	0x3f160dff	0.58615106
14	0xbf3d545e	-0.7395686
15	0xbed5574a	-0.4166816
16	0xbee43b2a	-0.4457639
17	0x3e47c185	0.19507416
18	0x3ef3532d	0.47524396
19	0xbe03dfbb	-0.12878315
20	0xbe84b204	-0.25917065
21	0x3c101794	0.008794684
22	0xbf05aa99	-0.52213436
23	0xbf804f6e	-1.002424
24	0xbce637ad	-0.02810272
25	0xbeca6cb1	-0.3953605
26	0xbefd585b	-0.49481472
27	0x3f047f06	0.5175632
28	0xbf311a30	-0.69180584
29	0x3eb973f8	0.3622129
30	0x3f49baf2	0.7880088
31	0xbeed3283	-0.463276
32	0x3ee0e26f	0.43922755
33	0x3e181a21	0.14853717
34	0x3ec5ed7e	0.38657755
35	0x3f7f0e4d	0.99631196
36	0x3d245f9b	0.04013024
37	0xbea479b6	-0.32124108
38	0xbf3968d0	-0.72425556
39	0xbf1e58fb	-0.61854523
40	0xbed22355	-0.4104258
41	0xbed1df10	-0.40990496
42	0xbe9eb2bf	-0.30995747
43	0x3f87028b	1.0547651
44	0xbe45f844	-0.19332987
45	0x3f7060b3	0.9389755
46	0x3ef82e46	0.48472804
47	0xbf31c204	-0.6943667
48	0xbb96c0e8	-0.004600633
49	0xbf854e65	-1.0414549
50	0xbcbdc43c	-0.02316486
51	0x3f80020f	1.0000628
52	0xbee137b6	-0.43987817
53	0xbefc4d44	-0.492777
54	0xbed06bce	-0.40707248
55	0x3f63c1f2	0.8896781
56	0x3ed41b50	0.41427088
57	0x3f0f6890	0.56018925
58	0xbc96a23c	-0.018387906
59	0xbedee768	-0.43535924
60	0x3e3a56d7	0.1819719
61	0x3f301cbb	0.6879384
62	0xbd2f930c	-0.042864844
63	0x3f85cb18	1.0452604
64	0xbda1846a	-0.07886584
65	0x3f7d3ee5	0.98924094
66	0xbe0f72a4	-0.14008576
67	0xbecb8b1b	-0.39754567
68	0x3f39b55d	0.72542363
69	0x3e387c26	0.18016109
70	0xbf2f62ae	-0.6850995
71	0xbf3fd0f3	-0.74928206
72	0xbf3b0e7b	-0.7306897
73	0x3e7e27e0	0.24819899
74	0x3ec291e8	0.38001943
75	0x3f572f47	0.84056515
76	0x3f121128	0.5705743
77	0x3f5768e8	0.8414445
78	0x3dbbf939	0.09178395
79	0x3eee57ce	0.46551365
80	0x3eede8cb	0.4646667
81	0xbf23602e	-0.63818634
82	0xbd084a20	-0.033273816
83	0xbf1e95f6	-0.6194757
84	0x3ded8a78	0.115986764
85	0x3f164902	0.5870515
86	0xbec215b4	-0.37907183
87	0xbf46510c	-0.7746742
88	0x3f206948	0.62660646
89	0xbedc700f	-0.43054244
90	0xbed7813e	-0.4209079
91	0xbef97848	-0.4872458
92	0xbf5d8cda	-0.8654305
93	0xbed05d08	-0.40695977
94	0x3f07af5e	0.53001964
95	0x3f243e40	0.64157486
96	0xbf13a60e	-0.57675254
97	0xbf108160	-0.5644741
98	0xbeb0273e	-0.3440494
99	0xbef91908	-0.4865191
100	0xbf5551fb	-0.8332822
101	0x3f4eb9a1	0.80752
102	0xbf5322b4	-0.8247483
103	0x3e8c6e18	0.27427745
104	0x3f4f75e1	0.81039244
105	0xbee391b8	-0.44447112
106	0xbf0f093c	-0.55873466
107	0x3d639c3b	0.055568915
108	0xbeb13b11	-0.34615377
109	0x3f521757	0.82066864
110	0x3e0977da	0.13424626
111	0xbf751da3	-0.9574835
112	0xbe9da5eb	-0.30790648
113	0xbe1519eb	-0.14560668
114	0xbf263c16	-0.64935434
115	0xbf812a5d	-1.0091053
116	0x3f0c4d45	0.54805404
117	0xbe83731c	-0.2567376
118	0x3f0a6756	0.5406393
119	0xbe724fab	-0.23663203
120	0x3ef79706	0.4835741
121	0x3f2b8c90	0.67011356
122	0xbf333e64	-0.70017076
123	0xbd826b70	-0.06368148
124	0xbf3475b3	-0.70492095
125	0x3e6fcdec	0.23418397
126	0x3f5e2d96	0.8678831
127	0x3f68f812	0.91003525

linear_enc.bias f4 [64]
0	0x3dc7088e	0.097184286
1	0x3e968cf3	0.2940441
2	0xbebc3e9e	-0.36766523
3	0xbe1fddcb	-0.15611951
4	0xbeb44e4b	-0.35215983
5	0xbe0d0d76	-0.13774666
6	0x3f202afe	0.625656
7	0x3e098d4b	0.13432805
8	0x3f0a4b7f	0.5402145
9	0x3e4d168b	0.2002813
10	0xbf07f98a	-0.5311514
11	0xbd8cd9ab	-0.06877454
12	0xbea07b35	-0.31344
13	0xbe9641ea	-0.29347163
14	0xbf005cc8	-0.5014157
15	0x3eeaf49b	0.45889744
16	0xbc9b6385	-0.018968353
17	0x3eeb61d0	0.45973063
18	0xbee39468	-0.44449162
19	0x3e6fdbd0	0.23423696
20	0x3eb65b2a	0.35616428
21	0x3e21edad	0.15813322
22	0x3d81e1f4	0.06341925
23	0x3e768942	0.24075797
24	0xbe425afc	-0.1898002
25	0x3f2bb193	0.6706783
26	0x3f1e3a76	0.61807954
27	0xbf03766d	-0.5135258
28	0x3dbd4e55	0.09243456
29	0x3f2513c5	0.6448329
30	0x3e5ab5c6	0.21358404
31	0xbea591ee	-0.32337898
32	0xbe371456	-0.17878851
33	0xbe31c299	-0.1735939
34	0x3d931d21	0.0718329
35	0x3e80bd5e	0.25144476
36	0x3f06dbb3	0.52678984
37	0xbdf4c24c	-0.11951122
38	0x3e0a766c	0.13521737
39	0x3efdfd65	0.49607387
40	0xbedbea3f	-0.42952153
41	0xbe7d01d6	-0.24707732
42	0xbe6a47f2	-0.22879007
43	0x3ef7e342	0.4841557
44	0xbef5d5e6	-0.48014754
45	0x3cb1e32a	0.021714766
46	0x3f03df99	0.5151306
47	0x3e8e03a0	0.2773714
48	0x3b5af5e7	0.003341073
49	0x3f029eb2	0.510234
50	0x3f021a84	0.5082171
51	0x3d1be5c7	0.03806093
52	0x3f19d8f8	0.60096693
53	0x3f0675ae	0.52523315
54	0xbe98167a	-0.29704648
55	0xbe8c4eea	-0.27403957
56	0x3ee1ebd6	0.4412524
57	0x3e93ab65	0.288417
58	0xbe3d4c37	-0.18486105
59	0xbe1191cb	-0.14215772
60	0x3f20a9cd	0.62759095
61	0xbed0da78	-0.40791678
62	0xbdeebbff	-0.11656951
63	0xbdd7b5e5	-0.105327405

encoder_lstm.weight_ih_l0 f4 [128, 64]
0	0xbdf7891d	-0.12086699
1	0xbd81fdd3	-0.06347241
2	0xbd027f2f	-0.031859573
3	0xbda389ef	-0.07985293
4	0xbdce52ed	-0.100744106
5	0xbe1d3149	-0.15350832
6	0x3c8ba7d4	0.0170478
7	0x3dc5795b	0.09642287
8	0x3def6502	0.116891876
9	0x3d36012a	0.044434704
10	0xbe288b25	-0.1645933
11	0xbe41ad5c	-0.18913788
12	0xbe5f7ede	-0.2182574
13	0x3d4364c0	0.047703505
14	0x3c5f68b5	0.013635804
15	0x3e34017f	0.17578696
16	0x3d6b37ab	0.057426136
17	0x3e6aff03	0.22948842
18	0xbcaf266a	-0.021380622
19	0xbdf27f38	-0.11840671
20	0x3d03944d	0.032123853
21	0x3e3f7e26	0.18700466
22	0x3c3fc82f	0.011705442
23	0x3d6b85d0	0.05750066
24	0xbe8226fa	-0.25420362
25	0x3e14e873	0.14541797
26	0x3e18588d	0.1487753
27	0xbd66fde0	-0.056394458
28	0x3e906bfe	0.28207392
29	0x3e282829	0.1642157
30	0x3d9fed96	0.07808988
31	0xbe552571	-0.20815064
32	0x3d381b4b	0.044947904
33	0xbe4354bf	-0.19075297
34	0x3e95416d	0.29151478
35	0xbcf8111d	-0.030281598
36	0xbd4a919a	-0.049455263
37	0xbd8fd45a	-0.07022925
38	0x3e928191	0.28614476
39	0x3e8a970a	0.2706836
40	0xbddaf324	-0.10690907
41	0xbd325d1d	-0.04354583
42	0xbe175b99	-0.14781035
43	0xbe086dd5	-0.13323148
44	0xbe3b024c	-0.18262595
45	0x3d939b2d	0.07207332
46	0xbd9d3cd9	-0.076776214
47	0x3d262b8f	0.040568884
48	0xbcfd0f10	-0.030890971
49	0x3e4f8ba2	0.2026811
50	0x3d98b3fe	0.07456206
51	0xbd08a975	-0.03336473
52	0x3e36b6e8	0.1784321
53	0xbdda89d5	-0.106708206
54	0xbe0ca151	-0.13733412
55	0x3c4a6251	0.012352542
56	0xbddbc07c	-0.10730073
57	0x3e39e2c0	0.18152905
58	0xbe5d6126	-0.2161909
59	0xbc981a49	-0.018567221
60	0x3e0d0b58	0.13773859
61	0x3ce2ae53	0.027671015
62	0xbe988cfa	-0.29795057
63	0xbdca7f59	-0.09887571
64	0xbe08e8f1	-0.1337011
65	0xbe0d6f66	-0.13812026
66	0xbdefbda3	-0.11706092
67	0xbc0c38b8	-0.008558445
68	0x3d5b3655	0.053518612
69	0xbc894f9e	-0.016761597
70	0x3c6edf7b	0.014579649
71	0xbe81d3fe	-0.2535705
72	0xbe0ad01d	-0.13555951
73	0xbd68dec7	-0.056853082
74	0x3e302bd2	0.17204216
75	0xbe7109dc	-0.23538917
76	0xbe3c5aec	-0.18394059
77	0x3e2972b1	0.16547658
78	0xbe0684c8	-0.1313659
79	0x3d6a482c	0.057197735
80	0x3e9fe25b	0.31227383
81	0x3cb9be7b	0.022673836
82	0x3e17d0c5	0.14825733
83	0xbe30b05b	-0.17254774
84	0xbd63f8e0	-0.055657268
85	0x3e244b64	0.16044384
86	0x3e05a68d	0.13051815
87	0xbc9b6cdd	-0.018972808
88	0xbe0bc3c7	-0.13648902
89	0xbdc36050	-0.095398545
90	0xbe151908	-0.1456033
91	0xbd40a457	-0.047031727
92	0x3e182b6e	0.14860317
93	0x3dca57e1	0.09880043
94	0x3da1866c	0.07886967
95	0x3d3b0466	0.04565849
96	0x3e33ab39	0.17545785
97	0x3bb27bbf	0.0054468806
98	0x3e4a3337	0.197461
99	0xbe81890a	-0.25299865
100	0x3d5d9ee2	0.0541066
101	0x3eb2489d	0.34821025
102	0x3ea61fc9	0.32446125
103	0x3dbdc84e	0.09266721
104	0x39d291cf	0.00040162957
105	0x3da896b0	0.08231866
106	0xbac602b3	-0.0015107006
107	0x3d312ee6	0.043257616
108	0xbc981ff0	-0.018569916
109	0xbebc0b59	-0.36727408
110	0xbe662f64	-0.22479016
111	0x3e8d4554	0.27591956
112	0xbed0d218	-0.4078529
113	0xbe6ea65d	-0.2330565
114	0x3ca2e744	0.019885667
115	0xbe6d5e33	-0.23180465
116	0x3e15bf32	0.14623716
117	0x3d6bf29b	0.057604413
118	0xbddfd2a4	-0.109288484
119	0xbdb7acb8	-0.0896849
120	0xbde5640e	-0.112007245
121	0xbeaf722d	-0.34266797
122	0x3ace9eca	0.0015763876
123	0xbd267902	-0.040642746
124	0x3ce32cb2	0.027731273
125	0xbe3bb2d0	-0.1832993
126	0xbdfac7f3	-0.122451685
127	0x3e6edf16	0.23327288
128	0xbe93ca0d	-0.2886509
129	0xbe4f2973	-0.20230655
130	0xbe1c5a35	-0.15268786
131	0x3e1edde9	0.1551434
132	0xbe5b954f	-0.21443675
133	0xbe28a35c	-0.16468567
134	0x3e852638	0.2600572
135	0x3c50a5fe	0.012734888
136	0x3e0daaef	0.13834737
137	0x3e5e6a5c	0.2172026
138	0xbdf5b34f	-0.11997091
139	0xbe61320e	-0.2199175
140	0xbe53f936	-0.20700535
141	0xbe1bdbc3	-0.15220551
142	0xbeb8ea19	-0.36116102
143	0x3ebeb00a	0.37243682
144	0x3e879601	0.2648163
145	0x3e288174	0.16455632
146	0xbdcb3ae3	-0.09923341
147	0xbe234c08	-0.15946972
148	0x3d0e0e27	0.034681465
149	0xbe0ff7ba	-0.14059344
150	0xbc8eaaee	-0.01741549
151	0x3e754d91	0.2395537
152	0x3d416ced	0.04722302
153	0x3e2d899a	0.16947022
154	0x3e14b886	0.14523515
155	0xbe916e53	-0.28404483
156	0xbd185a4b	-0.037195485
157	0x3cad0def	0.021124808
158	0x3d26ed9a	0.04075394
159	0xbe63ef9d	-0.22259374
160	0xbdf00c0c	-0.11721048
161	0xbe5307f1	-0.20608498
162	0x3e3a7619	0.18209113
163	0xbd011712	-0.031516142
164	0xbc4ffa00	-0.012693882
165	0xbe9663cb	-0.2937301
166	0xbd4de7f7	-0.050270047
167	0x3e0b9b2e	0.13633415
168	0x3db91d04	0.090387374
169	0xbda149a8	-0.07875377
170	0xbdcd71ba	-0.10031457
171	0xbc8c54bb	-0.017130246
172	0xbd3697a6	-0.044578217
173	0xbcf33ec1	-0.02969301
174	0x3d476331	0.04867858
175	0x3cc4b8d2	0.02401391
176	0xbd5bc55e	-0.05365502
177	0xbd6c5e09	-0.057706866
178	0x3e2d95b5	0.1695164
179	0xbe9ed74e	-0.3102364
180	0x3e53d81f	0.20687912
181	0xbd7a0849	-0.061043058
182	0xbd095e0e	-0.033536963
183	0xbdde9b85	-0.10869507
184	0xbd86084d	-0.06544552
185	0x3e2587d3	0.16165094
186	0x3d8c2b94	0.06844249
187	0xbd84767c	-0.064679116
188	0x3e070255	0.13184483
189	0xbde9b955	-0.114123024
190	0xbec8705d	-0.39148226
191	0xbe088ad0	-0.13334203
192	0xbdf58837	-0.119888715
193	0xbd0baafd	-0.034098614
194	0x3e76488c	0.24051112
195	0xbdfea35f	-0.12433504
196	0x3e2533c2	0.16133025
197	0x3e050f84	0.129942
198	0xbd9c745d	-0.07639382
199	0x3da9c8e5	0.08290271
200	0x3d6efdd6	0.058347546
201	0x3daf541a	0.08560963
202	0xbdff72f5	-0.12473098
203	0x3ea549bb	0.32282814
204	0x3d00f700	0.031485558
205	0xbc997f6b	-0.018737515
206	0xbdd48296	-0.1037647
207	0x3d7ce410	0.061740935
208	0xbe34bc8a	-0.17650047
209	0xbe4513f4	-0.19245893
210	0xbdc4adff	-0.096034996
211	0x3e0f37b2	0.1398609
212	0x3e3e9422	0.18611196
213	0xbed7b449	-0.42129734
214	0xbdc71757	-0.097212486
215	0x3cb4200f	0.021987943
216	0x3e9fcbb3	0.31210098
217	0xbe8ca46a	-0.27469188
218	0xbded2f9e	-0.11581348
219	0x3d9f8b52	0.07790245
220	0xbeb8911c	-0.3604821
221	0xbdb6a691	-0.08918489
222	0xbebd6c6f	-0.3699679
223	0x3cf9549f	0.030435858
224	0xbe35b5ff	-0.17745207
225	0x3e338c31	0.17533948
226	0xbd1f71b5	-0.0389268
227	0xbdabfe4a	-0.08398111
228	0x3c789c2a	0.015173951
229	0xbdd490b5	-0.10379163
230	0xbdcaffc5	-0.099120654
231	0xbdf4af0d	-0.11947451
232	0x3d7735e9	0.060354147
233	0x3e50b810	0.20382714
234	0xbda324b3	-0.07965984
235	0x3c471249	0.012150356
236	0x3db75877	0.0895242
237	0x3e3f0c17	0.18656956
238	0x3d0f398d	0.034966994
239	0xbe14d27f	-0.14533423
240	0x3e86aaa8	0.26302075
241	0xbe200094	-0.1562522
242	0x3d35cb5c	0.04438339
243	0x3d42d577	0.047566857
244	0x3e078cd0	0.1323731
245	0xbe01ed47	-0.1268817
246	0x3b8c38b9	0.004279223
247	0x3e9e21e2	0.30885226
248	0x3e196ac1	0.1498213
249	0x3c37e336	0.011223605
250	0xbc515717	-0.0127771115
251	0xbd8cd53a	-0.06876607
252	0xbe5c3b35	-0.2150696
253	0x3d4d46ec	0.050116464
254	0x3e222024	0.15832573
255	0xbe22fa80	-0.1591587

encoder_lstm.weight_hh_l0 f4 [128, 32]
0	0xbe2e1ef9	-0.17004003
1	0x3dfe55e6	0.124187276
2	0x3f8a7c72	1.0819228
3	0x3dcd11cc	0.1001316
4	0x3ce99d49	0.028517382
5	0xbd5e566f	-0.05428165
6	0x3eb231f5	0.3480374
7	0xbf23b944	-0.6395457
8	0xbd7cfcaa	-0.061764397
9	0x3f18d182	0.59694684
10	0x3d9aeb85	0.07564453
11	0xbc1e9cf5	-0.009680976
12	0x3ebc8cb4	0.36826098
13	0xbf2be35f	-0.67143816
14	0xbea858de	-0.328803
15	0x3e4bb5b4	0.19893533
16	0x3e44e616	0.19228396
17	0x3e5c423f	0.21509646
18	0x3d62b4a9	0.055348072
19	0x3d26b7e4	0.040702716
20	0xbe0947c1	-0.13406278
21	0x3e5395a6	0.20662555
22	0x3f150cf8	0.58222914
23	0x3e59cb33	0.2126892
24	0x3dfca6ff	0.123365395
25	0x3e8aeeba	0.2713526
26	0xbed96021	-0.42456153
27	0xbe10d244	-0.1414271
28	0x3e134390	0.14381242
29	0xbddd6bcf	-0.108115785
30	0xbe322eff	-0.1740074
31	0xbec3f50d	-0.38272896
32	0x3f3bd114	0.733659
33	0xbe607b84	-0.21922117
34	0x3ecf59ac	0.40498102
35	0xbc71d0fd	-0.014759299
36	0x3d6798fa	0.056542374
37	0x3ddde49c	0.108346194
38	0x3e1b39b8	0.15158737
39	0xbeb8495e	-0.35993475
40	0xbd4eb146	-0.05046203
41	0xbdc1bf2e	-0.09460293
42	0xbed70565	-0.41996303
43	0x3dc9d37d	0.09854791
44	0x3eff5336	0.49868172
45	0xbdb352de	-0.0875604
46	0xbe0e2b22	-0.13883641
47	0xbeb60208	-0.35548425
48	0xbe09c5b2	-0.13454321
49	0x3d34b3fa	0.04411695
50	0x3d89e585	0.067332305
51	0xbea76a5b	-0.3269833
52	0x3ed0442f	0.4067702
53	0xbe1520b6	-0.1456326
54	0x3e125a6a	0.14292303
55	0xbe4d83e0	-0.20069838
56	0xbe875391	-0.26430944
57	0x3deddc29	0.11614258
58	0xbe36de2e	-0.17858192
59	0x3dbf1d02	0.09331705
60	0x3d4b87ee	0.04969018
61	0xbdde539d	-0.10855792
62	0x3d40c495	0.047062475
63	0xbd43b1b2	-0.047776885
64	0xbfad94aa	-1.3560994
65	0x3e889273	0.26674232
66	0x3ec5800d	0.38574257
67	0x3ca7882e	0.020450678
68	0xbf1f7af3	-0.6229698
69	0xbe40abaf	-0.18815492
70	0xbe8721c7	-0.26392958
71	0x3e26aa38	0.16275871
72	0xbf0852b8	-0.5325122
73	0x3e38f975	0.1806391
74	0x3f150be6	0.5822128
75	0xbcd07169	-0.025444703
76	0x3f2e8df2	0.6818534
77	0x3c9c9e36	0.01911841
78	0xbf869a7f	-1.0515898
79	0x3e495f68	0.19665301
80	0xbea547c6	-0.3228132
81	0x3ed327ce	0.41241306
82	0x3e7c20b8	0.24621856
83	0x3f455af2	0.77091897
84	0xbec8c7b2	-0.39214855
85	0xbef77726	-0.4833309
86	0xbf37f845	-0.71863204
87	0x3e7d39f6	0.24729142
88	0xbe343981	-0.17600061
89	0xbe982fa7	-0.29723856
90	0xbedac36f	-0.4272723
91	0xbf0dd2e1	-0.553999
92	0xbf8bb5f1	-1.0914899
93	0x3e0fb741	0.1403475
94	0xbeddaec9	-0.43297413
95	0x3e60a6bf	0.21938609
96	0xbc3b102f	-0.011417433
97	0xbeec1c9a	-0.4611557
98	0x3d5edc03	0.05440904
99	0x3dc58ffc	0.096466035
100	0x3e44c04e	0.19213983
101	0xbe258b84	-0.16166502
102	0xbdcc65e1	-0.09980369
103	0xbe7a711a	-0.24457207
104	0xbe4a8b5b	-0.19779722
105	0x3eab5405	0.3346254
106	0xbe7e4d58	-0.24834192
107	0x3eab7421	0.33487037
108	0x3ece98c9	0.4035094
109	0xbe0967d5	-0.13418515
110	0xbb0be76f	-0.0021347662
111	0x3e809ee7	0.25121233
112	0xbc306cf2	-0.010768162
113	0x3eadef37	0.3397157
114	0xbdbf2bb8	-0.093345106
115	0x3d67c307	0.056582477
116	0x3cb32190	0.02186659
117	0xbe5ed11b	-0.21759455
118	0x3dc3c2d3	0.09558644
119	0x3e3e2505	0.1856881
120	0xbd20eff4	-0.039291337
121	0x3c94689a	0.018116284
122	0x3e4b6c2c	0.19865483
123	0xbdace566	-0.08442192
124	0x3e937fa5	0.28808323
125	0xbe2d1796	-0.16903529
126	0xbd4f1cba	-0.050564505
127	0xbe0839f5	-0.13303359
128	0xbdb5a449	-0.088692255
129	0x3bb03f5f	0.005378648
130	0xbe4d55b7	-0.20052229
131	0x3e7bb9ac	0.24582547
132	0xbe0ac6fa	-0.13552466
133	0xbba28dd5	-0.0049607554
134	0x3da3f081	0.08004857
135	0xbea2d5b1	-0.3180366
136	0xbe62a038	-0.22131431
137	0xbbcf5d98	-0.006328296
138	0xbdd76962	-0.10518147
139	0xbdc577df	-0.09642004
140	0x3e5155d6	0.204429
141	0xbe0afcfc	-0.13573068
142	0xbdd708d5	-0.104997315
143	0x3e297eff	0.16552351
144	0xbda0f116	-0.078584835
145	0x3e33109e	0.17486808
146	0x3e048684	0.12941939
147	0x3dffefc2	0.12496902
148	0xbdd9c846	-0.10633902
149	0xbea6cac5	-0.32576576
150	0x3d3ff025	0.04685988
151	0x3def9b36	0.11699526
152	0xbe18a277	-0.14905725
153	0x3d5d450b	0.054020923
154	0x3d4868ac	0.048927948
155	0xbdd53e4c	-0.10412273
156	0xbe62c576	-0.22145638
157	0x3e87d513	0.2652975
158	0xbeacfd84	-0.33787167
159	0x3d1c7d4e	0.038205437
160	0xbe5e14d5	-0.21687634
161	0x3e295e92	0.16539982
162	0x3d678198	0.056520075
163	0x3c9537d1	0.018215092
164	0xbde5c932	-0.112200156
165	0x3e07cbd0	0.13261342
166	0x3ccf42f1	0.025300475
167	0xbe932225	-0.28736988
168	0xbe4872b8	-0.19575012
169	0x3f02c0e3	0.5107557
170	0xbc2ac13d	-0.010422048
171	0xbe0229a3	-0.12711196
172	0x3d8177f6	0.06321709
173	0xbd85fe72	-0.06542672
174	0xbed70892	-0.41998726
175	0xbd3abb5f	-0.045588847
176	0x3ec7e565	0.39042202
177	0x3edf8dcc	0.4366287
178	0xbe81406f	-0.2524447
179	0x3e9a0651	0.30082944
180	0xbe2a22e3	-0.1661487
181	0xbf0e1bc2	-0.55511105
182	0x3e1525d6	0.14565215
183	0x3dd1d69a	0.1024601
184	0xbeeaa5bf	-0.4582958
185	0xbe87e3e7	-0.26541063
186	0xbdead1d7	-0.11465805
187	0xbf357241	-0.7087746
188	0x3d5feaba	0.054667212
189	0x3e5730c3	0.21014695
190	0xbed555b5	-0.41666952
191	0x3e843175	0.25818983
192	0xbe215a4a	-0.15757099
193	0x3e0b0134	0.13574678
194	0x3da4d22e	0.08047901
195	0xbcee97da	-0.029125143
196	0xbd6f80af	-0.05847233
197	0x3f015967	0.5052704
198	0x3eb6fbb8	0.3573892
199	0xbe5cdb63	-0.21568064
200	0xbead6463	-0.3386565
201	0x3e08a141	0.13342763
202	0xbe57ad6b	-0.21062247
203	0xbeab1b37	-0.334192
204	0x3e0f33c7	0.13984595
205	0x3c8b3192	0.01699141
206	0xbeca961f	-0.39567658
207	0xbe8d9822	-0.2765513
208	0x3e5f5623	0.21810202
209	0xbd157240	-0.03648591
210	0xbe2d79e9	-0.16941036
211	0xbe5157b9	-0.2044362
212	0x3e201c32	0.15635756
213	0xbe9bc75b	-0.30425534
214	0x3daaa65b	0.08332511
215	0x3dd2c6f2	0.10291852
216	0xbf015498	-0.50519705
217	0xbdd1b9f8	-0.10240549
218	0xbd28b23f	-0.041185614
219	0xbe0ef11f	-0.13959168
220	0xbdf7fdcf	-0.12108957
221	0x3d969528	0.07352668
222	0xbe7eda09	-0.24887861
223	0x3e64bea8	0.22338355
224	0x3e0fbe91	0.14037539
225	0x3ecdd9db	0.40205273
226	0xbdca7ebc	-0.09887454
227	0x3dd5a8a2	0.10432555
228	0xbde5a746	-0.112135455
229	0xbe2a29dc	-0.1661753
230	0x3c109296	0.008824011
231	0xbd62a581	-0.055333618
232	0xbe101fc7	-0.14074622
233	0x3e026f9c	0.12737888
234	0xbd080132	-0.033204265
235	0x3c830af9	0.015996443
236	0xbda78000	-0.08178711
237	0xbf054036	-0.52051103
238	0xbe64d379	-0.22346295
239	0xbde8e40d	-0.11371622
240	0xbd898b9a	-0.0671608
241	0x3e02892e	0.12747642
242	0x3dfcdf08	0.12347227
243	0x3e92a2e5	0.28639904
244	0x3ce9cf95	0.028541366
245	0xbdec5550	-0.115397096
246	0xbe85b121	-0.261117
247	0xbe14f5e4	-0.14546925
248	0x3d6f77f6	0.058464013
249	0xbe4d0f66	-0.20025405
250	0xbe6d534d	-0.23176308
251	0xbe9c517c	-0.30530918
252	0xbd81d676	-0.06339733
253	0xbdff8989	-0.124774046
254	0xbd03f60f	-0.03221708
255	0xbdb8331f	-0.089941256

encoder_lstm.bias_ih_l0 f4 [128]
0	0x3e2d0109	0.16894926
1	0xbe2995c1	-0.16561033
2	0x3d8c58b1	0.06852854
3	0xbda9b3b6	-0.0828623
4	0x3e17f95a	0.14841214
5	0x3d9ca83f	0.07649278
6	0x3bec3467	0.0072083953
7	0xbd091bce	-0.033473782
8	0x3d513b7f	0.05108213
9	0xbd729271	-0.05922169
10	0xbd9cd3b9	-0.076575704
11	0x3df7e756	0.12104671
12	0x3e3dc617	0.18532597
13	0x3e08c87f	0.13357733
14	0x3ddb3d6d	0.107050754
15	0x3d28be12	0.04119689
16	0x3e4e75d1	0.20162131
17	0x3dd11935	0.10209886
18	0xbd022be3	-0.031780135
19	0x3e4d9110	0.20074868
20	0x3e3023ce	0.17201158
21	0x3c864b54	0.016393341
22	0x3df19c82	0.117974296
23	0x3e39f550	0.18159986
24	0x3e350843	0.17678933
25	0x3d252a2d	0.040323425
26	0xbd058277	-0.032595124
27	0xbde8c9bd	-0.113666035
28	0x3e2be844	0.16787821
29	0xbdc78c4c	-0.097435564
30	0x3bdae592	0.006680199
31	0x3e402f10	0.18767953
32	0x3d89f5c4	0.06736329
33	0xbd5ae6a6	-0.05344262
34	0x3d708502	0.058720596
35	0x3ddccfb6	0.10781805
36	0x3dd48e92	0.10378756
37	0x3cc70568	0.02429457
38	0xbe321b7a	-0.17393294
39	0x3dd4ccda	0.10390635
40	0xbda645f7	-0.081188135
41	0x3e0b721a	0.13617745
42	0xbd0958f6	-0.033532105
43	0xbc92086c	-0.017826281
44	0x3cdffb2d	0.02734145
45	0xbd25d04f	-0.04048186
46	0xbd793d22	-0.060849316
47	0x3de1b17a	0.11020179
48	0x3e3a41da	0.18189183
49	0xbd758700	-0.0599432
50	0xbd815f43	-0.06316998
51	0xbccf77f6	-0.025325757
52	0x3e3c9f5e	0.18420169
53	0x3b8a82f2	0.0042270357
54	0x3d323aa5	0.04351296
55	0xbd9e3c57	-0.07726353
56	0xbd7b3c1a	-0.061336614
57	0x3e1f04b1	0.15529133
58	0xbe1a01ef	-0.150398
59	0x3d914c8d	0.07094679
60	0xbdfb61a9	-0.122744866
61	0xbc86ee19	-0.016470956
62	0x3cd02cb0	0.025411934
63	0x3dc22adb	0.0948083
64	0x3e0a572d	0.13509817
65	0x3d35da34	0.044397548
66	0x3dc3270a	0.095289305
67	0x3dea79ee	0.114490375
68	0x3d12cdfc	0.035840973
69	0xbe127fd6	-0.14306578
70	0x3e2a9ac5	0.16660602
71	0x3cd4ab13	0.02596048
72	0xbd239921	-0.039940957
73	0x3dd01ec0	0.10162115
74	0x3e1ff081	0.15619089
75	0x3bc28792	0.0059365714
76	0x3d89629b	0.067082606
77	0x3dbe140d	0.09281168
78	0x3e244791	0.16042925
79	0x3d0ac440	0.033878565
80	0xbe1833ba	-0.14863482
81	0x3dc6e3b4	0.097114
82	0xbd0bd177	-0.034135308
83	0xbd88f0b7	-0.06686538
84	0x3d5825d0	0.052770436
85	0xbdd7bb97	-0.10533827
86	0x3d08e003	0.03341676
87	0x3e45eccd	0.19328614
88	0x3dd41888	0.103562415
89	0xbccec567	-0.025240613
90	0xbd3283c9	-0.04358271
91	0x3e0005df	0.1250224
92	0xbda58f96	-0.080840275
93	0x3b88319f	0.004156306
94	0x3ce35740	0.027751565
95	0x3dc7f112	0.097627774
96	0x3e98d76f	0.29851863
97	0x3c6332c4	0.013867084
98	0x3e7113ec	0.23542756
99	0xbe24cdcd	-0.16094132
100	0x3c995094	0.01871518
101	0x3e78912d	0.2427413
102	0xbe1de7a0	-0.15420389
103	0x3df3f0ca	0.11911161
104	0x3ce6bd88	0.028166547
105	0x3dacc3dc	0.08435795
106	0x3e4bd9b3	0.19907264
107	0xbd8f15e5	-0.06986598
108	0x3d7f07c7	0.062263276
109	0x3e075fef	0.1322019
110	0x3e75595e	0.23959872
111	0xbdd6729c	-0.10471079
112	0x3e95e398	0.29275203
113	0x3d9402d6	0.072271034
114	0x3e42ed85	0.19035919
115	0x3dd03b37	0.10167544
116	0x3e3fda11	0.1873553
117	0x3e61c92e	0.220494
118	0x3ec4fafa	0.3847273
119	0x3d72a0e2	0.05923546
120	0x3d835cf8	0.06414217
121	0x3b7039d6	0.0036655567
122	0x3e42e1f1	0.19031502
123	0xbd21ef2b	-0.03953473
124	0x3e7467bc	0.23867697
125	0x3e7b3126	0.24530467
126	0xbd2143f8	-0.03937146
127	0x3db23e4e	0.0870329

encoder_lstm.bias_hh_l0 f4 [128]
0	0xbd00dac3	-0.031458627
1	0x3de8bbca	0.11363943
2	0x3e4e9290	0.20173097
3	0xbe4b5927	-0.19858228
4	0x3e9c877d	0.3057212
5	0x3e00ee2d	0.12590857
6	0x3cdbfdc5	0.026854405
7	0x3dd7967e	0.10526751
8	0x3e70280b	0.23452775
9	0x3ca87be3	0.020566886
10	0x3e7c0359	0.24610652
11	0x3d44a7e5	0.04801168
12	0x3e355089	0.17706503
13	0x3d8719ec	0.06596741
14	0x3e04eb04	0.12980276
15	0x3ba1a40c	0.004932886
16	0x3da7d2d5	0.0819451
17	0x3e29f536	0.16597447
18	0xbd016ea0	-0.03159964
19	0x3de29efc	0.1106548
20	0x3d2ea561	0.042638186
21	0x3e378aac	0.17923993
22	0x3ec9b7b3	0.39397964
23	0x3e51ced3	0.20489053
24	0x3dc520d2	0.096254006
25	0x3e58be24	0.21166283
26	0x3dfcaef0	0.12338054
27	0x3d7a5b54	0.061122254
28	0xbcb09228	-0.021554068
29	0x3df1513c	0.11783072
30	0x3d5e417a	0.054261662
31	0x3e83726b	0.2567323
32	0x3e2dad6f	0.16960691
33	0xbd43b50b	-0.047780078
34	0xbdbdc66b	-0.09266361
35	0x3c0d0815	0.008607884
36	0x3d62e8f7	0.055397954
37	0xbc520eec	-0.01282094
38	0xbdcdf383	-0.10056212
39	0x3dc98c01	0.09841157
40	0x3dce83d0	0.10083735
41	0x3c3f6101	0.011680842
42	0x3dbdabe8	0.09261304
43	0x3e0a53b7	0.13508497
44	0x3d30db8b	0.043178122
45	0x3c865f8b	0.01640298
46	0xbe23dd85	-0.16002472
47	0xbd6f87c7	-0.058479097
48	0xbd2951f2	-0.041337915
49	0x3e5584e2	0.20851472
50	0x3e0deb46	0.13859281
51	0x3e1850e5	0.14874609
52	0x3d363536	0.04448434
53	0xbd525494	-0.05135019
54	0x3d12c9ae	0.035836868
55	0xbd43e536	-0.047826014
56	0x3dd86ebd	0.10567997
57	0xbe1fc5a3	-0.15602736
58	0xbdcd3d62	-0.100214735
59	0xbe1eb65a	-0.15499249
60	0xbe07aaf2	-0.13248804
61	0xbdc759ee	-0.097339496
62	0x3d28f950	0.041253388
63	0xbe5c2d58	-0.21501672
64	0x3e1bb326	0.15205058
65	0x3e5359d0	0.2063973
66	0x3d6f8c7e	0.058483593
67	0x3e24296a	0.16031423
68	0xbe0a9844	-0.13534647
69	0x3d993bc4	0.074821025
70	0xbcf7c688	-0.030246034
71	0xbdb62eb9	-0.088956304
72	0x3d8ccd76	0.06875126
73	0xbe208b20	-0.15678072
74	0x3e04e614	0.12978393
75	0xbdee5e97	-0.11639135
76	0xbddd1e0f	-0.10796749
77	0x3ddfe206	0.109317824
78	0xbe33213c	-0.17493147
79	0x3db7b8c9	0.08970792
80	0x3be7f5d7	0.007078867
81	0xbd34117d	-0.04396199
82	0xbde04818	-0.10951251
83	0x3ddd6728	0.10810691
84	0xbe52ef98	-0.2059921
85	0x3e09f7cd	0.13473435
86	0x3e1f116c	0.1553399
87	0x3e06f759	0.13180293
88	0x3da9c153	0.08288827
89	0x3c8ef910	0.017452747
90	0xbe0e11a0	-0.13873911
91	0xbe5a1ad6	-0.212993
92	0xbe0771de	-0.1322703
93	0xbd576637	-0.052587714
94	0xbcc1d1d4	-0.023659624
95	0xbd21156b	-0.039327066
96	0x3e5c8989	0.2153684
97	0x3dd1e9a4	0.102496415
98	0x3edee8f6	0.4353711
99	0xbca83322	-0.020532195
100	0xbda1d0f6	-0.07901184
101	0xbcd876de	-0.026423868
102	0xbdfe6cc3	-0.124230884
103	0x3dcf6e31	0.10128439
104	0x3e0ade46	0.13561353
105	0x3cf993bb	0.030465951
106	0xbd1eb5f0	-0.038747728
107	0xbd9f4370	-0.077765346
108	0xbc092bee	-0.00837229
109	0xbdf89a1a	-0.121387675
110	0x3e215fa2	0.15759137
111	0x3d41fbb7	0.047359195
112	0x3e2ebfce	0.17065355
113	0x3e8f3f8d	0.27978173
114	0x3e5e2fb1	0.2169788
115	0x3d8cbb78	0.06871694
116	0x3ca94749	0.020663874
117	0x3c6d19bf	0.01447147
118	0x3e8e9d36	0.27854317
119	0x3e7aa2ad	0.24476118
120	0x3cb6756c	0.022272788
121	0x3ddbb458	0.10727757
122	0x3e298f60	0.165586
123	0xbe8afe79	-0.27147272
124	0xbbeda935	-0.007252837
125	0x3cca26dc	0.024676733
126	0x3d8eb8e3	0.06968858
127	0x3e598f69	0.21246113

dest_lstm_obs.weight_ih_l0 f4 [128, 2]
0	0x3d0881f3	0.033327054
1	0x3db283bc	0.087165326
2	0x3cccb733	0.0249897
3	0xbdab480a	-0.0836335
4	0x3e11e57b	0.14247696
5	0xbddbed4d	-0.10738621
6	0xbe3e72f6	-0.18598542
7	0x3dcd234e	0.100164995
8	0x3c84f816	0.016231578
9	0xbddd7d9e	-0.10814975
10	0x3d8d4bf8	0.068992555
11	0xbd3dade3	-0.04630841
12	0xbd9c65d7	-0.07636612
13	0x3ce2b95d	0.027676279
14	0x3d4f666f	0.050634798
15	0x3db3df2e	0.087828025
16	0x3dc08275	0.09399883
17	0xbd992595	-0.07477871
18	0x3e00d278	0.12580287
19	0x3d115b9b	0.035487752
20	0x3d8ce4e4	0.06879595
21	0xbd8b6cb0	-0.0680784
22	0xbd6bfe37	-0.057615485
23	0xbc9f7c00	-0.019468307
24	0xbd56b666	-0.052420042
25	0xbdb195b6	-0.08671133
26	0xbd8690b0	-0.06570566
27	0x3cac1687	0.021006836
28	0xbdaee885	-0.08540443
29	0x3d3a7bed	0.04552834
30	0xbe3355ec	-0.17513245
31	0x3db50774	0.08839312
32	0xbd69658a	-0.0569816
33	0xbdca6bff	-0.0988388
34	0xbcb18558	-0.021670029
35	0x3c9c54a9	0.019083338
36	0x3c49538a	0.012287984
37	0xbab68cf1	-0.0013927502
38	0xbe4ab13c	-0.19794172
39	0x3dcf0272	0.10107888
40	0x3cb98d84	0.022650488
41	0x3d11c70e	0.035590224
42	0x3b1c1cc2	0.0023820852
43	0xbc91b7c7	-0.017787827
44	0x3db140aa	0.08654912
45	0xbc68bc4a	-0.014205048
46	0xbdbcb922	-0.09214999
47	0x3d8048b6	0.062638685
48	0xbe146e32	-0.14495161
49	0xbdbf5cb0	-0.093438506
50	0xbc9b607f	-0.018966911
51	0xbe0c77ac	-0.13717526
52	0xbdbd3bd0	-0.09239924
53	0xbdbd94cf	-0.092568986
54	0xbd600b55	-0.054698307
55	0x3b83e1ed	0.004024735
56	0xbda0631c	-0.078314036
57	0x3ce3f152	0.027825031
58	0xbe14ccca	-0.14531246
59	0xbd1efc34	-0.03881474
60	0xbd20aa21	-0.039224748
61	0xbdb5c4d6	-0.08875434
62	0x3ca3a76f	0.0199773
63	0x3d7a1120	0.061051488
64	0x3db59728	0.088667214
65	0xbe18ff53	-0.14941148
66	0xbcfea37b	-0.031083813
67	0x3ddd53f5	0.10807029
68	0xbe233a0a	-0.15940109
69	0x3db6ad15	0.089197315
70	0x3e0f507a	0.13995543
71	0xbcf5fa10	-0.030026466
72	0xbe1c9372	-0.15290621
73	0x3ded545c	0.11588356
74	0x3db7395a	0.08946486
75	0xbe0db241	-0.1383753
76	0x3dda4eb0	0.1065954
77	0xbdf09f8d	-0.11749182
78	0x3d42d96e	0.04757064
79	0xbe19275e	-0.14956424
80	0xbd79b38d	-0.06096225
81	0xbe08e5aa	-0.1336886
82	0xbe07efeb	-0.13275115
83	0x3b90632e	0.0044063544
84	0x3d2c0bb8	0.042003363
85	0xbc80891c	-0.015690379
86	0x3d922355	0.07135645
87	0x3b20ce69	0.0024537093
88	0xbd065248	-0.032793313
89	0xbd0b0e0b	-0.03394894
90	0xbcfa814a	-0.030579228
91	0xbdec22c0	-0.115300655
92	0x3d8abcff	0.067743294
93	0xbd87ed43	-0.06637051
94	0x3df19929	0.11796791
95	0xbe1773bb	-0.14790241
96	0xbd57bacb	-0.052668374
97	0x3dcdab0b	0.100423895
98	0xbdeefc60	-0.116692305
99	0xbd6a38b2	-0.057182975
100	0xbbcc26df	-0.0062302197
101	0xbd5e5afe	-0.054285996
102	0xbdd1d4da	-0.10245676
103	0xbde60a18	-0.11232394
104	0xbc9a872b	-0.018863281
105	0x3c4d4efb	0.012531037
106	0x3e0b93f9	0.13630666
107	0xbe39873b	-0.18117993
108	0xbe3aa01b	-0.18225138
109	0xbd161a79	-0.03664634
110	0x3d8264e9	0.06366903
111	0xbbef317b	-0.0072995997
112	0xbdf799ff	-0.12089919
113	0xb9a045c7	-0.00030569566
114	0xbda38710	-0.079847455
115	0x3dc00571	0.09376038
116	0xbcdd0876	-0.026981574
117	0xbd53e929	-0.05173603
118	0x3dc99b90	0.09844124
119	0xbd901ba1	-0.0703652
120	0xbd2932d9	-0.041308258
121	0xbd910bce	-0.0708233
122	0xbd889bea	-0.06670363
123	0xbc106011	-0.0088119665
124	0xbdded6bc	-0.10880801
125	0xbe1a463a	-0.15065852
126	0xbdf631a6	-0.120211884
127	0x3ce0d96b	0.027447423
128	0x3df4fc58	0.11962193
129	0xbb20ac43	-0.0024516738
130	0x3d70a98a	0.058755435
131	0xbe0b49cb	-0.13602369
132	0x3d2eb68a	0.04265455
133	0xbde14650	-0.10999739
134	0x3d4e6f02	0.050398834
135	0x3c2cc20b	0.01054431
136	0x3df1a8c9	0.11799771
137	0xbde733cb	-0.112891756
138	0x3d7949f6	0.06086155
139	0x3d3faf27	0.046797898
140	0x3d03f073	0.032211732
141	0x3bce0ba0	0.006288007
142	0xbdc4a4e6	-0.096017644
143	0x3cda21ad	0.026627386
144	0x3e09bb98	0.13450468
145	0xbd398945	-0.045296926
146	0x3d7f3a5c	0.062311515
147	0x3d45f909	0.0483332
148	0xbcede911	-0.029041799
149	0x3d2b4fb5	0.04182406
150	0xbdc51e71	-0.09624947
151	0xbcffcd62	-0.031225864
152	0x3d316f8d	0.043319274
153	0x3bb33d9d	0.0054699914
154	0xbdf1a154	-0.11798349
155	0x3c39dd12	0.011344211
156	0x3caa1e6b	0.020766458
157	0x3cd4465c	0.025912456
158	0xbc87cfac	-0.016578518
159	0x3dce6a58	0.10078877
160	0x3d715d8c	0.058927104
161	0x3ca7c9d5	0.020481983
162	0x3d7dcb74	0.061961606
163	0xbd876719	-0.06611461
164	0x3ddf385e	0.10899423
165	0xbd9a34ad	-0.07529578
166	0xbd293feb	-0.041320723
167	0x3d1d2f91	0.03837544
168	0x3c2dcae9	0.01060746
169	0x3da04222	0.07825114
170	0x3e1616d1	0.14657141
171	0xbd86fdfa	-0.06591411
172	0xbd78d182	-0.060746677
173	0x3bedaf18	0.007253539
174	0xbd504b80	-0.050853252
175	0xbd09c8ce	-0.033638768
176	0xbc8dee86	-0.01732565
177	0xbd390664	-0.04517211
178	0xbd8b5653	-0.068035744
179	0xbc6514d0	-0.013982013
180	0xbd17795b	-0.036980968
181	0x3dfbc7ba	0.12293954
182	0xbdb1e331	-0.086859114
183	0xbcbc5abd	-0.022992486
184	0xbc8f49c9	-0.017491238
185	0xbcfcde12	-0.03086761
186	0xbde7f043	-0.11325123
187	0x3dfa5c38	0.122246206
188	0xbde04692	-0.1095096
189	0xbc54a3e9	-0.012978532
190	0xbda5d0b3	-0.08096447
191	0x3d814ddb	0.06313678
192	0xbd3fcc51	-0.04682571
193	0xbdf9ad9c	-0.121913165
194	0xbe05f578	-0.1308192
195	0x3d341305	0.04396345
196	0xbd9d0d58	-0.07668561
197	0x3c871dba	0.016493667
198	0xbdf9eb05	-0.122030295
199	0xbe207e80	-0.15673256
200	0x3c9ee0f5	0.019394377
201	0xbe234125	-0.1594282
202	0x3df18af4	0.11794081
203	0xbbd9aa84	-0.0066426415
204	0xbcb85538	-0.022501573
205	0x3d92d18a	0.07168873
206	0xbdbb8a76	-0.09157269
207	0xbd8f8885	-0.07008461
208	0x3ccb2705	0.02479888
209	0x3dc130e3	0.094331525
210	0x3b842fad	0.0040340037
211	0xbdc15d96	-0.09441678
212	0xbd9a149d	-0.07523463
213	0xbd7e8b05	-0.062144298
214	0x3d58498f	0.052804526
215	0xbda3f2d7	-0.080053024
216	0xbe26c528	-0.16286147
217	0xbd5ee48b	-0.054417174
218	0x3cd6c1e8	0.026215509
219	0x3d0c2a1f	0.034219857
220	0xbe028c26	-0.12748775
221	0xbdf1564b	-0.11784037
222	0xbd1981e0	-0.037477374
223	0xbd6b58c9	-0.05745772
224	0xbe046b26	-0.12931499
225	0xbda0c4c5	-0.07850031
226	0x3d910519	0.070810504
227	0x3e0a2a3c	0.13492674
228	0x3bde979e	0.0067929765
229	0xbe11f38a	-0.14253059
230	0x3d92366e	0.07139288
231	0xbcfa39d9	-0.030545162
232	0xbc6057eb	-0.013692836
233	0xbd9896dc	-0.07450649
234	0xbc8f011c	-0.017456584
235	0x3d78d21e	0.06074726
236	0xbd52e9dd	-0.05149256
237	0x3bde4cc9	0.006784056
238	0x3d43c24f	0.04779273
239	0xbdb398e4	-0.08769396
240	0xbd4665d1	-0.048436943
241	0x3e0f1b5a	0.13975278
242	0x3e084a8a	0.13309684
243	0xbe2ac107	-0.16675197
244	0x3d4d0460	0.050053
245	0x3c993211	0.018700631
246	0xbd890645	-0.06690649
247	0x3dafeb9f	0.08589863
248	0xbdf70838	-0.120621145
249	0xbdde4f9a	-0.108550265
250	0x3ca4d891	0.020122798
251	0x3db4613c	0.088076085
252	0x3df2c0b5	0.11853162
253	0x3ddd6664	0.10810545
254	0xbab6a7d4	-0.0013935515
255	0xbd8935ad	-0.06699691

dest_lstm_obs.weight_hh_l0 f4 [128, 32]
0	0x3dd008f5	0.101579584
1	0x3ce79f11	0.028274091
2	0xbdef324c	-0.11679515
3	0x3e199211	0.14997126
4	0x3d8a07db	0.067397796
5	0xbe0c0d73	-0.13677005
6	0x3ce3fc5f	0.0278303
7	0x3e2d708c	0.16937464
8	0xbdb9d69e	-0.09074138
9	0xbc8cd922	-0.01719338
10	0x3d2a73c8	0.041614324
11	0x3e3bd9fa	0.1834487
12	0xbdb7bc82	-0.08971502
13	0xbe1c9037	-0.15289389
14	0x3b75c1f5	0.003749964
15	0x3e118e82	0.14214519
16	0xbd1d0b5f	-0.038340922
17	0x3e1128b6	0.14175686
18	0x3cf6432f	0.030061333
19	0xbe36671d	-0.17812772
20	0x3dc30f95	0.095244564
21	0xbdfc16c2	-0.12309028
22	0x3d5cca23	0.05390371
23	0x3e39d0c9	0.18146051
24	0x3e3bcee2	0.18340638
25	0xbda10448	-0.07862145
26	0xbacbb71c	-0.0015542242
27	0x3daeca2b	0.08534654
28	0xbda6b010	-0.0813905
29	0xbe3e3e91	-0.18578555
30	0x3db4fd72	0.08837403
31	0x3e2c3022	0.16815236
32	0xbe155701	-0.1458397
33	0x3e31f7b4	0.17379647
34	0x3dac5ef5	0.08416549
35	0x3d773419	0.06035242
36	0xbdab29fe	-0.08357619
37	0x3d7f651c	0.062352285
38	0xbd09a265	-0.033602137
39	0x3debaecc	0.11507949
40	0xbda9e230	-0.08295095
41	0xbdb6f571	-0.08933533
42	0x3d85f68b	0.06541165
43	0xbe025b01	-0.12730028
44	0xbe4e36a7	-0.20138036
45	0x3e3abe1a	0.1823658
46	0xbe41773e	-0.18893144
47	0xbdaa6229	-0.08319504
48	0x3ca2800b	0.019836446
49	0xbde18d0c	-0.11013231
50	0x3e01fb7b	0.12693588
51	0xbd72111f	-0.05909836
52	0xbd8b8e09	-0.068142004
53	0xbd9aaadd	-0.07552121
54	0xbe3c95bc	-0.18416494
55	0xbd400595	-0.046880323
56	0x3e0122a2	0.12610868
57	0x3d3717e1	0.044700507
58	0xbe06f26f	-0.13178419
59	0xbcdd107d	-0.026985401
60	0x3d167117	0.036728945
61	0x3e17ff92	0.14843586
62	0x3e40a9f6	0.18814835
63	0xbccd25ef	-0.025042502
64	0x3deaa4f4	0.114572436
65	0x3da844ec	0.08216271
66	0xbdea4a8a	-0.114399984
67	0xbd9571d8	-0.072971046
68	0x3db4243c	0.08795974
69	0xbda85762	-0.08219792
70	0xbe092f30	-0.13396907
71	0x3ddc2890	0.10749924
72	0x3d988b91	0.07448495
73	0x3db1967a	0.08671279
74	0xbe0b9586	-0.13631257
75	0x3d66d22b	0.056352776
76	0x3e0e916a	0.13922659
77	0x3c2fec14	0.010737438
78	0x3e1e2a7a	0.15445891
79	0x3e3e6848	0.18594468
80	0xbc5723b8	-0.013131075
81	0xbd5ba20b	-0.053621333
82	0x3e02f28f	0.12787841
83	0x3e318865	0.17337187
84	0x3e2698fa	0.16269293
85	0xbd9b162d	-0.07572589
86	0xbe0a9422	-0.1353307
87	0x3e2d3c7e	0.16917607
88	0xbe284ca4	-0.16435486
89	0x3dce86e5	0.10084323
90	0x3e19acc0	0.15007305
91	0x3e2cbacd	0.16868134
92	0xbdbb8a45	-0.09157232
93	0x3e1c4b2c	0.15263051
94	0x3ddcd96a	0.10783656
95	0xbdf55cf8	-0.11980623
96	0xbd170b7b	-0.036876183
97	0x3cd74422	0.026277605
98	0xbd739956	-0.059472404
99	0x3d4ed6d0	0.05049783
100	0xbe219ce7	-0.1578251
101	0x3d856d50	0.0651499
102	0x3d00d642	0.031454332
103	0x3e01552e	0.1263015
104	0xbcc4b2d3	-0.024011051
105	0x3d4c63de	0.04989993
106	0xbc11d6e0	-0.008901328
107	0xbd9b1233	-0.075718306
108	0xbe550fb2	-0.20806769
109	0xbe0af485	-0.1356984
110	0xbe843f5e	-0.25829595
111	0x3db1a7f1	0.086746104
112	0xbe34cfb8	-0.17657363
113	0xbdbb59aa	-0.091479614
114	0xbda00556	-0.07813518
115	0xbdf7755c	-0.120829314
116	0xbe3da246	-0.18518934
117	0xbe398847	-0.18118392
118	0x3d7143dd	0.05890261
119	0x3ce099b8	0.027417049
120	0xbdb483a3	-0.0881417
121	0x3deba1c6	0.11505465
122	0xbe8945f1	-0.26811174
123	0x3e44cebd	0.1921949
124	0xbd907dee	-0.07055269
125	0x3e33d0d5	0.17560132
126	0x3e62d15a	0.22150174
127	0xbe01ad51	-0.12663771
128	0xbd5e12f3	-0.05421729
129	0x3d6461f7	0.05575749
130	0x3cb8f333	0.022576904
131	0x3d70b0fa	0.058762528
132	0x3c4d782f	0.012540861
133	0xbc9cef0c	-0.019156955
134	0x3d960696	0.07325475
135	0x3d9e8f43	0.07742169
136	0x3d6222a1	0.055208806
137	0xbdae8626	-0.085216805
138	0x3e383919	0.17990531
139	0xbd808dc8	-0.062770426
140	0xbe115e77	-0.14196192
141	0x3cda4d87	0.026648296
142	0xbe45a302	-0.19300464
143	0xbe50d55b	-0.20393889
144	0xbe5b9998	-0.2144531
145	0xbe2d1542	-0.1690264
146	0x3d21c6ef	0.03949636
147	0xbdb8cb6a	-0.09023173
148	0xbca966ed	-0.020678962
149	0x3dc53661	0.096295126
150	0xbd146949	-0.03623322
151	0x3dba7c1d	0.09105704
152	0x3d8a60ba	0.067567304
153	0x3dad4ac4	0.08461526
154	0xbe0c3ab9	-0.13694276
155	0x3dfd2cf6	0.12362091
156	0xbe46d75f	-0.19418095
157	0x3e310c4d	0.17289849
158	0x3e04fba2	0.12986615
159	0xbd436337	-0.04770204
160	0xbdc73a2f	-0.097278945
161	0x3ca0b7cb	0.01961889
162	0xbd887f93	-0.06664958
163	0xbdb45ef6	-0.08807175
164	0xbe3a0768	-0.18166888
165	0x3d355cca	0.044277944
166	0xbd0bac55	-0.034099896
167	0x3bad1eea	0.0052832263
168	0x3c8a0f8f	0.016853122
169	0x3dd257da	0.102706626
170	0x3e5b0e15	0.2139209
171	0x3e1b1085	0.1514302
172	0x3e1c21d5	0.15247281
173	0x3dc1bab5	0.0945944
174	0xbe0d9497	-0.13826214
175	0xbd2a25fc	-0.04154013
176	0x3df17f53	0.11791863
177	0xbd9c1271	-0.07620705
178	0xbe78fd50	-0.24315381
179	0xbd8be509	-0.06830794
180	0xbddff503	-0.10935404
181	0x3dcd2dea	0.10018523
182	0xbd68c254	-0.05682595
183	0x3e061834	0.1309517
184	0x3e059d03	0.13048176
185	0xbd193f3c	-0.03741382
186	0x3d9f8648	0.07789284
187	0xbd73e5f4	-0.059545472
188	0x3d8baf99	0.06820602
189	0xbe213abf	-0.15745066
190	0x3d9a0a44	0.07521489
191	0xbd515570	-0.05110687
192	0x3d842889	0.06453044
193	0x3deeb0e2	0.116548315
194	0xbdb5d9a3	-0.088794015
195	0x3b9cd94f	0.0047866474
196	0x3dbb0ccb	0.091332994
197	0x3d0b0261	0.033937816
198	0x3cf4c51d	0.029879147
199	0xbe01eaa7	-0.12687169
200	0xbe0330fb	-0.12811653
201	0xbdbe459c	-0.09290621
202	0x3d01af43	0.031661283
203	0xbdfde39a	-0.12396927
204	0x3dadd166	0.08487205
205	0x3d940ecb	0.07229384
206	0x3e004fd6	0.12530455
207	0x3bfffcb9	0.0078121093
208	0x3a92b244	0.0011192043
209	0xbd51b797	-0.051200476
210	0x36792ec8	3.7131122e-06
211	0xbd84a738	-0.06477207
212	0xbdaf6fef	-0.085662715
213	0xbd9ed6e8	-0.07755834
214	0xbe204061	-0.15649559
215	0x3e187436	0.14888081
216	0x3dbad812	0.091232434
217	0x3c87c08e	0.01657131
218	0xbd2b89e8	-0.041879565
219	0x3d7f8027	0.062378075
220	0xbd2a691c	-0.041604146
221	0xbe270e9a	-0.16314164
222	0xbd96f3bf	-0.0737071
223	0x3de90610	0.113781095
224	0xbe1d1dc7	-0.1534339
225	0x3bccbb8c	0.0062479433
226	0x3e048a86	0.12943467
227	0xbe232ad9	-0.15934314
228	0xbe1fccf8	-0.15605533
229	0xbde0a0c1	-0.109681614
230	0x3ddd8424	0.108162194
231	0x3d63e4fa	0.05563829
232	0xbe307b60	-0.17234564
233	0x3dc808b4	0.09767285
234	0x3e3e42ef	0.1858022
235	0x3d3d308d	0.04618888
236	0x3d734d0e	0.059399657
237	0x3d86efd8	0.06588715
238	0x3d01196e	0.031518392
239	0x3e088846	0.13333234
240	0x3da960a9	0.082703896
241	0xbdcba446	-0.09943442
242	0xbe639eca	-0.22228542
243	0x3d2a400e	0.041564994
244	0xbdd12b16	-0.10213296
245	0x3bb0d0f8	0.0053960048
246	0xbe035baa	-0.12827936
247	0x3d87d761	0.06632877
248	0xbd98a2ba	-0.07452913
249	0xbe0f0a56	-0.13968787
250	0xbdd9ca4f	-0.106342904
251	0xbdd65609	-0.10465629
252	0x3d037ec3	0.03210331
253	0xbdd64b68	-0.10463601
254	0x3e018587	0.12648593
255	0x3db848d9	0.089982696

dest_lstm_obs.bias_ih_l0 f4 [128]
0	0xbe2b0b8e	-0.16703627
1	0xbd938ebd	-0.072049595
2	0xbdd9b959	-0.106310554
3	0xbe200ff6	-0.15631089
4	0x3db27c1b	0.087150775
5	0x3e32a9c1	0.17447568
6	0x3c564216	0.01307728
7	0x3dee6178	0.116396844
8	0xbe64d492	-0.22346714
9	0xbd8d9927	-0.06913977
10	0xbc2162d7	-0.009850225
11	0xba86a12d	-0.0010271423
12	0x3dc26e6b	0.09493717
13	0xbd621f92	-0.05520589
14	0xbe046f17	-0.12933002
15	0xbe50f9f6	-0.20407853
16	0xbd7ef716	-0.06224736
17	0xbe4776e4	-0.19478947
18	0x3e2ca478	0.16859615
19	0x3e04b7cb	0.12960736
20	0xbe4e6c32	-0.2015846
21	0x3da03ea8	0.07824451
22	0x3e115b92	0.14195088
23	0xbe109287	-0.14118396
24	0xbd5ead1d	-0.054364312
25	0xbe0136c8	-0.12618554
26	0xbdd1c49a	-0.10242577
27	0x3da6247e	0.08112429
28	0x3d5e3de6	0.05425825
29	0xbdf6361e	-0.12022041
30	0x3ccf9b4c	0.025342606
31	0x3d39f3f4	0.045398667
32	0x3d86f8ea	0.06590445
33	0xbd85b5ac	-0.06528792
34	0x3bc06a62	0.005872057
35	0xbd320d9a	-0.043470003
36	0xbe0e5b23	-0.13901953
37	0x3de999e0	0.114063025
38	0x3d9a2a52	0.07527603
39	0x3d90f8d2	0.07078709
40	0x3dcd92f2	0.10037793
41	0x3dee7a1a	0.11644383
42	0xbe588472	-0.21144274
43	0xbdad6117	-0.08465784
44	0xbe0270de	-0.12738368
45	0xbdc6de2a	-0.09710343
46	0xbe144f31	-0.14483334
47	0xbe2f46ef	-0.17116903
48	0x3db61b8e	0.088919744
49	0x3dca7ac4	0.09886697
50	0xbe310dff	-0.17290495
51	0xbe32114e	-0.17389414
52	0x3d33cd99	0.043897245
53	0xbe292a1b	-0.16519968
54	0x3e1a2d9b	0.1505646
55	0xbe51737e	-0.20454213
56	0x3da56fde	0.080779776
57	0xbdbe7264	-0.09299162
58	0xbe27c799	-0.16384734
59	0x3e2716a0	0.16317225
60	0xbd23e86b	-0.040016573
61	0xbe447b88	-0.19187748
62	0xbccd13c8	-0.025033846
63	0x3ddfaadb	0.1092126
64	0x3e6cf0e1	0.23138763
65	0xbdaa2cfc	-0.08309361
66	0xbc1205ea	-0.008912543
67	0xbe71f49c	-0.23628467
68	0x3df52f6d	0.119719364
69	0x3d93dd3e	0.07219933
70	0x3e051a4b	0.12998311
71	0xbdfe8cac	-0.12429175
72	0x3c2f5197	0.010700605
73	0x3e49b931	0.19699551
74	0xbdba1ebf	-0.090878956
75	0x3d533d11	0.05157191
76	0x3c9345bb	0.017977586
77	0xbe441303	-0.19147877
78	0xbdd9ea9c	-0.10640451
79	0xbda4ea10	-0.080524564
80	0x3e7434a1	0.23848201
81	0x3dc1c5fc	0.09461591
82	0xbdbddabd	-0.09270237
83	0xbd4dc1a0	-0.050233483
84	0xbd80ae3b	-0.06283232
85	0xbd96931c	-0.07352278
86	0xbb2b7491	-0.0026162008
87	0xbe345d7e	-0.1761379
88	0xbb755534	-0.0037434818
89	0xbe5c0ae3	-0.21488528
90	0x3df7d8f9	0.12101931
91	0xbdb58314	-0.08862892
92	0x3e781f03	0.2423058
93	0xbd9e9ff5	-0.07745353
94	0xbd930b90	-0.0717994
95	0xbd9e6b2f	-0.077352874
96	0xbbecbfd1	-0.0072250147
97	0x3d880d87	0.06643205
98	0xbe7562f3	-0.23963527
99	0xbdc38d50	-0.095484376
100	0xbe482cad	-0.19548292
101	0xbe17714e	-0.14789316
102	0xbd343cba	-0.044003226
103	0x3e25beb0	0.16186023
104	0xbe113e3c	-0.14183897
105	0xbd51ce2c	-0.05122201
106	0xbcfbdc04	-0.03074456
107	0x3e058628	0.13039458
108	0x3df94d39	0.12172932
109	0xbd311f3f	-0.04324269
110	0xbdbb584c	-0.09147701
111	0xbd037c8c	-0.0321012
112	0x3e20abdd	0.1569056
113	0x3d44a912	0.0480128
114	0xbde5649a	-0.11200829
115	0xbdc817d6	-0.09770171
116	0xbdad5e89	-0.08465297
117	0xbda245f1	-0.079234965
118	0xbe0dd748	-0.13851655
119	0x3e1c1944	0.15244013
120	0x3df71d63	0.12066152
121	0x3cbb0b80	0.022832632
122	0xbe2378d9	-0.15964068
123	0xbc99ae24	-0.018759795
124	0x3e8420d6	0.25806302
125	0xbde96340	-0.113958836
126	0x3d05d119	0.032670114
127	0xbe5d1d3b	-0.21593182

dest_lstm_obs.bias_hh_l0 f4 [128]
0	0xbe087130	-0.13324428
1	0x3d813962	0.06309773
2	0xbcca0c5c	-0.024664097
3	0xbca01f17	-0.019546075
4	0x3d490e81	0.049086098
5	0x3e0b666c	0.1361329
6	0x3caf2e6f	0.021384446
7	0xbda12fe1	-0.0787046
8	0xbe36d908	-0.17856228
9	0xbd976f5d	-0.07394288
10	0x3e090ce1	0.13383819
11	0x3d878512	0.06617178
12	0xbe46b53c	-0.19405073
13	0x3de20088	0.110352576
14	0x3e27e4c2	0.16395858
15	0xbe00f8ad	-0.12594862
16	0xbda3bffe	-0.07995604
17	0xbe1da346	-0.15394315
18	0x3e3baf05	0.18328483
19	0xbd6f555a	-0.058431007
20	0xbe88f00f	-0.2674565
21	0xbe425e1d	-0.18981214
22	0xbe17a00e	-0.1480715
23	0x3e0c5c88	0.13707173
24	0x3cab812b	0.020935616
25	0xbe38b33a	-0.1803712
26	0xbd391064	-0.045181647
27	0x3c56d051	0.01311119
28	0x3b5cd315	0.003369515
29	0xbe274134	-0.16333467
30	0xbe46f522	-0.19429448
31	0xbdbdb116	-0.09262292
32	0xbdddbf77	-0.10827535
33	0xbdbeb4db	-0.09311839
34	0xbe48e038	-0.19616783
35	0x3da00b2d	0.078146316
36	0x3d7111a1	0.058854703
37	0xbe2568b6	-0.16153225
38	0x3df328e9	0.11873037
39	0xbe324e51	-0.17412688
40	0xbdb55204	-0.08853534
41	0xbd0d0528	-0.034428746
42	0xbe19e1b6	-0.15027508
43	0xbe0390d9	-0.12848224
44	0x3cf3dc25	0.029768059
45	0x3d88d76f	0.06681716
46	0xbc28bffd	-0.01029968
47	0x3d25c460	0.04047048
48	0xbd86560c	-0.06559381
49	0x3d9149de	0.07094167
50	0xbe4aecea	-0.19816938
51	0xbd509803	-0.05092622
52	0xbdf6f185	-0.12057785
53	0xbdb9a3c7	-0.09064441
54	0xbdde0a91	-0.10841859
55	0x3daadf52	0.08343376
56	0xbd8dec9f	-0.069298975
57	0x3bf34298	0.00742371
58	0xbe48826b	-0.19581
59	0x3e2b9bc6	0.16758642
60	0x3db7bfea	0.089721516
61	0x3dc7258b	0.09723958
62	0xbde283d2	-0.11060299
63	0xbdcec223	-0.100956224
64	0x3cb1bd0b	0.021696588
65	0xbd9705d5	-0.07374159
66	0x3c7dc23a	0.015488202
67	0xbd2ed717	-0.042685594
68	0xbe36b155	-0.17841084
69	0x3e68f6ac	0.22750348
70	0xbd0105b0	-0.031499565
71	0xbc8f2a9b	-0.01747637
72	0x3d3ce770	0.046119153
73	0x3c13885e	0.00900468
74	0x3c9e7d06	0.019346725
75	0xbd1c0f16	-0.038100325
76	0x3e2ad844	0.16684061
77	0xbe44aa7e	-0.19205663
78	0x3dea1a99	0.11430854
79	0x3ca0f192	0.01964644
80	0x3d0b449a	0.03400097
81	0xbe4a5f40	-0.19762897
82	0xbde4b0cb	-0.11166533
83	0x3cf19996	0.02949218
84	0x3d17bbd9	0.03704438
85	0xbdee8ab8	-0.11647552
86	0x3d9cd666	0.07658081
87	0xbd4c1df7	-0.049833264
88	0xbd469f3b	-0.048491698
89	0xbd2dde3f	-0.04244828
90	0x3d64a242	0.055818804
91	0xbe894116	-0.2680747
92	0x3e402bd0	0.18766713
93	0xbe148211	-0.14502741
94	0xbd0c5e7f	-0.034269806
95	0xbd68ff59	-0.056884144
96	0xbe2252e6	-0.15851936
97	0x3c0fd2cd	0.008778286
98	0xbd2435dc	-0.040090427
99	0x3dbae8b6	0.09126417
100	0xbe525c59	-0.2054304
101	0x3d36bf54	0.04461606
102	0xbd0c7d03	-0.034298908
103	0x3c4e0fea	0.012577036
104	0x3e09c696	0.13454661
105	0x3dff9e1d	0.124813296
106	0x3c720585	0.014771824
107	0xbacb5f22	-0.0015516023
108	0xbcb55cad	-0.022138918
109	0x3ddde9e5	0.108356275
110	0x3bf28c50	0.0074019805
111	0xbdcf1cb2	-0.10112895
112	0xbd35ed3c	-0.044415697
113	0xbe16d549	-0.147298
114	0xbe002a50	-0.12516141
115	0xbe29a28a	-0.1656591
116	0x3e065a9a	0.13120499
117	0xbdfdf096	-0.12399404
118	0xbd6047cf	-0.054755982
119	0xbe2009f7	-0.15628801
120	0xbe31246a	-0.17299047
121	0x3e0b824f	0.13623928
122	0x3dfb86a9	0.12281544
123	0xbd6ca018	-0.057769865
124	0x3eb34ffd	0.35021964
125	0x3bcc4403	0.0062336936
126	0x3d55bcab	0.05218188
127	0x3ba41e33	0.005008483
