do_tp_federated_round_9.pt (torch, 156693 bytes, 26 tensors)

linear_enc.weight f4 [64, 2]
000000 46 af 55 3f c6 83 35 3f 3f ae cc 3e 35 14 d9 3d
       0.8347057 0.70904195 0.3997669 0.10599557
000010 94 ce 49 3f 4b 8d e1 3e c6 10 4c 3f 66 54 56 3f
       0.7883084 0.4405311 0.79713094 0.8372253
000020 b2 0c 0f bf 88 49 33 3f ea 77 73 3e ce f0 64 bf
       -0.55878747 0.70034075 0.23776212 -0.8942994
000030 9d dc fa 3e 04 19 e1 be 76 eb a4 3e e8 ce 8b be
       0.4899644 -0.43964398 0.32210892 -0.27306294
000040 fe f6 eb be df 6c 43 bd 83 f7 82 3a ee c3 f2 3e
       -0.46086878 -0.04771125 0.0009991977 0.47415107
000050 75 7a 17 3f 9a e8 82 3f ea 2d cb 3e bc 0d 85 bb
       0.5917123 1.0227234 0.39683467 -0.004060475
000060 64 c5 09 3e 79 e8 c4 3d fe ef 6b bd 71 5b 58 3f
       0.13454205 0.09614653 -0.05760192 0.8451453
000070 d7 ea 38 3f 10 09 00 bf 60 35 19 bf 1d ad 19 3f
       0.7223334 -0.5001383 -0.5984707 0.60029775
000080 8f 5e aa 3b 75 4b ff be 3c d0 94 3d 13 a3 32 be
       0.0051992605 -0.49862257 0.0726628 -0.1744502
000090 06 93 04 bf 88 a7 da 3e ad 7c 34 bf 64 ab 1f bf
       -0.5178684 0.4270594 -0.7050274 -0.62370896
0000a0 fa 93 5d be 5a 91 5c 3f 10 e7 6d be 8a 0a 0d 3f
       -0.2163848 0.8615929 -0.23232675 0.55094206
0000b0 a7 ae a0 be df 98 13 3f 72 c1 48 3f 74 7a 05 3e
       -0.3138325 0.5765514 0.78420174 0.13034993
0000c0 6a a2 2e 3f 89 da 4e bf ea 5d 35 be 86 77 5a be
       0.68216574 -0.8080221 -0.17711607 -0.21334657
0000d0 67 79 4c 3e d5 48 2a bf e1 c8 28 3f be 41 b3 3e
       0.19968186 -0.6651738 0.65931517 0.35011095
0000e0 05 3e 91 3e 0c 73 ba 3e 34 8a 42 bf 39 c4 ec 3d
       0.2836763 0.364159 -0.7599213 0.11560864
0000f0 e2 c1 17 3b 10 66 f3 be f3 3d 99 be 94 9b ff 3e
       0.0023156335 -0.47538805 -0.29930076 0.49923384
000100 f6 54 1d bf 0b f5 68 3e a0 c0 a1 3e 99 a4 4a bf
       -0.61457765 0.22749726 0.31592274 -0.79157406
000110 93 25 43 bf 54 75 13 bf 9c 68 e9 be 1a a8 db 3b
       -0.7622921 -0.57600904 -0.45587623 0.006703389
000120 4f 33 de be 7d fe b1 be 10 8d fd 3e 39 9b 9c 3e
       -0.4339852 -0.34764472 0.49521685 0.30587175
000130 c4 ed d5 3e 0c ff 8b be 69 08 01 bf 4e cb 41 bf
       0.41782963 -0.27343023 -0.5040346 -0.75700843
000140 4a 52 45 be 91 bb 07 3f 0e 62 54 3f 80 b8 e5 be
       -0.19269672 0.5302058 0.8296212 -0.44867325
000150 8d 8f fe 3d d0 b0 83 3f 32 74 32 bf fa ee a1 be
       0.12429724 1.0288334 -0.6970855 -0.31627637
000160 37 8d b2 be 89 62 bf 3e 7b ea 41 3f 0c 89 fb 3d
       -0.34873363 0.37379864 0.75748414 0.12281999
000170 61 d1 03 be 0a b4 1a bf e0 ad a0 be c8 83 8b 3e
       -0.1287284 -0.6043097 -0.31382656 0.2724898
000180 04 07 a8 3e 19 51 0b 3e e6 e7 a0 3e f1 04 44 be
       0.32817852 0.13605155 0.31426924 -0.1914251
000190 d2 6a 07 3e 39 ba 0d 3f de 02 ac 3c 2c a0 4a 3f
       0.13224342 0.5536228 0.020997461 0.7915065
0001a0 30 42 a8 3e 8c 34 77 3e 43 7a 9e bd 2b b0 49 be
       0.32862997 0.24141139 -0.07738163 -0.19696109
0001b0 ce 72 09 bf 2d fc 32 bf ae 71 db 3e 31 8a 2d bf
       -0.53690803 -0.6991604 0.42860168 -0.6778899
0001c0 2d 90 da 3e e6 4c 25 3f eb 3f 03 3f 71 3a 40 3f
       0.42688122 0.6457046 0.51269406 0.75089175
0001d0 e2 ea 40 3d 8f cb 2d 3f 57 dc 26 be b3 a6 1a bf
       0.047099 0.6788873 -0.1629499 -0.6041061
0001e0 a6 59 4e 3e f8 89 1f bf 54 1e f4 3e 62 3e 36 bf
       0.20151386 -0.623199 0.4767939 -0.7118894
0001f0 8a 3b 99 3e 60 48 e3 3e fd b8 2c bf d2 07 fe be
       0.29928237 0.44391155 -0.6746977 -0.4961534

linear_enc.bias f4 [64]
000000 29 59 44 3e 4b 37 18 be a8 ba a7 3e 7b ed 41 3d
       0.19174637 -0.14864843 0.32759595 0.04734562
000010 40 bc dc be c4 24 2e be db aa 16 be 5a 4a 0c bf
       -0.43112373 -0.17006212 -0.14713614 -0.5480095
000020 21 7e 0c bf 9d c8 0f bf 66 6c 1d bf 3e 26 ea be
       -0.5487996 -0.56165487 -0.6149353 -0.457323
000030 1c 78 ae 3d 52 a0 23 3f d2 83 2b 3f 3f 0a d2 3d
       0.08519003 0.63916504 0.66998017 0.102558605
000040 fe 81 a7 3d 80 cd 7b 3e 5e c8 8c be 31 f5 d5 be
       0.08179091 0.24590111 -0.27496618 -0.4178863
000050 d0 aa 8a be f6 60 9c be 3c 14 89 3e 35 18 83 be
       -0.27083445 -0.30542725 0.2677325 -0.25604406
000060 35 e3 e3 3e a9 4a 41 bd 0a ad 23 3f c4 bf 05 3f
       0.44509283 -0.047190342 0.6393591 0.52245736
000070 b0 6b 10 3d dd e6 db 3e ca 03 14 bf fa ed 16 3e
       0.03525895 0.42949572 -0.5781828 0.14739218
000080 8e 21 0e 3e 5e 17 6b 3d 28 8c 6d be 7f e9 c4 be
       0.13879988 0.05739533 -0.23197997 -0.38459393
000090 17 33 c8 be 15 36 6e be c1 b0 86 be 12 a4 16 bf
       -0.39101478 -0.23262818 -0.26306728 -0.588441
0000a0 e2 24 c5 3e a4 df 3e 3d f0 cc 7a bd 18 b4 ae bd
       0.38504702 0.0466 -0.0612306 -0.08530444
0000b0 89 77 13 3f 35 2d 9e 3e bc cf 42 3e b9 ff 20 3f
       0.5760427 0.30893865 0.19024557 0.628902
0000c0 63 e5 bf 3d 76 59 87 3d 50 7c b9 3d 88 7d e7 3e
       0.09369924 0.0660886 0.09056914 0.4521296
0000d0 9c 3c ca be 95 f0 8f be 0c df a7 3e c1 b1 92 be
       -0.39499366 -0.28113237 0.3278736 -0.2865124
0000e0 e2 6f ef be f1 f8 5d be fc d0 9a 3e ff 53 88 3e
       -0.46765047 -0.21676995 0.30237567 0.26626584
0000f0 a6 92 17 bf 89 69 09 be 94 9f 62 be fa e1 0b be
       -0.5920814 -0.13419165 -0.22131187 -0.13660422

encoder_lstm.weight_ih_l0 f4 [128, 64]
000000 8a a6 21 be 6f 27 6d be 62 01 11 be 17 1c 17 be
       -0.15786186 -0.23159574 -0.14160684 -0.14756809
000010 70 73 26 bd b4 df 17 be 3a e3 e5 3d 9b ab 1f bd
       -0.040637434 -0.1483143 0.11224981 -0.038982015
000020 b0 5e 2c 3e 6e 78 df bd a8 83 50 be 31 ef c0 bd
       0.16832995 -0.10911642 -0.20362723 -0.09420622
000030 2f 2b 43 3d c5 d7 4d 3d b5 db 01 be ac 0b 8f bd
       0.047648605 0.050254602 -0.12681468 -0.06984648
000040 3e 13 88 3b 0c 2b a0 3c f9 d2 f1 3d 96 09 17 3e
       0.0041526845 0.019551776 0.11807818 0.1474975
000050 18 9c 4c 3d 30 c8 94 b8 74 31 02 3d de a1 98 3d
       0.04995355 -7.094478e-05 0.031785443 0.07452749
000060 d1 66 3b 3d e4 26 52 bd 0f cf 2d 3e 52 f4 99 3d
       0.04575235 -0.05130662 0.16973518 0.075173035
000070 b6 0f 3a be 8a f4 fe bd c1 64 ab 3c a0 dd 04 3e
       -0.18170056 -0.12448986 0.020922067 0.12975168
000080 b2 9b c6 bd fe 96 10 3e 02 53 1f 3e 3d 35 7d 3c
       -0.09697665 0.14120099 0.15559009 0.0154545875
000090 2f a4 a7 3c 6c 8d 3d be ca 3c d5 3d 64 b3 4a 3d
       0.020464031 -0.1851098 0.10411985 0.049487486
0000a0 04 c1 c7 bd f8 8d f4 bc 5e c1 5f bd ef 3a 0c 3e
       -0.09753612 -0.029852852 -0.05462777 0.13694356
0000b0 c6 f7 65 bd c2 df 48 bd 56 21 e5 bd 7b 5a bb 3d
       -0.0561445 -0.049041517 -0.11187999 0.09148117
0000c0 d1 b5 b4 3d fb dc 5f be ba ef 75 3d e6 b7 06 be
       0.08823741 -0.21861641 0.060043074 -0.13156089
0000d0 ca 38 34 be 22 3f 7f 3d 1c 63 22 3e ee 69 4a 3d
       -0.17599788 0.062316068 0.1585812 0.04941743
0000e0 00 79 e7 bb 12 b5 ea bd e5 23 01 3e c6 fd b7 bd
       -0.007063985 -0.11460318 0.12611349 -0.0898395
0000f0 b7 cc 64 3d ec b8 3c be 1b fc c9 bd 40 20 96 3e
       0.055859294 -0.18429917 -0.098625384 0.2932148
000100 8f 09 49 bd 95 e0 4f bc 47 6e 7c 3e 55 e1 2a be
       -0.04908138 -0.012687822 0.24651442 -0.1668752
000110 04 b6 8e be 35 36 30 3e c6 88 13 3e 78 14 81 be
       -0.27873242 0.17208178 0.14407644 -0.2521093
000120 b7 0b 70 be be 46 af be 4a 8f ba be 62 db 1c be
       -0.23441969 -0.3423366 -0.36437446 -0.15318063
000130 95 7d 16 3e e6 a9 9d 3e 64 ea b1 3e be 3f fb bd
       0.14696343 0.30793685 0.34749138 -0.12268017
000140 e6 fd f9 3e 87 c4 d3 3e 65 89 36 be 8a f9 96 bd
       0.48826522 0.41360876 -0.1782585 -0.073718145
000150 f2 6b d8 be 04 71 c3 be 01 90 22 bd 25 cd 7f be
       -0.42269856 -0.38172162 -0.039688114 -0.249806
000160 63 e4 c0 3e 69 2d de bd 05 ca 17 3e 30 61 5c 3e
       0.37674245 -0.10848505 0.14823158 0.21521449
000170 8d 0c c7 3c 79 ad 3f 3e a1 79 4f be a8 33 91 bd
       0.024297977 0.18718518 -0.20261241 -0.07089931
000180 00 9a a0 3d 5c b0 88 3e 1c 3c 8b bd 18 cc 92 be
       0.07841873 0.26697052 -0.06798574 -0.28671336
000190 0b bf ff bd 23 9e c0 bd 63 66 ac bc 12 c3 20 bd
       -0.124876104 -0.09405162 -0.021044916 -0.039248534
0001a0 0e 63 78 bc 73 9b a5 3e fb be a5 be e5 5a 59 be
       -0.015160335 0.3234516 -0.3237227 -0.2122608
0001b0 a6 1c 46 3d 71 e3 bd 3e 32 13 8f 3e b8 11 a5 3e
       0.048367165 0.37087587 0.27944332 0.3224008
0001c0 bc cd 4f 3e ca 7a 53 3e fd de 29 3e be 83 5b 3d
       0.20293325 0.20652309 0.1658897 0.053592436
0001d0 bc e7 41 be 26 d4 3f be 3b 32 53 3e b6 f7 cd bd
       -0.18936056 -0.18733272 0.2062463 -0.10057013
0001e0 de 03 a6 be 80 74 2d be 3e 6e 07 bd 98 fe d8 3e
       -0.32424825 -0.16938972 -0.03306412 0.4238174
0001f0 47 55 b5 bd 06 be 72 bd 66 93 ea be 8c 0e 05 be
       -0.08854156 -0.05926325 -0.4581558 -0.1299383
000200 6b ad e4 bd 4e 4e 77 be a0 16 f3 3c fe 35 21 be
       -0.11165889 -0.24150965 0.029673874 -0.15743253
000210 42 04 bc be 96 47 88 3e 7c 36 99 bc dd ec 8f be
       -0.36721998 0.26617116 -0.018702738 -0.281104
000220 7c a3 96 be f0 37 cc bd 8a 81 26 be 62 64 78 be
       -0.29421604 -0.09971607 -0.16260353 -0.24257043
000230 5f 3e 85 3e cb da 7e 3d 98 13 a4 3e 54 cd 97 be
       0.26024148 0.062220376 0.320462 -0.2964884
000240 fd d7 03 3f c2 9a 87 3e a0 54 fa be 5f 50 05 bd
       0.51501447 0.26485258 -0.4889269 -0.03254735
000250 50 b9 14 bf a0 eb d8 be 86 3e de 3d d5 3b 88 be
       -0.58095264 -0.42367268 0.10851769 -0.26608148
000260 bc 78 54 3e 95 01 be bd 71 32 22 3e aa 8d b6 3e
       0.20749182 -0.092776455 0.15839554 0.35654956
000270 51 2b d4 3c 40 47 a6 3d a3 5e 02 be d4 4f da bb
       0.025899561 0.081190586 -0.12731414 -0.0066623483
000280 60 e1 e3 bd 06 af f0 3e 5b 5b 9b bd ab ea 13 be
       -0.11126971 0.47008532 -0.07585784 -0.14444987
000290 67 c8 9e be de a8 c3 be 91 5b 78 be 1f b6 0c be
       -0.3101227 -0.38214773 -0.2425368 -0.13741349
0002a0 fe ec 53 3e 48 24 93 3e 1d fa 08 bf 20 91 5e 3b
       0.20695874 0.28738618 -0.5350664 0.0033961013
0002b0 16 2f 89 3e f2 13 af 3e 5f cd a5 3e fc 58 3c 3d
       0.26793736 0.34194905 0.32383248 0.0459833
0002c0 75 a5 6d 3e 42 3b 05 3e a4 45 89 3d ed d2 67 3e
       0.23207648 0.13010886 0.06702736 0.22639056
0002d0 ad 7d 9f be 5e 3a 31 be 07 6e 85 3e 76 34 c8 3c
       -0.3115057 -0.17307422 0.26060507 0.024439078
0002e0 53 0e 94 be dc 69 1c be 94 6a a1 3d 50 b9 71 3e
       -0.2891718 -0.15274757 0.07881656 0.23605847
0002f0 bc 81 87 bc 6c a4 59 3e 8c ed e9 be 5c 83 0a 3b
       -0.016541354 0.21254128 -0.45689046 0.0021135425
000300 0a 3d 48 be 25 43 bb 3c 02 48 f9 bd f1 10 0e be
       -0.19554535 0.022859165 -0.121719375 -0.1387365
000310 4e f0 0a be f5 1a 43 3d dc 70 c9 bc 92 45 08 be
       -0.13568231 0.04763313 -0.024589948 -0.13307789
000320 f2 7e 55 3e 17 00 29 be 43 8e 9b bd ba 99 96 3d
       0.20849207 -0.1650394 -0.07595494 0.0735354
000330 62 d0 a9 bd 5b fc ca bd e2 5d 39 be 0d d8 1e 3e
       -0.08291699 -0.09911414 -0.1810222 0.15512104
000340 3e 83 84 3b f5 19 73 3c 42 30 bd 3d 76 69 36 3e
       0.0040439656 0.014837732 0.0923772 0.17813668
000350 4f 08 a1 bd f0 e1 32 bd 07 72 04 bd 1f 6b f8 bb
       -0.07862913 -0.043672502 -0.032335307 -0.007581129
000360 e8 6e e6 bd 01 c1 da 3d e1 02 3d 3c 19 7c 4f be
       -0.112516224 0.10681344 0.011536331 -0.20262183
000370 6d 6d 56 be 86 d7 2e bd 01 53 36 bd 60 68 17 be
       -0.2094018 -0.042686008 -0.044512752 -0.1478591
000380 c2 5f c3 3d ad e0 83 bd d8 c3 87 3e 5c e8 56 3e
       0.09539749 -0.06439338 0.26516604 0.20987076
000390 2a d6 85 3d 6b 90 6e 3d 74 a5 00 3e ab 12 0e 3e
       0.06534989 0.058243196 0.12563115 0.13874309
0003a0 7e 43 5d 3d 7e 54 90 3d ab 47 81 be 1b f0 a5 bc
       0.054019444 0.070473656 -0.2524999 -0.020256093
0003b0 94 39 39 bd cd 84 4e be d5 7e 08 be 2a fb c3 3d
       -0.045220926 -0.20167847 -0.13329633 0.0956939
0003c0 d8 fc a3 bd 3d 85 e1 3d ff 9d 47 be af 00 09 bd
       -0.080072105 0.11011741 -0.19493864 -0.033447918
0003d0 2c 60 d3 bd af ec eb 3d 5e de 84 3b 0c 0c 2d 3c
       -0.10321078 0.11519753 0.0040548285 0.010561954
0003e0 c4 69 25 be d4 8b a4 3c 6a ef e6 bd 09 5f be 3d
       -0.16153628 0.020086206 -0.11276133 0.0929547
0003f0 59 b0 c6 bc c6 90 8b 3d 92 5d c2 3d 73 b1 1c 3e
       -0.024254011 0.06814723 0.09490503 0.15302067

encoder_lstm.weight_hh_l0 f4 [128, 32]
000000 00 e5 90 3d ff a5 0b be 50 30 e1 3c 32 c2 ef 3b
       0.07074928 -0.13637541 0.027488858 0.007316851
000010 08 67 08 be 4c 20 ad bd dd 9e eb 3d ef f1 cf bd
       -0.13320553 -0.08453426 0.1150491 -0.10153567
000020 5e 7c 0e be 96 25 a3 bd ca 7f a9 3b a8 05 41 be
       -0.1391463 -0.07966153 0.0051727043 -0.18849814
000030 89 33 0e 3e 61 d3 8d 3c 42 59 41 3d a9 23 81 be
       0.13886847 0.017312707 0.047204264 -0.2522252
000040 28 be b2 3d 65 b2 b9 3c a8 0d 49 3e 1b 38 89 be
       0.08727676 0.022668073 0.19634116 -0.26800618
000050 5a a2 14 3e 40 03 c2 bd 4b f7 31 3d 18 be 60 bc
       0.14515057 -0.09473276 0.043448728 -0.013717197
000060 94 df d5 3c e6 dd 67 3e d4 df 1d be 7d b8 0c 3e
       0.026107587 0.22643241 -0.15417415 0.13742252
000070 05 df 37 3e f6 c3 19 be fa c1 5f 3e 39 22 4a be
       0.17956169 -0.1501616 0.2185134 -0.19739617
000080 48 58 52 be 59 3c 0c 3e 65 00 36 3e 5d 2f 19 be
       -0.20541489 0.13694896 0.17773588 -0.14959474
000090 42 90 8b 3e dc df 9a 3d a6 0b ca 3d cc de 42 3c
       0.27258497 0.07562229 0.09865503 0.011893939
0000a0 a6 9f 56 3e c2 02 88 3e 16 23 b4 3e be 7a 2f 3e
       0.20959339 0.26564604 0.35183018 0.17136666
0000b0 1b 98 d1 3d b0 e2 85 3e 10 2a 9f 3d 97 97 fe bc
       0.1023409 0.2614951 0.07771695 -0.031078143
0000c0 fa fa f5 be 5a be 02 be 5b c7 8c 3e ce 5c c2 be
       -0.48043042 -0.12767926 0.27495846 -0.3796143
0000d0 a6 8a 8e 3e 9c 81 e2 3e 61 aa e3 be c7 da c5 bd
       0.27840155 0.4423951 -0.44465926 -0.09660869
0000e0 61 63 b9 3e 64 8a 80 3b e3 ce 04 be 9e de 5c 3e
       0.36208633 0.0039227474 -0.12969546 0.21569297
0000f0 33 39 9e bd f3 d3 73 be 7e 0b 61 3e ff 80 1a be
       -0.07725754 -0.23811321 0.2197704 -0.1508827
000100 be 9e 3c be 08 15 d9 3d 10 69 41 3e c0 23 3a be
       -0.1841993 0.105997145 0.18887734 -0.181777
000110 62 cb 3f 3e 86 60 a5 3e d0 73 53 3e da 64 a1 3b
       0.18729928 0.32300204 0.20649648 0.0049253525
000120 48 bc f1 bd 9d b3 86 bc 9c fe 59 3e 29 ca 81 3d
       -0.1180349 -0.016443068 0.21288532 0.06337387
000130 01 39 f5 3d 32 cc 36 3d e4 4c 5d 3e e4 ca e6 3c
       0.11973763 0.04462833 0.21611363 0.028172918
000140 6b 8d c2 bd 16 77 46 3e 3f 30 4b 3e b7 bf 96 be
       -0.094996296 0.19381365 0.19842623 -0.29443142
000150 8e 9a e2 3d 33 a3 ca 3e b9 62 23 be c3 c5 ba bc
       0.11064635 0.39577636 -0.15955628 -0.022799378
000160 18 17 1a 3e 1b 53 41 3d 8c 66 7e be ba 04 56 3e
       0.15047872 0.047198396 -0.24843806 0.2090024
000170 24 fe 4f 3e bc 4d 47 bd 90 6b 04 3e 2f 61 58 be
       0.2031179 -0.048658118 0.12931657 -0.21130823
000180 5d b8 3a 3e dd 1b d9 bd 0b cb a8 3e 94 0e 0e be
       0.18234392 -0.106010176 0.3296741 -0.13872749
000190 48 d4 74 be 40 69 8f 3e 8a 53 e4 3c ed 1e ce 3c
       -0.23909104 0.28009987 0.027871866 0.025161231
0001a0 47 e7 eb 3d d6 a9 8e bd 70 91 ed bd d7 9e 5b be
       0.11518722 -0.069659874 -0.116000056 -0.21447311
0001b0 48 e0 51 3e 47 2b c1 3d 32 0c ec 3d f6 96 bf 3d
       0.20495713 0.094320826 0.115257636 0.093549654
0001c0 f2 fb 41 3e e2 11 28 3e c5 d2 2c be 44 88 be 3c
       0.18943766 0.16413072 -0.16877277 0.023258336
0001d0 97 41 9e 3d 46 c9 17 3d 7a 23 79 bd f2 2c 6f 3e
       0.07727354 0.037057184 -0.06082485 0.23356989
0001e0 1e c0 07 bd 40 8d 8e 3e 6a 63 79 bd 3c d3 ca 3d
       -0.0331422 0.2784214 -0.060885824 0.09903571
0001f0 86 09 37 3e e2 2c 77 3d 52 a8 dc bc 1b 93 e1 3d
       0.17874727 0.060345538 -0.02693573 0.11014386
000200 20 ad 1d bd 66 5c 01 bf f6 f4 14 be e2 62 8e 3d
       -0.038495183 -0.50531614 -0.1454657 0.06952454
000210 3a ae 2b 3e 44 3b 24 3e c1 da 67 3e fd 63 d6 be
       0.16765681 0.16038233 0.22642042 -0.4187316
000220 c6 1d bc 3e 18 11 83 3d da 1c 7f 3e 45 e8 b1 3e
       0.36741465 0.06399745 0.2491335 0.3474752
000230 1c 0f a2 3e f5 b9 c9 bd 0c 91 6f bd 14 76 8d be
       0.31652153 -0.098499216 -0.058487937 -0.2762915
000240 7e a9 f7 3d 5a da 05 bf 4b 33 da 3d 99 e7 e7 bd
       0.12092875 -0.52286303 0.106543146 -0.113234706
000250 73 09 6e be e7 ab 65 3d 3c b8 00 3d b6 34 55 be
       -0.23245792 0.056072142 0.0314257 -0.20820889
000260 45 dd a3 3e 11 63 4f 3e 20 2c 9c be f0 51 a8 3e
       0.32004753 0.20252635 -0.30502415 0.32875013
000270 0e 54 ba 3e e9 87 90 3d 98 7e 79 be 76 7f 96 be
       0.36392254 0.07057173 -0.24364698 -0.2939412
000280 db ac b2 3c e8 a8 d1 be 0a 03 41 be 0d 67 aa bd
       0.02181094 -0.40949178 -0.18848816 -0.083204366
000290 e8 ad a0 bc c4 13 13 3e 3c 01 b7 bd 50 b7 b7 be
       -0.019614175 0.14363009 -0.08935782 -0.35882044
0002a0 fa c8 99 3e 92 37 03 3e d1 2f 88 3e e8 68 16 3e
       0.30036145 0.12814167 0.2659898 0.14688456
0002b0 6c b0 7b 3e 02 31 c7 bd 0e f8 a4 be d5 0a f7 be
       0.24579018 -0.097261444 -0.322205 -0.48250452
0002c0 2b ba b9 bc 98 1c 13 be fe 68 8b 3e c7 13 23 3e
       -0.02267178 -0.14366376 0.2722854 0.15925513
0002d0 69 cc 77 bd a4 d4 ac bb 17 d4 30 3d f0 8d 6f bd
       -0.060497675 -0.005274372 0.043171015 -0.05848497
0002e0 d8 02 54 3d 14 ca 3a 3e a9 91 d9 bd cb 6a e7 3e
       0.051760525 0.18241149 -0.106234856 0.45198664
0002f0 ab 4b 98 3e bf cf 5d be 84 6d d4 bd d8 db c3 3d
       0.2974523 -0.2166128 -0.10372451 0.09563416
000300 62 8f f6 be 0a 65 f7 bd 6e ef 50 bc 5b 21 90 be
       -0.48156267 -0.120798185 -0.012752397 -0.28150448
000310 1e ea a3 3e e7 73 2a 3e a5 42 ba 3c 64 5c 7b 3e
       0.32014555 0.16645776 0.022736857 0.24546963
000320 bf 2f 52 be c2 c6 56 be 08 c5 09 be a1 1f 16 3d
       -0.20526026 -0.20974258 -0.13454068 0.036651257
000330 5a 4c 88 be f8 19 97 3d 58 74 48 3e ca 85 69 3c
       -0.26620752 0.07378 0.19575632 0.014253089
000340 3e 22 db bd 41 d7 54 be 06 d0 e9 3d f0 34 08 be
       -0.106998906 -0.20785238 0.114166304 -0.13301444
000350 a3 aa 8d bd 2c d1 41 3e ca ff e2 bd 53 63 66 3e
       -0.06917312 0.18927449 -0.11083944 0.22498827
000360 46 b8 dc 3d d8 aa 2a 3e 48 d0 d5 bd b4 10 c2 3e
       0.10777335 0.16666734 -0.10440117 0.37903368
000370 52 7c a8 3e f2 5c 58 3d 1b 43 99 3e d9 50 fb bd
       0.3290735 0.052823015 0.2993401 -0.1227128
000380 00 f7 55 be 90 62 87 3e 99 54 86 3e b6 3e 42 be
       -0.20895004 0.26442385 0.26236418 -0.18969235
000390 15 a5 09 3c 21 61 26 3c d6 9f 2c be b4 5f 95 3e
       0.008401175 0.010154993 -0.16857848 0.29174578
0003a0 7e ea f3 3b 90 a4 86 3b c1 5d 63 bc e5 9c c4 3d
       0.007443725 0.004108973 -0.013877333 0.09600238
0003b0 a8 97 25 3e 50 af 06 3a 4f 19 b3 3e 8c f9 44 3d
       0.16171134 0.0005137818 0.34980246 0.04808955
0003c0 1c 93 db 3d e6 87 8b be 04 41 09 3e ca 7f dd bd
       0.10721418 -0.2725212 0.13403708 -0.108153895
0003d0 e7 f8 eb bd a5 a6 be 3d 74 97 6b 3d 08 9c ce 3d
       -0.11522084 0.09309129 0.057517484 0.10088354
0003e0 aa 45 ec bd 61 c1 54 3d 5f 69 67 bc e7 98 85 3c
       -0.11536725 0.051942233 -0.0141242435 0.016308261
0003f0 7f a6 bf 3d ea 0a 5d 3e e2 8d 05 3e a0 7c 62 bd
       0.093579285 0.21586195 0.13042405 -0.055294633

encoder_lstm.bias_ih_l0 f4 [128]
000000 86 78 f9 3d 44 87 35 3e 82 69 45 3e 8f 02 67 bd
       0.12181191 0.17727381 0.1927853 -0.056398924
000010 6f 20 8b 3d ae 4c 55 3e 10 87 eb 3d 5b 66 15 3e
       0.067932956 0.20830032 0.115003705 0.14589827
000020 29 d3 57 3e a4 ea 5d 3e 09 2e 00 3d 2e 21 9a 3e
       0.21076645 0.2167154 0.031293903 0.3010344
000030 4f a0 fe bd 2c 5f 29 bd af b5 11 be 4d f0 0a 3e
       -0.1243292 -0.04135053 -0.14229463 0.1356823
000040 b8 00 e0 3d 7a 0d d2 3e 5b 15 3d be 9c 35 a5 bd
       0.10937637 0.41025907 -0.18465178 -0.08066866
000050 f5 47 27 3d fe 02 37 bd e0 26 74 bd ae 05 ad 3e
       0.040840108 -0.044680588 -0.059607387 0.33793396
000060 60 92 ff bd b2 82 64 3e c2 0b c9 3c 24 2e be bd
       -0.12479091 0.22315481 0.02454174 -0.092861444
000070 fd 91 db ba 78 b6 7a 3e 58 ba 2c 3e 7a c2 4d 3e
       -0.0016751882 0.24483669 0.1686796 0.20093718
000080 4d 98 94 3c fd 8b d2 bd ec c8 f2 bd ca a6 0f be
       0.018139029 -0.10280607 -0.11854729 -0.14028469
000090 44 9e 1a be e6 8f 2b be 96 0f f9 3d 56 87 96 bd
       -0.15099436 -0.16754112 0.12161176 -0.07350032
0000a0 92 f3 25 3e ac d7 26 3e 8b d8 9c 3d 6f 50 13 3e
       0.16206196 0.1629321 0.0765849 0.14386152
0000b0 eb c5 95 bd 7e b6 10 be d6 90 0a be 0e 2b eb bd
       -0.073131405 -0.14132115 -0.13531813 -0.114828214
0000c0 f3 4c bf bc a4 43 ee bd 7f 1c 0e be b0 d0 f7 bc
       -0.023352122 -0.11633995 -0.13878058 -0.030250877
0000d0 66 de fb 3d 8a 0a 49 3e 61 cf 1f be a7 44 66 3c
       0.122982785 0.19632927 -0.15606453 0.014054454
0000e0 9e c1 f6 3d 49 a6 07 be 2f 9f a3 3d 10 33 09 3e
       0.12048648 -0.13247027 0.07989346 0.13398385
0000f0 ec e2 c5 bc 50 76 93 bd b4 b2 11 be 58 2b b0 bd
       -0.024156056 -0.07200301 -0.14228326 -0.08602017
000100 f7 f2 88 3d 8f ef c8 3c 14 7c 24 3e e0 e8 1f 3d
       0.06686967 0.024528293 0.16062957 0.039040446
000110 1c bf b5 bd 0c 1f 1d 3e 76 b6 17 3e fd 51 06 bd
       -0.08874342 0.15343875 0.14815697 -0.032793034
000120 9e 7b 62 3b 34 50 67 3d df f9 33 3d b8 6c 10 3d
       0.0034558545 0.056472972 0.043939468 0.035259932
000130 10 e5 93 bd f8 b7 3e bc df fb bb bc 24 cd fe bd
       -0.072214246 -0.011640541 -0.02294725 -0.12441471
000140 c2 16 d7 bd 60 62 78 bd 53 f7 84 bd 07 98 ab 3c
       -0.105023876 -0.060640693 -0.06492486 0.020946516
000150 a0 9c 2d 3e 6a 69 13 3e 99 cc 9c bd 05 14 1b be
       0.16954279 0.14395681 -0.076562114 -0.15144356
000160 d2 65 c1 bd 87 ab 2b 3e 4e 25 8d bc 3a 43 1b 3e
       -0.09443249 0.16764651 -0.017229702 0.15162364
000170 c4 ee dc 3d 5d 97 80 3d 5c 39 4b bd ce c9 3e bd
       0.107877284 0.0627887 -0.04961525 -0.046579175
000180 2f bd 29 be 93 d7 3d 3d ad 15 2b 3d 4c fc e7 bc
       -0.16576074 0.046348166 0.04176872 -0.028318547
000190 2a b5 3c 3e 5e 27 07 3e 03 24 0f 3e eb 8d 58 bd
       0.18428484 0.13198611 0.13978581 -0.05286972
0001a0 7a 9f 4d 3e 68 81 aa 3d db 94 21 be 23 65 92 3e
       0.20080367 0.083254635 -0.1577944 0.28592786
0001b0 1a 83 3d bd 57 50 2b 3e 11 46 10 3e f5 9b ff 3d
       -0.046267606 0.16729866 0.14089228 0.12480918
0001c0 52 3b 36 be 3f 98 8a 3e 06 c3 fd 3d c6 d8 85 bd
       -0.17796066 0.2706928 0.123907134 -0.06535487
0001d0 18 a2 56 3e b4 46 d4 bd 44 90 02 3e 07 e0 a4 3e
       0.20960271 -0.10365048 0.12750345 0.3220217
0001e0 93 fa 1f 3d f4 2a fb 3d bf 97 c3 bd 6c 05 23 3e
       0.039057326 0.12264052 -0.09550428 0.15920037
0001f0 85 b9 10 3e 44 00 6a 3e b6 95 e0 bd 36 f5 a5 bc
       0.1413327 0.22851664 -0.10966055 -0.020258527

encoder_lstm.bias_hh_l0 f4 [128]
000000 48 48 b4 bc 62 d4 3c 3e a4 7a 33 3e 40 67 da bd
       -0.022007123 0.18440393 0.17527252 -0.106642246
000010 7c 5c e0 3d 01 1e 22 3e 49 74 87 3c d0 86 0c ba
       0.1095514 0.15831758 0.016534941 -0.0005360665
000020 c4 04 72 3e 8a 1a 1a 3e b1 46 a4 3d 42 4b 36 3e
       0.2363463 0.15049186 0.08021296 0.17802146
000030 59 91 be bd 51 bb be bd ce cd 21 3d 85 28 08 3d
       -0.093050666 -0.093130715 0.03950291 0.033241767
000040 98 35 fd 3c 64 d9 07 3f 5a d2 c4 bd 60 7a 4d 3d
       0.030909345 0.53066087 -0.09610434 0.050165534
000050 0a d6 02 be ef 75 9a 3d f0 ee d7 bd ba 4c a0 3d
       -0.12776962 0.07542025 -0.105436206 0.078271344
000060 82 27 86 3d 71 3a 0c 3e 2d 4d cb bc a2 4b 9a 3d
       0.06550504 0.13694169 -0.024817074 0.07533957
000070 80 40 88 3d 05 ad b0 bd 19 7c 4f 3e ac a3 1d 3b
       0.066529274 -0.08626751 0.20262183 0.0024053855
000080 7f 45 a8 bd 26 9a 8a bd 85 fd 77 3d 86 37 09 3e
       -0.0821638 -0.06767683 0.06054451 0.13400087
000090 e5 ac 4a be 38 55 1e 3d 4e 67 7b 3d 92 a8 39 be
       -0.19792517 0.03865549 0.061377816 -0.1813071
0000a0 cf ee 48 3d aa 5c 84 bd 5e c9 bb ba 09 97 a4 bd
       0.04905587 -0.06462987 -0.001432698 -0.0803662
0000b0 1c 13 84 bd c8 6c c7 bd 89 4a 66 bd 2c 75 05 3e
       -0.06448957 -0.09737545 -0.056223426 0.13032979
0000c0 dc e7 2c 3e 72 13 eb bd b8 e1 b9 bd 88 65 98 3c
       0.16885322 -0.11478318 -0.090762556 0.018603101
0000d0 6e e6 34 bd fa aa ac 3c f8 fe c6 3c 68 42 b0 3d
       -0.044165067 0.021077622 0.0242915 0.08606416
0000e0 7a b7 fc 3d 34 e6 06 be 13 4f 90 bd cc 4a c1 3d
       0.12339683 -0.13173753 -0.07046332 0.094380945
0000f0 dd bd 0f 3e 82 14 79 bd 0f 84 00 3e 75 bc c8 3d
       0.14037271 -0.060810573 0.12550376 0.0980157
000100 40 aa e1 bc bf 61 0b be 03 ba b4 3d d8 ca a7 3b
       -0.027547002 -0.13611506 0.088245414 0.0051206164
000110 0c da 18 3e b3 bf 72 bd 0d 1e 02 bd d4 d7 f6 3d
       0.14926928 -0.05926485 -0.03176694 0.12052885
000120 17 35 a9 3c 9e 72 11 be 65 98 d7 3c 2c db cc bc
       0.020655198 -0.14203879 0.026317785 -0.025006853
000130 0d 5a 0d be cc 06 06 be bb e0 a2 3d 28 1e ea bd
       -0.13803883 -0.1308853 0.0795302 -0.11431533
000140 fa 21 16 bd b6 94 f8 bd 7e 92 0b be e2 db fb bd
       -0.036653496 -0.12137739 -0.13630101 -0.12297799
000150 cc a6 16 3e 7c 16 5e 3c be 89 84 3d eb 13 b0 bd
       0.14712065 0.013555165 0.06471585 -0.08597549
000160 27 c4 2e 3e 10 3a 39 bd f9 30 06 bd 44 61 fb bd
       0.17067014 -0.04522139 -0.032761548 -0.12274411
000170 ac a2 ef 3d a4 68 2e be 17 cd 08 bd e8 3d e1 bc
       0.11700949 -0.17032105 -0.033398714 -0.02749534
000180 c6 af b6 3d c8 94 38 bc c9 18 08 3e 70 28 0e be
       0.08920245 -0.011265941 0.13290705 -0.13882613
000190 b8 ec aa 3e 6c 07 98 3e 14 05 84 3e ce 1b ee 3c
       0.33383727 0.29693162 0.25785124 0.029065993
0001a0 54 67 05 be 52 ae 91 3e 37 f1 48 bc 1d 51 23 3e
       -0.13027698 0.28453308 -0.012264541 0.15948911
0001b0 00 fc 44 3e 40 8d 2a bd 0b ce 17 3e b7 3a 25 3e
       0.19236755 -0.041638613 0.14824693 0.16135679
0001c0 23 2b 1c 3e 69 70 bc 3d 68 4b 10 be b6 99 2a bc
       0.1525083 0.09201128 -0.14091265 -0.010412624
0001d0 cb 41 ba 3d 6e db 2a 3e 2a e7 92 bb cf bd a9 3e
       0.0909458 0.16685268 -0.0044831233 0.33152625
0001e0 c7 63 60 bd 3c 1a da bc f5 17 93 bd 9a 77 e6 3d
       -0.054782655 -0.026623838 -0.07182304 0.11253281
0001f0 84 d9 05 be cf 96 5f 3e 68 97 5d 3d 5d 80 2a 3e
       -0.13071257 0.21834873 0.05409947 0.16650529

dest_lstm_obs.weight_ih_l0 f4 [128, 2]
000000 d8 56 0f 3c 80 6a 42 be 22 98 87 bd 7f 06 ca bd
       0.0087487325 -0.18985939 -0.06620814 -0.0986452
000010 3c a5 6e 3c 24 8f a1 3d 8e d0 e4 3d 82 18 8d bc
       0.014565762 0.0788863 0.11172591 -0.0172236
000020 e8 f1 6f bd 00 fa c3 bd f1 3e 38 be 43 70 b3 3d
       -0.05858031 -0.09569168 -0.1799276 0.087616466
000030 d4 2a be bc cc 12 b1 bd 12 13 d5 3d db 5b 2e 3d
       -0.023213781 -0.08646163 0.10404028 0.04256807
000040 7a 0d 20 be 56 56 b7 3d 2e d5 b9 3d 6e 87 a0 bd
       -0.15630141 0.08952014 0.09073864 -0.07838331
000050 10 7b 22 3e 9d a8 b7 bd 20 c8 0e 3e 55 8d 65 bd
       0.15867257 -0.08967707 0.13943529 -0.056042988
000060 31 65 ad 3b 0b 55 2f bb b5 85 0e be 6b 4f 0f 3e
       0.005291604 -0.002675357 -0.13918193 0.1399514
000070 6f d0 19 bd 48 48 b0 3d bf 56 eb bd 0c cb 9c 3d
       -0.037552293 0.086075366 -0.11491155 0.076559156
000080 59 8f bb bc d6 33 8a bc f1 56 e4 bd da 0e be 3d
       -0.022895502 -0.01687042 -0.11149395 0.092801765
000090 5a 46 08 bc a5 bd f1 3d 17 8c 77 3c de 28 87 3d
       -0.008317554 0.1180375 0.015109084 0.06599592
0000a0 53 4c 86 bd eb ac 14 3e bb 21 a7 3d b6 7b cf bd
       -0.065575264 0.14519088 0.081607305 -0.10131018
0000b0 83 86 ae 3d 00 ca a8 bd 13 a0 86 bd 63 f1 28 3d
       0.0852175 -0.082416534 -0.065735005 0.04124583
0000c0 f3 6c 92 bb 1c 01 05 be 2c 54 35 3d 82 91 fa bd
       -0.004468554 -0.12988704 0.044269726 -0.12234785
0000d0 53 20 c8 bd 31 34 93 3d 30 fa 20 be 38 d0 f1 bd
       -0.0977179 0.07187689 -0.15720439 -0.11807293
0000e0 85 fd be bd 3d 5a 31 bc d4 16 12 3e 5f 26 21 bc
       -0.09325699 -0.010824737 0.1426652 -0.009835809
0000f0 d6 35 e6 3d 39 3e 99 bd a6 34 ec 3d 08 a7 ca bd
       0.11240737 -0.07482571 0.115334794 -0.0989514
000100 bd f9 22 bd 89 e2 c4 3d 92 b0 32 bd 89 3a f9 3b
       -0.03978895 0.09613521 -0.04362542 0.007605855
000110 03 af 92 bc f6 82 40 bd 45 77 9d bd 29 86 62 bd
       -0.017905718 -0.046999894 -0.076887645 -0.055303726
000120 19 c1 31 bd 1b fc eb 3c 08 16 d9 bc 1c 20 88 bc
       -0.043397043 0.028806737 -0.026499763 -0.016616873
000130 05 38 58 3c 8c f8 46 3d 83 f0 2f be 31 54 40 3d
       0.01319695 0.048576877 -0.17181592 0.04695529
000140 a5 75 1b be 3a 02 92 3d a4 0c c4 bc 81 ba c4 bd
       -0.15181597 0.07129331 -0.023931809 -0.09605885
000150 4a 60 c9 bd 3a af 13 bd 30 43 e1 bd d2 e8 3d bd
       -0.09832819 -0.03605578 -0.10999143 -0.046364613
000160 6a 48 10 be f6 9d f5 3d e5 b1 9f bd 4e 22 6b bd
       -0.14090124 0.11993019 -0.077976026 -0.057405762
000170 83 0e cb 3c 3c 71 4b bd 74 04 17 3b ed 2c dd bd
       0.024787193 -0.049668536 0.0023043426 -0.107995845
000180 ff 13 0e be a2 16 b6 bd 43 83 02 bd 60 a3 06 3d
       -0.13874815 -0.088910356 -0.031863462 0.03287065
000190 fc b8 32 3d a8 19 47 be 70 24 c6 bd 8d bc 79 be
       0.043633446 -0.19443381 -0.09674919 -0.24388333
0001a0 2a 5a ac 3b 1c ff 11 be 6c f4 1b 3d 49 ba ab 3d
       0.005259772 -0.14257473 0.038074896 0.083851404
0001b0 28 e9 e5 bd 0e f1 89 3d 89 2a 4f be 1b 75 30 3d
       -0.11226112 0.06735431 -0.2023107 0.04308043
0001c0 bd b3 49 3c f6 25 db 3d c4 34 32 bd b9 b3 b5 bd
       0.012310919 0.107006 -0.043507352 -0.0887217
0001d0 8c d1 0d 3d b6 d8 f3 bd 4c 41 ca bc 00 71 2b bd
       0.034623668 -0.11906569 -0.02468934 -0.041855812
0001e0 82 8b b5 3d 91 73 7f 3b 02 82 bf bd e2 8f 3e bd
       0.088645 0.0038978795 -0.09350969 -0.046523936
0001f0 e9 32 ec bd 44 6d 4a bd d2 f8 fc bd d5 88 a1 bc
       -0.11533148 -0.04942061 -0.12352146 -0.019718567
000200 06 16 d8 bd b1 14 88 bc ac 28 85 3b ca d8 00 3d
       -0.10551076 -0.016611429 0.0040636864 0.031456746
000210 dd d5 6e bd 09 4c e1 3c 6d a9 2c bd 05 a3 19 3d
       -0.058309425 0.027502077 -0.042153765 0.037508983
000220 15 bf 0c be 88 fb ed 3d b0 22 57 3d 63 f4 88 3d
       -0.13744767 0.116202414 0.052523315 0.06687238
000230 12 93 0b 3e 50 83 e9 bd e1 53 b4 3c 30 63 54 3d
       0.13630322 -0.11401999 0.022012653 0.051852405
000240 6c 4c 57 3c cc 74 e1 bd 9e d5 dd bd 16 a5 04 bc
       0.013140779 -0.11008605 -0.1083176 -0.008096
000250 c4 54 92 3d 8b 09 57 bd 3f e8 d3 3d e9 dd 9b bd
       0.07145074 -0.052499335 0.10347032 -0.076106854
000260 79 22 49 3c 09 a0 99 3c 25 54 50 3c 2c 6d 0d 3d
       0.012276285 0.018753069 0.012715374 0.034527943
000270 87 04 af bc 17 a2 96 bd f0 d6 d1 3d ee fa 04 be
       -0.021364463 -0.07355135 0.10246074 -0.12986347
000280 05 67 5a bd 4d 52 bd ba 16 4b 24 bd fc 92 80 3d
       -0.053320903 -0.0014444083 -0.04011067 0.06278035
000290 39 80 58 3d 6d 51 2a bc 25 b1 df 3a cc 33 55 bc
       0.052856658 -0.01039539 0.0017066343 -0.013012838
0002a0 2f 1a af bd ea a8 35 bd df e5 1c bc 26 8f e7 bb
       -0.08549916 -0.044350542 -0.00957629 -0.007066625
0002b0 52 dc 0f be fc 31 e2 3d 77 67 ee 3d d3 e7 a4 bd
       -0.1404889 0.1104469 0.11640828 -0.080520295
0002c0 41 0f f2 bb df 77 96 3d e6 5e a2 3d 3d 5a 53 3d
       -0.0073870723 0.07347082 0.07928257 0.05159973
0002d0 9f ed df 3d e8 a7 34 bd 81 c6 64 3c 5c 48 1d 3d
       0.109339945 -0.04410544 0.013963343 0.038399085
0002e0 51 5b ee bc 9b a6 ab 3d ca d7 4e bd 9e 8a c7 bd
       -0.029096277 0.08381387 -0.05049876 -0.09743236
0002f0 58 ad a9 bc 64 68 39 3d 92 13 b3 3d e8 51 99 3c
       -0.02071254 0.04526557 0.08743967 0.018715814
000300 68 03 d1 bd 12 79 b8 3d 7f 9c f1 bd fa a5 83 bb
       -0.10205728 0.09007467 -0.117974274 -0.0040175887
000310 89 24 60 bd f6 2b d9 3d 63 07 c1 bd cd 18 59 3d
       -0.054722343 0.10604088 -0.09425237 0.053002167
000320 1a 31 6b bd 5c ac 24 bd 43 c3 9e bc a2 dd 7b 3d
       -0.057419874 -0.040203437 -0.019380217 0.061490662
000330 d6 e2 5c 3d 60 f6 66 bd 29 29 a1 bd 58 be 63 3c
       0.053927265 -0.056387305 -0.07869179 0.013900362
000340 39 bf 50 bc 66 96 98 3d 02 01 78 3d 24 ed 92 3d
       -0.0127409035 0.07450561 0.060547836 0.07174137
000350 a4 dd 18 3d 8c c4 59 bd ec 48 5d bd f4 a1 03 be
       0.037320748 -0.053165957 -0.05402462 -0.12854749
000360 dc 38 0a 3e f7 72 04 be ee f4 16 be d0 ae 9a 3d
       0.13498253 -0.1293448 -0.14741871 0.07552874
000370 60 d7 8a 3d 82 ee f5 bd 32 ba 2d be 93 80 f6 3d
       0.06779361 -0.120083824 -0.16965559 0.12036242
000380 a3 6b df 3c b2 81 e7 bd 97 83 5e 3d 86 59 06 be
       0.027273005 -0.11304034 0.054324713 -0.13120088
000390 32 a6 a3 3d e1 0e 1f be d4 bf f1 bd 53 ca 9f 3d
       0.079906836 -0.1553302 -0.118041664 0.07802262
0003a0 09 80 76 3d 00 c2 49 bd 59 06 32 be a7 df 81 3d
       0.060180698 -0.04925728 -0.17385234 0.063414864
0003b0 b8 48 59 bc 0b 33 de bc 00 c3 a3 3d 29 f0 0d bd
       -0.013261966 -0.027123949 0.07996178 -0.034652863
0003c0 cc 37 e4 3b b0 d3 8d 3d 46 40 3c 3d 0e ab 0d 3d
       0.0069646593 0.06925142 0.045959733 0.03458696
0003d0 d1 32 c7 3d 19 5c 21 be a0 41 bb 3d 0b ec a1 3d
       0.09726489 -0.15757789 0.09143376 0.0790635
0003e0 60 c2 ea bc ae 6d 85 3d ab de 35 3d 01 bd b8 3d
       -0.028657138 0.0651506 0.044401806 0.09020425
0003f0 1e ee 0c bd 98 84 d2 bd b2 43 91 bd 74 c9 88 3d
       -0.034406774 -0.102791965 -0.0709299 0.06679049

dest_lstm_obs.weight_hh_l0 f4 [128, 32]
000000 00 3d 75 3e 3e 14 4b be 13 e9 14 3c ec 5b 9f bd
       0.23949051 -0.1983194 0.009088772 -0.077812046
000010 e0 81 16 3d a2 9b df 3d e3 96 66 3d 0d b9 35 be
       0.036744952 0.109183565 0.05629624 -0.17746373
000020 71 71 42 3e 2a ef 5c 3e 18 7f 1e be 74 bf 5d bd
       0.18988587 0.21575609 -0.1547817 -0.054137662
000030 20 5a 17 be be e2 59 bd fd a8 38 3e c4 a0 31 3e
       -0.14780474 -0.053194754 0.18033214 0.17346483
000040 09 43 00 3e 02 c2 7c bd 01 0f 78 bd 5f 78 b5 3d
       0.12525572 -0.061708458 -0.060561184 0.088608496
000050 37 ce 8f bd 7c f8 e3 3d 58 55 19 3d 72 ed 0b be
       -0.07021754 0.11131379 0.037434906 -0.13664797
000060 70 6a f4 bc 61 77 4f bd e7 2e d0 bc 1c 14 58 be
       -0.02983591 -0.050650958 -0.02541299 -0.21101421
000070 4a 4b f1 bd d6 d5 d6 bd e1 ba 15 be e9 a5 2a be
       -0.117819384 -0.10490005 -0.1462207 -0.16664852
000080 ec 31 9b bd 84 92 99 bb d4 86 32 3e c0 4c 16 3c
       -0.07577881 -0.0046866555 0.17434245 0.009173572
000090 a4 39 77 3d 87 d5 00 be d1 d3 a3 3c 6a b6 bb bd
       0.060357705 -0.12581454 0.019998463 -0.09165652
0000a0 88 c8 f4 3c 5e 04 e9 3d 2f 4d 09 be c0 5e d1 3d
       0.029880777 0.11377786 -0.1340835 0.1022315
0000b0 0b 6d 24 3e 1f be ca bc 60 64 5c bb 0c 6c a3 bd
       0.16057222 -0.02474886 -0.0033629164 -0.07979593
0000c0 5c ab fc bd a2 99 d5 3b a1 d9 38 be 70 b8 12 be
       -0.12337372 0.0065185586 -0.18051769 -0.1432817
0000d0 bb 0a b6 bb 65 36 fb bb e8 ed f6 bc 2b 6f fa bd
       -0.0055554784 -0.0076663964 -0.03014274 -0.12228235
0000e0 b6 f7 34 3d d1 6b 0f be ce 03 5c be d3 07 85 bd
       0.044181548 -0.14005972 -0.21485826 -0.06495633
0000f0 d8 b2 e5 bc d8 36 0b be 53 28 88 3d c2 8a ba 3d
       -0.02803938 -0.1359514 0.06648316 0.09108497
000100 c4 ab 52 bd b8 fc b4 3d 28 87 40 3e e5 b1 e0 bd
       -0.05143334 0.08837265 0.18801558 -0.10971431
000110 ee 26 27 bd 45 bc a9 3d ee b3 3b 3e bf 43 13 bd
       -0.04080861 0.08287863 0.18330356 -0.03595328
000120 14 4b 7c 3e be 21 48 bd ab ce 8d 3d 98 c2 85 3c
       0.24638015 -0.048860304 0.069241844 0.016328141
000130 ca 9a af 3d 3c 96 69 be 20 ea 22 bd 34 35 23 bd
       0.085744455 -0.22811216 -0.03977406 -0.03984566
000140 e0 b8 92 3d b7 1b 12 3e a1 1c eb bd 12 a6 fc 3d
       0.07164168 0.14268385 -0.1148007 0.12336363
000150 dc 7f ca 3d 2a 06 f5 bd 0c 90 f0 bd aa e5 ba bd
       0.098876685 -0.11964066 -0.11746225 -0.09125836
000160 49 65 8c bd c4 db fa 3d 5a 84 7b 3d 61 94 95 bd
       -0.06855256 0.12248948 0.061405517 -0.07303692
000170 6d df 5b be e2 f5 99 bd 1c ca ed bd c6 b1 c2 bd
       -0.21471949 -0.075176015 -0.11610815 -0.09506564
000180 24 22 45 3e ef 02 d8 3d 86 c5 6e 3d e5 7e 20 be
       0.19251305 0.105474345 0.05829384 -0.15673406
000190 bb 05 a2 bd 54 27 68 bd d2 58 56 3e 66 3d b1 bc
       -0.07911249 -0.05667813 0.2093232 -0.021635722
0001a0 15 1f 6c 3d 26 0d 2e 3e e7 14 40 3d dd 55 76 3e
       0.05764683 0.16997203 0.046894934 0.24056192
0001b0 f0 a1 bd 3d 13 32 a1 bd 9c 73 b2 bd 0e 8e b9 bc
       0.09259403 -0.07870879 -0.08713457 -0.022650745
0001c0 c3 a3 8c 3d 3a 80 be bd 93 bb 11 be 4c 11 99 3d
       0.068671726 -0.09301801 -0.1423171 0.07474002
0001d0 19 f8 2d 3e 75 4c 34 3e f7 45 fd 3d 3f c0 4a 3e
       0.16989173 0.17607291 0.1236686 0.19799899
0001e0 8e cd c0 3c c4 1b 70 3c 33 fb 80 3d b0 ba aa 3d
       0.023535516 0.014655057 0.062979124 0.08336389
0001f0 8c 33 f0 bd 1a 7b 5b 3e b7 ca 77 bd 12 c4 25 3d
       -0.11728582 0.21433678 -0.06049606 0.04047019
000200 bb ac d8 3b 1e 32 6b bc c0 39 74 bd 7b 19 5c bd
       0.006612388 -0.014355211 -0.059625387 -0.053735238
000210 e1 d1 bd bd 01 a3 07 bc 77 b7 4d bc 92 37 bd bc
       -0.09268547 -0.008278609 -0.012555948 -0.023097787
000220 e2 6a 07 be 4e ff 25 3e b2 6b 41 3d c5 a6 75 be
       -0.13224366 0.16210672 0.047221847 -0.23989399
000230 47 2a 5c be 48 42 1f 3d 31 3e 22 3e d2 22 3a 3d
       -0.21500503 0.03888157 0.15844037 0.045443363
000240 24 15 87 3d 40 d6 26 3d 9e 11 4b bd 4c 81 ff bd
       0.06595829 0.04073167 -0.049577348 -0.12475833
000250 e3 50 a9 bd 78 2b 89 bd e5 a5 fe 3c 76 6f 84 3c
       -0.08267381 -0.06697744 0.031084964 0.01616643
000260 98 58 25 3c e1 6a 10 3d 98 e9 6c 3d 8f a6 93 bc
       0.010091923 0.035258178 0.05783996 -0.018023757
000270 e6 fa 52 bd 96 d4 e0 3c b7 c3 95 3d 5e db 02 bd
       -0.051508807 0.027445119 0.0731272 -0.031947486
000280 ca 97 3b 3e 4d 0f 8b 3d e7 a7 a8 bd 0a 90 bd 3d
       0.18319622 0.06790028 -0.0823515 0.09255989
000290 6a 5c 00 3d a6 1e b5 3c ee 38 34 3e 5a 1c e5 bd
       0.031338133 0.02210934 0.17599842 -0.11187048
0002a0 24 30 46 3e ef b4 09 3d e4 96 f0 3d 3a 1c a2 3d
       0.19354302 0.033619817 0.1174753 0.0791554
0002b0 ba f5 84 3d 89 d1 74 3d fb 14 a2 3d 25 db 15 3e
       0.06492181 0.05977014 0.07914158 0.14634378
0002c0 c9 19 bd 3d 37 e6 6b 3d aa 74 32 be 1b c7 06 3d
       0.09233434 0.057592597 -0.17427316 0.032904726
0002d0 25 17 fb 3d d2 20 15 bd 24 98 ba 3b 8a 2b d6 3c
       0.12260274 -0.036408253 0.005694406 0.026143808
0002e0 58 d1 cb 3c 49 8b 2b be e4 22 ff bd 7b b1 ca 3d
       0.024880096 -0.16752352 -0.12457827 0.09897133
0002f0 59 82 5b be 6f 5f 4a bd b7 63 a6 bc 99 69 84 3b
       -0.21436442 -0.04940742 -0.02031122 0.0040409085
000300 96 a8 94 3e 9a 3c 1b be 34 b5 49 3e e9 66 0e 3e
       0.2903487 -0.15159836 0.1969803 0.13906445
000310 82 79 db 3d d3 0d df 3d 2d ce 8f bd d1 b0 ca 3d
       0.10716535 0.10891309 -0.07021747 0.09897006
000320 35 3f 83 bd 28 93 cf 3d dd ef 90 be 8a 34 af 3d
       -0.0640854 0.1013549 -0.28308 0.08554943
000330 2f f8 05 be b6 0d 23 3e 13 3c 8e 3c 27 54 39 be
       -0.13082956 0.15923199 0.01736263 -0.18098508
000340 01 8a 90 3e 43 da fa bd 17 fc 95 bc 80 e7 83 bd
       0.2823029 -0.12248661 -0.018308682 -0.064406395
000350 66 b0 3d 3d 6c e5 75 3e 82 1c 64 3d 38 69 03 3c
       0.046310805 0.24013299 0.05569125 0.008020692
000360 56 21 21 be eb d9 9c be 4d 6c 63 be 0a de 15 3d
       -0.15735373 -0.30635008 -0.22209282 0.036588706
000370 51 b2 a7 3c 1c 21 a0 3d 65 1b ce 3d b3 a8 57 bd
       0.02047077 0.07818815 0.10063819 -0.05265112
000380 45 6c 8b 3d 50 29 e6 bd 31 13 01 3e ce dc 10 be
       0.0680776 -0.112383485 0.12604977 -0.1414673
000390 2c a6 d4 3d 7f d0 df bc 8b 2b 5f bd a6 cd 8c 3b
       0.10383257 -0.027321098 -0.054484885 0.004296976
0003a0 80 1f c8 3d 15 c4 92 3d f7 a1 07 be a2 39 92 be
       0.09771633 0.07166306 -0.13245378 -0.28559595
0003b0 d4 19 8a 3d 35 84 45 bd e1 ce 7d bd 72 fd e4 bc
       0.067432076 -0.048221786 -0.061964873 -0.027952883
0003c0 12 c2 12 be e4 10 11 bd 44 c4 8b bd 0d 4f f8 3d
       -0.14331844 -0.0354165 -0.06824544 0.12124453
0003d0 86 b3 bd 3d 60 63 59 3c 65 a2 e7 3c 12 90 b2 bd
       0.09262757 0.013268322 0.028275678 -0.087188855
0003e0 57 de 19 bd f9 1c 0a 3d 15 f2 9f bd db c1 5c bd
       -0.037565555 0.033719037 -0.07809845 -0.053895812
0003f0 13 20 8b ba 3a d2 fe bc 48 97 f3 3d 0d e9 d7 3d
       -0.0010614417 -0.031106103 0.11894089 0.10542498

dest_lstm_obs.bias_ih_l0 f4 [128]
000000 01 e6 b6 3d 9f 83 3e be f9 b7 44 bd fc 0e a8 bd
       0.089305885 -0.18604897 -0.048027012 -0.08205983
000010 8d d4 b1 3d 53 9d c9 bd aa 4a dd bd 66 51 5d bc
       0.08683119 -0.0984446 -0.10805257 -0.013508176
000020 36 ce 1f be 96 01 15 be 48 a5 87 bd 8f 33 92 3d
       -0.15606007 -0.14551386 -0.06623322 0.0713874
000030 8c 77 96 bd a2 a2 9a bd 5f 85 6b 3c 84 76 92 3d
       -0.073470205 -0.07550551 0.01437506 0.07151511
000040 7e ca a2 3d 78 2c 43 bd 1e 84 01 be 7f fd 3c 3d
       0.079487786 -0.04764983 -0.12648055 0.04614019
000050 56 d8 94 3d 4a e9 ce bd b8 a5 73 be 93 f9 43 3c
       0.07267825 -0.1010309 -0.23793685 0.011961359
000060 e4 08 29 bd 48 cc a8 bd 48 b3 9a bd 5c 9b 18 bd
       -0.041268244 -0.082420886 -0.075537264 -0.037257537
000070 f6 bf 83 bd 32 ac f5 3d 7a d5 6e 3d 9b 1b f4 bd
       -0.06433098 0.11995734 0.058309056 -0.11919328
000080 48 50 52 be 5c e0 b4 bd 16 74 2b be 5a b5 8f 3d
       -0.20538437 -0.08831856 -0.16743502 0.07017012
000090 2c 87 60 be 78 82 c7 bc 38 c5 7d bd 10 d6 18 bd
       -0.21926564 -0.024354205 -0.06195566 -0.03731352
0000a0 c2 72 7c bd cb b1 d2 3d 18 67 29 be da 0a db bb
       -0.06163288 0.102878176 -0.16543233 -0.006684643
0000b0 07 90 2a be ae e4 12 3d e1 2d c2 bd 19 c8 88 be
       -0.16656505 0.035862617 -0.09481407 -0.26715162
0000c0 5c 36 61 be d1 65 a4 3d be e5 79 be e8 03 e2 bc
       -0.21993393 0.080272324 -0.24404046 -0.027589753
0000d0 4c 54 1e be c4 2f 69 3b 45 33 37 3d fd d3 ae bd
       -0.15461844 0.003558145 0.04472663 -0.08536527
0000e0 dd 6d 13 be 11 7c 9e 3d 20 75 2e bd e0 05 32 3d
       -0.14397378 0.077385075 -0.042592168 0.043462634
0000f0 e4 70 57 be 44 90 c8 bd 66 93 6d 3e b1 f6 2d bc
       -0.21039158 -0.097931415 0.2320076 -0.010617898
000100 e2 08 84 3b ec ea b0 3d ce 97 e9 3d 29 aa 01 be
       0.004029379 0.08638558 0.114059076 -0.12662567
000110 06 82 ed 3d 92 83 84 bc 51 f8 a2 bd 85 03 84 bd
       0.11597066 -0.016176019 -0.07957519 -0.06445984
000120 48 01 4d bd 4a cd 1e bd c8 cf c3 3d b3 39 30 3e
       -0.05005005 -0.038769998 0.095611155 0.1720951
000130 2d e0 28 3e 20 b3 cf 3c fb a3 57 bd 19 15 5d be
       0.16491766 0.025353968 -0.05264662 -0.2159008
000140 8b a6 2d 3b 73 e4 85 3c 37 91 ad 3d 4e b4 80 bd
       0.0026496972 0.016344285 0.08474963 -0.062843904
000150 dc 79 9f bc d4 71 e8 3c 68 6e da 3d 88 e9 60 bd
       -0.019467287 0.02837459 0.106655896 -0.054910213
000160 f0 aa 78 3e 96 65 96 3c 50 03 a6 bc ff c6 63 bd
       0.24283957 0.018358987 -0.020265251 -0.0556097
000170 b2 8e 82 3d 79 de aa 3d e0 9d fa bd 3c df e0 3d
       0.06374873 0.083432145 -0.122371435 0.109800786
000180 24 ba 8d bd 7a 58 8e 3d 26 53 ba bd b2 28 c5 3d
       -0.06920269 0.06950469 -0.090978906 0.09626903
000190 55 b7 09 3d 8c 22 9c bd 34 75 c7 bd e8 12 56 be
       0.033622105 -0.07623777 -0.097391516 -0.2090565
0001a0 37 e8 6e be 09 40 16 3e b2 b4 19 3e 2e 3c d2 bd
       -0.2333077 0.14672865 0.15010336 -0.102653846
0001b0 26 23 17 3e 05 7e a9 3d 19 32 ea bc 16 e9 f6 bc
       0.14759502 0.082759894 -0.028588342 -0.03014044
0001c0 86 3c 96 bd 80 63 05 bd a1 e6 4d bd 20 56 35 be
       -0.07335763 -0.032565594 -0.050268773 -0.17708635
0001d0 c8 ee 02 3e c7 1f eb bc d5 f1 d4 3d e5 af 54 be
       0.127864 -0.028701676 0.10397688 -0.20770223
0001e0 5d 99 34 be 30 fc 50 bd 3e 24 65 3d 1b 59 50 3b
       -0.17636628 -0.051021755 0.055942766 0.0031791392
0001f0 27 a7 41 be 54 76 e7 bd 04 29 1a 3e e0 56 f8 3d
       -0.1891142 -0.11301866 0.15054709 0.12125945

dest_lstm_obs.bias_hh_l0 f4 [128]
000000 c5 62 15 3d 32 01 af bd 19 92 65 bc ac ca af 3d
       0.036471147 -0.0854515 -0.014011883 0.085835785
000010 f0 16 1a be ad 74 ec 3d 52 83 15 bc 3c de 24 be
       -0.15047812 0.11545692 -0.0091255475 -0.161004
000020 ce 4e 12 be ba 44 90 3d 97 a4 a6 bd 25 e6 dc 3c
       -0.14287874 0.070443586 -0.08136862 0.02696521
000030 57 a4 11 3d 9a 10 9a bd fa d7 ad 3d 59 64 bb bd
       0.035557117 -0.07522698 0.0848846 -0.09149999
000040 38 e7 ae bd 54 ae c7 bd 0e d9 54 be f5 20 47 3d
       -0.08540195 -0.09750047 -0.20785925 0.048615415
000050 97 3c 2e bd 30 91 0a be 52 35 63 be 75 6d c9 3d
       -0.04253825 -0.13531947 -0.22188309 0.098353304
000060 8a 55 23 be c7 77 2e 3d 64 f6 8c 3d 94 38 96 bd
       -0.159506 0.042594697 0.06882933 -0.0733501
000070 ad f7 8d 3c e6 9c f4 3d 0d 43 dd 3d 87 2a 64 bc
       0.017330015 0.119439885 0.108038045 -0.013926155
000080 3e 39 6e be d4 5e 02 3e 11 64 4f bd 50 62 26 be
       -0.23264024 0.12731487 -0.05063254 -0.1624844
000090 4a fe 4d 3d 94 8c 55 be 0e 21 3b be 4b 04 d9 bc
       0.050291337 -0.20854408 -0.18274328 -0.026491305
0000a0 ac 6d 90 3d a4 d4 07 bd 20 eb aa 3d c5 76 05 be
       0.07052168 -0.033161774 0.08345628 -0.13033588
0000b0 52 bd 25 3e 54 a0 08 bd b8 9b 55 bd 68 c0 15 3d
       0.16185501 -0.033356026 -0.052150458 0.036560446
0000c0 51 a0 1b 3c 8d 7c 0c be 15 c9 2e be ae 8a d6 3d
       0.009498672 -0.13719387 -0.17068894 0.1047567
0000d0 2c 29 40 be 12 0f 2c be b3 ee 6b 3d d0 fd 9f bd
       -0.18765706 -0.16802624 0.05760069 -0.07812083
0000e0 a9 c5 89 3d 59 3d 67 bd ef ae ab bc 70 0d a5 3d
       0.06727154 -0.05645499 -0.020957438 0.080592036
0000f0 0c a5 b4 bd f3 0a a4 bd 54 de 73 bd 00 31 47 be
       -0.08820543 -0.08009901 -0.0595382 -0.19452286
000100 54 66 46 3d aa 15 42 3e 8b 95 ce bc 32 f8 0e be
       0.04843743 0.18953577 -0.025217792 -0.13961866
000110 ed 89 2b 3d 3d 3e 09 3e b0 bb 9c 3c b2 ee e9 bd
       0.041879583 0.13402648 0.019132465 -0.11422481
000120 6e ef 09 3d 09 a3 31 bd bc 8d 82 3d 75 39 31 bd
       0.033675604 -0.043368373 0.0637469 -0.043267686
000130 c8 fc bb 3d 7f d5 fe bd 5e 95 02 be ba 14 c0 bd
       0.091790736 -0.12443065 -0.12752292 -0.09378953
000140 89 d0 4c be a7 6d 23 3e 33 b3 44 be b6 4f a6 3b
       -0.20001425 0.15959798 -0.19208984 0.0050754203
000150 4e 57 a5 3d be 04 90 bc f0 f7 51 be fc ff f6 bd
       0.08073293 -0.017580386 -0.20504737 -0.12060544
000160 ca a8 74 bd d0 96 75 3e 84 ca dd bd 7c 96 6b 3d
       -0.059731282 0.23983312 -0.108296424 0.05751656
000170 70 16 31 be 3c 0a 25 be c8 69 35 be b9 61 a1 3d
       -0.17293715 -0.16117185 -0.17716134 0.07879967
000180 a1 66 9b bd 76 a2 3d bc da 2f 4c be 9b 30 cd 3d
       -0.07587934 -0.011574378 -0.19940129 0.100190364
000190 8e 4e d0 ba e4 f5 a3 3d 3f 24 df 3d 2c ca 1e 3c
       -0.0015892552 0.08005884 0.10895585 0.009691756
0001a0 82 62 76 3c 56 53 b6 3b 33 d7 d2 3c b2 e0 38 bb
       0.0150381345 0.0055641336 0.02573738 -0.00282101
0001b0 f3 34 23 be 45 bd 17 be 96 0f 5b 3d c1 cc a4 bd
       -0.15938167 -0.14818294 0.05348166 -0.08046866
0001c0 41 87 d9 bd 60 a9 8a bd 28 c3 c7 3b 95 88 02 be
       -0.10621501 -0.06770587 0.0060962625 -0.12747414
0001d0 10 ef ac 3d 3b 07 2a 3d b4 73 8e 3d ad e2 06 3d
       0.08444035 0.0415108 0.06955662 0.03293102
0001e0 5b 1b 11 bd 93 ff e6 bd bc b6 64 be aa 7a 10 be
       -0.03542648 -0.11279216 -0.22335333 -0.14109293
0001f0 d0 c5 4e be aa 7f e6 bd bf 45 04 be 1e 98 8e bd
       -0.20192647 -0.11254819 -0.12917231 -0.06962608
