src/results/centralized/do_tp_centralized_best.pt (torch, 156661 bytes, 26 tensors)

linear_enc.weight f4 [64, 2]
00000000: 3ca8 553f 48f6 2fbf e5c5 473f 2102 ca3e
00000010: 10a2 1dbf 7501 f4bc dde3 4abe e160 91bf
00000020: 4518 813e 50c5 793e 7750 1a3f cf9e 283f
00000030: 432f 1cbf bc01 48bf 6a74 0d3f a75e 34bd
00000040: d0c7 a7be f30d 8d3e 06be 543e 4dde 693f
00000050: 7c61 553f d502 83be 8071 fabe 16b3 30bf
00000060: 9e6e c0be 4757 92bf 5d4d 003e ed9e ecbe
00000070: 2d65 283e 968b 2dbe 2045 e0be acb6 26bf
00000080: f3ae ed3e cb73 43be 5782 12be 0aec 5c3d
00000090: 905a 7bbe e928 d8be f185 52bf c7e1 443e
000000a0: 397c 253f cbb1 33bf 5185 dcbe 6477 673f
000000b0: 30a3 903e b3ba 88bf e18f 843d d0d6 1b3f
000000c0: 8165 1c3f da98 b23e 73dc 8c3e 7fa6 fe3e
000000d0: 47b3 bbbe 5ec6 02be e95c 293f 78c7 e1be
000000e0: 95bc 2f3f 6a18 ad3e 494a 5fbf 5364 243e
000000f0: e580 ea3e 56c5 a8be 6115 1cbd 0b16 5d3f
00000100: f5c7 aebe b363 2dbe 4cf7 01bf de60 6bbe
00000110: 90da a9be 0ffd 703e 5467 cd3e c18b 9e3d
00000120: 3e91 9bbe 277b 843f df40 edbe b11e f1be
00000130: 5642 c8be f921 58bf 24e2 fc3e 48bc 353f
00000140: e7c5 7cbe a578 593f 57f5 f1be 7c85 bbbe
00000150: c60e 0a3e b3c3 013f 3f16 0a3f b24c e33d
00000160: 73cf 1cbf f47e 0fbf 69fc 90be 6389 4c3f
00000170: cc78 f43e 0398 cabe 9fb6 37bf 8d7c 093f
00000180: b9a0 e93e 781c 1c3f fdd1 cc3e e4d9 463f
00000190: ac7a 64be e584 d5be 5034 4cbf 66e7 2c3f
000001a0: 3cd4 443e 4ae8 673f 782c 373e 2c66 52bf
000001b0: 35d4 dabe 4b39 a3be 6933 583e f862 ba3e
000001c0: b9c8 563f 6e3b fabe 67be 43bf c802 20bf
000001d0: 5595 7bbe 4943 7c3f be9c 3dbf 7885 74be
000001e0: 87fa 2d3f 89ef 41bf 3811 293f d275 0c3f
000001f0: 86f7 38bf 318b 153f ff0f 46bf a424 27bf
0.8345983 -0.6873517 0.7803634 0.3945475 -0.6157541 -0.029785851 -0.19813485 -1.135769
0.2521383 0.24391675 0.6027903 0.6586732 -0.61009616 -0.78127646 0.5525576 -0.04403558
-0.32769632 0.27549705 0.20775613 0.9135483 0.83351874 -0.25588098 -0.4891472 -0.69023263
-0.37584394 -1.1432885 0.12529512 -0.46215 0.16444845 -0.16947779 -0.43802738 -0.65122485
0.46422538 -0.1908714 -0.14307533 0.053936042 -0.24546266 -0.42218712 -0.8223563 0.19226752
0.64642674 -0.70193166 -0.43070462 0.9041655 0.28249502 -1.0681976 0.06472755 0.6087465
0.6109238 0.3488224 0.2751194 0.497364 -0.36660215 -0.12770984 0.66157395 -0.44097495
0.6864713 0.3380769 -0.87222725 0.16053896 0.45801464 -0.32963055 -0.038106326 0.8636176
-0.3413693 -0.16932563 -0.5076797 -0.2298617 -0.33174562 0.23534034 0.40117896 0.077415
-0.30384248 1.0350083 -0.46338555 -0.47093728 -0.3911311 -0.8442684 0.49391282 0.7099042
-0.24684869 0.84949714 -0.47257492 -0.36625278 0.13482198 0.5068924 0.53940195 0.11098613
-0.6125404 -0.5605309 -0.28317574 0.79897135 0.4774841 -0.395691 -0.7176303 0.53705674
0.45630434 0.6098094 0.40003958 0.77676225 -0.2231242 -0.41702953 -0.7976732 0.67540586
0.19221586 0.9058882 0.17888057 -0.8218715 -0.42740026 -0.3187965 0.21113361 0.36403632
0.8390003 -0.48873466 -0.76462406 -0.62504244 -0.24568684 0.9854017 -0.74067295 -0.2387904
0.679604 -0.75756127 0.660419 0.5486728 -0.7225269 0.58415514 -0.7736816 -0.65290284

linear_enc.bias f4 [64]
00000000: e1ca 57be f85e 143f e410 073e 4e34 bd3d
00000010: 1860 51bd 7ea8 2c3f 562c 03bf 0e82 833d
00000020: ceec f73e f679 9e3d bafe 0c3f 8723 fd3e
00000030: 04ce a9be 2267 1d3f 67d2 5e3e 913d 13bf
00000040: f2b0 ffbe 5785 c5be eeac 1ebf 803c bcbe
00000050: 99de c7be 5369 debb 5070 793d 2d83 1abe
00000060: 2a26 c5be e110 5c3e 8b1c e4be c6bb c4be
00000070: 949e 213f 39b4 fcbd 65ea cdbe 0fff 04bf
00000080: da06 15bf dbbb b93c 153e 09bf 0039 df3e
00000090: 03b3 4b3d 2a10 04be c1f7 183f a2c0 a9bd
000000a0: 5780 f43e 0347 8a3d 08b8 923e c0d5 45be
000000b0: 7197 d9be 2163 d33e a43b a53e 3a15 40be
000000c0: 82a6 9fbe c052 e8be 5aad 063f 5144 193f
000000d0: a2fd 953e 9473 27bf e47d 72be f8ed 1c3e
000000e0: 29e3 1f3f fbb9 3e3e 9e07 483c 5e8f fb3e
000000f0: a8ba 053f 6669 773e 55d8 27be 1442 0ebf
-0.21073486 0.5795741 0.13190037 0.09238492 -0.051117033 0.674446 -0.51239526 0.0642129
0.48422855 0.07738106 0.5507618 0.49441168 -0.3316499 0.61485493 0.2175995 -0.5751582
-0.49939686 -0.38578293 -0.6198262 -0.36764908 -0.39037016 -0.006787458 0.060898125 -0.15089102
-0.3850568 0.21490814 -0.44553027 -0.3842451 0.63132596 -0.12339062 -0.4021789 -0.5195169
-0.5821358 0.022672584 -0.53610355 0.43598175 0.049731266 -0.12896791 0.5975304 -0.08288695
0.47754166 0.06751826 0.2865603 -0.1931982 -0.42498353 0.41286567 0.32272065 -0.18758097
-0.31181723 -0.45375633 0.52608263 0.5986987 0.2929507 -0.65410733 -0.23680836 0.15325153
0.62455994 0.18625633 0.012208847 0.49132818 0.5223794 0.241613 -0.16391118 -0.5556958

encoder_lstm.weight_ih_l0 f4 [128, 64]
00000000: a348 7abe 39c8 8dbd 327e 523d 0e3e f6ba
00000010: edc7 b13d c5c8 f4bd 950a 81bd d79f 62bd
00000020: e9d3 853d af0f 093e 7781 30bd 0ff8 503e
00000030: 592a 2bbe d34e 3c3e 1a82 033e bb5f 863c
00000040: 8b05 7b3d 9333 18be 58c1 9a3c a4ba 013e
00000050: 4c1a b93c d136 fd3c 0ddb 3fbd 54bb dd3d
00000060: 1934 2fbe 0df6 f3bd 8e3b 52be 2143 f13b
00000070: f4e2 3e3d 44a8 353e 25f9 64be bfdd 1ebe
00000080: 85e6 44be a8e8 bc3d fb35 04be 45b3 53bc
00000090: fcbf 653e 7bc4 d03d 0b21 52bd cf4d 553d
000000a0: 6f97 0f3e f677 1cbd 1dcd ab3d cfcc 23be
000000b0: 25c9 b03d 1642 b43d a46e b93c db55 d33d
000000c0: 6b73 33bd 42ac 5f3d ee99 febb 35aa c43c
000000d0: 4c17 9bbd 1f2d ccbd 78bc 09bd 3714 003d
000000e0: e3b7 cebd 9659 573e e57a be3d 2204 9fbd
000000f0: 310f 143e 1771 173d 19a8 efbd c959 e2bb
00000100: 3e7d b8bc 5774 223d b716 9ebd 0213 b03d
00000110: 314f 08be bfd2 82bd 413c 1fbe 2a78 4dbd
00000120: 29b6 213e 7715 103d 0812 8c3e 5873 b3bb
00000130: 8d85 6f3d 0de8 723e f1eb 093e a92a ba3d
00000140: f6be ff3d 3479 80bd 9b35 56bc c9c5 0ebd
00000150: 20ea 15be 9dc9 3ebd 4768 e83d 6171 60be
00000160: 13a6 04be be9e ee3c 9f5e bc3c 04f6 bbbb
00000170: 26c7 c93d 22e5 53be 7778 ef3d a2b0 23bc
00000180: 8b57 c9bc 432e b23b 0527 41bd d748 a5bc
00000190: fde9 e2bd 05fe 10be d8b6 6a3e 6cde 843d
000001a0: 6f6f ae3d 0b7b 31be 4322 9cbc 7fe6 853c
000001b0: 6d19 13be 8b34 05be 7af6 1c3e 9c37 94be
000001c0: 817a 12be 8a28 1dbe 2536 353d e906 0f3d
000001d0: 5f97 4c3e 6066 f0bd d509 c5bd 65c9 d43d
000001e0: 06d3 b93d e469 063e d10b 83be 5179 443e
000001f0: 05d1 dd3d 072a 183e cb52 64be a68e 56bd
00000200: 3a44 20be c990 59bd 73bc 6f3e 0be1 303f
00000210: 4f5c 94be c3d4 b8bd b42b 253e b3e3 a5bc
00000220: 8a6a 143d 64db d4be c168 0d3e 0366 883e
00000230: a04b 403d d092 813e 5fe8 323e b63a b7bd
00000240: 0939 33be 3ad5 70be 1d73 47be 95a7 05be
00000250: 300c 1abe 47fa 92be 9ec6 f43e ffd1 d2be
00000260: 5d2a 1abe 011b abbc 8633 09be 77ff e7bd
00000270: 008e 5f3d 7b9a a43c 4f81 c43c f39b aebe
00000280: bb3f 5bbe c046 f83d fa6e 973b 1b98 a7bd
00000290: 356b b3be 943f 8a3e b07f 733e 99cf 8bbe
000002a0: d782 0a3a 4500 013e 1b1a 163e 8eaf 56be
000002b0: fce4 883c dddf fa3d 0eef c63e 91e0 f1bd
000002c0: 9c55 d4be 2e4a e5be 762d a63d 8418 683e
000002d0: 83a1 73bd c4a0 89bd 0b49 52bd 3499 f7bd
000002e0: 5508 953d 3503 b73e 05e2 b4be 31a8 dd3d
000002f0: c794 8a3e bd5d 99bd ff91 87be c4b8 383e
00000300: 2fa2 7c3e f8c2 f43d 2944 90be 41b9 823e
00000310: 0368 c93d c373 bdbd 157d d03c 6227 3c3d
00000320: cba1 033e 67c0 18be c3f4 c3bc 0186 41bc
00000330: d14a ec3d cd1b c23d 077b 2d3d c69e 3abe
00000340: 7162 153e ca97 63be da1d b33d 8547 30be
00000350: 4899 dbbc b597 6bbe 188e 603e 0d24 20be
00000360: 3606 5d3d f05b 14bd 868e cabc 73c0 533e
00000370: cf5d 5b3e 6273 64be c9ef 1ebd 6227 8abd
00000380: 2914 a23d 3ebb c6be 6649 76be 85e9 95bd
00000390: 4c09 02bf abaf f2bd 5f87 203e bc9f 6ebd
000003a0: f5dc 0bbe b196 5dbe 728d ef3d 86f2 573b
000003b0: e793 7fbe 7b58 b3bd 77a4 05bd 1e29 8fbd
000003c0: a27d 173d b8a6 47be 61e0 6f3e fa27 51bd
000003d0: 5b53 9cbc e8f6 35be 40e7 e4bc 414b 8e3d
000003e0: 5161 853e 8eae 52be bdff 9dbe c41e 64bd
000003f0: 784f 6d3e bf8a 013d 6c14 70be 5125 24be
-0.24441771 -0.06922955 0.05138988 -0.0018786804 0.08680711 -0.11952356 -0.063008465 -0.055328216
0.06534559 0.13384889 -0.043092217 0.20407127 -0.16715373 0.18389444 0.12842599 0.01640307
0.061284583 -0.14863424 0.018891022 0.12668854 0.022595547 0.030909928 -0.046839762 0.10826746
-0.17109717 -0.11912165 -0.20530531 0.0073627387 0.046603158 0.1773997 -0.22360666 -0.15514277
-0.19228561 0.09224063 -0.12911217 -0.012921159 0.22436517 0.10193726 -0.051301043 0.052076157
0.14022611 -0.03820034 0.08388732 -0.15996097 0.08632115 0.088016674 0.022635765 0.1031911
-0.043811243 0.054607637 -0.0077698147 0.024006942 -0.07572803 -0.09969544 -0.033627003 0.03126928
-0.10093667 0.21030268 0.09300784 -0.0776446 0.1445892 0.036973085 -0.11701984 -0.006907676
-0.022520658 0.03966173 -0.07719176 0.085973755 -0.13311459 -0.06387853 -0.15550329 -0.050163426
0.15792145 0.03517672 0.27357507 -0.0054763965 0.058476973 0.23721333 0.13468911 0.09090168
0.12487595 -0.06273118 -0.013074304 -0.03485659 -0.14640093 -0.046578992 0.11348014 -0.2191825
-0.12953977 0.029128429 0.022994338 -0.0057361145 0.09852438 -0.20692876 0.11692899 -0.009990843
-0.024577877 0.0054376437 -0.047156353 -0.020176334 -0.11079786 -0.14159401 0.22921312 0.06487736
0.08517348 -0.17332093 -0.019059306 0.01634526 -0.14365168 -0.13008325 0.15328398 -0.28948677
-0.14304544 -0.15347496 0.04424109 0.0349187 0.19979618 -0.117382765 -0.09621016 0.103899755
0.09073453 0.13126332 -0.25594953 0.19186904 0.10830883 0.14859782 -0.22297208 -0.052382134
-0.15651026 -0.053116594 0.23411731 0.6909339 -0.28976676 -0.09024956 0.16129953 -0.020250177
0.036234416 -0.41573632 0.13809492 0.2664033 0.04694712 0.25307322 0.17471455 -0.08946745
-0.17502226 -0.2351884 -0.19477506 -0.13052209 -0.15043712 -0.2870657 0.47807783 -0.4117584
-0.15055223 -0.0208869 -0.13398561 -0.11328023 0.05457878 0.020093193 0.02398744 -0.34103355
-0.2141103 0.121228695 0.0046213837 -0.08183309 -0.3504273 0.2700163 0.23779178 -0.27306822
0.0005283779 0.12597759 0.14658396 -0.20965406 0.01671075 0.1224973 0.3885426 -0.11810411
-0.41471565 -0.44783157 0.0811414 0.22665602 -0.0594802 -0.06720117 -0.05133919 -0.12089768
0.0727698 0.35744634 -0.3532869 0.108230956 0.27066633 -0.07488582 -0.26478574 0.18039232
0.24671243 0.1195125 -0.28177002 0.25531963 0.09834292 -0.092505954 0.025450269 0.045935996
0.12854688 -0.14917146 -0.023920422 -0.011811734 0.115377076 0.09477959 0.042353656 -0.1822463
0.14588334 -0.22225872 0.08745928 -0.17214783 -0.026806489 -0.2300709 0.21929204 -0.15638752
0.053961 -0.03622049 -0.024726164 0.20678882 0.21422504 -0.2230964 -0.038802896 -0.06745793
0.079140015 -0.3881473 -0.24051437 -0.07319931 -0.50795436 -0.11849912 0.1567664 -0.058257803
-0.13658507 -0.21639515 0.116969004 0.0032950952 -0.24958764 -0.08757111 -0.03262755 -0.06990264
0.036985047 -0.19497192 0.23425438 -0.051063515 -0.019082716 -0.17769969 -0.0279423 0.06947947
0.2605081 -0.205744 -0.30859175 -0.055693403 0.23174846 0.03162646 -0.2344529 -0.1602986

encoder_lstm.weight_hh_l0 f4 [128, 32]
00000000: f9c4 9ebd e270 f43d 5132 be3d 50a4 993d
00000010: 173f 1bbe 6039 703d 2066 103e b3be 583e
00000020: 1b97 bb3d 860d e03c 885e 573e 2e67 283e
00000030: 5bc1 17be 1821 dd3d 4666 13be 5c42 033e
00000040: 1c4d 0e3e e0d1 0abd 31de 2fbe b1db 6e3e
00000050: dff8 173d f5e0 28be 30c0 c03d 7831 9abb
00000060: 3d62 2fbe bcba 4cbd d7eb 383e 0726 403d
00000070: b3d1 d3bd cd62 6a3d 3e16 bdbd 3fe5 6abe
00000080: d294 1d3e 5a10 3bbc 3157 99be 6eab c4bd
00000090: da58 0f3e 373e d93d f5e8 903d 87b3 363f
000000a0: 70b0 c23c 0fe4 053f 50e4 29be 7097 323e
000000b0: 61e9 28bc 9d39 f53d fa1e 83bc 0094 8a3e
000000c0: 8b0e c2bd eefe 01be a530 5abe d080 82bd
000000d0: 8bfa f2bc 7ce6 94bd ced4 b53d 878d 553e
000000e0: 38bf 6dbc 690c 7fbe 4898 3d3e 3839 cbbd
000000f0: c2fd a53c c03d d5bc 162d d9bb 7ab9 503d
00000100: 30fe e83d 483c 9ebe 30da 92be 00b3 f23d
00000110: bb9d 69be db59 1a3f c316 9c3e 6efd 26be
00000120: ed81 6f3e a972 d7be 8e20 1dbe bec3 00bd
00000130: 16d8 dfbe f41e 9e3e 86d0 b03d 253e 27bd
00000140: 34f6 2ebe 6fa0 25be dc45 a2be 5c25 fa3e
00000150: ddeb ddbc e1fc 34be 8169 17be 2f92 34be
00000160: ba99 94bd 93e9 a03c aef7 273c 231f fe3e
00000170: 8753 fe3c ebb6 713f 22c4 2bbd dca0 f9bd
00000180: 1461 9a3c 9ed0 90be 27ef 8cbc 9401 17be
00000190: ddcc 1b3e 2f02 a1bd 0bc8 223e afcf 2fbd
000001a0: 1397 78be bea0 ac3d 91ef d5bd db49 013e
000001b0: 352b a23c 1ba3 40bd d41c 363e ce58 863c
000001c0: 7b48 ab3e 788a 9ebd 0d4e 55be b3c1 913e
000001d0: 0da1 42be 0066 d03d 2fad 7fbe dc36 c1bd
000001e0: 288b 0b3e e766 dabe d37e 933e eb1b 09bd
000001f0: 5377 1abe f50b 21be 5caf 6b3e 395a 69be
00000200: 8080 43bc 720d ca3b fc2c fcbe 932c b03d
00000210: faa4 2d3e a756 b93d cf87 aa3e 6f4b a4bc
00000220: c732 8ebd fe76 4bbc 7664 52bd a165 fdbd
00000230: 1297 d2be 7d0f 1e3d 69a2 d53d 3109 b83d
00000240: a9bd 2c3e 7c2f e6bc 9647 03be 8537 a53e
00000250: 799a 0abe e2be f2bd 5e46 6abe 743f abbd
00000260: 1a9c f4bd 960c 0dbe 7292 0e3e 2d7a c5bd
00000270: 2e9c 193c 07d2 173e dbff 803e fd03 38be
00000280: 40f8 5abd 79a6 5dbe 6abb dfbd 7e33 15be
00000290: d08c c2bc c332 d1bd 51c6 8bbe 7de2 bbbe
000002a0: 3d4a 4dbe 0241 073c 7b3c 63be 547b b1bc
000002b0: 4caf 1a3b 5fe5 493c 34d2 513e 129d 1f3d
000002c0: cbd9 fe3d 167f 723e 4ede 7fbc dd15 7cbd
000002d0: c95c d3bd a752 743d 8c98 44be 4516 b33e
000002e0: 530a 7abd 6759 65bd 4dd3 ee3d 189c 773c
000002f0: 56f8 ff3b 0c6d 99be 032b babc 3494 2dbf
00000300: f08f 523d 0545 22be ea25 a53d b90d adbe
00000310: b545 813d b9f5 ecbd 29c3 55bd ef98 e13b
00000320: a316 04bf d400 c2be f274 d2bd 3af3 07be
00000330: d328 38be d06c 913d 9a5f 84be b71b 2a3d
00000340: 5a0e 923c 9471 813d e103 3d3e ee47 be3e
00000350: 25aa db3c 164f 9c3d 396d dcbd df2e 2fbe
00000360: c94e e13d 5b1d 55be 04d9 543d cd31 723e
00000370: e7ef c73d 5fb1 643d cea3 8b3d b77d c53e
00000380: 0f2e 003e 54bc 7ebe c04e edbc 227e 353e
00000390: b09e f83d 7352 8a3e b15d b43e 8072 9e3d
000003a0: 6eca 3b3e 2d3b 253d 9f5a 9fbd 32a4 40bd
000003b0: a9ee 14be a077 4a3d 316f e4bb c7a2 423e
000003c0: 1764 a33d 9584 65bd 1191 30bd 9c61 1c3e
000003d0: e094 a83d ebce e1bd 74bd 113d ba03 943e
000003e0: 7aa5 103e 35bd 2f3d 86dd 3dbe 06e7 d43d
000003f0: cda4 fa3c 3ea7 253e f1a0 363e 5fb6 13be
-0.07752413 0.11935593 0.09286941 0.07502043 -0.15160786 0.058648467 0.14101458 0.21166496
0.091596805 0.027350198 0.21032155 0.1644561 -0.14819853 0.10797328 -0.14394483 0.12818283
0.13896602 -0.03389156 -0.17174603 0.23325993 0.037102576 -0.16492064 0.09411657 -0.004705604
-0.17127319 -0.04998277 0.18058716 0.046911266 -0.10342731 0.05722313 -0.09232758 -0.22939013
0.15388802 -0.011417473 -0.29949334 -0.0960301 0.13998738 0.1060757 0.07075683 0.71367687
0.023765773 0.52301115 -0.16591 0.17440581 -0.010309548 0.119738795 -0.016005982 0.2706604
-0.0947543 -0.12694904 -0.21307619 -0.06372225 -0.029660484 -0.07270524 0.0887848 0.2085477
-0.014510922 -0.24907078 0.18515122 -0.09923023 0.020262603 -0.026030421 -0.006627689 0.050958134
0.113766074 -0.30905366 -0.2868209 0.11850548 -0.22814076 0.6029336 0.30486116 -0.16307613
0.23389407 -0.42079666 -0.1534445 -0.031436674 -0.43719548 0.3088299 0.08633523 -0.04083075
-0.17086107 -0.16174482 -0.31693923 0.48856628 -0.027090007 -0.1767459 -0.1478634 -0.1763389
-0.072558835 0.019642627 0.0102519225 0.4963313 0.031045688 0.94419736 -0.041935094 -0.121888846
0.018845119 -0.28284162 -0.01720388 -0.14746696 0.15214868 -0.078617446 0.15896623 -0.042922672
-0.2427638 0.08429097 -0.10446084 0.1262583 0.019795993 -0.04703055 0.17784435 0.016399767
0.33453736 -0.077412546 -0.20830555 0.28468093 -0.19006748 0.10175705 -0.24968408 -0.09434292
0.13627303 -0.42656633 0.28807697 -0.03347389 -0.15084581 -0.15727217 0.23016113 -0.22788323
-0.011932492 0.0061661536 -0.4925307 0.08602252 0.16957465 0.09049731 0.3330674 -0.0200555
-0.06943279 -0.012418507 -0.05136534 -0.123729 -0.41130883 0.03858899 0.10431368 0.08986128
0.16869225 -0.028098814 -0.12820277 0.3226892 -0.13535489 -0.11852814 -0.22878405 -0.08361712
-0.119438365 -0.13774332 0.13923052 -0.09642444 0.009375615 0.14826213 0.25195202 -0.17970271
-0.053459406 -0.21645536 -0.10924418 -0.14570424 -0.023748785 -0.1021476 -0.2729974 -0.36696234
-0.20047851 0.008255245 -0.2219104 -0.021665253 0.002360302 0.012322753 0.20490342 0.038968153
0.124438845 0.23681292 -0.015616966 -0.061544288 -0.10320432 0.059649136 -0.19198817 0.34977928
-0.061045002 -0.055993464 0.11661396 0.015112899 0.0078115864 -0.2996601 -0.022725588 -0.67804265
0.0514068 -0.15846641 0.08063872 -0.33799532 0.06312124 -0.115703054 -0.052188072 0.006884686
-0.5159704 -0.37891257 -0.10276212 -0.13276377 -0.17984323 0.071008325 -0.25854188 0.041530337
0.017829109 0.063204914 0.18458511 0.37164253 0.02681453 0.07632272 -0.1076302 -0.17107724
0.11001355 -0.2081198 0.051964775 0.2365181 0.097625546 0.055833217 0.06818353 0.38572475
0.1251757 -0.24876529 -0.028968215 0.17723897 0.12139642 0.2701603 0.3522773 0.07736683
0.1833894 0.040339638 -0.077809565 -0.04703159 -0.14544167 0.04943049 -0.006971263 0.19007407
0.07978075 -0.056034643 -0.043107096 0.1527161 0.08231521 -0.110257946 0.035581067 0.28909093
0.14125624 0.04290505 -0.18541536 0.10395627 0.030596161 0.16177079 0.17834832 -0.14425038

encoder_lstm.bias_ih_l0 f4 [128]
00000000: 0a7e 82bd e21d 843d e46b 393c a93b e2bb
00000010: 4214 4f3e cbd3 343e f596 31be 9012 443e
00000020: 6c96 923e f590 623e 4945 5e3d 8026 2c3e
00000030: c8a5 0abc 61c4 a13d 859f 353e 76d9 95bd
00000040: a08e 813d 3cb3 df3d 46c0 1d3e d62e 2bbe
00000050: d291 a63b fd06 73bc f3f7 cc3d 0b73 3c3d
00000060: 3ddd 253e 35ae 18bd 6011 c53d e0a9 7ebd
00000070: 2ab1 5e3d 1bdd b83d b9a9 563e 4a1b 623e
00000080: 1b8f 58bc 661e c7bd ef15 3bbd 7325 f7bd
00000090: 6b0b 633e 4eeb 483e 7200 11be eda5 e93d
000000a0: d403 f4bd 5582 68be 300a 08bd 6bb7 033d
000000b0: 3cf8 ff3d 62e3 133d 7fca 7ebd 8b3b a6bd
000000c0: dbcf ecbc 3e86 543a 9835 d9bd 8454 3d3e
000000d0: 3a94 943d aff5 083c 726b a23d ef11 d83c
000000e0: cb6c 5bbc 2e2e 763d 5655 543e 5a7c a53c
000000f0: 0982 0b3e bcb5 d53d a8a5 373e d029 f8bc
00000100: ffc5 7abd 39c3 a5bd a632 a2bd afda bb3d
00000110: 2ef0 0c3e 3377 7bbd f0ea c2bc 628d 67bd
00000120: b7ca 32bd 36d1 7fbd 6097 083d 01e5 f13d
00000130: c038 2ebd ad5e f23d bd32 223c 2c26 f33d
00000140: f8f6 48bd 45ac ccbd 2226 01bd 8933 a6bc
00000150: 387b a33d ae48 94bd 6d88 d53b 9a40 1ebe
00000160: 312e 99bc 03a5 873d bc16 aabc d245 773d
00000170: f85c b23b ee0c 03be 9790 f63a c473 3dbd
00000180: 1c90 423c 220e 793d 1be8 993e ad71 13be
00000190: e1eb 763e ecf8 df3d 20ef a93c 9383 0c3d
000001a0: d6b8 2f3e d3eb b73e 5415 133d 63b1 283e
000001b0: 14d2 a93c 2ce3 2abc d58e 353e 84b2 06be
000001c0: 7e10 223d 267c 323e 11d0 283e b931 b6bc
000001d0: 80b9 ddbd 724c d6bd 5286 ef37 970a 243e
000001e0: 91f4 2d3e 8554 233e 5398 603d 918c 17be
000001f0: 54f4 bf3d 4d3e ce3c 59e9 06be ee2e 2d3e
-0.06371696 0.06451012 0.011317227 -0.0069040847 0.20222571 0.17658918 -0.17342742 0.19147706
0.28630388 0.22125609 0.054265294 0.16811562 -0.008462377 0.078987844 0.17736633 -0.07316868
0.06326032 0.10922858 0.15405378 -0.16717085 0.005083301 -0.014833209 0.1000823 0.04600815
0.16197677 -0.03727551 0.09622455 -0.062173724 0.054368176 0.090265475 0.20963182 0.22080722
-0.013217713 -0.09722595 -0.045675214 -0.1206769 0.22172324 0.19621012 -0.14160326 0.11408601
-0.11914793 -0.22705968 -0.03321284 0.032157343 0.12498519 0.03610552 -0.062204834 -0.08116826
-0.028907707 0.0008107162 -0.10605925 0.18489271 0.072548345 0.008359357 0.0793065 0.026375739
-0.0133926375 0.060102634 0.20735678 0.020200897 0.13623823 0.10435054 0.17934287 -0.030293375
-0.06122398 -0.080938764 -0.07919817 0.0917257 0.13763496 -0.061392974 -0.023793668 -0.056531318
-0.043650355 -0.06245538 0.033347487 0.11811257 -0.04253459 0.11834464 0.009899792 0.11872515
-0.049063653 -0.09993795 -0.031530507 -0.020288246 0.079824865 -0.07240425 0.0065165074 -0.15454331
-0.018698784 0.0662327 -0.020762794 0.06036932 0.0054432116 -0.12797901 0.0018811402 -0.04625298
0.011875179 0.060804494 0.30059895 -0.14398833 0.24113418 0.1093615 0.020743906 0.034305166
0.17160353 0.35922107 0.035909012 0.16473918 0.020730056 -0.010430139 0.17730267 -0.13154036
0.03956651 0.17430171 0.16485621 -0.022240506 -0.10826397 -0.104637995 2.8553568e-05 0.16019665
0.16987826 0.1595021 0.054832768 -0.14799716 0.09372774 0.025176192 -0.13174953 0.16912434

encoder_lstm.bias_hh_l0 f4 [128]
00000000: f773 9b3d 9372 5dbd ee1b 773a 0746 793d
00000010: cae3 693e 3db1 f73d 6bdc 2bbe 8cc9 893e
00000020: 06b6 173e 4d62 edbd 2338 2fbe d563 123e
00000030: 483e 973d 0efc 7f3e 4dc6 5f3e 3da3 783d
00000040: 3151 a23d 0958 31bc bd1f 953d 6830 f23d
00000050: 80f3 cb3d c691 383e 35b1 7ebd c770 0b3e
00000060: 317a 93bd 1091 1abe 5c06 6e3e 9256 2c3e
00000070: 7aca 663d a335 493c 123f f33d 4e25 973e
00000080: 3906 f03d 6dc4 50be ddcb bb3d b229 efbd
00000090: a1ce 1c3e 0870 9dbd e56e 503d 0fd2 5fbe
000000a0: 27d0 91bd eece bcbd 794d 79bd b8af a13d
000000b0: 1578 d83c 145c 0c3d adc7 83bd d711 163e
000000c0: 4926 a1bd 4544 4e3e 5dcb 7fbd 1b3c bb3d
000000d0: 3ac0 29be b087 cebc 0241 283e 0f89 2c3d
000000e0: 1447 b83d 8c7f c63d a1ac 073d f97e 46bd
000000f0: 4fe2 0c3c dfd0 123e d2b6 b33d 1017 5cbe
00000100: e6db a13d 2f02 c8bd 859d 06bd eb8a c5bd
00000110: 488d b1bd 4029 f63d f108 363e 5067 b6bd
00000120: e6f0 15bd bdb1 f0bc be1b 1bbe 01b0 5d3d
00000130: dac7 cdbc 8483 e43d 810b f7bd c890 1dbd
00000140: c86e debc 8d2a d6bd b237 cdbd 3ff3 bcbd
00000150: 0cb1 0abe c9b2 053e 6334 ffbc 82ca e63d
00000160: 50a3 03be 8745 55bd 35f5 e53d 51cc 133d
00000170: 559c 243d 4813 233e 753a d13d cb18 c0bd
00000180: 3f86 393e 6cd1 743e e318 573e ea5a 043e
00000190: e61f 97bd 7578 273e 1536 f2bc 7342 653e
000001a0: 9e47 afbc b984 993e 1289 c7bd fe0e 053e
000001b0: 1efb 2b3e 7438 68bd 7148 733e 2b0e 5fbc
000001c0: 76e6 733d 549b 303d 5a8a 98bd e9c0 d53c
000001d0: ebd2 413e cd20 503e 6711 723e aea8 3e3e
000001e0: 3b8c cc3c 3cfc 593e c1e2 583e 5001 813d
000001f0: 7876 a1bd 5c89 bdbd 1c7a 16be fc08 253e
0.07590478 -0.054064345 0.0009426464 0.0608578 0.22840801 0.120943524 -0.16783302 0.2691158
0.1481553 -0.11591015 -0.17111258 0.14295895 0.07384926 0.24998495 0.2185299 0.06070255
0.07925642 -0.010824212 0.07281444 0.11825639 0.09958553 0.18024358 -0.062180717 0.1361724
-0.072010405 -0.150944 0.23244613 0.16829899 0.05634544 0.012280854 0.11877264 0.2952065
0.11719937 -0.2038743 0.09169743 -0.116778746 0.15313198 -0.07687384 0.050887007 -0.21857475
-0.0711978 -0.09219156 -0.0608649 0.07894844 0.026424447 0.0342675 -0.064345695 0.14655243
-0.078686304 0.2014323 -0.0624498 0.091423236 -0.16577235 -0.025211185 0.16431049 0.042122897
0.08997932 0.096922964 0.033123616 -0.048460934 0.008598878 0.1433749 0.087751046 -0.21493173
0.079032704 -0.097660415 -0.032865066 -0.09645637 -0.086695254 0.120195866 0.17776848 -0.08906424
-0.03660669 -0.029381627 -0.15147302 0.05412293 -0.02511971 0.11157897 -0.12062741 -0.038468152
-0.027152434 -0.10457335 -0.10020389 -0.09226083 -0.135441 0.13056482 -0.03115291 0.11269094
-0.12855268 -0.05206826 0.1122841 0.036083523 0.040188152 0.15925324 0.10216228 -0.09379729
0.18117617 0.23908013 0.21005587 0.12925306 -0.07379131 0.16354544 -0.029566804 0.2238863
-0.021396454 0.29984072 -0.09742941 0.12994 0.16795012 -0.056694463 0.23758103 -0.013614218
0.059545957 0.043116882 -0.074482635 0.026092963 0.18928115 0.20325013 0.23639451 0.18619034
0.02496921 0.21287626 0.2118025 0.062990785 -0.07883924 -0.09254715 -0.14695019 0.16116709

dest_lstm_obs.weight_ih_l0 f4 [128, 2]
00000000: 37ff 81bd 670e 0f3e b28c a93d 6d95 a13d
00000010: 8443 15be 3fd8 523b 40f0 203d 9d91 c73c
00000020: ff27 983d 6fe1 71bc 0a07 1abd 2bee 0dbe
00000030: 58b8 163d f69f 853d 7e88 e63b a264 16be
00000040: 5795 9cbd f536 d33d 03cf 27bd 3785 93bb
00000050: 82aa 033e fac1 5dbd 8556 903d 4f67 d3bd
00000060: bcf3 c0bd fa47 4c3d cf8f e5bc ec56 0bbd
00000070: b6a3 42bd 8b0f d03d 0da5 07bd 8d9b c6bd
00000080: bd04 d5bd 4b11 b43c ad8a c8bc fc7e dbbd
00000090: eeeb e0bc b8b2 943d 60eb f13b 5b51 f6bb
000000a0: 03c5 50bb 1129 bcbd 23a3 1bbe fd89 03be
000000b0: 6c59 e2bd ed3c 2fbd e2e7 43bc d774 4cbd
000000c0: e331 963b 4f02 be3d fb39 8c3c a41f cfbc
000000d0: 35b3 a0bd 3e54 48bd a760 e73d 8885 e63b
000000e0: 0b37 163d 9b47 1fbe c234 13be e346 043d
000000f0: 9fb8 f63d 2f99 073e edb6 bc3d e54b 2dbd
00000100: 3121 a53d 3402 09be 330c 7c3d 4967 8dbd
00000110: 99f3 cdbd af19 83bb 60d1 84bd 6226 853d
00000120: f308 b73d 17dc 1abe c487 643d 33a9 693d
00000130: 55eb f7bd 54fe 153d 0458 b13c 64e3 343c
00000140: 7572 debd 7a39 9bbd 87be bbbb 1486 b2bd
00000150: 0142 bfbd fca6 133d a2f6 cbbd b461 34bd
00000160: 8d66 8d3d 247d cebd 6987 543b 16fb 483d
00000170: ba41 edbc 9f8f 08bd 07e0 0abd b691 1a3d
00000180: b7b4 2f3d 7007 1dbe 5bb2 d9bd 4824 06be
00000190: ea4f 043d 5791 a5bb d173 4fbc 5adf 16be
000001a0: cd72 843d e1cf b7bd f7ff 9f3c b39b 143c
000001b0: 8b0e 243d 1378 53bd 27e2 613c fc8c debd
000001c0: 025a 90bd 5303 f3bc f7dc 50bd fb31 6d3d
000001d0: 8145 163d de7c b1bd 4cd8 11be bdb6 243e
000001e0: 3080 89bd 8a34 9cbd 5e41 e0bd e466 cebd
000001f0: d0d2 51bb 7a19 d4bd 7759 f9bc 81c0 293d
00000200: f48a ebbd c916 053d dcf8 ff3d 21e2 b5bc
00000210: 7daf 053d f107 a23c 0f17 06be b9d8 af3d
00000220: 7b74 edbd 0324 fe3c bf89 fcbd 67ea 323c
00000230: f759 11bc aa4f 5a3d 12bc 013c 74ed a1bd
00000240: 6756 183d 3c15 eebd 6fd0 cb3b 0222 01be
00000250: 1b72 85bc 1c9f 023e 82cb c93c b1a9 923d
00000260: 0323 bfbd 9be1 e13d 87e3 9d3d 33b3 423d
00000270: ab85 ccbd d005 353c 7c3e 9d3d b63b b8bd
00000280: 60ae 153e 5b17 b5bd e756 d5bd c4ac 933d
00000290: 735c 283c 5b03 c13d f70c e83d cb92 2a3c
000002a0: 4c25 f6bd b7de 6dbd ebf9 f0bd 114d 4c3d
000002b0: d709 a8bb 0315 b13d 641d cbbd c044 a43d
000002c0: f679 ebbd 9ae8 f93c b43d b8bd e091 74bd
000002d0: 9d38 503d 3905 b9bd 98f0 df3c 7823 e6bd
000002e0: 69e2 053e 5073 0abe 8c3e e6bd e96a b83d
000002f0: ab48 0c3d d5ca 89bd 36e0 423d 12b0 903d
00000300: 011a e43b 213a 4c3d 02f6 2c3d 32af c43c
00000310: 6cf0 89bd a10c 05be 6dd8 aebd 801b 1dbe
00000320: e679 713a 4bd5 243d 9e50 85bd 9d02 38bd
00000330: 71f9 07be 6cc0 7ebc 8b4f c6bd 32e3 9f3d
00000340: d39a b2bd 3df2 7fbd 8c5c 94bd 9e34 6d3d
00000350: 4470 58bc 9c9e c33c d9f1 80bd 87ba cdbd
00000360: f2fb 09be caba 0ebe 88f8 0a3d 6638 82bc
00000370: 7f48 833d d658 aebd ebf5 a6bd 9db7 a4bd
00000380: 4802 83bd 046c 673c c774 1fbe be02 e6ba
00000390: 9e14 0ebd 0594 9e3c 1078 d13c 15c5 de3d
000003a0: d6a0 383c 8a28 4d3b 2281 f23d c667 b2bd
000003b0: feb1 dfbd 3a51 d23c 33f2 3d3d 32d6 04be
000003c0: 1a8b c43d ba1e 923c 055e 943d fb15 133e
000003d0: 96fa b33d a2fb 27bd 307f df3d 5880 493d
000003e0: 6449 b23c a839 c53c 5818 e2bc 12e4 ad3d
000003f0: 1b45 8bbd 6a17 d13c 2d3f 163e a1e7 bc3d
-0.063475065 0.13970338 0.082787886 0.07889829 -0.14576536 0.003217235 0.03929162 0.024361426
0.07429504 -0.01476322 -0.03760437 -0.13860385 0.036796898 0.06524651 0.007035314 -0.14686826
-0.07645672 0.103132166 -0.040968906 -0.0045019644 0.12858012 -0.05414007 0.07047752 -0.10322439
-0.09421489 0.04987333 -0.028022675 -0.034018442 -0.04751941 0.101592146 -0.03311639 -0.09697638
-0.104012944 0.021980902 -0.024480188 -0.1071758 -0.02745625 0.072606504 0.007382795 -0.0075170225
-0.003185571 -0.0918752 -0.1519895 -0.12845607 -0.11052212 -0.042782713 -0.011957141 -0.049916115
0.0045835837 0.09277784 0.017117491 -0.025283642 -0.07846681 -0.048908465 0.11297732 0.007034961
0.036673587 -0.15554659 -0.14375594 0.032294165 0.120469324 0.13242029 0.09214578 -0.042308707
0.080629714 -0.13379747 0.06153507 -0.06904466 -0.10056228 -0.0040008645 -0.064852476 0.065014616
0.08937254 -0.1512302 0.05579354 0.057046127 -0.12105433 0.0366195 0.021648414 0.011040542
-0.10861675 -0.07579322 -0.0057294997 -0.087169796 -0.09338761 0.03604792 -0.09959151 -0.04403849
0.06904326 -0.100824624 0.0032429344 0.04906758 -0.028962005 -0.033340093 -0.033905055 0.037736617
0.042896952 -0.15334868 -0.10629722 -0.13099778 0.032302774 -0.0050527263 -0.01266189 -0.1473364
0.06467209 -0.08975197 0.019531233 0.009070325 0.04005293 -0.051628184 0.013786829 -0.108667344
-0.07048418 -0.029664671 -0.05099198 0.057908993 0.036687378 -0.08666395 -0.14242667 0.16085334
-0.06713903 -0.076272085 -0.10949968 -0.100782186 -0.0032016523 -0.10356422 -0.030438168 0.04144335
-0.115011126 0.032492433 0.12498638 -0.022202553 0.03263806 0.019779177 -0.13094734 0.085862584
-0.115944825 0.031023031 -0.123309605 0.010920144 -0.008871547 0.05329863 0.007918375 -0.07906619
0.037191775 -0.11625144 0.0062199156 -0.12610629 -0.016289761 0.12756008 0.024633173 0.07161272
-0.0933285 0.11029359 0.07709413 0.04753418 -0.09986433 0.011048749 0.076779336 -0.08995764
0.146173 -0.08842345 -0.10416966 0.07210687 0.010275948 0.09424468 0.11330598 0.010410975
-0.120188326 -0.058073726 -0.11766418 0.049878184 -0.005128126 0.08646586 -0.09917715 0.080209255
-0.114978716 0.03050642 -0.08996144 -0.05970943 0.05083524 -0.09034199 0.027336404 -0.11237234
0.1307465 -0.1352055 -0.112423986 0.090047665 0.03424899 -0.0672814 0.047577105 0.07064833
0.0069611077 0.049860124 0.0422268 0.02400932 -0.0673531 -0.12993099 -0.08537374 -0.15342522
0.00092115847 0.040242475 -0.06509517 -0.044924367 -0.13278748 -0.015548807 -0.0968314 0.07807006
-0.087209366 -0.062486876 -0.072442144 0.057911508 -0.01321036 0.023879342 -0.06296129 -0.10045343
-0.13475016 -0.13938442 0.033928424 -0.015896033 0.06410312 -0.08513038 -0.08152374 -0.08042834
-0.063969195 0.014124874 -0.15571891 -0.0017548425 -0.03468763 0.01935769 0.025569946 0.10877434
0.011268815 0.003130468 0.118410364 -0.087111995 -0.10922621 0.025673497 0.046373557 -0.12972334
0.09596844 0.017836917 0.07244495 0.14363854 0.0878803 -0.04101146 0.10912931 0.049194664
0.021763511 0.024075344 -0.027599499 0.084907666 -0.0680029 0.02552386 0.14672537 0.09223867

dest_lstm_obs.weight_hh_l0 f4 [128, 32]
00000000: a0d9 8bbd 3b31 aa3d e9a7 6b3d 1f1d 6d3e
00000010: 2136 bfbd 541b 173d 81f3 f8bc 536f f63d
00000020: 5597 3d3e ef76 4ebd 48d1 32be f280 933d
00000030: 93e5 d8bc a38e 68be cfd4 a8bd a047 8f3b
00000040: 5bc5 f8bd 508a 043e 68b5 37bd c9f2 0cbe
00000050: d8fd ecbd c443 783d 350d 3b3d 6d3c eabd
00000060: a01b 8bbd a2b5 c3bd 2045 60bd d589 1e3e
00000070: d4b7 7dbd bd4d 81bd e251 c73d a01a b4bd
00000080: b77e 3dbd 5873 30be 4128 053d 8479 91bd
00000090: 7fb1 513e fd37 c33d 6dca 39bc 34f6 c5bc
000000a0: 16fc 9ebd 0e71 013e b060 94bd eefd e93d
000000b0: df22 853e 66a9 a6bc 53d4 e8bc 2b60 6abe
000000c0: 50c8 7cbe 49dd 14be 7877 b13c f34a a5bd
000000d0: a6a8 cabd 3fef 233e 4c99 933d cd70 3d3e
000000e0: b7cc 263d 294a 5dbc bcbf 1cbe 619e f5bd
000000f0: 70d9 163c af52 b33d 6126 9a3d 52bb 39be
00000100: 10ae cebb 6e94 243e 08da 9d3d d110 0a3e
00000110: 9180 6ebd e599 203d 184b d9bc e9cc 2dbe
00000120: bd77 16be 63ce 37be bd27 273e 983e f03c
00000130: 4910 d13d da21 27bd c669 30be f362 e4bd
00000140: 1979 c73d d8e2 4f3c 1a6d 34bd fc18 d73c
00000150: 32bd 09be 3453 093e 2482 a83d a439 8e3c
00000160: 0db2 d83d 98a5 2d3e f43d 22bb a209 0e3d
00000170: 828b 1b3e 0c4f 053d 4d90 22bd b9b8 d13b
00000180: da7e 263e 51cb 21be 69b5 273e 4e04 373e
00000190: 1b42 ac3e 0840 cf3e 3130 2abd bc8a e53d
000001a0: 20f4 fb3a e42c 203b f017 92be 0772 fd3c
000001b0: 92e6 e9bd b00f 90be 6b68 933e 57db b6bd
000001c0: e3fe 943d 3912 933e aab5 ccbd 45d6 8fbe
000001d0: a4da 393e d738 33bd dc91 153e 4213 f1bb
000001e0: 42b4 893e f12c 7abd 25d3 c9bd 2f9d 5c3e
000001f0: 9c6a d43d e8ba 5c3d b4c9 7e3e ab62 1dbe
00000200: 8921 18bd a122 bfbc 944c ce3d c1c8 75bd
00000210: 6e23 f43d 4700 193e 5ec0 1d3e ef0e 593d
00000220: 1d1b 8ebd eecc c3bd 5b22 02be 83e4 e4bc
00000230: 1130 9f3d c92c 1a3e 8062 bdbd b41c 15be
00000240: ec5a cdbd bfb6 f4bc 926e 083e 228c 113e
00000250: 795d aabd 7858 dbbd 0d29 923d 7b6f ef3d
00000260: 3df0 a9bd 118d 20bd 2925 e0bc 1e6d 37be
00000270: efeb 163c 637f 3f3e 6738 863c d09c 7ebd
00000280: bbe5 90bd 97b0 2bbe 4cdc 0ebe 9783 933d
00000290: 98b8 a23d 612f 0cbe 24e1 7cbd 6143 31be
000002a0: 24ce b5bd ba9f e43d d2a9 813d d49e 013a
000002b0: a3b5 aabc 7406 21be 142a 213e 2cf2 61bc
000002c0: 9df2 393d 9cb0 a8bd 94ec cd3d 627e b03d
000002d0: 23e4 fcbd 5453 c23d f708 8dbd dad4 9abc
000002e0: 5d9e ae3b 653b 35be 3796 0bbd 12d3 dd3c
000002f0: 3e2d 51bd 6e8c 2d3e 5220 16be c97a a3bc
00000300: 8918 e23c e851 42be f39f ad3d ba7a 943d
00000310: 80cb ac3d 00e9 033e 8a9b 37bc 3815 40be
00000320: ed2c e1bd ca70 febd ac12 8f3d 6dce 3e3d
00000330: d59f b33a e30c 133e 41f1 31bc a627 00bb
00000340: 69ff 713b 0ccd 5b3e 82a3 17be 09de 02bd
00000350: 12ea 5f3c e987 583e 0cf7 debd ddfc 5f3e
00000360: c810 0f3e 4854 bfbc 2002 0fbd d8ac 86bb
00000370: 49ca dbbc 91b1 903d 57e5 dfbd 4ec3 093e
00000380: 9623 2a3e 140a b5bd af93 7cbd c46e 733d
00000390: 7be5 e43d 4743 723e 8bcb 27be c993 353e
000003a0: 5a5b c33d 1c81 32bd d35d 263d 0c76 8ebd
000003b0: 7314 1abe 37e0 f7bd 8818 943d a155 5a3d
000003c0: 5d23 dabc d441 623d b40e bebd 7e6b 8b3d
000003d0: 3e81 a53c 7aed f9bd 3e17 5ebd 7a80 5cbe
000003e0: 1061 483d de6d edbd 1ebb 063e bfb2 0abe
000003f0: 7215 ee3b 5d2e 6c3d 52b1 863d e581 7d3d
-0.06828618 0.08310171 0.05753318 0.2315564 -0.09336496 0.036891297 -0.03038955 0.12032952
0.1851476 -0.050406393 -0.17462647 0.07202329 -0.026476657 -0.22710662 -0.08243715 0.004372552
-0.121470176 0.12943387 -0.044850737 -0.1376449 -0.11571854 0.0606115 0.045666892 -0.114373066
-0.067923784 -0.09556128 -0.054753423 0.15482266 -0.06194289 -0.063136555 0.09732415 -0.08794141
-0.046263423 -0.172315 0.032509092 -0.071032554 0.20477866 0.09532163 -0.011339766 -0.02416525
-0.07762925 0.12640783 -0.07245004 0.11425386 0.26003167 -0.020344447 -0.028421557 -0.22888248
-0.24685788 -0.14537539 0.021663412 -0.08070936 -0.098954484 0.16009234 0.072069734 0.18500061
0.040722575 -0.013506451 -0.15307516 -0.11993099 0.009207115 0.08756005 0.075268514 -0.18137863
-0.006307371 0.16072246 0.07707602 0.13482977 -0.05822808 0.039209265 -0.026525065 -0.16972698
-0.14694114 -0.17949824 0.16323753 0.029326722 0.10208184 -0.040803768 -0.1722785 -0.111516856
0.097398944 0.012688361 -0.04404936 0.02625703 -0.13451079 0.13410646 0.08227947 0.01736147
0.105808355 0.169577 -0.0024756165 0.034677155 0.15189937 0.032546088 -0.039688397 0.0064001945
0.16259328 -0.15800215 0.16377796 0.17872736 0.33644184 0.4047854 -0.041549865 0.11208102
0.0019222535 0.002444082 -0.28533888 0.030938162 -0.11420931 -0.2813697 0.28790602 -0.089285545
0.07275178 0.2872484 -0.09995587 -0.28093162 0.18149811 -0.04375538 0.14606422 -0.007357032
0.26895338 -0.061078016 -0.09854726 0.21544336 0.103718966 0.053889185 0.24881631 -0.1536967
-0.037141357 -0.023331942 0.100732 -0.060005907 0.1192082 0.14941512 0.15405414 0.052992757
-0.06938765 -0.095605716 -0.12708418 -0.027940994 0.0777284 0.15056147 -0.09247303 -0.1456173
-0.100271076 -0.029872296 0.13323429 0.14213613 -0.0831861 -0.107102334 0.07136736 0.11691185
-0.08297775 -0.03919703 -0.02736147 -0.17912719 0.009211524 0.18700938 0.016384317 -0.062161267
-0.070750676 -0.16766582 -0.13951224 0.07202833 0.07945365 -0.13689949 -0.06173815 -0.1731086
-0.08877209 0.11163278 0.06331219 0.00049446267 -0.020838564 -0.15725118 0.15738708 -0.013790648
0.04539739 -0.082368106 0.10054889 0.086178556 -0.12348201 0.0948855 -0.068864755 -0.018900324
0.005328937 -0.17698438 -0.034078803 0.027078185 -0.051068537 0.16948101 -0.14660767 -0.01995601
0.02759959 -0.18976557 0.084777735 0.07249971 0.08437252 0.12881851 -0.011206517 -0.18758094
-0.10994897 -0.124238566 0.06985983 0.04658358 0.001370425 0.14360385 -0.010860742 -0.0019554882
0.0036925918 0.21464938 -0.14808467 -0.03195003 0.013666647 0.21145596 -0.10886964 0.21873803
0.13971245 -0.023355618 -0.034914136 -0.00410996 -0.026829856 0.07065118 -0.10932415 0.13453409
0.16615137 -0.08839813 -0.06166428 0.059431806 0.111765824 0.23658477 -0.16386239 0.17732157
0.09538908 -0.04358016 0.04061682 -0.069561094 -0.15046863 -0.121033125 0.072312415 0.05330432
-0.02662819 0.05523856 -0.09280148 0.06807612 0.020203229 -0.12203498 -0.054221384 -0.21533385
0.04892069 -0.11593221 0.13157317 -0.13544749 0.00726574 0.057661403 0.0657679 0.061891455

dest_lstm_obs.bias_ih_l0 f4 [128]
00000000: 83ee 2cbe 63cb 293e c598 773d 9ab0 a0be
00000010: 63ad 093e 10cc 3d3e 7213 78be 0f9b 01be
00000020: b72e 9c3d 1b1a 0dbd bd6a 9c3d 6fad bdbd
00000030: 91c0 553a 0c52 08be ccfe 1bbd e76b a7bd
00000040: 7f5b 2cbb f609 cdbd 370e 96bc a1ef ca3c
00000050: 1bca 613c 2310 e13d a5e5 cabd ac8f c5bd
00000060: 2c4e 8bbd 2c43 0cbd 7a9d 883d 4e8a 1d3e
00000070: d2cf 3abe fdf3 efbd b82a 23be 8f1b 163c
00000080: fd9f 6ebd 126c 8e3d afd9 eebd 2b6d 39be
00000090: 0baf 843d 1245 3dbd 3f26 9cbc fac2 dc3d
000000a0: 5ded 93bd 1be5 59be 9460 5fbe 1d9f 2b3d
000000b0: b78e 1fbe 72fd f63d 918a 943d 6b24 73be
000000c0: ab8e 92bd 7288 bfbd b9bf 263c c08b 22be
000000d0: 6b82 31be cc2a 42bd 0e94 61bd 71a4 ea3c
000000e0: 77bf 27be 6d86 fb3d 62de 993d e802 4e3d
000000f0: dd1d 77bb 5755 d33d 155a a5bd 6895 fc3d
00000100: a238 34be 3344 0fbb c68a 60be 74e5 0a3e
00000110: 2230 33be 01e0 8fbe 0909 01bd 63b1 5dbc
00000120: de97 e6bc 35f1 2dbe 7a9b d03d 2d4b 99bd
00000130: 7fbc b23d e1a8 c23c 2024 d5bb 9504 093e
00000140: 0962 19be f0f2 53be b85f 893c 67d0 853e
00000150: 958f b0bd b9c5 093d e5bb 693d 373d 4e3d
00000160: 458b a8bd 5876 18be f299 37be 53ec 41be
00000170: 4537 bebc dfe0 033e 9e81 123e 83f6 683e
00000180: 3185 a0bc 8b32 c73d 653d 033e 04d9 dabb
00000190: c689 bcbd af0e 01bd 8c67 b8bb 04d2 dabd
000001a0: 4c87 ee3d 9d93 4e3c 407e e93d 69b8 dfbd
000001b0: 0192 58bd b7db ee3d 348b 0ebe edbf e83c
000001c0: 7cae c3bd 09db d0bd bd8e 163e 8bb4 c1bd
000001d0: 5435 dfbd 20e6 dabd 9be0 083d 639d 9cbd
000001e0: 7a32 ed3d 1276 ce3d 048b 18be 9c83 6e3d
000001f0: 23f3 a9bd c5fe 8cbd bcfb 24bc 6809 15bd
-0.1688786 0.16581492 0.060448427 -0.31384736 0.13445048 0.18534875 -0.24226168 -0.12656806
0.07626098 -0.034448724 0.07637546 -0.092615955 0.0008154 -0.13312548 -0.03808479 -0.081748776
-0.0026299653 -0.100116655 -0.018317325 0.024772467 0.013781096 0.10989406 -0.099070825 -0.09646544
-0.068020195 -0.034243748 0.06670661 0.1538479 -0.1824334 -0.11716459 -0.15934265 0.009161844
-0.058258045 0.069542065 -0.116626136 -0.1810805 0.06478699 -0.04620845 -0.019061206 0.10779376
-0.07223008 -0.21278803 -0.21814185 0.04189979 -0.15581785 0.120600596 0.07252992 -0.23744361
-0.07156118 -0.09352197 0.010177546 -0.15873623 -0.17334907 -0.047404096 -0.055072837 0.028642865
-0.16381632 0.12281499 0.07513119 0.05029574 -0.003770701 0.10319012 -0.080738224 0.123331845
-0.17599729 -0.0021860718 -0.21927938 0.13564092 -0.1749883 -0.2810059 -0.031502757 -0.013531062
-0.028148588 -0.16986544 0.10185905 -0.07485042 0.08727359 0.023762168 -0.0065045506 0.13380654
-0.14978804 -0.20698142 0.016769275 0.2613556 -0.08621136 0.03363583 0.057063956 0.050351348
-0.082296886 -0.14888895 -0.17929819 -0.18937807 -0.023219714 0.1287875 0.14307258 0.22750287
-0.01959476 0.09726437 0.12816389 -0.0066787023 -0.09205966 -0.031508144 -0.005627578 -0.106845886
0.116468996 0.012608436 0.114010334 -0.10923845 -0.052873615 0.11663001 -0.1392029 0.02841183
-0.09554765 -0.10198028 0.14702888 -0.09458264 -0.108988434 -0.10688424 0.033417325 -0.07647207
0.11581893 0.10081114 -0.1489678 0.05823098 -0.08298328 -0.06884531 -0.010069784 -0.036385924

dest_lstm_obs.bias_hh_l0 f4 [128]
00000000: ac76 b3bd 6b77 eebd 9eef 94bd c546 14be
00000010: 7fd2 c7bd 6604 20be 286e 35be 5efb 3cbd
00000020: 7d71 a0bc 751c f93c c5b8 26be 873b a23d
00000030: 2a79 b03d c92f 96bd 39f9 13be b1db 633d
00000040: b17e 69be 7de4 053d f2b7 b83d 5950 813d
00000050: a77f 023d c789 a5bd c34e 0cbe 5225 993d
00000060: ea35 bd3c 0696 3bbd 2bde d33d fcc0 303d
00000070: 129e 68bd d9c1 36be b097 aebd 41d0 103e
00000080: 3a8f 133e 0bdc c93d d87a 203d f96b 63bd
00000090: dd14 5a3d 7ee6 143e db8c 0ebe 34aa 61bb
000000a0: 234f 49be 9f5c 85bd 0b1e 34be 5678 d83d
000000b0: 1980 26bd 3173 efbc 641b e23d afa3 d4bc
000000c0: 7d1d 2fbc 8476 b43d 527b 11bb c369 20bd
000000d0: b7cc 243d 874b b0bd 80e9 efbb 8580 85be
000000e0: f060 f63d f909 d0bd 8936 e6bd d39e 8ebd
000000f0: 53df 6ebe ec50 0c3e 5b24 fb3b 7f22 8dbd
00000100: 2800 973d 8d65 363e ef9a 65be d350 d9bd
00000110: 299c b73d 6487 c7bd 1ae8 05bd 0e85 833b
00000120: d1a8 77bd 28c1 223e da99 2c3e 77aa 70be
00000130: 8418 59bd 80c2 efbd 0d18 5ebd 609a dbbd
00000140: 2e77 3abd 26a3 13be 7f4e f23d c8e6 4b3e
00000150: 3bfd 81be 2bec a23d ff3a 7bbe b2c9 ac3c
00000160: 3461 24be 8934 03be 8737 4a3a c306 b23c
00000170: e11f eb3d 8180 823d 9e30 703d 64be 723e
00000180: 87d7 333d f331 dabd 0393 df3d 5338 ef3d
00000190: 25d3 3cbe afa7 c6bd e357 55bd 3ed3 463d
000001a0: 940b 3c3d 96fe 71bd 403c 833c 18d2 d93d
000001b0: d12d 793c 3330 dd3a f255 94bd d8c0 20be
000001c0: 5ef5 53bd 62cc 503e d28e cbbd 80a1 2cbc
000001d0: fe1b f2bd d886 4d3d 09c5 d83d 479a 013c
000001e0: c965 fc3d 2f66 98bd d8f6 15be cb63 1d3e
000001f0: cdf1 90bc 4451 473d f72a 10bd 36ab 46bd
-0.08762869 -0.11643871 -0.07272266 -0.14480121 -0.09756946 -0.15626678 -0.17717803 -0.04613816
-0.019585365 0.030409077 -0.16281421 0.0792151 0.0861686 -0.07333333 -0.1445054 0.055629436
-0.22802235 0.032688607 0.0901946 0.06314153 0.03186002 -0.080829196 -0.1370192 0.074778214
0.023096997 -0.04579737 0.103451096 0.043152794 -0.056791373 -0.17847385 -0.08525026 0.14141943
0.14410105 0.09856423 0.039179653 -0.055522893 0.053242553 0.14541051 -0.1392092 -0.0034433724
-0.19659095 -0.06511807 -0.17589585 0.10569827 -0.040649507 -0.029229732 0.110403806 -0.025956957
-0.010688183 0.088116676 -0.0022198749 -0.039163362 0.040234294 -0.08608156 -0.0073215365 -0.26074615
0.12030208 -0.10158152 -0.112408705 -0.06963887 -0.23327379 0.13702744 0.007664246 -0.06891345
0.07373077 0.17812176 -0.22422384 -0.10611119 0.08965332 -0.097426206 -0.032692052 0.004013664
-0.06046373 0.15893996 0.16855565 -0.23502527 -0.053001896 -0.1170702 -0.054222155 -0.10722804
-0.045523815 -0.14417705 0.11831378 0.19912255 -0.25388512 0.07955202 -0.24534224 0.02109227
-0.16052705 -0.1281301 0.00077139627 0.02173174 0.1148069 0.063721664 0.058640115 0.23705441
0.043906715 -0.10654058 0.10916712 0.11680665 -0.1843992 -0.09699952 -0.05208577 0.0485413
0.04590948 -0.059080683 0.01601994 0.10635775 0.015208677 0.0016875326 -0.07242955 -0.15698564
-0.051747672 0.20390466 -0.0993935 -0.0105365515 -0.11821745 0.050177425 0.105844565 0.007910318
0.123241015 -0.07441365 -0.14644945 0.15370099 -0.017693425 0.048661485 -0.035197224 -0.048503123

dest_lstm_fut.weight_ih_l0 f4 [128, 2]
00000000: a70b babd 7db5 57bc 8da0 a5bd 6844 b63c
00000010: 91c5 02be 6ce1 a33d 9f25 5d3d 4c71 753d
00000020: dd19 1a3d 5254 d4bd 7ee5 a4bd 8c18 a23c
00000030: ded2 823d a67e 123e fcc7 6f3c 0f2d dcbd
00000040: 5396 e7bd 6397 5fbd da24 96bd 32fc 463d
00000050: 2230 313c 2c1d 0dbd 61f2 00be cc3f 593c
00000060: 56e8 9e3d 8adb ffbb a7ef 83bd e27e f6bd
00000070: 11bf 52bc 316f b53d 4ca0 54bd b268 dbbd
00000080: ca7c bf3d 2ef4 cb3d 6e69 5dbc a0fe 8abc
00000090: d31e bebd 68a3 f3bc f3a4 e83c c294 e23c
000000a0: 5eaa 8dbd 8070 a83d 385c 773d 29dd 19be
000000b0: b974 843c e1e6 81bd 538e 143a a26c 4ebd
000000c0: 8798 e93c fdb4 39be e10d 043d 2e17 cbbd
000000d0: dbcf c73d ce5b 1e3d 1668 1fbd 698b e93c
000000e0: d5d2 19bd c683 afbd 2e9a 97bd 1024 f13b
000000f0: 5e05 15be cca3 3fbe 2a45 00bd f3de 7d3d
00000100: 76e9 dc3d 962b 87bd 74e3 513d 0818 3fbc
00000110: f173 ee3d 79f9 bd3c fe9d 1a3d a181 9abd
00000120: 69fa babd 295f c0bd a0be ebbd 7a41 e6bc
00000130: d159 5a3d 5753 00bd ecc9 14be 6b1e 9c3d
00000140: c74e 75bd 391c f63d 1e8e cb3d 2666 85bd
00000150: bdb1 4bbd 75f3 8c3c e8e0 2abd 18e3 1dbc
00000160: 6074 24be 9219 0d3d 254e dfbc c20c 413d
00000170: f089 e3bb 2366 ecbd fe97 ddbd b32a be3d
00000180: 8738 993d 2a3a 2cbd 7874 a83c c02c 903c
00000190: 4a0c 253b a79f d93d cdb9 d8bd 6719 bcbc
000001a0: ca46 bdbc 09ff 10be cf4b 29be 8bca 203e
000001b0: f11e 66bd 7e8e a7bd ee10 86bd aba7 f4bd
000001c0: 2f3a dc39 c17a a43d 004e b0bc 1032 c8bd
000001d0: b145 153d bc6b 863c e430 b3bd 5f4d e13d
000001e0: 3b2c 863d 6c6e 483d 1d2c 29bd 880e 2b3d
000001f0: e8e5 8b3d c976 bd3d be23 013d 7440 23bc
00000200: 59a2 0a3d a6d4 f03c 08ff 5b3c 85d9 cb3d
00000210: b3bf b6bb a93e a5bd e8f7 7c3d 5204 3f3d
00000220: 398d 033e abdd 41bd 3a2d 7ebd 484d ee3d
00000230: 0d01 56bd 59a1 383d 91a0 d83d 7e79 abbd
00000240: 57d4 c7bb 119b 2abc 1cd0 723c 51e8 0ebc
00000250: 112f e73c ae36 0abd 4167 4cbc f6c7 c53c
00000260: 5393 87bd 12d0 013e 2c76 5a3d 1892 92bc
00000270: b593 8ebc af2a 093d d635 8a3d 7ed3 d13c
00000280: 81e0 6abd f4cb f9bc 9c4e d93d 2830 91bd
00000290: c8eb bfbc be1e 07bd e0cf c3bd 1ef8 483d
000002a0: f40f 97bc ccba 1b3e e249 e6bd d978 1c3e
000002b0: bef9 b9bd 1904 5f3d b99d 7ebd f251 a63d
000002c0: 6084 f3bc 72f8 4f3b 56cc 973d eedf 5bbc
000002d0: 22fb 763d 8a7e 623d 0675 19bd 6ddc 2ebd
000002e0: ef9a a4bc f47d cbbd 79a9 1f3d 3b21 71bd
000002f0: 151b 873b cd9e c8bc 20b7 55bd 48ff b23d
00000300: 25ff 97bd 2f0e d6bd f10d a93d e9e5 b6bd
00000310: 07b0 09be afd5 ee3d c6ab b7bc 2b9d 8f3c
00000320: 5e7c 4bbd 7d6f 673d ed46 3f3c aaaf 6c3c
00000330: 48fa 1bbe b381 8abd 4379 6e3d e097 e33c
00000340: 1842 ba3d f0c9 8ebd 48a9 27be 9437 1fbc
00000350: 9f72 d1bd e295 a53d 501d cabd b413 d7bd
00000360: a6ea c7bd dfab febd 7be7 cfbd 5089 eabd
00000370: 1248 02be f24d 6b3d 3b9b 553d ef6b cfbd
00000380: 6ead c33c 2bbe afbc a5b0 3a3d 05a2 d1bd
00000390: e7ee 89bd 85d4 2abe 5679 553d 5b36 97bd
000003a0: e300 a33c 6b73 26bd 4658 b4bd 5e7d a73c
000003b0: 3c9c 9c3d bd3b 143c 9c4b b6bd d6f1 69bc
000003c0: 8890 843d 4bb9 84bc 1634 c1bb 600e 823d
000003d0: cfbe e4bb b77e 223c 8fae 983d b1f2 0dbe
000003e0: a4cb 0d3d 74fa 333d f0d7 33bd 2a5f 21be
000003f0: 1c12 0cbe 38a9 033d a459 b3bd 9dff 84bc
-0.09084254 -0.013165829 -0.08087263 0.022249416 -0.12770678 0.0800198 0.053990956 0.0599225
0.03762232 -0.10367645 -0.08051585 0.019787095 0.06387876 0.14306125 0.014635082 -0.10750782
-0.11307969 -0.054587733 -0.07331248 0.048580356 0.010814698 -0.03445165 -0.1259246 0.013259839
0.07759158 -0.0078081535 -0.064421944 -0.1203592 -0.012862937 0.08859099 -0.051910684 -0.107133284
0.093499735 0.09958683 -0.013513906 -0.016967118 -0.09283223 -0.029741004 0.028398966 0.027658824
-0.069172606 0.08224583 0.06039068 -0.15025772 0.016168939 -0.06342865 0.000566696 -0.05039657
0.028515114 -0.18135448 0.0322398 -0.099165305 0.09756442 0.03866177 -0.038917623 0.028508859
-0.03755458 -0.08570056 -0.07402454 0.0073590353 -0.14552829 -0.18714827 -0.03131596 0.0619802
0.10786717 -0.0660011 0.051242307 -0.011663444 0.11643208 0.023190247 0.03774833 -0.07544256
-0.09129793 -0.0939315 -0.11510968 -0.028107394 0.05330831 -0.03132948 -0.14530152 0.07622989
-0.05988958 0.12017102 0.09939216 -0.06513624 -0.04973005 0.017205933 -0.041718394 -0.009636663
-0.16060019 0.034448214 -0.027258942 0.047131307 -0.0069439337 -0.115429185 -0.10820006 0.09285488
0.07481485 -0.042047657 0.02056335 0.017599463 0.0025184327 0.106261544 -0.10582314 -0.022961332
-0.023105044 -0.14159788 -0.16532825 0.15702264 -0.05618185 -0.08181475 -0.06546198 -0.119460426
0.0004200502 0.08031226 -0.021521568 -0.09775174 0.036443416 0.016408794 -0.087495595 0.110010855
0.06551405 0.04893343 -0.041301835 0.041761905 0.068309605 0.09251172 0.031528227 -0.009964097
0.033846233 0.029398274 0.013427503 0.09953598 -0.0055770515 -0.08068592 0.06175986 0.04663498
0.12846841 -0.04733054 -0.06205485 0.11635834 -0.052247096 0.045075748 0.105775006 -0.08372782
-0.006098311 -0.010412947 0.014820125 -0.008722381 0.028220685 -0.033743553 -0.0124757895 0.0241432
-0.06619897 0.12677029 0.053335354 -0.017891929 -0.017404417 0.033487972 0.0674855 0.025613543
-0.05734301 -0.03049276 0.10610697 -0.07089263 -0.023427859 -0.032988302 -0.095611334 0.049064748
-0.018440224 0.15207976 -0.11244561 0.15280475 -0.09080838 0.054447267 -0.062162135 0.081210986
-0.029726207 0.0031733778 0.07412021 -0.013420088 0.060298093 0.05529646 -0.037465118 -0.042690683
-0.02009341 -0.09936133 0.03897998 -0.05886958 0.0041231015 -0.024489785 -0.052176595 0.08740097
-0.07421712 -0.10451924 0.08254612 -0.08930571 -0.13446055 0.11661851 -0.022420775 0.017530998
-0.049679153 0.056502808 0.011674625 0.014446178 -0.15232193 -0.067630194 0.058221113 0.02778238
0.09094638 -0.0697211 -0.1637317 -0.009717841 -0.1022694 0.080852285 -0.09868872 -0.10501805
-0.097615525 -0.124351256 -0.10151573 -0.114519715 -0.12722805 0.05744738 0.052149992 -0.101280086
0.023886409 -0.021452984 0.045578618 -0.10235981 -0.0673502 -0.16682632 0.052117668 -0.07383414
0.019897884 -0.040637415 -0.08805899 0.020445522 0.07646987 0.009047446 -0.0890114 -0.01427885
0.0647288 -0.016201636 -0.0058961017 0.06350398 -0.006980754 0.0099179065 0.074551694 -0.1386211
0.034618035 0.043940023 -0.043907106 -0.15758958 -0.13678783 0.0321438 -0.08757332 -0.016235167
