src/results/centralized/do_tp_centralized_final.pt (torch, 156693 bytes, 26 tensors)

linear_enc.weight f4 [64, 2]
0	0x3f5c6303	0.8608858
1	0xbf35e514	-0.7105267
2	0x3f4a76f2	0.79087746
3	0x3edca0a8	0.4309132
4	0xbf26cd4f	-0.65157026
5	0xbc7c2eb2	-0.015391992
6	0xbe605ee1	-0.21911193
7	0xbf9f77c2	-1.2458422
8	0x3e97aeba	0.29625493
9	0x3e92d1da	0.2867573
10	0x3f182c9c	0.5944307
11	0x3f3352a4	0.70047975
12	0xbf1dee3b	-0.61691636
13	0xbf598709	-0.8497167
14	0x3f12accd	0.57294923
15	0xbd4bb821	-0.049736146
16	0xbeb1efc9	-0.34753254
17	0x3e965a16	0.29365605
18	0x3e6cf5a5	0.23140581
19	0x3f7f7c31	0.99798876
20	0x3f5a1d00	0.852005
21	0xbe88857d	-0.26664343
22	0xbf03e4a6	-0.51520765
23	0xbf44524e	-0.76688087
24	0xbec55e4c	-0.38548505
25	0xbf987baf	-1.1912745
26	0x3dff55d9	0.12467546
27	0xbef9ee0c	-0.48814428
28	0x3e1f9769	0.15585102
29	0xbe2d8659	-0.16945781
30	0xbedeff2a	-0.4355405
31	0xbf3292b8	-0.69755125
32	0x3efa9728	0.48943448
33	0xbe599bb1	-0.21250798
34	0xbe10c086	-0.14135942
35	0x3d80ea98	0.06294745
36	0xbe700648	-0.23439896
37	0xbedbde35	-0.42942968
38	0xbf599557	-0.849935
39	0x3e363b8d	0.17796154
40	0x3f28e0bc	0.6596792
41	0xbf414760	-0.75499535
42	0xbedfdb5a	-0.4372204
43	0x3f774329	0.96586853
44	0x3e909c2b	0.28244147
45	0xbf91ce54	-1.1391091
46	0x3da69797	0.08134382
47	0x3f2771a6	0.6540779
48	0x3f24b3ec	0.6433704
49	0x3ec04dc2	0.37559325
50	0x3e904148	0.28174806
51	0x3f07c95b	0.5304162
52	0xbebc06c5	-0.36723915
53	0xbe1e5394	-0.1546157
54	0x3f3049e1	0.6886273
55	0xbeee5441	-0.46548656
56	0x3f342d03	0.7038118
57	0x3eb9cd61	0.36289504
58	0xbf6aa12d	-0.91652185
59	0x3e2cd605	0.16878517
60	0x3ef45b14	0.47725737
61	0xbec8ecff	-0.39243314
62	0xbce077e9	-0.027400928
63	0x3f676596	0.9038938
64	0xbeafe401	-0.3435364
65	0xbe467472	-0.19380358
66	0xbf09c5b1	-0.5381728
67	0xbe7ff80a	-0.24996963
68	0xbe9e40a1	-0.30908683
69	0x3e81c370	0.2534442
70	0x3ecc5d5f	0.39914986
71	0x3dbb0a58	0.09132832
72	0xbe9c8663	-0.3057128
73	0x3f8ebff0	1.1152325
74	0xbefa0816	-0.48834294
75	0xbf009d9e	-0.50240505
76	0xbed0acd0	-0.40756845
77	0xbf61523f	-0.8801612
78	0x3f05402e	0.52051055
79	0x3f436594	0.7632687
80	0xbe85452a	-0.2602933
81	0x3f648c2b	0.8927638
82	0xbefff763	-0.4999343
83	0xbeca3a3b	-0.3949755
84	0x3e0771f9	0.13227071
85	0x3f0c146f	0.5471868
86	0x3f121bc7	0.57073635
87	0x3dd45ce2	0.103692785
88	0xbf1b56a7	-0.60679096
89	0xbf16e378	-0.5894084
90	0xbe952c16	-0.29135197
91	0x3f5cf8b5	0.86316997
92	0x3ef39644	0.4757558
93	0xbed1508e	-0.4088177
94	0xbf3ccde0	-0.7375164
95	0x3f1712e7	0.5901322
96	0x3ef81dfc	0.48460376
97	0x3f29d35e	0.66338146
98	0x3ed70f36	0.42003793
99	0x3f506e6d	0.81418496
100	0xbe7ecf67	-0.24883805
101	0xbed3d76e	-0.41375297
102	0xbf55642e	-0.8335599
103	0x3f3057e6	0.6888412
104	0x3e434902	0.19070819
105	0x3f73c21f	0.9521808
106	0x3e54fae1	0.20798828
107	0xbf5f0b99	-0.8712707
108	0xbee5c8a6	-0.44879645
109	0xbec74e2f	-0.38926837
110	0x3e75847d	0.23976322
111	0x3eca96eb	0.39568266
112	0x3f57d5be	0.8431052
113	0xbef42b63	-0.4768935
114	0xbf4c5b2d	-0.79826623
115	0xbf2a6694	-0.6656277
116	0xbe7bd52c	-0.24593037
117	0x3f850be2	1.0394251
118	0xbf44a54b	-0.7681472
119	0xbe7d54a9	-0.24739327
120	0x3f3437dc	0.70397735
121	0xbf441c0a	-0.76605284
122	0x3f2ec199	0.68264157
123	0x3f134d01	0.57539374
124	0xbf3c749f	-0.7361545
125	0x3f1bcf6e	0.6086339
126	0xbf4985a9	-0.78719574
127	0xbf2e5ec2	-0.6811334

linear_enc.bias f4 [64]
0	0xbe574cd9	-0.21025409
1	0x3f0fc95d	0.5616663
2	0x3dfb84cb	0.122811876
3	0x3daf8f81	0.08572293
4	0xbd308f5b	-0.043105464
5	0x3f28bc18	0.6591201
6	0xbefd1d50	-0.49436426
7	0x3d7dd02c	0.061966106
8	0x3ee8c3f2	0.45461994
9	0x3da196f6	0.07890122
10	0x3f09f4fb	0.53889436
11	0x3ef5ae3b	0.4798449
12	0xbea94ea0	-0.330678
13	0x3f14fd8e	0.58199394
14	0x3e44aa8c	0.19205683
15	0xbf0ddbef	-0.5541372
16	0xbef481ee	-0.47755378
17	0xbeb3094a	-0.34968024
18	0xbf1bfb8b	-0.609307
19	0xbeb23ed1	-0.3481355
20	0xbec430c9	-0.3831847
21	0xb5675574	-8.6178557e-07
22	0x3d556a80	0.05210352
23	0xbe05f134	-0.13080293
24	0xbebc81ea	-0.36817867
25	0x3e4a1a1f	0.19736527
26	0xbed9ed8c	-0.42564046
27	0xbec24733	-0.37944946
28	0x3f1e1e9d	0.6176546
29	0xbdee78f9	-0.116441675
30	0xbebc801d	-0.36816493
31	0xbeff4ce0	-0.49863338
32	0xbf0e0957	-0.55483
33	0x3cad9f5d	0.021194154
34	0xbf03f0ca	-0.5153929
35	0x3ed64377	0.41848347
36	0x3d5309cb	0.05152301
37	0xbe02721e	-0.12738845
38	0x3f1187cb	0.5684783
39	0xbda1d110	-0.07901204
40	0x3eef66c8	0.46758103
41	0x3d83552b	0.06412729
42	0x3e8d02a7	0.27541086
43	0xbe3d0839	-0.18460168
44	0xbed22b1b	-0.41048512
45	0x3ec353ca	0.38149863
46	0x3e9eb7f5	0.30999723
47	0xbe2f2058	-0.17102182
48	0xbe98c83b	-0.29840264
49	0xbee0f9fd	-0.43940726
50	0x3f00b861	0.5028134
51	0x3f15ba32	0.58487236
52	0x3e929ca0	0.2863512
53	0xbf226d33	-0.63447875
54	0xbe60a16c	-0.21936578
55	0x3dfdf9f7	0.12401193
56	0x3f1c32de	0.6101512
57	0x3e3952b7	0.1809796
58	0x3c90b04d	0.017662192
59	0x3ef8ffa9	0.48632553
60	0x3f01707e	0.50562274
61	0x3e7153bf	0.23567103
62	0xbe1d2553	-0.1534627
63	0xbf0be377	-0.5464396

encoder_lstm.weight_ih_l0 f4 [128, 64]
0	0xbe84249f	-0.2580919
1	0xbd733a13	-0.059381556
2	0x3d602baf	0.05472916
3	0xbc1a0c1f	-0.009402304
4	0x3dbb5356	0.091467544
5	0xbddee484	-0.1088343
6	0xbd985b6e	-0.07439314
7	0xbd45d689	-0.0483003
8	0x3d9a29bf	0.07527494
9	0x3e200ac6	0.1562911
10	0xbd10e199	-0.035371397
11	0x3e5626a8	0.20913184
12	0xbe3b7edd	-0.18310113
13	0x3e42d562	0.19026712
14	0x3e0aff55	0.13573964
15	0x3bb75b8a	0.005595629
16	0x3d56b09b	0.052414518
17	0xbe200e5a	-0.15630475
18	0x3c0dfc6d	0.00866614
19	0x3df3f089	0.11911113
20	0x3c1eae39	0.009685093
21	0x3d1ce684	0.038305774
22	0xbd577217	-0.05259904
23	0x3ddb7bae	0.107169494
24	0xbe34ed52	-0.17668656
25	0xbdd837ef	-0.105575435
26	0xbe5bab09	-0.21451963
27	0xbb5d9bf3	-0.0033814877
28	0x3d665cae	0.05624073
29	0x3e2f7de1	0.17137863
30	0xbe6f9d6c	-0.23399895
31	0xbe23e139	-0.16003884
32	0xbe4da819	-0.20083655
33	0x3dabe5ec	0.083934635
34	0xbe0c1439	-0.1367959
35	0xbb764530	-0.003757786
36	0x3e76a287	0.24085437
37	0x3db4d4cb	0.088296495
38	0xbd3cc0b4	-0.046082214
39	0x3d735af0	0.059412897
40	0x3e1c8def	0.15288518
41	0xbd344654	-0.044012383
42	0x3dc5dd9d	0.0966141
43	0xbe286767	-0.16445695
44	0x3d99f4ea	0.07517417
45	0x3dce941d	0.10086844
46	0x3cee511c	0.02909141
47	0x3dcba43d	0.09943435
48	0xbd3fb978	-0.046807736
49	0x3d4eec49	0.050518308
50	0xbad5d1ac	-0.0016313097
51	0x3d0fb333	0.035083007
52	0xbd772151	-0.060334507
53	0xbde373f3	-0.111061
54	0xbd379634	-0.04482098
55	0x3d31648b	0.043308776
56	0xbdc054be	-0.09391163
57	0x3e56402b	0.20922916
58	0x3dd6de65	0.10491637
59	0xbd916659	-0.070995994
60	0x3e1a0624	0.15041405
61	0x3d4982a2	0.049196847
62	0xbdf68033	-0.12036171
63	0xbc924371	-0.017854424
64	0x3ca1dc75	0.019758442
65	0x3d1a3676	0.037649594
66	0xbdce8248	-0.10083443
67	0x3dcf2a27	0.10115462
68	0xbe03a5ae	-0.1285617
69	0xbd8bd402	-0.06827547
70	0xbe1a6d6f	-0.15080808
71	0xbd2e2a21	-0.042520646
72	0x3e162890	0.14663911
73	0x3c7b51f8	0.015339367
74	0x3e8cac1c	0.2747506
75	0xbc251694	-0.010076184
76	0x3d8d1252	0.0688826
77	0x3e71b6bb	0.23604862
78	0x3e098a83	0.13431744
79	0x3dc4d680	0.09611225
80	0x3e0bbd95	0.13646539
81	0xbd76b2fb	-0.060229283
82	0xbbf647d3	-0.0075158863
83	0xbd1a1336	-0.037615977
84	0xbdf603b5	-0.12012426
85	0xbd932d64	-0.07186392
86	0x3e0986d3	0.13430338
87	0xbe65c52f	-0.22438501
88	0xbdf47aa3	-0.119374536
89	0x3cb1daf9	0.02171086
90	0x3cd20b17	0.025640054
91	0x3c89e015	0.016830483
92	0x3dc50247	0.09619575
93	0xbe5c6129	-0.21521439
94	0x3e087bfb	0.13328545
95	0xbc2f3c75	-0.010695566
96	0xbcb0c550	-0.021578461
97	0xbae23a4c	-0.0017259805
98	0xbd3bc163	-0.045838725
99	0xbcb7c1c5	-0.022431264
100	0xbe19ca1c	-0.15018505
101	0xbe0e1042	-0.1387339
102	0x3e67ce08	0.22637188
103	0x3d82cbd1	0.06386531
104	0x3d8fb767	0.07017403
105	0xbe381f28	-0.17980635
106	0xbce4345c	-0.027856998
107	0x3d11047c	0.035404667
108	0xbe0fa5c5	-0.1402808
109	0xbe16ebff	-0.14738463
110	0x3e1fbd2f	0.15599512
111	0xbe98af36	-0.29821175
112	0xbe0e82c6	-0.13917074
113	0xbe1abbb5	-0.15110667
114	0x3d255c5f	0.040371295
115	0x3c82e79d	0.015979582
116	0x3e405c66	0.18785247
117	0xbdd99b06	-0.106252715
118	0xbdbfef3f	-0.093718044
119	0x3dc7eae5	0.097615995
120	0x3dbcdef6	0.09222214
121	0x3df8869e	0.12135051
122	0xbe935d64	-0.2878219
123	0x3e38bcbe	0.1804075
124	0x3de4486f	0.11146628
125	0x3e160ffb	0.14654534
126	0xbe6e1b1d	-0.2325253
127	0xbd49a9a6	-0.049234055
128	0xbe37f927	-0.17966138
129	0xbd9f035c	-0.077643126
130	0x3ea687cf	0.3252549
131	0x3f69be9d	0.9130648
132	0xbefe4b00	-0.49666595
133	0xbdda5ea4	-0.106625825
134	0x3e4e0390	0.20118546
135	0xbdbea729	-0.09309227
136	0x3d99df5b	0.07513305
137	0xbf0a0166	-0.53908384
138	0x3e16987a	0.14706603
139	0x3ed1432a	0.40871555
140	0x3de5e9d3	0.11226239
141	0x3eaa48db	0.3325871
142	0x3e6cf915	0.23141892
143	0xbd94f1d7	-0.0727269
144	0xbe673e6e	-0.22582409
145	0xbe8d2526	-0.27567405
146	0xbe512567	-0.20424424
147	0xbde528d4	-0.11189428
148	0xbe303963	-0.17209391
149	0xbeacc07f	-0.33740613
150	0x3f136fd8	0.57592535
151	0xbf304dd4	-0.68868756
152	0xbe874793	-0.26421794
153	0xbda0acc9	-0.07845456
154	0xbe104f8f	-0.14092849
155	0xbe1c95fc	-0.1529159
156	0x3d348c22	0.044078954
157	0x3da2e60d	0.07954035
158	0xbc5050cb	-0.012714575
159	0xbef94dca	-0.4869216
160	0xbe6b13f3	-0.22956829
161	0x3e8b076b	0.27154097
162	0xbd314f13	-0.0432883
163	0xbd97f41f	-0.07419609
164	0xbed27fc2	-0.41113096
165	0x3ec78bd6	0.38973874
166	0x3ec0fe8e	0.3769421
167	0xbf04403d	-0.5166052
168	0x3b36c928	0.0027890895
169	0x3ea09199	0.31361082
170	0x3dfd368c	0.123639196
171	0xbe9e8c48	-0.309664
172	0x3d737a81	0.059443
173	0x3dfb2e1e	0.122646555
174	0x3edd94c2	0.43277556
175	0xbe05768e	-0.13033506
176	0xbf176250	-0.5913439
177	0xbf1c8010	-0.6113291
178	0x3e370039	0.17871179
179	0x3e85b60f	0.26115462
180	0xbddf0538	-0.10889667
181	0xbd9d7ce4	-0.076898366
182	0x3c017412	0.0079012085
183	0xbe3dc4ed	-0.18532152
184	0x3dd1938d	0.10233221
185	0x3f0b43bc	0.5440023
186	0xbedb6bc5	-0.4285566
187	0x3e4f1145	0.20221432
188	0x3eab7b97	0.3349273
189	0xbe2b30a3	-0.16717772
190	0xbe8dd4e8	-0.27701497
191	0x3e5f4dc1	0.21807005
192	0x3e83bf1b	0.2573174
193	0x3e1ab146	0.15106687
194	0xbea1165f	-0.3146238
195	0x3e799947	0.24374877
196	0x3e0df8e2	0.13864473
197	0xbd8248a6	-0.06361513
198	0xbb9dfe96	-0.004821609
199	0x3dc6009c	0.09668085
200	0x3e149097	0.14508282
201	0xbdfb3b2d	-0.12267146
202	0x3c0f3a0a	0.008741865
203	0x3947302f	0.00018996069
204	0x3db1b5c9	0.08677251
205	0x3df3c8b1	0.11903513
206	0x3d8be2ed	0.06830392
207	0xbe57815e	-0.21045443
208	0x3e05885a	0.13040295
209	0xbe7d4ef2	-0.24737146
210	0x3d7bd63d	0.06148361
211	0xbe555146	-0.20831785
212	0xbd16b558	-0.036794037
213	0xbe7f6dde	-0.24944255
214	0x3e6e24e9	0.23256268
215	0xbe29e53a	-0.16591349
216	0x3d409ab2	0.04702253
217	0xbbf17080	-0.0073681474
218	0xbd59a9f9	-0.053140614
219	0x3e4aa6d4	0.19790202
220	0x3e7a63c5	0.24452122
221	0xbe8b95c4	-0.272627
222	0xbd51e55a	-0.051244117
223	0xbdb7222b	-0.08942064
224	0x3d541165	0.0517744
225	0xbee46085	-0.4460489
226	0xbe88bf5b	-0.26708493
227	0xbd356d66	-0.044293784
228	0xbf0235c6	-0.508633
229	0xbe204498	-0.15651166
230	0x3e30b783	0.17257504
231	0xbcc7f3a3	-0.024408167
232	0xbdefa28e	-0.11700927
233	0xbe8585c0	-0.26078606
234	0x3e125547	0.14290343
235	0x3c32d8e2	0.010915967
236	0xbe8fb617	-0.2806861
237	0xbd8f9f54	-0.07012811
238	0xba9d9b23	-0.0012024384
239	0xbde2f065	-0.11081008
240	0x3cfe6385	0.031053314
241	0xbe556ebd	-0.20843025
242	0x3e818b4b	0.25301585
243	0xbd1f0978	-0.03882739
244	0x3bef4fb0	0.0073032007
245	0xbe4b9e43	-0.19884591
246	0xbd797cc2	-0.060909994
247	0x3dc9a0a5	0.09845094
248	0x3e95998a	0.29218704
249	0xbe707c40	-0.23484898
250	0xbe9f1006	-0.31066912
251	0xbd3fc69e	-0.046820275
252	0x3e869b4d	0.2629036
253	0x3d8b4255	0.06799761
254	0xbe8d235e	-0.27566046
255	0xbe448275	-0.1919039

encoder_lstm.weight_hh_l0 f4 [128, 32]
0	0xbdac736d	-0.08420453
1	0x3deb882f	0.11500584
2	0x3d5bb56c	0.053639814
3	0x3d8cacd2	0.068689
4	0xbe049720	-0.12948275
5	0x3d599e8e	0.053129725
6	0x3e6b89fd	0.23001857
7	0x3e878c51	0.2647424
8	0x3de3eebc	0.11129519
9	0x3db8f61d	0.090313174
10	0x3e8fdb5f	0.28097054
11	0x3e233b05	0.15940483
12	0xbe2c7edb	-0.16845267
13	0x3df2d59b	0.11857148
14	0xbe2de359	-0.16981257
15	0x3e260a53	0.16214876
16	0x3dd0e254	0.10199419
17	0xbd7a163c	-0.06105636
18	0xbe356bcd	-0.17716904
19	0x3e87c3a9	0.26516464
20	0x3d013c86	0.03155186
21	0xbe32b66b	-0.174524
22	0x3d9c02ed	0.076177455
23	0x3d10ef75	0.035384614
24	0xbe3ee459	-0.18641795
25	0xbdf2fa56	-0.11864154
26	0x3e5e9dab	0.21739833
27	0x3d8d0fce	0.0688778
28	0xbdaa0c45	-0.083031215
29	0x3c21521d	0.0098462375
30	0xbdcf8e5a	-0.10134573
31	0xbe41cba4	-0.18925339
32	0x3e179883	0.14804272
33	0x3c1c26a0	0.009530693
34	0xbeb5a47e	-0.3547706
35	0xbdb06382	-0.086127296
36	0x3e422307	0.18958674
37	0x3e036576	0.12831673
38	0x3e047882	0.12936595
39	0x3f325ec7	0.6967587
40	0xbd505162	-0.050858863
41	0x3f180b83	0.59392565
42	0xbe28ebb1	-0.16496159
43	0x3e11974c	0.14217871
44	0xbd165c6a	-0.036709227
45	0x3e1e054b	0.15431707
46	0x3c7c4e3c	0.015399512
47	0x3e87fc66	0.26559752
48	0xbe096cea	-0.13420454
49	0xbe09a44c	-0.1344158
50	0xbe9480fd	-0.2900466
51	0xbde9ef61	-0.11422611
52	0xbd3013ff	-0.04298782
53	0xbd7b08b1	-0.061287586
54	0x3db44918	0.08803004
55	0x3ec2efd3	0.38073596
56	0xbcc96d83	-0.024588352
57	0xbe80aee1	-0.25133422
58	0x3e53c755	0.20681508
59	0xbe0436d6	-0.12911543
60	0x3ca6a353	0.020341551
61	0xbc16f73d	-0.00921422
62	0xbdd78049	-0.10522515
63	0x3d8d56e4	0.06901339
64	0x3dba167d	0.090863205
65	0xbe341c24	-0.1758886
66	0xbf04a063	-0.5180723
67	0x3e82490d	0.25446358
68	0xbe83150d	-0.25601998
69	0x3f49b562	0.78792393
70	0x3ee29b4c	0.44259107
71	0xbe616bb7	-0.22013746
72	0x3e836ef4	0.25670588
73	0xbefeecd1	-0.49790052
74	0xbebedd83	-0.37278375
75	0xbd692aae	-0.05692547
76	0xbf0c4a9d	-0.5480135
77	0x3eda7288	0.42665505
78	0x3e17d8e7	0.14828835
79	0x3d936c3e	0.0719838
80	0xbeaa310b	-0.33240542
81	0xbe19801a	-0.14990273
82	0xbef69ee1	-0.4816809
83	0x3f4ac0d3	0.79200476
84	0x3d0df4a7	0.034657147
85	0xbe71522e	-0.23566505
86	0xbdec8934	-0.11549607
87	0xbe124c35	-0.14286883
88	0xbe0829f6	-0.13297257
89	0x3d3e43af	0.046451267
90	0x3e1e1d1c	0.15440792
91	0x3f16aae7	0.58854526
92	0xba38c782	-0.0007048772
93	0x3f5cb382	0.8621141
94	0xbe274e41	-0.16338445
95	0x3d138b7d	0.0360217
96	0x3d6853a9	0.05672041
97	0xbea71ada	-0.32637674
98	0xbca7c5db	-0.020480087
99	0xbe04f642	-0.12984565
100	0x3e528328	0.20557845
101	0xbe109791	-0.14120318
102	0x3e3c46d7	0.18386398
103	0xbd4ac0aa	-0.049500145
104	0xbe80d8cc	-0.25165403
105	0x3de77530	0.113016486
106	0x3c369637	0.011144212
107	0x3e7d5ecc	0.24743193
108	0x3c572ec9	0.013133713
109	0xbd13080c	-0.035896346
110	0x3e3d9688	0.18514454
111	0x3d03b6d4	0.03215678
112	0x3ea6a381	0.3254662
113	0xbdd3b968	-0.10338098
114	0xbe3b24a8	-0.18275702
115	0x3e7dcd9c	0.24785465
116	0xbe49ec8a	-0.19719139
117	0x3de182d5	0.11011282
118	0xbe7c7cb1	-0.24656941
119	0xbd56d6b0	-0.052450836
120	0x3dfc5f75	0.123228945
121	0xbedeb1c2	-0.43494993
122	0x3e8c9e70	0.27464628
123	0xbd27c790	-0.040961802
124	0xbe068909	-0.13138212
125	0xbe16877c	-0.1470012
126	0x3ea9eee9	0.33190086
127	0xbea7ee7f	-0.32799146
128	0x3c4fe532	0.012688922
129	0x3d6eaf36	0.058272563
130	0xbf10b6fb	-0.56529206
131	0x3e5b7928	0.21432936
132	0x3e85c424	0.26126206
133	0x3e091eb6	0.13390622
134	0x3ea607cb	0.3242782
135	0xbcb71f4e	-0.022353794
136	0xbcf438fe	-0.029812332
137	0xbd4033ab	-0.046924274
138	0xbe5172b3	-0.2045391
139	0xbde5119b	-0.111849986
140	0xbed045f6	-0.40678376
141	0x3dde64ca	0.10859068
142	0x3d66480b	0.05622105
143	0x3dfd80b3	0.12378063
144	0x3e6f9057	0.23394905
145	0xbd9e8a6b	-0.07741245
146	0xbe1283e1	-0.1430812
147	0x3e4d4a02	0.20047763
148	0xbe2222c5	-0.15833576
149	0xbe3c59d9	-0.18393649
150	0xbe3a39b0	-0.18186069
151	0xbd8b6d63	-0.06807973
152	0xbe3f41ef	-0.18677495
153	0x3e0064ff	0.12538527
154	0x3e071b14	0.13193923
155	0xbdc174ce	-0.09446107
156	0xbc345022	-0.011005433
157	0x3e3e7ad6	0.18601546
158	0x3e92b9f8	0.28657508
159	0xbe317048	-0.17327988
160	0xbd8e6010	-0.06951916
161	0xbe32b725	-0.17452677
162	0xbe2998ce	-0.16562197
163	0xbeab366e	-0.33439964
164	0xbe33b844	-0.1755076
165	0xbdcc4eae	-0.099759445
166	0xbebf9370	-0.37417173
167	0xbef1d54b	-0.47233042
168	0xbe4a0b14	-0.19730788
169	0x3d4bbc57	0.04974016
170	0xbe54b3fb	-0.20771782
171	0x3dda06b3	0.10645809
172	0x3dc828a6	0.09773378
173	0xbd3cf8be	-0.046135657
174	0x3e995e45	0.29954734
175	0xbca016e6	-0.019542169
176	0x3d907ffa	0.070556596
177	0x3e9f8e79	0.31163386
178	0xbcc8533e	-0.024453755
179	0xbd54933e	-0.051898234
180	0xbd0e01d9	-0.03466973
181	0x3e171d29	0.14757217
182	0xbe429c4e	-0.19004938
183	0x3ee176b5	0.4403588
184	0xbd86a75b	-0.06574889
185	0xbe0ff7f5	-0.14059432
186	0xbd02b96a	-0.031915106
187	0xbd29e836	-0.04148122
188	0xbbb0772c	-0.0053853
189	0xbed074b9	-0.40714052
190	0x3dd1094a	0.1020685
191	0xbf2d7f0d	-0.6777199
192	0x3da8bea5	0.082394876
193	0xbe36462a	-0.17800203
194	0x3e33846c	0.17530984
195	0xbed732cf	-0.4203095
196	0x3cf2bb8d	0.029630447
197	0xbdb1e813	-0.08686843
198	0xbda5515f	-0.08072161
199	0xbd3e0fda	-0.046401836
200	0xbf0eb47c	-0.5574415
201	0xbf054ab4	-0.5206711
202	0xbdc6168c	-0.09672269
203	0xbdb5518a	-0.08853443
204	0xbe326fd2	-0.17425469
205	0x3d97dc29	0.07415039
206	0xbe9a0906	-0.3008501
207	0x3d89ec9d	0.067345835
208	0xbca439d8	-0.020047113
209	0x3cfe89c4	0.031071551
210	0x3e056d26	0.13029918
211	0x3ebf4160	0.37354565
212	0x3d36dd2d	0.044644523
213	0x3d7fbfaf	0.062438663
214	0xbd443f52	-0.04791195
215	0xbe2faf1d	-0.17156644
216	0x3d7ac051	0.061218563
217	0xbe5d06dd	-0.2158465
218	0x3d0eb4f2	0.03484053
219	0x3e73008c	0.23730677
220	0x3e67c371	0.22633149
221	0x3dde0489	0.10840709
222	0x3da8d554	0.08243814
223	0x3ec7d207	0.39027426
224	0x3e06e928	0.1317488
225	0xbe4724f1	-0.19447686
226	0xbd64673b	-0.05576251
227	0x3e0b1fd9	0.13586368
228	0x3e32949a	0.174395
229	0x3e9f28ca	0.31085807
230	0x3ec0a7f6	0.37628144
231	0x3e0fd580	0.14046288
232	0x3e459838	0.19296348
233	0x3e035276	0.12824425
234	0xbdd41269	-0.10355074
235	0xbdade4d0	-0.08490908
236	0xbe1de838	-0.15420616
237	0x3da8d023	0.08242824
238	0xbb2d2ff6	-0.0026426292
239	0x3e6c90c8	0.23102105
240	0x3e171a9f	0.14756249
241	0xbd121af0	-0.03567022
242	0xbd170f64	-0.036879912
243	0x3e02fcfd	0.1279182
244	0x3d198228	0.037477642
245	0xbe24c14c	-0.16089362
246	0x3cab8848	0.020939007
247	0x3eb3c5f8	0.35111976
248	0x3e153ee8	0.14574778
249	0xbc98d8d4	-0.01865808
250	0xbe919427	-0.28433344
251	0x3e449d11	0.19200541
252	0x3d97ce72	0.07412423
253	0x3d9e1515	0.07718865
254	0x3e471b71	0.19444062
255	0xbdf822e0	-0.12116027

encoder_lstm.bias_ih_l0 f4 [128]
0	0xbd6180b2	-0.055054374
1	0x3d740b56	0.059581123
2	0x3d70444e	0.05865889
3	0x3c8783fd	0.01654243
4	0x3e632310	0.22181344
5	0x3e355dd3	0.17711572
6	0xbe3c5c03	-0.18394475
7	0x3e51339c	0.20429844
8	0x3e8bba35	0.27290502
9	0x3e5aea12	0.21378353
10	0x3d5ff01b	0.05467234
11	0x3e343473	0.17598133
12	0xbc87bf19	-0.016570615
13	0x3d67c960	0.05658853
14	0x3e06bc88	0.13157856
15	0xbd9e2fa9	-0.07723934
16	0x3d30efbe	0.043197386
17	0x3de40b81	0.11135007
18	0x3e47eaf9	0.19523229
19	0xbe44807d	-0.1918964
20	0x3c933a42	0.017972115
21	0xbc389c4c	-0.011267733
22	0x3de086d9	0.1096322
23	0x3d940dbf	0.07229184
24	0x3e21fa80	0.15818214
25	0xbd2be044	-0.041961923
26	0x3da0da72	0.07854165
27	0xbd5d232f	-0.05398863
28	0x3d8bdf5c	0.06829712
29	0x3deae57d	0.11469553
30	0x3e6a077a	0.22854415
31	0x3e50eab4	0.20402032
32	0xbc62c87d	-0.013841745
33	0xbda1ea86	-0.0790606
34	0xbd564fb6	-0.052322112
35	0xbdfdf068	-0.123993695
36	0x3e6f87e7	0.23391686
37	0x3e4b7b55	0.19871266
38	0xbe08925d	-0.13337083
39	0x3df4fed7	0.11962669
40	0xbde8e08d	-0.11370955
41	0xbe86f948	-0.26362062
42	0xbd2d6241	-0.04233003
43	0x3d028ea7	0.031874325
44	0x3dfe5b4c	0.12419757
45	0x3cd19f6f	0.02558872
46	0xbd841a43	-0.064503215
47	0xbdb930f4	-0.0904254
48	0xbce8953b	-0.028391471
49	0xbb748b1d	-0.0037314363
50	0xbd9bfe40	-0.07616854
51	0x3e4d33b0	0.20039248
52	0x3da59443	0.08084919
53	0x3b16b100	0.0022993684
54	0x3da7ee84	0.0819979
55	0x3d181d2b	0.03713719
56	0xbcad7b47	-0.021176947
57	0x3d888956	0.0666682
58	0x3e5cc536	0.21559605
59	0x3cc96fd5	0.024589458
60	0x3e04c5e7	0.12966119
61	0x3df37a4c	0.11888561
62	0x3e4b8f7e	0.19878957
63	0xbce2c1ea	-0.027680356
64	0xbd77f0ab	-0.060532253
65	0xbd9b2ef9	-0.07577319
66	0xbdafe80a	-0.0858918
67	0x3dad6af4	0.08467665
68	0x3e0d2417	0.13783298
69	0xbd694c1b	-0.056957345
70	0xbc9ce958	-0.019154236
71	0xbd50e157	-0.05099615
72	0xbd246205	-0.04013254
73	0xbd732398	-0.059360117
74	0x3d06b222	0.032884724
75	0x3ded0e94	0.11575046
76	0xbd1b391d	-0.037896264
77	0x3df580c9	0.119874544
78	0x3c44b654	0.012006361
79	0x3df4aa13	0.119465016
80	0xbd716022	-0.05892957
81	0xbdcd1a0a	-0.10014732
82	0xbcb0472d	-0.021518314
83	0xbc72e287	-0.014824516
84	0x3db8118f	0.08987724
85	0xbd8a24e9	-0.06745321
86	0x3b87e24c	0.0041468497
87	0xbe20e4eb	-0.15712325
88	0xbca5dc5f	-0.020246683
89	0x3d69705a	0.056991912
90	0xbc84eb24	-0.016225405
91	0x3d89ee23	0.06734874
92	0x3bae7bd6	0.005324821
93	0xbe0678d6	-0.13132033
94	0x3bf94fb0	0.0076083764
95	0xbd417ec0	-0.04724002
96	0x3c4bf113	0.012447613
97	0x3d86d2f5	0.065832056
98	0x3ea1a6a7	0.31572458
99	0xbe10c020	-0.1413579
100	0x3e8c4e6f	0.2740359
101	0x3deec21a	0.11658116
102	0x3c5ebfd8	0.013595544
103	0x3ce95e80	0.028487444
104	0x3e407bbb	0.187972
105	0x3eb38316	0.35060948
106	0x3cc1a69b	0.023639014
107	0x3e28c890	0.16482759
108	0x3cf309da	0.029667784
109	0x3ba2de71	0.0049703647
110	0x3e25fa57	0.16208778
111	0xbe037046	-0.12835798
112	0x3d5160a2	0.051117547
113	0x3e48ed70	0.19621825
114	0x3e42b66e	0.19014904
115	0x3ba514e4	0.0050378907
116	0xbdae098d	-0.084979154
117	0xbdc17b49	-0.09447343
118	0x3cda89d3	0.026677048
119	0x3e474478	0.19459713
120	0x3e43eae0	0.19132566
121	0x3e3269f1	0.17423226
122	0x3d910d77	0.07082646
123	0xbe15b44a	-0.14619556
124	0x3e03b01b	0.12860148
125	0x3d464c2e	0.048412494
126	0xbde66b2a	-0.11250909
127	0x3e58461e	0.21120498

encoder_lstm.bias_hh_l0 f4 [128]
0	0x3dad319e	0.08456729
1	0xbd71a2f5	-0.0589933
2	0x3d45c5b0	0.048284233
3	0x3daca7c3	0.084304355
4	0x3e7df299	0.24799575
5	0x3df8c542	0.12146999
6	0xbe36a17c	-0.17835039
7	0x3e905a03	0.28193673
8	0x3e09fdda	0.13475743
9	0xbdfcafe9	-0.1233824
10	0xbe2ecd67	-0.17070542
11	0x3e1a71c8	0.15082467
12	0x3d86a32e	0.06574093
13	0x3e690c44	0.22758585
14	0x3e30e34d	0.17274208
15	0x3d67f6df	0.05663192
16	0x3d7274d6	0.059193455
17	0xbc0e955b	-0.008702601
18	0x3de9750c	0.11399278
19	0x3dbf8d17	0.093530826
20	0x3de658ee	0.11247431
21	0x3e3c3876	0.18380913
22	0xbd57936f	-0.052630838
23	0x3e265aef	0.16245626
24	0xbd9b3f98	-0.07580489
25	0xbe1f5d91	-0.15563037
26	0x3e5bead8	0.21476305
27	0x3e34b848	0.17648423
28	0x3d8fec0f	0.070274465
29	0x3d165e39	0.03671095
30	0x3e0cfd4b	0.13768499
31	0x3e8e8d01	0.27841952
32	0x3deebf0a	0.116575316
33	0xbe3e2a65	-0.1857086
34	0x3dae2f22	0.085050836
35	0xbdf5f493	-0.120095395
36	0x3e294b1b	0.16532557
37	0xbd984ffd	-0.074371316
38	0x3d722763	0.059119593
39	0xbe5a258d	-0.21303387
40	0xbd86acdc	-0.06575939
41	0xbe03d7c9	-0.12875284
42	0xbd8f52bd	-0.06998203
43	0x3da11b51	0.07866538
44	0x3cd2042d	0.025636757
45	0x3cc290cf	0.02375069
46	0xbd887cb6	-0.06664412
47	0x3e0c9726	0.13729534
48	0xbda01790	-0.07816994
49	0x3e499d96	0.1968902
50	0xbd055cab	-0.03255908
51	0x3ddafa6b	0.10692295
52	0xbe214034	-0.15747148
53	0xbd00163e	-0.03127121
54	0x3e2b0286	0.16700181
55	0x3d589d4b	0.05288438
56	0x3da855da	0.082195
57	0x3dd3f1da	0.10348864
58	0x3d296bd7	0.04136261
59	0xbd348536	-0.044072352
60	0x3b047d96	0.0020216457
61	0x3e21b318	0.15790975
62	0x3ddb8a76	0.10719769
63	0xbe596a28	-0.21231902
64	0x3da34691	0.07972444
65	0xbdbd6def	-0.09249484
66	0xbd22085a	-0.039558746
67	0xbdd3faaa	-0.10350545
68	0xbdb12569	-0.086497135
69	0x3dff3ead	0.12463126
70	0x3e3ac919	0.18240775
71	0xbdab1147	-0.08352905
72	0xbd07883a	-0.0330889
73	0xbcd75675	-0.026286343
74	0xbe1b9519	-0.15193595
75	0x3d540344	0.051760927
76	0xbca7c8bf	-0.020481465
77	0x3de7a5a6	0.11310892
78	0xbdf2bafc	-0.11852071
79	0xbd1a88fa	-0.037728287
80	0xbd17a08d	-0.037018348
81	0xbdd69852	-0.104782715
82	0xbdb8b665	-0.09019164
83	0xbdb1c2d3	-0.08679738
84	0xbe0065ea	-0.12538877
85	0x3e0ac4a1	0.1355157
86	0xbd094ee6	-0.03352251
87	0x3de181ed	0.110111095
88	0xbe05390b	-0.13010041
89	0xbd7b1f2e	-0.061309032
90	0x3def401f	0.11682152
91	0x3d3062b1	0.04306287
92	0x3d242039	0.040069792
93	0x3e1fa75d	0.15591188
94	0x3ddcf512	0.10788931
95	0xbdc21e33	-0.09478416
96	0x3e3a1c53	0.18174867
97	0x3e79f75a	0.24410763
98	0x3e669659	0.2251829
99	0x3e070c7a	0.13188353
100	0xbd277bc2	-0.04088951
101	0x3e2edce8	0.17076457
102	0xbd166292	-0.036715098
103	0x3e5f4d73	0.21806888
104	0xbba4bf94	-0.0050277207
105	0x3e951bfd	0.29122916
106	0xbde0aa24	-0.10969952
107	0x3e052627	0.13002835
108	0x3e352209	0.17688765
109	0xbd2923ef	-0.041294035
110	0x3e63b3ed	0.22236605
111	0xbc2ae9f9	-0.01043176
112	0x3d919b46	0.07109694
113	0x3d853053	0.06503358
114	0xbd497b33	-0.049189758
115	0x3d5a9bdd	0.0533713
116	0x3e59aadc	0.21256584
117	0x3e5a8954	0.21341449
118	0x3e86ad87	0.26304266
119	0x3e61e28c	0.22059077
120	0x3d3e1f8a	0.046416797
121	0x3e6911a7	0.2276064
122	0x3e694353	0.22779588
123	0x3d84b1ab	0.064792
124	0xbd34152e	-0.04396551
125	0xbd8df2fc	-0.06931111
126	0xbe02c654	-0.12770969
127	0x3e50202b	0.20324771

dest_lstm_obs.weight_ih_l0 f4 [128, 2]
0	0xbd7b92f4	-0.061419442
1	0x3e0cd28e	0.13752195
2	0x3daba485	0.08380989
3	0x3d9ebee8	0.07751256
4	0xbe0ea39a	-0.13929597
5	0x3b894289	0.00418884
6	0x3d1930eb	0.037400167
7	0x3cb35a0f	0.02189353
8	0x3d97a1be	0.07403897
9	0xbc89c94f	-0.016819624
10	0xbd12111a	-0.03566084
11	0xbe0ae0d4	-0.13562328
12	0x3ce6f781	0.028194191
13	0x3d82c061	0.063843496
14	0x3b2be1e2	0.0026227166
15	0xbe150372	-0.14552096
16	0xbd9f198a	-0.07768543
17	0x3dc7aa4b	0.09749278
18	0xbd2b916a	-0.041886725
19	0xbbcc397a	-0.0062324377
20	0x3e02c822	0.12771657
21	0xbd5b60cd	-0.053559113
22	0x3d8f057e	0.069834694
23	0xbdcf6c48	-0.10128075
24	0xbdc9c952	-0.09852852
25	0x3d3ee9c7	0.046609666
26	0xbcda02e2	-0.026612703
27	0xbd0592dd	-0.032610763
28	0xbd3414dc	-0.043965206
29	0x3dc958b7	0.09831374
30	0xbd10b5bf	-0.035329577
31	0xbdbe3d85	-0.09289078
32	0xbdd99fd9	-0.10626192
33	0x3c91bf92	0.017791543
34	0xbcbcb4e9	-0.023035483
35	0xbdd9bc53	-0.10631623
36	0xbcdbdcf9	-0.026838766
37	0x3d916b43	0.07100537
38	0x3bb28f61	0.005449221
39	0xbc1570e5	-0.009121154
40	0xbafc3614	-0.0019242191
41	0xbdb97792	-0.09056009
42	0xbe1dca81	-0.1540928
43	0xbe00457d	-0.12526508
44	0xbdca5bff	-0.09880828
45	0xbd2e9c80	-0.04262972
46	0xbc5ce494	-0.013482232
47	0xbd3f1c7c	-0.046658024
48	0x3ba258df	0.004954442
49	0x3db56d7f	0.08858775
50	0x3c7b9bd1	0.015356974
51	0xbcd83dda	-0.02639668
52	0xbda9c729	-0.0828994
53	0xbd4b7554	-0.04967244
54	0x3dec27b3	0.115310095
55	0x3c858a3d	0.016301269
56	0x3d0775a9	0.033071194
57	0xbe16459f	-0.14674996
58	0xbe133745	-0.14376552
59	0x3ce44aa5	0.027867625
60	0x3df92809	0.12165839
61	0x3dff1dfd	0.12456892
62	0x3db9685c	0.09053108
63	0xbd2a44c5	-0.04156949
64	0x3da31776	0.07963459
65	0xbe0a3a41	-0.13498785
66	0x3d6611fb	0.05616949
67	0xbd902c1b	-0.070396625
68	0xbdd8e4c4	-0.105905086
69	0x3b61e0f1	0.003446635
70	0xbd92b0f2	-0.07162656
71	0x3d6f8c24	0.058483258
72	0x3dad114b	0.08450564
73	0xbe1abab1	-0.1511028
74	0x3d46ddef	0.048551496
75	0x3d5fa7f8	0.054603547
76	0xbde2184a	-0.11039789
77	0x3cdef7da	0.027217794
78	0x3c35231d	0.011055735
79	0x3c33fb0f	0.01098515
80	0xbdd0db2d	-0.101980545
81	0xbd9c5fd2	-0.07635464
82	0xbbc71b1e	-0.0060762307
83	0xbdb56902	-0.08857919
84	0xbdcb5e9a	-0.09930153
85	0x3d0b74ab	0.03404681
86	0xbdcd4380	-0.1002264
87	0xbd1e0923	-0.038582932
88	0x3d93f6d7	0.07224815
89	0xbdc9caf8	-0.09853166
90	0x3ade7caf	0.0016974414
91	0x3d3c5a59	0.0459846
92	0xbcff74dc	-0.031183653
93	0xbd1af581	-0.037831787
94	0xbd179be1	-0.037013892
95	0x3d08af6e	0.033370428
96	0x3d365441	0.044513945
97	0xbe11c256	-0.1423429
98	0xbde23d1d	-0.11046813
99	0xbdf66176	-0.12030308
100	0x3cec6260	0.028855503
101	0xbbf92413	-0.0076031773
102	0xbc88ac12	-0.016683612
103	0xbe1983f6	-0.14991745
104	0x3d708ac1	0.058726076
105	0xbdaa7ed0	-0.08324969
106	0x3c500557	0.012696586
107	0x3b16027e	0.002288967
108	0x3d25295c	0.040322646
109	0xbd705057	-0.058670368
110	0x3c278cb4	0.010226417
111	0xbdda1444	-0.106483966
112	0xbd8e8dc9	-0.06960637
113	0xbd09606b	-0.033539217
114	0xbd50db11	-0.050990168
115	0x3d662a01	0.0561924
116	0x3d122626	0.035680912
117	0xbdae19fa	-0.085010484
118	0xbe0cbf9a	-0.13744965
119	0x3e192d91	0.14958788
120	0xbd8942f2	-0.06702222
121	0xbda143d9	-0.07874269
122	0xbdd66a25	-0.10469464
123	0xbdc8bfa7	-0.0980218
124	0xbbe1adfb	-0.006887195
125	0xbdda0d69	-0.10647089
126	0xbd0dd509	-0.034626994
127	0x3d19cf51	0.037551228
128	0xbde512cb	-0.11185225
129	0x3cfebe55	0.031096617
130	0x3df61c78	0.12017149
131	0xbcb44315	-0.022004643
132	0x3cf7352d	0.030176723
133	0x3c8e298a	0.017353792
134	0xbe03efe0	-0.12884474
135	0x3dacf097	0.08444326
136	0xbde2bb7b	-0.11070915
137	0x3d00d34b	0.031451505
138	0xbdf32cd8	-0.11873788
139	0x3c39a35d	0.011330453
140	0xbc1dfc9b	-0.009642745
141	0x3d58b1a6	0.052903794
142	0x3c3804e1	0.011231632
143	0xbd98fbec	-0.07469925
144	0x3d0518bf	0.032494303
145	0xbde8e0a0	-0.11370969
146	0x3c1d8013	0.009613055
147	0xbdf9ee26	-0.12203626
148	0xbc79ee6d	-0.015254599
149	0x3dfcf589	0.123515196
150	0x3cba962c	0.022776686
151	0x3d8c15f4	0.06840125
152	0xbdbb3065	-0.0914009
153	0x3dd8cfc8	0.10586506
154	0x3d9affbc	0.07568309
155	0x3d3e6899	0.04648647
156	0xbdc6b4ac	-0.09702429
157	0x3c43dd84	0.011954669
158	0x3d9ae943	0.075640224
159	0xbdb0862d	-0.08619342
160	0x3e10a68b	0.14126031
161	0xbdb16509	-0.08661849
162	0xbdd31811	-0.10307325
163	0x3d8e5c78	0.06951231
164	0x3c1a4639	0.009416156
165	0x3dbe9915	0.09306542
166	0x3ddf6e36	0.10909693
167	0x3c3fb080	0.011699796
168	0xbde88357	-0.11353176
169	0xbd67c60d	-0.05658536
170	0xbdebbdc6	-0.11510806
171	0x3d4c8e17	0.049940195
172	0xbb6f8b8d	-0.0036551685
173	0x3dabb202	0.08383562
174	0xbdc47f76	-0.09594624
175	0x3d99c64b	0.075085245
176	0xbde7e58b	-0.11323079
177	0x3cf58a63	0.029973214
178	0xbdb12469	-0.08649523
179	0xbd6f5fa6	-0.058440827
180	0x3d566734	0.052344516
181	0xbdb3a4d7	-0.08771675
182	0x3ccb9bb6	0.024854522
183	0xbddb3ae9	-0.107045956
184	0x3e024e82	0.12725261
185	0xbe06ed1b	-0.13176386
186	0xbddb42a2	-0.107060686
187	0x3db2c6a7	0.08729296
188	0x3d0ee6ec	0.034888193
189	0xbd8771f8	-0.06613535
190	0x3d44bed0	0.048033535
191	0x3d923d87	0.07140642
192	0x3bfdaa18	0.007741224
193	0x3d31519d	0.043290723
194	0x3d1e407e	0.038635723
195	0x3cb289a1	0.021794142
196	0xbd83882c	-0.06422457
197	0xbe0026dd	-0.12514825
198	0xbdaca5d5	-0.084300674
199	0xbe188ff6	-0.14898667
200	0xba9525b2	-0.0011379032
201	0x3d20f482	0.03929568
202	0xbd8a02ac	-0.06738791
203	0xbd3faa70	-0.0467934
204	0xbe08637d	-0.13319202
205	0xbc53b22e	-0.012920899
206	0xbdc1617b	-0.09442421
207	0x3d998cce	0.074975595
208	0xbdb1d38e	-0.08682929
209	0xbd782c69	-0.060589228
210	0xbd947bde	-0.07250188
211	0x3d5cbf14	0.053893164
212	0xbc6df49f	-0.014523654
213	0x3cb761c6	0.02238549
214	0xbd899e19	-0.06719608
215	0xbdcc6cd2	-0.09981693
216	0xbe02a188	-0.12756932
217	0xbe0c7ae4	-0.13718754
218	0x3d0369f7	0.032083478
219	0xbc7bf8a1	-0.015379102
220	0x3d72218c	0.059114024
221	0xbdaf5215	-0.08560578
222	0xbda17741	-0.07884074
223	0xbda58624	-0.08082226
224	0xbd7cc68f	-0.061712798
225	0x3c8421eb	0.016129455
226	0xbe1cdf47	-0.15319549
227	0xbb058a33	-0.0020376563
228	0xbd07ea38	-0.033182353
229	0x3c900a1a	0.017582942
230	0x3cd6ae64	0.026206203
231	0x3dd93d3a	0.10607381
232	0x3bbd30c8	0.0057736374
233	0x3a83a16b	0.0010042613
234	0x3df9ae27	0.1219142
235	0xbda44877	-0.08021634
236	0xbde28a96	-0.110615894
237	0x3cc2c6ee	0.023776498
238	0x3d47b125	0.048752923
239	0xbdfe8c81	-0.12429143
240	0x3db8a1c2	0.09015228
241	0x3c7b8d5e	0.015353529
242	0x3d891872	0.06694116
243	0x3e0dba0e	0.13840505
244	0x3da92e3b	0.08260771
245	0xbd2ac416	-0.04169091
246	0x3dd283f5	0.10279075
247	0x3d416f29	0.04722515
248	0x3cb09b48	0.021558419
249	0x3c8a5256	0.016884964
250	0xbce950ea	-0.028480966
251	0x3dac2c41	0.08406878
252	0xbd87ab02	-0.06624414
253	0x3ca4c011	0.020111116
254	0x3e1350c6	0.14386281
255	0x3db56c57	0.08858555

dest_lstm_obs.weight_hh_l0 f4 [128, 32]
0	0xbd8258e6	-0.06364612
1	0x3da4db7d	0.080496766
2	0x3d6a2baf	0.057170566
3	0x3e6fbd39	0.23412026
4	0xbdbad0d7	-0.09121864
5	0x3d13e1ff	0.0361042
6	0xbcf5c275	-0.02999995
7	0x3df405fb	0.11915203
8	0x3e3bddc7	0.1834632
9	0xbd52a379	-0.05142543
10	0xbe32f328	-0.17475569
11	0x3d94fda4	0.072749406
12	0xbcdf0dde	-0.027228292
13	0xbe6a4f68	-0.22881854
14	0xbda88995	-0.08229367
15	0x3ac97a24	0.0015371484
16	0xbdfa7868	-0.12229997
17	0x3e028b75	0.12748511
18	0xbd3b37b9	-0.04570744
19	0xbe0e5d33	-0.1390274
20	0xbdeb0782	-0.114760414
21	0x3d7978bb	0.060906153
22	0x3d3722d2	0.04471094
23	0xbddc923c	-0.107700795
24	0xbd87c9ce	-0.06630288
25	0xbdc0a411	-0.09406293
26	0xbd6a5ea4	-0.057219163
27	0x3e1ed3ff	0.15510558
28	0xbd89be1d	-0.06725714
29	0xbd831423	-0.06400325
30	0x3dc8273c	0.09773108
31	0xbdb8bc63	-0.09020307
32	0xbd352b33	-0.04423065
33	0xbe345f9d	-0.17614599
34	0x3d056424	0.032566205
35	0xbd8f6b8c	-0.07002935
36	0x3e52e04b	0.20593373
37	0x3dc79cad	0.097466804
38	0xbc3c4bbb	-0.011492665
39	0xbcbf2bb7	-0.023336275
40	0xbd9c6eaf	-0.07638299
41	0x3e02d080	0.12774849
42	0xbd988e6a	-0.07449038
43	0x3deaf836	0.11473124
44	0x3e871322	0.26381785
45	0xbca8ebf9	-0.020620333
46	0xbce2f1d9	-0.027703213
47	0xbe6d615c	-0.23181671
48	0xbe7e7640	-0.24849796
49	0xbe123bc5	-0.14280613
50	0x3ca0a6fe	0.019610878
51	0xbda9563e	-0.082684025
52	0xbdca62c1	-0.09882117
53	0x3e2686f6	0.16262421
54	0x3d92f86d	0.0717629
55	0x3e3e1f5b	0.18566649
56	0x3d2a789e	0.041618936
57	0xbc353fa6	-0.011062538
58	0xbe1a5c11	-0.15074183
59	0xbdf21617	-0.118206196
60	0x3c2e4b50	0.010638073
61	0x3db435e3	0.087993406
62	0x3d992896	0.07478444
63	0xbe3b4745	-0.18288906
64	0xbc04c6c4	-0.00810403
65	0x3e2551cb	0.16144483
66	0x3da712fb	0.08157917
67	0x3e0a48f3	0.1350439
68	0xbd703671	-0.05864567
69	0x3d2c39ce	0.042047314
70	0xbcebe01a	-0.028793383
71	0xbe2cc0c9	-0.16870417
72	0xbe112850	-0.14175534
73	0xbe344167	-0.17603074
74	0x3e2349f9	0.15946187
75	0x3ce6a40e	0.0281544
76	0x3dc7fd45	0.09765104
77	0xbd20f861	-0.039299373
78	0xbe303972	-0.17209414
79	0xbddfcf51	-0.10928214
80	0x3dccd0e3	0.100007795
81	0x3c6a860c	0.014314186
82	0xbd422af0	-0.04740423
83	0x3cc85b54	0.024457611
84	0xbe070e96	-0.13189158
85	0x3e062694	0.13100654
86	0x3dab1a6f	0.08354651
87	0x3c41325d	0.011791793
88	0x3dd53b4f	0.10411703
89	0x3e30d646	0.17269239
90	0x3ad5d63d	0.0016314458
91	0x3d2347dc	0.039863452
92	0x3e1eb642	0.15499213
93	0x3cf111f2	0.029427502
94	0xbd174e42	-0.036939867
95	0x3bb34eab	0.0054720244
96	0x3e292d8d	0.16521282
97	0xbe26c8e2	-0.16287568
98	0x3e2e7db9	0.17040147
99	0x3e36a9e2	0.17838243
100	0x3eae3214	0.34022582
101	0x3ed1d153	0.40980014
102	0xbd2bc2e6	-0.041933917
103	0x3de7cf67	0.11318856
104	0x3c0de390	0.008660212
105	0x3b99aa38	0.004689481
106	0xbe955e72	-0.2917362
107	0x3d05c8f8	0.03266236
108	0xbdf7f4a8	-0.12107211
109	0xbe90655c	-0.2820233
110	0x3e9477dd	0.28997698
111	0xbdae45ee	-0.08509432
112	0x3d9a119d	0.07522891
113	0x3e96028c	0.29298818
114	0xbdd8afb8	-0.10580391
115	0xbe935744	-0.28777516
116	0x3e408b85	0.18803222
117	0xbd4e9489	-0.050434623
118	0x3e189753	0.14901476
119	0xbc41230e	-0.011788143
120	0x3e8b72e3	0.2723609
121	0xbd674732	-0.05646438
122	0xbdbf7e08	-0.093502104
123	0x3e659a14	0.22422057
124	0x3dd9a0fa	0.10626407
125	0x3d4fa2b9	0.050692294
126	0x3e800cb1	0.25009683
127	0xbe23d43a	-0.15998927
128	0xbd08ce52	-0.033399887
129	0xbcd23487	-0.025659813
130	0x3dc330f1	0.09530819
131	0xbd66c7d8	-0.05634293
132	0x3dfd3b5b	0.12364837
133	0x3e1993c2	0.14997771
134	0x3e1e38c1	0.15451337
135	0x3d5baf3a	0.053633906
136	0xbd8fb84c	-0.07017574
137	0xbdbf26b2	-0.093335524
138	0xbe03be69	-0.12865604
139	0xbd06b594	-0.03288801
140	0x3da3d2a4	0.07999161
141	0x3e1688ef	0.14700674
142	0xbdb8dd9c	-0.09026644
143	0xbe1703ae	-0.14747497
144	0xbdd785f5	-0.10523597
145	0xbd00066d	-0.031256128
146	0x3e080319	0.13282432
147	0x3e0fe927	0.14053784
148	0xbda58957	-0.08082836
149	0xbddb07a6	-0.10694818
150	0x3d84dcd8	0.06487435
151	0x3df0708f	0.11740219
152	0xbda4af39	-0.080412336
153	0xbd165dc3	-0.036710512
154	0xbce7261b	-0.028216412
155	0xbe35e559	-0.1776327
156	0x3c234368	0.009964801
157	0x3e451b9d	0.19248815
158	0x3c96d63c	0.018412702
159	0xbd838fc3	-0.06423905
160	0xbd916411	-0.07099164
161	0xbe2b4b64	-0.16727978
162	0xbe0e8626	-0.13918361
163	0x3d99af6c	0.07504162
164	0x3da13981	0.07872296
165	0xbe089ee3	-0.1334186
166	0xbd79db9f	-0.061000463
167	0xbe33da0e	-0.1756365
168	0xbdba2912	-0.09089865
169	0x3ddf29b6	0.108966276
170	0x3d8a63cb	0.06757315
171	0x3b3c99b9	0.002877815
172	0xbc97493f	-0.018467544
173	0xbe1fc2a3	-0.15601592
174	0x3e214e6e	0.15752575
175	0xbc93771c	-0.018001132
176	0x3d350ca6	0.044201516
177	0xbda880ff	-0.08227729
178	0x3dd22b03	0.1026211
179	0x3db329af	0.08748185
180	0xbdf864bf	-0.12128591
181	0x3dcdb3c3	0.100440525
182	0xbd861d00	-0.065485
183	0xbc0e7a3c	-0.008696135
184	0x3b9aeabf	0.004727691
185	0xbe3633c6	-0.17793187
186	0xbd202774	-0.039100125
187	0x3cb8b45a	0.022546936
188	0xbd7320b5	-0.059357364
189	0x3e2d53d3	0.16926508
190	0xbe1d6a4b	-0.15372579
191	0xbc9edff2	-0.019393895
192	0x3cf64495	0.030062
193	0xbe45dfe5	-0.1932369
194	0x3daeda69	0.08537752
195	0x3d91fc41	0.07128192
196	0x3db2cc5a	0.08730383
197	0x3e01d315	0.12678178
198	0xbc70d9c3	-0.014700356
199	0xbe41386f	-0.18869184
200	0xbde4d3d5	-0.11173216
201	0xbdff1aa5	-0.12456254
202	0x3d8be1ac	0.06830153
203	0x3d49ec84	0.049297825
204	0x3b959660	0.0045650452
205	0x3e104a11	0.14090754
206	0xbc0a4777	-0.00843989
207	0xbb5b8b0d	-0.0033499629
208	0x3b4e41c8	0.0031472314
209	0x3e5c06cf	0.21486972
210	0xbe19a052	-0.15002564
211	0xbd0b2a4b	-0.03397588
212	0x3c459036	0.012058308
213	0x3e5bdab3	0.21470146
214	0xbddde969	-0.10835535
215	0x3e648095	0.22314675
216	0x3e12733d	0.14301772
217	0xbca89668	-0.020579532
218	0xbd1a24af	-0.03763264
219	0xbad2ff89	-0.0016097884
220	0xbd029e37	-0.031889167
221	0x3d90eb12	0.07076086
222	0xbde238a8	-0.110459626
223	0x3e055f79	0.13024701
224	0x3e2e22cf	0.17005466
225	0xbdbdd79b	-0.09269639
226	0xbd747c8d	-0.059689093
227	0x3d7777d5	0.060417015
228	0x3df11616	0.11771791
229	0x3e76fc3c	0.24119657
230	0xbe24ca9b	-0.16092913
231	0x3e359cd9	0.17735614
232	0x3dc440b9	0.09582657
233	0xbd3455b3	-0.04402704
234	0x3d1d7791	0.038444106
235	0xbd8f85cc	-0.070079416
236	0xbe1acc05	-0.1511689
237	0xbdfb84a5	-0.12281159
238	0x3d9c57c9	0.07633931
239	0x3d5ab73c	0.053397402
240	0xbce5f260	-0.028069675
241	0x3d6c314c	0.0576642
242	0xbdc000c1	-0.09375144
243	0x3d86644c	0.06562099
244	0x3ccfa064	0.025345035
245	0xbdf7a571	-0.12092102
246	0xbd4f3fc2	-0.050597914
247	0xbe581172	-0.21100405
248	0x3d5bd7a5	0.05367245
249	0xbde97575	-0.11399356
250	0x3e06bae1	0.13157226
251	0xbe09c231	-0.13452984
252	0x3b17aa98	0.0023142453
253	0x3d7357f6	0.059410058
254	0x3d7967aa	0.060889877
255	0x3d703fcb	0.058654588

dest_lstm_obs.bias_ih_l0 f4 [128]
0	0xbe2e73ec	-0.17036408
1	0x3e2794b0	0.16365314
2	0x3d6b6414	0.05746849
3	0xbea7ca6e	-0.3277163
4	0x3e09208b	0.1339132
5	0x3e3e8b95	0.18607934
6	0xbe7c24b5	-0.24623378
7	0xbe051ae2	-0.12998536
8	0x3d957de2	0.07299401
9	0xbd23dad6	-0.04000362
10	0x3d96b9fd	0.07359693
11	0xbdc7d518	-0.09757441
12	0xbb3856aa	-0.0028127828
13	0xbe0a5277	-0.1350802
14	0xbd2742fb	-0.040835362
15	0xbdb19d87	-0.08672624
16	0xbc4d2dff	-0.012523173
17	0xbdc7e00d	-0.09759531
18	0xbca48067	-0.020080758
19	0x3cbe80b1	0.023254724
20	0x3c491b8f	0.012274637
21	0x3ddda89a	0.10823174
22	0xbdcb07cf	-0.09913599
23	0xbdca1fb0	-0.09869325
24	0xbd8f632f	-0.0700134
25	0xbd17021d	-0.03686725
26	0x3d779e08	0.060453445
27	0x3e2525f0	0.16127753
28	0xbe40ebee	-0.1884
29	0xbdf5a8ea	-0.119951084
30	0xbe29fcde	-0.16600367
31	0x3c272918	0.010202669
32	0xbd844dcd	-0.06460152
33	0x3d865b62	0.06560399
34	0xbdfd8aff	-0.12380027
35	0xbe43b433	-0.1911171
36	0x3d753f40	0.059874773
37	0xbd52a52f	-0.051427063
38	0xbcdd6111	-0.027023824
39	0x3dd09f50	0.101866364
40	0xbda2779e	-0.079329714
41	0xbe5e9a04	-0.2173844
42	0xbe644b87	-0.22294436
43	0x3d1b5ce8	0.0379304
44	0xbe22fbaf	-0.15916322
45	0x3de90898	0.11378592
46	0x3d87c97c	0.06630227
47	0xbe7c5f46	-0.24645719
48	0xbd98fae3	-0.07469728
49	0xbdc64457	-0.096810035
50	0x3be1e651	0.006893911
51	0xbe267a37	-0.16257559
52	0xbe35dc29	-0.17759766
53	0xbd5cce79	-0.053907845
54	0xbd884a9c	-0.066548556
55	0x3cd96a9b	0.026540091
56	0xbe298f5e	-0.16558596
57	0x3df831ad	0.1211885
58	0x3d893111	0.06698812
59	0x3d47d2ca	0.04878501
60	0xbbac241c	-0.005253328
61	0x3dd145c8	0.10218388
62	0xbdb047b7	-0.086074285
63	0x3df6bd12	0.12047781
64	0xbe349e4a	-0.17638507
65	0xba708328	-0.0009174817
66	0xbe62941b	-0.2212681
67	0x3e092e24	0.13396508
68	0xbe369118	-0.17828786
69	0xbe92625a	-0.2859066
70	0xbcffd0b9	-0.031227456
71	0xbc33f939	-0.010984712
72	0xbd088cab	-0.033337276
73	0xbe2acdfa	-0.16680136
74	0x3dcd58df	0.100267164
75	0xbd9adf40	-0.07562113
76	0x3dac9413	0.084266804
77	0x3cc7da53	0.024396097
78	0xbbbc0bf4	-0.0057387296
79	0x3e0f60ff	0.14001845
80	0xbe18ec88	-0.1493398
81	0xbe5a6128	-0.21326125
82	0x3c94f52a	0.01818331
83	0x3e877419	0.26455763
84	0xbdac3029	-0.08407623
85	0x3d09b9e1	0.033624534
86	0x3d6009d3	0.05469687
87	0x3d4149de	0.047189586
88	0xbdaadd7c	-0.08343026
89	0xbe1cb5a0	-0.1530366
90	0xbe3484c1	-0.17628767
91	0xbe46bf91	-0.19409014
92	0xbcbf282d	-0.023334587
93	0x3e043007	0.12908946
94	0x3e13ef31	0.14446713
95	0x3e6f0a39	0.23343743
96	0xbcc9ac75	-0.024618367
97	0x3dc32406	0.09528355
98	0x3e01cf26	0.12676677
99	0xbc0e5ce4	-0.008689139
100	0xbdc2970c	-0.09501466
101	0xbd0ac5bd	-0.033879984
102	0xbc2b6514	-0.010461111
103	0xbde0ccd6	-0.10976569
104	0x3dea33a9	0.11435635
105	0x3bebd482	0.0071969638
106	0x3de5248e	0.11188613
107	0xbde641d8	-0.112430274
108	0xbd6186ba	-0.055060126
109	0x3de88d17	0.11355036
110	0xbe12d925	-0.14340647
111	0x3cc9b6ed	0.024623359
112	0xbdd14b3f	-0.1021943
113	0xbdcbee3a	-0.099575475
114	0x3e1402e9	0.14454235
115	0xbdc36f6b	-0.09542736
116	0xbde5ef0e	-0.11227237
117	0xbddf2978	-0.108965814
118	0x3d05628c	0.032564685
119	0xbda6375d	-0.081160285
120	0x3dea513a	0.11441274
121	0x3dd11c0d	0.102104284
122	0xbe1ef583	-0.15523343
123	0x3d5e87c4	0.054328695
124	0xbdaf8f32	-0.08572234
125	0xbd9197c5	-0.07109026
126	0xbc544d5d	-0.012957898
127	0xbd1cf1c0	-0.03831649

dest_lstm_obs.bias_hh_l0 f4 [128]
0	0xbdb68152	-0.08911385
1	0xbdf2e52a	-0.11860116
2	0xbd9b0a09	-0.075702734
3	0xbe227a5d	-0.1586699
4	0xbdc8ec09	-0.09810645
5	0xbe1f44e4	-0.15553623
6	0xbe397f6a	-0.18115011
7	0xbd4afad6	-0.049555622
8	0xbcbb3499	-0.022852229
9	0x3ccb9b0d	0.024854207
10	0xbe299111	-0.16559245
11	0x3d9813de	0.07425664
12	0x3da90af2	0.08254041
13	0xbd9a30fd	-0.07528875
14	0xbe16ca2c	-0.1472556
15	0x3d4f7827	0.050651696
16	0xbe73a046	-0.23791608
17	0x3d1037e6	0.03520956
18	0x3db51b70	0.08843124
19	0x3d7c6958	0.0616239
20	0x3cf8a828	0.03035362
21	0xbda8f14f	-0.08249151
22	0xbe0c5ffb	-0.13708489
23	0x3d94954a	0.07255037
24	0x3cace1b4	0.021103717
25	0xbd4654fa	-0.048420884
26	0x3dc70fb4	0.09719792
27	0x3d4f2f6b	0.05058233
28	0xbd80873c	-0.06275794
29	0xbe399c5e	-0.18126056
30	0xbdbc3be3	-0.0919111
31	0x3e11e110	0.14246011
32	0x3e0d1045	0.13775738
33	0x3dc1cb5c	0.09462616
34	0x3d031822	0.032005437
35	0xbd864440	-0.065559864
36	0x3d45f5e2	0.048330195
37	0x3e0f8e75	0.14019187
38	0xbe16b439	-0.14717187
39	0xbc198743	-0.009370628
40	0xbe509440	-0.20369053
41	0xbd8ec665	-0.069714345
42	0xbe3908fe	-0.18069836
43	0x3dd05726	0.10172872
44	0xbd3433dc	-0.04399477
45	0xbd13a313	-0.03604419
46	0x3dd55a4f	0.104176156
47	0xbd0f3d6b	-0.034970682
48	0xbc627f81	-0.013824345
49	0x3dadba9f	0.08482861
50	0xbbb456df	-0.00550352
51	0xbd30237f	-0.0430026
52	0x3d1365f7	0.035985913
53	0xbdbd9d60	-0.092585325
54	0xbc99fcb8	-0.018797264
55	0xbe869414	-0.2628485
56	0x3df2c116	0.118532345
57	0xbdd35eb7	-0.103208
58	0xbdf6e3d8	-0.120551765
59	0xbd91b6d2	-0.07114948
60	0xbe706408	-0.23475659
61	0x3e0b4911	0.13602091
62	0x3b18960d	0.0023282797
63	0xbd92fad5	-0.07176749
64	0x3d9634b6	0.073342726
65	0x3e37b202	0.17938998
66	0xbe67a443	-0.22621255
67	0xbddcbf7f	-0.107787125
68	0x3db0da2e	0.086353645
69	0xbdd190fe	-0.10232733
70	0xbd04c75e	-0.032416694
71	0x3bd6f55f	0.006560012
72	0xbd8674c5	-0.06565241
73	0x3e25e463	0.16200404
74	0x3e2af8ad	0.16696425
75	0xbe717494	-0.23579627
76	0xbd656952	-0.056008644
77	0xbdee7630	-0.11643636
78	0xbd5af504	-0.05345632
79	0xbdcee188	-0.101016104
80	0xbd38a129	-0.04507557
81	0xbe1a115d	-0.15045686
82	0x3df533ee	0.119727954
83	0x3e4f2e21	0.2023244
84	0xbe80e547	-0.25174925
85	0x3da2e644	0.07954076
86	0xbe7da783	-0.24770932
87	0x3c92e2ba	0.017930377
88	0xbe258a58	-0.16166055
89	0xbe0773cf	-0.13227771
90	0x3b77dc52	0.003782053
91	0x3c8b6d1d	0.017019803
92	0x3deae399	0.11469192
93	0x3d831eec	0.06402382
94	0x3d75e70b	0.060034793
95	0x3e78d219	0.24298896
96	0x3d1f43e1	0.038883094
97	0xbdde4077	-0.108521394
98	0x3ddcb671	0.107769854
99	0x3deb1a55	0.11479632
100	0xbe3fd9c7	-0.18735419
101	0xbdcb8324	-0.099371225
102	0xbd69241b	-0.0569192
103	0x3d3adda8	0.045621544
104	0x3d336446	0.0437968
105	0xbd84146b	-0.06449207
106	0x3c63aa69	0.013895609
107	0x3dd348aa	0.10316594
108	0x3c555b71	0.01302229
109	0xbab67941	-0.0013921635
110	0xbd9cf1e7	-0.07663327
111	0xbe24a1e9	-0.16077389
112	0xbd6f2ea2	-0.058394082
113	0x3e5342bb	0.20630924
114	0xbdd0a664	-0.101879865
115	0xbc3a7868	-0.011381246
116	0xbdf8d5ba	-0.1215014
117	0x3d450002	0.04809571
118	0x3dd705e4	0.104991704
119	0x3b532b08	0.0032221694
120	0x3df98489	0.12183482
121	0xbd95c033	-0.0731205
122	0xbe1c6158	-0.15271509
123	0x3e1964bd	0.14979835
124	0xbca761ef	-0.02043244
125	0x3d3e1f68	0.04641667
126	0xbd1bff52	-0.03808529
127	0xbd4e9389	-0.05043367
