src/results/experiment_20250713_122542/centralized/do_tp_centralized_final.pt (torch, 156693 bytes, 26 tensors)

linear_enc.weight f4 [64, 2]
-0.5358135 -0.929238 0.7306179 0.15289728 -0.35443223 -0.4449427 -0.4546323 -0.049790595
-0.6546652 0.24429889 0.61047643 0.32937652 0.8450562 0.98001194 0.31870514 -0.13676444
0.641935 0.14741051 -0.16675876 0.51005745 0.5682531 0.6582121 -0.64735585 0.45280868
-0.477608 0.4969336 0.44658244 0.72943574 -0.10721487 0.7506771 0.35927597 -0.3145365
-0.5191396 0.50831455 0.41890892 -0.29074502 0.47431377 0.4750635 -0.45743695 0.1427544
0.4807967 -0.2560927 -0.3542252 0.7817329 -0.27041507 0.3668395 -0.055851977 -0.13147078
0.7029979 -0.3285568 -0.21194687 0.48004913 0.16820587 0.7961494 0.49374914 -0.3438603
0.2849893 0.046929218 0.23261826 -0.50367266 0.3703004 -0.70041704 0.33133262 -0.5117228
0.8145102 0.4990074 -0.267024 0.31796828 -0.5918786 -0.18368179 0.21486565 -0.10347124
0.24438709 -0.6109012 0.6268962 -0.69607747 0.6133287 0.25190496 -0.16427214 0.07936952
0.7801917 0.655308 0.021637324 0.74104077 -0.5934968 -0.65995884 -0.5539557 0.83704984
-0.5863085 0.22034521 0.7873127 0.07958854 -0.02783719 0.6102564 0.053629175 -0.8261259
-0.52277756 -0.67548215 0.089543186 -0.4324584 0.11876337 0.71296465 0.048421748 -0.81289595
-0.062595986 -0.4007577 -0.43144837 0.33378163 -0.29117367 -0.08224572 0.7347871 0.08443809
0.7112742 0.57984596 -0.39475805 -0.49456513 -0.32930315 0.56452554 0.030981708 0.5054797
0.16362709 -0.95014834 -0.020421358 0.84910685 -0.5012466 -0.91420203 -0.27785313 -0.38485643
00000000: 132b 09bf 8be2 6dbf c609 3b3f 1b91 1c3e
00000010: 2478 b5be 88cf e3be 91c5 e8be 39f1 4bbd
00000020: 2398 27bf 7d29 7a3e 2f48 1c3f 0aa4 a83e
00000030: 9a55 583f 10e2 7a3f 522d a33e fa0b 0cbe
00000040: da55 243f c8f2 163e cfc2 2abe 2093 023f
00000050: 0979 113f 9780 283f 1db9 25bf 8ad6 e73e
00000060: 0989 f4be 156e fe3e 74a6 e43e 4dbc 3a3f
00000070: 7893 dbbd 602c 403f 05f3 b73e ee0a a1be
00000080: 55e6 04bf e720 023f 3b7b d63e 88dc 94be
00000090: 41d9 f23e 863b f33e 2d35 eabe 362e 123e
000000a0: fc2a f63e 951e 83be 015d b5be a61f 483f
000000b0: d873 8abe 63d2 bb3e 0bc5 64bd 47a0 06be
000000c0: acf7 333f 9938 a8be 9a08 59be 00c9 f53e
000000d0: 293e 2c3e 72d0 4b3f b0cc fc3e 750e b0be
000000e0: 1eea 913e da38 403d 7b33 6e3e b1f0 00bf
000000f0: 0498 bd3e 884e 33bf 6ea4 a93e 4400 03bf
00000100: be83 503f e67d ff3e 5fb7 88be bdcc a23e
00000110: 5b85 17bf 1417 3cbe be05 5c3e bbe8 d3bd
00000120: 9c40 7a3e 0564 1cbf 457c 203f 2232 32bf
00000130: 1c03 1d3f b0f9 803e f536 28be 7d8c a23d
00000140: a5ba 473f 44c2 273f c240 b13c d9b4 3d3f
00000150: 68ef 17bf 10f3 28bf 0ad0 0dbf e648 563f
00000160: 5018 16bf 2da2 613e 538d 493f 51ff a23d
00000170: d20a e4bc c339 1c3f 44aa 5b3d fd7c 53bf
00000180: c0d4 05bf 66ec 2cbf 6b62 b73d 306b ddbe
00000190: 363a f33d da84 363f e255 463d f319 50bf
000001a0: 5332 80bd 1d30 cdbe cde6 dcbe 6de5 aa3e
000001b0: b714 95be 7270 a8bd 021b 3c3f e1ed ac3d
000001c0: 1116 363f c970 143f ba1d cabe a437 fdbe
000001d0: 6c9a a8be bf84 103f 5acd fd3c 1e67 013f
000001e0: dc8d 273e ec3c 73bf b14a a7bc 115f 593f
000001f0: b251 00bf 2509 6abf c442 8ebe e70b c5be

linear_enc.bias f4 [64]
-0.3609823 -0.057807308 -0.6029702 0.14020476 0.61769944 0.67344487 -0.41664028 -0.5777202
0.060382266 0.17405841 0.22971715 0.019045286 0.52147496 0.35930106 0.087023914 -0.08331133
-0.60141766 0.37168357 -0.60923684 -0.2336792 0.0739482 0.19252507 -0.35790646 0.1479495
-0.6653783 -0.5104969 -0.22402547 -0.3211083 0.6462208 -0.06175537 -0.25106975 -0.68911546
0.05556982 -0.40958777 -0.31096232 0.3262868 0.25217128 -0.02426374 -0.6886447 -0.5488818
-0.14758167 -0.7012082 0.31175894 0.09437363 0.34143126 0.49676213 -0.45732328 0.21694772
-0.69709796 0.6643475 0.4505998 -0.441893 -0.64115 0.6122469 0.42204115 -0.05268326
-0.27674142 -0.65096587 -0.26630467 0.28975546 -0.19970092 0.1907773 0.03228314 -0.35111216
00000000: acd2 b8be 5bc7 6cbd 415c 1abf d691 0f3e
00000010: 8d21 1e3f e266 2c3f e051 d5be 79e5 13bf
00000020: 6553 773d 5e3c 323e f93a 6b3e dc04 9c3c
00000030: 627f 053f 4ff6 b73e 9839 b23d 219f aabd
00000040: 82f6 19bf 4f4d be3e f2f6 1bbf 9a49 6fbe
00000050: 2772 973d 4b25 453e 843f b7be 1380 173e
00000060: 3b56 2abf edaf 02bf ef66 65be 4f68 a4be
00000070: ba6e 253f 33f3 7cbd 378c 80be df69 30bf
00000080: 2e9d 633d 7db5 d1be 7436 9fbe 100f a73e
00000090: 981c 813e c0c4 c6bc 054b 30bf 8583 0cbf
000000a0: a61f 17be 6182 33bf de9e 9f3e f646 c13d
000000b0: 14d0 ae3e 9b57 fe3e 4726 eabe 8b27 5e3e
000000c0: 0375 32bf ae12 2a3f 04b5 e63e cd3f e2be
000000d0: 6822 24bf 36bc 1c3f c715 d83e 67ca 57bd
000000e0: 0db1 8dbe b3a5 26bf 1659 88be d45a 943e
000000f0: 667e 4cbe 205b 433e 533b 043d f9c4 b3be

encoder_lstm.weight_ih_l0 f4 [128, 64]
0.082087345 0.24647605 0.06560594 -0.13762486 0.049385965 -0.114175305 0.10108444 0.15161473
-0.058678262 -0.14087102 0.058502667 -0.27054524 0.086665384 -0.0070720213 -0.29621437 0.13868897
-0.14455962 0.11067306 0.05209547 0.027321922 0.16203542 -0.19266972 -0.21158464 -0.026394555
-0.08591215 0.09327472 -0.09323247 0.15363117 0.15447308 0.27881184 0.08036287 0.0793781
-0.009879604 -0.06662967 -0.18805435 -0.018157143 0.13637154 0.20997013 -0.08199815 0.07119787
-0.0019214748 -0.06324033 -0.12706798 -0.24319494 -0.097331196 -0.027195638 -0.0028603575 0.13415875
0.057244476 0.028863652 -0.06954567 0.14540263 0.20245178 0.08466145 -0.04133742 -0.065491036
0.023381429 0.15573308 -0.014831619 0.067300186 0.07823247 -0.11470377 0.04891542 0.06633727
0.04041078 0.013082729 0.06757736 -0.00813673 0.030668704 -0.10122751 -0.058898408 -0.008573797
0.13828205 0.04126342 -0.06487441 0.069507994 0.040455926 0.07493424 -0.028407356 -0.1438801
0.1087372 -0.14050838 0.13016732 -0.07354546 -0.13681953 0.061701037 -0.15253687 0.06663499
-0.13052604 -0.17845051 -0.060644455 0.17453316 0.14897579 -0.03494098 0.041181855 0.0012734112
0.053969517 -0.08029634 -0.02375834 0.020759307 0.012952597 0.03414447 -0.01396558 -0.1284728
-0.13722712 -0.0135915475 0.039009087 -0.068340994 -0.1332728 0.060506392 0.02478368 0.1128016
-0.14120328 0.013104573 0.027072929 -0.14137739 -0.03062089 -0.038167085 0.18373492 -0.057801783
0.05005587 0.13810618 -0.1378296 0.17514417 0.073024176 -0.06510247 0.048050307 -0.016117059
0.12470219 -0.073568985 -0.0058849836 0.22380741 0.10743544 0.17476882 0.012695408 -0.2325714
0.11265152 0.06282559 0.08255152 0.052396286 0.15613526 0.0904866 -0.09110738 0.06963265
-0.27402133 0.06872614 -0.18378983 -0.02674655 0.17818873 -0.020446587 -0.17274612 0.19712456
0.088527255 -0.26084024 -0.24964632 -0.038731243 0.21417823 0.12559612 -0.03997326 -0.09708812
-0.13611884 -0.08970095 -0.20789284 0.05098458 0.1496653 -0.036312647 0.058312707 0.0041489257
-0.020152407 0.02516721 0.06790518 0.18215421 0.21707551 0.073044665 -0.18428363 0.28945893
-0.1424015 0.28489468 0.23735388 -0.14180708 0.0011629942 0.114845954 0.24004398 0.07873069
-0.24402456 -0.005482638 0.02068971 0.20707317 0.0189614 0.06569431 0.036361985 -0.11343453
0.1729815 0.010719845 -0.06150466 0.07137934 -0.029186578 0.16450521 0.08992999 0.10917917
0.1282873 -0.086835936 0.028680159 0.13152789 0.05662291 -0.034483925 -0.06765374 0.013960707
0.13242361 -0.08101859 0.081006795 -0.158543 -0.119153686 -0.106626004 0.103846386 0.16119216
-0.014804482 -0.058428165 0.0018165479 0.0010260695 0.01844317 -0.07425844 -0.10651511 -0.038422346
-0.15126713 0.09691316 -0.0209161 0.07198243 -0.14093222 -0.1834121 0.03868889 -0.05033376
-0.096654624 -0.016360296 0.06063782 0.14443247 0.17853457 0.03699648 -0.1672046 0.16011369
0.09985865 0.01233822 -0.077084355 -0.12309733 -0.06788664 0.06196758 0.19212547 -0.05224434
0.019211626 0.078956224 0.15570737 0.063525304 -0.009908347 0.15067007 0.19590601 -0.12906964
00000000: 691d a83d 3864 7c3e 685c 863d 88ed 0cbe
00000010: f048 4a3d bed4 e9bd 5c05 cf3d e440 1b3e
00000020: 9e58 70bd 7e40 10be 7ea0 6f3d e884 8abe
00000030: 9f7d b13d 6abc e7bb 69a9 97be 7b04 0e3e
00000040: 7007 14be 8fa8 e23d 0f62 553d 39d2 df3c
00000050: 9dec 253e 364b 45be a5a9 58be 6539 d8bc
00000060: b6f2 afbd d106 bf3d aaf0 bebd 7d51 1d3e
00000070: 312e 1e3e 6dc0 8e3e 4a95 a43d fc90 a23d
00000080: 10de 21bc 2375 88bd 5291 40be 4abe 94bc
00000090: fba4 0b3e 6902 573e a5ee a7bd 30d0 913d
000000a0: ffd9 fbba 2584 81bd 1c1e 02be 1808 79be
000000b0: 9455 c7bd 63c9 debc d674 3bbb e960 093e
000000c0: 2f79 6a3d 7773 ec3c f66d 8ebd 6de4 143e
000000d0: 854f 4f3e fb62 ad3d 6d51 29bd 2a20 86bd
000000e0: 698a bf3c 7e78 1f3e 5200 73bc aed4 893d
000000f0: 5838 a03d cfe9 eabd 895b 483d d6db 873d
00000100: c685 253d f158 563c 0066 8a3d eb4f 05bc
00000110: ef3c fb3c 5e50 cfbd 753f 71bd 1c79 0cbc
00000120: cf99 0d3e d503 293d e0dc 84bd 355a 8e3d
00000130: 1db5 253d 1f77 993d 8bb6 e8bc 4e55 13be
00000140: 9cb1 de3d 6ee1 0fbe 954a 053e 019f 96bd
00000150: 6b1a 0cbe 3aba 7c3d a032 1cbe ed77 883d
00000160: 9ea8 05be bbbb 36be 5266 78bd d2b8 323e
00000170: 1c8d 183e 461e 0fbd 4eae 283d 97e8 a63a
00000180: 240f 5d3d 6872 a4bd daa0 c2bc 6c0f aa3c
00000190: 2137 543c 12db 0b3d e3cf 64bc 608e 03be
000001a0: 4485 0cbe 15af 5ebc fec7 1f3d 5df6 8bbd
000001b0: aa78 08be 8dd5 773d 2507 cb3c 8604 e73d
000001c0: 9897 10be 90b4 563c 0cc8 dd3c 3cc5 10be
000001d0: a9d8 fabc 1755 1cbd 0225 3c3e 90c1 6cbd
000001e0: 6207 4d3d b56b 0d3e 3423 0dbe fe58 333e
000001f0: b38d 953d 7254 85bd 66d0 443d ec07 84bc
00000200: dd63 ff3d 56ab 96bd d2d6 c0bb c52d 653e
00000210: 1d07 dc3d 99f6 323e 6700 503c 3227 6ebe
00000220: d7b5 e63d b4aa 803d c510 a93d 7d9d 563d
00000230: ece1 1f3e 0a51 b93d 8296 babd 909b 8e3d
00000240: 864c 8cbe 4ac0 8c3d 6733 3cbe 951b dbbc
00000250: 1b77 363e 9a7f a7bc 5ce4 30be 05db 493e
00000260: c74d b53d da8c 85be 49a3 7fbe a7a4 1ebd
00000270: 8a51 5b3e 459c 003e 00bb 23bd 23d6 c6bd
00000280: bd62 0bbe 22b5 b7bd dce1 54be 35d5 503d
00000290: dc41 193e 92bc 14bd 4ed9 6e3d b6f3 873b
000002a0: a916 a5bc 772b ce3c df11 8b3d a286 3a3e
000002b0: 0b49 5e3e 7198 953d d9b4 3cbe f633 943e
000002c0: b3d1 11be b7dd 913e e50c 733e e035 11be
000002d0: 9c6f 983a 5b34 eb3d 17ce 753e 8e3d a13d
000002e0: 93e1 79be b3a7 b3bb 777d a93c fd0a 543e
000002f0: f054 9b3c bd8a 863d 4ef0 143d 5d50 e8bd
00000300: 1022 313e 4aa2 2f3c 4fec 7bbd 552f 923d
00000310: b118 efbc 0e74 283e 372d b83d 5499 df3d
00000320: bf5d 033e 0ad7 b1bd a7f2 ea3c 3faf 063e
00000330: 6ded 673d 043f 0dbd 0b8e 8abd 73bb 643c
00000340: 0e9a 073e 13ed a5bd e4e6 a53d 1959 22be
00000350: d906 f4bd bc5e dabd 6aad d43d 8f0f 253e
00000360: 808e 72bc 5f52 6fbd 3c19 ee3a 2e7d 863a
00000370: 2116 973c cf14 98bd 9824 dabd c060 1dbd
00000380: c5e5 1abe 687a c63d 3e58 abbc 866b 933d
00000390: 8950 10be 62d0 3bbe 3e78 1e3d c62a 4ebd
000003a0: dcf2 c5bd 0706 86bc 5d5f 783d 1be6 133e
000003b0: c4d1 363e 9f89 173d af37 2bbe d8f4 233e
000003c0: b182 cc3d 3f26 4a3c 67de 9dbd 741a fcbd
000003d0: 2708 8bbd b8d1 7d3d 8abc 443e 29fe 55bd
000003e0: b361 9d3c cdb3 a13d c171 1f3e 8e19 823d
000003f0: 9f56 22bc 4149 1a3e 969b 483e d52a 04be

encoder_lstm.weight_hh_l0 f4 [128, 32]
-0.06049842 0.035761498 0.18268722 -0.12990905 0.1333591 0.04748799 -0.18386722 0.1713897
0.1143309 -0.010519009 -0.013562751 -0.3939912 -0.2173158 -0.14509763 0.07396384 0.044070173
-0.01294985 -0.17073339 0.030310271 0.27494514 -0.037831098 0.02174795 0.11677538 -0.08862559
0.0036747418 0.04265342 -0.16292219 0.10201067 -0.09451638 0.010286942 -0.016147962 -0.15631372
0.067467816 -0.10578608 -0.010062511 0.04617738 0.12506817 0.05856533 0.023190891 -0.1058573
-0.10852854 0.0412137 -0.12793434 -0.11084416 0.026533345 0.13770878 -0.09836176 0.04546244
-0.015018935 -0.164619 0.110011816 0.13471544 0.11487687 -0.020215202 0.18543607 0.06619281
0.10484129 -0.10766049 0.20853159 -0.13147603 -0.17466387 -0.048456527 0.12261568 0.12044285
0.14942987 0.2618185 0.13982724 -0.07041639 -0.09888563 0.1799808 -0.027158316 -0.044316586
-0.06677172 -0.021667438 -0.19980922 -0.04386731 0.05379293 0.26010242 0.05072864 -0.06502683
-0.04119866 -0.20143065 -0.07465283 -0.12873377 -0.0415997 0.13188578 0.2817734 0.059965283
0.15844785 0.058713123 -0.22837551 -0.089093775 0.03709332 -0.09825548 -0.11447603 0.022667624
0.07628283 -0.097390346 0.15560693 0.015762283 -0.06591123 -0.1228974 -0.29834583 0.11601757
-0.10398801 -0.06346059 -0.10076353 -0.07041553 -0.28470662 -0.092343874 0.15831102 0.01410732
0.081896484 -0.02054293 0.051868115 0.13635084 -0.11881418 -0.104315676 0.15113711 -0.03402911
-0.13531435 0.122756906 -0.17153688 -0.06160454 0.08487935 -0.2286163 0.19719042 0.09654398
0.10735147 0.09302563 0.049617995 0.14774416 -0.11400998 0.08161983 0.014706497 0.2245787
0.05655198 0.11586778 -0.13116652 -0.2342615 0.05549829 -0.021485606 -0.18060157 0.16475841
-0.09136661 0.16643602 -0.13340718 -0.08633459 -0.1275309 0.08417385 -0.15122008 -0.13272591
-0.012563149 0.09617981 0.0070216814 -0.097629994 -0.12364942 -0.028235193 0.035267673 -0.031971965
0.3050196 0.0019055052 0.035979353 0.007742825 0.10228264 -0.033613462 0.12806338 -0.16403721
0.018370505 0.08663462 -0.082754515 -0.17005886 -0.23712432 0.1160942 0.049009528 -0.17708676
-0.1352964 -0.13982505 -0.10282314 -0.10040979 0.06834018 0.010338483 0.0102677075 -0.023673138
0.14678133 0.057749968 -0.29193884 -0.15141633 0.1650707 -0.2288556 0.11795483 -0.028662926
0.09151605 0.03819313 -0.2513807 -0.17021681 -0.0967111 0.055222 0.2349102 -0.4036831
0.25292856 -0.0114481365 0.089749955 -0.19615532 -0.12936153 0.100196674 -0.09447329 -0.052083485
0.17828536 -0.25513956 -0.21388552 -0.18409076 0.3142081 0.037610475 0.26589042 -0.052989587
0.32049143 0.2617598 -0.41075602 -0.030306082 0.15678114 -0.026491871 -0.101561286 0.11066983
0.24362701 -0.0016111844 -0.054914013 -0.08789493 -0.14218393 0.19416519 -0.42399278 -0.0031016346
-0.16484343 -0.03736497 -0.078253716 -0.011292756 0.51194423 0.3037084 0.10039832 -0.093550295
0.10493677 0.020080876 -0.06403534 -0.15053138 -0.037820496 0.045640763 -0.009251855 -0.20347905
0.28741118 -0.17323342 -0.23755682 -0.07042897 0.006239566 -0.028210774 0.135921 0.0074664582
00000000: 31cd 77bd a67a 123d 5c12 3b3e e106 05be
00000010: 4a8f 083e c482 423d b047 3cbe c880 2f3e
00000020: 5226 ea3d ec57 2cbc 4d36 5ebc 37b9 c9be
00000030: 0888 5ebe 7994 14be 5b7a 973d ed82 343d
00000040: 9c2b 54bc bcd4 2ebe 3f4d f83c 9cc5 8c3e
00000050: c8f4 1abd c228 b23c ee27 ef3d 5581 b5bd
00000060: f0d3 703b 5ab5 2e3d 13d5 26be f8ea d03d
00000070: ce91 c1bd 908a 283c bb48 84bc b410 20be
00000080: 912c 8a3d 5fa6 d8bd 3bdd 24bc 7e24 3d3d
00000090: df11 003e 33e2 6f3d d3fa bd3c b6cb d8bd
000000a0: 3644 debd b2cf 283d 3801 03be 4302 e3bd
000000b0: 755c d93c 8803 0d3e e471 c9bd d336 3a3d
000000c0: fb11 76bc e291 28be e04d e13d d8f2 093e
000000d0: 9044 eb3d 5a9a a5bc f4e2 3d3e 1990 873d
000000e0: 08b7 d63d 1a7d dcbd 4e89 553e a7a1 06be
000000f0: 16db 32be 5a7a 46bd ee1d fb3d beaa f63d
00000100: 2504 193e 130d 863e df2e 0f3e 7836 90bd
00000110: 8d84 cabd e34c 383e 1e7b debc 4f85 35bd
00000120: 9dbf 88bd e97f b1bc ca9a 4cbe 35ae 33bd
00000130: fa55 5c3d 252c 853e d6c8 4f3d c92c 85bd
00000140: edbf 28bd d643 4ebe 95e3 98bd c9d2 03be
00000150: 7264 2abd 110d 073e 9a44 903e 289e 753d
00000160: 2740 223e 2c7d 703d 45db 69be cc76 b6bd
00000170: 2aef 173d 2b3a c9bd 6972 eabd 74b1 b93c
00000180: 2c3a 9c3d 9774 c7bd 6c57 1f3e e71f 813c
00000190: 78fc 86bd a2b1 fbbd c9c0 98be 9f9a ed3d
000001a0: aaf7 d4bd a0f7 81bd 1c5d cebd 0436 90bd
000001b0: 11c5 91be c91e bdbd 491c 223e 6422 673c
000001c0: 58b9 a73d a649 a8bc a973 543d 8e9f 0b3e
000001d0: d954 f3bd 75a3 d5bd b0c3 1a3e 1c62 0bbd
000001e0: d88f 0abe f967 fb3d 5da7 2fbe 0b55 7cbd
000001f0: 3ad5 ad3d 641a 6abe 49ec 493e dab8 c53d
00000200: 16db db3d 3984 be3d 3d3c 4b3d 3f4a 173e
00000210: 107e e9bd 4c28 a73d 85f3 703c f5f7 653e
00000220: 0da3 673d 164c ed3d 8450 06be 3fe2 6fbe
00000230: 2d52 633d 9502 b0bc 9eef 38be 6eb6 283e
00000240: 6b1e bbbd 346e 2a3e e49b 08be 31d0 b0bd
00000250: 7697 02be 5763 ac3d 70d9 1abe 4de9 07be
00000260: abd5 4dbc ecf9 c43d 2216 e63b 3cf2 c7bd
00000270: e83b fdbd 7e4d e7bc d674 103d 09f5 02bd
00000280: 872b 9c3e 25c2 f93a 165f 133d 86b7 fd3b
00000290: 9079 d13d 45ae 09bd 0c23 033e 5ff9 27be
000002a0: be7d 963c 7e6d b13d 337b a9bd e923 2ebe
000002b0: b8d0 72be ccc2 ed3d 37be 483d 3b56 35be
000002c0: 248b 0abe 4c2e 0fbe f094 d2bd a6a3 cdbd
000002d0: f0f5 8b3d be62 293c e339 283c 2bee c1bc
000002e0: d84d 163e 3b8b 6c3d 0279 95be e20c 1bbe
000002f0: 4b08 293e 1f59 6abe 4d92 f13d 83ce eabc
00000300: c46c bb3d 6670 1c3d f9b4 80be 514d 2ebe
00000310: 7810 c6bd 7730 623d 4d8c 703e 8daf cebe
00000320: da7f 813e f790 3bbc d3ce b73d f1dc 48be
00000330: 5977 04be ea33 cd3d 367b c1bd 7e55 55bd
00000340: 7090 363e a7a1 82be ce04 5bbe 4a82 3cbe
00000350: e2df a03e 710d 1a3d ca22 883e 9c0b 59bd
00000360: 7417 a43e 6105 863e 9d4e d2be 7644 f8bc
00000370: 3c8b 203e 7b05 d9bc 5dff cfbd dda6 e23d
00000380: 5c79 793e 612e d3ba 84ed 60bd 4202 b4bd
00000390: aa98 11be 3dd3 463e 9515 d9be cb44 4bbb
000003a0: b7cc 28be 030c 19bd 7c43 a0bd 4005 39bc
000003b0: c70e 033f ab7f 9b3e a29d cd3d 4c97 bfbd
000003c0: 17e9 d63d a680 a43c f624 83bd e624 1abe
000003d0: aae9 1abd cff1 3a3d 1895 17bc d05c 50be
000003e0: 8f27 933e 1a64 31be 1842 73be 103d 90bd
000003f0: 4675 cc3b 481a e7bc e02e 0b3e 31a9 f43b

encoder_lstm.bias_ih_l0 f4 [128]
0.11355162 -0.030420844 0.2282769 -0.007548342 -0.05424996 0.19692133 0.25009835 -0.09899936
-0.117363766 -0.12027966 0.09566071 0.25486508 0.20398164 0.14521095 0.12310738 -0.16843326
0.20884162 0.14520559 -0.055613104 0.020774405 0.039076705 0.036908444 0.11091314 0.09508098
0.12083527 0.071246065 0.010388569 0.077019975 0.10845383 0.06854969 -0.046334732 -0.13269432
0.07907081 0.12017444 0.08975524 0.028775312 0.0044733547 -0.14875627 0.0015252765 -0.099154875
-0.046170246 -0.010646625 -0.036285747 -0.014675034 -0.0962812 -0.06962615 -0.21348317 0.02521329
-0.017054293 0.010160836 0.14338768 -0.030492585 -0.09815605 0.16339293 0.06336356 0.046708014
-0.089161105 -0.11383991 0.10713015 -0.16834295 0.033892214 0.14486128 0.09567653 0.1473598
0.10400343 0.026227266 0.043772846 0.13508071 -0.10709735 -0.14993653 0.12289252 0.07129394
0.112825565 -0.0376224 -0.13842951 -0.09418518 -0.0042232755 0.11956057 -0.04164262 0.07774586
0.055508792 -0.04070018 -0.18021715 0.1712388 0.062293738 -0.002459661 -0.024840517 0.02061794
-0.042679004 -0.113272704 -0.14343244 -0.116388485 -0.12357213 -0.12801468 0.1042557 0.122935496
-0.0111444825 0.097131 0.24942061 -0.17017254 -0.05302747 0.09283814 -0.00022151828 0.22522275
-0.12682095 -0.09715272 0.12287917 -0.010280721 0.26912946 -0.039143845 -0.08721843 -0.04794574
-0.057660047 -0.09836122 0.034760423 0.017882677 0.2095896 0.118946776 -0.034404706 0.13542408
0.004442428 0.10449815 -0.04832291 -0.11763069 -0.063621424 -0.051589575 0.0078100413 0.15910764
00000000: c08d e83d 2235 f9bc 6bc1 693e 1558 f7bb
00000010: 3535 5ebd bfa5 493e e40c 803e 2dc0 cabd
00000020: 6a5c f0bd 2f55 f6bd c3e9 c33d ad7d 823e
00000030: 90e0 503e 2eb2 143e b91f fc3d c579 2cbe
00000040: 94da 553e c6b0 143e 91ca 63bd 162f aa3c
00000050: e50e 203d 4f2d 173d 6e26 e33d d1b9 c23d
00000060: 7b78 f73d 75e9 913d d134 2a3c a6bc 9d3d
00000070: 0b1d de3d c863 8c3d 7dc9 3dbd 05e1 07be
00000080: e0ef a13d 041e f63d 98d1 b73d 34ba eb3c
00000090: 3895 923b 9053 18be c9eb c73a b611 cbbd
000000a0: 031d 3dbd 2f6f 2ebc 5da0 14bd 8e6f 70bc
000000b0: 142f c5bd 2898 8ebd 559b 5abe 1a8c ce3c
000000c0: 72b5 8bbc a379 263c 38d4 123e 96cb f9bc
000000d0: 0a06 c9bd 7a50 273e c1c4 813d e750 3f3d
000000e0: 199a b6bd e624 e9bd 0d67 db3d 1862 2cbe
000000f0: 90d2 0a3d 8456 143e 0ef2 c33d 7de5 163e
00000100: c0ff d43d 90da d63c 284b 333d 9952 0a3e
00000110: db55 dbbd f688 19be 13af fb3d 8f02 923d
00000120: 1711 e73d f219 1abd 77c0 0dbe 29e4 c0bd
00000130: 6763 8abb 2cdc f43d 7491 2abd 3939 9f3d
00000140: 305d 633d 3bb5 26bd d88a 38be 3959 2f3e
00000150: b827 7f3d 4432 21bb 577e cbbc f4e6 a83c
00000160: 2ed0 2ebd 85fb e7bd f4df 12be 165d eebd
00000170: 6313 fdbd 4816 03be 0384 d53d 9bc5 fb3d
00000180: 5997 36bc 9eec c63d 1e68 7f3e b641 2ebe
00000190: 5533 59bd ec21 be3d 5c47 68b9 cba0 663e
000001a0: 5add 01be 01f8 c6bd 13a8 fb3d 7870 28bc
000001b0: 56cb 893e 4c55 20bd 949f b2bd c162 44bd
000001c0: f12c 6cbd 9b71 c9bd f260 0e3d b17e 923c
000001d0: a89e 563e 5e9a f33d f3eb 0cbd 9cac 0a3e
000001e0: c991 913b 2003 d63d 3eee 45bd 5ce8 f0bd
000001f0: f34b 82bd 974f 53bd 60eb ff3b 1ded 223e

encoder_lstm.bias_hh_l0 f4 [128]
-0.13620694 -0.14165981 0.18201569 -0.017893897 -0.14470313 -0.0712187 0.31085104 0.10783468
0.09384265 0.16124211 0.046886694 -0.026516007 0.21866575 0.17539197 0.13151865 0.027046256
0.2530567 0.07926457 -0.13513653 0.081541024 -0.09485882 0.1629312 -0.06947933 -0.011327393
-0.10735217 -0.12721115 -0.029150616 0.15093152 -0.07259769 0.09121683 -0.0492366 -0.13557385
0.14423873 0.030807665 0.0053414432 0.03268155 0.021721527 -0.11393794 -0.18865982 -0.045911122
-0.0336428 -0.09419906 -0.058862723 -0.25482348 -0.10080386 0.09941921 -0.09150205 -0.09924793
0.09181238 0.17794374 0.16347387 -0.08114814 0.051090024 0.20433103 0.1491325 -0.09559944
-0.15306658 -0.04472015 0.031059306 0.13174531 0.16797355 -0.02850162 0.024231065 0.15567961
0.13578366 0.06044161 -0.07235122 -0.09832119 -0.114432625 0.09508039 0.1515836 0.14525113
0.081861824 0.16619842 -0.047524102 0.019869057 -0.014455847 -0.11846846 -0.18392615 -0.108902864
-0.13010737 -0.14488144 -0.105537444 -0.1338373 0.11671945 0.07403274 0.13735448 -0.11966713
-0.11400916 -0.08906797 0.16882455 -0.13372816 -0.022483293 -0.08356277 -0.054875452 0.08760198
0.1599172 0.10679474 0.022203013 0.06532379 -0.13569692 0.037691988 0.11042385 0.08934687
0.14022377 -0.16411042 0.21578805 0.0963035 0.029852511 -0.15463707 -0.09599659 0.033061158
0.058415085 -0.08842346 -0.12989111 -0.04254463 -0.029523935 -0.033698644 0.073489815 -0.107317165
-0.14769009 0.102167726 -0.057806507 0.061970763 -0.03922696 0.0045877867 -0.05437349 0.02148184
00000000: d579 0bbe 450f 11be 5262 3a3e 3996 92bc
00000010: 0f2d 14be 1cdb 91bd de27 9f3e 6ed8 dc3d
00000020: 9330 c03d a71c 253e 430c 403d 1938 d9bc
00000030: eae9 5f3e f499 333e d3ac 063e 1c90 dd3c
00000040: a690 813e 7655 a23d 3b61 0abe fbfe a63d
00000050: 5745 c2bd 70d7 263e 2e4b 8ebd 8896 39bc
00000060: 74db dbbd a443 02be 46cd eebc cb8d 1a3e
00000070: 19ae 94bd e4cf ba3d 51ac 49bd dfd3 0abe
00000080: 51b3 133e 5b60 fc3c 4607 af3b 17dd 053d
00000090: 58f1 b13c 4b58 e9bd 0a30 41be 4d0d 3cbd
000000a0: 08cd 09bd 70eb c0bd 0a1a 71bd 3978 82be
000000b0: 4172 cebd 4c9c cb3d 6d65 bbbd 8042 cbbd
000000c0: 2108 bc3d e236 363e b265 273e ff30 a6bd
000000d0: c643 513d 273c 513e 31b6 183e a4c9 c3bd
000000e0: 7cbd 1cbe 7a2c 37bd 1670 fe3c 3ee8 063e
000000f0: 4201 2c3e 3b7c e9bc 3a80 c63c 7a6a 1f3e
00000100: df0a 0b3e 9f91 773d e02c 94bd 9f5c c9bd
00000110: a75b eabd 82b9 c23d bb38 1b3e b6bc 143e
00000120: 2ca7 a73d eb2f 2a3e a2a8 42bd 6fc4 a23c
00000130: 38d8 6cbc 989f f2bd 2357 3cbe 7708 dfbd
00000140: de3a 05be cd5b 14be 0424 d8bd a50c 09be
00000150: 9b0a ef3d 7a9e 973d a7a6 0c3e 0a14 f5bd
00000160: a27d e9bd 4569 b6bd 58e0 2c3e 09f0 08be
00000170: e22e b8bc f522 abbd 15c5 60bd ab68 b33d
00000180: 56c1 233e 33b7 da3d 18e3 b53c 7bc8 853d
00000190: 22f4 0abe ea62 1a3d e625 e23d 7efb b63d
000001a0: d296 0f3e 900c 28be 8bf7 5c3e c53a c53d
000001b0: 418d f43c 2e59 1ebe dc99 c4bd 236b 073d
000001c0: a844 6f3d 5c17 b5bd 2d02 05be 4743 2ebd
000001d0: 2edc f1bc 9707 0abd d481 963d 1ac9 dbbd
000001e0: 123c 17be 503d d13d 84c6 6cbd 0ed5 7d3d
000001f0: 73ac 20bd 2555 963b bdb6 5ebd affa af3c

dest_lstm_obs.weight_ih_l0 f4 [128, 2]
-0.10865992 0.15474074 -0.038095545 0.10058553 -0.033517145 -0.026774323 0.02424044 0.065224715
0.009729167 -0.037166536 -0.009663113 0.058320202 -0.053230617 -0.08279716 -0.107015885 -0.12684806
0.019683156 0.043133155 -0.14360632 0.051848117 0.019721244 -0.09816777 -0.010898093 0.0664709
0.023151232 0.03386021 -0.012298539 -0.03448227 0.0067216577 -0.12055621 0.016244866 -0.09707779
-0.06818488 -0.049828462 0.041996025 -0.05063679 0.059339155 0.083570294 0.013340904 0.007044861
0.013447334 0.01037212 -0.13008817 -0.11725055 0.0036724557 -0.18100382 -0.13835174 0.04192684
-0.04151358 0.037640855 -0.1048552 0.023044834 0.06818412 -0.14760248 -0.03993433 -0.033725113
-0.01221624 0.04509225 -0.18139863 -0.008988398 -0.07781704 0.0843451 -0.04984833 -0.046363264
0.023903685 -0.10439001 0.018616488 -0.052093957 0.058233943 0.018526198 -0.16530679 0.029181639
-0.1862275 0.092071086 0.019048002 -0.19549699 -0.024397539 -0.070373565 -0.16032669 0.059953988
0.079129726 -0.19286487 0.06366252 0.066297926 0.09294217 0.006869107 -0.064541146 -0.15873356
0.009917938 0.027490376 -0.0022944687 -0.03089773 0.042319275 -0.05118015 -0.11369939 0.06920402
0.03530397 -0.024872089 -0.034948766 0.0217815 -0.04899118 -0.13157175 -0.05173683 -0.046966348
0.011107491 -0.014044741 0.027303293 -0.10125179 -0.04112152 -0.01831516 0.019490069 0.097801745
-0.08501575 -0.07288682 0.07821725 -0.089200355 -0.080922686 0.0010397484 0.06396985 -0.09439475
-0.018085891 0.1302628 -0.14622779 -0.07680905 -0.06854165 -0.107392155 -0.017610172 0.04407599
-0.12738872 -0.0309511 -0.035136394 0.12311547 0.0068665426 0.02205273 -0.03506274 -0.0015450316
-0.11296838 0.14105788 0.035794407 0.11013454 0.050289053 0.015599181 -0.08054174 0.03976758
0.12080677 -0.06700075 -0.036798865 -0.07333333 -0.018524742 -0.0022506504 0.058905788 -0.033799976
0.035886783 -0.019703425 0.07298637 0.08412251 -0.11594687 -0.06356803 -0.07934496 0.06903182
-0.12946416 0.09416503 -0.013176753 -0.0871333 0.043845907 -0.004476182 0.12889504 0.043132346
-0.019477502 -0.019448422 0.12250793 -0.07819161 -0.04450384 0.07520397 0.063578665 -0.14684933
-0.11826161 -0.11741311 -0.10875453 0.096486405 0.119806826 0.05062743 -0.086746484 0.089039706
0.03906053 -0.022138752 -0.027667204 -0.10623061 -0.09003963 0.10533861 -0.0301571 -0.037024066
-0.0052074622 -0.053297583 -0.17797694 -0.14060742 0.00080098875 -0.094227456 -0.028174648 0.014313041
0.109527804 -0.008109407 0.047286663 -0.09104812 -0.051819634 -0.0104899295 -0.014550886 0.144861
-0.06160928 -0.051383987 -0.16769153 -0.06541641 -0.05196096 -0.017616691 -0.10933862 0.058495093
-0.02759824 0.016368527 -0.09152867 0.11509878 0.05351378 0.12479463 -0.15882343 -0.010794416
0.104906976 -0.100142345 -0.0580278 -0.062071897 -0.048195634 -0.05457017 0.04992476 -0.022866262
-0.118508495 -0.018705178 0.015166425 0.059944957 -0.15858196 0.11157776 0.013859376 -0.032870945
0.08569671 0.11122521 -0.020065965 -0.14639106 0.064413495 0.0002851438 0.040156804 0.056612607
-0.12492639 -0.12352498 0.1333724 -0.07403362 -0.039091438 -0.120945916 -0.06261164 0.076264784
00000000: 1889 debd 5b74 1e3e 130a 1cbd c9ff cd3d
00000010: 4649 09bd d355 dbbc e393 c63c 8994 853d
00000020: 1667 1f3c f03b 18bd 0952 1ebc 2ae1 6e3d
00000030: 5908 5abd 8f91 a9bd 252b dbbd 75e4 01be
00000040: 923e a13c 64ac 303d 890d 13be b15e 543d
00000050: 728e a13c 2f0c c9bd ea8d 32bc e521 883d
00000060: a7a7 bd3c 01b1 0a3d d07f 49bc 483d 0dbd
00000070: 5a41 dc3b 2de6 f6bd f413 853c b8d0 c6bd
00000080: 84a4 8bbd ee18 4cbd 0604 2c3d 8668 4fbd
00000090: 9d0d 733d e726 ab3d cf93 5a3c 94d8 e63b
000000a0: 3552 5c3c d3ef 293c d535 05be 0e21 f0bd
000000b0: 95ad 703b 1159 39be 14ac 0dbe 7abb 2b3d
000000c0: 250a 2abd 4c2d 1a3d 53be d6bd 85c8 bc3c
000000d0: 1ea4 8b3d 1b25 17be 2e92 23bd 5823 0abd
000000e0: a026 48bc a7b2 383d 90c0 39be 1344 13bc
000000f0: 8a5e 9fbd 20bd ac3d c32d 4cbd 68e7 3dbd
00000100: a9d1 c33c 6eca d5bd 9b81 983c 7960 55bd
00000110: b786 6e3d 41c4 973c 2f46 29be 550e ef3c
00000120: 6cb2 3ebe c48f bc3d 8e0a 9c3c 5d30 48be
00000130: 59dd c7bc 0420 90bd ae2c 24be 5092 753d
00000140: c40e a23d 5e7e 45be 7f61 823d 35c7 873d
00000150: 7758 be3d 3f16 e13b 262e 84bd 0d8b 22be
00000160: d97e 223c 7f33 e13c cc5e 16bb 3c1d fdbc
00000170: fa56 2d3d 47a2 51bd 3adb e8bd d6ba 8d3d
00000180: e59a 103d 8dc0 cbbc 7026 0fbd 1e6f b23c
00000190: faaa 48bd bfba 06be 00ea 53bd c95f 40bd
000001a0: 32fc 353c ea1b 66bc 28ab df3c 195d cfbd
000001b0: 0a6f 28bd ad09 96bc a3a9 9f3c 484c c83d
000001c0: bd1c aebd af45 95bd 5e30 a03d adae b6bd
000001d0: cbba a5bd 2b48 883a a002 833d 0952 c1bd
000001e0: dd28 94bc 9d63 053e bdbc 15be 104e 9dbd
000001f0: 915f 8cbd 6bf0 dbbd 3543 90bc 0689 343d
00000200: 3072 02be 298d fdbc 2eeb 0fbd f723 fc3d
00000210: bc00 e13b eda7 b43c f39d 0fbd a882 caba
00000220: f75b e7bd 7a71 103e 289d 123d 388e e13d
00000230: e5fb 4d3d b593 7f3c 11f3 a4bd 54e3 223d
00000240: 8a69 f73d b037 89bd 68ba 16bd c92f 96bd
00000250: 33c1 97bc a67f 13bb 3247 713d d871 0abd
00000260: 05fe 123d 1469 a1bc e179 953d 6c48 ac3d
00000270: 8d75 edbd f52f 82bd 9c7f a2bd 8e60 8d3d
00000280: 4192 04be 98d9 c03d 4fe3 57bc f272 b2bd
00000290: c497 333d f0ac 92bb 10fd 033e 8bab 303d
000002a0: 488f 9fbc 4c52 9fbc 70e5 fa3d ec22 a0bd
000002b0: a949 36bd 8a04 9a3d 8835 823d ac5f 16be
000002c0: 2533 f2bd 4976 f0bd b2ba debd aa9a c53d
000002d0: 485d f53d b55e 4f3d 24a8 b1bd 735a b63d
000002e0: effd 1f3d 545c b5bc 55a6 e2bc 6f8f d9bd
000002f0: b366 b8bd c5bb d73d 060c f7bc 8ca6 17bd
00000300: 5ca3 aabb 914e 5abd 963f 36be 64fb 0fbe
00000310: 72f9 513a 53fa c0bd 85ce e6bc 3f81 6a3c
00000320: 1d50 e03d 51dd 04bc a9af 413d 7077 babd
00000330: d340 54bd f4dd 2bbc d766 6ebc 7156 143e
00000340: 035a 7cbd 0478 52bd 54b7 2bbe 0af9 85bd
00000350: 04d5 54bd e150 90bc edec dfbd 8d98 6f3d
00000360: b415 e2bc 4a17 863c 6273 bbbd e9b8 eb3d
00000370: 4431 5b3d 5494 ff3d 9ca2 22be 10db 30bc
00000380: 78d9 d63d 6e17 cdbd 8fae 6dbd 1a3f 7ebd
00000390: c968 45bd f884 5fbd e87d 4c3d 0752 bbbc
000003a0: 95b4 f2bd 9a3b 99bc 997c 783c d888 753d
000003b0: 4f63 22be e182 e43d 7012 633c afa3 06bd
000003c0: c281 af3d 0bca e33d 6161 a4bc 8ae7 15be
000003d0: 39eb 833d 5a7f 9539 767b 243d 9fe2 673d
000003e0: 68d9 ffbd aafa fcbd c692 083e f09e 97bd
000003f0: 581e 20bd 7eb2 f7bd 883a 80bd b630 9c3d

dest_lstm_obs.weight_hh_l0 f4 [128, 32]
-0.016379768 -0.11945888 0.0017347836 -0.051170055 -0.2759563 0.0733168 0.0369384 -0.17788227
-0.005992079 0.102536954 -0.06165015 0.011833468 0.19365063 -0.07628494 -0.19613937 -0.10559349
0.103001095 0.08054251 -0.15312181 0.11504557 0.07695435 0.10080723 -0.039932985 0.022855526
-0.15993686 -0.17125453 -0.070130266 -0.33414015 0.21493255 0.027247375 0.045182105 0.012938943
0.0015908291 -0.2715299 0.15618464 0.16909455 -0.1876272 -0.020132944 -0.14240013 0.16983323
-0.019851275 0.09814235 -0.04758134 -0.22494791 -0.094161466 0.030091057 -0.13485752 -0.14640057
0.0065359487 -0.0362035 -0.13904004 -0.11050627 0.11046382 0.040095765 0.022374025 -0.017870046
0.15472567 0.12110367 -0.1125078 -0.03784046 0.11311346 0.26275972 -0.089298405 -0.1001587
-0.10902645 -0.11449705 0.071337484 0.12331788 -0.03552137 -0.016453765 0.007116437 -0.10490266
-0.032727458 -0.018590417 0.16508408 -0.14071558 -0.17403091 0.087415345 0.07792675 0.022651514
-0.053540803 -0.11529098 0.05995254 0.16102543 -0.14101747 0.13926095 0.004327505 -0.032842077
-0.030726874 -0.13268238 0.03510456 0.03474517 0.08204326 0.039634418 0.052766148 -0.026280567
-0.058790036 -0.21514355 0.14925425 0.07223773 -0.113057666 0.03348857 -0.13728496 0.057968326
0.12643746 -0.06556373 0.004534283 0.051363092 -0.13078529 -0.13374473 0.10734099 -0.068133734
0.04157404 -0.112238415 0.16167763 -0.08620252 0.018346144 0.13032381 -0.035028737 0.015372265
0.048987128 0.07273211 -0.06573643 -0.21966411 -0.13003972 0.16192088 -0.18734807 -0.037974037
0.18655732 0.005668947 -0.14478636 0.1357425 -0.15252818 0.000720481 -0.17463918 0.06114884
0.11199491 -0.08290402 -0.07684622 -0.07421246 -0.11823783 -0.107241005 0.13737056 0.1024336
0.023203857 0.04788709 0.1230594 -0.049596462 0.13779575 -0.1749431 -0.14829887 0.10130596
0.08524402 -0.0066993576 0.08665575 0.1986022 0.054193273 0.11916741 0.0548322 -0.030686777
0.15322238 -0.120432034 -0.042394772 0.1331011 0.18205166 0.124984756 0.019162308 0.22860011
-0.16549312 0.041579414 -0.008699457 -0.12885171 -0.07679633 0.020549355 0.2133425 0.29568678
0.06912658 -0.12913221 -0.08889709 -0.1742418 0.12286729 -0.17329855 0.051657796 0.018418537
-0.119176276 -0.08967908 0.118414655 0.1416152 0.10230033 -0.040837403 0.010676905 -0.06562927
0.016557591 -0.068637885 -0.014000072 -0.14421602 0.007934865 -0.016454954 0.117865525 -0.06371734
0.10482004 -0.053374 0.057505876 -0.07963362 0.17783529 -0.1618772 -0.025057236 0.025596412
0.03455389 -0.033761784 -0.13458188 0.18372796 -0.019824892 -0.04966356 0.14382976 -0.067377456
0.1532998 0.20358996 0.16109525 -0.15005185 0.064993694 -0.16678946 0.14289011 0.07556729
-0.08298675 -0.038184017 0.09326517 0.112250626 0.007894667 0.122070774 -0.116670035 -0.13919714
0.11531113 -0.13642436 0.14674558 0.09814832 0.011436455 -0.054090455 -0.0022735933 0.07488067
-0.000661618 -0.0324684 -0.10543949 0.040015955 -0.023688627 0.1745108 0.15741383 0.03462537
-0.15352114 0.13626567 -0.1834527 -0.05983285 -0.043644607 0.1558626 0.07830263 -0.058307994
00000000: dd2e 86bc dba6 f4bd ae61 e33a b197 51bd
00000010: 254a 8dbe 1e27 963d b84c 173d c526 36be
00000020: 3459 c4bb e5fe d13d de84 7cbd 2ae1 413c
00000030: 5a4c 463e 473b 9cbd c2d8 48be 6641 d8bd
00000040: 3df2 d23d 79f3 a43d f7cb 1cbe 039d eb3d
00000050: 3e9a 9d3d 0574 ce3d c590 23bd 833b bb3c
00000060: 7dc6 23be 595d 2fbe 75a0 8fbd 6b14 abbe
00000070: 4717 5c3e e335 df3c df10 393d dcfd 533c
00000080: 5e83 d03a f805 8bbe deee 1f3e 1f27 2d3e
00000090: 5821 40be d8ed a4bc 57d1 11be c3e8 2d3e
000000a0: 249f a2bc dbfe c83d a7e4 42bd bf58 66be
000000b0: bad7 c0bd 8581 f63c 1718 0abe 08ea 15be
000000c0: 832b d63b 1f4a 14bd 8360 0ebe 1c51 e2bd
000000d0: db3a e23d 753b 243d bb49 b73c 3464 92bc
000000e0: 6870 1e3e 3305 f83d 7d6a e6bd 99fe 1abd
000000f0: 08a8 e73d 7188 863e 15e2 b6bd 0120 cdbd
00000100: 4249 dfbd 6e7d eabd 6319 923d 168e fc3d
00000110: db7e 11bd 0cca 86bc 0031 e93b 35d7 d6bd
00000120: 3a0d 06bd ee4a 98bc cd0b 293e bf17 10be
00000130: 2935 32be d106 b33d 0f98 9f3d ab8f b93c
00000140: 9a4d 5bbd ad1d ecbd cb90 753d dae3 243e
00000150: e266 10be 6c9a 0e3e becd 8d3b 6a85 06bd
00000160: edb6 fbbc e4dd 07be cdc9 0f3d f450 0e3d
00000170: 4c06 a83d b357 223d 5121 583d 584a d7bc
00000180: d2cd 70bd 974e 5cbe 1bd6 183e 60f1 933d
00000190: c78a e7bd 502b 093d 6e94 0cbe 3270 6d3d
000001a0: d278 013e 4746 86bd 5394 943b 1b62 523d
000001b0: 94ec 05be 61f4 08be 98d5 db3d b389 8bbd
000001c0: 8a49 2a3d 41dd e5bd d28e 253e f28a b0bd
000001d0: a74a 963c 9b73 053e 4b7a 0fbd f4db 7b3c
000001e0: baa6 483d 93f4 943d d2a0 86bd a1ef 60be
000001f0: 2229 05be 96ce 253e 2cd8 3fbe aa8a 1bbd
00000200: e208 3f3e 93c2 b93b e042 14be 1500 0b3e
00000210: 5930 1cbe a9de 3c3a 9dd4 32be 3577 7a3d
00000220: 965d e53d 95c9 a9bd 8d61 9dbd b4fc 97bd
00000230: ad26 f2bd 2ca1 dbbd deaa 0c3e b5c8 d13d
00000240: 0416 be3c 4125 443d 9106 fc3d a925 4bbd
00000250: 541a 0d3e 4924 33be a9db 17be 8079 cf3d
00000260: 6b94 ae3d 4986 dbbb 9278 b13d 605e 4b3e
00000270: c4f9 5d3d 0b0e f43d bb97 603d d662 fbbc
00000280: 54e6 1c3e 12a5 f6bd 24a6 2dbd a84b 083e
00000290: c06b 3a3e 02f8 ff3d 46fa 9c3c 2616 6a3e
000002a0: 0777 29be 2d4f 2a3d 2b88 0ebc b4f1 03be
000002b0: 6547 9dbd 1f57 a83c 7576 5a3e 4264 973e
000002c0: 3d92 8d3d 3c3b 04be ad0f b6bd 716c 32be
000002d0: d9a1 fb3d 2d75 31be 2097 533d 79e2 963c
000002e0: b112 f4bd aaa9 b7bd 6283 f23d 9303 113e
000002f0: d682 d13d 1f45 27bd 2fee 2e3c a468 86bd
00000300: c9a3 873c 0592 8cbd 8f60 65bc 5dad 13be
00000310: 3c01 023c 8acc 86bc 7b63 f13d 3d7e 82bd
00000320: e4ab d63d b29e 5abd 488b 6b3d f416 a3bd
00000330: 741a 363e 23c3 25be d544 cdbc 91af d13c
00000340: 6188 0d3d cc49 0abd d5cf 09be 2f23 3c3e
00000350: d067 a2bc 046c 4bbd 1c48 133e 31fd 89bd
00000360: 9ffa 1c3e e379 503e 27f6 243e 31a7 19be
00000370: 6a1b 853d dbca 2abe c951 123e 06c3 9a3d
00000380: f5f4 a9bd d866 1cbd cf01 bf3d a8e3 e53d
00000390: a258 013c 3e00 fa3d b3f0 eebd b289 0ebe
000003a0: 3e28 ec3d d4b2 0bbe 7944 163e fd01 c93d
000003b0: f85f 3b3c f48d 5dbd 9100 15bb 095b 993d
000003c0: 6f70 2dba 96fd 04bd a9f0 d7bd c5e7 233d
000003d0: a70e c2bc f6b2 323e 1731 213e 55d3 0d3d
000003e0: a534 1dbe 3a89 0b3e 06db 3bbe 4a13 75bd
000003f0: b0c4 32bd 729a 1f3e 215d a03d 5dd4 6ebd

dest_lstm_obs.bias_ih_l0 f4 [128]
0.0647474 -0.023705978 0.10923393 0.020463545 -0.2308121 0.10316528 0.029978242 0.11619751
-0.14786984 0.100872435 0.07860246 0.12560606 0.0019815054 0.08735098 -0.13574761 -0.029936964
-0.0025689031 -0.059101567 0.21169856 0.034601375 -0.14067473 -0.028147722 0.09226255 -0.10322361
-0.006219135 -0.06054931 0.09242479 0.14094111 0.080512434 0.08577674 0.04917943 0.023239559
-0.043781273 -0.17504375 -0.15282176 0.12056549 -0.07961609 -0.19316036 0.11507997 -0.09589285
-0.14548825 -0.007015509 -0.022216225 -0.07481863 -0.117373355 0.1541313 -0.043328494 -0.17891695
0.052242603 -0.07527563 0.17959087 0.103199884 0.053911217 -0.111684464 -0.0148796225 -0.13993256
-0.039443377 -0.18772759 -0.16760127 0.033586323 0.03723159 -0.12698834 -0.02088535 -0.064532466
-0.048319418 0.018942188 -0.09884318 -0.1165832 0.14577141 0.15796998 0.22538777 0.17548466
0.09802704 -0.020867398 -0.09217411 -0.012204957 -0.14040725 -0.106278636 0.08194055 0.1248573
-0.08085952 -0.035285987 0.07495255 0.25176105 -0.11527399 0.17635447 -0.14644893 -0.09497816
0.050220966 -0.15046476 -0.034406878 -0.0074511664 -0.14822033 -0.04805917 0.14800224 -0.06974888
0.08146233 0.03764438 0.03470051 0.123612106 -0.16078025 0.13470176 0.08853897 0.108819954
0.031117141 -0.0653801 0.0991022 0.064690396 -0.1575508 -0.09988937 -0.104775764 0.07467219
-0.11221364 0.13704835 0.05765397 0.12557948 0.18146771 -0.10188864 0.052417986 -0.043134067
-0.14338255 -0.07272845 0.095809825 0.02177492 -0.028465047 0.033875115 -0.08293998 -0.086514026
00000000: 499a 843d 0a33 c2bc 0ab6 df3d 2aa3 a73c
00000010: 025a 6cbe 5148 d33d ee94 f53c f6f8 ed3d
00000020: 316b 17be 3596 ce3d 54fa a03d e09e 003e
00000030: 25dc 013b 12e5 b23d 6c01 0bbe 5d3e f5bc
00000040: 0b5b 28bb 7c14 72bd 82c7 583e 2cba 0d3d
00000050: 090d 10be 0d96 e6bc 26f4 bc3d e666 d3bd
00000060: e3c9 cbbb 8e02 78bd 3549 bd3d de52 103e
00000070: b4e3 a43d b7ab af3d 5f70 493d e360 be3c
00000080: fe53 33bd ab3e 33be 4f7d 1cbe 0aeb f63d
00000090: c30d a3bd d4cb 45be 0caf eb3d 7863 c4bd
000000a0: dffa 14be 5be2 e5bb cdfe b5bc 833a 99bd
000000b0: 7161 f0bd 98d4 1d3e 3879 31bd 0136 37be
000000c0: 57fc 553d 1c2a 9abd abe6 373e 765a d33d
000000d0: 02d2 5c3d d3ba e4bd a9c9 73bc 7b4a 0fbe
000000e0: 618f 21bd a93b 40be ab9f 2bbe d091 093d
000000f0: 2780 183d 3b09 02be c117 abbc 9929 84bd
00000100: 95ea 45bd a62c 9b3c 4b6e cabd 2cc3 eebd
00000110: 1a45 153e e2c2 213e 0dcc 663e 40b2 333e
00000120: 67c2 c83d 1bf2 aabc c8c5 bcbd 4df7 47bc
00000130: ebc6 0fbe 9da8 d9bd 72d0 a73d 2fb5 ff3d
00000140: ad99 a5bd 0a88 10bd b980 993d d3e6 803e
00000150: c514 ecbd 4496 343e b5f6 15be e983 c2bd
00000160: 80b4 4d3d 6f13 1abe 3aee 0cbd ea28 f4bb
00000170: 12c7 17be b1d9 44bd e68d 173e 80d8 8ebd
00000180: b9d5 a63d fe30 1a3d 1f22 0e3d 5828 fd3d
00000190: 94a3 24be 42ef 093e eb53 b53d ffdc de3d
000001a0: 60e9 fe3c 00e6 85bd 18f6 ca3d 667c 843d
000001b0: ff54 21be cc92 ccbd ad94 d6bd bced 983d
000001c0: 44d0 e5bd 6756 0c3e 9226 6c3d e897 003e
000001d0: acd2 393e feaa d0bd 3eb4 563d 59ad 30bd
000001e0: e0d2 12be a7f2 94bd f137 c43d 5161 b23c
000001f0: 882f e9bc a2c0 0a3d 70dc a9bd 442e b1bd

dest_lstm_obs.bias_hh_l0 f4 [128]
0.05687041 -0.14886525 0.081653684 -0.044875547 -0.057965554 -0.01743866 -0.07607222 0.043537423
0.016955916 -0.16964659 -0.0012552105 0.096179605 -0.20058814 0.15266128 -0.1371932 -0.11810169
0.050076686 0.045178924 0.23809795 0.14534928 -0.16810445 -0.02374556 0.13836633 -0.08084154
0.12545714 0.006309684 0.08754026 -0.0956153 0.08609749 0.0677863 0.004316383 -0.18318677
0.05174868 0.10561832 -0.14665745 0.13415682 -0.03155413 -0.13401826 -0.0769952 -0.15908644
-0.07881233 -0.07203932 0.08967346 -0.099453844 -0.04831596 0.10109342 -0.046674456 0.03856708
0.01588011 0.0424831 0.06364659 -0.048024632 0.025084302 -0.20088783 -0.015216295 -0.028890897
-0.103467524 -0.087427996 -0.04060524 -0.1980539 -0.17158617 -0.1150888 -0.05146934 0.039815232
-0.06706185 -0.041775137 0.1942107 -0.2896592 0.0019292393 -0.16394863 -0.032815948 -0.105893955
0.04094164 0.082709864 -0.035198223 -0.1442268 -0.16623475 0.09638233 -0.049532976 -0.052845277
-0.11941451 0.2325486 0.1202818 0.014073493 -0.03560594 0.07710525 -0.19251902 -0.038130544
-0.14368634 -0.09983216 0.051333267 -0.1347774 -0.15190433 -0.039423466 -0.07735461 -0.119872645
-0.1407308 -0.14741364 0.095955424 0.09085777 0.105098344 0.045486227 -0.07300964 -0.04601077
-0.14138696 -0.032288417 0.02574737 -0.13964857 -0.044270802 0.024110125 0.079828225 -0.03519133
-0.023017444 -0.027376587 0.13918895 0.05203118 0.056488033 -0.13142419 0.10516276 -0.065683685
0.047361426 -0.09801898 -0.026712954 -0.0027418865 0.01326021 -0.13797228 -0.18281224 0.14710093
00000000: f2f0 683d 2270 18be 0c3a a73d 6ccf 37bd
00000010: 4a6d 6dbd 85db 8ebc c1cb 9bbd 4c54 323d
00000020: 22e7 8a3c d6b7 2dbe e085 a4ba d0f9 c43d
00000030: fa66 4dbe 3d53 1c3e 607c 0cbe 4ddf f1bd
00000040: 361d 4d3d 890d 393d f3cf 733e 71d6 143e
00000050: 9323 2cbe 0c86 c2bc e7af 0d3e 4090 a5bd
00000060: d677 003e 77c1 ce3b 4f48 b33d f4d1 c3bd
00000070: e153 b03d 8bd3 8a3d 7270 8d3b 5095 3bbe
00000080: 6df6 533d 6b4e d83d 5f2d 16be 6860 093e
00000090: e73e 01bd 153c 09be a9af 9dbd 8ee7 22be
000000a0: 5c68 a1bd 5a89 93bd b8a6 b73d 75ae cbbd
000000b0: f5e6 45bd 110a cf3d b72d 3fbd 84f8 1d3d
000000c0: 0117 823c c202 2e3d 2559 823d 7ab5 44bd
000000d0: 987d cd3c 8ab5 4dbe c44d 79bc 9aac ecbc
000000e0: c8e6 d3bd 730d b3bd ae51 26bd a4ce 4abe
000000f0: 49b4 2fbe adb3 ebbd 84d1 52bd 4c15 233d
00000100: b957 89bd 681c 2bbd 2bdf 463e 364e 94be
00000110: 87de fc3a 26e2 27be 046a 06bd eede d8bd
00000120: 6cb2 273d ca63 a93d 032c 10bd 31b0 13be
00000130: 7139 2abe 1964 c53d 17e3 4abd 4a74 58bd
00000140: 988f f4bd 3821 6e3e 4e56 f63d 8294 663c
00000150: 89d7 11bd 5be9 9d3d b523 45be c62e 1cbd
00000160: 8322 13be ce74 ccbd d542 523d 1603 0abe
00000170: cf8c 1bbe 807a 21bd 186c 9ebd ca7f f5bd
00000180: bc1b 10be 9af3 16be 4784 c43d a313 ba3d
00000190: cd3d d73d c44f 3a3d 1486 95bd ca75 3cbd
000001a0: bec7 10be dc40 04bd 26ec d23c 0900 0fbe
000001b0: 4d55 35bd 9982 c53c fb7c a33d c924 10bd
000001c0: 148f bcbc dd44 e0bc 8c87 0e3e a61e 553d
000001d0: ff5f 673d 1094 06be 935f d73d 2b85 86bd
000001e0: 0efe 413d 2dbe c8bd 20d5 dabc 39b1 33bb
000001f0: 5a41 593c 9b48 0dbe 2233 3bbe a0a1 163e

dest_lstm_fut.weight_ih_l0 f4 [128, 2]
0.10434241 -0.051238116 -0.14586802 0.067051046 -0.04925129 -0.027785424 -0.029543186 0.045217555
0.09108547 -0.13608354 -0.110924765 0.026377639 -0.01944485 -0.003958062 -0.13396965 0.03103434
0.05835292 -0.008115306 -0.14684996 -0.03975769 -0.13307293 0.14010215 -0.029425487 0.04972038
-0.12644492 0.09617885 0.036490608 0.075783946 -0.17340574 -0.1024741 -0.068609044 -0.05261854
-0.07913902 0.11518641 -0.014224491 -0.010746571 -0.11171269 0.04878338 -0.07310594 -0.048978146
-0.045460265 0.05566356 0.10521805 -0.07721935 0.13124393 -0.0848674 -0.032120615 0.05254987
0.10267807 -0.0877454 -0.009673314 0.022175394 0.06713527 -0.13637997 0.09577536 -0.019494154
0.11485268 -0.088803165 0.05825593 -0.0048387726 -0.019545358 0.035648208 -0.131522 0.08114562
0.0010282587 -0.12784384 -0.049112216 -0.12990065 -0.17058839 -0.12967803 -0.091859855 0.07013432
0.0022407041 0.058461715 0.090611674 0.027837915 0.07620077 0.028367192 0.009228397 0.051440552
-0.02346802 0.0014183106 0.05315288 -0.043609127 -0.0015498754 -0.11016438 0.06794641 0.09389775
0.08617048 0.016202616 0.023573484 -0.081876755 0.04604635 0.01741868 0.035976563 0.078688286
-0.01160182 0.10124883 0.019873485 -0.03440886 0.09952036 0.006436322 0.14202157 0.08870645
0.105089426 0.016475925 0.013343566 0.12219036 -0.14772166 0.033905353 0.040629357 0.022689298
0.047055904 0.09767922 -0.036925968 0.13894694 0.021080846 -0.06286201 -0.20237716 0.085757054
0.027178092 -0.12197378 0.05332306 0.0571868 -0.03549824 -0.0017748496 -0.08647856 -0.08574863
-0.015118567 -0.025979795 0.11785332 -0.058032993 0.06863602 -0.07887319 -0.076458976 0.055781767
-0.098816805 -0.07941597 0.13039811 -0.07118853 0.090212926 0.06308153 -0.02271079 -0.108804874
-0.08802288 -0.011634498 0.026710251 -0.065097585 -0.02111746 -0.029262207 -0.08924495 -0.045733847
0.053096913 0.010761929 0.1073037 -0.07595028 0.022495216 0.06579514 -0.039079864 -0.051712204
0.030450992 -0.0027962336 0.12985125 -0.039900836 -0.11429494 0.06999492 0.042227864 0.057982333
-0.13518606 -0.042877145 0.05167949 0.07654652 0.052287683 0.024037478 0.15284838 -0.07630073
0.026146758 0.03225359 0.07777608 -0.07639327 -0.0883688 0.08450043 -0.14223908 0.12517567
-0.13964282 0.0429343 0.07799558 0.12182517 -0.0017809533 -0.031892065 0.051428113 -0.13035528
0.037311386 -0.03180222 0.024007296 0.07054727 0.06170328 -0.16066206 -0.022020249 -0.14901768
-0.048078533 0.0970703 0.082590446 0.035987366 -0.020179734 0.004852995 0.025430772 0.122995794
0.11027374 0.06682267 -0.1497535 0.047090426 0.10911775 -0.17252342 -0.00879194 0.073874615
0.0367076 -0.13187703 -0.023735635 0.0019578454 -0.041307848 0.05435893 0.08995579 -0.055317935
0.009495251 0.0116886515 0.024841731 0.06749469 0.084714465 -0.11170274 0.0002298311 0.02035709
0.095448285 0.13690497 -0.00481179 0.052727908 -0.113862984 -0.032553572 -0.12805612 -0.010109702
-0.006467098 -0.1355267 0.00048420692 -0.16288994 -0.08558819 0.018456059 0.006875739 -0.04668649
-0.024191862 0.034821175 -0.025690028 0.045358587 0.08487922 -0.060268883 0.13568522 0.012796453
00000000: 79b1 d53d 0fdf 51bd 6d5e 15be 0f52 893d
00000010: b8bb 49bd 429e e3bc 8d04 f2bc 0b36 393d
00000020: 058b ba3d 7c59 0bbe 862c e3bd eb15 d83c
00000030: ce4a 9fbc a1b2 81bb 572f 09be ba3b fe3c
00000040: 7903 6f3d 0ff6 04bc d65f 16be f6d8 22bd
00000050: 4544 08be f076 0f3e b80d f1bc 99a7 4b3d
00000060: c77a 01be 6bf9 c43d 2d77 153d 9d34 9b3d
00000070: 4691 31be f1dd d1bd e682 8cbd 8a86 57bd
00000080: a313 a2bd dae6 eb3d d70d 69bc 6312 30bc
00000090: 9fc9 e4bd 15d1 473d 91b8 95bd 4f9d 48bd
000000a0: 8b34 3abd 79ff 633d 907c d73d 2e25 9ebd
000000b0: cf64 063e f6ce adbd e890 03bd 883e 573d
000000c0: e148 d23d dcb3 b3bd d27c 1ebc 2ca9 b53c
000000d0: 377e 893d 31a7 0bbe df25 c43d 34b2 9fbc
000000e0: e237 eb3d 6fde b5bd c59d 6e3d 918e 9ebb
000000f0: 961d a0bc db03 123d b4ad 06be ad2f a63d
00000100: a3c6 863a 7fe9 02be e429 49bd ad04 05be
00000110: b9ae 2ebe 51ca 04be 0521 bcbd 95a2 8f3d
00000120: c7d8 123b 8d75 6f3d 9d92 b93d 570c e43c
00000130: 260f 9c3d 5062 e83c b432 173c 54b3 523d
00000140: 0140 c0bc 9be6 b93a d6b6 593d 7c9f 32bd
00000150: 3025 cbba dd9d e1bd 7d27 8b3d 774d c03d
00000160: 267a b03d 59bb 843c 2e1d c13c 00af a7bd
00000170: 199b 3c3d 9fb1 8e3c 295c 133d 5327 a13d
00000180: 8f15 3ebc 8c5b cf3d b8cd a23c 4ef0 0cbd
00000190: 55d1 cb3d c8e7 d23b 1a6e 113e baab b53d
000001a0: 2039 d73d 85f8 863c f99e 5a3c f13e fa3d
000001b0: 5944 17be 57e0 0a3d f86a 263d e8de b93c
000001c0: b1bd 403d 0b0c c83d af3f 17bd 1b48 0e3e
000001d0: bdb1 ac3c ccbd 80bd f53b 4fbe 65a1 af3d
000001e0: 97a4 de3c 64cd f9bd 4869 5a3d b53c 6a3d
000001f0: 9a66 11bd 12a2 e8ba ac1b b1bd fa9c afbd
00000200: deb3 77bc 94d3 d4bc 155d f13d 01b4 6dbd
00000210: 0b91 8c3d 4488 a1bd 8696 9cbd 6c7b 643d
00000220: 7760 cabd d7a4 a2bd 1587 053e 4bcb 91bd
00000230: 8ec1 b83d e430 813d fb0b babc 17d5 debd
00000240: 5745 b4bd 9f9e 3ebc 75cf da3c e251 85bd
00000250: 86fe acbc 4cb7 efbc 0ec6 b6bd 6a53 3bbd
00000260: 267c 593d cd52 303c 0bc2 db3d d28b 9bbd
00000270: e347 b83c 9abf 863d 3512 20bd 2dd0 53bd
00000280: 5c74 f93c 0441 37bb baf7 043e 0f6f 23bd
00000290: 7713 eabd 7f59 8f3d 20f7 2c3d e27e 6d3d
000002a0: 376e 0abe f29f 2fbd dfad 533d 6cc4 9c3d
000002b0: 9c2b 563d 3fea c43c 4984 1c3e 8f43 9cbd
000002c0: ba31 d63c 571c 043d 1149 9f3d 1374 9cbd
000002d0: b4fa b4bd 900e ad3d 1fa7 11be 0d2e 003e
000002e0: 87fe 0ebe e0db 2f3d 26bc 9f3d 7a7f f93d
000002f0: e06e e9ba 41a1 02bd 49a6 523d db7b 05be
00000300: d3d3 183d 0b43 02bd f3aa c43c 167b 903d
00000310: 94bc 7c3d 9884 24be cf63 b4bc 1798 18be
00000320: ffed 44bd cbcc c63d 2e25 a93d 7d67 133d
00000330: f84f a5bc df05 9f3b 3254 d03c 38e5 fb3d
00000340: 33d7 e13d 53da 883d fb58 19be e4e1 403d
00000350: 2079 df3d fba9 30be 120c 10bc 934b 973d
00000360: b55a 163d c60a 07be 3c71 c2bc 324f 003b
00000370: 6b32 29bd 78a7 5e3d be3a b83d 0f95 62bd
00000380: f891 1b3c c281 3f3c e380 cb3c a83a 8a3d
00000390: c77e ad3d 68c4 e4bd d1fe 7039 e9c3 a63c
000003a0: 647a c33d d130 0c3e 38ac 9dbb 38f9 573d
000003b0: ff30 e9bd e556 05bd 2521 03be 2aa3 25bc
000003c0: f3e9 d3bb 83c7 0abe 27dd fd39 9fcc 26be
000003d0: dc48 afbd 2931 973c e14d e13b 553a 3fbd
000003e0: 032e c6bc a6a0 0e3d e573 d2bc edc9 393d
000003f0: 28d5 ad3d 81dc 76bd 11f1 0a3e 37a8 513c
