src/results/experiment_20250713_122542/centralized/do_tp_centralized_best.pt (torch, 156661 bytes, 26 tensors)

linear_enc.weight f4 [64, 2]
00000000: 1247 08bf 224b 6cbf 6515 3a3f 89a0 1b3e
00000010: 76cd b2be a081 e0be cd90 e7be 9ec2 45bd
00000020: 5a67 27bf a47e 7c3e a894 1b3f a295 a53e
00000030: 7117 583f 9432 793f c87a a23e 445f 12be
00000040: 16c4 233f 7a08 143e 6793 2bbe 36e7 013f
00000050: 650c 113f fb00 283f e990 25bf 3d70 e53e
00000060: 3abd f4be 2e77 ff3e 9e95 e33e 1f3b 393f
00000070: fed8 dbbd c4de 3d3f 4f44 b83e 60fc 9dbe
00000080: 31f1 04bf 99d2 013f 1d8c d53e f5b7 93be
00000090: dcdb f23e 38db f13e 2542 e9be c9bf 153e
000000a0: ce7b f53e 31fc 83be 81cb b4be bdfd 463f
000000b0: 185a 8abe 0c34 ba3e e208 64bd 3aac 05be
000000c0: 0994 333f 1dad a9be 634d 58be 2732 f23e
000000d0: 7e7a 2c3e 0fb2 493f 1190 fc3e df0b b2be
000000e0: 6dbc 923e c92f 503d 6240 6e3e 34bf ffbe
000000f0: 1f00 bd3e 1651 32bf 48ab a93e 0157 01bf
00000100: 62eb 4f3f 9fa4 fe3e ae59 89be c660 9f3e
00000110: 4538 17bf 4736 3abe 677a 5b3e 1453 d1bd
00000120: adb8 773e 6d4c 1bbf a541 203f 6e5f 31bf
00000130: dd94 1c3f 71db 793e fdea 26be ff44 a23d
00000140: d10a 473f 6f06 263f 907b af3c db13 3c3f
00000150: 63cb 17bf 6cc0 27bf 83ea 0dbf 751c 553f
00000160: 3ef4 15bf 1bb6 5f3e e73c 493f 2990 a73d
00000170: f72f d8bc 0ee1 193f 65bc 603d 0dc1 52bf
00000180: 6e52 05bf 4977 2bbf 539d b33d a78e dbbe
00000190: 9c00 ef3d d6b9 343f b641 4c3d fe5e 4ebf
000001a0: 612a 82bd 96ff cbbe 8990 dcbe 6dcb a93e
000001b0: f0d9 93be f8fd a5bd d16b 3b3f c4ee af3d
000001c0: 0dc4 353f 3ae9 133f 096d c8be 771b f9be
000001d0: 990d a8be fb4f 103f a583 f53c 2481 023f
000001e0: 34c6 293e 1ca8 71bf 4350 92bc 0f30 583f
000001f0: 25ef ffbe 46ba 67bf a49c 8dbe 9a22 c3be
-0.53233445 -0.92302144 0.72688895 0.15197958 -0.3492238 -0.43848896 -0.45227662 -0.048281305
-0.65392077 0.24657685 0.60773706 0.32340723 0.8441077 0.973428 0.317343 -0.14294153
0.6397108 0.14456359 -0.16755448 0.50743425 0.5665954 0.65626496 -0.6467424 0.44812194
-0.47800618 0.49895614 0.44450086 0.72355837 -0.10734747 0.7416804 0.35989615 -0.3085661
-0.5193053 0.5071197 0.4170846 -0.28851286 0.47433364 0.47237563 -0.45558277 0.14623941
0.47946018 -0.25778344 -0.3531151 0.77730924 -0.2702186 0.36367834 -0.055672534 -0.1305398
0.7014776 -0.33139887 -0.2112327 0.47303888 0.16843602 0.7878732 0.49328664 -0.34774682
0.28659382 0.05082682 0.23266748 -0.49950564 0.36914155 -0.6965498 0.3313849 -0.5052338
0.8121854 0.4973497 -0.26826233 0.3112852 -0.59070235 -0.18184768 0.21433412 -0.10220924
0.24191542 -0.6066349 0.62600166 -0.6928624 0.6116465 0.24400117 -0.16300578 0.07923316
0.7775088 0.64853567 0.021421224 0.734678 -0.5929472 -0.6552799 -0.5543596 0.83246547
-0.5857581 0.21846811 0.78608555 0.08181793 -0.026390059 0.6010903 0.054867167 -0.8232582
-0.520789 -0.6697889 0.087702416 -0.42882273 0.11670038 0.70596063 0.049867354 -0.80613697
-0.063557394 -0.39843434 -0.43079022 0.33163014 -0.2887721 -0.08105081 0.7321139 0.08590463
0.71002275 0.5777775 -0.39145687 -0.48653767 -0.32822874 0.5637204 0.02997 0.509783
0.16579515 -0.9439714 -0.017860537 0.8444833 -0.4998714 -0.90518606 -0.2765857 -0.38112336

linear_enc.bias f4 [64]
00000000: b4f4 b8be 8002 6ebd 4b8f 1abf 2358 123e
00000010: 8f2e 1e3f c297 2c3f dc21 d5be 86c0 13bf
00000020: 0297 783d 05e2 303e 4394 6b3e 9f30 9f3c
00000030: 03e8 053f c188 b83e d7a8 b33d 6fbb aabd
00000040: b95e 1abf c5b6 be3e c9f5 1bbf d55c 70be
00000050: 25ef 983d fb66 453e 8399 b7be 97f7 173e
00000060: 1f50 2abf 2d9d 02bf 54fc 65be 8941 a4be
00000070: 1ab1 253f 0ee3 7bbd bc82 80be 37d7 30bf
00000080: aee3 623d 9f6e d1be 9c93 9fbe 412c a73e
00000090: df86 813e be68 c7bc a265 30bf ef87 0cbf
000000a0: 1889 17be e28f 33bf 06cf 9f3e d2ed c03d
000000b0: b924 af3e d6be fe3e 7251 eabe 89f0 5f3e
000000c0: 8da7 32bf 502e 2a3f 9ff7 e63e ee34 e2be
000000d0: 2b2c 24bf d5df 1c3f 5017 d83e db1d 59bd
000000e0: 6d56 8ebe e018 27bf 1a82 88be 7094 933e
000000f0: e8b3 4cbe 6431 443e d484 023d 099f b3be
-0.36124194 -0.058107853 -0.603749 0.14291434 0.6178979 0.67419064 -0.41627395 -0.5771564
0.060690887 0.1727372 0.23005776 0.019432364 0.52307147 0.36041835 0.08772438 -0.08336531
-0.60300785 0.37248817 -0.60921913 -0.23472913 0.07467488 0.19277565 -0.35859308 0.14840542
-0.66528505 -0.5102108 -0.22459537 -0.3208125 0.6472336 -0.061495833 -0.25099742 -0.6907839
0.055392914 -0.4090471 -0.31167305 0.3265095 0.2529821 -0.024341937 -0.6890508 -0.5489492
-0.14798391 -0.7014142 0.31212634 0.094203606 0.34207705 0.4975497 -0.45765263 0.218691
-0.6978691 0.6647692 0.45110795 -0.44181007 -0.64129895 0.6127904 0.42205286 -0.053006988
-0.27800313 -0.6527233 -0.2666176 0.28824186 -0.19990504 0.19159466 0.031864956 -0.35082272

encoder_lstm.weight_ih_l0 f4 [128, 64]
00000000: 38ec 9b3d 29f4 793e 487a 823d 6bf1 0abe
00000010: 01ab 543d 58ed e7bd 4115 d53d 6085 193e
00000020: 256b 77bd 058f 06be c243 833d 7034 83be
00000030: 2351 b93d 489c 15bb 07b5 8ebe c748 023e
00000040: 74a3 11be 55bd dd3d 874e 583d 82c5 f53c
00000050: 3407 1d3e 2520 39be b501 56be 03f2 e2bc
00000060: c5af b5bd 0668 c33d 85c5 b2bd 4f7f 183e
00000070: 3983 1e3e 5d06 863e 3eb1 913d a59d 9c3d
00000080: 88b8 c9bb 6f7d 84bd 48d7 40be fad3 9bbc
00000090: 940c 063e b731 463e 07ce a8bd 6d0e 923d
000000a0: a0d2 ce3a 8dbf 7abd e8c0 04be 34e8 67be
000000b0: 4cdb bfbd 9523 e3bc 8f8c 42b9 854a 023e
000000c0: 469b 603d 538e e23c 4814 85bd f213 0f3e
000000d0: f32a 4d3e 03b1 b23d ccc0 26bd 638e 8dbd
000000e0: 3c77 cf3c b07f 1d3e 0481 1ebc 15b1 943d
000000f0: 57af 853d 3f79 d2bd c42b 1c3d 454a 823d
00000100: bfd8 263d 14d7 483c e0c2 8a3d ceee ffbb
00000110: a202 fc3c 2ecb cfbd e146 72bd 6184 0cbc
00000120: 89c0 0c3e cb4d 293d 9ac4 85bd 442c 903d
00000130: 2607 263d 9ce3 983d 3dac e7bc 19d5 13be
00000140: ff21 df3d db22 10be 4c3d 053e 0fe9 95bd
00000150: 32c1 0cbe 3da2 7d3d 3a03 1cbe 1b48 883d
00000160: b6c1 05be 6c94 36be 32bd 78bd 388f 323e
00000170: 0067 183e 7c62 10bd 3524 283d 56e4 a53a
00000180: 166c 593d 5d01 a4bd c0b3 bfbc 04db a83c
00000190: 2a33 513c 99d4 083d 5928 66bc db70 03be
000001a0: d61c 0dbe d6cc 5dbc 44c6 203d 95d2 8abd
000001b0: 5b44 08be 2a77 763d ebc1 cb3c 79d5 e63d
000001c0: e161 10be 7a17 553c 33ec dc3c 2bb3 10be
000001d0: 04df f9bc f637 1cbd 9b29 3c3e 8339 70bd
000001e0: feaa 4b3d 9c9f 0d3e 45e2 0cbe 4b45 333e
000001f0: 486b 953d 49a0 85bd 77cb 473d 8a81 82bc
00000200: e394 003e e979 94bd ee41 5abb fe4a 633e
00000210: 7c64 d73d bde1 2f3e 4c93 8b3c db6f 6bbe
00000220: 9602 e33d 3cc3 803d c455 a73d e445 653d
00000230: 9a1a 1e3e 6a79 b63d bf4a b3bd f89b 8c3d
00000240: a1f9 89be fa5a 833d eb89 38be 5b82 b4bc
00000250: 1f6a 2f3e cc30 a0bc 4533 2cbe 9d1d 463e
00000260: 46bf b93d 3c44 83be 3c42 79be 09cc 18bd
00000270: fcf8 573e 1ea1 fa3d 6490 23bd 9a73 c2bd
00000280: d564 0abe fce9 aebd 1699 51be d74b 413d
00000290: c9dc 123e 6e8c 27bd 3b74 7b3d 286c f63b
000002a0: 0bc3 84bc 809e f13c 758b 823d 1ac9 3d3e
000002b0: 847b 5c3e 972b 8e3d e2f7 37be 1aa9 903e
000002c0: ad5d 0fbe bdd8 8f3e 5d73 713e 81fe 0fbe
000002d0: f59c 703b 3198 e63d 67c2 723e d04c a23d
000002e0: 2317 76be 2062 3fbb 26e3 dc3c 08b5 523e
000002f0: d26d 903c 829f 883d 5898 ec3c caa8 e3bd
00000300: fb5b 313e 2837 243c 9c11 7abd 7ffe 923d
00000310: 2c91 eebc bfaa 273e 7fc0 b83d 2ce0 df3d
00000320: 9d02 023e 2d58 b0bd 617e e53c b953 083e
00000330: f45a 683d 7ecf 0ebd 48f8 86bd 046f 523c
00000340: 7ac6 083e af97 a8bd 1c8f a63d e08f 20be
00000350: eef9 f8bd 625f d8bd 00f0 d63d de97 243e
00000360: 3ce3 73bc 4c89 6bbd f1dc 313b ace7 373a
00000370: 0ae9 913c 449e 9bbd eeac dbbd ff4c 1dbd
00000380: 689f 1bbe e87f c83d 9247 a0bc 389f 913d
00000390: 09e5 11be a1ba 3dbe 364e 1f3d a086 4bbd
000003a0: 06f9 c5bd fa1a 80bc b952 773d bf8c 153e
000003b0: 321c 373e 963e 123d 8462 2abe 4398 223e
000003c0: ba88 cd3d e8f3 3e3c d200 9ebd 777e fcbd
000003d0: 4a7d 8abd 15ce 7d3d c28d 443e ff40 59bd
000003e0: a1fc 9d3c 1eb8 a23d 5618 213e f636 823d
000003f0: e37b 34bc 1e51 1b3e 0f11 483e 8cac 03be
0.076134145 0.24409546 0.063709795 -0.13568656 0.051920895 -0.113245666 0.104044445 0.14992285
-0.060404915 -0.13140495 0.06409408 -0.25625944 0.09048679 -0.0022828747 -0.27872488 0.12723075
-0.14222509 0.10827128 0.052809265 0.030001406 0.15334779 -0.18078668 -0.20899089 -0.02770329
-0.08871416 0.09541325 -0.0872908 0.14892314 0.15479745 0.2617673 0.071138844 0.07647256
-0.006156031 -0.06469237 -0.18832123 -0.019021977 0.13090736 0.19354902 -0.082424216 0.07131658
0.0015779324 -0.061217833 -0.12964213 -0.22647172 -0.093679994 -0.027726928 -0.00018553644 0.1272374
0.05483558 0.027655756 -0.06498009 0.13972452 0.20035915 0.087251686 -0.04071121 -0.06911924
0.02532541 0.1538074 -0.009674314 0.07260338 0.06527584 -0.10277032 0.038127676 0.06361822
0.04073405 0.01225831 0.06775451 -0.00781045 0.030762974 -0.10146175 -0.059149627 -0.0085764835
0.13745321 0.041333955 -0.065316394 0.07039693 0.04053416 0.07465288 -0.028280372 -0.14436759
0.10895156 -0.14075796 0.13011664 -0.07319843 -0.13745573 0.0619223 -0.15235606 0.06654378
-0.13062176 -0.17830056 -0.060727306 0.17437446 0.14883041 -0.035250172 0.041050155 0.001265655
0.053081594 -0.080080725 -0.023401141 0.020612247 0.012768546 0.033405874 -0.014047706 -0.1283602
-0.13780531 -0.013537606 0.03925158 -0.067784466 -0.13307326 0.060172237 0.02487274 0.112711854
-0.14099838 0.0130060855 0.026968097 -0.14130847 -0.03050185 -0.038139306 0.18375246 -0.058648597
0.049723618 0.13830417 -0.1375819 0.17506902 0.07295853 -0.065247126 0.048778024 -0.01593091
0.12556796 -0.07249815 -0.0033303457 0.22196576 0.10517213 0.17175956 0.01703801 -0.22991888
0.110844776 0.06287238 0.08170655 0.055974856 0.15439835 0.08909877 -0.08754491 0.06865686
-0.26948264 0.06413837 -0.18021362 -0.022034815 0.17130326 -0.019554518 -0.16816433 0.19347234
0.09069686 -0.25637996 -0.24341673 -0.037303958 0.21091074 0.12237762 -0.039932624 -0.094947055
-0.13515027 -0.08540723 -0.20468554 0.047191467 0.14342035 -0.04090541 0.061390143 0.0075202174
-0.016206285 0.029494524 0.063742556 0.18533745 0.21531492 0.06941908 -0.17965654 0.28254014
-0.14000578 0.28095046 0.23579164 -0.1406193 0.0036714647 0.11259497 0.23706971 0.07924807
-0.24032263 -0.0029202774 0.026963782 0.2057687 0.017630491 0.06671049 0.028881237 -0.11116178
0.17320244 0.010022916 -0.06105195 0.071774475 -0.029121958 0.16373728 0.09021091 0.10931429
0.1269631 -0.08610568 0.028014364 0.13313188 0.056727365 -0.03486585 -0.06590325 0.012843851
0.13356963 -0.08232056 0.08132765 -0.15679884 -0.12157045 -0.10565068 0.10494995 0.16073558
-0.01488572 -0.057503983 0.0027139748 0.0007015418 0.017811317 -0.07598546 -0.10726343 -0.038403507
-0.15197527 0.09790021 -0.019565377 0.07110447 -0.14247526 -0.18528225 0.038892947 -0.049688935
-0.09666638 -0.015637863 0.060381625 0.14604472 0.1788185 0.035704218 -0.16639143 0.15878396
0.10035844 0.0116548315 -0.07715 -0.12328809 -0.06762178 0.061964113 0.19194701 -0.0530405
0.019285502 0.07945274 0.1573194 0.06358139 -0.011015865 0.15167663 0.19537757 -0.1285879

encoder_lstm.weight_hh_l0 f4 [128, 32]
00000000: 29bb 81bd bf28 113d 81ca 313e e608 ffbd
00000010: 3a7a 083e 84d9 093d c260 2ebe 0aac 1d3e
00000020: 8c69 d43d f04e 99bb dcf6 dbbc 48b2 c3be
00000030: 9eb2 5bbe 5357 13be 7919 913d 2e83 253d
00000040: bc9c 47bc a05f 30be 6fca 0a3d f2c2 843e
00000050: aebf 01bd 02fa b03c 48f5 f13d eaa6 bcbd
00000060: 904d f63b 12a7 4e3d b13d 22be 2ae6 be3d
00000070: 62cf b8bd d909 993c eba3 6dbc bf5f 1fbe
00000080: ad90 883d 50e6 d7bd c6c1 33bc 2ac9 413d
00000090: 51d5 003e a40d 713d b0bd ad3c 61ab d8bd
000000a0: 3c61 d9bd f11a 2f3d 5b6e 00be 9d9d dfbd
000000b0: 7737 d73c 063b 0d3e c6ca cabd 402d 353d
000000c0: 6ace 74bc b591 28be 1753 e13d 7696 0b3e
000000d0: 3998 eb3d 0049 a8bc 6f09 3e3e 79d5 883d
000000e0: 5cf7 d73d b343 dbbd 481d 533e cbd6 06be
000000f0: 1841 34be 350b 44bd 4a7a ec3d 6992 f63d
00000100: 2a69 1c3e 6846 853e 4126 153e f6c0 8cbd
00000110: 17bf c7bd 3aad 3d3e 42b4 d4bc 5bea 2ebd
00000120: c131 72bd 3e83 b8bc 1684 4fbe a279 34bd
00000130: b8ec 163d 8c1e 843e 43cc 593d 2861 7dbd
00000140: 4b9d 25bd 539a 4cbe 75b8 96bd 4e32 02be
00000150: 01d7 30bd 21e6 043e e6c6 8e3e 5ff0 793d
00000160: 3926 1e3e dab8 5f3d bc2b 65be c466 babd
00000170: f656 2a3d 3188 c4bd 323a eabd 5cbd ac3c
00000180: 2f1d 9b3d 6312 c9bd d6ae 1b3e 3e3c 9b3c
00000190: 79cb 8cbd e71a fcbd c69d 94be 237c e83d
000001a0: cb31 c6bd 96f0 80bd 5757 d7bd ff58 7fbd
000001b0: c76a 8abe da68 bcbd 248b 223e 2f68 2b3c
000001c0: c05f b33d 9670 a2bc edae 5a3d e8d0 023e
000001d0: ce6b efbd a160 e3bd b742 1a3e e6f7 13bd
000001e0: 76bc 06be 105c 013e ee2a 21be 670a 5bbd
000001f0: 9892 a83d ba42 65be 64cd 433e a08c c63d
00000200: 2ca3 d73d 14f7 b93d 364e 4e3d 34ea 173e
00000210: f3f1 e7bd fc4c aa3d 0ecb b43c ccc6 5c3e
00000220: 2133 2d3d b437 ee3d e69c 03be 2ec1 6bbe
00000230: df4e 3e3d f2b1 b9bc 3ab7 36be fe9c 2b3e
00000240: 1c3b bdbd ca1b 2b3e 4a83 06be 01d0 b7bd
00000250: ed3f 03be f914 af3d 4da8 1dbe 6eca 07be
00000260: bbf0 5abc 747a ca3d ee8f 323c 1374 c2bd
00000270: ad32 fdbd 3106 bfbc bd2a 293d 0e4c 0abd
00000280: 0f40 963e ca99 a2ba 747a 0c3d 3143 3b3c
00000290: 3a70 d63d e16a 0bbd a63d fd3d 9866 25be
000002a0: a857 b53c 2877 af3d dccc a8bd 7825 31be
000002b0: b050 5dbe 0b22 e93d da93 4d3d bc6b 32be
000002c0: 85e4 12be 80e3 0bbe 3d80 ccbd 2667 cdbd
000002d0: 4ccd 843d 90f0 513c d82d d73b af4e aabc
000002e0: 2b0e 143e 5e9c 6d3d 3f00 91be 7899 1cbe
000002f0: 5c29 233e f8fd 66be e451 e73d c9dd f5bc
00000300: d4b7 b43d b03d 0f3d 63cc 80be 4c26 28be
00000310: 2af2 c3bd 4fe8 523d ef21 753e 8107 cbbe
00000320: a8d8 843e 2635 46bc 6a79 9f3d 86b1 47be
00000330: 2585 fbbd 3e52 c53d 43a9 bdbd 2251 54bd
00000340: c76b 323e bcbb 80be 1b7b 52be bed6 42be
00000350: d30e a03e 8c4e 133d ffb8 863e 6f1d 4dbd
00000360: 9d1f a33e e6dc 863e 73ef d1be 3ef6 04bd
00000370: 21d4 1b3e b3fb c1bc 977b d5bd 867a df3d
00000380: 71cc 743e e321 c5bb 812d 1abd 3632 b0bd
00000390: b3ce 0abe 8910 4e3e 5564 ddbe c5bd 8c3b
000003a0: 2ad9 22be 0c27 27bd ac6b 8dbd d899 26bd
000003b0: ba26 fa3e 8d8e 983e 7929 ee3d bb6a 92bd
000003c0: ad10 d13d 0df9 d53c f1ba 83bd 9f12 13be
000003d0: 82e0 42bd 5dd0 163d 1690 69bc 9b0e 4dbe
000003e0: 2869 8c3e f9a7 24be 91f9 59be 4e57 59bd
000003f0: 52be 7c3b 2eaa d5bc 8caa 273e ed0f d93a
-0.06334526 0.03543925 0.17362405 -0.12452869 0.13327876 0.033654705 -0.17029098 0.15397659
0.10371694 -0.0046785995 -0.02685111 -0.38221955 -0.21454856 -0.1438878 0.07084937 0.040408306
-0.0121833645 -0.17223978 0.033884462 0.2592998 -0.03167694 0.021603588 0.11814362 -0.09211524
0.0075165704 0.0504523 -0.15843846 0.09321244 -0.0902393 0.018681454 -0.014504413 -0.15563868
0.0666822 -0.105419755 -0.010971492 0.047310986 0.12581374 0.0588509 0.021208614 -0.10579563
-0.10614249 0.042750303 -0.12542097 -0.10918734 0.026271565 0.13792047 -0.09901957 0.044232607
-0.014941791 -0.16461833 0.11002176 0.13631615 0.115036435 -0.020542622 0.18558286 0.06681342
0.10545227 -0.10706272 0.20616639 -0.13167875 -0.17602956 -0.04786225 0.11546762 0.12039644
0.15274492 0.26030278 0.14565374 -0.06872742 -0.09753244 0.18523112 -0.02596486 -0.042703968
-0.05912948 -0.022523519 -0.2026523 -0.04406131 0.036846846 0.25804555 0.053173315 -0.061860234
-0.04043321 -0.19980745 -0.07359401 -0.12714502 -0.043173794 0.12978412 0.27886122 0.06102025
0.15444268 0.054619648 -0.22379965 -0.09101632 0.04158684 -0.09596289 -0.11436881 0.021086387
0.07573926 -0.0981796 0.15203413 0.018949624 -0.06874747 -0.12309819 -0.29026622 0.11351802
-0.09677466 -0.06295888 -0.10514706 -0.062340733 -0.2703459 -0.09199686 0.1587339 0.010461851
0.08758497 -0.019829076 0.05338948 0.12775004 -0.11690484 -0.11102415 0.15064512 -0.036125086
-0.1315783 0.12632775 -0.15739033 -0.053476717 0.082310855 -0.22388735 0.19121319 0.09694791
0.105291694 0.090803295 0.050367557 0.14835435 -0.11325445 0.08315465 0.02206948 0.2156021
0.04228509 0.11631718 -0.12852821 -0.23022911 0.046461936 -0.022667859 -0.17843333 0.16759107
-0.0923979 0.1670982 -0.1313602 -0.089752205 -0.12817355 0.08548922 -0.15396233 -0.13260815
-0.013363059 0.09886637 0.010898573 -0.09494796 -0.12363181 -0.023318382 0.041300524 -0.033763938
0.29345748 -0.0012405452 0.034296468 0.011429594 0.10470624 -0.034037475 0.12365274 -0.16152418
0.022136524 0.08567649 -0.08242199 -0.1729945 -0.21612811 0.11383446 0.05018983 -0.1742391
-0.14344986 -0.13661003 -0.09985397 -0.1002944 0.0648447 0.012813702 0.0065667443 -0.020789472
0.1445853 0.05801045 -0.283205 -0.15292919 0.15933746 -0.22557819 0.11294916 -0.030012982
0.08824125 0.03497094 -0.25155935 -0.16420859 -0.095676735 0.051491078 0.23938726 -0.39654163
0.25946546 -0.0120976325 0.0778683 -0.19501314 -0.12281255 0.09634827 -0.092608 -0.051835187
0.17423926 -0.2514323 -0.20554774 -0.1902723 0.3126131 0.03596358 0.26313016 -0.0500769
0.31860057 0.26340407 -0.41002998 -0.032461397 0.1521764 -0.02367959 -0.104239635 0.10912041
0.23906113 -0.0060160025 -0.037641052 -0.08603327 -0.13555412 0.20123495 -0.4324061 0.004295083
-0.15903154 -0.040808722 -0.069053024 -0.04067406 0.4885767 0.29796258 0.11629004 -0.071492635
0.10208259 0.026119733 -0.064321406 -0.14362572 -0.04757739 0.036819804 -0.014255544 -0.20025103
0.27423978 -0.16079701 -0.21286608 -0.053061776 0.0038565588 -0.026082125 0.16373652 0.0016560532

encoder_lstm.bias_ih_l0 f4 [128]
00000000: 5c9c e93d ffdf f9bc d97e 663e 74d4 02bc
00000010: fc54 64bd 5565 463e 8659 7c3e 216c cabd
00000020: 789b f5bd de84 f8bd 85fd bf3d 92ea 803e
00000030: 44a4 4e3e 6812 143e 7b55 fa3d 4d58 2dbe
00000040: 36b4 503e dce2 163e fab1 66bd 7793 a73c
00000050: 1159 253d ec2f 103d a5c3 e23d 2a88 c23d
00000060: 18cb f63d 5bd0 903d 5050 463c ddba a13d
00000070: 51d4 da3d a09a 8a3d 50be 52bd 9b1b 09be
00000080: d4b4 a03d c39d f63d 31e9 b73d efd5 df3c
00000090: 713c 1f3b b442 1cbe 52f2 4e3a 62aa d1bd
000000a0: 3619 4fbd 7041 1ebc f43a 10bd c60a 01bc
000000b0: 4ed5 bdbd 769d 8ebd bdcf 58be 4445 b83c
000000c0: 6671 acbc 2b0b 343c 609c 113e 7a03 13bd
000000d0: ef81 cabd 458b 213e e742 823d 867d 3f3d
000000e0: 6a7a b7bd 37d2 ebbd d611 df3d 87a7 2abe
000000f0: 05e8 023d cad2 133e da1d c23d 4b76 163e
00000100: 9d2a d33d 0395 d43c eec2 383d 2fa0 093e
00000110: e497 d9bd 1935 1abe dd6d fc3d 92dd 8d3d
00000120: f31d e83d 644d 19bd 4a8f 10be 0e05 c1bd
00000130: f04c 80bb 146d f73d 05df 22bd c08c a03d
00000140: 7469 5f3d d687 30bd 317d 39be ba01 303e
00000150: d06c 813d 0bd2 e6b9 8ac4 ccbc 4218 b33c
00000160: 9163 2fbd 9b85 e7bd 23ac 16be 370e e9bd
00000170: 3ca7 01be e2e8 02be a2ed d43d 23c0 fa3d
00000180: 99c8 4fbc d48f c63d 4d37 7c3e 788b 2fbe
00000190: 4eca 5bbd d42e ba3d d33d b1bb 4e9c 633e
000001a0: cfda 0cbe 7a24 c7bd cabf fc3d 464d 35bc
000001b0: e147 873e 370f 1cbd 8f44 b6bd 90b9 43bd
000001c0: 79fd 84bd 8394 c8bd b543 103d 1863 7f3c
000001d0: 141c 5a3e d97a ef3d 2da0 0bbd 0dd1 0b3e
000001e0: cac4 833b eba6 cc3d e39a 54bd 39b0 edbd
000001f0: 6e52 83bd cfd8 4dbd 6409 953b 5f2e 213e
0.11406776 -0.030502317 0.22509326 -0.007985223 -0.05574511 0.19374593 0.24643525 -0.09883905
-0.11992544 -0.121347174 0.09374527 0.25178963 0.2017985 0.14460146 0.12223335 -0.16928215
0.20381245 0.14734977 -0.056322075 0.020456059 0.040368143 0.03520195 0.110724725 0.094986275
0.12050456 0.07070991 0.012104109 0.078969695 0.106850274 0.06767774 -0.051451027 -0.13389437
0.0784699 0.120418094 0.089800246 0.027323691 0.00242975 -0.1525982 0.0007894385 -0.10237576
-0.050561152 -0.009659156 -0.035212472 -0.007876104 -0.092692 -0.06963627 -0.21172996 0.022493966
-0.021050166 0.010988991 0.14219809 -0.035891987 -0.09888064 0.15775783 0.06360417 0.046750568
-0.089588955 -0.11514705 0.10892074 -0.16665469 0.031959552 0.14435878 0.0947835 0.14693563
0.10310862 0.02594996 0.045107774 0.13440011 -0.10624674 -0.15059318 0.12325642 0.06927027
0.11333837 -0.03742732 -0.1411716 -0.09424792 -0.0039154217 0.12081352 -0.03976347 0.07839346
0.054543927 -0.043098293 -0.18114163 0.17188159 0.063195825 -0.00044025513 -0.02499606 0.021862153
-0.042819563 -0.1130478 -0.14714102 -0.113796644 -0.12661451 -0.1278415 0.10396887 0.122436784
-0.012682104 0.09695402 0.2463047 -0.17143047 -0.05365973 0.09090963 -0.0054089813 0.22227594
-0.13755344 -0.09723754 0.12341268 -0.011065787 0.26422027 -0.038100448 -0.08899795 -0.047784388
-0.064936586 -0.09793951 0.03522082 0.015587591 0.21299773 0.11693353 -0.034088302 0.13653965
0.004021262 0.099927746 -0.051905524 -0.116058774 -0.064122066 -0.050255593 0.0045482386 0.15740345

encoder_lstm.bias_hh_l0 f4 [128]
00000000: 84f2 0abe a224 11be c01f 373e 692a 96bc
00000010: 04b5 15be e05b 98bd bf47 9d3e 792c dd3d
00000020: 84f1 ba3d cb04 243e b733 383d f368 f2bc
00000030: 9ead 5d3e 2efa 323e b7c7 053e a29b d63c
00000040: f6fa 7d3e 9cb9 a63d 161b 0bbe 0d58 a63d
00000050: 3fa0 bfbd 1818 253e f7ad 8ebd c023 3bbc
00000060: d888 dcbd 35d0 02be 8bbf e0bc e18c 1c3e
00000070: d3f6 97bd bb06 b93d 24a1 5ebd 750e 0cbe
00000080: d215 133e 5e5f fe3c 9b80 b03b f6d5 ff3c
00000090: 9533 a13c 8636 f1bd e7f0 41be a73e 49bd
000000a0: 3dc9 1bbd c0e5 bebd 9eb4 6cbd 22fa 7dbe
000000b0: 7b18 c7bd fc96 cb3d 3ece b7bd 3bd4 d0bd
000000c0: 21d9 b33d 0010 373e da2d 263e d73f b1bd
000000d0: 0a4c 4e3d f176 4b3e 48f5 183e 51b3 c3bd
000000e0: a52d 1dbe 1e87 3cbd 8d8d 063d cfa2 083e
000000f0: 9f06 2a3e 029a edbc 5d2f bf3c 48fb 1e3e
00000100: 4e20 0a3e d66e 763d fd70 91bd 6ec1 cabd
00000110: b09d e8bd 3e61 c13d 2698 1b3e 37aa 123e
00000120: 08b4 a83d 1163 2a3e f4e3 4dbd 0241 a23c
00000130: 04cd 67bc b00e f0bd 856a 3abe efb4 ddbd
00000140: d437 06be 7bd0 16be bd08 dabd 2464 08be
00000150: 90e3 f03d 41c1 9b3d e07d 0c3e ae87 f2bd
00000160: 54c7 e9bd 5bf3 b5bd 2914 293e a248 06be
00000170: 411b d1bc 2ec8 aabd d8f1 61bd 3363 b23d
00000180: 482e 223e 695a da3d 645c 9c3c f334 833d
00000190: d699 0bbe b87c 123d 2a86 d73d 7ef2 b03d
000001a0: 5c99 043e c822 28be 6683 5d3e 369f c33d
000001b0: e955 cc3c ae47 1dbe d73e c8bd 5414 083d
000001c0: b876 513d 453a b4bd 7a89 04be d9a9 37bd
000001d0: d3f0 d5bc 9746 12bd b127 973d 2c80 d9bd
000001e0: 7daa 17be 1ae1 c73d 2773 7bbd ae22 823d
000001f0: 5db9 22bd 7d0b c23b f912 6cbd 9904 a23c
-0.13569075 -0.1417413 0.17883205 -0.01833077 -0.14619833 -0.07439399 0.307188 0.10799498
0.09128097 0.16017453 0.044971194 -0.02959106 0.21648261 0.17478248 0.13064466 0.026197258
0.24802765 0.08140871 -0.13584551 0.08122263 -0.093567364 0.16122472 -0.06966775 -0.011422098
-0.107682884 -0.12774737 -0.027435085 0.15288116 -0.07420125 0.09034487 -0.054352894 -0.1367739
0.14363793 0.031051334 0.0053864247 0.031229954 0.019677917 -0.11777978 -0.18939553 -0.049132016
-0.038033713 -0.09321165 -0.057789437 -0.2480245 -0.09721466 0.09940907 -0.089748845 -0.1019673
0.087816484 0.17877197 0.16228428 -0.086547546 0.050365485 0.19869591 0.14937317 -0.09555686
-0.15349443 -0.046027295 0.032849837 0.13343357 0.16604088 -0.0290041 0.023338014 0.15525544
0.13488886 0.060164295 -0.07101629 -0.09900175 -0.113582015 0.094423756 0.15194759 0.14322744
0.08237463 0.16639353 -0.05026622 0.019806389 -0.014148001 -0.117215514 -0.18204696 -0.10825526
-0.13107234 -0.14727966 -0.10646198 -0.1331945 0.11762154 0.0760522 0.13719893 -0.11842285
-0.11414972 -0.08884307 0.16511597 -0.13113645 -0.025525691 -0.083389625 -0.05516228 0.08710327
0.15837967 0.106617756 0.019087024 0.06406584 -0.13632903 0.035763472 0.10523637 0.08640002
0.12949127 -0.16419518 0.21632156 0.095518515 0.024943309 -0.15359375 -0.09777611 0.03322251
0.05113861 -0.088001765 -0.12943068 -0.044839714 -0.02611581 -0.03571185 0.073806174 -0.1062015
-0.1481113 0.097597316 -0.061389115 0.06354271 -0.039727557 0.0059217797 -0.05763528 0.019777583

dest_lstm_obs.weight_ih_l0 f4 [128, 2]
00000000: 90df e0bd afa8 1f3e b29f 1abd d7ac cd3d
00000010: 2aff 08bd 3f11 e1bc 4c7d c73c 7dcf 853d
00000020: 01d5 203c fb0f 16bd 1fdb 17bc 4bc9 6e3d
00000030: 702e 5ebd 6e61 abbd d5b5 dbbd 0337 02be
00000040: c853 b33c 7396 343d b1ff 12be 6b92 553d
00000050: 3f9f a03c 6a85 c9bd fc99 34bc 74b0 883d
00000060: 8b17 be3c 02c7 0b3d d0d7 40bc dcc9 0dbd
00000070: 0713 d93b 045c f7bd 3018 883c 8e6d c7bd
00000080: efa2 8bbd 01ea 4cbd 8482 2b3d d288 55bd
00000090: f204 7c3d fe38 ae3d 4563 643c 6e9a d43b
000000a0: b53a 673c 92d9 213c 9cb4 05be 840f f1bd
000000b0: a687 633b 4e47 3abe b454 0fbe edd0 283d
000000c0: 0533 29bd b218 1c3d 6186 d6bd eed1 bc3c
000000d0: ea26 8d3d 1d4a 17be d465 27bd da2c 0bbd
000000e0: a059 46bc 7ae3 383d 8ef5 39be ed9b 0fbc
000000f0: 570d a1bd 9d76 ae3d 46a1 4dbd 5f1a 3fbd
00000100: 8252 c23c 6de8 d4bd eca7 973c 1682 54bd
00000110: 1946 6f3d 0c83 913c 92f9 28be aa89 ee3c
00000120: b8fa 3fbe 1147 b63d f111 9e3c 5324 48be
00000130: bb1f bcbc fa05 8fbd 2805 25be 5dcf 793d
00000140: 57ea a23d b584 45be b578 823d 7d00 883d
00000150: 765a bf3d 0294 ed3b f339 85bd 1238 23be
00000160: 2f9d 303c fd8b ed3c a0e4 f1ba ad6d fcbc
00000170: 46a3 2e3d 8d0f 52bd 232d e8bd a05f 8c3d
00000180: 4028 153d c5b0 c4bc 0d05 07bd 996b c53c
00000190: 1961 49bd e6d2 06be 6f53 52bd 8434 40bd
000001a0: 10e0 4e3c a5e5 5fbc 6e9c e13c 0b72 d1bd
000001b0: 2460 27bd 95b2 9abc db4f ae3c 824d ca3d
000001c0: 87fc adbd cefb 94bd 3b4b a03d d2e5 b6bd
000001d0: a09e a5bd c4f4 463a 511d 853d 727e c1bd
000001e0: dc5c 8fbc 3888 053e 0f9d 15be bec0 9ebd
000001f0: 6db4 8dbd d7da debd e60f 93bc 6de5 333d
00000200: e37b 03be 929b 00bd 007d 0fbd 3329 fe3d
00000210: 2bb3 e03b 39e8 b63c 946b 0ebd 6bcc edba
00000220: 5ed7 e7bd f1bf 103e db64 133d d3c2 e23d
00000230: 96f6 4f3d 26f6 873c a1cb a4bd 8ed9 213d
00000240: da9d f73d 780e 89bd 6986 1dbd 0f64 97bd
00000250: 4065 9abc e1dc 10bb f196 733d 8583 0abd
00000260: 3a60 133d 0b7a a0bc 9c5a 973d 47d1 ae3d
00000270: 87ca efbd 71d2 84bd 93fc a2bd e9be 8d3d
00000280: cf12 05be 45f3 c13d aa43 55bc 8e92 b3bd
00000290: 315c 363d e42a 88bb 96ef 053e ba71 333d
000002a0: ce0e a7bc 7fea 9bbc f61a fc3d 4fb8 a0bd
000002b0: 114d 39bd 5654 9b3d 6e9c 823d 93e8 16be
000002c0: c721 f4bd b136 f2bd 6123 e0bd 3aa4 c63d
000002d0: 17e5 f73d a6f6 553d 0a20 b3bd aaa9 b73d
000002e0: c738 233d 441d b5bc e1e5 e7bc 9b46 dcbd
000002f0: 2cce b8bd 0a1a d83d c945 f7bc 82e9 1bbd
00000300: 41c2 a1bb 64cf 5bbd 660c 37be f29d 10be
00000310: cb10 533a c3db c2bd 5230 e4bc b549 6a3c
00000320: 49e1 e03d d00a c4bb 184f 413d 7539 bbbd
00000330: 5a28 54bd 5309 37bc fa43 67bc 8f93 143e
00000340: 4732 7fbd b7d6 51bd 10d9 2bbe 00e3 84bd
00000350: 4633 56bd b666 92bc d33d dfbd 0c35 743d
00000360: 6c6c e1bc f710 883c ec08 bcbd 7e08 ec3d
00000370: 3b6d 623d f691 003e b0ae 22be 6d06 24bc
00000380: 15dc d63d fb70 ccbd 68f3 6fbd 49c3 7fbd
00000390: 8139 48bd e218 63bd b7aa 4d3d 53d0 bebc
000003a0: 39db f2bd 47ed 9bbc f21a 7c3c 1d19 793d
000003b0: 4d1d 22be 6dde e43d b715 6b3c cc94 05bd
000003c0: 14eb af3d a800 e43d 2c21 a3bc b5fe 15be
000003d0: d878 853d 0027 9a39 43af 203d 8d79 6d3d
000003e0: 1a6c ffbd 743b fcbd 8ae7 083e 4c29 99bd
000003f0: 7942 21bd e16b f7bd 9366 80bd 1a47 9c3d
-0.10980141 0.15591691 -0.037749954 0.10042732 -0.03344647 -0.027474044 0.024351738 0.06533716
0.009816409 -0.036636334 -0.009268551 0.058297437 -0.054243505 -0.083681926 -0.10728041 -0.12716298
0.021890536 0.044088792 -0.14355351 0.05214159 0.019607184 -0.098399 -0.011023041 0.06674281
0.023204586 0.034125336 -0.011770204 -0.034616336 0.0066245827 -0.120780975 0.016613096 -0.09737693
-0.068181865 -0.05002785 0.041872516 -0.052132435 0.061528154 0.08506964 0.013939683 0.006488136
0.014113118 0.009878533 -0.13057178 -0.117705375 0.0034718304 -0.18191263 -0.13997155 0.041214872
-0.04130842 0.03810949 -0.104748495 0.023049321 0.06892188 -0.14774366 -0.040868595 -0.03397832
-0.012106329 0.045138814 -0.18160078 -0.008765203 -0.078638725 0.085187174 -0.05020263 -0.04665601
0.023720983 -0.10395894 0.018512689 -0.051881872 0.05841646 0.017762683 -0.16501454 0.029118378
-0.18747985 0.089002736 0.019295665 -0.19545107 -0.022964349 -0.06983562 -0.16115248 0.060988773
0.07954853 -0.19288905 0.06370679 0.06640718 0.09343426 0.00725031 -0.065051936 -0.15939358
0.010779663 0.028997416 -0.0018454976 -0.030814016 0.04263618 -0.05128436 -0.11336734 0.068541765
0.03641534 -0.024010072 -0.0329638 0.024099158 -0.049164865 -0.13166389 -0.0513491 -0.046925083
0.012626663 -0.013665591 0.027540412 -0.1022683 -0.04086317 -0.018883983 0.021278312 0.09878065
-0.084954314 -0.072745904 0.07826849 -0.089305535 -0.08086896 0.00075895735 0.06499732 -0.09447946
-0.017500333 0.13040245 -0.14610694 -0.077516064 -0.06919179 -0.10881584 -0.017951917 0.04391997
-0.12840228 -0.031398363 -0.03503132 0.12410202 0.006857296 0.02232753 -0.034770563 -0.0018142586
-0.11320375 0.1413572 0.035984855 0.11072316 0.050772272 0.016596865 -0.08046652 0.039514117
0.12090655 -0.06692213 -0.03845826 -0.073921315 -0.018847108 -0.002210431 0.05947012 -0.033816833
0.03598044 -0.019589445 0.07390329 0.0853601 -0.11708551 -0.06485451 -0.07958331 0.06921179
-0.12995456 0.09470228 -0.013016621 -0.087681875 0.044521514 -0.0041555036 0.13079676 0.04380963
-0.020392802 -0.019032715 0.1230983 -0.07847654 -0.045239512 0.07584445 0.06377493 -0.14737158
-0.11920505 -0.11826838 -0.10944248 0.096992925 0.12104242 0.052237175 -0.08746345 0.08967908
0.03984907 -0.022108681 -0.028307857 -0.107556544 -0.09023699 0.105518416 -0.030184643 -0.038064487
-0.004936487 -0.05366458 -0.17875823 -0.14122751 0.00080515136 -0.095145725 -0.027855072 0.0142998
0.1098047 -0.0059827343 0.04719457 -0.091418184 -0.051796295 -0.011171657 -0.014115328 0.14509414
-0.062303808 -0.05123016 -0.16782022 -0.06488609 -0.052294992 -0.017871242 -0.10900464 0.059620902
-0.02751752 0.016609652 -0.09181389 0.11525057 0.05527995 0.1255568 -0.1588695 -0.010011298
0.10491196 -0.09982487 -0.05858174 -0.062442098 -0.048882965 -0.055443652 0.050211634 -0.023292696
-0.1185822 -0.019034041 0.015387284 0.060814966 -0.1583149 0.11175237 0.014348439 -0.032612607
0.085897595 0.11132938 -0.019913279 -0.14647944 0.0651719 0.00029402226 0.039229643 0.057977248
-0.124717906 -0.12316027 0.13369575 -0.0747858 -0.039370034 -0.12081123 -0.062695645 0.07630749

dest_lstm_obs.weight_hh_l0 f4 [128, 32]
00000000: fa1a 8cbc 21a6 f4bd e85b fd3a b8bf 52bd
00000010: 1688 8bbe e87c 963d 24d3 173d e859 36be
00000020: 5f2e d9bb 9e8c d13d 0740 7bbd a0cf 483c
00000030: a27d 453e 3368 9bbd 0cf6 47be fd55 d8bd
00000040: d61f d53d b8a9 a43d 9400 1dbe 8f96 eb3d
00000050: bf86 9d3d 0774 ce3d 79f1 23bd 8109 b33c
00000060: 81fc 23be f813 2fbe da57 90bd 9214 a8be
00000070: b3c8 5a3e da10 de3c c2ce 403d 9910 4f3c
00000080: 52a6 30ba 2fb3 89be 0c89 1f3e 385d 2c3e
00000090: 675c 3fbe 4668 a0bc 257b 0fbe 9322 313e
000000a0: aa0a 9cbc 3d80 be3d f724 43bd e1eb 65be
000000b0: f32b c1bd a853 003d ea2a 0abe a0d7 14be
000000c0: a450 b23b 993a 12bd 6ac4 0bbe 7f54 dcbd
000000d0: 792f e33d 6fd2 263d 2ec4 d03c 9064 a6bc
000000e0: bf2b 1d3e f8ef f83d 4e2e e3bd ebd4 1abd
000000f0: 20ed e33d 4db0 853e d72a b3bd a4a6 cfbd
00000100: 632f dfbd 4aaa eabd 9e46 923d 28a3 fc3d
00000110: 2f65 12bd 278b 86bc c472 e93b 9dbd d6bd
00000120: 13e0 05bd 5480 96bc f706 293e 3228 10be
00000130: 2a1b 32be 09da b23d b357 9f3d 598a b93c
00000140: 4589 5bbd e548 ecbd f39b 753d 0fdd 243e
00000150: 9a5d 10be 237c 0e3e 87c2 8b3b 6832 06bd
00000160: 6155 fbbc f1ef 07be c559 103d 9059 0c3d
00000170: 3806 a83d 06c5 223d ff76 573d 4863 d6bc
00000180: d67a 6ebd baa0 5cbe 19fb 183e a092 943d
00000190: 3beb e6bd 90e7 073d 85db 0cbe 62e4 6b3d
000001a0: 4bdf 013e 4ea8 86bd 8a03 8e3b bf29 543d
000001b0: 5fa6 05be 3518 09be 36ba dc3d 18a0 8cbd
000001c0: ee39 2a3d 394c e4bd f495 253e 2c4a b0bd
000001d0: 3d64 973c a160 053e d75d 0bbd 03e8 713c
000001e0: 09de 493d 9c83 943d d278 87bd 5e71 60be
000001f0: 0823 04be a894 263e 3743 40be f149 1bbd
00000200: 3bb8 3c3e 5ac9 f93b 3acf 13be 551c 0a3e
00000210: d953 1cbe bb2e 153b 4d4d 31be 7223 7e3d
00000220: d39e e53d f310 aebd 44a5 9dbd 262c 98bd
00000230: 7d9d f1bd 899f d8bd baf5 0b3e f96a d23d
00000240: b784 bc3c a372 3a3d 5811 fd3d 4b6e 48bd
00000250: e8b0 0c3e e34f 33be 49e1 17be 3a54 cf3d
00000260: 1b81 ac3d 45ed d7bb 444e b43d 19c0 493e
00000270: 50d8 553d c529 ef3d 670f 623d 4d3d 00bd
00000280: e327 1c3e 9d87 f7bd 28ed 2cbd 42cd 073e
00000290: eca5 3a3e 3131 003e 06cb a53c a468 693e
000002a0: bcb7 28be 25fb 2a3d a363 10bc 59c7 03be
000002b0: 32e7 9dbd ffcd ab3c 1b0c 5a3e 3d20 973e
000002c0: 24db 8c3d fa7d 04be 7fad b4bd ac09 32be
000002d0: e8ed fa3d 05eb 30be 379b 513d 647c 933c
000002e0: e6d3 f4bd 8eaf b8bd a6b1 f33d 39f6 0f3e
000002f0: 0538 d13d 8979 28bd 8cad 263c c71a 87bd
00000300: 8527 833c bc48 8bbd f997 6fbc 1272 13be
00000310: d15b f53b ae71 88bc 57cc f23d 2505 82bd
00000320: 375f d73d 151c 5ebd a46f 6d3d 08e8 a3bd
00000330: c9a0 353e 1a61 25be a9d4 cfbc c391 d23c
00000340: a84a 0b3d 3eeb 0bbd d977 09be 7624 3c3e
00000350: 721f a1bc 9c1a 49bd 7fac 133e 21d5 89bd
00000360: 53b2 1c3e f511 503e 5d55 253e a611 1abe
00000370: 8176 843d 4fd1 2bbe 89c5 113e 4a6a 9a3d
00000380: 229b a9bd 47b6 16bd 45fb be3d 5746 e63d
00000390: 255e 023c e88c fa3d f932 efbd fcde 0cbe
000003a0: 2ca8 ea3d 128a 0cbe 9b3a 163e 21b8 c73d
000003b0: 7eb2 3b3c 4f26 5dbd 192a 23bb a68a 9e3d
000003c0: ba61 bfb9 97fb 05bd 5761 d8bd 9481 233d
000003d0: 7913 c1bc 5cdd 313e 2b1b 223e 4e97 0c3d
000003e0: f240 1dbe e836 0c3e aac9 3bbe b01b 74bd
000003f0: 30e3 34bd 17f4 1e3e f612 a33d 5ef7 6ebd
-0.017102707 -0.11945749 0.0019329758 -0.05145237 -0.27252263 0.07348043 0.037066594 -0.17807734
-0.0066278423 0.10231899 -0.061340358 0.012256533 0.19286206 -0.07588234 -0.19527453 -0.10563276
0.10406463 0.08040184 -0.15332252 0.11503326 0.076917164 0.10080724 -0.04002521 0.021855118
-0.16014291 -0.17097461 -0.07048006 -0.32828194 0.21365623 0.027107645 0.04707218 0.0126382345
-0.0006738651 -0.2689452 0.15579623 0.16832435 -0.18687592 -0.019580971 -0.1401182 0.17298345
-0.019048054 0.09301803 -0.047642674 -0.22453262 -0.09432211 0.03132978 -0.13492933 -0.1453538
0.005441742 -0.035700414 -0.13649145 -0.10758304 0.11093039 0.04072803 0.02548417 -0.020311624
0.15348719 0.121551454 -0.11092816 -0.03780071 0.111292124 0.2611107 -0.087484054 -0.10139206
-0.1089771 -0.11458261 0.071423754 0.12335807 -0.035741027 -0.016423775 0.007124277 -0.104853846
-0.032684397 -0.018371738 0.16506563 -0.14077833 -0.17393175 0.08732993 0.07780399 0.022648977
-0.053597707 -0.11537341 0.059963178 0.16099952 -0.14098206 0.13914542 0.004265133 -0.032762915
-0.03068036 -0.13275124 0.03524186 0.0342651 0.08204311 0.039738677 0.052603718 -0.026170388
-0.058222614 -0.21545687 0.14939536 0.07254529 -0.112753354 0.03317982 -0.13755615 0.05759085
0.12682836 -0.0657507 0.004333918 0.051797625 -0.13051747 -0.1338814 0.107777044 -0.06866473
0.041559152 -0.11147351 0.16170484 -0.08607897 0.018480415 0.13025142 -0.03402504 0.014764789
0.049284015 0.07251665 -0.066148415 -0.21918246 -0.12903988 0.16267645 -0.1877564 -0.037912313
0.18429653 0.00762288 -0.1443452 0.1348737 -0.1526636 0.002276345 -0.17314644 0.062045522
0.11211934 -0.084993266 -0.076975375 -0.07430296 -0.11797617 -0.10577304 0.13667956 0.1027431
0.023012502 0.045519482 0.12356824 -0.04893331 0.1373936 -0.17510943 -0.14832033 0.10123487
0.084230624 -0.006589564 0.088039905 0.19702186 0.052208245 0.11677889 0.05519047 -0.03130846
0.1524959 -0.12086413 -0.042218357 0.13261893 0.18227357 0.12518765 0.02023841 0.22793823
-0.16476339 0.041743416 -0.008812818 -0.12869014 -0.07710113 0.02097225 0.2129368 0.29516783
0.06877735 -0.12938681 -0.08822154 -0.17386502 0.12252408 -0.17277153 0.051173415 0.01800365
-0.11954479 -0.090178594 0.11899118 0.1405877 0.10215763 -0.04113153 0.010173213 -0.06596904
0.016010055 -0.06800982 -0.014623635 -0.14398983 0.007487752 -0.01665577 0.11855381 -0.063486375
0.10516208 -0.054226 0.057967797 -0.08003241 0.17737116 -0.16150323 -0.025369959 0.02570427
0.034006745 -0.03415989 -0.13424625 0.18373284 -0.019668315 -0.049097642 0.14421271 -0.06730104
0.153024 0.2031935 0.16145845 -0.15045795 0.06467915 -0.16779064 0.1423551 0.07539804
-0.08281542 -0.036794927 0.093252696 0.11243885 0.007957016 0.12233907 -0.11679644 -0.13756937
0.114578575 -0.13724545 0.14670794 0.09751917 0.01145613 -0.053991612 -0.0024896918 0.07741289
-0.0003650317 -0.032710638 -0.10565441 0.039918497 -0.023568856 0.17369598 0.15830676 0.034323983
-0.15356806 0.1369282 -0.18338647 -0.059596717 -0.044161975 0.155228 0.07962601 -0.058341376

dest_lstm_obs.bias_ih_l0 f4 [128]
00000000: 3d3c 853d 22a1 b1bc 7ba8 df3d 78a6 a23c
00000010: ddf7 6abe cd91 d43d 81dd f53c 01f4 ed3d
00000020: 8dbb 16be 96b5 ce3d d603 a13d 53ef 003e
00000030: 13b9 f93a 2d30 b33d 7df7 0abe 79a3 f1bc
00000040: 34e6 01bb b77b 72bd be1d 593e dced 0d3d
00000050: 20ff 0fbe 2df0 e5bc 9636 bd3d af97 d2bd
00000060: 9d43 c6bb c5f2 76bd 1028 be3d dfbe 0f3e
00000070: e81f a63d 19c8 af3d 8516 4e3d 342f be3c
00000080: 4dea 2fbd 925a 32be 2a97 1cbe 2bb9 f63d
00000090: 8e78 a3bd 8b88 45be 846a ec3d 1c93 c2bd
000000a0: 34e3 14be 6807 e6bb afe6 b1bc 96f0 97bd
000000b0: 42ae eebd 050c 1e3e 2da0 30bd d889 36be
000000c0: 9c00 5d3d 3e47 93bd 3cad 363e edaf d33d
000000d0: 4233 603d 5769 e3bd 3b8a 69bc e052 0dbe
000000e0: 15eb 20bd 4f17 40be fdb9 2bbe 0c81 0e3d
000000f0: c774 1a3d ae8a 01be 316f a4bc 791b 84bd
00000100: 6010 46bd 9a95 9c3c df95 cbbd 3d6b ecbd
00000110: ef3a 153e 5ea1 213e e134 673e 6b6a 333e
00000120: 2740 c93d 6538 aabc 8f24 bdbd 3cd4 46bc
00000130: 77ad 0fbe bc0a dabd 21f1 a93d a7df ff3d
00000140: 0590 a4bd 37d5 12bd e4e6 983d ad4b 803e
00000150: 7942 eebd 6dc3 333e 0671 15be 849f c2bd
00000160: 72fb 533d d98b 19be 4a14 0dbd 8ba5 cebb
00000170: fb5e 18be 4386 42bd 1884 173e 99c0 8dbd
00000180: 201a a73d 657a 1b3d 40ae 0d3d a9c7 fc3d
00000190: a6e8 22be 931f 0a3e 02d1 b53d 8bc3 de3d
000001a0: bbff fd3c 1073 85bd 21e2 ca3d f921 853d
000001b0: 0f4d 21be e54b ccbd be15 d5bd 280a 993d
000001c0: d92a e5bd 925d 0c3e 97d6 6c3d b5c2 003e
000001d0: 81dd 393e b0ed cfbd ca0c 583d cc9c 2ebd
000001e0: 859d 12be f8ce 94bd 4fb5 c43d 9bc2 aa3c
000001f0: d58a e6bc ec5e 0a3d 7b4e a8bd a83a b1bd
0.0650563 -0.02168328 0.10920807 0.01985477 -0.22946115 0.10379372 0.030012848 0.11618806
-0.14719982 0.100932285 0.0786206 0.12591295 0.0019052349 0.08749423 -0.13570972 -0.029496895
-0.001982105 -0.059200015 0.21202752 0.03465067 -0.14062166 -0.028068626 0.09238927 -0.102828376
-0.0060505406 -0.060290117 0.09284985 0.14037655 0.081115544 0.085830875 0.050314445 0.023215868
-0.042948056 -0.17417362 -0.1529204 0.12047037 -0.07981978 -0.19290368 0.11543754 -0.09500715
-0.14539796 -0.007019926 -0.021716444 -0.07418935 -0.11654331 0.15434273 -0.043121506 -0.1782602
0.05395566 -0.07191323 0.17839521 0.103362896 0.054736383 -0.11104076 -0.014254148 -0.13801146
-0.03928669 -0.18758892 -0.16770168 0.034791037 0.037709024 -0.12650558 -0.020072551 -0.064505525
-0.04835546 0.019114304 -0.09940695 -0.115438916 0.14573263 0.15784213 0.22578765 0.17521064
0.09826689 -0.020778844 -0.092354886 -0.012135562 -0.14031015 -0.10646579 0.08297945 0.1249383
-0.08035282 -0.03584787 0.07465914 0.25057736 -0.116337724 0.17555018 -0.14593896 -0.095030814
0.05175347 -0.14994754 -0.034443177 -0.0063063554 -0.14879982 -0.047491323 0.14796484 -0.06921501
0.0815928 0.03795852 0.034590006 0.1234277 -0.15909061 0.13488607 0.08877756 0.108771406
0.03100573 -0.06516087 0.09906412 0.065006204 -0.15752052 -0.09975413 -0.104045376 0.0747264
-0.11189813 0.13707569 0.057821836 0.12574275 0.18150903 -0.10152757 0.05274657 -0.042630002
-0.14317901 -0.07266039 0.09604894 0.020844748 -0.028142372 0.03378193 -0.08218094 -0.08653766

dest_lstm_obs.bias_hh_l0 f4 [128]
00000000: d934 6a3d e45d 16be 7d2c a73d c34d 3abd
00000010: abe4 67bd 88b5 89bc a2b9 9bbd 5f4a 323d
00000020: 3664 903c 23a8 2dbe 7c25 a2ba c09a c53d
00000030: f77a 4dbe c878 1c3e 7172 0cbe 95f8 f0bd
00000040: 8484 4f3d 4ea6 383d 2f26 743e 5fe3 143e
00000050: aa15 2cbe 2ce0 c1bc 20d1 0d3e 09c1 a4bd
00000060: 06a4 003e d03f d73b 2a27 b43d dff9 c4bd
00000070: 1590 b13d edef 8a3d a4a1 b23b 859b 3bbe
00000080: 1e60 573d 9a16 da3d 3a47 16be 7447 093e
00000090: 7914 02bd ccf8 08be 31f4 9cbd 5dff 21be
000000a0: 0039 a1bd ab8b 93bd c2ac b83d 8864 cabd
000000b0: 9280 42bd f078 cf3d ac54 3ebd 37a9 203d
000000c0: 861f 903c 7bc8 3b3d 72cc 7f3d 770a 44bd
000000d0: 1340 d43c cd0c 4dbe 560e 6fbc c4ef dcbc
000000e0: a294 d3bd cdc4 b2bd 0abb 26bd d392 49be
000000f0: 1f37 2fbe 9bb6 eabd 3f7d 4fbd 9331 233d
00000100: 956a 89bd ed67 2abd 624b 463e 3bb8 93be
00000110: b9c7 f73a aa03 28be cbc6 04bd a06e d9bd
00000120: cead 283d 3992 a93d 8be9 10bd ff9d 13be
00000130: fd1f 2abe fa01 c53d b6a1 46bd 571f 58bd
00000140: f085 f3bd e88d 6d3e 79bc f53d c630 533c
00000150: ef32 16bd b643 9c3d 069e 44be f765 1cbd
00000160: cb90 11be 9b65 cbbd c51c 523d fbd6 08be
00000170: b924 1cbe 1227 1fbd a27f 9ebd e367 f4bd
00000180: 88f9 0fbe 48a1 16be 564a c43d f4b2 b93d
00000190: a5b3 da3d f610 3b3d fd08 95bd bca8 3cbd
000001a0: f5e4 10be f85a 03bd 299c d23c 45ad 0ebe
000001b0: 9635 35bd 219e c63c eafb a43d f8eb 0fbd
000001c0: 8ef9 b9bc 660b e0bc 90b3 0e3e ecc9 553d
000001d0: 488b 673d 6235 06be d80b d83d e27c 85bd
000001e0: 75d3 423d 7e9a c8bd b2df d8bc eaa6 70bb
000001f0: bc8a 5e3c 0461 0dbe 2b6c 3abe 779b 163e
0.057179306 -0.14684254 0.08162782 -0.045484316 -0.05661456 -0.016810194 -0.07603766 0.043527957
0.01762591 -0.1695867 -0.001237079 0.09648657 -0.20066439 0.1528045 -0.13715531 -0.11766163
0.050663486 0.045080476 0.23842691 0.1453986 -0.16805139 -0.023666464 0.13849306 -0.08044631
0.1256257 0.0065688863 0.087965325 -0.09617972 0.086700596 0.067840435 0.005451398 -0.18321045
0.0525819 0.10648842 -0.14675608 0.13406163 -0.031757805 -0.13376158 -0.07663763 -0.1582007
-0.078722 -0.07204374 0.09017326 -0.09882456 -0.047485895 0.10130489 -0.04646747 0.039223876
0.017593157 0.04584549 0.062450834 -0.047861543 0.02590946 -0.20024414 -0.01459082 -0.026969798
-0.10331084 -0.08728943 -0.040705718 -0.19684915 -0.17110871 -0.114606105 -0.050656553 0.0398422
-0.06709782 -0.041603018 0.19364694 -0.28851494 0.0018904126 -0.16407648 -0.032416146 -0.10616803
0.041181378 0.08279843 -0.035378974 -0.1441574 -0.16613765 0.096195176 -0.048494063 -0.052764263
-0.11890781 0.23198664 0.11998839 0.012890046 -0.036669668 0.07630102 -0.19200906 -0.03818318
-0.1421539 -0.09931489 0.051296968 -0.13363259 -0.15248384 -0.03885562 -0.07739188 -0.11933877
-0.14060032 -0.14709961 0.09584491 0.09067336 0.10678796 0.045670472 -0.07277105 -0.046059355
-0.1414984 -0.032069176 0.025709229 -0.13933285 -0.044240557 0.024245324 0.08055861 -0.035137147
-0.022702005 -0.027349185 0.13935685 0.05219452 0.056529313 -0.13106301 0.10549134 -0.0651796
0.047564942 -0.09795092 -0.026473854 -0.0036720582 0.013582882 -0.1380654 -0.18205325 0.14707743

dest_lstm_fut.weight_ih_l0 f4 [128, 2]
00000000: 66a3 d53d e9d9 53bd 2b2a 15be 0024 8a3d
00000010: bd91 49bd 86ff ecbc 9939 f8bc 3ba4 3b3d
00000020: 1f39 bc3d 71e1 0bbe 68b5 e3bd c4b8 dd3c
00000030: b404 a0bc 490e 8abb 8ae0 09be 12be fd3c
00000040: cf4a 703d cb0d 02bc 3aaf 16be 457a 25bd
00000050: 76bb 08be 3ed7 0f3e b3b2 f4bc 4cd3 503d
00000060: 7a7d 01be 1367 c63d 3c51 163d d2c2 9c3d
00000070: 2ec5 31be e3df d2bd 018e 8dbd 40f8 54bd
00000080: baa9 a1bd 141c ec3d acf2 68bc bfb1 35bc
00000090: bd95 e5bd a621 453d d3f9 94bd 986c 49bd
000000a0: c694 38bd c206 663d 8b5f d93d 0fbc 9ebd
000000b0: 966a 053e 0282 adbd 5aaa 00bd e235 5b3d
000000c0: d324 ce3d c1ef b4bd be4d 0fbc e7e2 b43c
000000d0: 65f5 893d 6a54 0dbe ce6a c63d b5e1 9dbc
000000e0: 816e ed3d 2dcc b7bd a72b 713d 94ee d8bb
000000f0: a818 a0bc 8a06 143d 315d 06be 3236 a63d
00000100: 9e1d ac3a 9f00 04be 54c1 48bd 1284 05be
00000110: ba50 30be 92b4 06be ed0a bcbd 91eb 8e3d
00000120: 5bfe 523b 1c25 6f3d d7f0 b93d c705 e93c
00000130: b1c8 9c3d ebdc e53c e078 1b3c e2c5 553d
00000140: 7393 c1bc d4f3 953a 3e6d 5a3d 47ad 35bd
00000150: d42d 0abb 75ab e1bd 5d9c 8a3d e271 c33d
00000160: 21df b03d afe7 853c 6ed5 c03c 3bb0 a7bd
00000170: 4112 3d3d b980 873c 9935 143d b18c a33d
00000180: 4c16 3cbc 383c d03d 161e a93c b17d 0cbd
00000190: 0f1b d03d 5f19 f13b 5ed3 113e cf55 b63d
000001a0: b682 d83d 00c0 8a3c 6550 6e3c aa3d fb3d
000001b0: 58cf 17be facf 0e3d 4b6b 243d f7bb bc3c
000001c0: 7e1a 4a3d 8076 c33d 5f11 17bd 112f 0f3e
000001d0: eae0 ae3c 4de1 81bd 3109 50be 758d ae3d
000001e0: 1476 e03c 391d febd 5df6 613d 0665 6b3d
000001f0: a377 0ebd 2292 87ba 5ff3 b0bd 6f3f afbd
00000200: 93a0 83bc 07d0 d7bc 43de f13d df46 6dbd
00000210: f5ee 8b3d 463f a6bd 9b1c 9ebd c743 663d
00000220: 9214 cdbd 2b5c a4bd c2b7 053e 0a24 92bd
00000230: 1393 ba3d c47c 813d 48e9 bbbc 5dac e1bd
00000240: bc9d b5bd 06a6 38bc 448e e73c cc17 89bd
00000250: 7d3b b6bc 0ac1 f2bc f2cc b9bd 4b5c 41bd
00000260: dfcb 5b3d 8f22 3d3c d38a dc3d 61d2 9bbd
00000270: 557e c03c bd95 883d 6bcd 20bd babf 53bd
00000280: c1e4 fb3c 0c20 39bb 857a 053e 3fdb 24bd
00000290: 23a1 ebbd 3de1 8f3d 5555 2c3d 5134 6e3d
000002a0: 1e63 0bbe b2e8 31bd b03b 563d da85 9c3d
000002b0: cf7f 583d 324a cc3c 4782 1d3e 1b88 9dbd
000002c0: 8a9b dc3c 457f 073d 0d4c 9f3d 455d 9cbd
000002d0: 0bd9 b5bd dc2e ae3d 13bb 11be b3ac 003e
000002e0: 888c 11be 07f2 313d 239d 9f3d da71 fc3d
000002f0: 91c0 cfba 7d99 05bd 596c 533d 3c92 06be
00000300: e3a5 1d3d 93c3 02bd 8e9e ca3c eed4 913d
00000310: 2dbc 803d f2c8 27be ee74 b7bc 224b 19be
00000320: 5798 45bd 66bb c73d aa82 a93d c1a1 133d
00000330: dc8f aabc f747 923b f5e7 d63c f870 fe3d
00000340: 92eb e63d d0be 873d 3d98 18be c95b 3e3d
00000350: d376 df3d 12a8 30be 911c 0fbc 3716 9a3d
00000360: 6582 163d dabd 07be adc4 c2bc 6091 fb3a
00000370: c5b1 28bd 22c4 5c3d 3e3c b83d dc30 65bd
00000380: a004 1f3c 987f 473c 9454 cf3c 2a07 8a3d
00000390: 94f5 ad3d 5d4e e5bd 8e3a 2039 4aad a43c
000003a0: ce72 c33d 50ea 0d3e 5acf 9dbb 714a 593d
000003b0: 1a69 e9bd f0f3 07bd 1d0f 03be f84b 30bc
000003c0: 7e20 dcbb 2e1f 0bbe 1eef 77b9 0a53 27be
000003d0: 881a b0bd b24f 933c 7518 dc3b f959 3fbd
000003e0: d188 c3bc 054f 103d 9e15 dabc c1a6 3d3d
000003f0: 9b84 ae3d 847f 76bd 9048 0b3e 5203 523c
0.104315564 -0.051721487 -0.14566867 0.06745148 -0.049211252 -0.028930437 -0.030300902 0.04581092
0.091905825 -0.13660218 -0.11118585 0.027065642 -0.019533493 -0.0042131287 -0.13464561 0.030974422
0.058665093 -0.007937859 -0.14715281 -0.04039981 -0.1335276 0.14046952 -0.029870367 0.05098276
-0.12645522 0.096876286 0.036698565 0.076543465 -0.17360374 -0.10296609 -0.06911851 -0.051994562
-0.07893701 0.11528793 -0.014218014 -0.011089741 -0.11210201 0.048127793 -0.07274213 -0.04917583
-0.045063756 0.05615879 0.106139265 -0.07750713 0.1302894 -0.08472063 -0.03141246 0.053518184
0.100656174 -0.08834792 -0.0087465625 0.022080852 0.067362584 -0.13801733 0.0968834 -0.019272665
0.115933426 -0.0897449 0.05887952 -0.0066202376 -0.019543007 0.03613905 -0.13121487 0.08115806
0.0013131385 -0.12890862 -0.049012497 -0.13038662 -0.17218295 -0.1315482 -0.091817714 0.069785245
0.0032195065 0.058385 0.0907914 0.028445138 0.07655466 0.028059443 0.009489268 0.05219067
-0.02362988 0.0011440464 0.053326838 -0.044354703 -0.0021084445 -0.11019031 0.06768105 0.09543206
0.086363085 0.016345827 0.023539271 -0.0818791 0.046159986 0.016540872 0.036183927 0.07985819
-0.011479925 0.10167736 0.020644229 -0.034299556 0.10161411 0.007357761 0.14240786 0.089030854
0.10571806 0.016937256 0.014545535 0.12267621 -0.14825189 0.03486631 0.040141385 0.023038847
0.04934167 0.095440865 -0.0368818 0.13982798 0.021347482 -0.06341801 -0.20316006 0.085230745
0.027400054 -0.124079175 0.05516659 0.05746939 -0.034782063 -0.0010343234 -0.08640169 -0.08557021
-0.016067779 -0.026344312 0.11809971 -0.057928916 0.06832687 -0.08117537 -0.077203 0.05621698
-0.10013689 -0.08025392 0.1305838 -0.0713578 0.091100834 0.06322625 -0.022938386 -0.11019204
-0.08867976 -0.011270052 0.02826608 -0.06693992 -0.022245163 -0.029633064 -0.09072293 -0.047207158
0.053661224 0.011543884 0.10768666 -0.07608486 0.02349774 0.06669185 -0.0392584 -0.051696517
0.030748727 -0.0028247861 0.13035019 -0.040248152 -0.11505344 0.07025383 0.042073566 0.05815536
-0.13612029 -0.043434806 0.052303016 0.07642718 0.052856263 0.024937723 0.15381728 -0.07691976
0.026929636 0.033080358 0.077781774 -0.07634977 -0.08879288 0.085050315 -0.1423152 0.1256588
-0.14213765 0.043443706 0.07793643 0.12326403 -0.0015850236 -0.03261708 0.051617 -0.13141721
0.03848828 -0.031924795 0.024733808 0.07120691 0.06285892 -0.16385248 -0.022394624 -0.14970067
-0.048240986 0.0975254 0.08276875 0.036042932 -0.02082055 0.0044641453 0.026233653 0.12423891
0.112754 0.066281915 -0.14901824 0.046474252 0.10911336 -0.17251614 -0.008734838 0.075237684
0.036745448 -0.13256016 -0.023775423 0.0019193105 -0.04118516 0.053897984 0.08995865 -0.0559548
0.0097056925 0.012176417 0.025308885 0.06739648 0.08494106 -0.11196587 0.00015280602 0.020102162
0.09543382 0.13858914 -0.004815978 0.05304951 -0.11397 -0.03319162 -0.12798734 -0.0107603
-0.0067177406 -0.13586113 -0.00023644834 -0.1634027 -0.085988104 0.017982338 0.0067167827 -0.046716664
-0.02386895 0.03523161 -0.026621636 0.046301607 0.08521386 -0.060180202 0.13601899 0.012818174
