src/results/experiment_20250713_120510/centralized/do_tp_centralized_best.pt (torch, 156661 bytes, 26 tensors)

linear_enc.weight f4 [64, 2]
0	0xbef7b12e	-0.48377365
1	0xbeb51afe	-0.35372156
2	0x3e2086d7	0.15676437
3	0xbb437f52	-0.0029830527
4	0x3f447cdc	0.7675302
5	0x3e215d89	0.15758337
6	0x3efd3df8	0.4946134
7	0xbe624faf	-0.2210071
8	0xbd0f9524	-0.03505434
9	0x3f535fc3	0.82567996
10	0x3f41dedf	0.757307
11	0xbf17078e	-0.589959
12	0xbe33ff43	-0.17577843
13	0x3eceda0f	0.4040074
14	0x3ed9ca3d	0.42537108
15	0x3f4147f9	0.75500447
16	0xbf2f110c	-0.68385386
17	0xbeb939df	-0.36176965
18	0x3ed4d601	0.41569522
19	0xbe565b46	-0.20933256
20	0x3f20b985	0.6278308
21	0x3ecba45c	0.39773834
22	0xbf2b611f	-0.6694507
23	0x3f16177c	0.58629584
24	0x3edb479b	0.42828068
25	0x3f3f5c5d	0.7475031
26	0x3f269c27	0.6508202
27	0xbf036b51	-0.51335627
28	0x3efadcfb	0.4899672
29	0x3e9e0ac3	0.30867586
30	0xbd7bb442	-0.061451204
31	0xbf616d58	-0.8805747
32	0x3e9eee7f	0.31041333
33	0xbf5cd2cb	-0.86259145
34	0x3f2556a9	0.6458536
35	0x3e14ed75	0.14543708
36	0x3efd167c	0.49431217
37	0xbba84c4c	-0.0051360484
38	0xbef0e28b	-0.4704784
39	0xbf1e031d	-0.617235
40	0x3f19a4da	0.6001717
41	0xbea5700b	-0.32312045
42	0xbf0d1197	-0.55104965
43	0xbf2c5b40	-0.67326736
44	0x3d861f22	0.06548907
45	0xbf04fa6b	-0.5194461
46	0x3f2a8a68	0.6661744
47	0x3f21c7f0	0.63195705
48	0x3ef58e49	0.47960117
49	0x3e8e39e7	0.2777855
50	0xbe8f67db	-0.28008923
51	0xbe684392	-0.22682026
52	0xbe56f9a3	-0.20993666
53	0xbe315b79	-0.1732005
54	0xbf01010b	-0.50392216
55	0x3e8e07f8	0.27740455
56	0x3e242670	0.16030288
57	0xbf085d19	-0.53267056
58	0x3d1e40a8	0.03863588
59	0x3f2174a3	0.630686
60	0xbe8a2946	-0.26984614
61	0x3cafb12b	0.021446785
62	0x3f1db105	0.61598235
63	0xbd885d79	-0.066584535
64	0xbe864664	-0.2622558
65	0xbef8b9a0	-0.4857912
66	0x3da83884	0.082139045
67	0x3f20206c	0.6254947
68	0xbebb4b35	-0.36580816
69	0xbf301ee1	-0.6879712
70	0xbf222809	-0.6334234
71	0x3ec3080d	0.3809208
72	0x3ed1f857	0.4100978
73	0xbedb2bd3	-0.42806873
74	0x3f1a8c20	0.60370064
75	0xbf22c5bb	-0.6358296
76	0xbf48aa43	-0.783848
77	0x3f2c7cdf	0.6737804
78	0xbedcb21c	-0.43104637
79	0xbecbdecb	-0.39818415
80	0x3eceeaf4	0.4041363
81	0x3f059f2b	0.52195996
82	0x3f0fea8b	0.5621726
83	0xbe814d02	-0.25254065
84	0x3f13cf14	0.5773785
85	0xbf1ececf	-0.62034315
86	0x3ed07816	0.40716618
87	0xbf04372f	-0.51646703
88	0xbe892d9b	-0.26792607
89	0x3f493e1d	0.786104
90	0x3ec75f20	0.38939762
91	0x3f6ede61	0.93308073
92	0x3f349b47	0.70549434
93	0xbd8d008e	-0.068848714
94	0xbf0dc733	-0.5538208
95	0xbed3615f	-0.41285226
96	0xbf3670a9	-0.71265656
97	0x3f5eb856	0.87000024
98	0xbe76d55b	-0.24104826
99	0x3dc7ac1b	0.097496234
100	0x3e93346e	0.28750938
101	0xbe7db97e	-0.24777791
102	0xbeb0b025	-0.34509388
103	0xbf4ff4d0	-0.8123293
104	0x3eab6fba	0.33483678
105	0x3f26ea6f	0.6520147
106	0xbe8a6946	-0.27033442
107	0x3e43dca0	0.1912713
108	0x3f2de7f2	0.67932045
109	0x3e485286	0.1956273
110	0xbf4bcd8a	-0.796105
111	0x3f3bdac4	0.73380685
112	0x3ed47029	0.4149182
113	0x3ef9bec1	0.48778346
114	0x3f0db1e7	0.5534958
115	0x3efcfb88	0.49410653
116	0x3f13cf27	0.57737964
117	0x3ebba30e	0.36647838
118	0x3f1c6a21	0.6109944
119	0xbf175b01	-0.59123236
120	0x3f3d4b59	0.73943096
121	0xbec128fe	-0.37726587
122	0xbebed9b5	-0.37275472
123	0x3df091f3	0.117465876
124	0xbe9172a0	-0.28407764
125	0x3f1c1abf	0.6097831
126	0xbd965a1d	-0.073414065
127	0x3d3bd4c7	0.045857217

linear_enc.bias f4 [64]
0	0x3ecfe291	0.40602544
1	0x3ecf0cd7	0.40439484
2	0xbefd24e6	-0.49442214
3	0xbf25eb06	-0.6481174
4	0x3e449960	0.19199133
5	0x3ef43891	0.47699407
6	0x3dd44500	0.10364723
7	0x3e1f5179	0.15558423
8	0x3e3eff19	0.18652
9	0x3e486375	0.1956919
10	0x3eab0b1f	0.33406922
11	0x3eb01748	0.34392762
12	0xbd43d895	-0.04781397
13	0xbe442a26	-0.19156703
14	0xbd86c4f4	-0.065805346
15	0x3f010b7b	0.5040814
16	0xbe183642	-0.14864448
17	0x3da2595e	0.07927202
18	0x3f143bc7	0.57903713
19	0x3dbc4eb7	0.09194701
20	0x3d7abcc3	0.061215173
21	0xbe6ec7a2	-0.23318341
22	0xbeb4ab3c	-0.3528689
23	0x3f1f44b7	0.62214226
24	0xbe45ddf5	-0.19322951
25	0x3f0dbba2	0.5536443
26	0x3ee75d12	0.45188195
27	0x3ed8df16	0.423577
28	0x3dbfce98	0.093655765
29	0x3d90cd70	0.07070434
30	0xbedc3de5	-0.43015972
31	0x3e8eaca9	0.27866104
32	0x3e8bc6d5	0.27300134
33	0x3e142a9a	0.14469376
34	0xbef9af8a	-0.48766738
35	0x3dd9eb17	0.10640543
36	0xbf1c74b9	-0.61115605
37	0x3eda18bf	0.42597005
38	0x3ceeb178	0.029137358
39	0x3e086dab	0.13323085
40	0x3f17c245	0.59280807
41	0xbf140dbe	-0.5783347
42	0xbeaf20df	-0.34204766
43	0x3c5ededd	0.013602939
44	0xbeb244d0	-0.34818125
45	0x3ddf05cf	0.1088978
46	0x3d694991	0.056954924
47	0x3efdbf67	0.4956009
48	0xbe37441e	-0.17897078
49	0xbc4585c4	-0.012055818
50	0xbf14eeea	-0.58177054
51	0x3e7b22c3	0.2452498
52	0x3df84521	0.1212256
53	0xbed2fb25	-0.41207233
54	0xbe91c3cb	-0.2846969
55	0xbee33502	-0.4437638
56	0x3f2c7c72	0.6737739
57	0x3f25d898	0.6478362
58	0xbe34c617	-0.1765369
59	0x3d60e5c8	0.054906636
60	0x3edb731d	0.42861262
61	0x3ef29ef8	0.4738691
62	0xbeb2b94d	-0.34906998
63	0x3f267a31	0.650302

encoder_lstm.weight_ih_l0 f4 [128, 64]
0	0xbdf02561	-0.117258795
1	0xbcb95037	-0.022621257
2	0xbd27d600	-0.04097557
3	0xbe0e2108	-0.13879788
4	0x3e3bffe3	0.18359332
5	0x3df3f735	0.119123854
6	0x3e32a3f5	0.17445357
7	0x3e00c3b6	0.12574658
8	0x3ca7bdb1	0.020476194
9	0x3e05b2b5	0.13056453
10	0x3dc13b97	0.09435194
11	0x3e02a6dd	0.12758966
12	0x3e20a3b0	0.15687442
13	0xbe4f9f5c	-0.20275635
14	0x3d5e6cee	0.054303102
15	0xbb98c0a5	-0.004661637
16	0xbdd2b10d	-0.10287676
17	0x3e18c529	0.1491896
18	0xbc8e96b8	-0.017405853
19	0x3d9c82c6	0.076421306
20	0x3e09af22	0.13445714
21	0xbc975b7c	-0.01847624
22	0x3df37414	0.118873745
23	0x3e17adc1	0.14812376
24	0xbaa95c75	-0.0012921231
25	0xbe217b68	-0.15769732
26	0xbe08ec4c	-0.1337139
27	0xbd31db45	-0.043422002
28	0x3de9144b	0.11380824
29	0x3bcd1d15	0.0062595704
30	0xbddf3ede	-0.10900663
31	0xbd91465b	-0.07093497
32	0xbcf2106f	-0.029548852
33	0x3d095125	0.03352465
34	0xbe09974c	-0.13436621
35	0xbdd61c75	-0.104546465
36	0xbde065ff	-0.10956954
37	0xbca9466b	-0.02066346
38	0x3df889ea	0.1213568
39	0x3d0580d4	0.032593563
40	0x3e541fd1	0.20715262
41	0xbe0deed5	-0.13860638
42	0xbdd3a874	-0.10334864
43	0x3df7e8c1	0.12104941
44	0xbe29268c	-0.1651861
45	0x3c034370	0.008011684
46	0x3d8bf599	0.068339534
47	0xbd2f0a0c	-0.04273419
48	0x3de2eda3	0.11080482
49	0xbcc97781	-0.024593117
50	0xbe4d0403	-0.20021062
51	0xba9754ea	-0.0011545692
52	0x3e722ab8	0.23649108
53	0x3dfa81bf	0.12231778
54	0xbdc4834a	-0.09595354
55	0xbc9ad2f5	-0.01889942
56	0x3dc7236d	0.09723554
57	0x3e0829f6	0.13297257
58	0xbdad7be9	-0.084708996
59	0x3db2991c	0.087206095
60	0x3d7604e3	0.060063254
61	0xbda7120b	-0.08157738
62	0x3d0f2291	0.034945074
63	0x3c4baa75	0.012430777
64	0xbbde04af	-0.0067754607
65	0xbd1974b0	-0.037464797
66	0x3ddab781	0.10679532
67	0x3c943cd1	0.018095406
68	0x3d6ec63a	0.058294512
69	0x3e0302ce	0.12794039
70	0x3cf40eef	0.029792277
71	0xbe4125ab	-0.18862025
72	0x3e29f193	0.1659606
73	0x3d007d70	0.031369627
74	0xbe4e09d2	-0.20120934
75	0x3b2d3c63	0.0026433698
76	0xbd33c77b	-0.04389141
77	0xbd9b4338	-0.0758118
78	0xbe7ed0b7	-0.24884306
79	0x3d2a46dd	0.041571487
80	0x3e1ced9d	0.15325017
81	0xbe648232	-0.2231529
82	0xbccda715	-0.025104085
83	0x3d50edb6	0.05100795
84	0xbc5124ff	-0.012765168
85	0xbdc777b8	-0.097396314
86	0x3e269631	0.16268231
87	0xbdce2c07	-0.10066991
88	0xbe38ae01	-0.18035127
89	0xbba156d2	-0.00492368
90	0xbe17a4a3	-0.14808898
91	0x3ca34dd4	0.019934572
92	0x3dd2a032	0.10284461
93	0xbe369ed0	-0.1783402
94	0xbdfbeb7b	-0.12300774
95	0x3d8fb9e0	0.07017875
96	0x3e657446	0.22407636
97	0x3de76279	0.11298079
98	0x3d05e6f4	0.032690957
99	0x3e0972cd	0.134227
100	0x3d1d26a2	0.03836692
101	0xbc011bd0	-0.007880166
102	0x3e084420	0.13307238
103	0xbc09ba55	-0.008406241
104	0xbe3d7bab	-0.18504207
105	0x3e12413f	0.14282702
106	0xbe034745	-0.12820156
107	0xbe6899f3	-0.22714977
108	0xbbc6be8c	-0.0060651954
109	0x3cabe8c4	0.020985015
110	0x3d48dbe0	0.049037814
111	0xbd0b2b5e	-0.033976905
112	0x3dd5e5aa	0.104441956
113	0x3e601178	0.21881664
114	0xbd7a1b60	-0.061061263
115	0x3dd94006	0.106079146
116	0xbd94b0b7	-0.07260268
117	0x3e1fc9a4	0.15604264
118	0xbdc78335	-0.09741823
119	0x3e0f92fa	0.14020911
120	0xbcaa18f4	-0.020763852
121	0xbe1f9fcf	-0.15588306
122	0xbe4d51c5	-0.20050724
123	0x3dd46f66	0.1037281
124	0xbe4d924b	-0.20075338
125	0x3db34e3b	0.08755156
126	0xbdc54348	-0.096319735
127	0xbdb1a080	-0.08673191
128	0x3e6f4ec2	0.23369887
129	0xbb6a38cf	-0.0035739427
130	0x3c2c277c	0.010507461
131	0xbd46b0a3	-0.048508298
132	0x3d8b403c	0.06799361
133	0x3d8a1e6e	0.06744085
134	0xbcd3f4df	-0.0258736
135	0x3e46b830	0.194062
136	0x3e000a7e	0.12504002
137	0x3e9b0f99	0.30285338
138	0x3e46e456	0.19423041
139	0x3e61da1f	0.22055863
140	0xbdf412a2	-0.119176164
141	0x3e0e8fa8	0.13921988
142	0xbe13110e	-0.14361975
143	0x3e91b5ac	0.28458917
144	0xbc573991	-0.0131362835
145	0x3d03fee8	0.03222552
146	0x3e331d0b	0.17491548
147	0x3dde9204	0.10867694
148	0x3e8017f1	0.25018266
149	0xbd0d0271	-0.034426156
150	0xbe1857ae	-0.14877197
151	0x3de11d02	0.10991861
152	0xbe286e28	-0.16448271
153	0x3e645368	0.22297442
154	0x3ddef2d9	0.10886163
155	0x3d8e9023	0.06961086
156	0x3dbdee46	0.09273963
157	0xbcd8972f	-0.026439277
158	0xba985d4f	-0.0011624488
159	0x3e8840f5	0.26612058
160	0x3e49128a	0.19635978
161	0x3d9ab58d	0.07554159
162	0xbd832ab1	-0.06404627
163	0x3d0cdcd3	0.034390282
164	0xbbf69ad2	-0.0075257802
165	0x3e0752eb	0.13215224
166	0xbd746ea9	-0.059675846
167	0x3c165ff5	0.009178151
168	0x3cf5ad8b	0.029989978
169	0xbe29be0e	-0.16576406
170	0xbd2f3e82	-0.04278422
171	0x3e3b1663	0.18270259
172	0xbe9f81a1	-0.31153587
173	0x3d7c4587	0.061589744
174	0x3d23c93a	0.039986826
175	0x3dd3dc18	0.10344714
176	0x3c9cc927	0.019138886
177	0xbe27c8a1	-0.16385128
178	0xbdd536c2	-0.10410835
179	0x3cf0276e	0.029315677
180	0x3e0fe32a	0.140515
181	0x3d042d30	0.032269657
182	0xbe00fa68	-0.12595522
183	0xbd86f3fd	-0.06589506
184	0x3dd63da1	0.104609735
185	0xbcfa991b	-0.030590585
186	0xbe6db3c0	-0.232131
187	0xbc0f17d0	-0.008733705
188	0x3e92c6d4	0.2866732
189	0x3c959492	0.01825932
190	0xbe050bef	-0.12992834
191	0x3d7927a3	0.060828816
192	0x3e41d8cd	0.18930359
193	0x3df5f75c	0.12010071
194	0xbe5dcd6d	-0.21660395
195	0xbd9dcefe	-0.07705496
196	0xbcad0a52	-0.021123085
197	0x3e2afe68	0.16698611
198	0xbc00aeab	-0.007854144
199	0x3d423647	0.047415044
200	0x3dd13acf	0.10216295
201	0x3da50e47	0.08059364
202	0x3d95e03c	0.0731816
203	0x3e5c1d54	0.21495563
204	0xbebfc13c	-0.37452114
205	0xbeb1a81e	-0.34698576
206	0xbe5d2a70	-0.2159822
207	0x3ae0725a	0.0017123923
208	0xbe14c791	-0.14529254
209	0xbea2afaf	-0.3177466
210	0xbd6978cf	-0.056999978
211	0x3ec19990	0.3781247
212	0xbe99bea2	-0.30028254
213	0x3dc64f06	0.09683041
214	0xbdc17be1	-0.09447456
215	0xbc0cccfd	-0.008593795
216	0xbdabe19c	-0.08392641
217	0x3e6c74bd	0.23091407
218	0xbc8494c3	-0.016184216
219	0xbbec5110	-0.007211812
220	0x3e86c0c8	0.26318955
221	0xbd99012f	-0.07470929
222	0x3de12c7a	0.10994811
223	0x3ddb328a	0.10702999
224	0x3e741c15	0.23838837
225	0xbd1fd19f	-0.03901827
226	0x3d963bbd	0.07335613
227	0x3ed28225	0.41114917
228	0xbe780681	-0.24221231
229	0x3e5433d9	0.20722903
230	0x3dab6f60	0.083708525
231	0x3ea3f0c3	0.32019624
232	0x3d4f24cf	0.050572213
233	0xbe824d1e	-0.2544946
234	0xbd440328	-0.047854573
235	0xbe7960b6	-0.24353299
236	0x3d671c85	0.056423683
237	0xbea9a1bf	-0.33131215
238	0xbd0a0cec	-0.03370373
239	0x3d88581a	0.06657429
240	0x3c4dbac4	0.012556735
241	0x3e0ac45c	0.13551468
242	0xbd0f4a16	-0.034982763
243	0x3e83c7f5	0.25738493
244	0xbe451900	-0.19247818
245	0xbe1ee8bc	-0.15518469
246	0xbde9e721	-0.114210375
247	0xbdb5d9ae	-0.0887941
248	0x3e0b3f11	0.13598277
249	0x3a996848	0.0011704052
250	0xbe77d504	-0.24202353
251	0xbe0fb3ab	-0.14033382
252	0x3d6b928b	0.0575128
253	0x3d9202a5	0.07129411
254	0xbb7d14c4	-0.0038617114
255	0x3e5dc6ad	0.2165782

encoder_lstm.weight_hh_l0 f4 [128, 32]
0	0xbe387862	-0.18014672
1	0x3c755f05	0.014976268
2	0xbdbd730d	-0.0925046
3	0x3eaa41e1	0.33253387
4	0x3d334435	0.04376622
5	0x3d87f09f	0.06637692
6	0xbd877c9f	-0.066155665
7	0x3cb58160	0.022156417
8	0xbc5176ec	-0.012784701
9	0x3d0cfefa	0.034422852
10	0xbe0d6922	-0.13809636
11	0x3dbd218f	0.092349164
12	0xbe1affec	-0.15136689
13	0x3c284c7e	0.010272143
14	0xbcadfec0	-0.021239638
15	0x3d321de7	0.04348555
16	0xbdc78662	-0.09742428
17	0xbcd922a1	-0.02650577
18	0xbd1e72d1	-0.038683716
19	0x3dc3d7ca	0.09562643
20	0xbe0ea853	-0.13931398
21	0xbde970bb	-0.11398455
22	0xbe87f89b	-0.26556858
23	0x3e49e1e6	0.1971508
24	0x3e383fe0	0.17993116
25	0x3d97483b	0.07386824
26	0xbcab225c	-0.020890407
27	0x3e6b9b76	0.23008522
28	0x3e9a165c	0.30095184
29	0xbddc9831	-0.10771216
30	0xbc40c6f9	-0.011766189
31	0x3e017983	0.1264401
32	0x3e0c15b3	0.13680153
33	0xbde06522	-0.109567896
34	0x3bef1006	0.0072956113
35	0x3e42d6ab	0.19027202
36	0x3e4bd1af	0.19904207
37	0x3cde4e5e	0.027136978
38	0xbd6f42ae	-0.0584132
39	0xbe03cc89	-0.12870993
40	0xbe159f9f	-0.14611672
41	0xbe0ce3dd	-0.13758798
42	0xbb478839	-0.0030446185
43	0x3d4d4c6f	0.05012172
44	0xbe41d2b6	-0.18928036
45	0xbc9b744e	-0.018976357
46	0x3e560afe	0.2090263
47	0xbe3d8189	-0.18506445
48	0xbc7f7b38	-0.0155933425
49	0x3c9d0ea7	0.019172026
50	0x3d82bf52	0.06384148
51	0x3e0d2bd7	0.13786255
52	0x3cc2fb77	0.023801548
53	0xbe2ed338	-0.17072761
54	0xbd9a4bde	-0.07534002
55	0x3dc1624b	0.09442576
56	0xbd0c1649	-0.03420094
57	0x3e0d4b95	0.13798364
58	0x3c96ea54	0.018422283
59	0x3d7628ca	0.060097493
60	0xbdee30c7	-0.11630397
61	0x3e2aaf23	0.16668372
62	0xbd896738	-0.067091405
63	0x3a86a32f	0.0010272021
64	0x3dd66fcb	0.104705416
65	0xbd85d358	-0.06534451
66	0x3c265707	0.010152585
67	0xbdab2abe	-0.08357762
68	0xbd7fa17e	-0.06240987
69	0xbe3754b3	-0.17903404
70	0x3dd4c360	0.10388827
71	0x3dcbc724	0.099500924
72	0xbd437a87	-0.047724273
73	0x3e334d98	0.17510068
74	0xbdd0ec04	-0.102012664
75	0x3e6da66b	0.23208015
76	0x3c9920eb	0.018692454
77	0x3e4a0f50	0.19732404
78	0xbd8202ab	-0.06348165
79	0xbc7fa1db	-0.015602554
80	0x3dfdd9f6	0.123950884
81	0xbd488e23	-0.048963677
82	0xbe6cf16f	-0.23138975
83	0xbd029c25	-0.031887192
84	0xbdc93991	-0.09825433
85	0xbd3b2c54	-0.04569657
86	0xbdf129fa	-0.117755845
87	0x3e3a9362	0.18220285
88	0xbc1fa0a8	-0.009742893
89	0xbc2753ac	-0.01021282
90	0xbe4c5545	-0.19954403
91	0x3d90ca22	0.07069804
92	0xbd5fc177	-0.05462786
93	0x3c9e7473	0.019342637
94	0x3ceaf6f8	0.028682217
95	0x3ddf5dcf	0.109065644
96	0x3ecc54f6	0.3990857
97	0xbe146f66	-0.1449562
98	0x3d0c9677	0.034323182
99	0xbd17a12c	-0.03701894
100	0xbe87c852	-0.2652002
101	0x3de28279	0.11060042
102	0x3e4b506a	0.19854894
103	0x3d9d20e2	0.076722875
104	0x3e6564d6	0.22401747
105	0x3cd5a445	0.026079306
106	0xbe854f36	-0.26036996
107	0xbd36fdf0	-0.044675767
108	0x3caff16c	0.021477424
109	0x3cf42951	0.029804857
110	0xbf16333a	-0.58671916
111	0xbe539662	-0.20662835
112	0x3e50c6ab	0.20388286
113	0xbe011624	-0.12606102
114	0xbe350865	-0.17678984
115	0xbe45de2c	-0.19323033
116	0xbda80d18	-0.082056224
117	0xbe0bf5cb	-0.13667981
118	0x3da0308b	0.07821759
119	0x3e7effcb	0.24902265
120	0x3d3eb7ff	0.04656219
121	0x3e86a84c	0.26300275
122	0x3ca43247	0.020043505
123	0x3daa2379	0.08307547
124	0x3c858f2b	0.01630362
125	0x3dfbbf1d	0.12292311
126	0x3e927828	0.28607297
127	0x3dd5d7e1	0.10441566
128	0x3e910ce5	0.2833015
129	0xbdde9ec1	-0.10870124
130	0xbe4c0a08	-0.19925702
131	0x3e01860a	0.12648788
132	0xbe6145e3	-0.21999316
133	0xbeb8f8d9	-0.36127356
134	0x3e57a292	0.2105811
135	0x3e919483	0.28433618
136	0x3e6be263	0.23035578
137	0x3d676bd1	0.056499306
138	0xbd9b4d16	-0.07583062
139	0x3e830e15	0.2559668
140	0x3d089e90	0.033354342
141	0x3daa02ae	0.08301292
142	0x3c5ec154	0.013595898
143	0xbdee1e5f	-0.116268866
144	0x3e1649f2	0.14676645
145	0x3e3cc737	0.1843537
146	0x3c993f7e	0.018707033
147	0xbe915430	-0.28384542
148	0x3e513980	0.20432091
149	0xbebae888	-0.36505532
150	0xbe37cecb	-0.17949979
151	0x3e8b2824	0.27179062
152	0xbd86682d	-0.06562839
153	0xbd478b49	-0.048716817
154	0xbd912fc8	-0.07089192
155	0xbcc0f078	-0.023552164
156	0xbe96b513	-0.29435024
157	0xbdec3230	-0.1153301
158	0xbd209866	-0.03920784
159	0x3d7976e2	0.06090439
160	0x3edf8206	0.43653888
161	0xbd420f8d	-0.04737811
162	0xbe05d86e	-0.13070843
163	0xbdbd2ff5	-0.09237663
164	0x3bded255	0.006799976
165	0x3c8c7c54	0.017149128
166	0x3e8e46d0	0.277884
167	0xbd9bd501	-0.07608987
168	0x3e6d4a6f	0.23172925
169	0x3e8d85df	0.27641198
170	0x3c01d9f2	0.007925497
171	0x3d720ee1	0.05909622
172	0xbe6edf4b	-0.23327367
173	0x3dae3f26	0.08508138
174	0xbe9cc55c	-0.30619323
175	0x3c383a19	0.01124432
176	0x3dddf3d2	0.10837521
177	0x3e44fc80	0.19236946
178	0xbe7c19aa	-0.24619165
179	0xbe2a7717	-0.16646992
180	0x3e598565	0.21242292
181	0xbe4f4621	-0.20241596
182	0x3d92f124	0.071749
183	0x3d8e6523	0.06952884
184	0xbd08861f	-0.033331033
185	0xbd67529f	-0.056475278
186	0x3c170440	0.009217322
187	0xbdff8c19	-0.124778934
188	0x3e5d2c04	0.21598822
189	0xbe4b095b	-0.19827788
190	0x3eb67e96	0.35643452
191	0x3cbaa2dd	0.022782737
192	0xbd20cba0	-0.039256692
193	0xbd00054e	-0.03125506
194	0xbe0a62a5	-0.13514192
195	0xbdd1ce57	-0.10244434
196	0xbdc53110	-0.096284986
197	0xbdcb1542	-0.09916164
198	0xbe0c1ef6	-0.13683686
199	0xbb45e107	-0.0030193941
200	0x3dd1fb71	0.10253037
201	0x3e30b279	0.17255582
202	0xbdd70207	-0.104984336
203	0xbcfd043f	-0.030885814
204	0x3c76f0b6	0.015072038
205	0x3e42018e	0.18945906
206	0x3e86b3dc	0.26309097
207	0x3d2ed900	0.042687416
208	0x3e1faac8	0.15592492
209	0xbb8ce696	-0.004299949
210	0x3d631863	0.05544318
211	0xbc45dd46	-0.0120766815
212	0x3b8db095	0.0043240287
213	0xbdcd693d	-0.10029838
214	0x3ca80a93	0.020512855
215	0x3de80dfd	0.11330793
216	0x3e7b003c	0.24511808
217	0x3dc7d2f7	0.09757035
218	0xbd8b98d5	-0.0681626
219	0x3d3aa100	0.045563698
220	0x3d8e593b	0.06950613
221	0x3e7a60bc	0.24450964
222	0xbd95581b	-0.072921954
223	0x3e288388	0.16456425
224	0x3d88e59a	0.06684418
225	0x3ce133cb	0.027490517
226	0xbe1d19de	-0.15341899
227	0xbe2cb437	-0.16865622
228	0xbd71e1fe	-0.059053414
229	0x3cf23832	0.029567812
230	0x3c68152a	0.014165202
231	0xbdbc4721	-0.09193254
232	0x3cc0ddc0	0.023543239
233	0xbd18645f	-0.037205096
234	0xbc47fe67	-0.01220665
235	0x3d3be582	0.045873173
236	0xbd981267	-0.07425385
237	0xbe3737d4	-0.1789239
238	0xbdc4fe4f	-0.09618818
239	0xbe484abc	-0.19559759
240	0xbb44634a	-0.0029966407
241	0x3c9cf03d	0.019157523
242	0x3db0936e	0.0862187
243	0xbe0f7285	-0.1400853
244	0x3e1d5e76	0.15368065
245	0x3de9fb1b	0.11424848
246	0x3e0f843e	0.1401529
247	0x3e28e7c7	0.16494666
248	0xbd777a3c	-0.060419306
249	0x3deded98	0.11617583
250	0x3c5eb0bf	0.013591944
251	0xbde059e6	-0.10954647
252	0xbb2934f1	-0.002581891
253	0xbe191dea	-0.14952818
254	0x3d50e6ea	0.051001467
255	0x3e3bd562	0.18343118

encoder_lstm.bias_ih_l0 f4 [128]
0	0xbd87c105	-0.066286124
1	0x3e2f4d03	0.17119221
2	0x3e185886	0.14877519
3	0x3e237d6b	0.15965812
4	0x3e788b70	0.24271941
5	0xbd00c270	-0.03143543
6	0x3dedb45f	0.11606669
7	0x3e1c8dbe	0.15288445
8	0x3e575db8	0.21031845
9	0x3d9c3751	0.07627738
10	0x3e2e62bf	0.17029856
11	0xbd84013e	-0.064455494
12	0xbdca8f33	-0.09890594
13	0x3de1337e	0.109961495
14	0x3e1eb994	0.1550048
15	0xbe06e97b	-0.13175003
16	0x3de98000	0.11401367
17	0x3b8249aa	0.0039760666
18	0xbd90fdd4	-0.07079664
19	0x3de692a4	0.11258438
20	0x3deb92d0	0.11502612
21	0x3cd51f96	0.026016038
22	0xbaf1f640	-0.0018460229
23	0x3dcfd2b5	0.10147611
24	0x3e221c77	0.15831171
25	0x3dc6e787	0.09712129
26	0xbe15013b	-0.1455125
27	0x3c82b658	0.015956089
28	0x3dedea91	0.116170056
29	0xbd1238e8	-0.0356988
30	0x3e197a38	0.14988029
31	0xbd27f1ae	-0.041001968
32	0xbdd1b0ef	-0.102388255
33	0x3d47135e	0.048602454
34	0x3dbf7ec9	0.09350354
35	0xbc7b8745	-0.015352075
36	0xbe10ad1d	-0.14128537
37	0xbd49b269	-0.04924241
38	0xbdd2d32c	-0.10294184
39	0xbe0a23bd	-0.13490196
40	0xbd316383	-0.043307792
41	0x3e38f506	0.18062219
42	0x3df32e4e	0.11874066
43	0xbe0885db	-0.13332312
44	0xbc25bab6	-0.010115316
45	0x3dbab061	0.09115673
46	0xbdcbed48	-0.09957367
47	0x3ddb9bc7	0.107230715
48	0x3d7b291a	0.061318494
49	0xbc868fb6	-0.016425949
50	0xbd4311ea	-0.047624506
51	0xbc95dbc4	-0.018293269
52	0x3e1bb32a	0.15205064
53	0x3e0b5f60	0.13610601
54	0xbe296279	-0.1654147
55	0x3e199bfe	0.15000913
56	0xbcb1c881	-0.021702053
57	0x3dc70208	0.09717184
58	0xbdbdb67b	-0.09263321
59	0x3cf513c1	0.029916646
60	0x3d17f7b9	0.03710148
61	0x3e563683	0.20919232
62	0x3b1e14bd	0.0024121248
63	0xbda0dfc2	-0.078551784
64	0x3e0584fc	0.13039011
65	0x3d94dde6	0.07268886
66	0xbdba37b3	-0.09092655
67	0xbcc4dc72	-0.024030898
68	0xbc897d58	-0.016783401
69	0xbd8103b9	-0.06299538
70	0xbe014370	-0.12623382
71	0xbe0cd11d	-0.13751645
72	0x3d371682	0.0446992
73	0x3de3d6b1	0.111249335
74	0xbd257250	-0.04039222
75	0x3e281227	0.16413175
76	0x3de57234	0.11203423
77	0xbd53f7bf	-0.05174994
78	0x3d282983	0.041055214
79	0xbdb4fb55	-0.08837
80	0x3df90dfd	0.12160871
81	0x3de64ca9	0.112450905
82	0xbda84be6	-0.082176015
83	0x3dd1f363	0.102515005
84	0x3de8252f	0.11335217
85	0xbdc31942	-0.09526302
86	0x3c12c0e7	0.008957124
87	0x3bfa2e6a	0.0076349275
88	0xbe2cd1f5	-0.16876967
89	0x3dbf2f08	0.093351424
90	0x3d15cd3f	0.03657269
91	0x3e3128c8	0.17300713
92	0x3dccd2c2	0.10001136
93	0x3e17839b	0.14796297
94	0xbda9accd	-0.08284912
95	0x3daa3ab4	0.08311978
96	0xbdc86609	-0.09785087
97	0xbd7003e3	-0.058597457
98	0x3d7366c0	0.059424162
99	0x3e880371	0.26565126
100	0x3dbbbf8c	0.09167394
101	0x3bb60ff9	0.0055561033
102	0x3db0c7c9	0.08631856
103	0x3e0f5a15	0.13999207
104	0x3de6b426	0.11264829
105	0xbddbdb32	-0.107351676
106	0x3bc80320	0.006103888
107	0x3e370e24	0.17876488
108	0x3df6a888	0.120438635
109	0x3d8867f8	0.066604555
110	0x3e1deaa8	0.15421546
111	0x3d8f01d3	0.0698277
112	0x3ded7b93	0.115958355
113	0x3e73ff71	0.23827912
114	0xbd6b5b0f	-0.057459887
115	0x3cb6d668	0.022319034
116	0xbd053329	-0.032519493
117	0x3de9f232	0.11423148
118	0x3d1d867f	0.038458344
119	0xbd9b6f6a	-0.0758961
120	0x3df4a069	0.11944658
121	0xbd255b56	-0.040370308
122	0xbd489ba9	-0.048976574
123	0xbdc62470	-0.09674919
124	0x3e6e3f2f	0.2326629
125	0x3dc9a4a1	0.098458536
126	0x3ce106f0	0.027469128
127	0x3e53eeb4	0.20696527

encoder_lstm.bias_hh_l0 f4 [128]
0	0xbd7504ca	-0.05981902
1	0xbc9a80a2	-0.018860165
2	0x3e90c0cc	0.28272092
3	0x3e84dc00	0.25949097
4	0x3e09d67e	0.13460729
5	0x3e12ab1b	0.14323084
6	0x3e1b48d8	0.15164506
7	0x3e53818d	0.20654888
8	0xbd8940e6	-0.067018315
9	0x3dfc9600	0.12333298
10	0xbca57b44	-0.02020038
11	0x3e3fbfb1	0.18725468
12	0x3d42226e	0.047396116
13	0x3dbab101	0.09115792
14	0x3e8e604a	0.27807838
15	0xbd8cc00b	-0.06872567
16	0xbe1168ab	-0.14200084
17	0x3d8628b5	0.06550733
18	0xbd200db0	-0.039075553
19	0x3e019bac	0.1265704
20	0xbd3c2372	-0.04593224
21	0x3d8c8edf	0.06863188
22	0xbd0fd112	-0.035111494
23	0x3e54c53f	0.20778368
24	0x3e3f66f9	0.18691625
25	0x3e60ba52	0.21946076
26	0x3e14bf99	0.14526214
27	0xbdee7433	-0.11643257
28	0xbbdcfdb4	-0.006744111
29	0x3e197583	0.14986233
30	0x3e484fb6	0.19561657
31	0x3bf87476	0.0075822426
32	0xbb52c0c7	-0.0032158361
33	0xbbcc297c	-0.0062305313
34	0xbd3aaba1	-0.045573834
35	0x3df7c76e	0.12098585
36	0x3c998e72	0.018744681
37	0x3e0dfe61	0.13866569
38	0xbe13ddbc	-0.14440054
39	0x3e04dfb8	0.12975967
40	0x3e059ce6	0.13048133
41	0xbe1f6716	-0.15566668
42	0xbb3db6b1	-0.0028948004
43	0x3dc34888	0.095353186
44	0xbd8d2b53	-0.06893029
45	0xbd07bd90	-0.033139765
46	0x3c479d18	0.01218345
47	0xbd8171ba	-0.0632052
48	0xbd80b096	-0.06283681
49	0x3e026c79	0.12736692
50	0x3dada10d	0.084779836
51	0x3dae420b	0.085086904
52	0xbbe6844b	-0.0070348135
53	0xbd064445	-0.03277995
54	0x3cb1f617	0.02172379
55	0xbdc9a251	-0.098454125
56	0x3e57e6fc	0.21084207
57	0x3d97fa16	0.07420747
58	0x3c931d48	0.017958298
59	0xbe07daca	-0.13267055
60	0x3c2c3168	0.010509826
61	0x3e1ccee9	0.15313305
62	0x3e30f17c	0.17279619
63	0x3e24434c	0.16041297
64	0xbd93bb54	-0.072134644
65	0xbe33c190	-0.17554307
66	0xbd6b2aa6	-0.05741372
67	0xbdc928d1	-0.09822238
68	0xbd518c0d	-0.051158953
69	0x3d9082ca	0.07056196
70	0x3e18d70d	0.14925785
71	0x3db08fb3	0.086211585
72	0x3d50a4f7	0.050938573
73	0x3db7dd66	0.08977775
74	0xbd75571e	-0.059897535
75	0xbd54ccd8	-0.051953167
76	0x3d47cd79	0.04877994
77	0x3cb9507a	0.022621382
78	0x3d50af57	0.050948467
79	0xbe2ec07b	-0.17065613
80	0x3dd4c189	0.103884764
81	0xbc2e829a	-0.010651255
82	0x3ba3ffb7	0.005004849
83	0x3c31e4bf	0.01085776
84	0xbd7a0dfc	-0.061048493
85	0x3da7588f	0.08171188
86	0xbdd1fe30	-0.102535605
87	0xbde2fc11	-0.11083234
88	0xbdce3eae	-0.10070549
89	0xbd68d540	-0.056843996
90	0x3db14b30	0.08656919
91	0x3e0a19a1	0.13486339
92	0x3dddff0e	0.108396634
93	0x3dbe4bb5	0.09291784
94	0x3df2158f	0.11820518
95	0x3ca591bf	0.020211099
96	0x3e67abc0	0.22624111
97	0x3e47475f	0.1946082
98	0xbd8673d9	-0.06565065
99	0x3dfc77c4	0.12327531
100	0x3de9fe46	0.11425452
101	0x3cb426f7	0.021991236
102	0x3e0e3700	0.13888168
103	0xbcee351c	-0.029078059
104	0xbcc8b15b	-0.024498632
105	0x3d7fe1df	0.062471267
106	0x3c250e58	0.010074221
107	0x3e0671a1	0.13129283
108	0x3de1235a	0.10993071
109	0x3e74fd04	0.23924643
110	0x3c7402e6	0.014893269
111	0xbe48f0f8	-0.19623172
112	0xbe319523	-0.17342047
113	0x3caf8287	0.021424545
114	0x3de54c8e	0.11196242
115	0x3e0f26ce	0.13979647
116	0xbdbc9f10	-0.09210026
117	0x3e0c0843	0.13675027
118	0x3dc266fc	0.09492299
119	0x3c18d0a0	0.009327084
120	0x3d9199c4	0.071094066
121	0x3d5c418d	0.05377345
122	0xbcac8d70	-0.021063536
123	0xbdab701b	-0.08370992
124	0xba6183af	-0.0008602691
125	0x3e3acdee	0.18242618
126	0x3e5147f6	0.20437607
127	0x3d0a5870	0.033775747

dest_lstm_obs.weight_ih_l0 f4 [128, 2]
0	0xbdc43c64	-0.09581831
1	0xbde1ce16	-0.11025636
2	0xbbcf2ae1	-0.0063222502
3	0x3e159685	0.146082
4	0x3d951f8f	0.0728141
5	0xbc2a5c1b	-0.010397936
6	0xbd11c4c2	-0.035588033
7	0x3bb44cc3	0.005502315
8	0x3d8fb17e	0.07016276
9	0xbdf417f7	-0.119186334
10	0x3d1e4f2e	0.03864973
11	0x3d7059ea	0.0586795
12	0x3e06b2ac	0.13154095
13	0xbd839af9	-0.06426043
14	0x3d1074f1	0.035267774
15	0x3e251fda	0.16125432
16	0xbd813923	-0.06309726
17	0x3dac5847	0.08415275
18	0xbd8bbee5	-0.068235196
19	0x3e24cdcd	0.16094132
20	0xbd1e5ef4	-0.038664773
21	0xbc3d1dd4	-0.011542756
22	0xbcb34a1c	-0.021885924
23	0x3d8e455f	0.06946825
24	0xbdea3743	-0.114363216
25	0xbd8243c0	-0.063605785
26	0xbd9d8713	-0.07691779
27	0xbcefb38c	-0.02926042
28	0xbc49ef10	-0.012325063
29	0xbc8cf7f9	-0.017208086
30	0x3d0ea00a	0.034820594
31	0xbd545f96	-0.05184897
32	0xbdb0004c	-0.085938066
33	0x3d66096e	0.056161337
34	0xbddcfdea	-0.10790618
35	0x3df846a0	0.12122846
36	0x3e02733c	0.12739271
37	0x3da0bda0	0.07848668
38	0xbd23e2c1	-0.04001117
39	0xbe52e6d1	-0.20595862
40	0x3dc5abcf	0.096519105
41	0xbc9abef1	-0.018889876
42	0xbe298c6a	-0.1655747
43	0x3df18b62	0.11794163
44	0x3a737df3	0.0009288482
45	0x3d805d0e	0.06267749
46	0xbe07993a	-0.13242045
47	0xbc5af8ee	-0.0133650135
48	0x3d00762c	0.031362697
49	0xbdde389a	-0.1085064
50	0x3d547ce1	0.051876906
51	0x3b66d0ce	0.0035219672
52	0xbe1f7186	-0.1557065
53	0x3dedab26	0.116049096
54	0x3dcc079a	0.099623874
55	0x3d343741	0.043998007
56	0xbd4601df	-0.04834163
57	0xbd22204a	-0.039581574
58	0x3e17ffef	0.14843725
59	0x3dfa2fa1	0.12216116
60	0x3d9a3982	0.075305
61	0xbe0e1150	-0.13873792
62	0xbd8f8689	-0.070080824
63	0x3dbaa1d6	0.09112899
64	0xbd245fcc	-0.04013042
65	0xbd4a77f0	-0.049430788
66	0xbe247e06	-0.16063699
67	0xbe0f1e85	-0.13976486
68	0xbd1f315d	-0.038865436
69	0x3d5ce1a7	0.053926136
70	0xbd5daff5	-0.054122884
71	0x3c8c573c	0.01713144
72	0xbe1353bc	-0.14387411
73	0x3cfe0749	0.031009333
74	0xbca07c12	-0.019590411
75	0x3dce7dcc	0.100825876
76	0xbd46873b	-0.04846881
77	0xbc857cbb	-0.016294828
78	0xbd570367	-0.05249348
79	0xbc70cce2	-0.014697285
80	0xbd21ac3d	-0.0394709
81	0xbe12460f	-0.14284538
82	0xbd817e30	-0.063228965
83	0x3e01eb3e	0.12687394
84	0xbdce7001	-0.10079957
85	0x3dcfa3bd	0.101386525
86	0xbbe6df0a	-0.0070456313
87	0xbe39509a	-0.18097153
88	0x3e06e6f4	0.13174039
89	0x3d77a249	0.0604575
90	0xbdafab19	-0.08577556
91	0xbd5e5ff8	-0.05429074
92	0x3d2a27f8	0.041542023
93	0xbdcb02f1	-0.099126704
94	0xbbc7ce49	-0.006097589
95	0x3d18a725	0.037268776
96	0xbe26d8ea	-0.16293684
97	0xbd5c3cd2	-0.05376894
98	0x3df042fc	0.11731526
99	0xbe2f59a2	-0.17124036
100	0x3d020f1f	0.0317527
101	0xbdad02f2	-0.084478274
102	0xbdca7acb	-0.09886702
103	0x3d505cc4	0.05086972
104	0xbd13db18	-0.036097616
105	0xbda94eed	-0.08267007
106	0x3d94eec5	0.07272104
107	0xbaf5778b	-0.0018727643
108	0xbe56819a	-0.20947877
109	0xbd030c7f	-0.03199434
110	0x3e01de3a	0.12682429
111	0xbccff6d0	-0.025386244
112	0x3e21f613	0.15816526
113	0xbd966c74	-0.073449045
114	0xbd3fd42f	-0.046833213
115	0x3b803775	0.003912861
116	0x3d5a97e1	0.0533675
117	0x3d91739b	0.07102128
118	0xbe1695b0	-0.14705539
119	0x3d8ccd05	0.06875042
120	0xbd0af3f5	-0.03392406
121	0xbe0ed17e	-0.13947102
122	0x3e16edf4	0.1473921
123	0xbd517f81	-0.051146988
124	0x3d125549	0.035725866
125	0x3ded6e50	0.11593306
126	0xbdda74e0	-0.106668234
127	0xbd6c5863	-0.05770148
128	0xbcb61208	-0.022225395
129	0x3d6fe0d1	0.05856401
130	0x3da69860	0.08134532
131	0x3d32e6a1	0.043676976
132	0xbd87792c	-0.066149086
133	0xbd252de8	-0.040326983
134	0xbdd78bfb	-0.10524746
135	0x3c83b15c	0.016075782
136	0x3d88242b	0.066475235
137	0xbb001c98	-0.0019548293
138	0xbcafe2d4	-0.021470465
139	0xbc6690c6	-0.014072603
140	0x3d8a051b	0.06739255
141	0xbddff293	-0.10934939
142	0xbca7279b	-0.020404628
143	0xbcb9c8a9	-0.02267869
144	0x3e04dd95	0.12975152
145	0xbd8f4ecf	-0.069974534
146	0xbd82f124	-0.0639365
147	0xbd41ea85	-0.047342796
148	0x3c357c9e	0.011077074
149	0xbdf1dbce	-0.118095025
150	0xbde7edb4	-0.11324635
151	0x3da4b517	0.08042353
152	0xbde297d4	-0.11064115
153	0xbd0c72c5	-0.03428914
154	0x3da4f8ed	0.08055291
155	0xbd13da73	-0.036097
156	0x3e0cde22	0.13756612
157	0x3d91b2ed	0.071142055
158	0x3e20cd2c	0.15703267
159	0xbdbacd10	-0.09121144
160	0xbd9eb301	-0.07748986
161	0x3d59b9d4	0.053155735
162	0x3d74458b	0.059636634
163	0xbdb4ef49	-0.088347025
164	0xbd1f8efe	-0.038954727
165	0xbd8c05b3	-0.068370245
166	0x3d2767c7	0.040870454
167	0xbc216864	-0.009851549
168	0x3da6f85a	0.08152838
169	0xbd7822fd	-0.060580242
170	0xbdcba7a7	-0.099440865
171	0x3d9c074e	0.07618581
172	0xbde8f13c	-0.11374137
173	0x3e0cf6ee	0.13766071
174	0x3bb05e99	0.0053823707
175	0xbda03b47	-0.07823806
176	0x3da46116	0.0802633
177	0x3d9c848a	0.07642467
178	0x3cbb7c3d	0.02288639
179	0xbdcf34db	-0.10117503
180	0x3d60a709	0.054846797
181	0xbc15dd3a	-0.009146983
182	0xbd6b83e6	-0.057498835
183	0x3d5096d2	0.050925083
184	0xbc3bd896	-0.011465212
185	0x3df0e00a	0.11761482
186	0x3e3042eb	0.17213027
187	0x3da27588	0.079325736
188	0x3e339221	0.17536213
189	0x3d8a059a	0.0673935
190	0xbc923cbd	-0.017851228
191	0xbccc5643	-0.024943477
192	0x3dbc06fc	0.0918102
193	0x3d85db28	0.06535941
194	0x3c79de39	0.015250736
195	0xbe047d25	-0.12938364
196	0xbdf5f695	-0.120099224
197	0xbd385fcf	-0.045013245
198	0xbda272c3	-0.07932045
199	0xbe17c1ad	-0.14819975
200	0x3dc0caa1	0.094136484
201	0x3de9ad13	0.114099644
202	0xbc88329d	-0.016625697
203	0xbe14388a	-0.14474693
204	0xbe2d15a8	-0.16902792
205	0xbdaea046	-0.085266635
206	0xbc83fe6a	-0.016112525
207	0xbd3bbe0f	-0.04583555
208	0x3d9dd048	0.07705742
209	0xbd3572cb	-0.04429893
210	0xbd985903	-0.07438853
211	0x3ce90f0c	0.028449558
212	0x3dd98f62	0.10623051
213	0xbdb965d6	-0.09052627
214	0x3dd44ee2	0.10366608
215	0x3df65380	0.12027645
216	0xbe1abe1a	-0.1511158
217	0xbdd2e6e9	-0.10297949
218	0xbd884a05	-0.06654743
219	0x3d3eac47	0.046551015
220	0x3b803eda	0.0039137425
221	0xbb6a2ea8	-0.0035733376
222	0xbc13c493	-0.009019035
223	0x3cef9c3b	0.029249301
224	0x3dc022c1	0.09381629
225	0x3cc7acf9	0.024374472
226	0xbe08f4a4	-0.13374573
227	0xbe2d915d	-0.16949983
228	0xbd656cce	-0.056011967
229	0xbe2286df	-0.15871762
230	0xbcad3da9	-0.021147566
231	0xbdb8b97f	-0.090197556
232	0xbd046d33	-0.032330703
233	0x3d6b0e22	0.057386525
234	0xbe1e1369	-0.15437092
235	0x3e0a1f87	0.13488589
236	0xbd560340	-0.052249193
237	0x3d5785c4	0.052617803
238	0x3d7de227	0.061983254
239	0xbd4f21f0	-0.050569475
240	0xbe1d3b73	-0.1535471
241	0x3ca0d13b	0.019631019
242	0xbd835058	-0.06411809
243	0xbe144ff3	-0.14483623
244	0x3d8e1c89	0.069390364
245	0xbe15e965	-0.14639814
246	0xbd8896e9	-0.06669409
247	0xbd937ef2	-0.07201947
248	0x3d34bca6	0.04412522
249	0x3de2b60a	0.110698774
250	0x3db35d38	0.087580144
251	0xbbf42d13	-0.0074516623
252	0x3e147aab	0.14499919
253	0xbca1593b	-0.019695869
254	0x3dd4fe49	0.104000635
255	0xbe1f4249	-0.1555263

dest_lstm_obs.weight_hh_l0 f4 [128, 32]
0	0xbdfb8739	-0.12281651
1	0xbdf3b964	-0.11900595
2	0x3e19a6dc	0.15005058
3	0x3e2a3ecc	0.16625518
4	0xbe2e98da	-0.17050496
5	0xbe07e61c	-0.13271374
6	0xbe18c25c	-0.14917892
7	0x3e2b8746	0.16750821
8	0xbe0ca2ce	-0.1373398
9	0xbd19de04	-0.037565246
10	0xbda915fa	-0.08256145
11	0x3e256978	0.16153514
12	0x3d47c55e	0.04877221
13	0xbd2ea743	-0.042639982
14	0x3db49ec2	0.08819343
15	0xbe325999	-0.17416991
16	0x3d96a657	0.073559456
17	0xbde0ad97	-0.1097061
18	0x3dd6adb6	0.104823515
19	0xbdec0a64	-0.11525419
20	0x3dbabac1	0.09117652
21	0xbddca2e3	-0.10773256
22	0x3d45a7ab	0.048255604
23	0xba6f6865	-0.00091326825
24	0x3dd38041	0.10327197
25	0x3e2c396c	0.1681878
26	0xbe1c9548	-0.15291321
27	0xbd66e3a4	-0.05636944
28	0xbd9d4895	-0.076798595
29	0xbe3a249c	-0.18178028
30	0xbad1cb8c	-0.0016006096
31	0x3dfe60ed	0.12420831
32	0xbd9f9b64	-0.0779331
33	0xbe52c03e	-0.20581147
34	0x3d097a3f	0.03356385
35	0xbd877276	-0.066136286
36	0xbd821c97	-0.06353109
37	0x3de0cc55	0.10976473
38	0x3d12c8ac	0.035835907
39	0x3d5b107e	0.053482525
40	0x3c3f576b	0.011678557
41	0xbe0eaf0f	-0.13933967
42	0x3d22aed1	0.0397175
43	0x3e6ad372	0.22932222
44	0x3e0eb70f	0.13937019
45	0xbe19b40d	-0.1501009
46	0x3c868964	0.016422935
47	0xbdf6f734	-0.12058869
48	0x3d3247d1	0.04352552
49	0x3d62c8e8	0.05536738
50	0x3e319957	0.17343651
51	0xbe1238ee	-0.1427953
52	0xbd1cf073	-0.038315248
53	0xbdb1906a	-0.08670123
54	0xbe0f2e31	-0.13982464
55	0xbdc8f0f7	-0.098115854
56	0x3aab72ff	0.0013080536
57	0xbbea9bae	-0.0071596717
58	0x3c26a7fe	0.010171888
59	0xbe24c9bf	-0.16092585
60	0xbd61d3fb	-0.0551338
61	0xbe65d15e	-0.22443148
62	0xbe037dfb	-0.12841026
63	0x3d48c67d	0.04901742
64	0xbda22927	-0.079180054
65	0x3dc901ff	0.09814834
66	0x3e4c6db4	0.19963723
67	0xbde3eaf0	-0.11128795
68	0x3d205255	0.039141018
69	0xbdc9c111	-0.098512776
70	0x3e236c67	0.15959321
71	0x3dd40a6c	0.1035355
72	0xbc17b4f4	-0.009259451
73	0x3c47b796	0.012189766
74	0x3d96bb88	0.073599875
75	0xbe120ea6	-0.142634
76	0x3ca70ec9	0.020392792
77	0x3da71d88	0.081599295
78	0xbd93400b	-0.071899496
79	0xbd8213ef	-0.06351458
80	0x3bb0e541	0.005398423
81	0xbd75c33e	-0.06000065
82	0x3e50f757	0.20406853
83	0xbd65d1e2	-0.056108363
84	0xbe07c211	-0.13257624
85	0xbe41c929	-0.18924393
86	0xbc187ec6	-0.009307569
87	0x3d647775	0.055777986
88	0xbbe4f092	-0.006986686
89	0xbd311da8	-0.043241173
90	0x3d807cca	0.062738016
91	0xbd30c35d	-0.043155063
92	0xbb7cce6c	-0.0038575185
93	0x3d4d51d9	0.050126884
94	0xbe522ad5	-0.20524152
95	0x3dbc8206	0.092044875
96	0x3d53bfa0	0.05169642
97	0xbd389c10	-0.045070708
98	0x3d56cc32	0.05244083
99	0xbdf29f3d	-0.118467785
100	0xbdd7384e	-0.10508786
101	0x3e1635c8	0.14668953
102	0x3e077ec4	0.13231951
103	0xbdca7e97	-0.09887426
104	0x3b865580	0.004099548
105	0x3e1d3fdc	0.15356392
106	0x3de83ebf	0.11340093
107	0xbe227e86	-0.15868577
108	0xbdb57818	-0.08860797
109	0x3e240878	0.16018856
110	0x3d41e269	0.047335062
111	0x3bf8fc52	0.0075984383
112	0x3d29c363	0.0414461
113	0x3c91f24c	0.017815731
114	0x3d8172b6	0.063207075
115	0x3c4e4ecf	0.012592032
116	0x3d4f1f83	0.05056716
117	0x3d95c8ca	0.07313688
118	0x3c1e9a0a	0.00968028
119	0xbd6dea1f	-0.058084603
120	0xbc9aa9ea	-0.01887985
121	0xbe21c3b1	-0.15797307
122	0x3dd08853	0.10182252
123	0xbddb00e6	-0.10693531
124	0xbd9d27b0	-0.076735854
125	0xbd73bccc	-0.059506223
126	0x3d3b3bdb	0.04571138
127	0x3d271aed	0.040797163
128	0xbcef697a	-0.0292251
129	0xbc0f40b5	-0.008743455
130	0xbe095e82	-0.13414958
131	0xbb983a44	-0.0046456177
132	0x3e020fc1	0.12701322
133	0x3e18f2d8	0.14936388
134	0xbdb30677	-0.087414674
135	0xbc64943c	-0.013951357
136	0xbe105f05	-0.14098747
137	0x3e389d29	0.18028702
138	0xbd62a84c	-0.05533628
139	0xbe0ddb9d	-0.13853307
140	0x3db99354	0.09061304
141	0xbdffa4cc	-0.124826044
142	0x3de42006	0.111389205
143	0xbdb98605	-0.09058765
144	0xbd7b4567	-0.061345484
145	0x3de331a2	0.11093451
146	0x3ce20396	0.0275896
147	0xbde96993	-0.1139709
148	0x3d994203	0.07483294
149	0x3d64f1fe	0.055894844
150	0xbe287620	-0.16451311
151	0xbd28f094	-0.04124506
152	0xbdf05891	-0.11735643
153	0x3d427d47	0.047482755
154	0xbe2004a3	-0.15626769
155	0xbd97bcf5	-0.074090876
156	0xbdf291dc	-0.11844227
157	0x3db83492	0.08994402
158	0xbd889a69	-0.066700764
159	0x3dab2a64	0.08357695
160	0xbd4b2a54	-0.049600914
161	0xbe065cf1	-0.13121392
162	0x3e10c6ce	0.14138338
163	0x3df20e51	0.11819137
164	0x3caa03ad	0.020753706
165	0xbd8b7ec9	-0.06811292
166	0xbdd0d224	-0.10196331
167	0x3db2bad1	0.08727039
168	0x3e366ef3	0.17815761
169	0xbd9d9481	-0.076943405
170	0x3e17a936	0.14810643
171	0x3df82500	0.12116432
172	0xbdb7afb9	-0.08969063
173	0x3d01bc00	0.03167343
174	0x3b6a2e69	0.003573323
175	0xbd82f0a1	-0.063935526
176	0x3e29493a	0.1653184
177	0xbe280acf	-0.16410373
178	0x3dea5dcd	0.11443672
179	0x3c78a9c3	0.015177193
180	0x3d4bd274	0.04976125
181	0xbd25d815	-0.040489275
182	0x3de68936	0.1125664
183	0xbde0fde7	-0.10985928
184	0x3e3727e2	0.17886308
185	0xbe5f0d11	-0.21782328
186	0x3d216337	0.03940126
187	0xbd1235a8	-0.0356957
188	0x3da3126e	0.079624996
189	0xbd27be41	-0.040952925
190	0x3ca73fa0	0.020416081
191	0x3cd688ac	0.026188217
192	0xbd986dff	-0.07442855
193	0xbe581236	-0.21100697
194	0x3dcc852f	0.0998634
195	0xbe13cd50	-0.14433789
196	0x3e0ca985	0.13736542
197	0x3dd4db8f	0.1039344
198	0x3dff9bb5	0.12480871
199	0xbcfb2941	-0.03065932
200	0xbe302402	-0.17201236
201	0xbbda7fe9	-0.00666808
202	0xbe36084c	-0.17776603
203	0x3db02cfe	0.086023316
204	0xbd5480cb	-0.05188064
205	0x3dc49572	0.09598817
206	0x3dbbe4c4	0.09174493
207	0xbde40f0c	-0.111356825
208	0xbdac2aa9	-0.08406574
209	0xbd324e96	-0.043531977
210	0xbd945d35	-0.0724434
211	0xbe55e630	-0.20888591
212	0xbe074a77	-0.13212
213	0x3d7e1335	0.062030036
214	0x3dc97b27	0.098379426
215	0x3cb02d61	0.021506013
216	0x3d81b38d	0.06333075
217	0xbe3465e8	-0.17616999
218	0xbd51f982	-0.05126334
219	0x3e890b02	0.2676621
220	0xbcaa8e41	-0.020819785
221	0xbcd02dc0	-0.02541244
222	0x3d890439	0.066902585
223	0xbdaa0321	-0.08301378
224	0xbe3e3941	-0.18576528
225	0xbdaec862	-0.08534314
226	0xbd3d3d8f	-0.046201285
227	0x3c23158f	0.00995387
228	0x3d67f466	0.05662956
229	0xbdbbfddf	-0.091792814
230	0xbe2a3999	-0.16623534
231	0x3aa81d26	0.001282607
232	0xbdda9f43	-0.10674908
233	0xbdb39bf2	-0.087699786
234	0xbe258075	-0.16162284
235	0x3e316d71	0.17326905
236	0x3d44b918	0.04802808
237	0x3d69b965	0.05706157
238	0xbe014db6	-0.126273
239	0x3ccb4679	0.024813877
240	0x3dcedac8	0.10100323
241	0xbdba4ffe	-0.090972885
242	0xbd8b3a3a	-0.06798215
243	0x3e19252e	0.14955589
244	0xbdde1ef0	-0.108457446
245	0x3e8c1e30	0.2736678
246	0x3d359f06	0.04434111
247	0x3db89973	0.09013643
248	0x3df64a8b	0.12025937
249	0x3d4b2991	0.049600188
250	0x3ddf0ed9	0.10891504
251	0xbc925bdb	-0.017866066
252	0xbd8063d9	-0.062690444
253	0x3cb73712	0.022365127
254	0x3d324e56	0.04353174
255	0xbe3a17ea	-0.18173185

dest_lstm_obs.bias_ih_l0 f4 [128]
0	0x3d6a2fd2	0.05717451
1	0xbdbca035	-0.092102446
2	0xbe560704	-0.20901114
3	0x3db89916	0.09013574
4	0xbd892e93	-0.066983365
5	0xbdfc52c2	-0.12320472
6	0xbd57b886	-0.05266621
7	0x3ddb3b19	0.10704631
8	0xbe0a6211	-0.13513972
9	0x3d935dcf	0.07195627
10	0xbdadbd04	-0.084833175
11	0xbe405010	-0.18780541
12	0x3e249bb2	0.16075018
13	0xbd8626d8	-0.065503776
14	0x3df4599f	0.11931156
15	0xbdd6b7db	-0.104842864
16	0x3de749c0	0.112933636
17	0x3e5707cc	0.20999068
18	0x3ddc4442	0.10755207
19	0xbe02be84	-0.12767988
20	0x3e41eeeb	0.18938796
21	0xbdf83cb1	-0.12120951
22	0xbe0af622	-0.13570455
23	0xbde1c498	-0.110238254
24	0x3d8c502c	0.06851229
25	0x3db5f3dc	0.08884403
26	0x3da501fc	0.08057019
27	0x3e10582c	0.14096135
28	0xbe0b7cca	-0.13621822
29	0x3da21147	0.07913452
30	0xbcf51e61	-0.029921712
31	0x3cbed6b6	0.023295742
32	0xbe4250e7	-0.18976174
33	0x3e2f7111	0.17132975
34	0xbdcc5d1c	-0.09978697
35	0x3d40910b	0.047013324
36	0x3dc94311	0.09827245
37	0xbe04a86f	-0.12954877
38	0xbe0d2ab0	-0.13785815
39	0xbd2eb9fd	-0.04265784
40	0xbe63ec9b	-0.22258227
41	0x3cb4ee9b	0.022086432
42	0xbe0639ad	-0.13107939
43	0x3d32cc26	0.043651722
44	0xbe505950	-0.2034657
45	0xbd282174	-0.04104753
46	0x3dfebfae	0.12438904
47	0x3d51d949	0.05123261
48	0xbe157996	-0.14597163
49	0x3dffd719	0.124921985
50	0xbdd2acea	-0.10286887
51	0xbdad008b	-0.08447369
52	0xbd909711	-0.07060064
53	0xbe183257	-0.14862953
54	0xbe27f13c	-0.16400617
55	0x3d6b213a	0.057404734
56	0xbddd6b2e	-0.108114585
57	0x3ce1c900	0.027561665
58	0xbdf3eb5d	-0.11910126
59	0x3d4edd68	0.05050412
60	0xbdfc0721	-0.12306047
61	0xbda484ce	-0.08033143
62	0x3aa81ba2	0.0012825618
63	0x3dd801ff	0.10547256
64	0xbcdbffde	-0.026855405
65	0x3e6fa571	0.23402955
66	0x3daa6306	0.083196685
67	0xbc4fce1d	-0.012683419
68	0x3dd49aae	0.10381065
69	0xbe476286	-0.19471177
70	0xbdd1972c	-0.10233912
71	0x3e28ef10	0.16497445
72	0x3dd2cf49	0.10293443
73	0xbbc66d29	-0.0060554934
74	0xbdc55a7f	-0.096364014
75	0xbdf29dce	-0.11846505
76	0x3d3c8fe4	0.046035662
77	0x3e511de7	0.20421563
78	0xbdbe2f24	-0.09286335
79	0x3c18182f	0.00928311
80	0x3dfc14eb	0.12308677
81	0x3da63487	0.081154875
82	0xbe2ec7e8	-0.17068446
83	0x3e80e2a7	0.25172922
84	0x3db4eda6	0.0883439
85	0x3df9cc0d	0.12197123
86	0xbcbc9a3d	-0.023022765
87	0x3daa91a3	0.08328559
88	0xbda723d9	-0.08161134
89	0xbca240da	-0.019806314
90	0x3cc8efec	0.024528466
91	0xbe0440d8	-0.12915361
92	0x3d29705f	0.04136693
93	0x3e48fdef	0.19628118
94	0x3e7d9e99	0.24767531
95	0x3e0ec78f	0.13943313
96	0xbd712750	-0.058875382
97	0x3e1332cc	0.14374846
98	0x3bc14045	0.005897554
99	0x3c44917a	0.011997575
100	0x3cb7e601	0.022448542
101	0xbdc49515	-0.09598748
102	0xbddc4e04	-0.10757068
103	0xbd21d005	-0.039505024
104	0xbd0fb974	-0.03508897
105	0xbb41dfc2	-0.0029582833
106	0xbd8ee0e7	-0.069764905
107	0x3dce3b49	0.100699015
108	0x3c59c958	0.013292633
109	0x3d3a9671	0.04555363
110	0xbcd88041	-0.026428344
111	0x3d4b7fdc	0.049682483
112	0xbe0e3bb1	-0.13889958
113	0x3e05d56c	0.13069695
114	0xbde97e71	-0.1140107
115	0xbde53522	-0.11191775
116	0x3e16a17a	0.14710036
117	0x3dd35c98	0.10320395
118	0xbe07fb35	-0.13279422
119	0xbdb0cc07	-0.08632665
120	0xb9a36ac2	-0.00031169323
121	0xbe31b23d	-0.17353149
122	0xbe28490a	-0.16434112
123	0x3d9e6d79	0.07735724
124	0x3be879a3	0.0070945784
125	0xbda78827	-0.08180266
126	0x3e344577	0.17604624
127	0xbd2d2146	-0.04226806

dest_lstm_obs.bias_hh_l0 f4 [128]
0	0xbc81c785	-0.015842209
1	0x3d9b1807	0.07572942
2	0x3d266422	0.040622838
3	0x3dde435f	0.10852694
4	0xbdfb7f5f	-0.122801535
5	0x3d76b640	0.0602324
6	0xbe38fa16	-0.1806415
7	0x3e299e65	0.16564329
8	0xbcaa889c	-0.020817094
9	0x3e6456ba	0.22298709
10	0x3c21b0ca	0.00986881
11	0xbe09fadc	-0.13474602
12	0xbe2f9866	-0.17147979
13	0xbe4fd762	-0.20297006
14	0x3d948759	0.07252378
15	0xbe05b233	-0.13056259
16	0x3c3b6317	0.011437199
17	0xbccd4d88	-0.025061384
18	0xbd3e4310	-0.046450675
19	0xbe2ba89f	-0.16763543
20	0x3dab04cf	0.083505265
21	0xbdab9a64	-0.08379057
22	0xbe8801a4	-0.26563752
23	0xbe3e194e	-0.1856434
24	0x3e1847a9	0.14871086
25	0xbe150b1d	-0.1455502
26	0x3d172f8d	0.036910582
27	0x3d1ab036	0.037765704
28	0xbda5710e	-0.08078204
29	0xbd4717d0	-0.048606694
30	0x3e4d5639	0.20052423
31	0x3db5648d	0.08857069
32	0x3de1509e	0.11001705
33	0x3db20075	0.086914934
34	0x3d471eeb	0.04861347
35	0xbc4858fb	-0.012228246
36	0x3dbe54ca	0.09293516
37	0x3d6621fc	0.056184754
38	0xbd046738	-0.032325
39	0x3d410375	0.047122438
40	0xbe1f34e0	-0.15547514
41	0x3e34408c	0.17602748
42	0xbe0aacfa	-0.13542548
43	0x3c889fb7	0.01667772
44	0xbd959187	-0.07303148
45	0xbdd37829	-0.10325653
46	0x3dbbfdf3	0.09179296
47	0xbe563911	-0.20920207
48	0xbe44f094	-0.19232398
49	0x3dbf5c13	0.09343734
50	0x3c253e08	0.01008559
51	0x3d7735ba	0.060353972
52	0x3d336e4a	0.04380635
53	0x3d8f7f4c	0.07006702
54	0xbd04ec64	-0.032452002
55	0xbbd8eefd	-0.0066202865
56	0xbe035eda	-0.12829152
57	0xbdfefe36	-0.12450831
58	0x3d5710e1	0.05250633
59	0x3d2aa733	0.04166336
60	0xbdd71395	-0.10501782
61	0x3ddcf444	0.107887775
62	0x3de91d63	0.11382558
63	0xbd8bf407	-0.06833654
64	0xbdea44ff	-0.11438941
65	0x3e8da2e7	0.27663347
66	0xbe1280f6	-0.14307007
67	0xbd782402	-0.060581215
68	0x3e006ab3	0.12540703
69	0x3cbcae77	0.02303241
70	0x3d0125ab	0.031530064
71	0x3d272557	0.040807094
72	0xbdb209dc	-0.08693287
73	0xbea99ac7	-0.33125898
74	0x3dd9467d	0.10609148
75	0xbd20e1a3	-0.039277684
76	0x3e1646fa	0.14675513
77	0xbdb0155a	-0.085978225
78	0xbd050616	-0.032476507
79	0x3d02006d	0.031738687
80	0x3d0bb49c	0.03410779
81	0x3e059821	0.13046314
82	0x3dea26a1	0.11433149
83	0xbb6a9e0f	-0.0035799777
84	0xba37826d	-0.0007000331
85	0x3e2e8aa0	0.17045069
86	0xbe110394	-0.14161521
87	0x3d884dde	0.06655477
88	0xbabf7fa8	-0.0014610188
89	0x3e015eb0	0.12633777
90	0x3e7383b5	0.23780711
91	0xbde918aa	-0.113816574
92	0x3c3fed9c	0.011714365
93	0x3e264d2e	0.16240379
94	0x3ceba288	0.028764024
95	0x3d20234e	0.03909617
96	0xbdb21a65	-0.086964406
97	0x3de15a4c	0.11003551
98	0xbdfacfbd	-0.12246654
99	0xbe23e21f	-0.16004227
100	0x3e128d52	0.14311722
101	0xbdd7a9b9	-0.10530419
102	0x3c4ab1b4	0.012371469
103	0xbd06dcda	-0.032925464
104	0xbd8ff879	-0.07029814
105	0xbdb752c2	-0.08951332
106	0xbb9d88b5	-0.0048075565
107	0x3d23fb35	0.04003449
108	0xbe07f087	-0.13275348
109	0x3d2807d0	0.041023076
110	0xbb92d107	-0.0044804844
111	0xbd94f867	-0.072739415
112	0xbe4a860d	-0.19777699
113	0xbe462610	-0.19350457
114	0x3e01de58	0.12682474
115	0xbe2968a7	-0.16543828
116	0x3b6e0701	0.0036320093
117	0xbde8f560	-0.113749266
118	0x3cea9820	0.028636992
119	0xbe1249a0	-0.14285898
120	0x3e17a2fa	0.14808264
121	0xbd728df5	-0.059217412
122	0xbcb54f4b	-0.022132536
123	0x3c654914	0.013994474
124	0xbe57ff54	-0.21093494
125	0x3c8c685b	0.017139604
126	0xbe0c3a6c	-0.13694161
127	0xbdf4f58b	-0.11960896
