src/results/experiment_20250713_120510/centralized/do_tp_centralized_final.pt (torch, 156693 bytes, 26 tensors)

linear_enc.weight f4 [64, 2]
0	0xbefa8c92	-0.48935372
1	0xbeb6e219	-0.35719374
2	0x3e1e142c	0.15437382
3	0x3a1731f6	0.00057676376
4	0x3f44a9c9	0.7682157
5	0x3e1ed44c	0.15510672
6	0x3efd18f4	0.494331
7	0xbe67fcaf	-0.22654985
8	0xbcf6cd8f	-0.030127315
9	0x3f553da3	0.83297175
10	0x3f424c97	0.75898117
11	0xbf1640a7	-0.586924
12	0xbe32caed	-0.17460223
13	0x3ecec93e	0.4038791
14	0x3edbef43	0.4295598
15	0x3f425e40	0.75925064
16	0xbf30101a	-0.6877457
17	0xbeb91a08	-0.36152673
18	0x3ed70b4c	0.42000806
19	0xbe51abfe	-0.20475766
20	0x3f213a07	0.6297917
21	0x3ecc0fa9	0.39855698
22	0xbf2b9fa7	-0.67040485
23	0x3f16ef15	0.5895856
24	0x3edd4e55	0.43223825
25	0x3f3fcf88	0.7492604
26	0x3f279477	0.65460914
27	0xbf03c0a7	-0.5146584
28	0x3efef36d	0.49795094
29	0x3ea0ac75	0.31381574
30	0xbd7aea7c	-0.061258778
31	0xbf6325d9	-0.88729626
32	0x3ea00459	0.31253317
33	0xbf5de068	-0.8667054
34	0x3f268650	0.65048695
35	0x3e17f685	0.14840133
36	0x3eff2b65	0.49837795
37	0xbbab398d	-0.0052253664
38	0xbef525cb	-0.47880396
39	0xbf1e6aff	-0.61882013
40	0x3f1a41a1	0.6025639
41	0xbea73476	-0.32657212
42	0xbf0e7024	-0.55639863
43	0xbf2cf36f	-0.6755895
44	0x3d8a5ec4	0.06756356
45	0xbf04e908	-0.5191808
46	0x3f2b3cbd	0.66889554
47	0x3f2268c0	0.63441086
48	0x3ef76e8c	0.48326528
49	0x3e90b644	0.28264058
50	0xbe8fe9f3	-0.28108177
51	0xbe658eb3	-0.22417717
52	0xbe564e31	-0.20928265
53	0xbe2bcd2d	-0.16777487
54	0xbf022c16	-0.5084852
55	0x3e905040	0.28186226
56	0x3e2805ef	0.16408513
57	0xbf08a492	-0.53376114
58	0x3d1d847f	0.038456436
59	0x3f22a1c6	0.63528097
60	0xbe8b77d8	-0.2723987
61	0x3cb6c109	0.022308843
62	0x3f1efc98	0.6210418
63	0xbd87bdf0	-0.066280246
64	0xbe86ccf2	-0.26328236
65	0xbef8fb00	-0.48628998
66	0x3da792a1	0.08182264
67	0x3f2181d9	0.63088757
68	0xbebcd6c4	-0.36882603
69	0xbf3117d1	-0.69176966
70	0xbf237de3	-0.6386396
71	0x3ec1eedb	0.37877545
72	0x3ed1c678	0.40971732
73	0xbedd72d5	-0.43251672
74	0x3f1c2971	0.61000735
75	0xbf235fd7	-0.63818115
76	0xbf496f4b	-0.78685445
77	0x3f2cbf55	0.6747945
78	0xbedf7dfd	-0.4365081
79	0xbecdf969	-0.40229347
80	0x3ecfbcde	0.40573782
81	0x3f076362	0.5288602
82	0x3f120556	0.5703939
83	0xbe838bb2	-0.25692517
84	0x3f13da9e	0.5775546
85	0xbf1f36bb	-0.6219289
86	0x3ed100cf	0.4082093
87	0xbf047f6f	-0.5175695
88	0xbe8b6785	-0.27227417
89	0x3f49006c	0.7851627
90	0x3eca248e	0.39481014
91	0x3f701728	0.93785334
92	0x3f3577ee	0.70886123
93	0xbd8afe36	-0.06786768
94	0xbf0e6ccf	-0.5563478
95	0xbed61f05	-0.4182054
96	0xbf377246	-0.7165874
97	0x3f5f0793	0.8712093
98	0xbe7ad8cc	-0.24496764
99	0x3dca9194	0.09891048
100	0x3e93744f	0.28799674
101	0xbe80cad8	-0.25154757
102	0xbeb013ed	-0.34390202
103	0xbf51c4f8	-0.81941175
104	0x3ead61f0	0.33863783
105	0x3f290a2a	0.66031134
106	0xbe89d046	-0.26916713
107	0x3e441b50	0.19151044
108	0x3f2eac48	0.6823163
109	0x3e471a33	0.19443588
110	0xbf4c7ca4	-0.79877687
111	0x3f3bc93c	0.73353934
112	0x3ed7d9a0	0.42158222
113	0x3efc6cd6	0.49301785
114	0x3f0e8a1d	0.55679494
115	0x3f013bff	0.5048217
116	0x3f14c747	0.58116573
117	0x3ebd3dcc	0.3696121
118	0x3f1e3b84	0.61809564
119	0xbf16ec9a	-0.58954775
120	0x3f3d34c6	0.7390865
121	0xbec0f912	-0.37690026
122	0xbebcffd0	-0.3691392
123	0x3df2aabd	0.11848972
124	0xbe91eaf7	-0.28499576
125	0x3f1bc732	0.6085082
126	0xbd9140ef	-0.07092463
127	0x3d3b3af4	0.04571052

linear_enc.bias f4 [64]
0	0x3ecf15d5	0.40446344
1	0x3eceb951	0.4037576
2	0xbefc6a0c	-0.49299657
3	0xbf2500e6	-0.64454496
4	0x3e43e9e8	0.19132197
5	0x3ef3f40f	0.4764714
6	0x3dd3f960	0.10350299
7	0x3e1e0378	0.1543101
8	0x3e3f661e	0.18691298
9	0x3e475b88	0.1946851
10	0x3eab1c2d	0.33419934
11	0x3eb01ef0	0.34398603
12	0xbd455001	-0.048172
13	0xbe43fe46	-0.19139966
14	0xbd87e30c	-0.06635103
15	0x3f00d376	0.50322664
16	0xbe1793bd	-0.14802451
17	0x3da2d698	0.07951087
18	0x3f1416b1	0.57847124
19	0x3dbc5892	0.09196581
20	0x3d7a9824	0.06118025
21	0xbe6da44f	-0.2320721
22	0xbeb41846	-0.3517477
23	0x3f1f3e61	0.6220456
24	0xbe45cbb6	-0.19315991
25	0x3f0d7bde	0.5526713
26	0x3ee69ec4	0.45043004
27	0x3ed8927e	0.42299265
28	0x3dc08c34	0.094017416
29	0x3d8fe830	0.07026708
30	0xbeda4844	-0.4263326
31	0x3e8df996	0.2772948
32	0x3e8b669b	0.2722672
33	0x3e132284	0.14368635
34	0xbef94c72	-0.48691136
35	0x3ddae4a3	0.1068814
36	0xbf1be241	-0.6089211
37	0x3eda0707	0.42583486
38	0x3cee7b5f	0.029111562
39	0x3e0a0304	0.13477713
40	0x3f176107	0.59132427
41	0xbf143ec2	-0.5790826
42	0xbeaf51cf	-0.34242103
43	0x3c561aa2	0.013067873
44	0xbeb22252	-0.3479181
45	0x3dde984f	0.10868894
46	0x3d67acbf	0.056561228
47	0x3efd9bbd	0.4953288
48	0xbe373726	-0.17892131
49	0xbc3e080f	-0.011598601
50	0xbf151be2	-0.5824567
51	0x3e7b00bb	0.24511997
52	0x3df4ff00	0.119627
53	0xbed21631	-0.41032556
54	0xbe91bb36	-0.28463143
55	0xbee2b884	-0.442814
56	0x3f2be69c	0.67148757
57	0x3f255801	0.6458741
58	0xbe351c64	-0.17686611
59	0x3d60cf5c	0.054885253
60	0x3edb70d4	0.4285952
61	0x3ef1a496	0.47195882
62	0xbeb23d44	-0.34812367
63	0x3f25cc62	0.6476499

encoder_lstm.weight_ih_l0 f4 [128, 64]
0	0xbdf37ccb	-0.11889037
1	0xbcb0aab4	-0.021565773
2	0xbd1edfcc	-0.038787648
3	0xbe0d46fe	-0.13796613
4	0x3e3d0ec4	0.18462664
5	0x3df97cae	0.12181984
6	0x3e30abb6	0.17253003
7	0x3e067697	0.13131176
8	0x3c819c6f	0.015821664
9	0x3e0961be	0.13416192
10	0x3dc9abc3	0.09847214
11	0x3dffa0cf	0.12481844
12	0x3e259ec0	0.1617384
13	0xbe4a72e0	-0.19770384
14	0x3d7927cd	0.060828973
15	0xbb9bc5a5	-0.0047537857
16	0xbdce6705	-0.10078243
17	0x3e22dacf	0.15903781
18	0xbc7dbea3	-0.015487346
19	0x3d931914	0.07182518
20	0x3e1254c3	0.14290147
21	0xbcc199c7	-0.023632897
22	0x3df2a4a9	0.11847813
23	0x3e1a6a88	0.15079701
24	0x3b05dd01	0.0020425918
25	0xbe21fc9e	-0.15819022
26	0xbe0954ab	-0.13411205
27	0xbd382df7	-0.04496571
28	0x3dec1b8c	0.11528692
29	0x3c0bd4ee	0.008534653
30	0xbde23739	-0.11045689
31	0xbd890325	-0.06690053
32	0xbcfc99db	-0.030835083
33	0x3d134775	0.03595682
34	0xbe0bd6e4	-0.13656193
35	0xbde623dd	-0.11237309
36	0xbddf2720	-0.108961344
37	0xbc962671	-0.018328877
38	0x3de5b36d	0.112158634
39	0x3ceb05fd	0.028689379
40	0x3e561049	0.2090465
41	0xbe0cbdd1	-0.13744284
42	0xbdceeb1e	-0.10103439
43	0x3e025b01	0.12730028
44	0xbe2a4d72	-0.16631106
45	0x3c5c5a24	0.013449226
46	0x3da127ff	0.07868957
47	0xbd3553e0	-0.044269443
48	0x3dda707d	0.10665987
49	0xbd13fa4d	-0.036127377
50	0xbe4cac05	-0.19987495
51	0xbb4671b5	-0.0030280177
52	0x3e77da77	0.24204431
53	0x3df7bad7	0.12096184
54	0xbdbd9be4	-0.092582494
55	0xbcb1dcfa	-0.021711815
56	0x3dcaa942	0.098955646
57	0x3e0a6558	0.13515222
58	0xbda4cf5d	-0.08047364
59	0x3dc0814b	0.09399661
60	0x3d812fe8	0.063079655
61	0xbda8e964	-0.08247641
62	0x3d09a741	0.03360677
63	0x3c4fd560	0.01268515
64	0xbbe40d00	-0.0069595575
65	0xbd1a222d	-0.03763025
66	0x3ddb201d	0.106994845
67	0x3c9571d5	0.018242756
68	0x3d6e624c	0.058199212
69	0x3e0309b4	0.1279667
70	0x3cf25572	0.02958176
71	0xbe410656	-0.18850073
72	0x3e29a2af	0.16565965
73	0x3d00f09a	0.031479456
74	0xbe4e03cc	-0.20118636
75	0x3b1f0c40	0.0024268776
76	0xbd3219f6	-0.04348179
77	0xbd9ab042	-0.0755315
78	0xbe7e604f	-0.24841426
79	0x3d29dac4	0.041468397
80	0x3e1d21e0	0.15344954
81	0xbe63fe9c	-0.22265095
82	0xbccdff45	-0.025146136
83	0x3d4f7c41	0.050655607
84	0xbc4a12c6	-0.0123335775
85	0xbdc78c84	-0.09743598
86	0x3e26bf8e	0.1628401
87	0xbdce4624	-0.10071972
88	0xbe386c82	-0.18010142
89	0xbba75226	-0.0051062284
90	0xbe17d43e	-0.14827058
91	0x3ca17b2d	0.019712055
92	0x3dd2bee8	0.10290319
93	0xbe369a66	-0.17832336
94	0xbdfbcbf3	-0.122947596
95	0x3d8fba09	0.07017905
96	0x3e654559	0.22389735
97	0x3de73915	0.112901844
98	0x3d0624b9	0.032749865
99	0x3e091217	0.13385807
100	0x3d1dcf59	0.03852782
101	0xbc0186ad	-0.007905644
102	0x3e07d75d	0.13265748
103	0xbc0f309a	-0.008739615
104	0xbe3d8ccd	-0.18510742
105	0x3e1270e8	0.14300883
106	0xbe031409	-0.12800612
107	0xbe685419	-0.2268833
108	0xbbc7a1ef	-0.006092302
109	0x3cacd5f7	0.02109812
110	0x3d4aae04	0.04948236
111	0xbd0bd2c8	-0.034136564
112	0x3dd59197	0.1042816
113	0x3e5f40d9	0.21802081
114	0xbd7957c5	-0.06087472
115	0x3dd901d5	0.105960526
116	0xbd946382	-0.07245542
117	0x3e1fedd2	0.15618065
118	0xbdc6f777	-0.09715169
119	0x3e0f943f	0.14021395
120	0xbcaaceac	-0.020850502
121	0xbe1fb201	-0.15595247
122	0xbe4cff9d	-0.20019384
123	0x3dd54ee6	0.10415439
124	0xbe4d8a1e	-0.20072219
125	0x3db2f627	0.08738356
126	0xbdc5366e	-0.09629522
127	0xbdb1ea8e	-0.08687316
128	0x3e76029a	0.2402443
129	0x3a8f6d5d	0.0010942627
130	0x3b7864f4	0.003790197
131	0xbd5ff915	-0.054680903
132	0x3d935aa3	0.07195022
133	0x3d908a17	0.070575885
134	0xbca8e6cb	-0.020617863
135	0x3e47dbcf	0.19517444
136	0x3e069161	0.13141395
137	0x3e9c7a0c	0.30561864
138	0x3e49a7b1	0.19692875
139	0x3e680398	0.22657621
140	0xbdff8f7f	-0.124785416
141	0x3e09790d	0.13425083
142	0xbe18f807	-0.14938365
143	0x3e9480d1	0.2900453
144	0xbc8ac818	-0.016941115
145	0x3d021f27	0.03176799
146	0x3e376ec7	0.17913352
147	0x3dec416d	0.115359165
148	0x3e8001b8	0.2500131
149	0xbd14f912	-0.036370344
150	0xbe1ddd4c	-0.1541645
151	0x3de8e112	0.11371054
152	0xbe2efb63	-0.17088084
153	0x3e6aa8e5	0.2291599
154	0x3dea7e56	0.11449878
155	0x3d9b8cc0	0.07595205
156	0x3dc4fee2	0.096189275
157	0xbccb74cc	-0.024835967
158	0xbbb5f29b	-0.0055526025
159	0x3e898595	0.26859728
160	0x3e4f9dd4	0.2027505
161	0x3da14525	0.078745164
162	0xbd8bc9fc	-0.06825635
163	0x3d1c309b	0.03813229
164	0xbc5fb010	-0.013652816
165	0x3e0aeba7	0.13566457
166	0xbd6e0669	-0.058111582
167	0x3c82986b	0.01594182
168	0x3d0c590c	0.03426461
169	0xbe304b2c	-0.17216176
170	0xbd479a92	-0.048731394
171	0x3e3aab64	0.18229443
172	0xbea1a7be	-0.3157329
173	0x3d7bf098	0.061508745
174	0x3d20afdd	0.039230216
175	0x3de193b3	0.110144995
176	0x3c90f974	0.017697074
177	0xbe2660e5	-0.162479
178	0xbde18811	-0.11012281
179	0x3d146e1a	0.036237814
180	0x3e10f799	0.14156951
181	0x3ce43361	0.02785653
182	0xbe07ccaa	-0.13261667
183	0xbd8cfadb	-0.068837844
184	0x3ddf6d24	0.10909489
185	0xbcd933c5	-0.026513943
186	0xbe74c640	-0.23903751
187	0xbc0f397d	-0.008741734
188	0x3e9456d5	0.28972498
189	0x3cc8a30d	0.024491811
190	0xbe095069	-0.1340958
191	0x3d87f6b1	0.066388495
192	0x3e49a618	0.19692266
193	0x3df56611	0.11982358
194	0xbe6a7646	-0.2289668
195	0xbdaa8b8c	-0.08327398
196	0xbc687e40	-0.014190257
197	0x3e26e04f	0.16296504
198	0x3c30f753	0.010801154
199	0x3d3aa8b1	0.045571033
200	0x3defa43e	0.117012486
201	0x3d9b7039	0.07589764
202	0x3d901bef	0.07036578
203	0x3e6f963f	0.23397158
204	0xbec28e57	-0.37999222
205	0xbebbea0c	-0.36702
206	0xbe685568	-0.2268883
207	0x3aab32f0	0.0013061445
208	0xbe2813f7	-0.16413866
209	0xbea61e00	-0.32444763
210	0xbd703496	-0.0586439
211	0x3ec63e2d	0.3871931
212	0xbe9e277b	-0.30889496
213	0x3dcb48c3	0.099259876
214	0xbdc9f0e2	-0.09860398
215	0xbc22047e	-0.009888766
216	0xbdcac0f4	-0.09900084
217	0x3e6fd30f	0.23420356
218	0xbc57e28d	-0.0131765725
219	0x3b59edd4	0.003325333
220	0x3e832a8f	0.25618407
221	0xbd8b42d9	-0.067998596
222	0x3de33e4d	0.11095867
223	0x3dd275f7	0.10276406
224	0x3e77fce6	0.24217567
225	0xbd12253d	-0.035680044
226	0x3d9658cb	0.07341155
227	0x3eda8ca3	0.42685422
228	0xbe7e7c0f	-0.24852012
229	0x3e501722	0.20321324
230	0x3dc44378	0.09583181
231	0x3eaabce1	0.33347228
232	0x3d4de308	0.050265342
233	0xbe8664ac	-0.26248682
234	0xbd855502	-0.065103546
235	0xbe82685c	-0.25470245
236	0x3d74dda0	0.05978167
237	0xbeaa2f22	-0.33239084
238	0xbd2b13fd	-0.04176711
239	0x3d973a35	0.07384149
240	0x3ca527e6	0.020160627
241	0x3e14a325	0.1451536
242	0xbd2169c4	-0.039407507
243	0x3e860099	0.2617233
244	0xbe46afd1	-0.19403006
245	0xbe1d4846	-0.15359601
246	0xbe067480	-0.13130379
247	0xbdac68c9	-0.08418424
248	0x3e0afbe3	0.1357265
249	0x396b0afe	0.00022415441
250	0xbe83bcdb	-0.25730023
251	0xbe197894	-0.14987403
252	0x3d5b308e	0.053513102
253	0x3d9f47ed	0.07777391
254	0xba413472	-0.00073701807
255	0x3e5f9718	0.21834981

encoder_lstm.weight_hh_l0 f4 [128, 32]
0	0xbe35730b	-0.17719667
1	0x3c7e2ffa	0.015514368
2	0xbdbcc221	-0.09216715
3	0x3eae6a19	0.3406532
4	0x3d41eaa7	0.047342923
5	0x3d8b8f86	0.06814484
6	0xbdad62e0	-0.084661245
7	0x3d026934	0.03183861
8	0xbc3fa30f	-0.011696591
9	0x3d0f730f	0.035021838
10	0xbe0f4f88	-0.13995183
11	0x3dc3e4e3	0.09565141
12	0xbe21f405	-0.15815742
13	0x3c8a0db4	0.016852237
14	0xbc18e016	-0.00933077
15	0x3d21c39b	0.039493185
16	0xbdc3c5a5	-0.09559182
17	0xbcd0f553	-0.025507605
18	0xbd25d935	-0.040490348
19	0x3dc34baa	0.09535916
20	0xbe0a04c3	-0.13478379
21	0xbdee5ad7	-0.1163842
22	0xbe8a6138	-0.27027297
23	0x3e4d0144	0.20020014
24	0x3e441344	0.19147974
25	0x3da2dda6	0.07952432
26	0xbcfaf0a1	-0.030632319
27	0x3e6888cf	0.22708438
28	0x3e9a1664	0.30095208
29	0xbdd3b940	-0.10338068
30	0xbc4ef82a	-0.012632409
31	0x3e08a5a7	0.13344441
32	0x3e0bc826	0.1365057
33	0xbddfa74c	-0.10920581
34	0x3bfa8326	0.0076450286
35	0x3e426a6d	0.1898591
36	0x3e4fc8ff	0.20291518
37	0x3cd04d74	0.025427558
38	0xbd737de1	-0.05944622
39	0xbe022b8e	-0.12711927
40	0xbe157ae6	-0.14597663
41	0xbe0f78b6	-0.14010891
42	0xbb4d7692	-0.003135119
43	0x3d531117	0.05152997
44	0xbe433ff2	-0.19067362
45	0xbcacc17a	-0.02108835
46	0x3e5c493f	0.21512316
47	0xbe3dd58e	-0.18538496
48	0xbc90cdf5	-0.017676333
49	0x3ca3d9c1	0.020001294
50	0x3d806572	0.06269349
51	0x3e0de177	0.1385554
52	0x3cc32c15	0.02382473
53	0xbe3459f0	-0.17612433
54	0xbdaa040f	-0.08301555
55	0x3dc44b07	0.09584623
56	0xbd0347b2	-0.032050796
57	0x3e0c50a1	0.13702632
58	0x3c8beb68	0.017080024
59	0x3d6ed97b	0.058312874
60	0xbde9ec8a	-0.11422069
61	0x3e2c38ea	0.16818586
62	0xbd8bb556	-0.068216965
63	0x3b22e115	0.0024853398
64	0x3dd7ea71	0.10542763
65	0xbd949e28	-0.072567284
66	0x3bf52afb	0.0074819303
67	0xbdc1021b	-0.0942423
68	0xbd79da5d	-0.060999263
69	0xbe25d5d9	-0.16194858
70	0x3ddac1a9	0.10681469
71	0x3dcdd30b	0.10050019
72	0xbd2a490e	-0.041573577
73	0x3e3419dc	0.1758799
74	0xbddc744e	-0.10764371
75	0x3e7202bc	0.23633856
76	0x3cc53682	0.024073843
77	0x3e49783f	0.19674776
78	0xbd7d08d2	-0.06177599
79	0xbc9b99e8	-0.018994287
80	0x3e03d50c	0.1287424
81	0xbd2ef667	-0.042715456
82	0xbe721c1c	-0.23643535
83	0xbd1eb062	-0.03874243
84	0xbdbf17bd	-0.093306996
85	0xbd2d4092	-0.042297907
86	0xbdde1b49	-0.10845048
87	0x3e3fb301	0.18720628
88	0xbc605ff2	-0.01369475
89	0xbbc8fd16	-0.006133686
90	0xbe4e1f19	-0.2012905
91	0x3d96b0b4	0.07357922
92	0xbd720097	-0.059082594
93	0x3ce1b841	0.02755368
94	0x3cff8492	0.031191144
95	0x3de45fa0	0.111510515
96	0x3eda9d26	0.4269802
97	0xbe151bc8	-0.14561379
98	0x3db62e43	0.088955425
99	0xbd0ed784	-0.0348735
100	0xbe90dc4b	-0.2829307
101	0x3de4887e	0.11158846
102	0x3e4b93d0	0.19880605
103	0x3d9dab15	0.07698647
104	0x3e79e733	0.24404602
105	0x3cfbdcda	0.030744959
106	0xbe83522c	-0.2564863
107	0xbd3b7d6a	-0.0457739
108	0x3d65fcb6	0.056149207
109	0x3cce55b0	0.025187343
110	0xbf1e9543	-0.61946505
111	0xbe5a31e8	-0.213081
112	0x3e5f8ee8	0.21831858
113	0xbdf81efc	-0.12115285
114	0xbe3291d3	-0.1743844
115	0xbe4074cc	-0.18794554
116	0xbdabfbf1	-0.083976634
117	0xbe0e48e5	-0.13894995
118	0x3d9a4af7	0.0753383
119	0x3e7f8c47	0.24955855
120	0x3ddd9f86	0.10821442
121	0x3e8af904	0.2714311
122	0x3c54e5de	0.012994258
123	0x3d967277	0.07346051
124	0xbc62b338	-0.013836674
125	0x3e19c368	0.15015948
126	0x3e9ca79f	0.30596635
127	0x3dd3e642	0.103466526
128	0x3e91177a	0.28338224
129	0xbdded353	-0.10880151
130	0xbe49a36b	-0.19691245
131	0x3e03e6f5	0.12881072
132	0xbe61a869	-0.220369
133	0xbebb945e	-0.36636633
134	0x3e4b2f6f	0.19842313
135	0x3e966aef	0.2937846
136	0x3e6ed129	0.23321976
137	0x3d75d4fc	0.06001757
138	0xbd9ed317	-0.07755106
139	0x3e848438	0.25882125
140	0x3d0ff247	0.035143163
141	0x3daf1e1b	0.08550664
142	0x3c6d501e	0.014484433
143	0xbdf57f9f	-0.119872324
144	0x3e161aa9	0.14658608
145	0x3e40c9b3	0.18826942
146	0x3c927d64	0.017882057
147	0xbe914cde	-0.28378958
148	0x3e526d25	0.20549448
149	0xbebc06af	-0.3672385
150	0xbe3a6452	-0.18202332
151	0x3e8c5c87	0.27414343
152	0xbd8516ff	-0.06498527
153	0xbd129223	-0.035783898
154	0xbd9ac9cb	-0.0755802
155	0xbcb04b81	-0.021520378
156	0xbe99cf2e	-0.30040878
157	0xbde7630b	-0.11298188
158	0xbd24cb7f	-0.04023313
159	0x3d8d4fed	0.0690001
160	0x3ee93878	0.45550895
161	0xbd73023a	-0.059328295
162	0xbdfa8bc9	-0.12233693
163	0xbdc50a3c	-0.09621093
164	0xbb8c2db8	-0.004277911
165	0x3b6960f7	0.0035610774
166	0x3e8fd471	0.28091767
167	0xbd664acb	-0.056223672
168	0x3e800d62	0.2501021
169	0x3e9763d9	0.29568365
170	0xbbf918ad	-0.0076018185
171	0x3d9bb53b	0.07602926
172	0xbe717538	-0.23579872
173	0x3dbda599	0.09260101
174	0xbea00f5b	-0.31261715
175	0xbbac2e31	-0.00525453
176	0x3debe458	0.115181625
177	0x3e4ec03b	0.20190518
178	0xbe85c9b9	-0.26130465
179	0xbe370c63	-0.17875819
180	0x3e66837c	0.22511095
181	0xbe7060c3	-0.23474412
182	0x3d60d190	0.054887354
183	0x3dac6fc4	0.08419755
184	0xbcd431ef	-0.025902716
185	0xbd7d5a29	-0.06185356
186	0x3ae8de4d	0.0017766446
187	0xbdf2c25f	-0.118534796
188	0x3e5053d7	0.20344482
189	0xbe5a0219	-0.21289863
190	0x3ebd399c	0.36958015
191	0x3d12047b	0.035648804
192	0xbcda4d82	-0.026648287
193	0xbd1063db	-0.03525148
194	0xbdff478b	-0.124648176
195	0xbde63b06	-0.112417266
196	0xbdcf6489	-0.101265974
197	0xbdd05af3	-0.10173597
198	0xbe1072ff	-0.14106368
199	0x3ca0ffb2	0.019653175
200	0x3ddfb579	0.10923285
201	0x3e4496db	0.19198172
202	0xbdea28cd	-0.114335634
203	0xbce95ba8	-0.028486088
204	0xb9480f1a	-0.00019079112
205	0x3e46df0c	0.19421023
206	0x3e864fbb	0.26232705
207	0x3d17dc43	0.037075292
208	0x3e28dc69	0.1649033
209	0xbbec38ad	-0.0072089047
210	0x3d4d8b06	0.05018141
211	0xbc88238f	-0.016618518
212	0x3c2ab97b	0.010420199
213	0xbdfa503b	-0.12222334
214	0x3cc20976	0.023686152
215	0x3ddad0ef	0.10684382
216	0x3e7706f9	0.24123754
217	0x3dd75ea6	0.105161
218	0xbd9886e8	-0.07447606
219	0x3d464af7	0.048411336
220	0x3d581ac1	0.05275989
221	0x3e895889	0.2682536
222	0xbd8488f6	-0.06471436
223	0x3e29c1db	0.16577856
224	0x3d78d849	0.06075314
225	0x3cd349d3	0.025792038
226	0xbe1e4448	-0.15455735
227	0xbe2a0aa0	-0.16605616
228	0xbd96df1c	-0.073667735
229	0x3ccb5562	0.024820987
230	0x3c703edc	0.014663424
231	0xbdbb8322	-0.09155871
232	0x3cdb6e2d	0.026785934
233	0xbd2a6592	-0.04160077
234	0xbc40b279	-0.011761301
235	0x3d4cb908	0.049981147
236	0xbd706509	-0.058690105
237	0xbe3c5c6e	-0.18394634
238	0xbdb4a13c	-0.088198155
239	0xbe48d2c2	-0.19611648
240	0xbbd6b5ac	-0.0065524187
241	0x3cf3f9da	0.029782224
242	0x3dad6451	0.084663995
243	0xbe0dce8f	-0.13848327
244	0x3e21a860	0.15786886
245	0x3de630c0	0.11239767
246	0x3e067028	0.13128722
247	0x3e316b37	0.17326055
248	0xbd885717	-0.06657236
249	0x3ddce2ab	0.10785421
250	0x3c6ab6c1	0.0143257985
251	0xbdddd6cd	-0.108319856
252	0xbbb3a34a	-0.005482112
253	0xbe399688	-0.1812383
254	0x3d41ade1	0.047284964
255	0x3e45c934	0.19315034

encoder_lstm.bias_ih_l0 f4 [128]
0	0xbd86d84d	-0.06584225
1	0x3e2f2c31	0.17106701
2	0x3e1dffca	0.15429607
3	0x3e24c7af	0.16091798
4	0x3e7ab6e1	0.24483825
5	0xbc990d2d	-0.01868304
6	0x3dfa0e09	0.12209708
7	0x3e1ec5cd	0.15505143
8	0x3e57fe7f	0.21093176
9	0x3da4a7c1	0.08039809
10	0x3e2fa7dc	0.17153877
11	0xbd850891	-0.064957745
12	0xbdcc159a	-0.09965058
13	0x3de4129f	0.11136364
14	0x3e21f4c3	0.15816025
15	0xbe072e2c	-0.13201207
16	0x3deae432	0.11469306
17	0x3bbb2c69	0.005712081
18	0xbd8f06dc	-0.0698373
19	0x3dead6bd	0.11466739
20	0x3df03743	0.1172929
21	0x3cef8b4e	0.02924123
22	0xbb875cb1	-0.0041309227
23	0x3dd59438	0.10428661
24	0x3e25008b	0.16113488
25	0x3dce14e7	0.100625806
26	0xbe12156f	-0.14265989
27	0x3c9621b8	0.018326625
28	0x3df8f107	0.12155347
29	0xbd1969b0	-0.037454307
30	0x3e19cbed	0.15019198
31	0xbd1d3064	-0.038376227
32	0xbdcdbbbe	-0.100455746
33	0x3d43f701	0.047842983
34	0x3dbbd3c1	0.09171248
35	0xbc4fb2a3	-0.012676868
36	0xbe128051	-0.14306761
37	0xbd1119b1	-0.03542489
38	0xbdcb29d7	-0.0992009
39	0xbe0d30e8	-0.13788188
40	0xbd3112b5	-0.04323073
41	0x3e39d697	0.18148266
42	0x3df51c55	0.119682945
43	0xbe08a8ae	-0.13345596
44	0xbc0be88a	-0.008539328
45	0x3db94524	0.09046391
46	0xbdce5faf	-0.10076844
47	0x3ddb4f4f	0.10708486
48	0x3d7de9f4	0.061990693
49	0xbc8da0a4	-0.017288513
50	0xbd42e5d2	-0.047582455
51	0xbc834128	-0.01602228
52	0x3e1f31dd	0.15546365
53	0x3e1271be	0.14301202
54	0xbe24402a	-0.16040102
55	0x3e1eb847	0.15499984
56	0xbccb8fac	-0.024848782
57	0x3dcf34aa	0.10117467
58	0xbdb93c2e	-0.090446815
59	0x3d07a0b3	0.03311224
60	0x3d1f1c91	0.038845602
61	0x3e50b9ce	0.20383379
62	0x3adf9261	0.0017057174
63	0xbda0dac4	-0.07854226
64	0x3e05359f	0.13008736
65	0x3d928bce	0.07155572
66	0xbdb81da4	-0.089900285
67	0xbcbc30d1	-0.022972496
68	0xbc8b3f62	-0.016997997
69	0xbd7a16dc	-0.061056957
70	0xbdfe5c7f	-0.12419986
71	0xbe0c5773	-0.13705234
72	0x3d34d63b	0.04414962
73	0x3de86fe9	0.1134947
74	0xbd246a20	-0.04014027
75	0x3e297a8a	0.16550651
76	0x3de1b4a8	0.110207856
77	0xbd53f0d5	-0.051743347
78	0x3d270aa4	0.040781632
79	0xbdb743f9	-0.08948512
80	0x3dfb0a8c	0.12257871
81	0x3de7127f	0.11282825
82	0xbda7bcc2	-0.081902996
83	0x3dcf9ae9	0.10136969
84	0x3def69ec	0.11690125
85	0xbdb718fb	-0.089403115
86	0x3c1cfcd2	0.009581761
87	0x3c172886	0.00922597
88	0xbe309a17	-0.1724628
89	0x3dc29280	0.09500599
90	0x3d06e99d	0.032937635
91	0x3e330b37	0.17484747
92	0x3dcd8ffd	0.10037229
93	0x3e1ae7ae	0.15127441
94	0xbdab36a1	-0.08360029
95	0x3daa6486	0.083199546
96	0xbdc53ae5	-0.09630374
97	0xbd7651d4	-0.06013663
98	0x3d69bb89	0.057063613
99	0x3e8954fb	0.26822647
100	0x3dbed847	0.093185954
101	0x3c72b31c	0.014813211
102	0x3db74706	0.089490935
103	0x3e11cbf3	0.14237957
104	0x3ddfa9ee	0.109210834
105	0xbdceae18	-0.100917995
106	0x3be167b0	0.0068788156
107	0x3e35968a	0.17733207
108	0x3df3074c	0.11866626
109	0x3d895606	0.06705861
110	0x3e22a393	0.15882711
111	0x3d89bc66	0.06725387
112	0x3deb8a09	0.115009375
113	0x3e78187b	0.24228089
114	0xbd654b7c	-0.05598019
115	0x3cb8a9f9	0.022541987
116	0xbd01b247	-0.03166416
117	0x3df52347	0.11969619
118	0x3d1d7bfd	0.038448323
119	0xbd9a5039	-0.075348325
120	0x3dfd8c42	0.12380268
121	0xbd1b65d0	-0.037938893
122	0xbd3a2880	-0.04544878
123	0xbdc5e272	-0.09662332
124	0x3e703a96	0.23459849
125	0x3dd58fe0	0.104278326
126	0x3ce9423f	0.028473971
127	0x3e571201	0.21002962

encoder_lstm.bias_hh_l0 f4 [128]
0	0xbd73335b	-0.05937515
1	0xbc9b8737	-0.018985374
2	0x3e93946e	0.2882418
3	0x3e85811d	0.26075068
4	0x3e0c01ef	0.13672613
5	0x3e1fba0f	0.1559832
6	0x3e2175b6	0.1576756
7	0x3e55b99c	0.20871586
8	0xbd87ff6f	-0.06640517
9	0x3e028339	0.1274537
10	0xbc9b524b	-0.018960139
11	0x3e3f3c08	0.18675244
12	0x3d3f15aa	0.04665152
13	0x3dbd9022	0.09256007
14	0x3e8ffde2	0.28123385
15	0xbd8d497c	-0.06898782
16	0xbe10b696	-0.14132151
17	0x3d89b6de	0.06724332
18	0xbd1c1fcd	-0.038116265
19	0x3e03bdb7	0.12865339
20	0xbd32da9b	-0.04366551
21	0x3d9329c7	0.07185703
22	0xbd192cfb	-0.037396412
23	0x3e57a5fb	0.2105941
24	0x3e424b0d	0.18973942
25	0x3e645100	0.22296524
26	0x3e17ab65	0.14811476
27	0xbde9995b	-0.11406203
28	0xbab258ab	-0.0013606747
29	0x3e17a953	0.14810686
30	0x3e48a16b	0.19592826
31	0x3c273f7b	0.010208006
32	0xbaa83501	-0.0012833179
33	0xbbe50ca3	-0.006990032
34	0xbd4201b4	-0.047364905
35	0x3dfd4207	0.12366109
36	0x3c8af491	0.016962321
37	0x3e1c248c	0.15248317
38	0xbe100911	-0.14065959
39	0x3e01d28d	0.12677975
40	0x3e05b11b	0.13055842
41	0xbe1e8585	-0.15480621
42	0xbaffed13	-0.001952561
43	0x3dc302dd	0.095220305
44	0xbd89f109	-0.06735427
45	0xbd0a940c	-0.033832595
46	0x3c3409bd	0.01098865
47	0xbd81be33	-0.06335106
48	0xbd7ea041	-0.06216455
49	0x3e018a5c	0.12650436
50	0x3dadb710	0.08482182
51	0x3db2e8af	0.08735787
52	0xbb6d5b92	-0.003621791
53	0xbcd3f5a3	-0.025873965
54	0x3cdb084c	0.026737355
55	0xbdbf69bf	-0.09346341
56	0x3e54ae20	0.20769548
57	0x3da02cb8	0.078210294
58	0x3ca5067c	0.020144694
59	0xbe04951b	-0.12947504
60	0x3c48c4c1	0.012253941
61	0x3e175234	0.14777452
62	0x3e30384e	0.17208979
63	0x3e2445c3	0.16042237
64	0xbd945a0e	-0.07243739
65	0xbe34eaa1	-0.17667629
66	0xbd66f694	-0.0563875
67	0xbdc6fdeb	-0.097164
68	0xbd526d16	-0.051373564
69	0x3d947b11	0.072500356
70	0x3e1aec42	0.15129188
71	0x3db18309	0.08667571
72	0x3d4e64b0	0.05038899
73	0x3dbc769f	0.09202313
74	0xbd744eef	-0.05964559
75	0xbd4f2b52	-0.050578423
76	0x3d405259	0.046953533
77	0x3cb95e3a	0.022627939
78	0x3d4f9076	0.050674878
79	0xbe2fe4d5	-0.17177136
80	0x3dd6be18	0.10485476
81	0xbc285406	-0.010273939
82	0x3bacf1eb	0.0052778623
83	0x3c1f2114	0.009712476
84	0xbd6b847d	-0.057499398
85	0x3db358d5	0.08757178
86	0xbdd0b6b9	-0.101911016
87	0xbddfb9e1	-0.109241255
88	0xbdd5cef5	-0.104398645
89	0xbd620e4f	-0.055189427
90	0x3da9d95f	0.08293413
91	0x3e0bfc10	0.13670373
92	0x3ddebc49	0.10875756
93	0x3dc513ef	0.09622943
94	0x3df08bbb	0.117454015
95	0x3ca63910	0.020290881
96	0x3e694151	0.22778822
97	0x3e45b3ea	0.19306913
98	0xbd8b4970	-0.068011165
99	0x3e00df00	0.12585068
100	0x3ded1701	0.11576653
101	0x3cfffc90	0.03124836
102	0x3e11769b	0.142054
103	0xbcdaa646	-0.026690613
104	0xbce4da13	-0.027936017
105	0x3d8d1e09	0.068904944
106	0x3c31c0a9	0.010849156
107	0x3e04fa07	0.12986003
108	0x3ddd821f	0.10815834
109	0x3e757403	0.23970036
110	0x3c9fc8cf	0.019504933
111	0xbe4b93a8	-0.19880545
112	0xbe328de9	-0.17436947
113	0x3cd04ace	0.025426295
114	0x3de8545f	0.113442175
115	0x3e0f613c	0.14001936
116	0xbdbadea3	-0.09124496
117	0x3e11a0cd	0.14221497
118	0x3dc261c6	0.09491305
119	0x3c21ca41	0.009874881
120	0x3d9a859c	0.07545015
121	0x3d663713	0.056204867
122	0xbc8fa71c	-0.017535739
123	0xbdab2e1d	-0.08358405
124	0x3a8cecbd	0.0010751706
125	0x3e40c38e	0.18824598
126	0x3e524f61	0.20538093
127	0x3d16e5ce	0.036840253

dest_lstm_obs.weight_ih_l0 f4 [128, 2]
0	0xbdc461f1	-0.09588993
1	0xbde18f32	-0.110136405
2	0xbc0319c3	-0.008001748
3	0x3e14a635	0.14516528
4	0x3d94e3f0	0.07270038
5	0xbc220624	-0.009889159
6	0xbd1377a1	-0.03600276
7	0x3bbb46dd	0.0057152347
8	0x3d8f5d8c	0.070002645
9	0xbdf28e18	-0.118435085
10	0x3d1fd165	0.039018054
11	0x3d735a5a	0.059412338
12	0x3e06aea0	0.13152552
13	0xbd827b54	-0.06371179
14	0x3d10c9e0	0.035348773
15	0x3e25403e	0.16137788
16	0xbd7f522a	-0.062334217
17	0x3dad0ca6	0.08449678
18	0xbd89fa72	-0.06737222
19	0x3e24b1a5	0.16083391
20	0xbd2178f7	-0.039422
21	0xbc4965e0	-0.012292355
22	0xbcb3da1e	-0.021954592
23	0x3d8d71f3	0.069065
24	0xbde9a773	-0.114088915
25	0xbd8153ca	-0.063148096
26	0xbd9c152a	-0.07621224
27	0xbcee3a44	-0.029080518
28	0xbc4a78f2	-0.012357937
29	0xbc89f001	-0.016838076
30	0x3d0d5263	0.0345024
31	0xbd572c82	-0.05253268
32	0xbdaf460b	-0.085582815
33	0x3d6477d1	0.05577833
34	0xbddbfc1b	-0.10741445
35	0x3df6f255	0.1205794
36	0x3e01508f	0.12628387
37	0x3da21ad0	0.0791527
38	0xbd23a1fe	-0.03994941
39	0xbe52f64d	-0.20601769
40	0x3dc4524d	0.0958601
41	0xbc92e1e2	-0.017929975
42	0xbe294d72	-0.1653345
43	0x3df17b70	0.11791122
44	0xb8f7e6a2	-0.000118208365
45	0x3d790d43	0.060803663
46	0xbe080db2	-0.13286474
47	0xbc5b9c3d	-0.013403949
48	0x3d03c6a3	0.032171857
49	0xbdda349a	-0.10654564
50	0x3d5332e5	0.05156221
51	0x3b482a06	0.0030542626
52	0xbe1eb774	-0.1549967
53	0x3ded795e	0.115954146
54	0x3dcd404f	0.100220315
55	0x3d2c5f2c	0.04208295
56	0xbd42a88d	-0.047524024
57	0xbd21ed1b	-0.039532762
58	0x3e15b088	0.14618123
59	0x3df8c78d	0.12147436
60	0x3d9a69ba	0.07539697
61	0xbe0cdf43	-0.13757043
62	0xbd8eceaf	-0.069730155
63	0x3dbc7538	0.09202045
64	0xbd24dfda	-0.040252544
65	0xbd4ab7aa	-0.049491562
66	0xbe2443f4	-0.16041547
67	0xbe0d03a5	-0.13770922
68	0xbd1f772c	-0.03893201
69	0x3d5e0d24	0.05421175
70	0xbd5d9be6	-0.054103754
71	0x3c8925c2	0.016741637
72	0xbe1381b0	-0.1440494
73	0x3d0002cb	0.031252664
74	0xbca1cb7d	-0.019750351
75	0x3dcc03d5	0.099616684
76	0xbd430cec	-0.047619745
77	0xbc810def	-0.015753714
78	0xbd57f6a6	-0.052725457
79	0xbc810c3f	-0.01575291
80	0xbd2214d2	-0.039570637
81	0xbe10e71e	-0.14150664
82	0xbd816b66	-0.06319313
83	0x3e0015a6	0.12508258
84	0xbdce550e	-0.10074817
85	0x3dd0247c	0.10163209
86	0xbbe46fc4	-0.0069713313
87	0xbe3878b0	-0.18014789
88	0x3e05915d	0.13043733
89	0x3d782c07	0.060588863
90	0xbdadecd0	-0.08492434
91	0xbd5f62b6	-0.054537497
92	0x3d28cbc3	0.041209947
93	0xbdca331c	-0.098730296
94	0xbbcedb25	-0.006312745
95	0x3d1649f6	0.03669163
96	0xbe26948c	-0.16267604
97	0xbd5a3f74	-0.05328317
98	0x3df0045c	0.117195815
99	0xbe2d8c86	-0.16948137
100	0x3cf5385d	0.029934103
101	0xbdabe479	-0.08393187
102	0xbdca7c80	-0.09887028
103	0x3d4fbde7	0.050718214
104	0xbd122b5e	-0.03568589
105	0xbda879f3	-0.08226385
106	0x3d90d241	0.07071353
107	0xbb85182f	-0.004061721
108	0xbe55f01d	-0.20892377
109	0xbd02e890	-0.03196007
110	0x3e009d68	0.12560046
111	0xbcd2bc9a	-0.025724698
112	0x3e217002	0.15765384
113	0xbd962652	-0.07331528
114	0xbd36e2f6	-0.04465004
115	0x3b98b74b	0.004660522
116	0x3d590ee1	0.052992705
117	0x3d8f43dd	0.06995366
118	0xbe176bf1	-0.1478727
119	0x3d8dab16	0.06917398
120	0xbd0a858a	-0.03381876
121	0xbe0e4bdd	-0.13896127
122	0x3e15a4b8	0.14613616
123	0xbd4e13ff	-0.05031204
124	0x3d13aef4	0.03605552
125	0x3dedafc8	0.11605793
126	0xbdda8c3e	-0.1067128
127	0xbd6b7835	-0.057487685
128	0xbcb64717	-0.022250695
129	0x3d6ff550	0.058583558
130	0x3da45a8a	0.080250815
131	0x3d2f042b	0.042728584
132	0xbd84ec99	-0.0649044
133	0xbd25556d	-0.04036467
134	0xbdd62d91	-0.1045791
135	0x3c859f9e	0.016311463
136	0x3d8794f8	0.066202104
137	0xbaf8c03e	-0.0018978191
138	0xbca977bc	-0.020686977
139	0xbc6b0a3a	-0.0143457
140	0x3d8a25cc	0.067454904
141	0xbdde6c45	-0.108604945
142	0xbca4bfaf	-0.020110933
143	0xbcb7eaee	-0.02245089
144	0x3e048c2a	0.12944093
145	0xbd8e520e	-0.069492444
146	0xbd81b79d	-0.063338496
147	0xbd3ec5df	-0.046575423
148	0x3c330d30	0.010928437
149	0xbdef1608	-0.11674124
150	0xbde6a689	-0.11262233
151	0x3da32487	0.079659514
152	0xbddd7a84	-0.108143836
153	0xbd0baf93	-0.034102987
154	0x3da57f24	0.08080891
155	0xbd12db6d	-0.035853792
156	0x3e0bee8c	0.13665217
157	0x3d91079f	0.07081532
158	0x3e209733	0.15682678
159	0xbdba4c86	-0.09096627
160	0xbd9e97a6	-0.077437684
161	0x3d58c0c4	0.05291821
162	0x3d754dd4	0.059888676
163	0xbdb30ac2	-0.08742286
164	0xbd19e3ca	-0.037570752
165	0xbd8abf2f	-0.067747466
166	0x3d245645	0.040121336
167	0xbc24a61c	-0.010049369
168	0x3da75afe	0.08171652
169	0xbd76b09e	-0.06022703
170	0xbdcb76c9	-0.09934766
171	0x3d9be7ba	0.07612558
172	0xbde8c938	-0.113665044
173	0x3e0cad27	0.13737927
174	0x3bad6441	0.005291492
175	0xbd9e4d72	-0.07729615
176	0x3da29ec0	0.079404354
177	0x3d9c447a	0.07630248
178	0x3cbc1cf5	0.022963027
179	0xbdcba095	-0.09942738
180	0x3d5cad25	0.05387606
181	0xbc1ade17	-0.009452364
182	0xbd6a33fc	-0.057178482
183	0x3d50962f	0.050924476
184	0xbc3db2fe	-0.01157832
185	0x3def6bc3	0.11690476
186	0x3e2ff416	0.17182955
187	0x3da0682a	0.07832368
188	0x3e326cdf	0.17424344
189	0x3d8a4341	0.06751109
190	0xbc916c5d	-0.017751867
191	0xbccc172c	-0.024913393
192	0x3dbb7f99	0.09155197
193	0x3d859193	0.06521907
194	0x3c750d10	0.014956728
195	0xbe040fe7	-0.12896691
196	0xbdf6396a	-0.120226696
197	0xbd373eca	-0.044737615
198	0xbda2aac5	-0.07942728
199	0xbe178748	-0.147977
200	0x3dbee187	0.0932036
201	0x3de7da8a	0.1132098
202	0xbc832e87	-0.016013397
203	0xbe1442ad	-0.1447856
204	0xbe2c946d	-0.16853495
205	0xbdadea90	-0.08492005
206	0xbc6eb906	-0.01457048
207	0xbd3c2577	-0.045934167
208	0x3d9d0a3f	0.0766797
209	0xbd370029	-0.044677887
210	0xbd968b38	-0.073507726
211	0x3ce6127b	0.028084984
212	0x3dda190c	0.106493086
213	0xbdb7e3c4	-0.0897899
214	0x3dd1ec35	0.10250131
215	0x3df7ac5c	0.12093422
216	0xbe1a89b0	-0.15091586
217	0xbdd07324	-0.10178211
218	0xbd87cdc2	-0.06631042
219	0x3d3f6e34	0.046735957
220	0x3b7e1c39	0.0038774146
221	0xbb63554b	-0.003468829
222	0xbc101d25	-0.008796011
223	0x3cf106d1	0.029422196
224	0x3dbf4fd9	0.093414016
225	0x3cc9e4ec	0.024645291
226	0xbe08a3ae	-0.13343689
227	0xbe2d0ec5	-0.16900165
228	0xbd655799	-0.055991743
229	0xbe2237ff	-0.15841673
230	0xbcad3a77	-0.021146042
231	0xbdb8ed8c	-0.090296835
232	0xbcfb7225	-0.030694077
233	0x3d6af812	0.057365485
234	0xbe1dffa0	-0.15429544
235	0x3e0a3ba2	0.1349931
236	0xbd593938	-0.053033084
237	0x3d56b0b2	0.052414604
238	0x3d7bf6d8	0.061514705
239	0xbd4f22ac	-0.050570175
240	0xbe1cc6cf	-0.15310214
241	0x3c9aca17	0.018895192
242	0xbd825fd3	-0.06365933
243	0xbe13a356	-0.14417776
244	0x3d8dff2e	0.06933437
245	0xbe15d4ad	-0.1463191
246	0xbd876363	-0.066107534
247	0xbd915919	-0.07097072
248	0x3d32f682	0.04369212
249	0x3ddf81f4	0.109134585
250	0x3db2e7e6	0.08735637
251	0xbc041696	-0.0080620255
252	0x3e14bf2d	0.14526053
253	0xbca8f17a	-0.020622957
254	0x3dd5cfbb	0.10440012
255	0xbe1eff82	-0.15527156

dest_lstm_obs.weight_hh_l0 f4 [128, 32]
0	0xbdfb8273	-0.122807406
1	0xbdf3cc07	-0.119041495
2	0x3e19b9c4	0.1501227
3	0x3e2a6c2b	0.16642825
4	0xbe2eadf3	-0.17058544
5	0xbe07c766	-0.13259658
6	0xbe18b18e	-0.14911482
7	0x3e2b9802	0.16757205
8	0xbe0cf733	-0.13766174
9	0xbd19e3da	-0.03757081
10	0xbda8dbe6	-0.08245067
11	0x3e269a72	0.16269854
12	0x3d49fa95	0.04931124
13	0xbd320540	-0.043462038
14	0x3db47494	0.08811298
15	0xbe32efd9	-0.17474307
16	0x3d981d41	0.07427455
17	0xbde04841	-0.10951281
18	0x3dd6e8b8	0.10493606
19	0xbdec0692	-0.11524691
20	0x3db8195f	0.08989214
21	0xbdd874f3	-0.10569181
22	0x3d48c6c6	0.04901769
23	0xba64f826	-0.0008734487
24	0x3dd28bca	0.10280569
25	0x3e2c68ab	0.16836803
26	0xbe1caec6	-0.15301046
27	0xbd6587b7	-0.05603763
28	0xbd9d6a42	-0.07686283
29	0xbe3a4249	-0.18189348
30	0xbaef785d	-0.0018270124
31	0x3dfe699f	0.124224894
32	0xbd9fda08	-0.07805258
33	0xbe53bf2f	-0.206784
34	0x3d099275	0.033586938
35	0xbd86e6ee	-0.06587015
36	0xbd82f77e	-0.06394862
37	0x3de17c6c	0.1101006
38	0x3d175bdb	0.036952835
39	0x3d6022bb	0.05472062
40	0x3c3ee42a	0.011651078
41	0xbe0defdf	-0.13861035
42	0x3d2600c9	0.040528093
43	0x3e69c327	0.22828351
44	0x3e0e4472	0.13893297
45	0xbe19a4d2	-0.1500428
46	0x3c8bc0af	0.017059652
47	0xbdf5fd49	-0.12011201
48	0x3d2b67d0	0.04184705
49	0x3d6412d2	0.05568201
50	0x3e2f6783	0.1712933
51	0xbe126003	-0.14294438
52	0xbd150edc	-0.036391124
53	0xbdb86016	-0.09002702
54	0xbe115b8b	-0.14195077
55	0xbdc86b58	-0.09786099
56	0x3b80cb6b	0.0039304993
57	0xbbd240eb	-0.00641643
58	0x3c2396a8	0.00998465
59	0xbe24c083	-0.16089062
60	0xbd65ce7c	-0.056105122
61	0xbe661473	-0.22468738
62	0xbe035c22	-0.12828115
63	0x3d4bf0c5	0.049790163
64	0xbda27a97	-0.079335384
65	0x3dc73a9e	0.09727977
66	0x3e4bbad7	0.19895492
67	0xbde4eeed	-0.11178384
68	0x3d1feba1	0.039043073
69	0xbdc939f9	-0.098255105
70	0x3e23525d	0.15949388
71	0x3dd4cb1f	0.10390305
72	0xbc175d61	-0.009238572
73	0x3c4969d5	0.012293299
74	0x3d979061	0.07400585
75	0xbe11a008	-0.14221203
76	0x3c8fff17	0.017577691
77	0x3da5dacf	0.08098375
78	0xbd916e73	-0.07101145
79	0xbd82677f	-0.063673966
80	0x3bc44cab	0.005990585
81	0xbd7e0710	-0.062018454
82	0x3e4f83de	0.20265147
83	0xbd659f4e	-0.056060128
84	0xbe088bbc	-0.13334554
85	0xbe410f18	-0.18853414
86	0xbc0a8c36	-0.00845628
87	0x3d6408cc	0.05567245
88	0xbb9a6fd2	-0.004713037
89	0xbd303751	-0.043021504
90	0x3d7fb194	0.06242521
91	0xbd2da5a2	-0.042394288
92	0xbb89a04e	-0.004200018
93	0x3d4e0d2c	0.05030553
94	0xbe51d710	-0.20492196
95	0x3dbbfa71	0.09178627
96	0x3d54ad70	0.051923215
97	0xbd3827d0	-0.044959843
98	0x3d56ccae	0.05244129
99	0xbdf24b76	-0.11830799
100	0xbdd76fc5	-0.10519365
101	0x3e166412	0.14686611
102	0x3e0781c7	0.132331
103	0xbdc9829e	-0.098393664
104	0x3b8d8cd2	0.0043197656
105	0x3e1d38e9	0.15353741
106	0x3de7e90b	0.11323746
107	0xbe22f577	-0.1591395
108	0xbdb575f4	-0.088603884
109	0x3e24661a	0.16054574
110	0x3d41bc7d	0.047298897
111	0x3c017b93	0.007902998
112	0x3d270ba6	0.040782593
113	0x3c90e46a	0.017687041
114	0x3d812fdc	0.063079566
115	0x3c492f26	0.0122793075
116	0x3d5135fa	0.051076867
117	0x3d91575d	0.07096741
118	0x3c0eb0b9	0.008709126
119	0xbd6df437	-0.05809423
120	0xbc9544f6	-0.01822136
121	0xbe22004d	-0.15820427
122	0x3dd0bc03	0.101921104
123	0xbddbaba9	-0.10726101
124	0xbd9cb895	-0.07652394
125	0xbd743228	-0.059618145
126	0x3d3af56a	0.0456442
127	0x3d274082	0.040833004
128	0xbced4d69	-0.028967576
129	0xbc138aec	-0.0090052895
130	0xbe097b04	-0.13425833
131	0xbb89dda6	-0.0042073308
132	0x3e0199b1	0.12656285
133	0x3e1976b3	0.14986686
134	0xbdb42fcb	-0.08798178
135	0xbc6789a9	-0.014131942
136	0xbe10a561	-0.14125587
137	0x3e384c1d	0.17997785
138	0xbd63b475	-0.05559202
139	0xbe0cc44b	-0.13746755
140	0x3db91c36	0.09038584
141	0xbe0040ee	-0.12524769
142	0x3de3edc9	0.11129338
143	0xbdbb4173	-0.09143343
144	0xbd78651c	-0.0606433
145	0x3de113e6	0.109901235
146	0x3ce4bef5	0.027923087
147	0xbde99c97	-0.1140682
148	0x3d96aecc	0.073575586
149	0x3d6b3068	0.05741921
150	0xbe27e277	-0.16394983
151	0xbd29f559	-0.041493747
152	0xbdf04924	-0.117327005
153	0x3d428328	0.04748836
154	0xbe200031	-0.15625073
155	0xbd93bf1c	-0.072141856
156	0xbdf24631	-0.11829794
157	0x3db827e6	0.08991985
158	0xbd88fd90	-0.06688988
159	0x3daafd20	0.08349061
160	0xbd49707b	-0.049179535
161	0xbe067805	-0.13131721
162	0x3e1060f4	0.14099485
163	0x3df28139	0.118410535
164	0x3cac3856	0.021022957
165	0xbd8b713a	-0.06808706
166	0xbdd1e93d	-0.10249565
167	0x3db2cdd1	0.087306626
168	0x3e3650ec	0.17804307
169	0xbd9d9860	-0.07695079
170	0x3e177e46	0.14794263
171	0x3df820c2	0.12115623
172	0xbdba8aa1	-0.091084726
173	0x3d00ce50	0.031446755
174	0x3b84d3d5	0.0040535727
175	0xbd8313cd	-0.06400261
176	0x3e296284	0.16541487
177	0xbe291107	-0.16510402
178	0x3de9b280	0.11410999
179	0x3c738e98	0.01486554
180	0x3d4b0766	0.049567603
181	0xbd2561c3	-0.040376436
182	0x3de5bb76	0.11217396
183	0xbde1150b	-0.10990342
184	0x3e38445a	0.17994824
185	0xbe5fa809	-0.21841444
186	0x3d20e525	0.03928103
187	0xbd103d7c	-0.035214886
188	0x3da3c1b3	0.079959296
189	0xbd274981	-0.040841583
190	0x3ca9d2be	0.020730373
191	0x3cd4d3b0	0.025979847
192	0xbd97df37	-0.07415622
193	0xbe5928f0	-0.21207023
194	0x3dcd17cb	0.10014304
195	0xbe12c457	-0.1433271
196	0x3e0c7dc7	0.13719855
197	0x3dd5400c	0.104126066
198	0x3dffcbf4	0.12490073
199	0xbd005e55	-0.031339962
200	0xbe305bf0	-0.17222571
201	0xbbd777b9	-0.0065755513
202	0xbe36048d	-0.17775173
203	0x3db1149f	0.08646511
204	0xbd54603d	-0.051849592
205	0x3dc3760c	0.09544
206	0x3dbc1783	0.09184172
207	0xbde4505a	-0.11148138
208	0xbdaae653	-0.08344712
209	0xbd35242e	-0.044223957
210	0xbd938222	-0.07202555
211	0xbe563cf1	-0.20921685
212	0xbe07c770	-0.13259673
213	0x3d80ee16	0.06295411
214	0x3dcb7b6b	0.099356495
215	0x3caf42da	0.021394182
216	0x3d8099d5	0.06279341
217	0xbe347036	-0.1762093
218	0xbd53bea0	-0.051695466
219	0x3e89a179	0.26881006
220	0xbca8da2d	-0.020611847
221	0xbcd29255	-0.025704542
222	0x3d87fee4	0.066404134
223	0xbdaa2e31	-0.083095916
224	0xbe3dee45	-0.18547924
225	0xbdae2558	-0.085032165
226	0xbd3a82e2	-0.045534976
227	0x3c29e31f	0.010369091
228	0x3d6878ec	0.056755945
229	0xbdbb4f08	-0.091459334
230	0xbe2a2c38	-0.1661843
231	0x3ab6f9f6	0.0013959992
232	0xbddb42fd	-0.107061364
233	0xbdb3246a	-0.0874718
234	0xbe2590c2	-0.16168502
235	0x3e31f559	0.17378749
236	0x3d4b731c	0.049670324
237	0x3d6a56da	0.057211734
238	0xbe02567c	-0.12728304
239	0x3ccaeaab	0.024770102
240	0x3dcecead	0.10098014
241	0xbdb93b5a	-0.090445235
242	0xbd894eb1	-0.06704462
243	0x3e18e2f0	0.1493032
244	0xbdded60b	-0.10880669
245	0x3e8c1d3d	0.27366057
246	0x3d3552a6	0.044268273
247	0x3db9278c	0.09040746
248	0x3df2fc86	0.11864571
249	0x3d4a6886	0.049416088
250	0x3ddec2d6	0.10877006
251	0xbc932f59	-0.017966913
252	0xbd803c71	-0.06261528
253	0x3cb2fbc0	0.02184856
254	0x3d2f0d0a	0.042737044
255	0xbe3a1e1b	-0.18175547

dest_lstm_obs.bias_ih_l0 f4 [128]
0	0x3d6a0fb5	0.057143886
1	0xbdbdd16a	-0.09268458
2	0xbe567748	-0.2094394
3	0x3db86ac9	0.09004743
4	0xbd891b92	-0.06694712
5	0xbdfcbab2	-0.12340297
6	0xbd59951a	-0.05312071
7	0x3ddaef4c	0.106901735
8	0xbe0a9753	-0.13534288
9	0x3d95aeff	0.073087685
10	0xbdaf4524	-0.085581094
11	0xbe4053b4	-0.1878193
12	0x3e24d1a7	0.16095601
13	0xbd8643d5	-0.06555907
14	0x3df3ac15	0.118980564
15	0xbdda64a6	-0.106637284
16	0x3de72098	0.11285514
17	0x3e56da75	0.20981772
18	0x3ddc167d	0.10746477
19	0xbe02c17a	-0.12769118
20	0x3e4209b9	0.18949021
21	0xbdf87ffb	-0.12133785
22	0xbe0fcc11	-0.14042689
23	0xbde25113	-0.1105062
24	0x3d8d6770	0.06904495
25	0x3db27a1e	0.08714698
26	0x3da52bee	0.080650195
27	0x3e105619	0.14095344
28	0xbe0bbd8b	-0.13646524
29	0x3da57479	0.08078856
30	0xbcf29b24	-0.029614992
31	0x3cbdf7bb	0.023189416
32	0xbe425be0	-0.1898036
33	0x3e2effc1	0.1708975
34	0xbdcd2b76	-0.10018055
35	0x3d3daa27	0.046304848
36	0x3dc902af	0.09814965
37	0xbe05a133	-0.13049774
38	0xbe0d2719	-0.13784446
39	0xbd320ea2	-0.043470986
40	0xbe641f1e	-0.22277495
41	0x3cb34285	0.021882305
42	0xbe06d7b7	-0.13168226
43	0x3d330ebf	0.043715235
44	0xbe509e88	-0.20372975
45	0xbd2a8e56	-0.04163965
46	0x3dfe50cf	0.12417757
47	0x3d4e9c90	0.05044228
48	0xbe14fc43	-0.14549355
49	0x3dfd3b80	0.12364864
50	0xbdd4b3aa	-0.10385831
51	0xbdad462d	-0.084606506
52	0xbd8ef5a1	-0.06980444
53	0xbe1af9d9	-0.15134372
54	0xbe288a5f	-0.16459034
55	0x3d68314f	0.05668765
56	0xbddfd8f9	-0.10930056
57	0x3ce34ed8	0.027747557
58	0xbdf4e881	-0.11958409
59	0x3d4a2c5e	0.049358718
60	0xbdfced67	-0.123499684
61	0xbda3b158	-0.0799281
62	0x3a869231	0.0010266957
63	0x3dd7a697	0.10529821
64	0xbcdbc511	-0.026827367
65	0x3e713c07	0.23558055
66	0x3daa318c	0.083102316
67	0xbc53c915	-0.01292636
68	0x3dd4f351	0.103979714
69	0xbe4727f7	-0.19448839
70	0xbdd0ee76	-0.10201733
71	0x3e291663	0.16512446
72	0x3dd3539b	0.10318681
73	0xbbffed6c	-0.0078102853
74	0xbdc62557	-0.09675091
75	0xbdf3f4bf	-0.11911916
76	0x3d3e4542	0.04645277
77	0x3e512b50	0.20426679
78	0xbdbcfde0	-0.0922811
79	0x3c1c2263	0.009529683
80	0x3dfc1935	0.12309495
81	0x3da6d206	0.081455275
82	0xbe2ea68d	-0.17055722
83	0x3e80e712	0.25176293
84	0x3db5f334	0.08884278
85	0x3df9c521	0.121958025
86	0xbcbca7c2	-0.023029212
87	0x3dabf55a	0.083964065
88	0xbda66ea6	-0.08126573
89	0xbca7d6b2	-0.020488117
90	0x3cc04647	0.02347101
91	0xbe0422f1	-0.12903954
92	0x3d2c25eb	0.04202835
93	0x3e4ae33c	0.19813246
94	0x3e7eb145	0.2487231
95	0x3e0ed5f5	0.13948806
96	0xbd70f4aa	-0.05882708
97	0x3e131445	0.14363201
98	0x3bbd6973	0.005780393
99	0x3c46d134	0.012134839
100	0x3cb3ce7f	0.021949051
101	0xbdc497bb	-0.09599253
102	0xbddc6209	-0.10760886
103	0xbd2151de	-0.039384715
104	0xbd11e08c	-0.035614535
105	0xbb564dcf	-0.0032700186
106	0xbd8f1e41	-0.06988192
107	0x3dce46f5	0.10072128
108	0x3c5f63ce	0.013634635
109	0x3d3aabd1	0.045574013
110	0xbcda3f3f	-0.026641486
111	0x3d4b50f4	0.04963775
112	0xbe0e38c1	-0.13888837
113	0x3e04eb81	0.12980463
114	0xbde9c388	-0.11414248
115	0xbde55541	-0.111979015
116	0x3e1690e5	0.1470371
117	0x3dd329e4	0.103107244
118	0xbe089ef6	-0.13341889
119	0xbdb0ef66	-0.08639412
120	0x37394d6f	1.1044888e-05
121	0xbe329a79	-0.17441739
122	0xbe285571	-0.16438843
123	0x3d9f8fb9	0.07791085
124	0x3bcbca4d	0.0062191845
125	0xbda6efcb	-0.08151206
126	0x3e33a0df	0.17541836
127	0xbd2cb7f5	-0.042167623

dest_lstm_obs.bias_hh_l0 f4 [128]
0	0xbc8207b4	-0.015872814
1	0x3d99e6d2	0.075147286
2	0x3d24a315	0.04019459
3	0x3dde1512	0.108438626
4	0xbdfb6c5e	-0.12276529
5	0x3d75e669	0.06003419
6	0xbe39713a	-0.18109599
7	0x3e297879	0.16549863
8	0xbcac32e2	-0.021020357
9	0x3e657f50	0.22411847
10	0x3c156fac	0.009120863
11	0xbe09fe80	-0.1347599
12	0xbe2f6271	-0.17127396
13	0xbe4fe5e4	-0.2030254
14	0x3d93d9cf	0.07219278
15	0xbe07888e	-0.13235685
16	0x3c3a19c3	0.011358681
17	0xbcceb821	-0.025234284
18	0xbd3e9e9f	-0.04653799
19	0xbe2bab96	-0.16764674
20	0x3dab3a6d	0.08360753
21	0xbdabddae	-0.083918914
22	0xbe8a6c9e	-0.27035993
23	0xbe3e5f8d	-0.18591137
24	0x3e18d349	0.14924349
25	0xbe16c7f3	-0.14724712
26	0x3d178365	0.036990542
27	0x3d1aa808	0.037757903
28	0xbda5f280	-0.08102894
29	0xbd40517f	-0.04695272
30	0x3e4da69d	0.20083089
31	0x3db52cd3	0.0884644
32	0x3de13ab0	0.10997522
33	0x3db11dcf	0.08648264
34	0x3d45823c	0.048219904
35	0xbc53f4a0	-0.012936741
36	0x3dbe1468	0.09281236
37	0x3d623f08	0.055235893
38	0xbd0458d5	-0.03231128
39	0x3d3daecf	0.04630929
40	0xbe1f6763	-0.15566783
41	0x3e340b0d	0.1758234
42	0xbe0b4b04	-0.13602835
43	0x3c8924ed	0.01674124
44	0xbd961be9	-0.07329542
45	0xbdd4aea2	-0.10384871
46	0x3dbb8f15	0.0915815
47	0xbe570842	-0.20999244
48	0xbe447341	-0.19184591
49	0x3dbcc07a	0.092163995
50	0x3c1507f7	0.009096137
51	0x3d76aa7a	0.060221173
52	0x3d36b122	0.04460252
53	0x3d89f056	0.067352936
54	0xbd0750eb	-0.033036154
55	0xbbf06dfe	-0.007337331
56	0xbe0495c1	-0.12947752
57	0xbdfe9cbf	-0.12432241
58	0x3d5516a1	0.052023534
59	0x3d25f62a	0.040517963
60	0xbdd7f9db	-0.10545703
61	0x3dddc7ba	0.108291104
62	0x3de89737	0.11356967
63	0xbd8c4f6f	-0.06851088
64	0xbdea3650	-0.114361405
65	0x3e8e6e32	0.27818447
66	0xbe1299b6	-0.14316449
67	0xbd7922c1	-0.06082416
68	0x3e009711	0.12557627
69	0x3cbe8304	0.023255832
70	0x3d027719	0.03185186
71	0x3d27c293	0.040957045
72	0xbdb1858a	-0.08668049
73	0xbeaa80c9	-0.3330138
74	0x3dd87ba4	0.105704576
75	0xbd238f85	-0.039931793
76	0x3e16b450	0.14717221
77	0xbdaffa82	-0.085927024
78	0xbd02a379	-0.03189418
79	0x3d0302fa	0.03198526
80	0x3d0bbd2f	0.034115966
81	0x3e05e6e1	0.13076355
82	0x3dea695d	0.11445878
83	0xbb686768	-0.0035462026
84	0xb952e3da	-0.00020112042
85	0x3e2e8736	0.17043766
86	0xbe110546	-0.14162168
87	0x3d89b195	0.06723324
88	0xba923445	-0.0011154494
89	0x3e00abf3	0.12565593
90	0x3e726e84	0.23674971
91	0xbde8dcc4	-0.11370233
92	0x3c4ac3b1	0.012375758
93	0x3e28327b	0.16425507
94	0x3cf437f2	0.029811833
95	0x3d205cfc	0.039151177
96	0xbdb20114	-0.08691612
97	0x3de11d36	0.109919
98	0xbdfb0d23	-0.12258365
99	0xbe23be1d	-0.15990491
100	0x3e120a5e	0.14261767
101	0xbdd7ac5f	-0.10530924
102	0x3c4a1189	0.012333282
103	0xbd065eb3	-0.032805156
104	0xbd910bfb	-0.07082363
105	0xbdb7f62c	-0.089825004
106	0xbba15e76	-0.0049245907
107	0x3d24128b	0.040056746
108	0xbe0796dd	-0.13241144
109	0x3d281d30	0.04104346
110	0xbb99ccfc	-0.0046936255
111	0xbd950fdb	-0.07278415
112	0xbe4a831d	-0.19776578
113	0xbe470ffb	-0.1943969
114	0x3e01bbc9	0.1266929
115	0xbe2978b8	-0.16549957
116	0x3b69e379	0.0035688563
117	0xbde92814	-0.113845974
118	0x3ce57a1d	0.02801233
119	0xbe125b54	-0.14292651
120	0x3e17f79d	0.1484055
121	0xbd762eeb	-0.06010334
122	0xbcb5b28a	-0.02217986
123	0x3c6e5b24	0.014548097
124	0xbe58e4cf	-0.21181034
125	0x3c8ec9c8	0.017430201
126	0xbe0cdf04	-0.13756949
127	0xbdf4c0e9	-0.11950857
