src/do_tp_federated_federated_round_1.pt (torch, 157077 bytes, 26 tensors)

linear_enc.weight f4 [64, 2]
000000 d2 21 fb 3e cd f8 de 3e 17 92 c0 3e 2a 8b 81 3d
       0.4904924 0.43549195 0.37611458 0.063253716
000010 be 21 0c 3f 88 4d c3 3e ca 5d dc 3e ff 26 1c bf
       0.54738986 0.3814509 0.43040305 -0.60997003
000020 c2 7b 8d 3e f6 08 c8 be 1a d0 08 3e 4c 18 3c 3e
       0.27633482 -0.39069337 0.13360634 0.18368644
000030 dd 60 d4 be 8b 33 85 3e a1 c4 53 3e 96 1f 19 be
       -0.4148015 0.26015887 0.20680477 -0.14953455
000040 78 4d 3e 3d c5 bc 03 be 34 79 c0 be f8 e6 30 be
       0.0464606 -0.12864979 -0.3759247 -0.17275608
000050 26 28 6a 3e b0 9c 03 bd 56 e0 de 3e 06 2a 10 bf
       0.22866878 -0.03213185 0.4353053 -0.5631412
000060 7d d9 d1 3e bf 70 5d 3d 4c 03 3e be 8f cf 51 bf
       0.40986243 0.0540626 -0.18555945 -0.81957334
000070 a4 de 01 be eb e5 7e be e5 73 db 3e db 2d e9 bd
       -0.12682587 -0.24892394 0.42861858 -0.11385699
000080 c1 10 2e bf 57 54 0a bf 96 4f 0f bf fd 56 05 be
       -0.67994314 -0.5403494 -0.55980814 -0.13021465
000090 46 aa 0b 3f 7a 80 1f bf e6 27 84 3e f5 9e bd be
       0.5455669 -0.62305415 0.2581169 -0.37035337
0000a0 49 4d e9 3e 46 9e 41 bf 51 ca 0b bf c4 77 20 3f
       0.45566776 -0.7563213 -0.54605585 0.6268275
0000b0 d8 a0 db be 14 1f 15 3e fb 7d 29 be 17 4c 05 3d
       -0.42896152 0.14562637 -0.16551964 0.032543268
0000c0 ec f8 85 3e b8 48 c5 be 34 20 4f 3e e7 73 99 3c
       0.26166475 -0.38532043 0.20227128 0.018732024
0000d0 35 04 e5 be 51 df e4 3d 2e aa 2a 3f 2e 9d 8e 3e
       -0.44729772 0.11175407 0.66665924 0.27854294
0000e0 ea 15 21 3d 03 b5 6a 3e fa c0 1a 3f 08 d7 2e 3a
       0.03932754 0.22920613 0.6045071 0.00066696154
0000f0 88 e0 5a be 68 66 1e 3f cc 3f 2b bf 6c 68 be be
       -0.21374714 0.6187501 -0.6689422 -0.37189043
000100 7f 2e 0f 3f b2 4d dd be e1 af 80 be 5c 2c 22 3f
       0.5593032 -0.4322334 -0.25134185 0.6334894
000110 25 19 e3 be 04 b0 52 be dd ee ee be a6 ee 2b 3f
       -0.4435512 -0.20574957 -0.46666613 0.67161024
000120 b8 3e b8 3e 51 9d 38 bf 48 3b ec bd 72 d8 eb 3e
       0.3598535 -0.72115046 -0.115347445 0.46063572
000130 f4 3b 0f 3f 7e 48 49 3f 62 0f 2c bf 7a 54 dc be
       0.55950856 0.7862624 -0.6721097 -0.430332
000140 c4 71 07 3f d1 9c a4 3e 76 ba d6 be 9a 5e 4b bf
       0.5290797 0.3215089 -0.41939133 -0.79441226
000150 26 9c 30 3f 9a df b5 3d ac 30 8c be 1c 68 0b 3c
       0.68988264 0.08880539 -0.27380884 0.008508708
000160 c7 78 c2 be c2 1b 2f 3e e1 fe ad be de 34 19 3f
       -0.3798277 0.17100433 -0.3398352 0.59846294
000170 11 2d 25 bf b4 e6 d0 3e a0 b1 fb 3e 39 76 0a 3f
       -0.6452189 0.40801013 0.49158955 0.54086643
000180 33 8c ad bd ca a1 54 3c 5a 5b 21 bf 30 f0 1d 3e
       -0.084740065 0.012978027 -0.63030016 0.15423656
000190 30 98 a1 be dd 2f 02 3f 8a 9b 10 bf 90 c1 a0 3e
       -0.31561422 0.50854284 -0.56487334 0.31397676
0001a0 70 0a 39 bf c2 60 d3 be ff c9 fc bd bc f9 2c 3e
       -0.7228155 -0.41284758 -0.12343215 0.16892141
0001b0 1c 5a 2e 3f 2c c7 a3 3e 97 32 7d bd d2 d8 e1 3e
       0.68106246 0.31987894 -0.061815824 0.44110733
0001c0 0c 83 67 be 2f b8 f9 3e 1b f8 d9 bd 79 be e3 3e
       -0.22608584 0.48773333 -0.106430255 0.44481257
0001d0 bc 5f 19 bf 80 35 2d bf 02 37 2c bf 3a 1c 4b 3e
       -0.59911704 -0.6765976 -0.67271435 0.19834986
0001e0 38 ca 7c 3e 3e 87 34 3e 07 4c ef bd dd e7 f6 3e
       0.24686515 0.17629716 -0.11684423 0.48223773
0001f0 02 46 05 be 44 fa b1 bd c6 3f 44 be 4a fe 6b bd
       -0.13014987 -0.086903125 -0.19164953 -0.057615556

linear_enc.bias f4 [64]
000000 42 74 43 3e 53 20 24 bf f3 35 ad 3d be ff d5 be
       0.19087318 -0.6411182 0.084575556 -0.41796678
000010 e0 c5 ee be 91 22 2b bf f6 78 96 3e 19 06 bb be
       -0.46635342 -0.6684962 0.2938916 -0.3652809
000020 ee b4 9b 3e 92 96 a3 3e 82 93 a2 3d 0e 48 3d be
       0.30411476 0.31950814 0.07938291 -0.18484518
000030 66 9b c5 bc 6a 20 72 3c e7 f9 bc be 2e 02 d6 be
       -0.024121951 0.014778236 -0.3690941 -0.41798538
000040 55 75 6a bd 8a 8f f0 be 71 b3 8e 3d a9 e7 18 3e
       -0.057240803 -0.46984512 0.069678195 0.14932121
000050 86 51 13 3f 08 53 3e 3e de c0 1f 3f 38 92 c4 3e
       0.5754627 0.18586361 0.62403667 0.38392806
000060 c9 48 1e bf a1 e4 d2 3e ea 2a 8e be 75 04 45 3e
       -0.6182981 0.41190055 -0.27767116 0.19239981
000070 5e ca b2 bb 7e ae 8a be bc 3a 70 bd 75 5e 34 bf
       -0.005456253 -0.27086252 -0.058649763 -0.7045663
000080 02 59 e1 be 49 91 1f 3f 3e eb a0 be d4 6a d3 be
       -0.4401322 0.6233106 -0.31429476 -0.4129244
000090 9f a2 6d be bd 78 d0 3e 59 a4 09 bd 93 09 19 3f
       -0.23206566 0.40717116 -0.033604 0.59780234
0000a0 60 40 15 bf a0 25 d7 be dd cf f7 be b9 02 a4 3e
       -0.58301353 -0.42020893 -0.48400775 0.32033327
0000b0 35 bb 1f 3f 0b c7 20 3f 48 93 2c 3f 5d 59 03 3e
       0.6239503 0.62803715 0.67412233 0.12827058
0000c0 75 1d 05 bf 7a 74 a7 be 48 d3 bb be 0f 1d 88 bc
       -0.5199807 -0.32706052 -0.36684632 -0.016615419
0000d0 46 ba a6 be d0 78 1f 3f ac 4a 2e bf c4 0e 13 bf
       -0.3256399 0.6229372 -0.6808269 -0.57444406
0000e0 6c eb 29 3f 2f 63 0b 3e 09 b4 a4 3e 22 bd dc bd
       0.6637485 0.13612054 0.32168606 -0.10778262
0000f0 fa 0a 94 3e 72 43 b2 3e 38 f5 46 3e 90 da 02 bf
       0.28914624 0.34817082 0.19429481 -0.5111475

encoder_lstm.weight_ih_l0 f4 [128, 64]
000000 9a 8e 0c 3e 3b d5 14 3e 9c 76 1f 3e ec de ff bd
       0.13726273 0.14534466 0.1557259 -0.12493691
000010 2a 8a a7 3c 24 36 bf bd 4d 5c fc 3d 7a de bc bd
       0.020451624 -0.093364984 0.123222925 -0.092221215
000020 ec bb 13 3e ff 47 c8 3d 6e 45 e7 bd 9c d9 1e 3e
       0.14427155 0.09779357 -0.112925395 0.15512699
000030 83 b1 f3 bc 12 20 40 bd f8 84 37 be 5a 5e 12 be
       -0.02974773 -0.046905585 -0.17921817 -0.14293805
000040 c6 ff 0c 3e 8e 6e fd bc aa 42 9e bd d8 56 db bd
       0.13769445 -0.030936506 -0.07727559 -0.107099235
000050 65 f2 90 3d 85 d5 1a 3e aa bc 25 be 90 6d c3 bd
       0.07077483 0.15120514 -0.16185251 -0.09542382
000060 e8 1b e7 3d e6 7c d1 3d 8c 62 f2 bd 52 db 8a 3d
       0.112846196 0.102289006 -0.118352026 0.06780113
000070 e9 24 6b 3d 5e 7c 3e bd 71 93 24 be b6 b9 ec bd
       0.057408247 -0.046505325 -0.1607187 -0.11558859
000080 72 4d 80 3d 8b 49 99 3d 9b 28 36 be 79 c1 02 bd
       0.062647715 0.0748473 -0.17788927 -0.03192279
000090 a8 12 fd bd 74 c5 0c be 20 07 dd bd 54 27 cc bd
       -0.12357074 -0.13747197 -0.107923746 -0.09968439
0000a0 0c df 05 3e 15 61 51 3b d4 95 f5 3d 03 4d 36 3e
       0.13073367 0.0031948735 0.11991468 0.17802815
0000b0 06 99 19 be 58 4e db bd 69 25 11 3e ac 94 03 3e
       -0.1499978 -0.10708302 0.14174427 0.12849683
0000c0 5c a3 3b be ea c3 2c 3d ca df c4 bd 68 bf 7f bd
       -0.18324035 0.042179026 -0.09612997 -0.0624384
0000d0 b1 d1 58 3d dc ea fe 3d d6 ce 99 bd 8c 9f dd bd
       0.052934352 0.124471396 -0.07510154 -0.10821447
0000e0 ba eb db 3c c2 7b cc bd c3 3e cf bd fc ba 7b bd
       0.026845802 -0.099845424 -0.10119393 -0.06145762
0000f0 9c 59 68 3d 1b ae f1 bc 92 2b bf 3c 80 da 83 3c
       0.056726083 -0.029501965 0.023336206 0.0160954
000100 91 1f 2e 3d 4c 4a 70 be a2 cb 7e 3d 70 06 a9 3d
       0.042510573 -0.23465842 0.062205918 0.08253181
000110 2c ae 68 3d 04 39 ee bd 19 f3 4c 3e c2 14 14 be
       0.05680673 -0.116319686 0.2001461 -0.14461043
000120 e9 9c 0d 3e 34 1f 7c 3e ea 53 ac bb b9 f3 c1 bd
       0.13829388 0.24621278 -0.005259027 -0.094703145
000130 60 b7 b0 bd e2 80 c2 3d b8 b5 dd bd 5d 8b 24 be
       -0.08628726 0.09497239 -0.10825676 -0.16068788
000140 a5 cb 1a bd 8a 27 7e be b4 fb c3 bc 84 3b 71 3e
       -0.037791867 -0.2481977 -0.023923732 0.2355786
000150 00 a1 1e bd b9 22 f5 3c 3f 50 1d 3d c6 8f 69 3e
       -0.03872776 0.029923784 0.038406607 0.22808751
000160 4b 83 e7 bd ce 9c c1 bd 77 34 4f be 30 43 af 3c
       -0.11304339 -0.09453736 -0.20234857 0.021394342
000170 f6 00 1c be 18 67 5c 3d 98 b3 10 3b 6d 4d c1 3d
       -0.15234742 0.053809255 0.0022079702 0.09438596
000180 81 bc ec bd ab a2 c4 3d ca 12 68 be 82 9b 23 bd
       -0.11559392 0.09601339 -0.22663417 -0.039943226
000190 3d 8e df 3d eb 46 70 3c 42 15 8e bd 2b a9 4a 3e
       0.10915802 0.014665346 -0.06937648 0.19791095
0001a0 c5 30 5c 3d 56 fa 47 bd a0 42 a9 3d e7 62 48 3e
       0.053757448 -0.048822723 0.08264661 0.19568978
0001b0 c0 72 16 3e bb 8e 66 3e 4d 5e 57 3e 90 05 2b 3d
       0.14692211 0.22515385 0.21032067 0.04175335
0001c0 48 14 3a be e1 cc 95 3d bf 1c 92 3c a5 0d 35 be
       -0.18171799 0.07314468 0.017835973 -0.17680986
0001d0 77 25 12 be c2 a2 4c 3e 21 83 ba bd e8 79 48 3d
       -0.14272104 0.19983962 -0.09107042 0.048944384
0001e0 84 cc ae bd f4 3d c0 3d 19 bc 53 3d 08 cc 4f be
       -0.08535102 0.093868166 0.051693056 -0.20292675
0001f0 78 58 74 3e e7 d1 47 bd ca b1 ca bc 76 06 a3 bd
       0.23861873 -0.048784163 -0.02474298 -0.07960217
000200 62 3b cf 3d da de 7e bd 9a 6b f9 bd fd 63 57 bd
       0.10118748 -0.062224247 -0.121787265 -0.05258559
000210 be 36 cf bc 81 f6 77 bc 33 28 97 bd 8e 72 5f 3d
       -0.025294658 -0.015134455 -0.07380714 0.054552607
000220 e5 d7 f0 3d cb 4a 60 3d 31 ed 01 3e 53 9f 3c bc
       0.117599286 0.054758828 0.12688138 -0.011512595
000230 af d3 86 3c 9e de 9c 3d a1 4c 11 be cb ea 52 3d
       0.01645836 0.07659648 -0.14189388 0.051493447
000240 56 da 00 3d f1 86 d0 bd f2 01 9e bc 8d 5d 81 bc
       0.03145822 -0.10181988 -0.019288037 -0.015791679
000250 5a 78 f2 3d 10 21 3a 3d 88 f5 10 bd cf 10 57 bd
       0.118393615 0.045441687 -0.035390407 -0.052506264
000260 ac 4f 2c 3e af 1f d5 3d 5d 23 d0 3a 7d 14 89 bd
       0.16827267 0.10406434 0.001587968 -0.06693361
000270 4e e2 4a be 14 ea 69 bd 9e ba b6 bd 66 cd 18 3e
       -0.19812891 -0.057108 -0.08922313 0.14922103
000280 ca 8d 05 be d3 68 cc bd 4e e9 07 3e cd f8 78 bc
       -0.1304237 -0.09980931 0.13272592 -0.0151960375
000290 ca 64 1c 3d ed 0e 4a 3c 4f 49 28 be e7 a4 0a bd
       0.038182057 0.01233266 -0.16434215 -0.03384867
0002a0 54 9d d4 bd 9a 73 c6 3d b4 d7 e5 3d 74 7b 89 bd
       -0.103815705 0.09690018 0.11222783 -0.06713
0002b0 0a 3f 67 bd dc 0a e7 bd b2 93 dd bd 2f af 92 bd
       -0.056456603 -0.11281368 -0.10819186 -0.0716232
0002c0 d6 2b 26 3e f5 cf 91 bd 4a 42 a3 bd 2a df 0e 3e
       0.1622766 -0.07119743 -0.07971628 0.13952318
0002d0 48 59 ab 3d 23 fe 1d be 9f 90 2b be 31 50 8e 3d
       0.083666384 -0.15428977 -0.16754387 0.06948889
0002e0 ba f2 bd 3b 16 b5 de 3d d0 61 b9 bd 1a c4 1c be
       0.0057967575 0.10874383 -0.090518594 -0.15309182
0002f0 41 01 29 3e 86 7c f0 bd 1f ce f3 bd 83 f4 1b 3e
       0.16504385 -0.11742501 -0.11904549 0.15229993
000300 56 e0 af 3b 93 1d 16 3e 3a c0 0b 3d 72 0d 19 be
       0.005367319 0.14659719 0.03411887 -0.14946535
000310 7a dd 2a 3e 9c 28 01 bd 17 60 ec 3c bc c5 3a bd
       0.16686049 -0.03153287 0.028854413 -0.04559873
000320 d7 1e ec bd 24 c8 85 bd 42 4a cf bd 23 d4 9f bc
       -0.1152932 -0.065323144 -0.101215854 -0.019510334
000330 00 7c 7a bc d8 e3 89 bb cd 0b 8a bc 75 5f 0a 3e
       -0.015288353 -0.0042080693 -0.01685133 0.13512976
000340 9e 32 8c 3d 32 ce bf 3c 1c 78 b7 3d c9 a7 93 3d
       0.06845592 0.023413751 0.08958456 0.07209737
000350 54 2f 28 be 54 c3 fe 3c bc fc cf bd d8 fb 3d 3d
       -0.16424304 0.031099 -0.10155627 0.046382755
000360 8a d4 fc 3d 4e c0 2c be cd bc 93 3d d9 3e a0 bd
       0.12345226 -0.16870233 0.07213745 -0.07824487
000370 82 cf 0b 3e 32 6d fb 3c 72 a4 db bd 27 6b 35 3d
       0.13653377 0.030691717 -0.10724725 0.04429164
000380 5f aa 6d 3d c4 d4 07 bd c2 0b b2 3c 46 43 49 3e
       0.058023807 -0.033161893 0.021734122 0.19654569
000390 2c ef 1f 3e 66 ca cf 3d e5 1c 87 bd 3c 2e ad 3d
       0.1561858 0.10146026 -0.06597308 0.08456084
0003a0 37 98 7d 3d d3 80 89 3d c1 8b a5 bd 1b 2a 10 3e
       0.06191274 0.067140244 -0.080832966 0.14078562
0003b0 06 1f 29 be b8 7b 80 3d 49 fe db bd 50 30 bb 3d
       -0.16515741 0.062735975 -0.107418604 0.09140074
0003c0 3f 4e 0a 3e 72 c7 d2 bc 8a 35 69 3c 14 df 1c 3e
       0.13506411 -0.025729869 0.014233956 0.15319473
0003d0 5c c5 8f bd 80 e8 b5 bc 7f 7e 42 3c a8 7f b2 bd
       -0.07020065 -0.022205591 0.011870979 -0.08715755
0003e0 3b c8 18 bd 0a 26 8a bd 47 90 fc bd 00 17 a0 bd
       -0.03730033 -0.067455366 -0.12332206 -0.07816887
0003f0 78 4c 03 3e 1a a1 c1 bd 98 25 22 3e 6b 2a 15 3e
       0.1282214 -0.09454556 0.15834653 0.14566962

encoder_lstm.weight_hh_l0 f4 [128, 32]
000000 b3 6d e1 3d 51 fb 81 bd 48 71 28 3d 46 41 f6 3d
       0.110072516 -0.06346763 0.04112366 0.12024169
000010 9d 5d 4b 3d 3c 3a 08 bd f9 95 07 be 98 ff 05 3e
       0.049649823 -0.03325866 -0.13240804 0.13085783
000020 a6 07 3b 3c 71 c2 db bd a8 ab 6a bc 71 84 03 3e
       0.011415398 -0.10730446 -0.014323153 0.12843491
000030 51 44 10 be 9c 06 dd bd 9d b3 32 3c 73 d6 a2 3b
       -0.1408856 -0.10792276 0.010907081 0.004969412
000040 2a f0 41 be e9 70 19 be 5d 66 c4 bd 7f 2e db 3c
       -0.18939272 -0.14984478 -0.09589837 0.02675557
000050 6c f0 85 bd 86 ab 1a 3e f9 f7 b5 bd f4 d6 9d 3c
       -0.065399975 0.15104493 -0.08885188 0.019267537
000060 fe 10 12 be a6 10 bb 3d 44 6d 07 3e 3b 4d 8e 3d
       -0.14264295 0.09134035 0.13225275 0.06948324
000070 b4 3b ad 3d bd 83 8c 3d 47 5d 5f 3d 00 b7 1f 3e
       0.08458653 0.068610646 0.054532316 0.15597153
000080 3f b8 26 3e 58 b4 89 bd be 8f 5a 3e 30 af 44 3d
       0.16281222 -0.06723851 0.21343896 0.048018634
000090 3b 44 10 3e f5 6a 38 3e 7f 81 cf 3d 3f cc 39 be
       0.14088528 0.18009551 0.10132121 -0.1814432
0000a0 d8 2e 1b 3e 74 1e 85 3d 17 90 ce bd 46 a6 68 bb
       0.15154588 0.06499949 -0.10086077 -0.0035499497
0000b0 cc 3c cd 3c a3 d9 73 3d da db 8a 3b f5 08 e9 bd
       0.025053404 0.059533726 0.004237634 -0.113786615
0000c0 3f 3b 14 be 71 76 32 bd 23 38 90 3d 08 03 4c bd
       -0.14475726 -0.043569986 0.07041957 -0.04980758
0000d0 ea 24 4d 3e 86 9c 08 be 28 bb ef 3c d8 43 59 3d
       0.20033613 -0.13340959 0.029264048 0.053043216
0000e0 02 49 ec bd 14 6f dd bd dc 73 4b be 47 14 b4 3d
       -0.11537363 -0.10812202 -0.19868416 0.0879293
0000f0 62 66 75 3d e2 59 43 bd f5 fc 5e 3e 6b 11 de 3d
       0.059912093 -0.04769314 0.21776183 0.10843166
000100 4d 6e a5 3d 30 ba 34 3e 7e 61 19 be af 9c 02 be
       0.08077679 0.1764915 -0.14978597 -0.12755083
000110 ea 89 53 3d 85 d5 14 3e e3 fd 20 be 5f be f7 bd
       0.051645197 0.14534576 -0.1572185 -0.12096857
000120 1e e9 15 bc de 9d f9 bd 78 fb f4 3c ea c9 cd 3c
       -0.009149818 -0.12188314 0.029905066 0.025120694
000130 28 a4 62 3d 9f e3 59 3e 70 c3 7e bb 29 90 6e 3d
       0.055332333 0.21278237 -0.0038873814 0.05824295
000140 08 d9 8e 3d ec 1c f5 bd df f1 47 be dd 6e 27 be
       0.06974989 -0.11968407 -0.1952586 -0.16350885
000150 db 79 0a 3e 13 d2 c7 3d e0 67 4d 3d 74 1d 6c 3c
       0.13523047 0.09756865 0.05014789 0.014411319
000160 fb 25 1b be b2 c7 1b 3d 12 d3 45 3d 9a 03 85 3d
       -0.15151207 0.03803224 0.048296995 0.064948276
000170 78 c4 e3 ba 65 4c be bd 56 69 16 be 9c 4f 06 be
       -0.0017377278 -0.09291915 -0.1468862 -0.13116306
000180 56 41 80 3d 39 c0 bf bc ac dc 8f bd fe db c0 bd
       0.06262462 -0.023407089 -0.07024512 -0.0941696
000190 26 2a 05 be 38 bc 09 be 1a de b2 bc 19 fe f0 bd
       -0.1300436 -0.13450706 -0.021834422 -0.11767215
0001a0 f7 a6 d4 bd 0d 5b 5e 3d fc 8f 43 3d d9 52 ef bd
       -0.103834085 0.05428605 0.047744736 -0.11685724
0001b0 98 5e a8 bc 9f b0 09 3e 80 9b 96 3d c3 89 cd bd
       -0.020552918 0.13446282 0.07353878 -0.100360416
0001c0 01 bf c8 3b d5 35 c2 bc 6f 53 44 be 91 05 8e bd
       0.006126285 -0.02370731 -0.19172452 -0.069346555
0001d0 ff 2d c1 bd 58 1d 23 be 72 c9 d4 3d 27 47 36 3e
       -0.09432601 -0.15929163 0.10389985 0.1780058
0001e0 0d b2 56 be d2 cc 94 bd 26 50 00 3e a2 9b 1b 3e
       -0.20966358 -0.07265629 0.12530574 0.15196088
0001f0 b6 d0 54 bd c3 4e 4c bd 6f d7 25 3e 1c 91 3a bd
       -0.051956855 -0.0498798 0.16195463 -0.045548543
000200 d9 fa b0 bd 16 8b 81 bd c3 89 ce 3c ed b4 1a be
       -0.086415954 -0.06325357 0.025212174 -0.1510808
000210 58 e1 62 3d 04 65 ff 3d 88 d1 f7 bd 28 d4 bb bd
       0.055390686 0.12470439 -0.12100512 -0.09171325
000220 bf 23 97 3d c2 07 c3 bd f8 a8 58 3b 75 53 0e 3e
       0.07379865 -0.09522964 0.0033059698 0.13899024
000230 2d 75 96 3d 69 80 a5 3d f8 bb 5c 3d fe a4 da 3b
       0.07346568 0.08081133 0.0538902 0.0066725006
000240 e6 b0 56 3c 56 f9 03 be 30 29 f2 bb 04 ce 13 be
       0.013103699 -0.12888083 -0.007390164 -0.14434057
000250 3b 40 c4 bd 68 b6 09 3e 25 7f 03 be 30 e9 cc 3d
       -0.095825635 0.13448489 -0.1284147 0.100054145
000260 89 37 06 be c2 6f e9 3d 62 aa 6e bc 90 d6 ea bd
       -0.13107122 0.11398269 -0.01456699 -0.11466706
000270 04 60 0b 3e 9a 70 94 3d 66 70 d5 3d 76 22 7a 3d
       0.13610846 0.072480395 0.10421829 0.06106802
000280 7d 5f 83 3d 02 48 3f 3d c8 fd 6f 3e 40 a5 f2 bb
       0.06414697 0.04669953 0.23436654 -0.0074049532
000290 89 7d 4c 3e 74 e6 2f 3e d4 4a 92 be 8e 40 74 bd
       0.19969763 0.17177755 -0.28572714 -0.059631877
0002a0 87 58 83 bc 4c 5f 6b be 88 a2 bc bd 08 c6 29 3e
       -0.016033424 -0.22985572 -0.09210688 0.16579449
0002b0 b8 8e 07 3e 27 b7 08 3e a0 06 a4 bd 3c cc 3e bc
       0.13238037 0.13351117 -0.08009076 -0.011645373
0002c0 98 48 6c be 08 f8 bf bd ba 5f 0e be 16 60 18 3e
       -0.23074567 -0.0937348 -0.13903704 0.14880404
0002d0 2c f5 1b 3e ca 87 b8 3d 8a 6c 46 be df e1 27 3d
       0.15230244 0.09010275 -0.19377342 0.04098689
0002e0 f2 02 38 be d1 b6 7d bd 1d d1 2c bd a5 2a 02 3e
       -0.17969874 -0.061941925 -0.042191613 0.1271158
0002f0 0f 16 28 3e ed 51 34 3d 1a de 8a 3c 54 bb cc 3e
       0.16414665 0.044023443 0.01695161 0.3998667
000300 bb d8 d5 3d 85 ee f7 3d 79 6a c5 3d c0 82 cd bd
       0.10441729 0.12106041 0.09639449 -0.10034704
000310 96 fd 7b bd d0 8f 87 3e fe cc 01 be 28 68 c1 3d
       -0.061521135 0.26476908 -0.12675855 0.09443694
000320 3a 1d cd 3d 43 cf 69 bd e1 b8 33 3e ae 1f 4a 3e
       0.1001534 -0.057082426 0.17550994 0.19738647
000330 3b d7 96 3d f8 f1 47 3d 70 e7 7e be 2d 7e 73 bc
       0.07365271 0.048814744 -0.24892974 -0.014861626
000340 66 f7 8d bd 4e f2 95 3d ff 7d 4d 3c 4e 4e 3f bd
       -0.06931953 0.073216066 0.012542247 -0.046705537
000350 bc 1a db 3d f0 6f 61 3d 6d b6 28 3d 9a 39 71 3c
       0.106984586 0.055038393 0.0411896 0.014723206
000360 61 e5 09 bc 51 54 e8 bb 1c 74 bb bd fe 27 23 bd
       -0.008416505 -0.0070901294 -0.091530055 -0.03983306
000370 58 81 0a be 5e c2 b0 bd e8 24 14 bd 69 b0 2d be
       -0.13525903 -0.086308226 -0.03616801 -0.16961826
000380 cd 03 89 bc de 27 cd 3d ba b6 d1 3c be b6 94 3d
       -0.016725445 0.1001737 0.025599826 0.07261418
000390 36 44 69 bc f4 75 df bd f6 9e 2f be 5b cf 28 3e
       -0.014237454 -0.1091117 -0.17150483 0.1648535
0003a0 4a 76 a6 3d 10 6f f4 3c 1d d8 02 be c2 56 4b be
       0.081280306 0.029838115 -0.12777753 -0.19857314
0003b0 ed de 03 be 5f 87 08 3e 4a 7c 86 be 38 f0 a2 3c
       -0.12878008 0.1333289 -0.262667 0.019889936
0003c0 ab f7 a2 3c a8 80 25 be f8 32 d6 3d 76 25 b0 bc
       0.019893488 -0.1616236 0.1045894 -0.021502238
0003d0 b8 40 cd 3d 66 9d b5 3d e4 6e a6 3d 21 ad da bd
       0.1002211 0.08867912 0.081266195 -0.10677553
0003e0 71 e2 00 3e c6 9f 20 be 0b 72 0c bc 69 8a df 3d
       0.1258638 -0.15685949 -0.008572112 0.109150715
0003f0 23 4f 2b 3e 07 56 b0 3d e7 21 eb 3d fb 60 d8 3d
       0.16729407 0.086101584 0.11481076 0.105653726

encoder_lstm.bias_ih_l0 f4 [128]
000000 5e f6 b6 3d 14 41 c4 3d 3c 81 23 be 9d d8 c5 bc
       0.089337096 0.09582725 -0.15967268 -0.02415114
000010 00 4d a1 3d 98 bd 94 bd 6c 70 98 bd 7a 3c da bd
       0.07876015 -0.07262725 -0.07443318 -0.10656066
000020 ef 26 20 bd 00 b2 30 be e6 2f 14 3d 14 04 2a bc
       -0.03909963 -0.17255402 0.036178492 -0.010376949
000030 63 72 6d bc 8a 63 73 3e 6e 3f 23 3e 34 35 a0 bd
       -0.014492604 0.2376844 0.15942165 -0.07822648
000040 1d b1 1e 3e 19 e1 76 3d 9b 99 51 3e fc a0 07 3e
       0.15497251 0.060273264 0.20468752 0.13245004
000050 7f 53 c9 bc 53 12 db bc ac 55 00 3e 96 38 94 bd
       -0.024575947 -0.026742136 0.12532681 -0.072373554
000060 e0 28 34 bb ac f1 9b bd 8f d7 06 3e 60 da 2c be
       -0.0027490184 -0.076144546 0.13168167 -0.16880178
000070 27 1a 0d 3e ab 2b 3b 3e 05 69 11 3e 82 05 c0 bd
       0.13779508 0.18278377 0.14200218 -0.093760505
000080 1f b0 c3 3d 31 c9 e4 3d 33 c5 38 be 05 94 ba 3d
       0.09555077 0.11171187 -0.18043976 0.09110264
000090 91 5d c1 3c b8 8e 6b 39 8a ce 97 3d 34 b2 6b 3d
       0.023604186 0.00022464513 0.07412441 0.057542995
0000a0 cd 32 c2 bd d6 2d 16 3e 8a fb 56 3c 97 43 35 3e
       -0.09482346 0.14665923 0.013121495 0.17701565
0000b0 7b 88 fd bd d7 df 87 3d c8 95 b7 bd 57 70 44 be
       -0.12379547 0.06634491 -0.089641154 -0.19183479
0000c0 9e f6 5f bc fd d4 26 bd 67 a6 81 bc b8 3e 16 3d
       -0.013669638 -0.040730465 -0.015826417 0.036680907
0000d0 03 f0 58 3c fe 08 f9 3d e3 42 44 3d aa 32 5a 3c
       0.013240817 0.12159918 0.04791535 0.013317743
0000e0 90 1b f0 bd 81 f9 22 3e 4e 6d 07 be c0 15 bd 3c
       -0.11724007 0.1591549 -0.1322529 0.02308166
0000f0 98 de 7e bd 24 18 b1 3d 8a 4a ec 3b 98 d7 e8 3d
       -0.062224 0.086471826 0.007211034 0.11369246
000100 15 2b ce bd 2a 64 0f be 81 62 f5 3c 08 6e 99 3c
       -0.10066811 -0.14003053 0.029954197 0.018729225
000110 b9 aa 33 3d 1b 34 09 be fe 8a 1c be 53 1f 0a 3d
       0.043863986 -0.13398783 -0.15287396 0.03372128
000120 36 6d ae 3b d0 46 e3 bd 53 6d 9a bd c0 97 51 bd
       0.0053230776 -0.11097491 -0.07540383 -0.05117011
000130 57 be 80 3d ed 50 25 3e 26 10 04 be 93 01 d3 bd
       0.062863044 0.16144152 -0.12896785 -0.10303035
000140 76 5b 22 3d b2 38 fe 3b d8 80 1c be 0b cb 8c bd
       0.039638005 0.0077582235 -0.15283525 -0.06874665
000150 51 91 a6 bd 68 91 ba bd cd da 0b 3e 65 ee a3 bd
       -0.08133186 -0.09109765 0.13657685 -0.080044545
000160 f5 73 b5 bc d6 7f 54 bd b2 2d 04 3d b0 08 19 3d
       -0.02215002 -0.051879726 0.03227014 0.0373618
000170 2a e8 66 3d 84 99 bd bc 84 32 f1 3d 89 9f c6 3d
       0.056373753 -0.023144491 0.11777213 0.09698398
000180 3a 9d 23 3d 59 00 8e 3e d5 4e 02 bb a1 38 08 be
       0.039944865 0.2773464 -0.0019883413 -0.13302852
000190 09 83 dc ba 87 1d 07 3d ba 76 52 3b cc ef fb 3d
       -0.001682372 0.032987144 0.0032114224 0.12301597
0001a0 fc c0 08 3e ae 79 f8 bd d8 c7 01 3e 6c 23 f3 3d
       0.13354868 -0.121325836 0.1267389 0.118719906
0001b0 8d 13 41 bb d0 d7 c8 3d d7 69 86 bd 10 61 ec 3c
       -0.0029461116 0.09806788 -0.06563156 0.028854877
0001c0 bc 43 21 bd 89 12 92 bc dd cd 87 3d 52 c1 e3 bd
       -0.039371237 -0.017831104 0.06631062 -0.11120857
0001d0 a5 32 a4 bd 21 38 0c 3c 9b d4 09 be ae 2b 06 be
       -0.08017472 0.008558304 -0.13460009 -0.131026
0001e0 3e 38 62 3e ed cc 3e 3e 5c 86 1e 3e cb 0a 87 bd
       0.22091767 0.1863286 0.15480942 -0.065938555
0001f0 b8 b2 04 be 05 e6 19 bd f2 49 ff 3d aa a1 f8 3c
       -0.12958801 -0.03757288 0.12465276 0.030350525

encoder_lstm.bias_hh_l0 f4 [128]
000000 6a 2d 6a bd e4 ca 77 3e 3e 70 0f 3e 78 73 07 3d
       -0.057172216 0.2419849 0.14007661 0.033069104
000010 c0 42 02 3e 30 1c 65 3e d7 90 24 3d ca 0d 96 bd
       0.12720776 0.22374034 0.040177193 -0.07326849
000020 57 53 db 3c 40 38 1a bd 43 cc 40 bc e7 85 02 be
       0.026773138 -0.0376513 -0.01176745 -0.12746392
000030 4a 56 81 3d a0 a0 ac 3d 81 23 a0 3d 86 96 85 3d
       0.063152865 0.08429074 0.07819272 0.06522851
000040 ba 08 c3 3c 65 b0 00 3e 77 3e 59 3c 2e f6 b6 bd
       0.023807872 0.12567289 0.013259522 -0.08933674
000050 d6 bb 21 be fe 55 59 bd 33 b2 9b 3d e0 c6 12 3e
       -0.1579431 -0.053060524 0.07602348 0.14333677
000060 f4 e6 81 3d ea 94 d6 bd 86 7c 0c be e8 03 bf 3b
       0.06342879 -0.10477622 -0.13719377 0.005829323
000070 00 85 7c 3d d6 e2 a7 3d e0 99 a8 bd 28 2f 6a bc
       0.061650276 0.081975624 -0.08232474 -0.0142934695
000080 c7 d6 28 3d 26 8b ff bd 84 44 9d 3d 03 7f 80 3d
       0.041220453 -0.12477712 0.07679084 0.062742256
000090 b8 7c 34 3d db 01 10 3e dd 7c ae 3d 92 41 85 3a
       0.044064254 0.14063208 0.085199095 0.0010166636
0000a0 86 46 53 bd a8 d1 82 3d a3 2f 35 3d e7 83 05 3d
       -0.05158093 0.06387645 0.044234883 0.032596495
0000b0 5d 4b b1 bd 4e c6 4f be 8e 20 3c 3c 4e 75 3f 3d
       -0.086569525 -0.20290491 0.011482371 0.04674273
0000c0 68 c9 bc 3d a5 32 20 be 03 5c 16 3e 60 c8 28 be
       0.09218103 -0.1564432 0.14683537 -0.16482687
0000d0 68 c4 18 be ea 55 c8 bc b0 46 68 bd 74 a3 f3 bc
       -0.14918673 -0.02445503 -0.056708038 -0.029741026
0000e0 08 60 ed bc d4 f5 2e 3e c6 c3 9f 3d 68 3b 95 bd
       -0.028976455 0.17085963 0.07801013 -0.072867215
0000f0 70 c9 8a 3d 5e fc d3 bd c3 30 97 bd 74 0d 73 3d
       0.067767024 -0.103508696 -0.073823474 0.059339
000100 e4 e2 03 be fe 84 6c 3d 30 88 b0 3d 3e 9a 5f bd
       -0.1287952 0.05774402 0.08619726 -0.054590456
000110 96 85 9f 3d 5a e3 c2 bc 43 7d 04 be 43 72 cf 3d
       0.07789151 -0.02379005 -0.12938409 0.101292156
000120 3f 78 47 3e 60 e7 fc bd 5e 96 34 3d bf a0 11 3e
       0.19479464 -0.12348819 0.044088714 0.14221476
000130 72 b7 bf 3d 8a de 20 be 16 67 dc 3d 10 53 5b 3c
       0.09361161 -0.15709892 0.107618496 0.013386503
000140 b7 de 0a be d4 b0 17 3e 3e cf 0b 3e 0e 4c 17 3e
       -0.13561521 0.14813548 0.13653275 0.14775106
000150 c2 40 5b bd 46 bf 18 3d 6b ea 0a be 36 5b cc 3c
       -0.053528555 0.037291788 -0.13565986 0.024945837
000160 81 ce 27 be e6 bb db bd ae 07 bf bd 7f ba f5 3b
       -0.16387369 -0.10729198 -0.09327637 0.0074990387
000170 d4 42 aa bc 0f 09 02 3e cd f1 26 3d 90 b3 ce bd
       -0.02078382 0.12698768 0.040757943 -0.100928426
000180 10 de 81 bd 4e 8d 09 bd dc d8 8a 3d bf 00 0a be
       -0.06341183 -0.033582024 0.06779644 -0.13476847
000190 b7 ea 64 bd 3d 2f d2 bd b1 95 da bd e2 f5 1f 3c
       -0.055887904 -0.10262916 -0.106730826 0.009763213
0001a0 b3 d5 67 3e d8 b5 17 3d af 6a d2 bd fa 35 01 3e
       0.22640114 0.037038654 -0.102742545 0.12618247
0001b0 f4 e2 a1 bd 93 58 c6 3d 27 a1 e7 3d ff 92 d1 3c
       -0.07904616 0.09684863 0.11310034 0.025582789
0001c0 0f 9b b9 bb d7 a5 c7 bc d9 88 50 3e bf 8a d8 bd
       -0.0056642364 -0.02437107 0.20364703 -0.10573339
0001d0 9b 11 0f be 74 c3 19 3e 9c 98 05 3e 1c b7 dc bd
       -0.1397156 0.15015966 0.13046497 -0.10777113
0001e0 3c 4b 5b 3d a4 fe 22 3e 22 be ec bc fe c0 3c bd
       0.053538546 0.1591745 -0.028899256 -0.04608249
0001f0 0c 6b 58 bb bd ba 15 3e 2f c3 9a ba 2c 6f 0c bd
       -0.003302279 0.14622016 -0.0011807437 -0.03428571

dest_lstm_obs.weight_ih_l0 f4 [128, 2]
000000 9e 77 e4 3c 6e 58 c9 bd 7b 92 13 bd 1b 76 9b bc
       0.02788907 -0.0983132 -0.036028367 -0.018977216
000010 85 f8 af bc bc ba 44 bd 0f af b5 bc fa ed 61 3d
       -0.021480808 -0.048029646 -0.022178201 0.055158593
000020 96 88 47 3e 84 aa 77 3c bd a8 ce bd 46 4b 0a 3d
       0.19485697 0.015116338 -0.10090778 0.033763193
000030 7b 56 e0 3d be b0 4a 3d dc 7d a4 3d 20 0c 00 bd
       0.10953995 0.04948496 0.08031818 -0.031261563
000040 2e 8d 8b bb bb 4a c5 bc c9 18 b7 bc e4 14 7d 3c
       -0.0042587733 -0.024083486 -0.022350686 0.015446875
000050 a6 78 35 be 86 4d d1 3d 8c 5b b6 bd 21 f7 15 be
       -0.17721805 0.102198645 -0.0890418 -0.14645053
000060 19 bc 05 be f6 4f ff 3d 32 6a e0 bd 2a 90 fc bd
       -0.13060035 0.12466423 -0.10957755 -0.123321846
000070 a4 78 67 bd 69 25 0b be bc 49 67 3d 53 08 e6 3d
       -0.056511536 -0.1358849 0.056466803 0.112320565
000080 dc 0b 5e 3d b2 16 a7 3a 08 02 74 bd 01 ea a7 3d
       0.05421053 0.0012747853 -0.05957225 0.081989296
000090 72 b2 dc 3c d8 40 be 3d bb 98 a1 3c 5e a3 0c bd
       0.026940558 0.09289712 0.019726148 -0.034335487
0000a0 ab 44 9a 3d 7b b4 bd bd a7 2c eb bc e9 b9 12 3c
       0.075326286 -0.092629395 -0.028707815 0.008955457
0000b0 be f3 b2 bd 50 3a d4 3d d7 da 09 be 21 cd 40 bd
       -0.087378964 0.10362685 -0.13462387 -0.047070626
0000c0 43 5a 20 bc 80 9c 9b 3c ee 7b bf bd 62 0e 03 3e
       -0.009787145 0.018995523 -0.093498096 0.12798455
0000d0 2b 37 38 3d b1 e6 91 bd c4 35 0f be 99 d7 e9 3d
       0.044974487 -0.07124079 -0.13985354 0.11418075
0000e0 63 49 99 3d 64 c2 5b 3d 61 2b 00 3e 57 78 9e bd
       0.074847005 0.053652182 0.12516548 -0.07737797
0000f0 a4 63 e4 3d 31 79 f0 bd 5c 92 09 3d 70 3f a0 3d
       0.111518174 -0.117418654 0.033586845 0.078246
000100 f9 d4 d1 bd 46 9e 63 bd 5b 1a 59 3d 3a c7 44 bd
       -0.102456994 -0.055570863 0.05300365 -0.04804156
000110 1a ba 7e bd ad d0 27 bd 99 c1 34 be b1 2b ef bc
       -0.0621892 -0.040970493 -0.17651977 -0.029195638
000120 a5 4d e1 bd 25 c3 34 3e 30 b3 fe bb e2 3e e9 bd
       -0.11001138 0.17652567 -0.0077728257 -0.11388947
000130 70 20 00 be c0 8c b7 3c 43 a6 a3 bc dc 9c 9e 3b
       -0.12512374 0.022405982 -0.01997674 0.0048404764
000140 bc db e4 3c ce 55 9c 3d 20 bd cc 3d 1f 2e 4a bd
       0.027936809 0.076335534 0.0999701 -0.04936039
000150 52 46 b1 bd a5 a8 9c bd d8 7f b9 bd 46 c7 20 3e
       -0.08655991 -0.07649354 -0.090575874 0.15701017
000160 fc 1f 82 3d 56 b8 6c 3d e3 c1 26 3e 18 c4 34 bd
       0.06353757 0.057792984 0.162849 -0.044132322
000170 4e 80 99 bd a6 4a 22 3e 44 07 85 bd fc 3f 2f 3d
       -0.07495175 0.15848789 -0.064955264 0.04278563
000180 ac 3c be bb e1 a2 6a be b2 79 0f bd 13 94 2c be
       -0.0058055725 -0.22913696 -0.035028167 -0.16853361
000190 d8 fb 10 bd 81 a8 10 3e e5 63 3e bd a5 71 cc 3d
       -0.035396427 0.14126779 -0.046481986 0.099826135
0001a0 fa dd a4 bd 2a 8c b5 bc ba 03 42 3d ac 2e 79 3d
       -0.08050151 -0.022161562 0.047366835 0.060835525
0001b0 0e 1f 29 be 24 1c 22 be 2c cd 54 3d e9 77 87 bd
       -0.16515753 -0.15831047 0.05195348 -0.06614668
0001c0 3d 31 b6 bd b4 d6 e9 3c 0a da f2 3d 23 78 91 3d
       -0.0889611 0.028544761 0.11857994 0.071029924
0001d0 71 32 9b bc 24 d3 30 bd 29 08 26 be dc db 6b 3d
       -0.01894495 -0.04317011 -0.1621405 0.05758272
0001e0 60 20 85 bd 48 68 1a bd ba fa 05 be e2 cb 1c be
       -0.06500316 -0.037697107 -0.13083926 -0.1531215
0001f0 57 b7 c8 3c 86 da b8 bd 0f 48 8c bc 03 f9 48 bd
       0.024501486 -0.09026055 -0.017124204 -0.0490656
000200 41 47 f9 3d b0 81 08 3e b7 66 43 3d fb 24 8c 3d
       0.12171794 0.13330722 0.04770538 0.06842991
000210 b2 1a bc bd 4e 14 78 bd 07 b6 91 bd 16 45 09 3e
       -0.09184779 -0.06056624 -0.07114797 0.1340526
000220 72 5a 0a be 8a bb 71 bd d9 20 40 3e da a8 a3 3d
       -0.13511065 -0.05901674 0.1876253 0.0799119
000230 ca a7 13 be cb a9 0f be 5f 3b 1b bc ec b3 66 3d
       -0.14419475 -0.14029615 -0.009474604 0.05632393
000240 df 3b 78 3d ca c7 cf 3b 9b 1a 3d 3e 15 d6 0f be
       0.060603973 0.0063409554 0.1846718 -0.1404651
000250 32 cf 7a 3d fe b4 3f be de 21 5a 3d 17 13 e9 3d
       0.061232753 -0.18721387 0.053254955 0.11380594
000260 ba 1b 3a 3c 86 55 11 bd 1c fe 26 bc 68 96 1a be
       0.01135915 -0.035481952 -0.01019242 -0.15096438
000270 1f 94 4f bd e6 d7 9d 3b e9 3a 6f 3d fc 60 0e 3d
       -0.05067837 0.004816997 0.05840579 0.03476046
000280 a8 a5 32 3e 10 fe b2 bd 3c 42 c9 bd bc f7 b8 3d
       0.17446005 -0.08739865 -0.09827086 0.090316266
000290 16 12 5c bd 32 86 0e be 19 a0 93 3d 98 a2 07 3e
       -0.053728186 -0.13918379 0.072082706 0.13245618
0002a0 72 6a 8a 3d b6 ba 9f bd 48 72 81 3d 59 fb b0 3c
       0.06758584 -0.07799284 0.063206255 0.021604227
0002b0 66 e1 bc bd d0 5f 13 bd 08 3b ec 3d 40 b1 a6 3d
       -0.09222679 -0.035980046 0.11534697 0.081392765
0002c0 ec e4 70 bd 95 7b 58 3d 04 7a 5c 3c 3a 2a d4 3c
       -0.058812067 0.052852232 0.013456825 0.025899041
0002d0 16 a4 e7 3d 7c a6 c3 3d e2 3f cd 3d 56 5a ee 3d
       0.11310594 0.09553239 0.1002195 0.11638324
0002e0 36 6d 0d 3c 4b 25 4f 3b e9 fa c9 bd f4 a5 95 3d
       0.008631995 0.0031607922 -0.098623104 0.07307044
0002f0 93 f9 80 bd d8 04 33 bd d4 42 a5 3d 44 74 c4 3d
       -0.062976025 -0.04370579 0.08069387 0.095924884
000300 c5 ee f6 3d fc 7b c7 bd 10 62 da 3d e0 cb 0a be
       0.120572604 -0.09740445 0.10663235 -0.13554335
000310 ae e4 87 3c 99 b5 c3 bd 08 94 9b 3d a8 3f 04 be
       0.016588535 -0.095561214 0.07596594 -0.12914908
000320 47 24 1e 3e 44 1a 09 3e 34 bc ad 3c fa 3e 35 be
       0.15443526 0.13388926 0.021207906 -0.17699805
000330 7d 5f a4 3d 7b df 98 3d bf 6e 31 be c3 ce d2 bd
       0.080260254 0.074645005 -0.17327403 -0.10293343
000340 2e ff 25 be 21 f4 99 3d de 1b ea 3d 70 0b 22 be
       -0.16210625 0.07517267 0.114310965 -0.15824676
000350 cb a8 b4 3d 52 02 0b 3e 94 d9 b8 bb c6 f3 2b be
       0.08821257 0.13575104 -0.0056411717 -0.16792211
000360 b8 1f c7 bd 5b 36 81 bd 6c 66 10 be 65 dd c5 3d
       -0.09722847 -0.063091956 -0.14101571 0.09661368
000370 db 0a 29 bd 0e 6c e3 3d b8 5b 1d be c3 5e c0 bd
       -0.04127012 0.11104594 -0.15367019 -0.09393074
000380 dd bb 21 3b cb f7 b3 3d 0d b4 0e be 66 95 cd 3d
       0.0024678626 0.08787497 -0.13935871 0.10038261
000390 c8 84 70 bb 47 6e 14 bd 05 b9 1e be d9 92 72 3b
       -0.0036700238 -0.03623798 -0.15500267 0.0037013798
0003a0 96 2f fd 3d b0 ff 2c be 45 68 44 bd 34 1b c4 bd
       0.12362592 -0.16894412 -0.047951 -0.09575501
0003b0 22 01 e5 3d 3a 24 dd bc df 9f 08 bd 14 63 13 3e
       0.11181857 -0.026994813 -0.03335559 0.14393264
0003c0 ed e2 a7 bd bb 98 02 3e e6 a7 32 bd e2 c1 ac bd
       -0.081975795 0.12753575 -0.04361715 -0.08435418
0003d0 d4 43 bf 3d 5a 15 00 be 21 6c 8b bd 3e 9f 43 3c
       0.09339109 -0.12508145 -0.06807733 0.011939822
0003e0 f4 d7 14 be 8e e6 01 be 0e 45 06 be 9c 90 5e 3b
       -0.14535505 -0.12685606 -0.1311228 0.0033960706
0003f0 93 85 16 3d 00 65 ba bc 88 d3 c9 bd 3e 63 05 3e
       0.03674848 -0.022753239 -0.098547995 0.13026139

dest_lstm_obs.weight_hh_l0 f4 [128, 32]
000000 14 b6 2d bd 49 ef 2b be f8 e2 16 3e 28 93 a2 3d
       -0.04240997 -0.16790499 0.14735019 0.07938224
000010 be a6 62 bd 96 d1 23 3d e8 de f7 3d 3b 6a 20 bd
       -0.0553348 0.0399948 0.12103063 -0.03916381
000020 7f 89 65 bd ec 4a 94 bd ca 01 18 3e 40 c8 b9 bd
       -0.05603933 -0.07240853 0.14844432 -0.09071398
000030 a1 b7 66 3c e2 e3 16 3e ee 1f 86 bd 23 c1 fa bd
       0.0140818665 0.14735368 -0.06549059 -0.12243869
000040 2e 27 95 bd f9 c3 38 be 95 b7 af bc 8c 97 61 3d
       -0.072828636 -0.18043508 -0.021449843 0.055076167
000050 64 a8 5e be c3 eb c9 bd c7 9e e8 3d 28 90 96 bc
       -0.21743923 -0.09859421 0.113584094 -0.018379286
000060 84 4f 17 3e 4a 75 0e 3e da c3 05 be ae 8b dd bc
       0.14776427 0.1391193 -0.13062993 -0.027044144
000070 c9 50 fe 3d 17 50 9c 3d 29 01 99 3d 3d e7 39 3e
       0.12417752 0.076324634 0.074709244 0.18154617
000080 42 c5 48 3d ae 28 12 be 9c cc 17 3d 28 f1 14 be
       0.049016245 -0.1427333 0.037060365 -0.14545119
000090 27 46 69 3d 7e aa 12 be 0e 1a a0 bd 45 6e ca 3d
       0.056951668 -0.1432285 -0.078174695 0.098843135
0000a0 dc e2 1c 3e 4b 35 2d 3d 59 03 f0 3c 34 ab e5 3d
       0.15320915 0.042287152 0.029298471 0.11214295
0000b0 2d a3 4c bc bb d7 0d 3d ca 1b 0e 3e 85 62 1c be
       -0.012490076 0.034629565 0.13877788 -0.15271957
0000c0 3c 28 bf 3d cd 18 30 3e ea ca cf bc 57 28 8e bd
       0.09333846 0.17196961 -0.025365312 -0.06941288
0000d0 d0 0d a2 3d 38 5f e0 bd 6c 29 97 bd 30 f6 f0 bd
       0.07912791 -0.109556615 -0.073809475 -0.117657065
0000e0 9c af 02 3e 06 ea 07 be 29 ba 23 3e 6a 64 c5 3d
       0.12762302 -0.13272867 0.15988983 0.09638293
0000f0 30 07 3e bd f3 2d dd 3d e7 7b 10 3e 29 3f fe 3d
       -0.046393573 0.1079978 0.14109765 0.124143906
000100 ea ad c8 3d 0e 67 9f 3b 7a 2a ef 3d cd aa 81 3d
       0.097987965 0.00486458 0.11678024 0.06331406
000110 92 63 f3 bd 54 77 a5 3d ec 68 85 bd 18 fc d7 3d
       -0.11884226 0.08079401 -0.06514153 0.1054613
000120 09 dc e4 3c 18 d0 ad 3d ba 80 3c 3e 39 3b ce 3d
       0.027936952 0.08486956 0.1840848 0.100698896
000130 b5 be 36 3e e2 52 f2 3d 49 d0 08 3e bc 09 0a 3c
       0.17846186 0.11832215 0.13360704 0.008425172
000140 a4 4b e5 bd 09 85 5e 3d 77 49 54 3d f4 c8 f1 3d
       -0.11196068 0.05432609 0.051827874 0.11805907
000150 de c5 22 3e 44 ab 47 be bc 51 f2 bd 7b 81 19 be
       0.15895793 -0.19498926 -0.11831996 -0.14990799
000160 0e 6c f9 bd 88 e6 27 bc 30 8e 19 3e d2 b8 5d 3d
       -0.12178813 -0.010247834 0.14995646 0.054131337
000170 52 db 0c be 73 6a cd bd e5 9d 0e 3e df 52 f9 3d
       -0.13755539 -0.10030069 0.1392742 0.121740095
000180 f3 ad 92 3d 23 bc 0e 3d 21 7f ed bd 08 59 0d bb
       0.071620844 0.03484739 -0.115965135 -0.002156796
000190 08 b3 23 3e 7c d4 e4 3d d8 e3 05 be 7f 4f ec 3d
       0.15986264 0.11173341 -0.13075197 0.115386
0001a0 ab c0 c0 bd c5 ff 34 bd dd 76 bc bc 68 53 ad 3c
       -0.094117485 -0.044189233 -0.023005897 0.021157935
0001b0 49 91 99 bd f6 5c 65 bc c7 61 72 3d a5 91 cd bd
       -0.07498414 -0.013999214 0.05917528 -0.10037545
0001c0 03 98 00 be c5 6c 8b 3d 55 3f 9f bd 11 ae 9a 3c
       -0.12557988 0.068078555 -0.077757515 0.01888183
0001d0 32 15 fe bd b8 0e 0c 3e 12 a7 55 bb 57 11 f5 bd
       -0.124063864 0.1367749 -0.0032600802 -0.11966198
0001e0 aa fe 96 3d 24 75 35 bd c3 f1 2b be 59 6c 1b 3e
       0.07372792 -0.044301167 -0.16791444 0.1517805
0001f0 5c 30 00 3b 84 30 a8 3d 98 31 1b 3e 33 02 13 be
       0.0019560074 0.082123786 0.15155637 -0.14356308
000200 e6 75 f5 bd 81 73 19 3e 53 13 4a 3d b5 c0 20 be
       -0.11985378 0.14985467 0.049334835 -0.15698512
000210 a9 22 13 be 12 d3 ea 3d 9e bd c6 bd c4 7a 85 3c
       -0.1436869 0.1146604 -0.09704135 0.01629389
000220 4d a3 1d 3e 7e 50 35 bd e9 1f 97 bd b2 90 20 3e
       0.15394326 -0.044266216 -0.07379133 0.15680197
000230 a9 82 6f bd f8 98 1e be 60 50 53 be 9b c5 dd 3d
       -0.058474217 -0.1548804 -0.2063613 0.10828706
000240 a2 36 b7 bd 9c 1a 3f 3d 67 a3 f7 bd 8e d2 de 3b
       -0.08945967 0.046656236 -0.120917134 0.0068000024
000250 bf e2 05 3e 1a 7e 82 bc 39 a1 52 be 8e 37 80 3d
       0.13074778 -0.01592927 -0.20569314 0.06260596
000260 8d 9d 0f 3d b2 95 28 3d f4 5d 46 bd b8 c3 01 3e
       0.03506236 0.041158386 -0.048429444 0.12672317
000270 f8 dc 08 bd 52 79 fb bc ef f9 c3 bd be df a8 bd
       -0.033413857 -0.030697498 -0.095691554 -0.082458004
000280 9b 8e b8 3b b5 42 1b be 71 a9 4e be 56 89 ac bd
       0.0056322343 -0.15162165 -0.20181824 -0.08424632
000290 be 06 05 3c 24 f5 e7 bd 5f eb f1 bd eb 73 5f 3d
       0.008119283 -0.11326054 -0.118124716 0.054553907
0002a0 10 48 ab bd 85 4c 99 bd a3 04 bb 3d d6 6f 23 bd
       -0.08363354 -0.07485298 0.09131744 -0.039901577
0002b0 c7 39 bf bd 20 40 bf bc 89 a1 75 bc 1a 1f 27 bd
       -0.09337192 -0.023346007 -0.014992126 -0.040801145
0002c0 f5 7f b1 bd de 7f f9 bc 82 2b 16 3e a9 dc 2e 3e
       -0.08666984 -0.03045648 0.14665034 0.17076363
0002d0 33 72 01 3d d0 6f 82 3c 4c 65 de bd 25 54 3e 3e
       0.03160305 0.015922457 -0.108591646 0.18586786
0002e0 a2 10 4b be f5 4f 05 3d 89 3b 13 be d1 99 d3 3d
       -0.19830564 0.032546956 -0.1437818 0.103320725
0002f0 57 14 75 bd cd 2e 0e 3e 98 b1 82 bd be 8f e2 bd
       -0.05983385 0.1388504 -0.063815296 -0.11062573
000300 da a5 10 3d b2 d5 5d 3d c8 fb 18 be 1c c4 35 be
       0.03531442 0.054158874 -0.14939797 -0.17750591
000310 51 7d 73 3d 57 2e e2 3d ed 57 e6 3d 5e f0 ff 3d
       0.059445683 0.11043995 0.11247239 0.12497018
000320 82 95 00 3e fa 7d ee bd 92 b0 3d 3d e9 05 d0 bc
       0.12557033 -0.11645122 0.04631097 -0.025393443
000330 04 ef 11 be 80 06 33 be ee d0 16 be 88 87 a0 bc
       -0.14251333 -0.17482948 -0.14728138 -0.019595876
000340 ae d2 2f be 9b 56 9b bd c4 be a4 3c 3f cb ab bd
       -0.17170212 -0.07584878 0.020110495 -0.083883755
000350 97 ed 3c 3e a9 54 36 be 41 c5 33 3e 3a a9 c5 3d
       0.18450008 -0.17805733 0.17555715 0.09651418
000360 f4 2c 48 bd d2 e4 70 bc db 3e 2d be 09 9b e1 3d
       -0.048870996 -0.0147029925 -0.16918509 0.11015899
000370 df 46 0f 3e 74 07 3b be c8 cf ee 3d 84 64 89 3d
       0.13991879 -0.18264562 0.11660725 0.06708625
000380 1e 04 b4 bc 6d 70 17 be e2 f0 40 be 48 ea b7 bc
       -0.02197462 -0.14788981 -0.1884189 -0.022450581
000390 fa 87 2d 3a 8a 94 02 be 42 9d 6b 3d bc 9c c8 3d
       0.00066196884 -0.12751976 0.05752302 0.0979552
0003a0 98 80 b7 3d 45 dc dc bc 56 06 7a bd 54 ff af 3d
       0.08960074 -0.026960501 -0.0610412 0.08593622
0003b0 3d 1e 16 3d b4 68 4c be 85 8e 8d bc 1f 14 20 3e
       0.03664993 -0.19961816 -0.017279873 0.15632676
0003c0 0e f4 f1 bd 17 65 16 3d 69 bf 99 bc 74 37 53 bd
       -0.11814128 0.0367175 -0.01876803 -0.051566556
0003d0 ca 3a f9 bd 85 ab cb bc d5 22 d3 3d 58 fa 18 bd
       -0.12169416 -0.02486206 0.10309378 -0.03734812
0003e0 56 3c 19 bc 3a e2 8b 3b 88 13 e2 3d e2 b9 ec 3d
       -0.009352764 0.0042689117 0.110388815 0.11558892
0003f0 d7 4c 85 bd bf 49 7c bc 51 18 71 3c 83 d1 6b 3d
       -0.06508797 -0.015398442 0.01471527 0.057572853

dest_lstm_obs.bias_ih_l0 f4 [128]
000000 da b1 3a 3e 2c 1d bc bd c7 aa 0a bd db 2c ae bc
       0.18231907 -0.091852516 -0.033854272 -0.021261623
000010 74 3b e2 3b 10 a2 d6 bc dc 87 ff bd f2 a1 75 bd
       0.00690406 -0.026200324 -0.12477085 -0.059968896
000020 aa a2 d9 bd d3 f3 9e 3d 40 59 95 3d 23 22 a9 bc
       -0.10626729 0.077613495 0.07292414 -0.02064616
000030 79 b1 99 bd 8d bf d3 bd 8d 9e ee bb 64 87 23 bd
       -0.07504553 -0.1033927 -0.0072820843 -0.03992404
000040 96 9e 51 be de 9c 35 be 30 97 1a 3e bd d1 88 3d
       -0.20470652 -0.17735621 0.15096736 0.066806294
000050 48 df 04 3e c2 44 2a 3b 04 ee 11 3e 40 a2 6b 3c
       0.129758 0.0025980924 0.14250952 0.014381945
000060 9d 33 98 bd ec 40 93 bd 9a a5 ce bd 08 c5 08 be
       -0.074317195 -0.07190117 -0.1009018 -0.13356411
000070 cc f3 36 3e 4c f1 89 3d 69 c1 06 3c c2 7e aa bd
       0.17866439 0.06735477 0.0082248235 -0.083249584
000080 f5 29 95 3d 17 97 d0 3c ad 1c 4e bd 7d d6 18 be
       0.07283393 0.02546267 -0.050320316 -0.14925571
000090 a2 e1 35 3e dc 35 b7 3d 0a c5 a4 bc f8 6a 17 be
       0.17761853 0.0894582 -0.020113487 -0.14786899
0000a0 5b 44 ee 3d 44 8e 31 3e 2c f9 4a be 32 49 d2 bc
       0.116341315 0.17339426 -0.19821614 -0.025669668
0000b0 60 e9 39 3e 76 76 0d 3b 95 88 8f bd 07 13 07 bd
       0.18155432 0.00215855 -0.07008473 -0.03297713
0000c0 1b 7c 50 be db b5 d0 bd 6e 5e f6 bd 48 29 b1 3d
       -0.20359842 -0.10190936 -0.1202973 0.08650452
0000d0 bb b6 05 be fe c2 aa 3d 08 b0 1b 3e 88 0e 83 bc
       -0.13057987 0.08337973 0.1520387 -0.01599814
0000e0 96 e8 5e bd db ab 04 3d 78 89 01 3d 9b cb 0e 3e
       -0.05442103 0.032390457 0.03162524 0.13944857
0000f0 63 84 5f 3e 1a 13 d1 3d 38 d1 c9 3d 46 16 d0 bd
       0.21827845 0.102087215 0.098543584 -0.10160498
000100 e8 75 ba 3d f7 88 d1 3d b4 7e c7 3d 51 39 f4 bd
       0.0910452 0.10231202 0.097409636 -0.11924995
000110 23 11 d1 3c a0 e6 ef 3d 66 9d 93 bd 05 e0 da bc
       0.025520867 0.1171391 -0.07207756 -0.026718149
000120 c0 d1 af 3d 32 d5 33 3e c5 f4 1e 3d eb e4 8e bd
       0.085849285 0.17561796 0.03880765 -0.069772564
000130 fa a2 22 be 8a 65 9f 3c 6a df bf bd 08 62 41 3e
       -0.15882483 0.019457597 -0.09368785 0.18885052
000140 36 32 5a bb 4c 87 29 bc 04 4b 10 be 30 29 2b be
       -0.0033294088 -0.010347199 -0.14091116 -0.1671493
000150 b9 68 c5 3d 21 2e a4 bc 3a 00 89 3d e7 5b b0 bd
       0.09639115 -0.020041527 0.06689496 -0.08611279
000160 f1 36 5d bd c2 21 c6 bd 3e 42 0a be 54 6c 98 3b
       -0.054007474 -0.096744075 -0.13501832 0.0046515856
000170 c4 7f 76 be 49 36 0d be 1f a3 1d be 8e f1 e6 3d
       -0.24072176 -0.1379024 -0.15394257 0.11276542
000180 0a 95 e9 bd bd a4 a6 bc 46 f8 07 3e 26 ea b6 b9
       -0.1140538 -0.020342225 0.13278303 -0.000348882
000190 e6 c7 2f bd 37 99 fc 3d 1c 13 4d 3d ae 16 fe 3d
       -0.042915247 0.12333911 0.050067052 0.124066696
0001a0 b6 3e 9b 3b 29 57 0f be a0 5d d6 b9 0d dc 2c bd
       0.0047377003 -0.13998093 -0.00040887017 -0.042202044
0001b0 67 dc bf 3d e4 66 68 bc 75 39 1d bd b4 39 ef bd
       0.0936821 -0.014184687 -0.038384873 -0.11680928
0001c0 32 c0 d3 3d d7 1a 99 bd 4a bd 23 be e1 b0 11 be
       0.10339393 -0.074758224 -0.15990177 -0.1422763
0001d0 3a 88 40 be 71 e0 12 3e 24 1c 6f bd 9c 23 12 be
       -0.18801966 0.1434343 -0.058376446 -0.14271396
0001e0 81 ee 90 bb da cd 3d bb ae 09 1a 3e be 97 23 be
       -0.004422963 -0.0028961808 0.15042755 -0.15975854
0001f0 13 15 85 3d 23 4c 09 3d 78 9f ee bd 9d e0 e3 bd
       0.0649816 0.033519875 -0.1165151 -0.11126826

dest_lstm_obs.bias_hh_l0 f4 [128]
000000 a4 f7 c1 3d 94 6e b5 bd 24 b9 1d be 43 3a 03 be
       0.09471062 -0.08858982 -0.15402657 -0.12815194
000010 d0 5e 68 bd 38 43 21 bd 27 71 93 bb 04 9b d2 3c
       -0.056731045 -0.039370745 -0.004499573 0.025708683
000020 9f 27 8f bb 7a 19 94 3d 47 b9 bd 3d 1a 53 da bd
       -0.004368737 0.07231422 0.092638545 -0.106603816
000030 29 31 05 be 87 6a 20 be 5c 11 c0 3d 18 1c 04 be
       -0.13007034 -0.15665637 0.09378311 -0.12901342
000040 18 81 f7 bd 2c 96 f2 3d 47 22 99 3c f1 2a fd 3d
       -0.120851696 0.11845049 0.018693103 0.12361706
000050 27 bb 00 be b8 68 55 be ed c7 f0 bd f1 eb ca 3d
       -0.12571393 -0.20840728 -0.11756883 0.099082835
000060 fa 7f da bd 85 2d 8c 3d 21 ef cc bd b5 61 7f 3c
       -0.10668941 0.0684462 -0.10006548 0.01558726
000070 b6 0a f5 bc ec f6 8d 3d d9 4d f3 3d 08 ce bf bd
       -0.029912334 0.06931862 0.11880083 -0.09365469
000080 7c 70 8e 3c 6f ab 09 be 1f 0e 37 bd 4c dc db bd
       0.017387621 -0.13444303 -0.0446912 -0.10735378
000090 5a 7a 36 3d b5 76 49 bd 11 67 a6 3d 7d 07 ea bd
       0.044550277 -0.049185473 0.08125127 -0.114272095
0000a0 92 77 68 be 2e e6 0b be 12 25 2d be 9a fc 60 3d
       -0.22701862 -0.13662025 -0.16908672 0.0549284
0000b0 f4 96 dd 3a b7 67 30 be cb 17 50 3d 84 75 da 3c
       0.001690595 -0.17227064 0.05080394 0.026667364
0000c0 d0 dc 7a 3d 0e cd 0b be e5 da 9f bd f0 ff 9c bc
       0.06124574 -0.13652441 -0.07805423 -0.01916501
0000d0 dd 55 40 be e6 49 97 3c db d7 00 be ec 5e 04 bc
       -0.18782754 0.018467855 -0.12582342 -0.008079272
0000e0 fa 76 43 3e 1d c3 ff 3d 57 17 3e 3d 03 61 c9 bd
       0.19088355 0.12488387 0.046408977 -0.09832957
0000f0 d4 47 1f bd 07 d2 de bd 18 f6 1d be 16 1a 1e be
       -0.03888686 -0.10879903 -0.15425909 -0.15439638
000100 32 00 9a 3d fd 7f 2a 3e 09 66 a2 3c 7a 75 31 bd
       0.075195685 0.16650386 0.019824045 -0.043324925
000110 02 d5 83 be de 1d 4e 3d 18 d2 02 3e 52 e2 bf 3d
       -0.2574845 0.050321452 0.12775457 0.09369339
000120 cf b6 9f 3c 56 42 dd bd c3 af 22 bd 5f a4 c2 3c
       0.01949635 -0.10803668 -0.0397184 0.023760019
000130 03 72 d1 3c aa b5 03 be 02 13 9e bd a3 c6 3d 3e
       0.02556706 -0.12862268 -0.07718469 0.18532805
000140 73 5c f1 3d ce cc 40 bd cf 57 e6 bc 4a 06 30 be
       0.117852114 -0.047070317 -0.028118042 -0.17189899
000150 e2 03 88 bd d6 bf fc 3d 6a 3e e6 bc 66 5a 21 3e
       -0.066413656 0.12341277 -0.028105933 0.1575714
000160 0a c7 4c 3e 06 17 8b 3d d3 fa b9 3d b5 18 fb 3d
       0.19997802 0.06791501 0.09081044 0.12260572
000170 cc 5c 9c bd 76 2e 8f bc 9b 89 00 3e 18 cb c4 3d
       -0.07634887 -0.017478209 0.12552492 0.096090496
000180 09 20 0c bd 34 94 b2 bd 05 13 c9 bd ee cb 02 be
       -0.03421024 -0.08719674 -0.09818081 -0.12773106
000190 ba c8 3c 3d 6e 32 21 be 00 70 18 bd b3 44 cf 3d
       0.046089865 -0.15741894 -0.037216187 0.10120525
0001a0 69 21 9b ba 11 0f fa 3d bf 23 f8 bd 0c 71 b4 bc
       -0.0011835519 0.12209905 -0.12116193 -0.022026561
0001b0 9f 15 80 3d 15 b7 a3 3d a6 57 36 be 22 18 0e bd
       0.06254124 0.079939045 -0.17806873 -0.034690984
0001c0 61 14 b4 3d b1 c4 f8 bd b6 42 e6 3c 06 3a de 3d
       0.087929495 -0.12146891 0.028107982 0.10850911
0001d0 cf 8d 41 3d 80 26 3f be 77 f2 37 be 41 5a 36 be
       0.04725438 -0.1866703 -0.17963587 -0.17807867
0001e0 fb 55 00 be eb 50 28 bd a6 ea cb 3d a7 66 d0 bd
       -0.12532799 -0.041092794 0.09956865 -0.101758294
0001f0 40 f4 39 3d af 6f 1a 3e c0 dc fc bb d0 83 e3 3d
       0.04539895 0.15081666 -0.007716745 0.111091256
