src/do_tp_federated_federated_final.pt (torch, 157013 bytes, 26 tensors)

linear_enc.weight f4 [64, 2]
0	0x3f2229e5	0.63345176
1	0xbed7aa5b	-0.42122158
2	0x3eab1d6f	0.33420894
3	0x3f26fbfc	0.6522825
4	0xbf2f69d4	-0.68520856
5	0x3df0e5bb	0.117625676
6	0x3ebdef0c	0.3709644
7	0x3f14b3c3	0.58086795
8	0x3e205bf5	0.15660079
9	0x3f2f6e04	0.68527246
10	0x3c10419e	0.008804707
11	0xbf5901a6	-0.8476814
12	0x3de8fb7f	0.11376094
13	0xbf122588	-0.5708852
14	0x3e7f45f0	0.24929023
15	0x3f285eb9	0.65769535
16	0x3f027e08	0.5097356
17	0x3f0411c6	0.5158962
18	0x3ec0c74e	0.37652057
19	0x3e65cb72	0.2244089
20	0x3e411f5c	0.18859619
21	0xbf0b1c7f	-0.54340357
22	0x3f02d2d3	0.5110294
23	0x3e14918d	0.14508648
24	0x3e874e28	0.26426816
25	0xbeda824f	-0.42677543
26	0xbf2e243e	-0.6802405
27	0x3efce68f	0.49394652
28	0xbe59e1f2	-0.21277598
29	0xbf22ca0d	-0.63589555
30	0xbe6b713a	-0.22992411
31	0x3ee9c372	0.45656925
32	0xbebd394d	-0.3695778
33	0xbe31459f	-0.17311715
34	0xbf3eb4c2	-0.74494565
35	0xba52acc5	-0.0008036609
36	0xbe6be595	-0.23036797
37	0x3f141310	0.5784159
38	0x3e9d4554	0.30716956
39	0x3e319271	0.17341019
40	0xbf2b51a4	-0.6692145
41	0x3efa6740	0.48906898
42	0xbd45528f	-0.048174437
43	0xbe86857a	-0.2627371
44	0xbec42602	-0.38310248
45	0xbf334e6d	-0.70041543
46	0x3f394827	0.7237572
47	0x3e711d7c	0.23546404
48	0x3eb4be1e	0.35301298
49	0x3f053ca6	0.5204567
50	0xbdd3c416	-0.10340135
51	0xbf15f9fc	-0.5858457
52	0x3ed47bba	0.41500646
53	0xbf09596f	-0.5365209
54	0x3e97335c	0.29531372
55	0x3e590157	0.21191917
56	0x3d107226	0.03526511
57	0xbe69e87e	-0.22842595
58	0x3f40fe38	0.7538791
59	0x3ece9b58	0.40352893
60	0x3e2b43ca	0.16725078
61	0xbe17a753	-0.14809923
62	0x3e9c1014	0.30481017
63	0x3f343909	0.7039953
64	0xbf02043e	-0.50787723
65	0xbe9ea10a	-0.30982238
66	0x3e61f0aa	0.22064462
67	0xbf368df9	-0.71310383
68	0xbee2371a	-0.44182664
69	0xbf407d92	-0.75191605
70	0xbf0c5c59	-0.5482841
71	0x3f210ec7	0.62913173
72	0x3e0dc622	0.13845113
73	0xbf65ae0d	-0.89718705
74	0xbe2a4b12	-0.166302
75	0x3d821e0c	0.06353387
76	0x3d7db5a4	0.061940804
77	0xbf026a14	-0.5094311
78	0x3e14022c	0.14453954
79	0xbf094804	-0.5362551
80	0x3f431919	0.7621017
81	0x3e248cfb	0.16069405
82	0x3e8017fa	0.25018293
83	0xbefd0132	-0.49414974
84	0xbdd9142c	-0.105995506
85	0xbf48ecb2	-0.7848617
86	0xbd6edec6	-0.058317922
87	0x3ea501fc	0.32228076
88	0x3f3ee744	0.74571633
89	0x3eb1ec38	0.34750533
90	0xbec72c46	-0.38900965
91	0xbf616e2d	-0.8805874
92	0x3e800e0b	0.25010714
93	0x3f15774c	0.5838516
94	0x3e559747	0.20858489
95	0xbea9ec72	-0.33188206
96	0x3f1bdd3f	0.6088447
97	0x3f012378	0.50444746
98	0x3e875c7a	0.26437742
99	0xbf4439b0	-0.76650524
100	0x3f3683f4	0.71295094
101	0xbf2b8c9d	-0.67011434
102	0xbeeda9b6	-0.46418542
103	0x3f60b53b	0.87776536
104	0x3d97a3d2	0.07404293
105	0xbf279a23	-0.6546957
106	0xbebc39b8	-0.36762786
107	0xbf319c8c	-0.69379497
108	0xbf2c8032	-0.6738311
109	0x3f10d090	0.5656824
110	0x3f062554	0.5240071
111	0xbe8bed96	-0.273297
112	0xbeb4fd17	-0.35349342
113	0x3f088030	0.533206
114	0xbf0a5951	-0.54042536
115	0xbce104eb	-0.027468165
116	0x3e6274f6	0.2211493
117	0xbf297421	-0.66192824
118	0x3d13693b	0.035989027
119	0x3ec10eda	0.37706643
120	0x3ee84f84	0.45373166
121	0x3f2c6d64	0.67354417
122	0xbf1e0bd3	-0.6173679
123	0x3f02f3c8	0.5115323
124	0xbe227672	-0.15865496
125	0x3dd9eb7c	0.10640618
126	0xbf36adbb	-0.7135884
127	0xbf1ded9a	-0.61690676

linear_enc.bias f4 [64]
0	0xbeeff506	-0.46866626
1	0xbedbc8aa	-0.42926532
2	0xbeade00c	-0.33959997
3	0x3db45ee0	0.088071585
4	0x3f339e2c	0.70163226
5	0xbcc1f97c	-0.023678534
6	0xbf3674b4	-0.71271825
7	0x3f31d0e8	0.6945939
8	0x3f15ec8b	0.5856406
9	0xbf2f5dea	-0.68502676
10	0xbe759112	-0.23981121
11	0x3d318a25	0.043344636
12	0x3eaf686d	0.34259358
13	0x3d9f889d	0.07789729
14	0xbe96f0ef	-0.29480693
15	0xbf3820c1	-0.7192498
16	0x3f071f4f	0.5278215
17	0x3efdbaf6	0.49556702
18	0xbebdbae0	-0.37056637
19	0xbe9e406d	-0.30908528
20	0x3efa5b6f	0.48897883
21	0x3d8d8e3c	0.06911895
22	0xbf00ae8d	-0.50266343
23	0x3da67864	0.081284314
24	0xbb4aa6f2	-0.003092226
25	0xbf137563	-0.5760099
26	0x3dac68a2	0.084183946
27	0x3e8a8e90	0.27061892
28	0x3e7f37f8	0.24923694
29	0x3f06e28a	0.5268942
30	0xbf26fd5e	-0.6523036
31	0x3e2f050f	0.17091773
32	0x3f1960b1	0.59913164
33	0xbe31ec0c	-0.17375201
34	0xbd43f49f	-0.04784071
35	0xbe98750a	-0.29776794
36	0x3eedc5ac	0.46439874
37	0x3f34da46	0.7064556
38	0x3f245e92	0.642068
39	0xbf286f51	-0.65794855
40	0x3ea30df0	0.3184657
41	0xbf125f08	-0.57176256
42	0xbe3c6a98	-0.18400037
43	0x3f0bd547	0.5462231
44	0xbf200d1e	-0.62520015
45	0x3f037dd0	0.5136385
46	0xbed554dc	-0.41666305
47	0xbd984940	-0.07435846
48	0x3e6cb938	0.2311753
49	0xbf281286	-0.65653265
50	0x3f0ecee7	0.5578446
51	0x3f2c650b	0.6734168
52	0x3f10e594	0.5660031
53	0x3f146a60	0.57974815
54	0xbe5a0a5c	-0.21293014
55	0x3f15b47e	0.58478534
56	0xbea7fb95	-0.3280913
57	0x3dd53daa	0.10412152
58	0xbeac071b	-0.3359917
59	0x3ef5de74	0.4802128
60	0x3f18079c	0.5938661
61	0x3d89a35e	0.06720613
62	0xbce48e82	-0.027899984
63	0xbe82fc90	-0.25583315

encoder_lstm.weight_ih_l0 f4 [128, 64]
0	0xbd4630a7	-0.048386242
1	0xbd0e470e	-0.03473573
2	0xbe141e76	-0.14464745
3	0xbe505b3a	-0.203473
4	0x3d7bcc2f	0.06147402
5	0x3d723313	0.05913074
6	0xbe19b194	-0.15009147
7	0x3dd2c525	0.102915086
8	0x3e488608	0.19582379
9	0xbdcda7da	-0.10041781
10	0x3e0c109b	0.1367821
11	0xbe266b2e	-0.16251823
12	0xbd896612	-0.067089215
13	0x3db7b301	0.08969689
14	0x3dd63b00	0.10460472
15	0xbd8d5fa6	-0.06903009
16	0xbc20b13e	-0.009807883
17	0x3e16f4e0	0.1474185
18	0xbdcb5ae2	-0.09929444
19	0xbe133584	-0.14375883
20	0x3ddf6418	0.10907763
21	0x3cf414a4	0.029794998
22	0xbe57e914	-0.21085006
23	0x3e1bdc0e	0.15220663
24	0xbe9b41cc	-0.30323637
25	0x3c03712a	0.008022586
26	0x3e676515	0.22597153
27	0xbdbc506c	-0.09195027
28	0x3e72ad71	0.23698975
29	0x3df4b6ad	0.11948905
30	0xbe63bc6c	-0.22239846
31	0xbe1499a8	-0.1451174
32	0xbd20ec58	-0.039287895
33	0x3def93c7	0.11698108
34	0x3e4b525a	0.19855633
35	0x3b94701e	0.004529967
36	0x3e93dc1b	0.28878865
37	0x3d4792e5	0.048724074
38	0x3d77edf4	0.060529664
39	0x3d1c7f2b	0.038207214
40	0xbdf8dc44	-0.12151387
41	0xbc78815a	-0.015167559
42	0x3d096d6e	0.033551626
43	0x3e500312	0.20313671
44	0xbe791daa	-0.24327722
45	0x3e1ee225	0.15515955
46	0xbe1da8b3	-0.15396385
47	0x3e201f43	0.15636925
48	0x3e1e42c9	0.15455164
49	0x3d61376b	0.05498449
50	0x3e04e547	0.12978087
51	0xbd9799e3	-0.074023984
52	0x3e39fcba	0.18162814
53	0x3e546dc8	0.20745003
54	0x3d68aa87	0.056803253
55	0xbd21d296	-0.03950747
56	0xbd3cf648	-0.04613331
57	0x3e2c373f	0.1681795
58	0x3dce73b6	0.10080664
59	0x3e2155d0	0.15755391
60	0xbc935769	-0.017986016
61	0xbdd286e2	-0.10279633
62	0x3d13db5a	0.03609786
63	0x3e35796f	0.17722104
64	0xbd6f6804	-0.058448806
65	0x3d3dd9fc	0.046350464
66	0xbd073dc1	-0.033017877
67	0x3e2f791a	0.1713604
68	0xbd37caaa	-0.04487101
69	0xbd946d05	-0.07247356
70	0x3e28b402	0.16474918
71	0xbe0f53ef	-0.13996862
72	0x3e0c7828	0.13717711
73	0x3b224694	0.0024761306
74	0x3e1465c7	0.1449195
75	0x3e5875ea	0.2113873
76	0xbd740965	-0.05957927
77	0xbdb18818	-0.08668536
78	0xbc08042a	-0.008301774
79	0xbd998d74	-0.07497683
80	0x3decca0a	0.115619734
81	0xbe0aa1eb	-0.1353833
82	0x3e02c8bd	0.12771888
83	0xbdb3b6ff	-0.08775138
84	0xbe4d8756	-0.20071158
85	0x3e1c0eab	0.1523997
86	0xbdb0e0b3	-0.08636608
87	0x3cf74001	0.030181887
88	0x3d37b504	0.044850364
89	0x3da0775c	0.07835266
90	0xbd5395d2	-0.05165655
91	0xbd39c1aa	-0.045350708
92	0xbd226a42	-0.039652117
93	0xbe049844	-0.1294871
94	0xbd1d46c5	-0.03839757
95	0x3d84bc98	0.06481284
96	0x3cd276cc	0.025691412
97	0x3ca8af2e	0.020591345
98	0x3d786f8a	0.060653247
99	0xbdaaf037	-0.083465986
100	0x3de908f1	0.113786586
101	0xbdcc6f7a	-0.099822
102	0x3e18c7d5	0.1491998
103	0x3da6e85c	0.08149788
104	0xbd3036bf	-0.04302096
105	0xbdb1f752	-0.08689751
106	0xbd6c5ffa	-0.057708718
107	0x3dcb7301	0.09934045
108	0xbd0f5769	-0.03499547
109	0x3df013b4	0.11722508
110	0x3dc59f7b	0.09649559
111	0x3c980faa	0.018562157
112	0xbcd27fa2	-0.025695626
113	0x3e2c0b7e	0.16801259
114	0x3e04b9a3	0.1296144
115	0x3d92773f	0.07151651
116	0xbe03198b	-0.12802713
117	0xbda2838c	-0.07935247
118	0xbd86eb1a	-0.06587811
119	0x3e485b64	0.19566113
120	0x3ddbfa91	0.10741151
121	0xba5fdedc	-0.00085399835
122	0xbde7594c	-0.11296329
123	0xbd9d7edf	-0.07690214
124	0x3e22c9e3	0.15897326
125	0xbe3523d6	-0.17689452
126	0xbe141ce2	-0.14464143
127	0x3cc1b57e	0.023646113
128	0xbdb91194	-0.09036556
129	0x3df3f33d	0.119116284
130	0xbdc3e40e	-0.09564982
131	0x3e1205e0	0.14260054
132	0xbda7a943	-0.08186581
133	0xbd83d41d	-0.06436942
134	0xbe429f8f	-0.1900618
135	0xbdd9c80f	-0.10633861
136	0x3db9d719	0.0907423
137	0x3de4b64e	0.11167584
138	0x3a09d232	0.0005257457
139	0xbe1fe864	-0.15615994
140	0x3e46f33e	0.19428727
141	0x3c9bfd88	0.019041792
142	0xbe392a53	-0.18082552
143	0xbdaf871a	-0.085706905
144	0xbb72480c	-0.0036969213
145	0x3e4deb72	0.20109347
146	0xbd3cfd89	-0.046140227
147	0x3cfae7e2	0.030628148
148	0xbd86c37f	-0.06580257
149	0x3d2dc09a	0.042420007
150	0xbcab02b7	-0.020875318
151	0xbc3439ea	-0.011000136
152	0xbe058202	-0.13037875
153	0xbe2f44cf	-0.17116092
154	0xbe186eec	-0.14886063
155	0x3cc010f7	0.02344559
156	0xbc843db9	-0.016142713
157	0xbdb19959	-0.08671827
158	0x3cf26e96	0.029593747
159	0x3d04d77a	0.032432057
160	0x3d614e0d	0.055006076
161	0x3d05caf2	0.032664247
162	0x3cf34bfa	0.029699314
163	0x3d0b7b11	0.034052912
164	0x3e4f4a08	0.20243084
165	0xbd4e888d	-0.050423194
166	0xbc518c5d	-0.012789813
167	0x3d8448ab	0.06459173
168	0xbd987a8a	-0.074452475
169	0xbd8895ea	-0.06669219
170	0xbe3162b1	-0.17322804
171	0x3e10e7c4	0.14150912
172	0xbe00b39c	-0.12568516
173	0xbd3b4f7a	-0.04573009
174	0xbdd50cac	-0.104028076
175	0x3dcac893	0.09901538
176	0xbe1c16d9	-0.1524309
177	0xbdd13c4d	-0.102165796
178	0x3e0cf731	0.13766171
179	0xbd85566f	-0.065106265
180	0x3dd98b26	0.106222436
181	0x3e409830	0.18808055
182	0x3bfe82e8	0.00776707
183	0xbe0bdef8	-0.13659275
184	0x3d4a9e62	0.049467452
185	0xbd803e8c	-0.0626193
186	0xbe0205b6	-0.12697491
187	0xbe060d4b	-0.13091008
188	0x3e02e3c9	0.12782206
189	0x3e02f7d6	0.12789854
190	0xbcb7fe89	-0.022460239
191	0xbc2ecdc3	-0.010669175
192	0xbb78cb9b	-0.0037963155
193	0xbe17c8dc	-0.14822716
194	0x3e31d4d0	0.17366338
195	0x3debaeda	0.1150796
196	0xbd4bfc82	-0.049801357
197	0x3e29b764	0.16573864
198	0x3dfeb954	0.12437692
199	0x3e0c7616	0.13716921
200	0xbe3b26f4	-0.18276578
201	0x3e2a5875	0.16635306
202	0x3d393918	0.045220464
203	0x3d80ddd9	0.06292314
204	0xbdb5d344	-0.08878186
205	0xbe1bddab	-0.15221278
206	0x3d9e6886	0.0773478
207	0x3e3a450d	0.18190403
208	0xbe0eca68	-0.139444
209	0xbdf2a9a5	-0.118487634
210	0x3e0e7d79	0.13915052
211	0x3b80adf1	0.0039269854
212	0xbe010552	-0.12599686
213	0xbde325dc	-0.110912055
214	0xbd63800e	-0.055542044
215	0xbe0d0a36	-0.13773426
216	0xbe004e90	-0.12529969
217	0x3d8af39c	0.06784746
218	0x3d018420	0.031620145
219	0x3c26abbd	0.010172782
220	0xbe267409	-0.16255201
221	0x3d6ab53d	0.05730175
222	0xbdd6d2bc	-0.10489413
223	0x3d4f7d45	0.050656576
224	0xbdfb18f3	-0.12260618
225	0x3e2905fb	0.16506188
226	0x3e3f8c60	0.18705893
227	0x3d94dd37	0.07268756
228	0xbe22d4b3	-0.15901451
229	0xbe2e539a	-0.17024079
230	0x3aff04b6	0.001945636
231	0x3e20b70f	0.15694831
232	0xbd60bac8	-0.05486563
233	0xbd6c1260	-0.05763471
234	0xbc6efc60	-0.014586538
235	0xbe0eb16c	-0.13934869
236	0xbddfd365	-0.10928992
237	0x3e06fc5c	0.13182205
238	0x3e071fe9	0.13195767
239	0xbdc34389	-0.09534366
240	0xbe680b73	-0.22660618
241	0x3c364430	0.011124656
242	0xbdbd7da8	-0.09252483
243	0xbd86ba03	-0.06578448
244	0xbe093703	-0.13399892
245	0xbd522123	-0.051301133
246	0x3d68be01	0.056821827
247	0x3db1469b	0.08656045
248	0xbe16c596	-0.1472381
249	0xbdfc8d56	-0.12331645
250	0x3e3719f4	0.17880994
251	0xbdef6283	-0.116887115
252	0xbdb04088	-0.08606058
253	0xbc83e078	-0.016098246
254	0xbdde3332	-0.108496085
255	0x3e5097ed	0.20370455

encoder_lstm.weight_hh_l0 f4 [128, 32]
0	0x3de0e0d1	0.1098038
1	0xbe72101a	-0.23638955
2	0xbe4ae1ed	-0.19812746
3	0xbe63aa5d	-0.22232957
4	0xbd5c3bd0	-0.05376798
5	0xbca2a1f1	-0.01985261
6	0x3db39899	0.0876934
7	0xbcd11b7f	-0.025525806
8	0xbcc837e9	-0.024440723
9	0xbe0570a9	-0.13031258
10	0xbe3414e6	-0.17586097
11	0x3e2abdf8	0.1667403
12	0xbdb568ce	-0.088578805
13	0x3bd1aaf9	0.0063985554
14	0xbdd4e914	-0.103960186
15	0xbdc14e6e	-0.094387874
16	0xbb76e128	-0.0037670825
17	0x3c1323c2	0.008980693
18	0x3cd19a49	0.025586264
19	0x3c87b5e1	0.016566219
20	0x3d5197e8	0.05117026
21	0x3d50151d	0.050801385
22	0x3e87528e	0.26430172
23	0xbd7ef764	-0.06224765
24	0x3db2254e	0.086985216
25	0xbe6ccdf6	-0.23125443
26	0x3dd818c3	0.10551598
27	0x3e1a48b8	0.15066803
28	0x3e5d5cb2	0.21617392
29	0x3e98d4cb	0.29849848
30	0xbe767bb9	-0.24070634
31	0x3e795244	0.24347788
32	0x3e02ee51	0.12786223
33	0xbca60c16	-0.020269435
34	0x3d85ef34	0.06539765
35	0x3d805ae8	0.06267339
36	0x3df0608b	0.11737164
37	0x3dfcf81f	0.12352013
38	0x3e31139c	0.17292637
39	0x3e4ee06a	0.20202795
40	0x3d38cff5	0.0451202
41	0x39c2fcd0	0.00037190923
42	0x3d0d4764	0.03449191
43	0xbcf8a1ee	-0.030350652
44	0x3d6fe7e4	0.058570758
45	0x3e1de4df	0.15419339
46	0xbda28783	-0.07936003
47	0x3d90f46b	0.07077869
48	0x3e301d4a	0.17198673
49	0x3e2b8bc7	0.1675254
50	0xbd19459c	-0.0374199
51	0xbd263c77	-0.040585008
52	0xbe5ee56a	-0.21767202
53	0xbe26d7d2	-0.16293266
54	0xbd2a0390	-0.041507304
55	0x3e275967	0.16342698
56	0xbbc27f41	-0.00593558
57	0xbdc79ca5	-0.097466744
58	0xbe405442	-0.18782142
59	0xbe4bda9d	-0.19907613
60	0xbe81b5f0	-0.2533412
61	0xbe234c55	-0.15947087
62	0x3dc10746	0.094252154
63	0xbcaed3ea	-0.021341283
64	0xbd579d83	-0.05264045
65	0xbd9e6d36	-0.07735674
66	0x3cd11e53	0.025527155
67	0xbe130f6e	-0.14361355
68	0xbdf239a6	-0.11827402
69	0xbca21a24	-0.019787855
70	0xbdd35414	-0.10318771
71	0xbdfe04b8	-0.12403244
72	0x3da4cfc8	0.08047444
73	0xbd3d2b96	-0.046184145
74	0xbe0cc7d3	-0.13748102
75	0x3e25a4ef	0.16176198
76	0x3d68ced2	0.056837864
77	0xbdb265e3	-0.087108396
78	0xbd72d042	-0.05928064
79	0xbe339a79	-0.17539395
80	0x3da80d2b	0.082056366
81	0x3c469f85	0.012122993
82	0x3c608cb9	0.013705426
83	0xbd0e451e	-0.034733884
84	0xbb8f843c	-0.0043797772
85	0x3c810a09	0.015751855
86	0xbcdace2c	-0.026709639
87	0x3e4e940d	0.20173664
88	0xbd98825e	-0.074467406
89	0xbc00e444	-0.007866923
90	0x3d8732ef	0.06601512
91	0xbc3476a9	-0.011014619
92	0xbcaf2fda	-0.021385122
93	0x3d6679b0	0.056268394
94	0xbe062e54	-0.1310361
95	0x3d9a6ab7	0.075398855
96	0xbe0c78d6	-0.1371797
97	0x3e05a572	0.13051394
98	0x3dcd06a0	0.10011029
99	0x3cd2f0c1	0.025749566
100	0xbdd0d3f5	-0.101966776
101	0xbd25c246	-0.040468477
102	0xbdffd452	-0.12491669
103	0x3dbd3975	0.09239475
104	0xbccd9280	-0.02509427
105	0xbe2682b7	-0.16260801
106	0x3ceb8292	0.028748784
107	0x3d6badb1	0.057538692
108	0xbe037d54	-0.12840778
109	0xbdced354	-0.100989014
110	0x3e48ed5f	0.196218
111	0xbe0cb68e	-0.13741514
112	0xbe3b3313	-0.18281202
113	0x3e499368	0.19685137
114	0xbd33e26b	-0.0439171
115	0x3de7b038	0.11312908
116	0x3c463991	0.012098686
117	0x3d4471c7	0.04796007
118	0xbc9f3878	-0.019436106
119	0xbe1e6090	-0.15466523
120	0x3dbbf7be	0.091781124
121	0xba7978e3	-0.000951661
122	0x3e1ba101	0.15198137
123	0x3e229560	0.15877295
124	0xbde27fd9	-0.11059541
125	0x3e1406f0	0.14455771
126	0x3e3b28b0	0.1827724
127	0x3d7ca4b0	0.061680496
128	0x3e57b533	0.21065216
129	0x3e343418	0.17597997
130	0xbd75fa62	-0.060053237
131	0x3e220b23	0.15824561
132	0xbb19b3dd	-0.0023453154
133	0x3dca2abe	0.09871434
134	0xbe108882	-0.14114574
135	0x3dc761c7	0.097354464
136	0x3d9a9aa7	0.07549029
137	0xbdf003cb	-0.117194735
138	0x3e33baaf	0.17551683
139	0xbe278bd4	-0.16361934
140	0xbe0a745d	-0.13520952
141	0xbe1ff4d3	-0.15620737
142	0xbe0e0aea	-0.13871351
143	0x3d887612	0.06663145
144	0x3d39a85d	0.04532658
145	0x3c2c71ca	0.010525176
146	0xbdba420a	-0.09094627
147	0x3e5ceef6	0.21575531
148	0x3e5e20eb	0.21692245
149	0xbe34d49c	-0.17659229
150	0xbe11e4ce	-0.14247438
151	0x3ce38efa	0.027778137
152	0x3df3c52f	0.11902844
153	0x3b6c8c83	0.0036094494
154	0xbdb04285	-0.086064376
155	0x3c4a64ca	0.012353132
156	0xbde6c88c	-0.1126872
157	0x3d2204d4	0.039555386
158	0xbdc5cf61	-0.09658695
159	0xbe109dff	-0.1412277
160	0x3cbd212a	0.023087103
161	0xbd9e41b9	-0.07727379
162	0xbda77d6e	-0.08178221
163	0xbe3db9a8	-0.18527853
164	0x3e155b04	0.14585501
165	0x3d865cd0	0.06560671
166	0x3e39b9dd	0.18137307
167	0xbca7a060	-0.020462215
168	0x3db26c24	0.087120324
169	0x3e06b59c	0.13155216
170	0x3dd4e8e1	0.103959806
171	0xbd8d3349	-0.068945475
172	0x3d9ad713	0.075605534
173	0xbc390329	-0.011292257
174	0xbdcb8e5e	-0.09939264
175	0x3e01a904	0.1266213
176	0x3d4f1756	0.050559364
177	0x3c16b64a	0.009198735
178	0x3e222dc3	0.15837769
179	0x3e470ea5	0.1943918
180	0x3df18875	0.11793605
181	0x3d1b521a	0.037920095
182	0xbdd12cf0	-0.10213649
183	0x3d71d4e2	0.05904091
184	0xbd98f480	-0.0746851
185	0x3cadf81c	0.021236472
186	0xbe10ddf2	-0.14147165
187	0xbd0d0b35	-0.034434516
188	0x3ddc6424	0.10761288
189	0x3d70c4fc	0.05878161
190	0x3d61eff0	0.055160463
191	0xbe465156	-0.19366965
192	0x3d9b3128	0.07577735
193	0x3d302a5b	0.043009143
194	0x3d93c9fa	0.07216258
195	0x3e1697dd	0.14706369
196	0xbde7dd5a	-0.11321516
197	0x3ddea9dd	0.108722426
198	0xbdabbbce	-0.0838543
199	0xbd1bfc7c	-0.038082585
200	0xbe3108b0	-0.1728847
201	0xbdb0295b	-0.08601638
202	0x3dbad7a0	0.091231585
203	0xbd203e4e	-0.03912192
204	0x3e171f77	0.14758097
205	0xbc2b8d9d	-0.010470775
206	0xbe477664	-0.19478756
207	0xbdc7054b	-0.097178064
208	0xbe250878	-0.16116512
209	0x3dbbbbb6	0.091666624
210	0x3e029360	0.12751532
211	0x3db34f68	0.0875538
212	0x3e192d91	0.14958788
213	0xbe3f3118	-0.18671072
214	0x3e039a3b	0.12851803
215	0xbd87c7b4	-0.06629887
216	0x3ddfc110	0.109254956
217	0xbcb859cf	-0.022503762
218	0xbd84b186	-0.064791724
219	0xbd76a4e5	-0.06021585
220	0xbb664b7a	-0.0035140202
221	0xbe185424	-0.14875847
222	0xbc8ce2af	-0.017197935
223	0x3e0c0b7e	0.13676259
224	0x3d63a456	0.055576645
225	0xbdc0dfb4	-0.09417668
226	0x3db8897e	0.090105996
227	0xbdabcefb	-0.08389088
228	0xbd00d7aa	-0.031455673
229	0x3c7ea359	0.015541875
230	0x3e00f030	0.12591624
231	0x3d588238	0.05285856
232	0xbd941d39	-0.07232136
233	0xbe2b9c72	-0.16758898
234	0xbcef25a9	-0.029192762
235	0x3dd0cbb8	0.10195106
236	0x3d7e244c	0.062046334
237	0xbea09abb	-0.3136805
238	0x3d830c5b	0.06398841
239	0x3dda61e4	0.106632024
240	0xbd7f4568	-0.06232205
241	0x3dfdeb4e	0.123983964
242	0xbdf05508	-0.117349684
243	0x3d6bda38	0.057581156
244	0xbdd61830	-0.10453832
245	0xbe1c35ee	-0.15254948
246	0xbadb6de0	-0.0016741119
247	0xbe7c784c	-0.24655265
248	0x3e00f521	0.1259351
249	0x3dd3f726	0.10349874
250	0x3dc28f10	0.09499943
251	0x3de62b2c	0.11238703
252	0x3deae9d3	0.1147038
253	0x3dcae214	0.09906402
254	0xbe0e5481	-0.13899423
255	0xbe3aa440	-0.18226719

encoder_lstm.bias_ih_l0 f4 [128]
0	0x3d6bad20	0.05753815
1	0x3e0de683	0.13857464
2	0x3c590df3	0.013247955
3	0xbe1836aa	-0.14864603
4	0xbe272935	-0.16324313
5	0xbdd845e0	-0.105602026
6	0x3d910687	0.07081323
7	0x3dba0578	0.09083074
8	0x3df3154f	0.11869299
9	0x3c02a185	0.00797308
10	0x3e397c45	0.18113811
11	0x3da23f71	0.07922257
12	0xbd6c15fc	-0.057638153
13	0x3e5032ce	0.2033188
14	0x3ced71c3	0.02898491
15	0xbe00cd5c	-0.12578338
16	0x3d3a1644	0.04543139
17	0xbdb997c3	-0.090621494
18	0x3d290c7a	0.041271664
19	0xbdef9ad1	-0.11699451
20	0xbda23e95	-0.07922093
21	0xbe207820	-0.15670824
22	0xbd981872	-0.074265376
23	0x3d25001e	0.040283315
24	0xbd9f82ce	-0.07788621
25	0xbdc7972e	-0.09745632
26	0xbd6a678e	-0.057227664
27	0xbcc438bb	-0.023952832
28	0x3da7a0ce	0.08184968
29	0x3e3afcc1	0.1826048
30	0xbe07f387	-0.13276492
31	0x3e00d72f	0.12582086
32	0x3d3baeda	0.04582105
33	0x3c1054fa	0.0088093225
34	0x3b5c560e	0.0033620629
35	0xbdfe0474	-0.12403193
36	0x3cb08763	0.021548932
37	0xbcb1f2e8	-0.021722272
38	0xbe25b598	-0.16182554
39	0xbd683800	-0.05669403
40	0xbe0816e3	-0.1328998
41	0xbdde33b0	-0.10849702
42	0xbe3157c1	-0.17318632
43	0x3e45f899	0.19333114
44	0xbe067e4b	-0.13134114
45	0xbc55f91d	-0.0130598815
46	0xbde84ab0	-0.113423705
47	0x3e0de9fa	0.13858786
48	0xbe2b671e	-0.16738555
49	0xbd117546	-0.03551223
50	0x3d81fc68	0.06346971
51	0xbcc5fe52	-0.024169121
52	0xbdfd2a7a	-0.123616174
53	0x3d33c432	0.04388828
54	0x3e111ac8	0.14170372
55	0xbde3be57	-0.11120289
56	0x3df2f224	0.11862591
57	0x3d97aa21	0.074054964
58	0xbdbbc537	-0.09168475
59	0xbd93fe0a	-0.072261885
60	0x3c78bc8f	0.015181675
61	0x3ca171c9	0.019707577
62	0x3e12b439	0.14326562
63	0x3df773ea	0.12082656
64	0xbd4db9b2	-0.05022592
65	0xbe016743	-0.12637047
66	0x3dcafe97	0.099118404
67	0xbddd07c2	-0.10792495
68	0x3d32737e	0.043567173
69	0x3dd0ef1c	0.102018565
70	0x3d45984c	0.048240945
71	0xbc7a25b5	-0.015267779
72	0xbe043c7f	-0.12913702
73	0x3bc5f873	0.0060415803
74	0xbd2c73c5	-0.042102594
75	0xbd06550a	-0.032795943
76	0xbe08dc8c	-0.13365382
77	0xbd3c1118	-0.04591474
78	0x3c69e8d5	0.014276703
79	0xbdccc1b8	-0.099978864
80	0xbcab510d	-0.020912671
81	0xbe0981ea	-0.13428465
82	0x3ddf92b4	0.10916653
83	0xbe3b3b16	-0.18284258
84	0xbd7ec97c	-0.06220387
85	0xbb6406c7	-0.0034794079
86	0x3e43b176	0.19110665
87	0xbe272c35	-0.16325457
88	0x3dc46dc3	0.09591248
89	0xbdd94da4	-0.10610512
90	0xbd6b5148	-0.057450563
91	0xbbcef936	-0.0063163294
92	0xbda51196	-0.08059995
93	0x3d3d53bf	0.046222445
94	0x3dbf886b	0.093521915
95	0xbe08c45c	-0.13356155
96	0x3d9c872e	0.07642971
97	0xbdd30ad6	-0.10304801
98	0xbd2563bf	-0.04037833
99	0xbd9fa500	-0.07795143
100	0x3d92d4f5	0.071695246
101	0x3dc9ab9d	0.09847186
102	0xbe0a24ff	-0.13490675
103	0x3cc1aae7	0.023641063
104	0x3e2c2960	0.16812658
105	0x3e16f9b2	0.14743689
106	0xbc671364	-0.014103744
107	0x3e147d9a	0.14501038
108	0x3e1e38f2	0.1545141
109	0x3cc5b48b	0.024133941
110	0xbd17a14b	-0.037019055
111	0xbe0a8280	-0.13526344
112	0x3db5accf	0.08870851
113	0x3cccf33a	0.025018323
114	0xbe10db4e	-0.14146158
115	0xbd08ea15	-0.033426363
116	0xbd33f071	-0.043930475
117	0x3cf097b9	0.029369222
118	0x3cf90838	0.030399427
119	0x3d6b1839	0.057396147
120	0x3d8c137d	0.068396546
121	0xbde1810b	-0.11010941
122	0x3dfd7cbe	0.12377308
123	0x3defbe4e	0.117062196
124	0x3d0d4e13	0.034498286
125	0x3df4d3ae	0.11954437
126	0x3e27611f	0.16345643
127	0x3e4a8796	0.19778284

encoder_lstm.bias_hh_l0 f4 [128]
0	0x3e695c5d	0.2278914
1	0x3df1b8d0	0.11802828
2	0x3dae1c69	0.085015126
3	0xbe32b9e5	-0.17453726
4	0xbce56314	-0.028001346
5	0x3ddcb95a	0.107775405
6	0xbe07eaf0	-0.13273215
7	0x3ceac4a9	0.028658228
8	0x3e3d3f55	0.1848119
9	0xbdc27345	-0.09494642
10	0x3d8be12f	0.0683006
11	0xbd9b7acb	-0.0759178
12	0xbb97b796	-0.0046300394
13	0x3e914860	0.2837553
14	0x3bd5293d	0.00650516
15	0xbddee98e	-0.10884391
16	0xbdac1f62	-0.08404423
17	0x3c814996	0.015782159
18	0xbccc7f95	-0.02496318
19	0xbdedbd5c	-0.11608383
20	0x3e2878b2	0.16452292
21	0x3e351ac8	0.17685997
22	0x3e10cc99	0.14140548
23	0x3e01b0de	0.12665126
24	0xbda11616	-0.07865541
25	0xbdc61bd4	-0.096732765
26	0xbd226a5d	-0.039652217
27	0x3e33778f	0.17526077
28	0x3e595e16	0.21227297
29	0x3cf1b3c5	0.029504666
30	0xbd602b32	-0.054728694
31	0x3d62f61a	0.055410482
32	0xbd97e1e5	-0.07416133
33	0x3c49749d	0.012295869
34	0x3e125a9a	0.14292374
35	0x3df6cbc3	0.12050583
36	0x3e283797	0.16427456
37	0xbe3b22bc	-0.18274969
38	0x3db41065	0.087921895
39	0x3e1793ba	0.14802447
40	0x3c9f89fa	0.019474972
41	0x3d372c2a	0.044719853
42	0xbe14d9dd	-0.14536233
43	0x3cbc0690	0.022952348
44	0xbe2aec6a	-0.16691747
45	0xbe1aaa6f	-0.15104078
46	0xbded108f	-0.11575424
47	0x3e235e0a	0.15953842
48	0xbd5c12e3	-0.05372895
49	0xbd87afaa	-0.06625302
50	0x3d6c911b	0.05775557
51	0xbb6b10b8	-0.003586812
52	0xbdb7750c	-0.08957872
53	0xbd9e5710	-0.077314496
54	0x3de3edc8	0.111293375
55	0xbccbc9fc	-0.024876587
56	0xbc25110b	-0.010074864
57	0xbd69728a	-0.056994
58	0xbbb2ce3a	-0.005456713
59	0x3d0cb01a	0.03434763
60	0x3db01a44	0.0859876
61	0xbdfcc1ad	-0.12341628
62	0xbe05339d	-0.1300797
63	0xbd878fc2	-0.066192165
64	0xbe2ec5f2	-0.17067698
65	0xbd86fcbc	-0.06591174
66	0xbe4ca38b	-0.19984262
67	0xbe1d4d7b	-0.15361588
68	0x3e4236fa	0.18966284
69	0x3e17032d	0.14747305
70	0xbd9d2d82	-0.076746956
71	0xbda93278	-0.08261579
72	0xbc590452	-0.013245659
73	0xbe2d458c	-0.16921061
74	0x3b6c7a71	0.0036083723
75	0xbdb12101	-0.08648873
76	0xbd4b2afe	-0.049601547
77	0xbdbfe5da	-0.093700126
78	0xbe10466a	-0.14089361
79	0x3e0405e5	0.12892874
80	0x3de0d7a4	0.1097863
81	0xbd877714	-0.06614509
82	0x3d040205	0.03222849
83	0xbafd1de6	-0.0019311279
84	0x3d3c253d	0.04593395
85	0xbdbe8820	-0.093033075
86	0xbde1a111	-0.11017049
87	0xbcf96053	-0.030441439
88	0xbd22395c	-0.039605483
89	0x3e1513c1	0.14558317
90	0xbdc2a482	-0.095040336
91	0xbe0feb54	-0.14054614
92	0x3e222746	0.15835294
93	0xbae92b08	-0.0017789314
94	0x3c139824	0.009008441
95	0xbe2d5c56	-0.16929755
96	0x3e3355f4	0.17513257
97	0xbda891be	-0.08230923
98	0x3e1ae382	0.1512585
99	0xbe0a1dde	-0.13487956
100	0x3e10bc4d	0.14134331
101	0x3d95fc55	0.07323519
102	0x3d978046	0.07397513
103	0xbc3c681f	-0.011499434
104	0x3df8b40c	0.12143716
105	0x3df39026	0.118927285
106	0x3e185454	0.14875919
107	0x3ca10b64	0.019658752
108	0x3deca327	0.11554556
109	0xbcd23522	-0.025660101
110	0x3d6736c0	0.056448698
111	0xbdb03643	-0.086040996
112	0x3e002562	0.1251426
113	0x3d4f8e07	0.050672557
114	0xbdecdd1a	-0.11565609
115	0xbd17be78	-0.03704688
116	0x3dd722e2	0.105047
117	0x3e3e25ce	0.18569109
118	0x3da359f2	0.0797614
119	0x3e1d3f3e	0.15356156
120	0x3c0b6eae	0.008510275
121	0x3d83d65f	0.064373724
122	0x3e226867	0.15860139
123	0x3e7470cc	0.23871154
124	0x3e080812	0.13284329
125	0x3e005ea0	0.12536097
126	0x3e0b9644	0.1363154
127	0x3e3c251d	0.18373533

dest_lstm_obs.weight_ih_l0 f4 [128, 2]
0	0x3db450fb	0.08804508
1	0x3d90a316	0.07062356
2	0xbdf2de69	-0.118588276
3	0x3c23a168	0.009987213
4	0x3d246264	0.040132895
5	0xbe1265b4	-0.14296609
6	0x3da434fb	0.08017918
7	0xbc6f1043	-0.014591279
8	0x3dc52132	0.09625472
9	0x3d0507d9	0.032478187
10	0x3d3186f0	0.043341577
11	0xbdb982e6	-0.0905817
12	0x3df058ee	0.11735712
13	0xbdc7c960	-0.09755206
14	0xbd18f7a9	-0.037345562
15	0xbca48dd6	-0.020087164
16	0xbb3c206e	-0.0028705853
17	0xbda0ae25	-0.078457154
18	0xbe20dc41	-0.1570902
19	0xbe30f2a3	-0.17280059
20	0x3e105c98	0.14097822
21	0x3d0f136b	0.034930628
22	0xbde47241	-0.11154605
23	0xbbea5727	-0.0071515027
24	0x3c1035f8	0.00880193
25	0xbdeef658	-0.1166808
26	0xbe153e85	-0.1457463
27	0xbd7cb3ae	-0.061694793
28	0xbd7384de	-0.059452884
29	0xbdbc2bdb	-0.09188052
30	0x3df808c6	0.121110484
31	0xbe3b401e	-0.18286178
32	0xbb9a076c	-0.004700592
33	0x3bc4944e	0.0059991246
34	0x3d68b396	0.05681189
35	0xbc8f9ff9	-0.017532336
36	0x3d054112	0.03253276
37	0xbe282969	-0.16422047
38	0x3dc498be	0.09599446
39	0x3d83b4bc	0.06430957
40	0xbdd24b37	-0.10268252
41	0xbdde5ea6	-0.108578965
42	0xbdd150ae	-0.102204666
43	0x3cda0fd4	0.026618876
44	0x3de6d476	0.112709925
45	0x3d9544e9	0.07288534
46	0x3d913eb9	0.070920415
47	0x3de4fb77	0.111807756
48	0x3e3a2611	0.18178584
49	0xbda10600	-0.078624725
50	0x3cd8b0cf	0.026451496
51	0xbdda9dd2	-0.10674633
52	0xbdb42d52	-0.08797707
53	0xbdeac95a	-0.11464186
54	0x3d988009	0.07446296
55	0xbdb9a862	-0.090653196
56	0x3dc0f0b5	0.09420911
57	0xbd390565	-0.04517116
58	0xbdb3e167	-0.087832265
59	0xbe0ec456	-0.13942084
60	0x3e00b7ac	0.12570065
61	0x3c567ee6	0.013091778
62	0xbdf74746	-0.12074141
63	0x3da7a2b6	0.081853315
64	0xbd800675	-0.062512316
65	0xbd86196d	-0.06547818
66	0xbd7470f8	-0.059678048
67	0xbe0d9b96	-0.13828883
68	0x3dc01393	0.093787335
69	0xbe11e8c2	-0.14248946
70	0x3db0a957	0.08626049
71	0xbdec34cd	-0.115335084
72	0x3d61ec10	0.055156767
73	0xbe33649c	-0.17518848
74	0xbb884128	-0.004158158
75	0xbd6c031e	-0.05762016
76	0xbe48b972	-0.19601992
77	0xbc8b72b8	-0.017022476
78	0xbd2cd3cd	-0.042194176
79	0xba9b9b78	-0.0011871895
80	0xbd8bc881	-0.068253525
81	0x3db05c22	0.08611323
82	0xbe0739c6	-0.13205633
83	0xbc8ccd8f	-0.017187862
84	0x3b363f20	0.0027808622
85	0xbe1546c2	-0.14577773
86	0x3d8d5529	0.06901009
87	0x3d470718	0.04859075
88	0xbdcce55c	-0.10004684
89	0x3b945b66	0.004527497
90	0x3d9308a9	0.07179386
91	0x3d9c1318	0.07620829
92	0xbdc6f1bc	-0.09714076
93	0xbc827cf2	-0.01592872
94	0x3c58b0dd	0.013225761
95	0x3d389ff7	0.04507443
96	0x3ddf8495	0.1091396
97	0xbd3cd1f6	-0.04609867
98	0xbe5e3758	-0.217008
99	0xbde5084e	-0.111832246
100	0xbdb15105	-0.086580314
101	0xbd45b61d	-0.04826938
102	0x3c7494ad	0.014928025
103	0xbcc89522	-0.024485175
104	0xbc82d808	-0.015972152
105	0x3cdcb444	0.026941426
106	0xbd01621f	-0.031587716
107	0x3dacab96	0.08431165
108	0xbd10d8b2	-0.035362907
109	0xbd733cf1	-0.05938429
110	0x3b423303	0.0029632456
111	0xbe24baac	-0.16086835
112	0xbdf012ca	-0.11722334
113	0x3d192c3a	0.037395693
114	0xbe1973d1	-0.14985587
115	0x3e1ffc43	0.15623574
116	0x3ca25e6d	0.019820416
117	0x3c4305e8	0.011903264
118	0x3d9d8e6c	0.076931804
119	0x3ddbb458	0.10727757
120	0xbb4f532b	-0.0031635265
121	0x3c02472f	0.007951542
122	0xba769e47	-0.00094077404
123	0x3df9d7b0	0.12199342
124	0xbdbdbbb4	-0.09264317
125	0x3df3afbe	0.118987545
126	0xbe09913c	-0.13434309
127	0x3cecae81	0.028891804
128	0x3dbfb112	0.09359945
129	0xbd99aa2d	-0.075031616
130	0x3d2f29e8	0.042764574
131	0x3d6af526	0.057362698
132	0xbda34f6a	-0.079741314
133	0x3d362414	0.044468
134	0x3d991743	0.0747514
135	0xbd054008	-0.032531768
136	0x3d9f6cec	0.07784447
137	0xbddf221d	-0.108951785
138	0xbe1de99f	-0.1542115
139	0x3e0592d7	0.13044296
140	0x3e084a07	0.13309489
141	0x3d5aff02	0.05346585
142	0x3d90af59	0.07064695
143	0xbd508826	-0.05091109
144	0xbda5dd88	-0.08098894
145	0x3dc5eeaf	0.09664666
146	0xbd7efdc3	-0.062253725
147	0xbd4c42ba	-0.049868323
148	0xbda34c6c	-0.07973561
149	0xbd97ea70	-0.07417762
150	0xbe1e4dd8	-0.15459383
151	0x3c8f2021	0.017471375
152	0xbdc89b99	-0.09795303
153	0x3cb3e58f	0.021960048
154	0x3dab0924	0.08351353
155	0xbdcfa3b3	-0.10138645
156	0xbdd2de14	-0.10296264
157	0x3d4057ae	0.046958618
158	0x3dc1bb0c	0.094595045
159	0x3d3e11c9	0.04640368
160	0x3d481af2	0.048853822
161	0x3dbf2ed9	0.09335107
162	0xbdaa97d6	-0.08329742
163	0xbdabdcdc	-0.08391735
164	0xbbc665ff	-0.0060546394
165	0x3cfb284f	0.03065887
166	0x3d7c70d9	0.061631057
167	0x3d753c68	0.05987206
168	0x3d64720f	0.055772837
169	0x3c9fcc60	0.019506633
170	0xbe0828dc	-0.13296837
171	0x3e1f1cbc	0.15538305
172	0x3da3965e	0.07987665
173	0x3dda0622	0.10645701
174	0x3dbe5bb2	0.09294833
175	0x3a2d50a7	0.00066114444
176	0xbab3f69e	-0.0013730114
177	0x3cae5b00	0.021283627
178	0x3dcf85b2	0.10132922
179	0x3de78223	0.113041185
180	0xbc4ebbfe	-0.012618063
181	0xbd2a02ff	-0.041506764
182	0xbc4fe6b3	-0.01268928
183	0xbd9b7584	-0.07590774
184	0x3b0d0ace	0.0021521333
185	0x3dbe3860	0.092880964
186	0xbd191796	-0.03737601
187	0xbcdb7c63	-0.02679271
188	0x3c610bd0	0.0137357265
189	0xbcbe1a1a	-0.023205806
190	0xbdd2a30a	-0.102850035
191	0xbcc09908	-0.023510471
192	0x3d3cf8c8	0.046135694
193	0xbcfe6286	-0.031052839
194	0x3d5b9dc0	0.05361724
195	0x3dd15a7e	0.10222338
196	0xbb950490	-0.004547663
197	0x3cf91bf3	0.030408835
198	0xbde51007	-0.111846976
199	0x3bf42c05	0.0074515366
200	0x3d61c490	0.055119097
201	0xbd9d40a8	-0.07678348
202	0xbd471104	-0.04860021
203	0x3dff7063	0.12472608
204	0x3e01e42e	0.126847
205	0x3d8f180a	0.06987007
206	0x3d88f0f8	0.06686586
207	0x3cc1da10	0.02366355
208	0x3da4b23a	0.080418065
209	0xbe19f5b1	-0.1503513
210	0x3be11177	0.006868537
211	0x3d9027f7	0.07038873
212	0xbc97d02a	-0.018531878
213	0x3ddd0f5d	0.10793946
214	0x3b2add30	0.002607178
215	0xbdf8ad23	-0.12142398
216	0xbd69e0a4	-0.057099
217	0xbe0a3a5f	-0.1349883
218	0xbd0147c2	-0.031562574
219	0xbb861a6d	-0.0040925057
220	0xbdabe968	-0.08394128
221	0xbdb4c755	-0.08827082
222	0x3db61d5f	0.08892321
223	0x3c9ae56e	0.018908229
224	0x3cb718c2	0.022350673
225	0xbc43e655	-0.011956771
226	0xbe40e83a	-0.18838587
227	0x3ddbe928	0.107378304
228	0xbcb46051	-0.022018583
229	0xbdae89a5	-0.08522347
230	0xbc9d7735	-0.019221881
231	0x3e121878	0.14267147
232	0xbdbde4d2	-0.0927216
233	0xbdabf134	-0.08395615
234	0xbd5473ca	-0.051868238
235	0x3d20f5a4	0.03929676
236	0x3cf4890b	0.029850503
237	0x3e103ea0	0.1408639
238	0xbe0ce184	-0.13757902
239	0xbd3a0f66	-0.04542484
240	0x3dd31d74	0.10308352
241	0xbd18c379	-0.037295792
242	0x3d988c48	0.074486315
243	0x3d8a5ba5	0.06755761
244	0x3ddae919	0.10688991
245	0xbd61540b	-0.05501179
246	0xbc5153ba	-0.01277631
247	0x39fd6002	0.00048327452
248	0x3be2934f	0.006914533
249	0xbc8cfbe2	-0.01720995
250	0x3df6b8e3	0.12046983
251	0xbdd930ac	-0.106049865
252	0xbd253e0b	-0.040342372
253	0xbbc4e71d	-0.006008996
254	0x3d12d9e1	0.035852317
255	0xbda42638	-0.08015102

dest_lstm_obs.weight_hh_l0 f4 [128, 32]
0	0x3d944ab1	0.07240809
1	0xbde0438a	-0.10950382
2	0xbe46f563	-0.19429545
3	0xbe40e189	-0.18836035
4	0x3e5012ed	0.2031972
5	0x3d855274	0.06509867
6	0xbe14d8a2	-0.14535764
7	0x3dba4d01	0.090967186
8	0xbc654761	-0.013994069
9	0xbd6d78bd	-0.057976473
10	0x3d2dfbc2	0.042476423
11	0x3ce2e3fe	0.027696606
12	0x3dcfeb1c	0.101522654
13	0xbdf82bcc	-0.121177286
14	0x3de4e076	0.11175625
15	0x3d9b3356	0.07578151
16	0xbde89022	-0.11355616
17	0x3e0c4646	0.13698682
18	0x3d43433e	0.04767155
19	0xbe0f815f	-0.14014195
20	0x3d155ff8	0.036468476
21	0xbc196e02	-0.009364607
22	0xbd910596	-0.070811436
23	0xbd50543c	-0.050861582
24	0xbd9255ed	-0.07145295
25	0xbd40f824	-0.047111645
26	0xbdbe402e	-0.09289585
27	0x3d10fdc0	0.035398245
28	0xbdda7103	-0.106660865
29	0xbcf4a478	-0.029863581
30	0xbdbd44d1	-0.09241641
31	0x3e38d4f9	0.18049993
32	0xbe27742a	-0.16352907
33	0xbdf05292	-0.11734499
34	0xbcf98b43	-0.030461913
35	0xbdf5d31f	-0.12003159
36	0x3dcb3daf	0.099238746
37	0xbe28c285	-0.16480453
38	0x3d6d7ffe	0.05798339
39	0xbd0fa4a9	-0.03506914
40	0x3e397547	0.18111144
41	0x3d385d5d	0.045010913
42	0x3dab9727	0.083784394
43	0xbd6c9f11	-0.057768885
44	0xbd9bfd32	-0.076166525
45	0x3d919bd2	0.071097985
46	0x3dc32130	0.095278144
47	0xbdee11e5	-0.11624507
48	0xbdbee934	-0.09321824
49	0x3de208f8	0.11036867
50	0x3d8f61ed	0.070011
51	0xbdecd4d3	-0.115640305
52	0xbd6295f3	-0.055318784
53	0x3d96a3fa	0.07355495
54	0x3e16fc7a	0.1474475
55	0xbdbfa5f0	-0.09357822
56	0xbd11eece	-0.035628133
57	0xbde6a01b	-0.112610064
58	0x3d1cf1cd	0.038316537
59	0x3ce91324	0.02845151
60	0xbbc44478	-0.0059896074
61	0xbdb1e46a	-0.08686145
62	0x3b8ed52e	0.004358909
63	0xbe208586	-0.15675935
64	0x3d8cbe20	0.06872201
65	0xbd650305	-0.055911083
66	0x3d88b06e	0.06674276
67	0x3e1f0af2	0.15531519
68	0xbd921aee	-0.07134043
69	0xbdf8805c	-0.121338576
70	0x3c4a4474	0.012345422
71	0x3bb575f6	0.0055377437
72	0x3e3ae2ea	0.18250623
73	0xbc5251c5	-0.012836878
74	0xbd390ffe	-0.045181267
75	0xbd829a19	-0.06377048
76	0x3d9c443c	0.07630202
77	0x3d1522ba	0.03641007
78	0xbdd21322	-0.102575555
79	0xbd96930f	-0.07352268
80	0x3baed987	0.00533599
81	0xbe1822d8	-0.14857042
82	0x3e6a397d	0.22873493
83	0x3c686795	0.014184852
84	0xbdbecbe0	-0.0931623
85	0x3d74cbf2	0.05976481
86	0xbc38fd1c	-0.011290815
87	0xbe1a7728	-0.15084517
88	0x3cb65eff	0.022262095
89	0x3de9b8cb	0.114121996
90	0x3e113b12	0.1418269
91	0xbe04d383	-0.1297131
92	0x3e484cb3	0.19560508
93	0x3dccb6dc	0.09995815
94	0x3e36fc09	0.17869581
95	0x3e1a99e8	0.15097773
96	0xbe4625b5	-0.19350322
97	0xbcf39882	-0.029735807
98	0x3c82bb96	0.015958589
99	0x3e08b04b	0.133485
100	0x3e217a4e	0.15769312
101	0xbbcd75ea	-0.00627016
102	0xbc99af9e	-0.018760499
103	0x3dfcaa7c	0.12337205
104	0xbd9bd564	-0.076090604
105	0xbe32897c	-0.17435259
106	0xbdf4520e	-0.11929713
107	0x3bd46d9a	0.006482792
108	0xbc69227f	-0.014229416
109	0xbe029bdc	-0.12754768
110	0x3e405196	0.18781123
111	0xbdb5a9b6	-0.088702604
112	0xbceb956a	-0.02875777
113	0x3dd85620	0.10563302
114	0x3df94772	0.1217183
115	0x3e238aea	0.1597096
116	0xbd55b31d	-0.05217277
117	0xbda529a4	-0.08064583
118	0xbe09ea08	-0.13468182
119	0x3e277cc9	0.16356196
120	0xbd5fd902	-0.054650314
121	0xbdbecafb	-0.09316059
122	0xbe0fdf95	-0.14050134
123	0x3d2c9a59	0.042139385
124	0xbd7dfe20	-0.06200993
125	0xb7304508	-1.050649e-05
126	0x3d58306f	0.052780565
127	0x3d6df60a	0.05809597
128	0xbe2447eb	-0.1604306
129	0x3c24891c	0.010042455
130	0xbd0f8597	-0.03503951
131	0xbd988d96	-0.074488804
132	0xbdae0d9c	-0.084986895
133	0x3d8defc3	0.069304965
134	0x3cf82994	0.030293263
135	0xbea4ba08	-0.3217318
136	0x3e3132b5	0.173045
137	0xbdd8f266	-0.10593109
138	0x3d8d29ea	0.0689276
139	0xbd5f27a4	-0.054481164
140	0x3e1ce818	0.15322912
141	0xbdd9de3a	-0.106380895
142	0xbe0d53c3	-0.13801484
143	0xbe2e613f	-0.17029284
144	0xbe26f2b5	-0.16303523
145	0xbd467aad	-0.048456836
146	0x3e0b6c5e	0.13615558
147	0xbd63c1a4	-0.055604592
148	0xbe6190bd	-0.2202787
149	0x3d8c2916	0.06843774
150	0x3d455c56	0.04818376
151	0x3cbb077c	0.022830717
152	0xbe4c47fb	-0.19949333
153	0xbca0d9c6	-0.019635092
154	0x3d8803c9	0.06641347
155	0x3c8b581d	0.01700979
156	0x3c544e58	0.012958132
157	0x3da3580c	0.07975778
158	0xbdf75669	-0.12077028
159	0xbdf413e1	-0.11917854
160	0xbcd29629	-0.025706368
161	0xbe651ae0	-0.22373533
162	0x3d16ee96	0.036848627
163	0x3cf5edd5	0.030020634
164	0x3e45daf1	0.19321801
165	0x3e056d20	0.13029909
166	0x3d1746f8	0.036932915
167	0xbdb533dd	-0.08847783
168	0xbe3ebd24	-0.18626839
169	0xbd89a33f	-0.0672059
170	0xbdfa4b9c	-0.122214526
171	0x3df5bf1f	0.11999344
172	0x3dba53d1	0.09098018
173	0x3e5aba24	0.2136007
174	0xbc385b26	-0.0112522
175	0xbcbbeb24	-0.022939272
176	0xbcbdf2e1	-0.023187103
177	0x3d4e4e67	0.05036774
178	0xbe048ed8	-0.12945116
179	0x3d9d9117	0.07693689
180	0xbd33f911	-0.0439387
181	0xbe098232	-0.13428572
182	0xbe118ea7	-0.14214574
183	0xbe2c40ad	-0.16821547
184	0xbe1603a4	-0.14649826
185	0x3d584e0c	0.052808806
186	0x3d54ef73	0.05198617
187	0x3cd4ca27	0.0259753
188	0xbde14916	-0.11000268
189	0x3dc8da67	0.09807282
190	0x3c363cba	0.011122877
191	0xbda1bc56	-0.0789725
192	0x3d3150e8	0.04329005
193	0x3dff3a3e	0.12462281
194	0x3e3c374a	0.18380466
195	0xbb1016c5	-0.0021986228
196	0xbe1fb530	-0.15596461
197	0xbcb6f3cd	-0.02233305
198	0x3c9ae124	0.018906184
199	0xbccb5869	-0.02482243
200	0xbda8bcc0	-0.08239126
201	0x3db70e99	0.08938331
202	0x3d773b88	0.060359508
203	0x3dce4a2a	0.100727394
204	0x3e354552	0.17702225
205	0x3d399d83	0.04531623
206	0x3d057492	0.032581873
207	0xbd8d0579	-0.068858095
208	0xbe06388f	-0.13107513
209	0xbdac1546	-0.08402495
210	0xbe176cae	-0.14787552
211	0xbe0f50e8	-0.13995707
212	0x3d92c377	0.07166188
213	0x3dc1e459	0.09467382
214	0xbca73746	-0.020412099
215	0x3d328c87	0.04359105
216	0xbe08d2fa	-0.13361731
217	0x3cf4ae30	0.029868215
218	0xbd735c6f	-0.059414323
219	0xbca10ad6	-0.019658487
220	0xbe00c428	-0.12574828
221	0xbdc667af	-0.09687745
222	0xbbd5dd6c	-0.0065266397
223	0xbda12427	-0.07868224
224	0x3d8e8baf	0.06960236
225	0xbe11ac8b	-0.14225976
226	0xbde52854	-0.111893326
227	0x3c8fafec	0.01753994
228	0x3dea5a9e	0.11443065
229	0xbd388d21	-0.045056466
230	0xbd703886	-0.058647655
231	0x3daaef07	0.08346372
232	0xbcaaa8f4	-0.020832516
233	0x3e19f721	0.15035678
234	0xbdc53f7e	-0.09631251
235	0xbd5c7108	-0.053818733
236	0x3e36c20c	0.1784746
237	0x3ccf8b10	0.025334865
238	0xbbd4683e	-0.006482153
239	0x3dd6e386	0.104926154
240	0x3dace8ea	0.08442862
241	0x3d809232	0.062778845
242	0x3ac30753	0.0014879502
243	0xbd1a1b8e	-0.037623934
244	0xbdca7be8	-0.098869145
245	0xbca84ff5	-0.020545939
246	0xbd8eb565	-0.06968192
247	0xbe03c539	-0.12868203
248	0x3e122ed3	0.14275675
249	0xbd90d66b	-0.07072147
250	0x3d57f480	0.052723408
251	0x3e072d99	0.13200988
252	0x3e87b36f	0.26504084
253	0xbd865491	-0.065590985
254	0xbd9aa5f4	-0.07551184
255	0xbe0fa024	-0.14025933

dest_lstm_obs.bias_ih_l0 f4 [128]
0	0xbe3f6594	-0.18691093
1	0x3e289219	0.16461982
2	0xbe359062	-0.17730859
3	0xb8e36ec0	-0.00010844832
4	0xbe08f5ce	-0.13375017
5	0xbdc6094c	-0.09669742
6	0x3d102cdc	0.03519903
7	0x3d83efbe	0.064422116
8	0xbe58a654	-0.21157199
9	0xbe47e668	-0.19521487
10	0x3dd95ae0	0.10613036
11	0xbd330136	-0.043702327
12	0x3d459074	0.048233464
13	0x3ab3cbd6	0.0013717364
14	0x3cf12c7c	0.029440157
15	0x3de337e4	0.11094645
16	0x3c48a834	0.012247134
17	0x3d926d03	0.071496986
18	0xbd6f0b89	-0.05836061
19	0x3c6eaa67	0.014566994
20	0x3c631212	0.013859289
21	0xbe0036cc	-0.12520903
22	0xbe121712	-0.14266613
23	0xbd2053be	-0.039142363
24	0xbda45f07	-0.080259375
25	0x3d99c1ca	0.075076655
26	0x3e341d80	0.17589378
27	0x3dcceb0f	0.10005771
28	0xbd015f2c	-0.031584904
29	0x3e036676	0.12832054
30	0x3c86e316	0.016465705
31	0xbe02b970	-0.12766051
32	0x3d2e811e	0.042603604
33	0x3db5a625	0.0886958
34	0xbe05a19d	-0.13049932
35	0x3dc972c2	0.098363414
36	0xbde6120d	-0.11233912
37	0x3d6002e3	0.054690253
38	0xbde271d6	-0.11056869
39	0x3de46613	0.111522816
40	0x3e087e08	0.13329327
41	0x3d61bdc0	0.0551126
42	0xbd3b396f	-0.04570907
43	0xbd905192	-0.07046808
44	0x3da460df	0.08026289
45	0x3d615102	0.055008896
46	0x3db26828	0.087112725
47	0xbe088c5a	-0.1333479
48	0xbe3caff4	-0.18426496
49	0x3c902f71	0.017600747
50	0xbd249850	-0.04018432
51	0x3e0df2cc	0.13862151
52	0xbd2a3747	-0.041556623
53	0x3d29ec52	0.04148514
54	0x3c417e07	0.011809832
55	0xbe107dad	-0.14110442
56	0xbc5ee9c5	-0.01360554
57	0x3daacab6	0.08339445
58	0x3db3f92f	0.087877624
59	0x3ce4421a	0.02786355
60	0xbd741c31	-0.059597198
61	0xbe5a5563	-0.21321635
62	0x3dbd5234	0.092441946
63	0xbda495cd	-0.08036385
64	0x3e29e86c	0.16592568
65	0x3cacdbc3	0.021100884
66	0x3e08a173	0.13342838
67	0x3def0d3e	0.116724476
68	0xbdf7adee	-0.12093721
69	0xbd8e9f2a	-0.06963952
70	0xbd12b6c5	-0.035818834
71	0x3df85c3c	0.12126967
72	0x3c341fa6	0.010993874
73	0xbde134a2	-0.10996367
74	0x3dc41ea2	0.09576155
75	0x3dc45d19	0.095880695
76	0xbc9a475f	-0.01883286
77	0xbe2a4a20	-0.16629839
78	0x3e075741	0.13216878
79	0xbdb51f0c	-0.08843812
80	0x3c282948	0.0102637485
81	0xbd854345	-0.06506971
82	0xbe40c843	-0.18826394
83	0xbd37c8cd	-0.044869233
84	0x3e483f2f	0.19555353
85	0x3e1b5daf	0.15172456
86	0x3bc1f4ca	0.0059190737
87	0x3e07aa6d	0.13248606
88	0x3be44aaa	0.0069669085
89	0x3e7d1dba	0.24718371
90	0xbdc9fe14	-0.09862915
91	0xbe1d6882	-0.15371898
92	0xbdc10da3	-0.09426429
93	0xbe1c2b9c	-0.1525101
94	0xbe256e36	-0.16155323
95	0x3c7a14f6	0.015263787
96	0xbe16835d	-0.14698549
97	0xbe506709	-0.20351805
98	0xbc3d5da3	-0.011557969
99	0xbc74efc7	-0.0149497455
100	0x3dfa1c95	0.12212483
101	0x3e02c268	0.12769473
102	0xbe1ded4c	-0.15422553
103	0x3beef23c	0.00729206
104	0xbe2c4b4d	-0.168256
105	0xbe4c7704	-0.19967276
106	0xbd90bc4f	-0.07067167
107	0x3deb5db9	0.114924856
108	0x3cf60568	0.030031875
109	0x3c6364ba	0.013878996
110	0x3e37b6dd	0.1794085
111	0x3bb4c565	0.0055166953
112	0x3c9cc261	0.019135656
113	0x3da06d65	0.07833365
114	0xbcdd98b3	-0.027050352
115	0x3d778547	0.060429838
116	0x3e414f34	0.1887787
117	0x3d7e5f4a	0.062102593
118	0x3da1face	0.07909165
119	0x38200190	3.8148428e-05
120	0xbe04a058	-0.12951791
121	0x3d610310	0.05493456
122	0x3daea5e3	0.08527734
123	0x3d7fea3c	0.062479243
124	0x3dd6a894	0.104813725
125	0x3d686af2	0.056742616
126	0x3db812a6	0.08987932
127	0x3db947b5	0.0904688

dest_lstm_obs.bias_hh_l0 f4 [128]
0	0xbde5f3de	-0.112281546
1	0xbd6aca54	-0.05732186
2	0xbdbca47e	-0.09211062
3	0x3d9edc57	0.0775687
4	0xbe00e097	-0.12585674
5	0x3d1b730e	0.03795152
6	0xbcd31db8	-0.025771007
7	0xbdbd362c	-0.09238848
8	0xbdd63bd4	-0.1046063
9	0x3e08b838	0.13351524
10	0xbcebe9cc	-0.028798006
11	0x3d8406b2	0.064465895
12	0xbdcf1e66	-0.1011322
13	0xbe1bae94	-0.15203315
14	0xbd0f0eb5	-0.034926135
15	0xbe49b453	-0.19697694
16	0x3db44a24	0.08803204
17	0xbe1b60b8	-0.15173614
18	0x3e880fbd	0.26574507
19	0xbda8765d	-0.08225701
20	0x3e1871fd	0.14887233
21	0x3c959aaa	0.018262226
22	0x3c0d8ff5	0.008640279
23	0x3db9568f	0.09049713
24	0x3e08de09	0.1336595
25	0x3d393a1c	0.045221433
26	0xbe0c3249	-0.13691057
27	0x3cbdbcd1	0.023161324
28	0xbb9b529c	-0.0047400724
29	0x3da4234e	0.08014546
30	0xbe1aebd8	-0.1512903
31	0x3cb2578e	0.021770265
32	0x3df597a4	0.11991814
33	0xbcee926a	-0.02912255
34	0xbe6be6b8	-0.23037231
35	0x3e11b95b	0.14230864
36	0xbe5ca311	-0.2154658
37	0xbdfa1d40	-0.1221261
38	0x3d3497c2	0.04409004
39	0xbc829736	-0.015941244
40	0xbe13250e	-0.14369604
41	0xbe47ec72	-0.1952379
42	0xbcece512	-0.028917823
43	0xbdd6be32	-0.104854956
44	0xbe5866b8	-0.21132934
45	0xbd702ff9	-0.0586395
46	0xbe2da98e	-0.16959211
47	0xbdad6797	-0.08467024
48	0x3d10624a	0.035249986
49	0x3dcc60f4	0.0997943
50	0x3d934f18	0.0719282
51	0x3d71bbab	0.059016865
52	0xbda48baf	-0.08034455
53	0xbe35e4ad	-0.17763014
54	0x3d8dfa3e	0.069324955
55	0xbd2295ee	-0.039693765
56	0xbc8fadce	-0.017538931
57	0xbc2547b7	-0.010087899
58	0xbd8b425f	-0.06799769
59	0x3d5c1eeb	0.053740423
60	0xbd5c4747	-0.053778913
61	0x3d6bf63a	0.057607867
62	0xbc164023	-0.009170565
63	0x3d85526a	0.0650986
64	0xbe04d8e0	-0.12973356
65	0x3e25ec12	0.16203335
66	0xbda37d42	-0.079828754
67	0xbcb32483	-0.021867996
68	0xbe23ae30	-0.15984416
69	0xbe0f2f6c	-0.13982934
70	0xbdf78aae	-0.12086998
71	0x3cc88e65	0.024481962
72	0x3df0ff9c	0.117675036
73	0xbe218d98	-0.1577667
74	0xbe536fdc	-0.2064814
75	0x3cae5a51	0.0212833
76	0x3d678ad4	0.05652888
77	0xbe2c99b3	-0.16855507
78	0x3df4f411	0.119606145
79	0x3d4a9adf	0.049464103
80	0xbdef1e04	-0.11675647
81	0xbc928142	-0.0178839
82	0xbdf189b3	-0.11793842
83	0xbbf31fe3	-0.0074195727
84	0x3e11cc3b	0.14238064
85	0xbda9c329	-0.08289177
86	0x3d28a93b	0.041177016
87	0xbd0fee43	-0.035139333
88	0xbde32ea4	-0.1109288
89	0x3e426a28	0.18985808
90	0xbd4d5f31	-0.05013961
91	0x3dbcc99b	0.09218141
92	0xbe2b0182	-0.16699794
93	0xbe159b70	-0.14610076
94	0xbe0e2969	-0.13882984
95	0x3cb5e29c	0.022202782
96	0xbd081e6e	-0.033232145
97	0xbd52b8e8	-0.05144587
98	0xbd228e49	-0.039686475
99	0xbda7e04e	-0.081970796
100	0x3dedd212	0.11612333
101	0xbdb9c8dc	-0.09071514
102	0x3d7376da	0.059439518
103	0x3a031639	0.0005000565
104	0xbddcfe85	-0.10790733
105	0x3df000ba	0.117188886
106	0x3d3d0c45	0.04615428
107	0xbd96fec3	-0.07372811
108	0x3dd258ec	0.10270867
109	0xbdd5aa3a	-0.10432859
110	0xbd80c8d5	-0.06288306
111	0x3caaf80d	0.020870233
112	0xbe42026a	-0.18946233
113	0xbdd37f76	-0.103270456
114	0x3e3e347a	0.18574706
115	0x3dd194d1	0.102334626
116	0xbdfbfa7c	-0.123036355
117	0xbdcbbf6a	-0.09948619
118	0xbddaadc4	-0.106776744
119	0xbda59b32	-0.08086242
120	0x3dfa4a47	0.122211985
121	0xbe279ae4	-0.1636768
122	0xbe255064	-0.16143948
123	0xbbac180c	-0.00525189
124	0x3e0d8e94	0.1382392
125	0x3b1599fc	0.0022827378
126	0xbe14c9f4	-0.14530164
127	0xbb252254	-0.0025197463
