src/do_tp_federated_federated_round_2.pt (torch, 157077 bytes, 26 tensors)

linear_enc.weight f4 [64, 2]
0.6168705 -0.38505152 0.32510442 0.62132215 -0.6717114 0.12394444 0.35253733 0.54370326
0.18508139 0.660661 0.011283172 -0.78459084 0.089136176 -0.570623 0.24923041 0.60925055
0.49125367 0.5088137 0.36064243 0.24271162 0.18206975 -0.5048904 0.48933595 0.13362849
0.2438825 -0.43268362 -0.66310227 0.49248487 -0.20131318 -0.60029316 -0.21540867 0.43864253
-0.37767115 -0.14585076 -0.724221 0.011442806 -0.19425432 0.5610718 0.3049142 0.1997036
-0.6533423 0.48143205 -0.0488108 -0.21112902 -0.37331867 -0.6607822 0.7099563 0.22734869
0.33596966 0.47906202 -0.11370495 -0.55083656 0.39977533 -0.49973118 0.29864353 0.18541321
0.055865556 -0.22016276 0.7246339 0.40202597 0.14482215 -0.13076267 0.29522312 0.66403896
-0.49237758 -0.28609917 0.20523709 -0.67880636 -0.42938814 -0.6900422 -0.53086245 0.60324866
0.12081058 -0.8502424 -0.1371339 0.042953193 0.03786296 -0.48272455 0.1583697 -0.56467843
0.7409835 0.16314241 0.23378883 -0.47615516 -0.09888772 -0.67466074 -0.06380322 0.30661723
0.72988033 0.31207615 -0.3966114 -0.82067966 0.2530221 0.5299138 0.18449442 -0.2930086
0.5910435 0.47461164 0.2594381 -0.7073471 0.68732154 -0.6324533 -0.45541924 0.8415261
0.08622998 -0.61566794 -0.3524304 -0.6772332 -0.6493044 0.54464424 0.5192148 -0.22383694
-0.34045383 0.5169476 -0.5216342 -0.010969851 0.19966221 -0.65154696 0.023136836 0.36183137
0.4280073 0.6412463 -0.59586936 0.49040058 -0.14620085 0.11681794 -0.689612 -0.6244049
00000000: 3aeb 1d3f 7925 c5be 1674 a63e f80e 1f3f
00000010: 47f5 2bbf 95d6 fd3d c67f b43e 2330 0b3f
00000020: fa85 3d3e 1421 293f 0edd 383c f2da 48bf
00000030: 078d b63d 5914 12bf 4236 7f3e d8f7 1b3f
00000040: 9a85 fb3e 9d41 023f 20a6 b83e 6589 783e
00000050: 7e70 3a3e 7f40 01bf 3e8a fa3e e8d5 083e
00000060: 56bc 793e b588 ddbe 12c1 29bf fa26 fc3e
00000070: 0b25 4ebe d0ac 19bf 1794 5cbe c195 e03e
00000080: 1d5e c1be e759 15be 8c66 39bf 9b7a 3b3c
00000090: 9bea 46be 67a2 0f3f b71d 9c3e 1a7f 4c3e
000000a0: 7141 27bf 437e f63e d5ed 47bd 3532 58be
000000b0: a023 bfbe 0629 29bf b2bf 353f 18ce 683e
000000c0: 3704 ac3e 9e47 f53e 24de e8bd a003 0dbf
000000d0: 5aaf cc3e c4dc ffbe cee7 983e f6dc 3d3e
000000e0: 48d3 643d 5972 61be 9b81 393f 59d6 cd3e
000000f0: 424c 143e a6e6 05be 7c27 973e 75fe 293f
00000100: ea18 fcbe 977b 92be ac29 523e 41c6 2dbf
00000110: c3d8 dbbe 9ba6 30bf 9ae6 07bf 816e 1a3f
00000120: 8a6b f73d 7ca9 59bf d46c 0cbe b0ef 2f3d
00000130: 3116 1b3d ac27 f7be ab2b 223e c48e 10bf
00000140: 18b1 3d3f ce0e 273e 5766 6f3e 9cca f3be
00000150: a585 cabd 91b6 2cbf 43ab 82bd effc 9c3e
00000160: 70d9 3a3f 72c8 9f3e a610 cbbe 1018 52bf
00000170: 1d8c 813e 6ea8 073f 1bec 3c3e 3905 96be
00000180: a04e 173f 4c00 f33e 12d5 843e b314 35bf
00000190: 4ef4 2f3f 76e8 21bf b62c e9be 416e 573f
000001a0: 5899 b03d 6a9c 1dbf c271 b4be 285f 2dbf
000001b0: d038 26bf ce6d 0b3f 43eb 043f 8335 65be
000001c0: f74f aebe ae56 043f d289 05bf e4ba 33bc
000001d0: 4074 4c3e c8cb 26bf 7689 bd3c f641 b93e
000001e0: c623 db3e b828 243f e58a 18bf c915 fb3e
000001f0: adb5 15be 3e3e ef3d 698a 30bf 00d9 1fbf

linear_enc.bias f4 [64]
-0.47015688 -0.43747044 -0.3412968 0.087504014 0.704476 -0.025074907 -0.71477133 0.6968412
0.58594763 -0.68721485 -0.24526313 0.042859063 0.34450942 0.07960829 -0.29646593 -0.7209034
0.5340105 0.49730784 -0.37235862 -0.31182495 0.49202877 0.07178972 -0.50817204 0.08317683
-0.0019134792 -0.5813085 0.084429525 0.27039763 0.2509085 0.529173 -0.6572169 0.17218451
0.6022306 -0.17847912 -0.04878719 -0.29885763 0.46678567 0.71011204 0.6426898 -0.6652306
0.31992882 -0.57445145 -0.19831869 0.5479327 -0.6256724 0.51680744 -0.4183731 -0.07702167
0.2314523 -0.6636681 0.55844665 0.67511904 0.5686565 0.5821079 -0.21356948 0.5871263
-0.3281431 0.10588788 -0.33617353 0.482913 0.59617406 0.068547666 -0.029071264 -0.25670338
00000000: 67b8 f0be 20fc dfbe 74be aebe 4e35 b33d
00000010: 8a58 343f e469 cdbc 41fb 36bf 2f64 323f
00000020: aa00 163f 50ed 2fbf 4226 7bbe fc8c 2f3d
00000030: 8a63 b03e ac09 a33d 62ca 97be 208d 38bf
00000040: eab4 083f 229f fe3e caa5 bebe 85a7 9fbe
00000050: 32eb fb3e 7d06 933d 9017 02bf 9d58 aa3d
00000060: b5cd faba a2d0 14bf 63e9 ac3d 8f71 8a3e
00000070: 1477 803e e277 073f 5e3f 28bf 2351 303e
00000080: c92b 1a3f 3bc3 36be 14d5 47bd de03 99be
00000090: 88fe ee3e e7c9 353f 5287 243f 8d4c 2abf
000000a0: b6cd a33e 400f 13bf 0e14 4bbe 5145 0c3f
000000b0: 112c 20bf 7e4d 043f 0035 d6be 8abd 9dbd
000000c0: d501 6d3e 27e6 29bf 5cf6 0e3f 9ad4 2c3f
000000d0: 7993 113f 0605 153f f5b1 5abe e94d 163f
000000e0: 5f02 a8be bfdb d83d f01e acbe 5f40 f73e
000000f0: dd9e 183f b862 8c3d dc26 eebc a06e 83be

encoder_lstm.weight_ih_l0 f4 [128, 64]
-0.0529123 -0.02905843 -0.13874707 -0.18781427 0.064104594 0.026231442 -0.15274222 0.10518827
0.1973088 -0.09893095 0.12863739 -0.16252777 -0.0752634 0.10812344 0.098196104 -0.064777575
-0.01062176 0.14909169 -0.09018473 -0.14184962 0.11413642 0.016972952 -0.2142595 0.15330625
-0.28320837 0.0050723697 0.1938787 -0.09181008 0.23146196 0.11966197 -0.2227297 -0.1339343
-0.040788855 0.10338015 0.17743927 0.018977476 0.27872252 0.04844432 0.0561034 0.035118733
-0.12344512 -0.01833872 0.022115778 0.20488906 -0.24236712 0.14884384 -0.14865172 0.14186518
0.15938437 0.050754998 0.120905235 -0.068791986 0.17530757 0.20255083 0.07573336 -0.043957897
-0.035592347 0.17338265 0.09329868 0.15988082 -0.015417143 -0.083158314 0.061033737 0.17125684
-0.07027909 0.06327646 -0.0042873397 0.15654413 -0.057064112 -0.11341398 0.17393167 -0.15362598
0.119244106 0.014394017 0.13430315 0.17685379 -0.08659536 -0.012093579 0.0022580265 -0.05355195
0.10590176 -0.1288389 0.15533301 -0.079837374 -0.18766855 0.12494396 -0.07180619 -0.002338947
0.030803697 0.0898259 -0.09815189 -0.06519921 -0.061085146 -0.15131563 -0.026426848 0.054299884
0.016266936 -0.01069425 0.07292707 -0.04960724 0.08638848 -0.112462655 0.12855817 0.08969569
-0.069883786 -0.081553146 -0.056935653 0.08802164 -0.030548703 0.09898418 0.114419624 -0.060043983
-0.04776094 0.17191225 0.10077303 0.07336235 -0.15072791 -0.09584388 -0.02794845 0.17135154
0.1371761 0.05627002 -0.119239055 -0.08874561 0.143023 -0.101564184 -0.10204798 0.04533791
-0.08690367 0.12248434 -0.08455073 0.12563778 -0.08973603 -0.054658405 -0.18369095 -0.114531875
0.08130699 0.11656994 0.0061650285 -0.16883817 0.18668814 0.02171743 -0.1709417 -0.07884052
-0.00779434 0.1984526 -0.039194956 0.03421845 -0.0690997 0.040806115 -0.011393893 -0.0247712
-0.14192119 -0.16351388 -0.15808505 0.01401791 -0.022284744 -0.0972465 0.035585728 0.018890815
0.051274605 0.038068432 0.045906093 0.043564696 0.19655149 -0.05636719 -0.018995943 0.07080875
-0.08647732 -0.06090036 -0.16384976 0.13500725 -0.12269552 -0.04909713 -0.10012075 0.102108285
-0.16633996 -0.09577876 0.12906596 -0.070525095 0.10024119 0.18411939 0.018764006 -0.14477602
0.057576302 -0.060124032 -0.12136863 -0.13793734 0.11852847 0.13036886 -0.008416654 0.003120735
-0.009427685 -0.15276705 0.1589089 0.13479482 -0.03767381 0.15129472 0.11389332 0.1496504
-0.16891769 0.15926863 0.03578497 0.078474864 -0.07855281 -0.15646978 0.062181264 0.17218918
-0.13284099 -0.11436728 0.12974809 -0.0011737968 -0.1201282 -0.10765061 -0.069863364 -0.12137086
-0.11103836 0.055996813 0.043427333 0.024414107 -0.15381788 0.07253715 -0.114062816 0.069949694
-0.116619274 0.15547499 0.16931267 0.06047769 -0.15124425 -0.16125834 0.0105902 0.14676744
-0.037990995 -0.067013785 -0.030962553 -0.12906803 -0.11385385 0.13618065 0.12666437 -0.09920336
-0.20801456 0.0011912937 -0.080402896 -0.05685326 -0.1256379 -0.045906097 0.043129165 0.09864102
-0.15799105 -0.1271965 0.16873106 -0.1057196 -0.07194667 -0.020292219 -0.12140941 0.18474528
00000000: 91ba 58bd f20b eebc b613 0ebe 6252 40be
00000010: 4549 833d 52e3 d63c 7568 1cbe f36c d73d
00000020: 510b 4a3e 4f9c cabd 85b9 033e ae6d 26be
00000030: b323 9abd d26f dd3d 0a1b c93d 1baa 84bd
00000040: e406 2ebc 7eab 183e c6b2 b8bd 0741 11be
00000050: 5bc0 e93d dc0a 8b3c d866 5bbe 50fc 1c3e
00000060: b000 91be 1f36 a63b 2388 463e ec06 bcbd
00000070: 5d04 6d3e 5611 f53d 4113 64be 1326 09be
00000080: 3712 27bd f9b8 d33d a4b2 353e a776 9b3c
00000090: b8b4 8e3e 8d6d 463d aecc 653d a9d8 0f3d
000000a0: ccd0 fcbd 153b 96bc 262c b53c 70ce 513e
000000b0: 162f 78be 856a 183e 2838 18be 1b45 113e
000000c0: a835 233e 79e4 4f3d 2a9d f73d d0e2 8cbd
000000d0: d483 333e 7c69 4f3e 181a 9b3d 320d 34bd
000000e0: 48c9 11bd 398b 313e 6113 bf3d ccb7 233e
000000f0: 2f98 7cbc e84e aabd 83fe 793d f45d 2f3e
00000100: 7cee 8fbd 1797 813d d07c 8cbb 1b4d 203e
00000110: 0fbc 69bd 9745 e8bd 251b 323e 2150 1dbe
00000120: 4136 f43d e2d4 6b3c c486 093e 2919 353e
00000130: e858 b1bd 2624 46bc 66fb 133b 4a59 5bbd
00000140: 06e3 d83d 58ee 03be 9e0f 1f3e c781 a3bd
00000150: 2f2c 40be 9ee2 ff3d 200f 93bd 0549 19bb
00000160: 0958 fc3c a4f6 b73d dc03 c9bd 2a87 85bd
00000170: 6b34 7abd 7cf2 1abe 1e7d d8bc 8e69 5e3d
00000180: 3d42 853c f036 2fbc ca5a 953d f630 4bbd
00000190: 72ec b03d d252 e6bd c1a4 033e 60b2 b73d
000001a0: 3b1f 8fbd 5605 a7bd 5c35 69bd b144 b43d
000001b0: 4641 fabc 38b8 ca3d d654 ea3d aef0 75bd
000001c0: faa0 43bd c409 303e 1762 ce3d 003f 963d
000001d0: 6b58 1abe cc49 c4bd 26f4 e4bc c776 2f3e
000001e0: e477 0c3e 647b 663d 9b33 f4bd 42c0 b5bd
000001f0: 9f74 123e e200 d0bd 88fe d0bd 3fb4 393d
00000200: 8dfa b1bd 12d9 fa3d ef28 adbd 31a7 003e
00000210: 86c7 b7bd 7ee1 5fbd 7b19 3cbe b08f eabd
00000220: 4784 a63d 38bc ee3d 0204 ca3b eae3 2cbe
00000230: 2d2b 3f3e c0e8 b13c 570b 2fbe 2377 a1bd
00000240: aa67 ffbb 2937 4b3e e48a 20bd a528 0c3d
00000250: 2584 8dbd 5024 273d 73ad 3abc f9ec cabc
00000260: ca53 11be 2f70 27be 0ce1 21be 60ab 653c
00000270: 7f8e b6bc 2c29 c7bd 57c2 113d e9c0 9a3c
00000280: 5205 523d a5ed 1b3d 0708 3c3d e570 323d
00000290: cb44 493e 48e1 66bd 619d 9bbc 2e04 913d
000002a0: 051b b1bd a872 79bd 3bc8 27be 573f 0a3e
000002b0: ca47 fbbd 121a 49bd 1c0c cdbd 261e d13d
000002c0: 0655 2abe a827 c4bd de29 043e 766f 90bd
000002d0: 414b cd3d cb89 3c3e f9b6 993c 2a40 14be
000002e0: 21d5 6b3d 9e44 76bd 1e90 f8bd 723f 0dbe
000002f0: 0ebf f23d 6a7f 053e 01e6 09bc 3f85 4c3b
00000300: 9476 1abc f76e 1cbe 04b9 223e a707 0a3e
00000310: da4f 1abd 01ed 1a3e e740 e93d f43d 193e
00000320: c2f8 2cbe 5117 233e 4393 123d 6eb7 a03d
00000330: 4ce0 a0bd 9d39 20be c8b1 7e3d 5c52 303e
00000340: 7807 08be 6439 eabd afdc 043e 16da 99ba
00000350: c605 f6bd ec77 dcbd 8614 8fbd 4991 f8bd
00000360: 1468 e3bd ea5c 653d dce0 313d 1800 c83c
00000370: 6f82 1dbe 5b8e 943d c499 e9bd c941 8f3d
00000380: 16d6 eebd d634 1f3e 4d60 2d3e 74b7 773d
00000390: c6df 1abe e820 25be 8582 2d3c 344a 163e
000003a0: 729c 1bbd 863e 89bd 2ea5 fdbc 692a 04be
000003b0: 352c e9bd f172 0b3e 4eb4 013e 222b cbbd
000003c0: c501 55be 2f25 9c3a 46aa a4bd f7de 68bd
000003d0: 39a7 00be 0808 3cbd 35a8 303d 4e04 ca3d
000003e0: 68c8 21be cd3f 02be d6c7 2c3e 8583 d8bd
000003f0: c758 93bd de3b a6bc 7fa5 f8bd de2d 3d3e

encoder_lstm.weight_hh_l0 f4 [128, 32]
0.09621993 -0.2375333 -0.19167349 -0.21526667 -0.062981196 -0.017344933 0.08758323 -0.04000263
-0.005928916 -0.1289824 -0.1689099 0.16561666 -0.080035605 -0.009495995 -0.101270005 -0.087601125
-0.0035956833 0.005208549 0.025922688 -0.014778072 0.044530652 0.055004675 0.26193482 -0.03976128
0.084411904 -0.2333485 0.12642948 0.14586878 0.2044659 0.27948758 -0.23875949 0.22115546
0.096432924 0.008906973 0.08770972 0.06508058 0.11232445 0.12828252 0.17454246 0.1856375
0.08039892 -0.0058093285 0.034338135 -0.03902495 0.061125793 0.03886415 -0.060073525 0.08638268
0.16641635 0.14234455 -0.04062812 -0.075477585 -0.16430221 -0.14689884 -0.04397679 0.13358873
0.021449305 -0.07370819 -0.11857151 -0.17162327 -0.20183107 -0.18029079 0.09235341 -0.053122103
-0.039670065 -0.039150346 0.038286325 -0.15604867 -0.11540872 -0.018418329 -0.10016034 -0.11985926
0.114628986 -0.04432527 -0.13820061 0.15491828 0.052914396 -0.043828774 -0.04134728 -0.1717632
0.068016045 0.006593355 0.0027181995 -0.027231827 0.011158817 0.024940506 -0.03140743 0.1588361
-0.03449458 0.01881184 0.09494742 0.0025469847 -0.0012629186 0.048633676 -0.124924526 0.06848128
-0.130437 0.120044135 0.08917748 0.017062591 -0.091219835 -0.052091107 -0.13283333 0.08129971
-0.02808908 -0.17023095 0.02128157 0.0681669 -0.13741376 -0.08792666 0.18373242 -0.14784136
-0.16924389 0.18723312 -0.031896174 0.11060802 0.019061295 0.036388107 -0.010317918 -0.14727393
0.08080525 -0.008305813 0.14186965 0.15776013 -0.111034036 0.14909156 0.17483635 0.073643774
0.19455986 0.16278823 -0.061424658 0.16269295 -0.0046751588 0.10017005 -0.14318423 0.085492276
0.07264416 -0.11678755 0.17740373 -0.16292742 -0.13116372 -0.13751456 -0.14552718 0.06669505
0.048237197 0.010262834 -0.08226161 0.19787186 0.1967677 -0.17798539 -0.14360784 0.039523665
0.11720234 0.0027991994 -0.074531294 0.010734417 -0.11382047 0.036112905 -0.095649354 -0.13908638
-0.0034050262 -0.064094946 -0.08479326 -0.19414026 0.15484613 0.05371942 0.16685756 -0.042318292
0.10859375 0.11657503 0.09021145 -0.057193708 0.06272259 0.004726124 -0.099302694 0.11850886
0.06466411 -0.01614214 0.17339979 0.15860909 0.14336246 0.031192645 -0.08990155 0.055367798
-0.06730806 0.021435361 -0.06641814 -0.010021044 0.1292711 0.05750788 0.041513927 -0.18824455
0.067626044 0.0246178 0.07067471 0.14603284 -0.111834705 0.10943414 -0.0870557 -0.0407265
-0.16916849 -0.08770117 0.08755567 -0.037845477 0.14852618 0.0021135448 -0.19907567 -0.09798013
-0.16133675 0.09024066 0.13306543 0.08582399 0.13733822 -0.18699482 0.12968218 -0.07585094
0.105595455 -0.023421781 -0.03348851 -0.04756137 0.00097186235 -0.14350367 -0.01903788 0.12845682
0.05838768 -0.09524021 0.08417395 -0.06946766 -0.035181627 0.015498171 0.12899996 0.057821136
-0.106092945 -0.16532612 -0.02870139 0.10501036 0.0713513 -0.23823254 0.050267436 0.103164464
-0.055057473 0.12762393 -0.105771326 0.082394555 -0.15443285 -0.15596852 -0.002711795 -0.20164743
0.11628242 0.09902249 0.12764512 0.11901231 0.126589 0.1188421 -0.13850132 -0.15926757
00000000: f40e c53d ee3b 73be 0e46 44be de6e 5cbe
00000010: 49fc 80bd f616 8ebc d65e b33d ccd9 23bd
00000020: 5a47 c2bb f613 04be b8f6 2cbe 6a97 293e
00000030: b5e9 a3bd 1795 1bbc a666 cfbd 3868 b3bd
00000040: 8ea5 6bbb 7aac aa3b d15b d43c ba1f 72bc
00000050: c665 363d 954c 613d 521c 863e b9dc 22bd
00000060: 26e0 ac3d e9f2 6ebe bb76 013e a05e 153e
00000070: 825f 513e ff18 8f3e 5e7d 74be 9476 623e
00000080: a07e c53d 8dee 113c 27a1 b33d f848 853d
00000090: 5c0a e63d 7e5c 033e 42bb 323e c217 3e3e
000000a0: 30a8 a43d 2e5c bebb 25a6 0c3d a0d8 1fbd
000000b0: 0a5f 7a3d 0430 1f3d a80f 76bd 67e9 b03d
000000c0: 0c69 2a3e c5c2 113e ac69 26bd fe93 9abd
000000d0: d73e 28be a66c 16be 0221 34bd 7ccb 083e
000000e0: 74b6 af3c 52f4 96bd 9fd5 f2bd 03be 2fbe
000000f0: ceac 4ebe 269e 38be c923 bd3d 9096 59bd
00000100: 147d 22bd 1d5c 20bd 1fd2 1c3d 39cb 1fbe
00000110: 685b ecbd 09e2 96bc dd20 cdbd c678 f5bd
00000120: 9ac2 ea3d 6a8e 35bd 7684 0dbe e6a2 1e3e
00000130: c4bc 583d cd85 33bd c45b 29bd b1e2 2fbe
00000140: ff4b 8b3d 120d d83b d223 323b 4815 dfbc
00000150: 79d3 363c 0850 cc3c 14a5 00bd eea5 223e
00000160: 304a 0dbd 4a1b 9a3c cb73 c23d 50eb 263b
00000170: 8488 a5ba 1b34 473d 6ed8 ffbd ea3f 8c3d
00000180: 4791 05be b3d9 f53d afa2 b63d d9c6 8b3c
00000190: 77d1 babd 7c5d 55bd 7605 08be 7680 a63d
000001a0: 121b e6bc 0651 2ebe b056 ae3c 169b 8b3d
000001b0: 31b6 0cbe e512 b4bd 5a24 3c3e ba63 17be
000001c0: 454e 2dbe 0aba 3f3e 90a5 02bd 7586 e23d
000001d0: 6f26 9c3c b20b 153d 7c0c 29bc face 16be
000001e0: 397d a53d 1b15 08bc 4746 113e df8b 213e
000001f0: d065 e3bd 75ab 183e 4d08 333e 8cd2 963d
00000200: b33a 473e f5b1 263e 6c98 7bbd fb98 263e
00000210: 1332 99bb f525 cd3d e39e 12be 9316 af3d
00000220: 76c6 943d 502e efbd 53a9 353e 72d6 26be
00000230: c84f 06be 9ed0 0cbe 1405 15be 6a97 883d
00000240: 5e94 453d 7225 283c c678 a8bd ec9e 4a3e
00000250: 797d 493e cd41 36be ef0d 13be 91e3 213d
00000260: c807 f03d c672 373b dda3 98bd 68df 2f3c
00000270: b51a e9bd 20eb 133d cfe3 c3bd a96c 0ebe
00000280: dc26 5fbb 3644 83bd 17a8 adbd b4cc 46be
00000290: fc8f 1e3e e508 5c3d b5dc 2a3e f255 2dbd
000002a0: 6666 de3d e4be ee3d c8c0 b83d f343 6abd
000002b0: b474 803d 9add 9a3b 365f cbbd c6b4 f23d
000002c0: 9e6e 843d 853c 84bc b78f 313e 6c6a 223e
000002d0: 9ccd 123e b887 ff3c 4e1e b8bd 58c9 623d
000002e0: cfd8 89bd 3699 af3c 3c06 88bd 4e2f 24bc
000002f0: a55f 043e 628d 6b3d 820a 2a3d 2ec3 40be
00000300: 867f 8a3d 45ab c93c e7bd 903d a289 153e
00000310: 9809 e5bd 021f e03d 424a b2bd d5d0 26bd
00000320: 813a 2dbe ac9c b3bd 6350 b33d dc03 1bbd
00000330: 3f17 183e 6683 0a3b 7eda 4bbe cea9 c8bd
00000340: 7635 25be 18d0 b83d 4e42 083e 7dc4 af3d
00000350: 64a2 0c3e 927b 3fbe 68cb 043e bd57 9bbd
00000360: 6e42 d83d 09df bfbc 3f2b 09bd b6cf 42bd
00000370: 94c4 7e3a a0f2 12be 54f5 9bbc 2f8a 033e
00000380: ec27 6f3d 4d0d c3bd 6463 ac3d 0f45 8ebd
00000390: 9c1a 10bd 0aec 7d3c 9118 043e dbd5 6c3d
000003a0: 4247 d9bd 404b 29be 2d1f ebbc ac0f d73d
000003b0: a120 923d 3bf3 73be 3ae5 4d3d e447 d33d
000003c0: f283 61bd d9af 023e a39e d8bd 7abe a83d
000003d0: a523 1ebe 36b6 1fbe 5fb8 31bb aa7c 4ebe
000003e0: 7a25 ee3d 4ecc ca3d 67b5 023e babc f33d
000003f0: 8ca0 013e 7d63 f33d 4ad3 0dbe 0a17 23be

encoder_lstm.bias_ih_l0 f4 [128]
0.056608934 0.12277828 0.006842564 -0.13892101 -0.16384971 -0.09643538 0.0716061 0.08950331
0.07064292 0.008876821 0.17993113 0.07941137 -0.05694183 0.15345302 0.023840081 -0.12834755
0.046484377 -0.091233425 0.03222642 -0.119346075 -0.093248695 -0.15499854 -0.07148483 -0.0012431559
-0.094697416 -0.11326444 -0.10120417 -0.043092303 0.07124211 0.16802062 -0.1299397 0.11819469
0.04102948 -0.020692302 0.0024067448 -0.11166266 0.020319864 -0.01037189 -0.15919334 -0.05905527
-0.13540372 -0.11014555 -0.1722921 0.19297226 -0.12509371 0.00018324587 -0.10612689 0.13687523
-0.16895436 -0.034512937 0.05600401 -0.03258666 -0.12710331 0.04922102 0.14396404 -0.1024072
0.107618295 0.07963088 -0.10072918 -0.070529595 0.0247905 0.013351324 0.1446444 0.12671906
-0.04836718 -0.1301935 0.10350214 -0.10972041 0.03780063 0.099262275 0.05053768 -0.021570241
-0.12856 0.006153491 -0.03929804 -0.029362272 -0.13321745 -0.04675175 0.014334752 -0.09005637
-0.020044945 -0.13225362 0.11551809 -0.18470393 -0.06023539 -0.0038777299 0.1895897 -0.16285416
0.091228426 -0.11515465 -0.05641749 -0.0022041767 -0.080214515 0.049036056 0.09595749 -0.13306358
0.07268991 -0.11895358 -0.03290848 -0.06819412 0.07121876 0.105537325 -0.13341345 0.02578085
0.15614587 0.1492902 -0.023737399 0.14691062 0.15470043 0.004718803 -0.043155357 -0.13317293
0.09046371 0.02522907 -0.15436772 -0.032832205 -0.05700292 0.031629413 0.032537717 0.018497478
0.059213307 -0.12239864 0.08597664 0.09385378 0.030725893 0.11210507 0.1649353 0.16945702
00000000: c5de 673d 2e73 fb3d 9637 e03b 4f41 0ebe
00000010: 38c8 27be ea7f c5bd 38a6 923d 834d b73d
00000020: 3cad 903d 1670 113c de3f 383e 6ea2 a23d
00000030: d63b 69bd ca22 1d3e 464c c33c 8a6d 03be
00000040: 6766 3e3d 97d8 babd daff 033d b76b f4bd
00000050: 2cf9 bebd f0b7 1ebe a366 92bd 64f1 a2ba
00000060: b8f0 c1bd 30f7 e7bd 2244 cfbd 8e81 30bd
00000070: 62e7 913d 990d 2c3e ea0e 05be 0f10 f23d
00000080: 870e 283d e782 a9bc 7aba 1d3b 65af e4bd
00000090: d875 a63c dcee 29bc 9403 23be f0e3 71bd
000000a0: 46a7 0abe fd93 e1bd 576d 30be 859a 453e
000000b0: 9118 00be b025 4039 0e59 d9bd 0529 0c3e
000000c0: 5f02 2dbe 705d 0dbd 7664 653d 9779 05bd
000000d0: 5f27 02be fb9b 493d 4f6b 133e deba d1bd
000000e0: fb66 dc3d 8415 a33d 1a4b cebd d271 90bd
000000f0: 7215 cb3c 83bf 5a3c a91d 143e a4c2 013e
00000100: aa1c 46bd 7251 05be eef8 d33d 18b5 e0bd
00000110: d5d4 1a3d 054a cb3d 9900 4f3d 13b4 b0bc
00000120: 3ca5 03be 39a3 c93b fbf6 20bd 2689 f0bc
00000130: 286a 08be c37e 3fbd 4fdc 6a3c 796f b8bd
00000140: 4c35 a4bc 7e6d 07be c094 ec3d 0723 3dbe
00000150: 62b9 76bd 8321 7ebb cd23 423e 3ec3 26be
00000160: f8d5 ba3d 33d6 ebbd 0716 67bd f373 10bb
00000170: 8247 a4bd 08da 483d 5c85 c43d d241 08be
00000180: 73de 943d ef9d f3bd 0bcb 06bd 5ca9 8bbd
00000190: 24db 913d f423 d83d 899d 08be 5c32 d33c
000001a0: b4e4 1f3e 88df 183e ef74 c2bc bd6f 163e
000001b0: ca69 1e3e 30a0 9a3b acc3 30bd 7c5e 08be
000001c0: 0a45 b93d 32ad ce3c 9212 1ebe 107b 06bd
000001d0: e57b 69bd d88d 013d 4546 053d 0688 973c
000001e0: a789 723d 23ac fabd 8514 b03d 6936 c03d
000001f0: deb4 fb3c 5897 e53d cde4 283e 2486 2d3e

encoder_lstm.bias_hh_l0 f4 [128]
0.22696222 0.1022319 0.07860975 -0.16481224 -0.028607905 0.11694204 -0.1319393 0.027330779
0.13676189 -0.09404265 0.06709361 -0.075729 -0.0039337166 0.23388956 0.0013603388 -0.11140807
-0.08299121 0.015170197 -0.034008417 -0.1184354 0.15049522 0.17856967 0.14418595 0.085124806
-0.095466614 -0.11254088 -0.08362872 0.15612125 0.20166548 0.014920478 -0.05190352 0.047784317
-0.07895288 -0.017205756 0.14196843 0.1328751 0.16304545 -0.17139933 0.09055409 0.14566317
0.016971093 0.043071415 -0.1444681 0.022593547 -0.16067003 -0.13779773 -0.108457424 0.1578258
-0.055297717 -0.06525372 0.050289866 -0.012004345 -0.09306587 -0.07198173 0.11355369 -0.016080862
-0.021082513 -0.05141808 -0.014501185 0.036079958 0.09559641 -0.1297725 -0.12870091 -0.06029965
-0.16881827 -0.06973472 -0.19545893 -0.1554113 0.1838963 0.14471678 -0.07445026 -0.08891828
-0.012668654 -0.16909869 0.006412951 -0.083055064 -0.049165264 -0.094537176 -0.14083546 0.13885128
0.110654 -0.06411402 0.038580097 -0.0037923697 0.047902424 -0.0934314 -0.11168733 -0.03004102
-0.044289522 0.13653365 -0.094007306 -0.13643396 0.15873842 0.0010346712 0.011444014 -0.1687996
0.17139271 -0.098214805 0.15872835 -0.12512219 0.14086676 0.08030066 0.07546839 -0.009359652
0.10945654 0.12078057 0.13912548 0.021559026 0.11573179 -0.04507524 0.050312392 -0.083950505
0.1268978 0.050883286 -0.12856224 -0.036452726 0.09197454 0.18795124 0.08189967 0.11466284
-0.00067298627 0.0520845 0.1208049 0.21550311 0.12907094 0.11792166 0.13779432 0.1554095
00000000: c968 683e f55e d13d 26fe a03d 8ac4 28be
00000010: 205b eabc 4f7f ef3d 191b 07be cce4 df3c
00000020: 4f0b 0c3e 6f99 c0bd 6068 893d ce17 9bbd
00000030: 68e6 80bb bf80 6f3e 654d b23a ea29 e4bd
00000040: 4cf7 a9bd 6b8c 783c 694c 0bbd 428e f2bd
00000050: 6b1b 1a3e f8da 363e 7ba5 133e ea55 ae3d
00000060: 0084 c3bd d57b e6bd 8945 abbd 40de 1f3e
00000070: 6581 4e3e 0575 743c c998 54bd 7db9 433d
00000080: 0cb2 a1bd 16f3 8cbc 2c60 113e 6910 083e
00000090: 63f5 263e 4e83 2fbe 6c74 b93d ba28 153e
000000a0: f606 8b3c a76b 303d 72ef 13be 1a16 b93c
000000b0: af86 24be d91a 0dbe ed1e debd 169d 213e
000000c0: dc7f 62bd bea3 85bd bffc 4d3d dfad 44bc
000000d0: 5299 bebd 286b 93bd d68e e83d 03bc 83bc
000000e0: 3cb5 acbc c49b 52bd 6196 6dbc 94c8 133d
000000f0: 0dc8 c33d 15e3 04be 2cca 03be c4fc 76bd
00000100: b2de 2cbe 14d1 8ebd 6326 48be 2424 1fbe
00000110: 504f 3c3e a330 143e 6179 98bd ca1a b6bd
00000120: 3090 4fbc 3528 2dbe bb23 d23b c618 aabd
00000130: 8461 49bd b59c c1bd 2c37 10be 082f 0e3e
00000140: 909e e23d 364e 83bd 2a06 1e3d 6889 78bb
00000150: 5535 443d f658 bfbd 54bc e4bd 9618 f6bc
00000160: ee68 35bd 7acf 0b3e e786 c0bd 58b5 0bbe
00000170: 538c 223e ce9d 873a ac7f 3b3c cdd9 2cbe
00000180: 9281 2f3e d824 c9bd af89 223e 0820 00be
00000190: 603f 103e ac74 a43d 2c8f 9a3d 3a59 19bc
000001a0: c02a e03d ce5b f73d e976 0e3e 8e9c b03c
000001b0: ca04 ed3d d1a0 38bd 5e14 4e3d 3eee abbd
000001c0: 7ff1 013e fe6a 503d d2a5 03be 744f 15bd
000001d0: 265d bc3d 4a76 403e 04bb a73d 5ad4 ea3d
000001e0: 586b 30ba 8f56 553d 8f68 f73d d9ac 5c3e
000001f0: 2c2b 043e e980 f13d f419 0d3e ab23 1f3e

dest_lstm_obs.weight_ih_l0 f4 [128, 2]
0.09299277 0.07340398 -0.120598204 0.008191341 0.034107685 -0.14681561 0.0816206 -0.012071422
0.09541003 0.036279082 0.04401604 -0.09223263 0.12141741 -0.095931165 -0.04265949 -0.023477092
0.00022160402 -0.0770837 -0.15812033 -0.17091742 0.14294328 0.034591686 -0.111078486 -0.006355829
0.007927258 -0.11325197 -0.15389334 -0.06735701 -0.06162651 -0.095155805 0.1222038 -0.18574241
-0.0035734582 0.0062127346 0.060662214 -0.0148822265 0.035782278 -0.16883752 0.09726895 0.06499347
-0.10899593 -0.10495418 -0.10373532 0.02344172 0.11496033 0.075290814 0.07128025 0.11529603
0.18584862 -0.079525426 0.022794787 -0.11067185 -0.09061162 -0.11637395 0.07994788 -0.090018764
0.09639621 -0.043301996 -0.087031096 -0.13850409 0.12625255 0.017353646 -0.120743774 0.08493552
-0.06159887 -0.06446322 -0.058613926 -0.1396749 0.112296954 -0.1445545 0.08969831 -0.114940494
0.060148515 -0.16975683 -0.003270754 -0.05892331 -0.18929732 -0.014275587 -0.040147763 0.0026758336
-0.06764913 0.08447907 -0.12572616 0.0068122535 0.005243232 -0.1480947 0.077370964 0.058858488
-0.10887646 -0.017839542 0.07396296 0.082698174 -0.09100071 -0.011794177 0.017367324 0.045151215
0.1159454 -0.047810297 -0.21115772 -0.1186904 -0.08612859 -0.048889853 0.017787183 -0.021006556
-0.02399183 0.024609387 -0.02923474 0.08977825 -0.034809597 -0.059007477 0.0047426536 -0.1608844
-0.11409953 0.04278689 -0.15060778 0.16270678 0.018142564 0.01045535 0.081634015 0.111504026
0.00040330028 0.010212264 0.0053531025 0.12951481 -0.09346697 0.11939964 -0.13626191 0.0312858
0.093655735 -0.07704991 0.04410513 0.0604157 -0.07824531 0.04133963 0.07728948 -0.031944327
0.07690511 -0.11046028 -0.15593329 0.1352932 0.13755617 0.057047084 0.072293155 -0.04882902
-0.08146683 0.09675214 -0.065827034 -0.051804 -0.08377655 -0.07863733 -0.16431253 0.019526351
-0.10374007 0.020648245 0.08207309 -0.105115205 -0.10361673 0.042939752 0.09831454 0.050180715
0.047627367 0.09970863 -0.09341624 -0.09518759 -0.0059357043 0.033783354 0.06215345 0.06217029
0.073673606 0.014869471 -0.13494936 0.15991892 0.08269006 0.11392707 0.09735234 -0.000105949875
-0.0017894844 0.021799097 0.1198217 0.112293 -0.011842181 -0.04268053 -0.010792241 -0.07755863
0.0021373557 0.094538726 -0.04049047 -0.030243237 0.014468921 -0.023039913 -0.10535519 -0.021752864
0.050261606 -0.027838549 0.05419583 0.100865334 -0.0055701598 0.02836052 -0.11236011 0.00974182
0.059989005 -0.073888354 -0.048800338 0.12659551 0.13438535 0.0732094 0.06607166 0.027554555
0.083967686 -0.15496507 0.012489861 0.07822647 -0.017223474 0.108769104 0.005102875 -0.12582172
-0.05917271 -0.13033302 -0.030167516 -0.0014351906 -0.0864702 -0.09319285 0.09210697 0.02213983
0.022847313 -0.01112985 -0.18756327 0.11185013 -0.020812482 -0.08397678 -0.020626806 0.1443277
-0.10164142 -0.087137744 -0.049572106 0.042985648 0.031332314 0.14191991 -0.14020589 -0.043368574
0.104100294 -0.037383668 0.08180792 0.070588484 0.10673721 -0.054609463 -0.013993918 -0.002363154
0.008772644 -0.018382184 0.1272831 -0.10101715 -0.040843077 -0.0038229 0.03522843 -0.08091474
00000000: fe72 be3d d354 963d 31fc f6bd f934 063c
00000010: 80b4 0b3d d556 16be b328 a73d 37c7 45bc
00000020: 5566 c33d 6099 143d 2a4a 343d 76e4 bcbd
00000030: b1a9 f83d 8f77 c4bd b8bb 2ebd 0853 c0bc
00000040: 605e 6839 0fde 9dbd 4cea 21be fa04 2fbe
00000050: b95f 123e 03b0 0d3d 1e7d e3bd 8f44 d0bb
00000060: 54e1 013c a6f0 e7bd 3796 1dbe 79f2 89bd
00000070: 146c 7cbd 0ce1 c2bd fc45 fa3d 4233 3ebe
00000080: ae30 6abb 3294 cb3b f178 783d 95d4 73bc
00000090: 7090 123d bee3 2cbe f134 c73d 4c1b 853d
000000a0: 4239 dfbd 38f2 d6bd 2f73 d4bd da08 c03c
000000b0: 5270 eb3d 1232 9a3d 61fb 913d 5320 ec3d
000000c0: 1a4f 3e3e 3ade a2bd 22bc ba3c eca7 e2bd
000000d0: 9692 b9bd 7755 eebd b7bb a33d c25b b8bd
000000e0: 606b c53d 6f5d 31bd 5c3d b2bd 04d4 0dbe
000000f0: 5948 013e 3c29 8e3c 8348 f7bd adf2 ad3d
00000100: 194f 7cbd 4b05 84bd 2815 70bd f006 0fbe
00000110: f2fb e53d 1806 14be bfb3 b73d ec65 ebbd
00000120: 4a5e 763d bcd4 2dbe 255a 56bb 9259 71bd
00000130: 28d7 41be 27e4 69bc fb71 24bd 0a5d 2f3b
00000140: a18b 8abd 5d03 ad3d 5cbe 00be 5339 df3b
00000150: 6bcf ab3b 23a6 17be ab74 9e3d 9915 713d
00000160: 9ffa debd 3b24 92bc e479 973d a95d a93d
00000170: 955e babd 5d3c 41bc eb45 8e3c 7bf0 383d
00000180: c874 ed3d bbd4 43bd bb39 58be f413 f3bd
00000190: 3064 b0bd ba40 48bd 6db6 913c f115 acbc
000001a0: 848a c4bc a099 c93c b27d efbc a9dd b73d
000001b0: 8294 0ebd d3b1 71bd 4368 9b3b e1be 24be
000001c0: 04ad e9bd 4e41 2f3d ed38 1abe 9b9c 263e
000001d0: b79f 943c eb4c 2b3c bc2f a73d 395c e43d
000001e0: 0c72 d339 5751 273c 1469 af3b 889f 043e
000001f0: 9c6b bfbd cc87 f43d 3e88 0bbe 8a25 003d
00000200: 94ce bf3d 58cc 9dbd 95a7 343d 7476 773d
00000210: 143f a0bd be53 293d f249 9e3d 0ed8 02bd
00000220: 6d80 9d3d 0039 e2bd faac 1fbe 4d8a 0a3e
00000230: 86db 0c3e 34aa 693d 6f0e 943d f000 48bd
00000240: 15d8 a6bd fc25 c63d 53d0 86bd 6e30 54bd
00000250: 0a93 abbd 9c0c a1bd 8b41 28be baf5 9f3c
00000260: ac75 d4bd 8226 a93c f015 a83d a446 d7bd
00000270: 0235 d4bd 98e1 2f3d 2259 c93d 4b8a 4d3d
00000280: ea14 433d 0a34 cc3d 0351 bfbd b6f1 c2bd
00000290: 4c80 c2bb 6a60 0a3d 9e94 7e3d 46a6 7e3d
000002a0: 30e2 963d 159f 733c 2a30 0abe c9c1 233e
000002b0: 6859 a93d 9852 e93d aa60 c73d 6831 deb8
000002c0: 228d eaba 0594 b23c 1465 f53d dff9 e53d
000002d0: b505 42bc c8d1 2ebd f1d1 30bc 0fd7 9ebd
000002e0: e112 0c3b 859d c13d 56d9 25bd aac0 f7bc
000002f0: 0e0f 6d3c 33be bcbc 76c4 d7bd 1033 b2bc
00000300: 1ddf 4d3d ab0d e4bc 72fc 5d3d 7c92 ce3d
00000310: e385 b6bb 5254 e83c 0f1d e6bd 289c 1f3c
00000320: 08b7 753d c752 97bd dde2 47bd 41a2 013e
00000330: 509c 093e cfee 953d 9450 873d 17ba e13c
00000340: 40f7 ab3d 2aaf 1ebe 46a2 4c3c 3335 a03d
00000350: 3e18 8dbc 56c2 de3d 0536 a73b 69d7 00be
00000360: 155f 72bd 0576 05be de21 f7bc 011d bcba
00000370: 4a17 b1bd e5db bebd 94a2 bc3d 975e b53c
00000380: 4a2a bb3c f959 36bc 9610 40be ae11 e53d
00000390: f07e aabc 05fc abbd 8cf9 a8bc a4ca 133e
000003a0: 6029 d0bd 4675 b2bd 1f0c 4bbd b811 303d
000003b0: 5056 003d 7453 113e 2292 0fbe 3fa3 31bd
000003c0: 8932 d53d 9e1f 19bd e98a a73d b290 903d
000003d0: 0a99 da3d 2cae 5fbd bf46 65bc 25df 1abb
000003e0: 23bb 0f3c 3c96 96bc 8056 023e 14e2 cebd
000003f0: 124b 27bd 9e89 7abb b04b 103d a1b6 a5bd

dest_lstm_obs.weight_hh_l0 f4 [128, 32]
0.07716452 -0.1104327 -0.19239601 -0.18134078 0.19732925 0.05631236 -0.14320917 0.09563225
-0.009046425 -0.066215046 0.041529566 0.02316056 0.10015891 -0.11998372 0.10619639 0.07781601
-0.11240632 0.13385178 0.05029284 -0.13879672 0.041083977 -0.027308727 -0.07080689 -0.045281615
-0.068310045 -0.045413308 -0.09517195 0.03306205 -0.09962637 -0.032604493 -0.092857674 0.17690429
-0.15754068 -0.115106754 -0.036318492 -0.11924775 0.10681296 -0.16544385 0.058586318 -0.032693513
0.16776611 0.04506327 0.083416104 -0.05854591 -0.080027536 0.0700263 0.091316625 -0.11541082
-0.092287734 0.11027215 0.06650484 -0.11551789 -0.053816915 0.07638349 0.14797826 -0.09221399
-0.035943866 -0.11208984 0.036252618 0.027915025 -0.0062219067 -0.08793989 0.001879425 -0.15696333
0.06936673 -0.05759353 0.058607534 0.14788213 -0.05305424 -0.11288871 0.008058546 0.0037277874
0.17301838 -0.013521751 -0.039866082 -0.0573815 0.07752826 0.035329428 -0.09735006 -0.07473324
0.0011324565 -0.1498555 0.22842625 0.008524063 -0.09405047 0.08116829 -0.014404319 -0.15471053
0.017132027 0.111741394 0.14233556 -0.12539183 0.18863402 0.10196775 0.17992158 0.15541096
-0.1910237 -0.026840523 0.010540223 0.13605814 0.16264306 -0.00665639 -0.015280813 0.12550083
-0.08451395 -0.1730696 -0.12222664 0.0047570146 -0.01765851 -0.12654972 0.17889424 -0.08546997
-0.026150778 0.10399765 0.12382226 0.16221993 -0.05441555 -0.07778786 -0.13157324 0.16546197
-0.053316943 -0.0908865 -0.14379488 0.040384337 -0.059388317 -0.0013745241 0.04988823 0.05681278
-0.15972583 0.010157459 -0.035055175 -0.07374453 -0.085896805 0.06612637 0.031361923 -0.31736192
0.17331986 -0.10340389 0.06642113 -0.046414133 0.15351616 -0.10599661 -0.12886748 -0.16696674
-0.15777276 -0.04536957 0.13129735 -0.052322794 -0.21851268 0.0684084 0.051674742 0.01740368
-0.1961175 -0.019137427 0.06775637 0.015065151 0.01794884 0.08015813 -0.12486221 -0.11534434
-0.026311046 -0.22261566 0.03714448 0.03458888 0.18201546 0.12591213 0.038557775 -0.08690557
-0.17875671 -0.0690874 -0.123600766 0.116006 0.08874126 0.2103401 -0.011841349 -0.021614548
-0.02163885 0.04878406 -0.13411812 0.078534745 -0.039531037 -0.14255202 -0.14049247 -0.16368988
-0.14471264 0.055019587 0.04990174 0.02337411 -0.11013346 0.09429079 0.011653444 -0.08324038
0.043939844 0.1268724 0.18679786 0.0036850106 -0.16320199 -0.028134951 0.021817112 -0.022647697
-0.08135699 0.08488034 0.057956852 0.09663737 0.17102396 0.04225531 0.023165632 -0.06883403
-0.13063715 -0.08729442 -0.15181187 -0.13799019 0.07794626 0.088952385 -0.018673167 0.049306005
-0.13212101 0.03324523 -0.0607715 -0.021678612 -0.12548542 -0.10212312 -0.008571407 -0.082264155
0.07188059 -0.13934824 -0.11573668 0.019610353 0.115372464 -0.046021685 -0.058837328 0.08675985
-0.028621612 0.14376558 -0.09580606 -0.05449873 0.17514987 0.02275611 -0.0038759098 0.10551335
0.08363614 0.06007661 -0.005480405 -0.039101526 -0.0943256 -0.017435981 -0.070025764 -0.12721798
0.14204158 -0.069987774 0.0475745 0.13155074 0.25957304 -0.06918428 -0.07910122 -0.14024663
00000000: 6f08 9e3d 8a2a e2bd 7603 45be 66b1 39be
00000010: ae10 4a3e caa7 663d 6da5 12be d7da c33d
00000020: 7537 14bc c19b 87bd e81a 2a3d 37bb bd3c
00000030: 1d20 cd3d 06ba f5bd 7e7d d93d 005e 9f3d
00000040: 4935 e6bd 7110 093e ddff 4d3d ba20 0ebe
00000050: ac47 283d 8db6 dfbc 3403 91bd 3779 39bd
00000060: 23e6 8bbd 4e03 3abd 83e9 c2bd 126c 073d
00000070: e908 ccbd 4a8c 05bd 2a2c bebd 6626 353e
00000080: 5852 21be 17bd ebbd b3c2 14bd 2a38 f4bd
00000090: c1c0 da3d 1d6a 29be 35f8 6f3d a2e9 05bd
000000a0: e1ca 2b3e 4394 383d 10d6 aa3d d6cd 6fbd
000000b0: 7ae5 a3bd f369 8f3d 3604 bb3d 825c ecbd
000000c0: 5a01 bdbd 5dd6 e13d b133 883d a594 ecbd
000000d0: 206f 5cbd f26e 9c3d 9d87 173e b0da bcbd
000000e0: e039 13bd 5c8f e5bd a07d 143d 0dae e43c
000000f0: 23e1 cbbb d419 b4bd 0a57 f63a ffba 20be
00000100: 2510 8e3d 31e7 6bbd 740e 703d 6a6e 173e
00000110: 674f 59bd 3232 e7bd fe07 043c e54d 743b
00000120: bb2b 313e 568a 5dbc 9e4a 23bd dd08 6bbd
00000130: 23c7 9e3d 97b5 103d 785f c7bd be0d 99bd
00000140: ef6e 943a b873 19be 92e8 693e 83a8 0b3c
00000150: 889d c0bd 8f3b a63d 1800 6cbc 706c 1ebe
00000160: 7758 8c3c acd8 e43d 6ac0 113e b766 00be
00000170: 4729 413e 78d4 d03d 5d3d 383e 0d24 1f3e
00000180: b89b 43be a8e0 dbbc e6b0 2c3c d352 0b3e
00000190: e78b 263e d91d dabb 605c 7abc 4a83 003e
000001a0: a615 adbd 2839 31be f651 fabd bbe0 9b3b
000001b0: 94a8 90bc 4096 01be 0d30 373e e10a afbd
000001c0: 283a d6bc b8fc d43d 8696 fd3d fb1c 263e
000001d0: d7e2 5ebd 3e4f 9fbd 23bb 06be dd6e 293e
000001e0: de62 5abd b422 babd f73e 13be 0c6a 253d
000001f0: 2a41 73bd 6029 b4ba 9a57 4c3d 85b4 683d
00000200: 2b8f 23be 796b 263c 0496 0fbd 5f07 97bd
00000210: aaea afbd 436d 873d 5c75 003d 437d a2be
00000220: c37a 313e 6bc5 d3bd cd07 883d bf1c 3ebd
00000230: 5733 1d3e c014 d9bd d6f5 03be 54f9 2abe
00000240: 2f8f 21be 71d5 39bd d072 063e 6d50 56bd
00000250: cac1 5fbe b419 8c3d e5a8 533d 2a92 8e3c
00000260: 07d3 48be 18c6 9cbc dac3 8a3d d3d3 763c
00000270: 7209 933c f229 a43d c2b7 ffbd a739 ecbd
00000280: 438a d7bc 5cf5 63be cf24 183d 12ad 0d3d
00000290: 4362 3a3e 1cef 003e c2ee 1d3d 8cfb b1bd
000002a0: 000c 37be b27d 8dbd 6622 fdbd 8e94 ed3d
000002b0: fabd b53d 6563 573e 3802 42bc fe10 b1bc
000002c0: f543 b1bc cbd1 473d 4356 09be d3d6 a03d
000002d0: 4ceb 21bd 28f9 11be 42dd 0fbe 529e 27be
000002e0: 8d2f 14be 385c 613d c465 4c3d 107b bf3c
000002f0: a78d e1bd 881b c13d 16ee 3e3c ef79 aabd
00000300: 44fa 333d d7ea 013e f047 3f3e 3880 713b
00000310: 6c1e 27be 457b e6bc cdb9 b23c aa87 b9bc
00000320: 7e9e a6bd bed5 ad3d 2a64 6d3d d0e9 c53d
00000330: e820 2f3e e713 2d3d dac5 bd3c dbf8 8cbd
00000340: bfc5 05be 6bc7 b2bd 9274 1bbe 4d4d 0dbe
00000350: 4aa2 9f3d ab2c b63d 78f8 98bc 18f5 493d
00000360: bb4a 07be 262c 083d 89eb 78bd 5897 b1bc
00000370: 407f 00be ed25 d1bd 166f 0cbc 1c7a a8bd
00000380: 2136 933d 4eb1 0ebe 5a07 edbd e4a5 a03c
00000390: 6648 ec3d 3c81 3cbd 69ff 70bd 26af b13d
000003a0: df77 eabc 4937 133e f835 c4bd 0f3a 5fbd
000003b0: 7d5a 333e 066b ba3c fa02 7ebb 6217 d83d
000003c0: 6d49 ab3d e412 763d f894 b3bb ec28 20bd
000003d0: c82d c1bd e7d5 8ebc ab69 8fbd 6e45 02be
000003e0: 5973 113e c055 8fbd 7bdd 423d 3db5 063e
000003f0: c2e6 843e 7db0 8dbd d2ff a1bd d09c 0fbe

dest_lstm_obs.bias_ih_l0 f4 [128]
-0.18579486 0.16559611 -0.18079107 0.0012661372 -0.13051994 -0.09418588 0.038033955 0.06631374
-0.20986597 -0.19173796 0.1081575 -0.038180396 0.049138993 0.0040667583 0.023530655 0.1131593
0.012687107 0.075199395 -0.058533706 0.013899038 0.012922704 -0.124401785 -0.14146012 -0.035266362
-0.07975613 0.07678044 0.17548904 0.099261805 -0.029382706 0.130814 0.017125072 -0.12743229
0.043181613 0.09231575 -0.11897174 0.10165155 -0.10512048 0.055832256 -0.10822298 0.11773077
0.1335468 0.060904894 -0.043038413 -0.058150224 0.08119328 0.06528825 0.10068627 -0.12937531
-0.18112046 0.028925113 -0.038604952 0.14101282 -0.04297577 0.051750004 0.013359606 -0.1367719
-0.010176716 0.08887202 0.08916348 0.02611742 -0.057034336 -0.20592351 0.09262083 -0.07835077
0.16476062 0.022418693 0.13346907 0.11521092 -0.12133217 -0.06765765 -0.04004285 0.12138402
0.011495783 -0.107635856 0.09771467 0.09721761 -0.016845845 -0.16752495 0.13116135 -0.08761534
0.008981168 -0.060263686 -0.18682659 -0.049949795 0.18802801 0.1515215 -0.0018168811 0.13035193
0.00736466 0.25289693 -0.09822885 -0.14880453 -0.09428491 -0.15253559 -0.16106482 0.014666081
-0.14647627 -0.19961505 -0.011179855 -0.014379059 0.124785796 0.12950541 -0.15075271 0.014566592
-0.1693381 -0.2002319 -0.069615 0.116245925 0.029106159 0.01898967 0.17117679 0.0090201
0.019525096 0.08086404 -0.027534377 0.0586124 0.18802905 0.06632646 0.08109012 0.00041969388
-0.12795562 0.056005698 0.08719774 0.06323718 0.10687211 0.059595067 0.091370724 0.091637745
00000000: 0241 3ebe 0792 293e 4b21 39be 84f4 a53a
00000010: 05a7 05be 87e4 c0bd 7ec9 1b3d 80cf 873d
00000020: 1be7 56be f556 44be ae81 dd3d 0c63 1cbd
00000030: f845 493d 7142 853b 5cc3 c03c 10c0 e73d
00000040: 95dd 4f3c 2402 9a3d 0ac1 6fbd cab8 633c
00000050: c0b9 533c 5dc6 febd ecda 10be 7673 10bd
00000060: 2f57 a3bd 103f 9d3d 66b3 333e c649 cb3d
00000070: 00b4 f0bc 1bf4 053e e149 8c3c 9c7d 02be
00000080: 34df 303d 0a10 bd3d 75a7 f3bd b02e d03d
00000090: 6849 d7bd 5db0 643d 02a4 ddbd d41c f13d
000000a0: 7ec0 083e 6977 793d 0c49 30bd ee2e 6ebd
000000b0: aa48 a63d d9b5 853d 9a34 ce3d f67a 04be
000000c0: a477 39be 5cf4 ec3c 3a20 1ebd aa65 103e
000000d0: 5c07 30bd d0f7 533d 40e2 5a3c ef0d 0cbe
000000e0: 3ebc 26bc 8902 b63d 589b b63d 33f4 d53c
000000f0: d69c 69bd 9ddd 52be fdaf bd3d 5e76 a0bd
00000100: 02b7 283e 68a7 b73c 1eac 083e b4f3 eb3d
00000110: 007d f8bd 1890 8abd f903 24bd 2f98 f83d
00000120: cf58 3c3c 3070 dcbd a11e c83d 071a c73d
00000130: 4c00 8abc a98b 2bbe 294f 063e ac6f b3bd
00000140: c025 133c 0ed7 76bd 784f 3fbe 2898 4cbd
00000150: 6a8a 403e 7428 1b3e 6a24 eeba fa7a 053e
00000160: 3f53 f13b b57b 813e 352c c9bd 3760 18be
00000170: 7218 c1bd 4a32 1cbe 2dee 24be 014a 703c
00000180: e0fd 15be e367 4cbe b62b 37bc 2596 6bbc
00000190: b28f ff3d 119d 043e eb5e 1abe b7a8 6e3c
000001a0: f866 2dbe 9709 4dbe 4f92 8ebd 5812 ee3d
000001b0: 0a70 ee3c 3990 9b3c f848 2f3e 0bc9 133c
000001c0: 18f3 9f3c 0c9c a53d c68f e1bc 8e13 703d
000001d0: b08a 403e 2bd6 873d 9412 a63d 5c0a dc39
000001e0: cc06 03be 3b66 653d bb94 b23d 7f82 813d
000001f0: c4df da3d f519 743d 9320 bb3d 92ac bb3d

dest_lstm_obs.bias_hh_l0 f4 [128]
-0.11116539 -0.05634556 -0.09559302 0.07894332 -0.1226265 0.040463053 -0.022936074 -0.09049685
-0.10290022 0.13699213 -0.026770905 0.06998783 -0.100226685 -0.14933813 -0.040835638 -0.19476418
0.088471964 -0.1480338 0.26557195 -0.082925 0.1479358 0.01906953 0.009846296 0.094373085
0.13416274 0.046925224 -0.13731532 0.02236541 -0.0025378747 0.08263897 -0.150631 0.02199845
0.12049618 -0.025502592 -0.21884477 0.14559677 -0.20824713 -0.12098409 0.046435773 -0.0097332755
-0.14344251 -0.1894456 -0.026247151 -0.092537075 -0.21039896 -0.04836012 -0.1560185 -0.080697626
0.03839444 0.11111862 0.07350755 0.06140824 -0.081763715 -0.16736525 0.070874736 -0.03536126
-0.014110113 -0.0046103518 -0.06671183 0.051994275 -0.051216044 0.06490071 -0.008991698 0.067111686
-0.13089862 0.1633512 -0.079787984 -0.023381583 -0.1602391 -0.1378476 -0.12509403 0.024596311
0.11817692 -0.155439 -0.20452832 0.02262023 0.05851588 -0.16978164 0.11859876 0.050286926
-0.11803909 -0.013077906 -0.116500966 -0.012500137 0.13485512 -0.083094865 0.033441056 -0.037273508
-0.110531084 0.19557121 -0.049739324 0.097095765 -0.16701846 -0.14612624 -0.13834143 0.021605082
-0.032723 -0.04754283 -0.03930835 -0.0814001 0.11878431 -0.08890442 0.06291236 0.0077745914
-0.10898951 0.11662967 0.04721093 -0.07240704 0.10178302 -0.09921789 -0.07111471 0.024373649
-0.18907294 -0.10074007 0.18526307 0.100517176 -0.12378608 -0.09526232 -0.104778275 -0.08048088
0.1237743 -0.1626056 -0.15951914 -0.004493912 0.14029756 0.005135192 -0.14381033 -0.0013507428
00000000: aeaa e3bd 9aca 66bd 46c6 c3bd 09ad a13d
00000010: 9a23 fbbd 96bc 253d 6fe4 bbbc 6a56 b9bd
00000020: 5abd d2bd aa47 0c3e a84e dbbc c855 8f3d
00000030: a643 cdbd 18ec 18be 4543 27bd 4370 47be
00000040: ca30 b53d 2c96 17be 0cf9 873e 95d4 a9bd
00000050: 7b7c 173e b437 9c3c 5c52 213c ad46 c13d
00000060: f561 093e aa34 403d 639c 0cbe aa37 b73c
00000070: 7952 26bb 9f3e a93d 033f 1abe 1836 b43c
00000080: b4c6 f63d d0ea d0bc d818 60be 5217 153e
00000090: bc3e 55be 82c6 f7bd 7033 3e3d 5178 1fbc
000000a0: 98e2 12be 07fe 41be 4404 d7bc 1484 bdbd
000000b0: d372 57be 4315 46bd 50c3 1fbe cc44 a5bd
000000c0: 7d43 1d3d 2992 e33d 208b 963d 3587 7b3d
000000d0: bc73 a7bd cc61 2bbe c626 913d f8d6 10bd
000000e0: 1a2e 67bc 6f12 97bb 36a0 88bd f3f7 543d
000000f0: eac7 51bd aaea 843d ea51 13bc da71 893d
00000100: 4a0a 06be 8945 273e e267 a3bd bc8a bfbc
00000110: b815 24be ec27 0dbe a618 00be 347e c93c
00000120: be06 f23d 672b 1fbe df6f 51be 104e b93c
00000130: 59ae 6f3d 3ddb 2dbe e8e3 f23d aaf9 4d3d
00000140: 7abe f1bd b744 56bc 0f98 eebd 60cd 4cbc
00000150: 7617 0a3e a42d aabd 7df9 083d 1bac 18bd
00000160: 1f5e e2bd d243 483e 76bb 4bbd 25da c63d
00000170: e306 2bbe 1ea2 15be 60a9 0dbe 24fd b03c
00000180: 8d08 06bd 45bc 42bd cb01 21bd 18b5 a6bd
00000190: 3045 f33d 8513 b6bd 32d8 803d 00c2 fe3b
000001a0: e435 dfbd 89db ee3d 4060 413d 244a 94bd
000001b0: 9e73 d03d c032 cbbd 97a4 91bd 3fab c73c
000001c0: 569c 41be cf50 cebd 9ab5 3d3e f3db cd3d
000001d0: 8e83 fdbd e418 c3bd fe95 d6bd 29d3 a4bd
000001e0: 617d fd3d 1582 26be fc58 23be ab41 93bb
000001f0: 2aaa 0f3e 1d45 a83b 0443 13be 680b b1ba

dest_lstm_fut.weight_ih_l0 f4 [128, 2]
-0.084591925 -0.014532286 6.757665e-05 0.123024955 -0.038277004 -0.0641862 -0.10408118 -0.07481955
0.044745654 0.012035579 0.005685094 0.02140141 -0.14291653 0.14929476 -0.14598908 0.090246335
0.06054419 0.00832786 0.057419047 -0.005853209 0.042069886 0.06794562 -0.10762402 0.012592254
0.12676367 0.06592663 0.0884059 0.07997093 0.09409657 -0.15958034 -0.059866376 0.039696436
-0.040269542 -0.049547337 0.034511793 -0.056894265 -0.07600362 0.07639655 -0.029144587 0.06367764
-0.093939096 -0.14291912 0.032349914 0.08100142 -0.11561167 0.13659796 -0.079616055 -0.11999452
-0.004800354 0.017662216 -0.076474294 0.053733494 -0.047477387 0.01712097 0.0074953134 0.046467293
-0.101738974 -0.15613547 -0.087418064 -0.020388596 -0.057047475 0.15582363 -0.11878665 -0.11455138
-0.1551942 0.039538477 -0.09179901 -0.19260758 -0.0068204007 -0.14078358 0.14860408 -0.070469216
-0.12055721 0.13088658 -0.0027504433 -0.06367311 0.10459545 0.029222317 0.009432152 -0.12230174
-0.11184799 0.08015889 -0.03785219 0.00014316931 -0.13438846 -0.1422373 0.13387759 -0.10926397
0.043505244 -0.014435597 0.018396083 0.010222816 -0.005241835 -0.18034312 0.10305828 -0.032086458
-0.019508444 -0.131574 -0.09116497 -0.08620901 0.075272 -0.0038533462 -0.05005031 0.06997051
-0.083445236 -0.15416363 0.07066348 -0.0949174 0.03808869 0.023202922 0.06262228 0.13636711
0.0459726 -0.1455899 0.108990744 0.05749278 -0.030842118 0.07296557 -0.065395035 0.060957074
0.045511585 -0.06434095 -0.004582202 -0.11101435 -0.11853 -0.03402052 -0.14917639 0.014003429
-0.057449445 0.005377008 -0.0066284044 0.010294262 -0.07690879 0.041691925 -0.054098543 0.10080801
0.054683156 0.05190883 0.085395105 -0.14972986 -0.13401052 -0.11253965 0.040012926 -0.047458284
0.0042046085 0.029057387 0.06297942 0.004435935 -0.085637175 0.05332263 -0.11700812 0.058580175
-0.032937564 0.03237147 0.024000311 0.016341968 0.016483458 0.09626499 0.030653404 -0.081696406
0.055722363 -0.10477743 -0.02559725 0.08329367 -0.11061153 0.10435683 -0.13048282 -0.06379782
0.09426594 -0.085988805 0.05115986 0.10425295 -0.10612728 -0.055578023 0.045464724 0.07423752
0.09531924 -0.027090559 0.017117046 0.025949527 0.06438893 0.009608008 -0.017287865 0.07854645
0.016589073 0.012723719 -0.08329805 0.04968275 -0.0803005 -0.056023885 0.09616333 -0.095058985
0.07556966 0.049902014 0.040232427 0.074298084 0.116610944 -0.010459126 -0.13255157 -0.027898882
-0.019009002 0.035898227 0.06397066 -0.14904626 0.12871918 0.13965286 0.12321757 -0.080155686
-0.14279068 -0.094173804 -0.010984665 -0.047620654 -0.01342606 -0.07124095 0.06502363 -0.12932199
0.023768134 -0.083549894 0.028233103 -0.0790607 -0.08822659 -0.07378336 0.036534328 -0.07584618
0.028471207 -0.03274658 -0.08392108 0.1269522 -0.07985251 -0.03891915 0.094462134 0.046980754
0.040411443 0.13966799 -0.15200421 0.057589818 0.029637672 0.0827025 0.14319985 -0.12639192
0.062118527 0.012913298 -0.15273497 -0.13386558 -0.10098236 -0.011986869 0.01444483 -0.08346359
-0.07557857 -0.07154095 -0.05005 -0.11557047 0.08925585 -0.00041430435 -0.050372563 0.0824289
00000000: 883e adbd d318 6ebc f0b7 8d38 82f4 fb3d
00000010: 59c8 1cbd 0e74 83bd 8428 d5bd fe3a 99bd
00000020: 3847 373d e130 453c 064a ba3b 0352 af3c
00000030: b658 12be bae0 183e 297e 15be 12d3 b83d
00000040: 2ffd 773d 9471 083c 3c30 6b3d 47cc bfbb
00000050: 7951 2c3d 1327 8b3d fb69 dcbd be4f 4e3c
00000060: 56ce 013e 8a04 873d 270e b53d cdc7 a33d
00000070: b4b5 c03d 0769 23be 7236 75bd bb98 223d
00000080: adf1 24bd 26f2 4abd 3d5c 0d3d f609 69bd
00000090: c9a7 9bbd cb75 9c3d a1c0 eebc 6c69 823d
000000a0: 2463 c0bd 6459 12be 5881 043d 13e4 a53d
000000b0: d0c5 ecbd 56e0 0b3e be0d a3bd b0bf f5bd
000000c0: 4a4c 9dbb 5ab0 903c 8e9e 9cbd a717 5c3d
000000d0: a677 42bd 4741 8c3c 3f9b f53b 7d54 3e3d
000000e0: 865c d0bd fae1 1fbe 3e08 b3bd fc05 a7bc
000000f0: 9daa 69bd 3b90 1f3e 6a46 f3bd ea99 eabd
00000100: 3aeb 1ebe 19f3 213d 1f01 bcbd ec3a 45be
00000110: ab7d dfbb 9229 10be ab2b 183e 2a52 90bd
00000120: b3e6 f6bd 2207 063e c840 34bb 0c67 82bd
00000130: 2436 d63d a463 ef3c 5089 1a3c 5679 fabd
00000140: 8f10 e5bd 582a a43d e60a 1bbd b81f 1639
00000150: 219d 09be a8a6 11be 3517 093e cac5 dfbd
00000160: 8e32 323d 4883 6cbc 62b3 963c 997d 273c
00000170: b3c3 abbb deab 38be 3810 d33d 176d 03bd
00000180: 2cd0 9fbc 56bb 06be b3b4 babd 598e b0bd
00000190: 3528 9a3d 6c88 7cbb 8e01 4dbd b34c 8f3d
000001a0: 56e5 aabd 12dd 1dbe 04b8 903d 0e64 c2bd
000001b0: e302 1c3d 0e14 be3c 1c40 803d d2a3 0b3e
000001c0: c44d 3c3d 8515 15be 8a36 df3d 8d7d 6b3d
000001d0: 9ca8 fcbc f96e 953d d5ed 85bd 20ae 793d
000001e0: 5b6a 3a3d 30c5 83bd 4c26 96bb 7e5b e3bd
000001f0: dbbf f2bd 1a59 0bbd b2c1 18be a36e 653c
00000200: 1c50 6bbd 9d31 b03b 1633 d9bb 44a9 283c
00000210: 5b82 9dbd 27c5 2a3d 6f96 5dbd 6e74 ce3d
00000220: 72fb 5f3d 5a9e 543d a1e3 ae3d c952 19be
00000230: 0e3a 09be 307b e6bd 98e4 233d 9e63 42bd
00000240: d0c6 893b c209 ee3c 5bfb 803d 525b 913b
00000250: 8b62 afbd d468 5a3d f4a1 efbd c4f1 6f3d
00000260: 8ae9 06bd f297 043d 4d9c c43c 97df 853c
00000270: 5108 873c 9426 c53d d91c fb3c 7250 a7bd
00000280: 223d 643d 8d95 d6bd 53b1 d1bc df95 aa3d
00000290: 4c88 e2bd 09b9 d53d 4a9d 05be 6ea8 82bd
000002a0: 800e c13d e61a b0bd 008d 513d 9282 d53d
000002b0: 4259 d9bd c8a5 63bd 3839 3a3d d709 983d
000002c0: bc36 c33d 05ed ddbc 0c39 8c3c 1a94 d43c
000002d0: 58de 833d e86a 1d3c 489f 8dbc f6dc a03d
000002e0: cfe5 873c 2577 503c 2b98 aabd 2480 4b3d
000002f0: 9774 a4bd 4d79 65bd 48f1 c43d 49ae c2bd
00000300: 44c4 9a3d 0e66 4c3d c2ca 243d 9829 983d
00000310: b8d1 ee3d c15c 2bbc 99bb 07be 328c e4bc
00000320: c4b8 9bbc 050a 133d 0d03 833d 959f 18be
00000330: f6ce 033e 2901 0f3e 7e59 fc3d aa28 a4bd
00000340: b837 12be 32de c0bd 06f9 33bc e00d 43bd
00000350: faf8 5bbc c6e6 91bd 1c2b 853d fc6c 04be
00000360: 64b5 c23c 351c abbd 1c49 e73c 94ea a1bd
00000370: 24b0 b4bd bb1b 97bd 05a5 153d 3e55 9bbd
00000380: 733c e93c 4721 06bd d1de abbd c2ff 013e
00000390: b689 a3bd b069 1fbd 5d75 c13d e46e 403d
000003a0: 7886 253d 2005 0f3e fea6 1bbe 4de3 6b3d
000003b0: b4ca f23c ee5f a93d fba2 123e e26c 01be
000003c0: ff6f 7e3d 4c92 533c 8e66 1cbe 0f14 09be
000003d0: d7cf cebd 9364 44bc 02aa 6c3c f5ee aabd
000003e0: f0c8 9abd 1084 92bd 3b01 4dbd 36b0 ecbd
000003f0: c5cb b63d fd36 d9b9 7653 4ebd 7cd0 a83d
