src/do_tp_federated_federated_round_8.pt (torch, 157077 bytes, 26 tensors)

linear_enc.weight f4 [64, 2]
0.5035488 0.6045255 0.46345258 0.058415186 0.6141274 0.45696065 0.4649719 -0.7125868
0.289371 -0.58607626 0.02139599 0.32068402 -0.4985925 0.41692865 0.2939155 -0.3440951
0.06120471 -0.1279591 -0.47843114 -0.17794356 0.35779858 0.046159625 0.52572 -0.7086357
0.49214542 0.15171948 -0.25377536 -1.0454173 -0.17691372 -0.24391337 0.46616113 -0.06052489
-0.7468429 -0.70220715 -0.6550974 -0.18129091 0.6290378 -0.79021144 0.36299717 -0.41372707
0.54197574 -0.926504 -0.6491798 0.82383937 -0.53361076 0.25090292 -0.15296192 -0.073324
0.38387328 -0.5026978 0.3147401 0.09696717 -0.5681992 0.15957077 0.77661496 0.3589744
0.113812365 0.3992384 0.71203804 0.06533961 -0.2673974 0.8082664 -0.74935675 -0.44132316
0.49164206 -0.39659935 -0.2983676 0.91118425 -0.55955756 -0.26671696 -0.5077186 0.89590204
0.45712912 -0.90757537 -0.033614773 0.577513 0.65155494 0.93770266 -0.7468225 -0.4508612
0.63604933 0.27286905 -0.44221437 -1.0298531 0.83378327 0.13115531 -0.19708835 -0.047646996
-0.38749236 0.112378776 -0.17635588 0.6354324 -0.7157937 0.4351883 0.57751876 0.6479038
-0.17857693 0.033850793 -0.7350339 0.12493217 -0.44902876 0.59998363 -0.6717726 0.43004382
-0.855856 -0.4458533 -0.16970052 0.3389489 0.7721701 0.44530675 -0.022453783 0.35685688
-0.22703052 0.5585487 -0.1579981 0.6529462 -0.7080309 -0.7164976 -0.80158263 0.24059854
0.32252842 0.12622906 -0.15069947 0.6379037 -0.23087104 0.07044548 -0.31538534 -0.092671126
00000000: 93e8 003f 2fc2 1a3f a849 ed3e c344 6f3d
00000010: 7437 1d3f bff6 e93e cc10 ee3e 176c 36bf
00000020: 7028 943e 1809 16bf a546 af3c b230 a43e
00000030: 8447 ffbe ac77 d53e 187c 963e 3c2d b0be
00000040: cab1 7a3d b607 03be edf4 f4be d636 36be
00000050: 6031 b73e e011 3d3d 9695 063f 2669 35bf
00000060: 7cfa fb3e 5a5c 1b3e d8ee 81be 3cd0 85bf
00000070: df28 35be 6dc4 79be acac ee3e f2e8 77bd
00000080: 1931 3fbf d9c3 33bf 77b4 27bf 53a4 39be
00000090: 9f08 213f 4c4b 4abf c4da b93e 09d4 d3be
000000a0: ecbe 0a3f 5e2f 6dbf a630 26bf 23e7 523f
000000b0: b79a 08bf 5976 803e 0da2 1cbe e52a 96bd
000000c0: 0a8b c43e ceb0 00bf 9d25 a13e b996 c63d
000000d0: 8175 11bf 8566 233e 3dd0 463f 7ecb b73e
000000e0: 7516 e93d fa68 cc3e 2048 363f c6d0 853d
000000f0: 50e8 88be 8cea 4e3f d8d5 3fbf 1cf5 e1be
00000100: 82b8 fb3e 120f cbbe a3c3 98be 5f43 693f
00000110: 2a3f 0fbf 208f 88be d9f9 01bf d659 653f
00000120: d40c ea3e dc56 68bf a5af 09bd e4d7 133f
00000130: 4ecc 263f 480d 703f c22f 3fbf 47d7 e6be
00000140: 21d4 223f 7eb5 8b3e ec69 e2be 3ad2 83bf
00000150: d272 553f 944d 063e 87d1 49be 7f29 43bd
00000160: 6665 c6be d826 e63d a396 34be b3ab 223f
00000170: 423e 37bf 00d1 de3e 45d8 133f 06dd 253f
00000180: dfdc 36be 21a7 0a3d 2f2b 3cbf 70dc ff3d
00000190: 19e7 e5be 8798 193f 4af9 2bbf b42e dc3e
000001a0: 6119 5bbf e246 e4be f9c5 2dbe b68a ad3e
000001b0: f1ac 453f 3fff e33e fff0 b7bc f2b5 b63e
000001c0: b07a 68be 0cfd 0e3f 41ca 21be 7b27 273f
000001d0: 8341 35bf 636c 37bf 8534 4dbf 775f 763e
000001e0: 7222 a53e 3142 013e f650 1abe a84d 233f
000001f0: 7569 6cbe b845 903d 307a a1be 5cca bdbd

linear_enc.bias f4 [64]
0.19462685 -0.621748 0.090884745 -0.37990546 -0.40968058 -0.6449919 0.27894396 -0.3341244
0.23123926 0.29723302 0.07957475 -0.15725023 -0.01121932 0.0009488136 -0.309232 -0.3999617
-0.06828531 -0.45804852 0.061016914 0.14253718 0.5590682 0.1771377 0.60884833 0.33538043
-0.6045391 0.39455834 -0.27181965 0.1914912 0.0020055906 -0.2521612 -0.04951334 -0.69260037
-0.39131257 0.592476 -0.3087412 -0.39943987 -0.22608882 0.38766706 -0.022480758 0.5792906
-0.56659913 -0.39719823 -0.45970517 0.2721929 0.5657513 0.5631436 0.6588498 0.12789552
-0.4976422 -0.32589188 -0.34986302 -0.018544462 -0.3236833 0.5756849 -0.6402167 -0.5300458
0.6495807 0.13206357 0.30128554 -0.10677779 0.26104116 0.32870945 0.18191154 -0.50590616
00000000: 434c 473e e02a 1fbf c821 ba3d f882 c2be
00000010: a7c1 d1be 301e 25bf bed1 8e3e 5a12 abbe
00000020: fcc9 6c3e ed2e 983e 16f8 a23d 3406 21be
00000030: 3dd1 37bc ceb9 783a a853 9ebe c8c7 ccbe
00000040: 2bd9 8bbd 5685 eabe dfec 793d 44f5 113e
00000050: 181f 0f3f 9663 353e 7cdd 1b3f fcb6 ab3e
00000060: 13c3 1abf 8d03 ca3e f22b 8bbe 4516 443e
00000070: 3a70 033b 461b 81be 80ce 4abd 424e 31bf
00000080: 1f5a c8be 82ac 173f 5413 9ebe 6283 ccbe
00000090: d483 67be 4c7c c63e 9129 b8bc 644c 143f
000000a0: a40c 11bf 915d cbbe 7a5e ebbe de5c 8b3e
000000b0: 14d5 103f 2e2a 103f 61aa 283f 0bf7 023e
000000c0: f5ca febe 4ddb a6be 3f21 b3be 8eea 97bc
000000d0: d1b9 a5be 1660 133f 3ee5 23bf 15b1 07bf
000000e0: ec4a 263f ac3b 073e 1942 9a3e 50ae dabd
000000f0: 30a7 853e 9b4c a83e 0547 3a3e 1183 01bf

encoder_lstm.weight_ih_l0 f4 [128, 64]
0.17036422 0.09531196 0.17773417 -0.18482313 -0.035578247 -0.13460502 0.1907436 -0.14789341
0.18165328 0.15341265 -0.09174095 0.08176171 -0.031957164 -0.063332245 -0.21971753 -0.19930832
0.11967479 -0.06506331 -0.06878655 -0.08496441 0.1026353 0.21887945 -0.108102806 -0.04925227
0.05986802 0.1402862 -0.14708301 0.0929763 0.07044833 -0.10790248 -0.16825047 -0.15232445
0.005173142 0.12823147 -0.21044803 -0.06087553 -0.19496654 -0.08915928 -0.101870745 -0.048225697
0.0790822 -0.037492726 0.06142945 0.22501759 -0.10027262 -0.05752224 0.1993508 0.15655202
-0.22350298 0.013868581 -0.12568647 -0.064687416 0.023168882 0.17153026 -0.12499651 -0.14798996
0.0766633 -0.032999024 -0.05293066 -0.075810656 0.092118435 0.024757823 0.081715256 -0.023006598
0.12043413 -0.4562752 0.05372358 -0.03189984 -0.091660105 -0.3618631 0.32555303 -0.31182903
0.37644827 0.46600407 0.17339873 -0.094302 -0.145763 0.39637083 -0.29024878 -0.35415593
0.04262565 -0.4681083 0.28248328 0.5533454 0.27563855 0.0103712985 0.23460516 0.44540212
-0.2904531 0.122682765 -0.45986468 0.13771328 -0.39644584 -0.12051363 -0.37955436 -0.11127046
-0.2659557 0.24028796 -0.41649055 -0.36899897 0.101010405 0.15748172 -0.27858245 0.44098574
-0.18073261 -0.1476118 -0.12571423 0.40194148 0.35121933 0.38476032 0.3855851 0.028408807
-0.41126934 -0.18178129 -0.28762633 -0.3269832 -0.29857743 0.3981983 -0.33214435 -0.21497637
0.09119119 0.084694535 0.32003132 -0.38947055 0.43288147 0.07002208 0.16269141 -0.300204
0.115148924 -0.0868748 -0.08958532 0.048480958 0.012132075 -0.06834747 -0.18862796 0.076436386
0.17992409 0.06519618 0.20454566 0.2112407 0.09164512 0.20743161 -0.17329925 0.056179
0.026397891 -0.16074336 0.12509932 0.094706625 0.20899309 -0.17202531 -0.034425292 -0.017021146
0.17571244 0.15672466 -0.08055018 -0.01067047 -0.31531775 0.0051178276 -0.23897706 0.100273214
-0.07479294 -0.13513054 0.07955046 -0.11444857 0.2530308 -0.003203846 -0.2179981 -0.007925993
-0.12749551 0.107834004 0.12520754 -0.04101154 -0.041019972 -0.12561108 -0.13509524 -0.07147819
0.11064972 -0.15310355 -0.17285472 -0.0031062544 0.032894254 -0.13534823 -0.19427544 0.006192119
0.007268795 -0.090757966 -0.0543736 -0.26185593 0.21619129 -0.16978978 -0.12146865 0.10102114
-0.07525704 0.14599699 -0.037860353 -0.13827552 0.18059665 -0.02612365 0.029450042 -0.03744265
-0.12537518 -0.052476794 -0.15780813 -0.014616259 -0.06210759 0.07745163 0.013468111 0.13182743
0.14032364 0.068359986 0.081988946 0.06517074 -0.16895556 0.029560732 -0.10387488 0.04217622
0.13371891 -0.19622858 0.10819125 -0.14570895 0.057456665 0.0130376415 -0.14728753 0.08761298
0.06146939 -0.051318206 0.075978875 0.1972008 0.17131108 0.07593083 -0.12999581 0.09691322
0.05350614 0.13581511 -0.09285895 0.14071698 -0.16938233 0.046696153 -0.1086995 0.008823321
0.15209955 0.014168823 0.020258363 0.18050665 -0.0042350865 -0.034718655 0.0025481551 -0.08250864
-0.05172543 -0.10045917 -0.09469168 -0.035703648 0.08374165 -0.11703048 0.16139138 0.17096522
00000000: f573 2e3e eb32 c33d f2ff 353e 4642 3dbe
00000010: 7fba 11bd e6d5 09be 4a52 433e 5f71 17be
00000020: 5103 3a3e 3518 1d3e aee2 bbbd af72 a73d
00000030: 84e5 02bd 56b4 81bd a2fd 60be 7b17 4cbe
00000040: 0e18 f53d ea3f 85bd f6df 8cbd d201 aebd
00000050: 7532 d23d ef21 603e 0165 ddbd c0bc 49bd
00000060: 2b38 753d 30a7 0f3e ee9c 16be 5c6a be3d
00000070: 3747 903d fafb dcbd da49 2cbe f1fa 1bbe
00000080: 7683 a93b 1c4f 033e b07f 57be 9f58 79bd
00000090: 4fa5 47be 2499 b6bd 9ca1 d0bd 4f88 45bd
000000a0: d9f5 a13d f991 19bd 729d 7b3d 036b 663e
000000b0: bb5b cdbd 719c 6bbd 9e22 4c3e 2c4f 203e
000000c0: f7dd 64be 0b39 633c f4b3 00be d67a 84bd
000000d0: abcc bd3c a1a5 2f3e 2cfe ffbd ae8a 17be
000000e0: a601 9d3d fc29 07bd d2cd 58bd 9e42 9bbd
000000f0: 97a8 bc3d ebd0 ca3c 545a a73d 5578 bcbc
00000100: 2ba6 f63d e79c e9be 420d 5c3d 68a9 02bd
00000110: 4bb8 bbbd 1f46 b9be e3ae a63e 0ea8 9fbe
00000120: d4bd c03e 1698 ee3e 708f 313e 6821 c1bd
00000130: e542 15be 1ef1 ca3e 7d9b 94be ed53 b5be
00000140: 3c98 2e3d e4ab efbe a6a1 903e 0ba8 0d3f
00000150: 7f20 8d3e 61ec 293c 563c 703e bf0b e43e
00000160: 45b6 94be 1a41 fb3d 6273 ebbe b604 0d3e
00000170: f3fa cabe dacf f6bd f354 c2be c4e1 e3bd
00000180: 582b 88be 0c0e 763e 403e d5be 6fed bcbe
00000190: 8bde ce3d e342 213e 5ca2 8ebe e2c8 e13e
000001a0: f811 39be 8c27 17be 3bbb 00be 46cb cd3e
000001b0: 05d3 b33e 4eff c43e 696b c53e 96b9 e83c
000001c0: e591 d2be e024 3abe c243 93be 586a a7be
000001d0: 24df 98be a6e0 cb3e d30e aabe c422 5cbe
000001e0: 72c2 ba3d 5474 ad3d 25db a33e af68 c7be
000001f0: a4a2 dd3e bc67 8f3d 9498 263e 57b4 99be
00000200: 33d3 eb3d 6aeb b1bd 8278 b7bd f893 463d
00000210: 9cc5 463c c2f9 8bbd b027 41be ae8a 9c3d
00000220: 053e 383e 9385 853d 6b74 513e 7b4f 583e
00000230: 70b0 bb3d f468 543e 5c75 31be f31b 663d
00000240: 6440 d83c e899 24be 091a 003e 8cf5 c13d
00000250: 4902 563e 6727 30be 8901 0dbd ee6f 8bbc
00000260: f6ed 333e 6e7c 203e 7ef7 a4bd 32d3 2ebc
00000270: 5471 a1be 73b3 a73b 67b6 74be 0b5c cd3d
00000280: 0a2d 99bd a95f 0abe 5aeb a23d 0364 eabd
00000290: 418d 813e 9ef7 51bb e53a 5fbe 06dc 01bc
000002a0: 2f8e 02be 13d8 dc3d 6836 003e b7fb 27bd
000002b0: 8f04 28bd 31a0 00be 6856 0abe 2863 92bd
000002c0: 529c e23d 2dc7 1cbe d400 31be 4d92 4bbb
000002d0: 20bc 063d ba98 0abe 24f0 46be 42e7 ca3b
000002e0: 122f ee3b 50df b9bd dab6 5ebd fb11 86be
000002f0: 4061 5d3e 5fdd 2dbe 8ec4 f8bd 2ce4 ce3d
00000300: 5d20 9abd 3c80 153e 7513 1bbd 1998 0dbe
00000310: 54ee 383e 4401 d6bc 3741 f13c 775d 19bd
00000320: 5a62 00be e8f1 56bd 7498 21be 0979 6fbc
00000330: 8764 7ebd f69e 9e3d 5aa9 5c3c c5fd 063e
00000340: 00b1 0f3e 5200 8c3d d2e9 a73d 3d78 853d
00000350: b002 2dbe 5929 f23c 5abc d4bd f9c0 2c3d
00000360: 9ced 083e 25f0 48be 6093 dd3d ba34 15be
00000370: ae57 6b3d d59b 553c 8bd2 16be 6f6e b33d
00000380: 54c7 7b3d 0a33 52bd d09a 9b3d 02ef 493e
00000390: 2c6c 2f3e 9f81 9b3d 9f1d 05be 707a c63d
000003a0: 4129 5b3d 1e13 0b3e d52c bebd 1d18 103e
000003b0: 9072 2dbe 7744 3f3d d89d debd b18f 103c
000003c0: fcbf 1b3e 5a24 683c def4 a53c bcd6 383e
000003d0: 7bc6 8abb 2635 0ebd f3fe 263b 4afa a8bd
000003e0: 0bde 53bd 8abd cdbd b6ed c1bd fd3d 12bd
000003f0: be80 ab3d adad efbd c843 253e 8211 2f3e

encoder_lstm.weight_hh_l0 f4 [128, 32]
0.11062406 -0.14193147 -0.015102718 -0.027654894 -0.10173205 -0.13546656 -0.20224488 0.35081536
-0.100979224 -0.33411667 -0.037333015 0.14597526 -0.14588913 -0.022467855 -0.01570581 0.05044386
-0.33683178 -0.1805723 -0.18034084 -0.064674534 -0.056132793 0.14001064 0.08728939 0.011216182
-0.15900245 0.04992748 -0.1907678 0.051041458 0.10588715 0.08027738 0.012344904 0.2304366
0.3857856 -0.23492166 0.40506724 -0.12512912 -0.12892702 0.23467745 0.07493116 0.04460997
0.32880342 -0.106325574 -0.13267736 0.13694836 0.15588531 -0.13044785 -0.03912693 -0.1253824
-0.3420545 -0.12505628 0.2952777 0.10622811 0.13931257 -0.24148871 -0.20509464 0.13190556
-0.009749176 -0.33169943 -0.27061385 -0.07814623 0.064759895 0.019792238 0.34489363 0.305333
0.14592555 0.033119444 -0.0017810431 -0.07819246 0.14304072 0.4471309 0.022219883 -0.010424323
-0.07164329 -0.15676576 0.08047631 -0.030835904 0.03434899 0.36212766 -0.046227723 0.08467644
0.05221393 -0.14548479 0.04644576 -0.22504774 0.45452476 0.16682772 -0.16483049 -0.092050046
-0.10002721 -0.015153356 0.08417521 0.010696975 0.04386932 -0.19291775 -0.14147282 -0.09951347
0.008800183 -0.096720986 -0.13428439 -0.07359118 -0.21257764 -0.16928948 -0.101547286 -0.028501421
-0.14323343 0.036188003 0.08472973 -0.16586195 -0.0567323 0.07298279 0.050799333 -0.09984839
-0.016425923 0.034974515 -0.17623685 -0.121114805 -0.180358 -0.112202026 0.1993463 0.08728946
-0.20826083 -0.072814375 0.048946965 0.15939458 -0.051571064 -0.14898093 0.09986056 -0.07297597
0.042773735 -0.22791937 0.46320796 -0.24110952 -0.017933737 0.19321513 -0.14715292 0.40901548
0.018916376 -0.18555416 -0.02865414 0.21726277 0.12401769 -0.51129436 -0.2922306 -0.062445797
-0.087852985 -0.3040309 0.34557658 -0.23790881 -0.25373954 -0.03604266 -0.12119534 0.12026257
-0.16509707 -0.054929893 -0.3078349 -0.2768445 0.28900924 0.12316865 0.07570794 0.026771642
0.3043099 -0.13716705 0.3355017 -0.25715044 -0.072679855 0.14121152 -0.43171924 0.14899457
0.23657559 -0.53024846 -0.19514985 0.4409562 0.3572337 0.18901108 -0.04328598 0.09492389
-0.53406775 -0.2348108 -0.15729737 0.20113423 0.10781495 -0.123177394 -0.20214103 0.17965873
-0.18876475 -0.3217487 -0.13666674 -0.041405216 0.26848415 0.14612533 0.17975731 0.67762214
0.2782227 0.15895744 0.32399455 -0.06027804 -0.13779105 0.28551948 -0.20676194 0.13148943
-0.10808266 0.04205418 0.15908474 0.2681121 0.01979741 -0.1877585 -0.41215992 -0.21363531
0.034691054 -0.21085511 -0.048516545 -0.25010744 -0.052176625 0.1892984 -0.05670023 -0.021410499
-0.057272516 -0.09517982 -0.05001214 -0.052288488 0.13873926 -0.07985153 -0.20094906 -0.31553254
0.19094676 0.33394065 0.28820148 0.2574959 0.052780904 0.19893837 -0.045833826 0.25167403
0.14323592 0.21884583 -0.20944335 -0.23141745 -0.07446742 0.047156446 -0.5715915 -0.16377503
0.22497351 -0.4874544 0.24731429 0.026819708 0.12551701 -0.09767274 -0.15769903 -0.1593676
0.3177761 -0.2544194 0.18704931 0.07180174 0.52683115 0.06290976 0.040116645 -0.114952974
00000000: de8e e23d 7c56 11be 6471 77bc 848c e2bc
00000010: e558 d0bd bfb7 0abe 4819 4fbe 129e b33e
00000020: 32ce cebd 5711 abbe 81ea 18bd 8a7a 153e
00000030: f663 15be 820e b8bc 79a9 80bc 399e 4e3d
00000040: 3775 acbe f2e7 38be 45ab 38be 1574 84bd
00000050: 80eb 65bd f35e 0f3e c8c4 b23d 14c4 373c
00000060: 8ad1 22be c280 4c3d a258 43be d910 513d
00000070: 5ddb d83d 7868 a43d 4842 4a3c 92f7 6b3e
00000080: b185 c53e 4e8f 70be f964 cf3e d921 00be
00000090: 7205 04be 494f 703e 8275 993d f2b8 363d
000000a0: ec58 a83e 39c1 d9bd 93dc 07be 313c 0c3e
000000b0: 66a0 1f3e 1f94 05be 8f43 20bd 3e64 00be
000000c0: c421 afbe c10e 00be a42e 973e 208e d93d
000000d0: f4a7 0e3e d148 77be 5404 52be 4012 073e
000000e0: 02bb 1fbc 82d4 a9be e68d 8abe 210b a0bd
000000f0: d6a0 843d 5523 a23c e695 b03e 9b54 9c3e
00000100: 826d 153e 41a8 073d e471 e9ba 5e23 a0bd
00000110: 4479 123e 57ee e43e 7906 b63c c8ca 2abc
00000120: b8b9 92bd 3487 20be c3d0 a43d 949b fcbc
00000130: 87b1 0c3d cc68 b93e 4859 3dbd d76a ad3d
00000140: 46de 553d f7f9 14be e93d 3e3d ea72 66be
00000150: 78b7 e83e e3d4 2a3e 53c9 28be bc84 bcbd
00000160: 11db ccbd c845 78bc 0d64 ac3d 5d42 2f3c
00000170: 51b0 333d 3b8c 45be 40de 10be b8cd cbbd
00000180: a52e 103c a715 c6bd d981 09be f9b6 96bd
00000190: f4ad 59be 395a 2dbe 06f8 cfbd d07b e9bc
000001a0: c9ab 12be df39 143d c886 ad3d b7d7 29be
000001b0: 2160 68bd 0078 953d f612 503d 507d ccbd
000001c0: a88f 86bc 7041 0f3d 6f77 34be 0a0b f8bd
000001d0: c4af 38be 2dca e5bd 7021 4c3e d1c4 b23d
000001e0: 5442 55be b41f 95bd 9d7c 483d 5538 233e
000001f0: 2e3c 53bd 758e 18be b183 cc3d 6d74 95bd
00000200: 8333 2f3d b263 69be 9829 ed3e 6ae5 76be
00000210: c6e9 92bc 30da 453e 41af 16be 7a6a d13e
00000220: 84f6 9a3c e901 3ebe 16bc eabc 227a 5e3e
00000230: fdfc fd3d 30e4 02bf 409f 95be 2ac7 7fbd
00000240: 44ec b3bd f0a9 9bbe 6aef b03e 5e9e 73be
00000250: 26ea 81be 78a1 13bd 4335 f8bd 394c f63d
00000260: 350f 29be 2bfe 60bd 899c 9dbe 90be 8dbe
00000270: 05f9 933e d83f fc3d c40c 9b3d 3450 db3c
00000280: 82ce 9b3e 8575 0cbe e1c6 ab3e 39a9 83be
00000290: 2dd9 94bd c199 103e 4e0a ddbe 0892 183e
000002a0: df40 723e 5dbe 07bf 5dd5 47be 03c5 e13e
000002b0: 56e7 b63e 1f8c 413e a44c 31bd 7567 c23d
000002c0: aab8 08bf 3e72 70be 9012 21be 22f6 4d3e
000002d0: 16ce dc3d 6e44 fcbd 0ffe 4ebe 75f8 373e
000002e0: 8c4b 41be 3fbc a4be 5ef2 0bbe 8498 29bd
000002f0: c176 893e e1a1 153e 4d12 383e a578 2d3f
00000300: 3573 8e3e bdc5 223e 9de2 a53e 1be6 76bd
00000310: 1919 0dbe 9c2f 923e 67b9 53be 2aa5 063e
00000320: 715a ddbd 0141 2c3d 1ce7 223e fd45 893e
00000330: 2e2e a23c c443 40be a006 d3be 37c3 5abe
00000340: 3518 0e3d 67ea 57be 49b9 46bd 150e 80be
00000350: 28b7 55bd 71d7 413e 803e 68bd 1265 afbc
00000360: 9696 6abd a3ed c2bd 88d9 4cbd 742c 56bd
00000370: aa11 0e3e 3389 a3bd 97c5 4dbe 7b8d a1be
00000380: 8c87 433e 45fa aa3e 258f 933e 81d6 833e
00000390: ca30 583d 80b6 4b3e 40bc 3bbd 6bdb 803e
000003a0: 70ac 123e 1f19 603e 5178 56be b2f8 6cbe
000003b0: 6082 98bd 1e27 413d d253 12bf a4b4 27be
000003c0: 755f 663e a093 f9be f53f 7d3e 01b5 db3c
000003d0: 8887 003e a508 c8bd db7b 21be 4331 23be
000003e0: 8db3 a23e 4243 82be db89 3f3e ca0c 933d
000003f0: 68de 063f d5d6 803d 5a51 243d 776c ebbd

encoder_lstm.bias_ih_l0 f4 [128]
0.13259447 0.3274355 -0.1165001 -0.035556912 0.17925149 0.21546155 -0.079936326 -0.11210296
0.025597097 -0.19239365 0.03955066 -0.018891506 -0.0058685564 0.5685087 0.19569752 -0.0033703684
0.17639619 0.113569476 0.27719638 0.23466855 0.18972069 0.050606936 0.24815223 -0.047197867
0.11084905 -0.048657756 0.22562785 -0.21088797 0.27001208 0.20275442 0.15531254 -0.053274333
0.079750575 0.1209108 -0.1781666 0.0823851 0.078348465 -0.07077798 0.05377653 0.08719109
-0.10683678 0.11402484 0.017423978 0.21966177 -0.15345214 0.10379034 -0.08117535 -0.16286074
-0.030643832 -0.07477067 -0.06828383 0.01748686 0.044932164 0.23044552 0.0026362543 0.06350545
-0.05217303 0.111000605 -0.13903946 0.0016477578 -0.09474823 0.049316604 0.021374976 0.1316347
-0.08463012 -0.13579044 0.012794986 0.010785736 0.04553136 -0.12833588 -0.11281009 0.015313506
0.0018172015 -0.108193934 -0.07901232 -0.0344174 0.058289398 0.16201864 -0.1209466 -0.12833847
0.02607177 0.001987603 -0.14682497 -0.05690635 -0.06942501 -0.09938885 0.14278343 -0.07095701
-0.0032950875 -0.060620293 0.0303643 0.03336534 0.06411852 -0.020525573 0.12840372 0.08212326
0.09501279 0.52789223 0.049129937 -0.131924 0.09935022 0.14484563 0.06345395 0.120458595
0.23831962 -0.16846749 0.11945819 0.10666941 -0.030716507 0.4395505 -0.038006697 0.122559234
-0.0810336 0.025387835 0.080244854 -0.013685048 0.14208238 0.032887876 -0.068913475 -0.10538218
0.30418637 0.1837598 0.1838289 -0.08244049 0.009123393 -0.013177051 0.0906027 0.052713554
00000000: d8c6 073e a0a5 a73e 9b97 eebd 20a4 11bd
00000010: b48d 373e f4a1 5c3e a8b5 a3bd 3d96 e5bd
00000020: 01b1 d13c d702 45be dfff 213d 5cc2 9abc
00000030: 054d c0bb c989 113f ee64 483e 66e1 5cbb
00000040: 34a1 343e 1d97 e83d afec 8d3e f44c 703e
00000050: 2446 423e 3849 4f3d 9e1b 7e3e 8d52 41bd
00000060: d404 e33d 5b4d 47bd fd0a 673e 04f3 57be
00000070: 063f 8a3e db9e 4f3e 400a 1f3e 3036 5abd
00000080: 4554 a33d 15a0 f73d 4e71 36be 85b9 a83d
00000090: 2975 a03d 0cf4 90bd c744 5c3d 3e91 b23d
000000a0: 3ecd dabd db85 e93d bbbc 8e3c 04ef 603e
000000b0: 8f22 1dbe 0890 d43d 433f a6bd f7c4 26be
000000c0: c608 fbbc 5d21 99bd 65d8 8bbd 9a40 8f3c
000000d0: ca0a 383d e9f9 6b3e 02c5 2c3b 250f 823d
000000e0: 63b3 55bd 4954 e33d 5c60 0ebe 94f9 d73a
000000f0: 5c0b c2bd 3500 4a3d 931a af3c 3fcb 063e
00000100: 8e52 adbd a60c 0bbe 10a2 513c a8b6 303c
00000110: 177f 3a3d 7b6a 03be fa08 e7bd 80e5 7a3c
00000120: 2a2f ee3a c894 ddbd 36d1 a1bd 42f9 0cbd
00000130: ddc0 6e3d 37e8 253e dab2 f7bd 296b 03be
00000140: 7794 d53c 7242 023b 4959 16be a216 69bd
00000150: b32e 8ebd 628c cbbd d235 123e e951 91bd
00000160: 65f2 57bb fc4c 78bd 8dbe f83c 18aa 083d
00000170: 9250 833d 3f25 a8bc 447c 033e 3d30 a83d
00000180: 1196 c23d f223 073f 793c 493d 1617 07be
00000190: 2178 cb3d 6a52 143e 25f4 813d ffb2 f63d
000001a0: 0f0a 743e be82 2cbe 7fa6 f43d 7e75 da3d
000001b0: 2fa1 fbbc c30c e13e e9ac 1bbd 5600 fb3d
000001c0: f2f4 a5bd 26fa cf3c 6a57 a43d 4037 60bc
000001d0: 0b7e 113e 70b5 063d 8222 8dbd 9dd2 d7bd
000001e0: 51be 9b3e 872b 3c3e a53d 3c3e 8fd6 a8bd
000001f0: 497a 153c 8fe4 57bc e98d b93d 2bea 573d

encoder_lstm.bias_hh_l0 f4 [128]
-0.013914873 0.47359273 0.18324925 0.021663314 0.22769901 0.5118288 0.03467407 -0.078810826
0.09146984 -0.05749105 -0.008395305 -0.13597845 0.07177691 0.41511482 0.11446888 0.14008445
0.045231484 0.17896906 0.08576831 0.012881834 0.056353364 0.024288483 0.19884881 0.16851242
0.17702706 -0.07728947 -0.043247655 -0.036256753 0.19386718 0.1019462 -0.06901442 0.026192674
0.025420193 -0.11557827 0.079063974 0.05402473 0.09880855 0.069629475 0.064851254 0.030664856
-0.06359428 0.031242203 0.04853733 0.07524257 -0.116226025 -0.16545945 0.019948158 0.07571671
0.07520678 -0.19048364 0.09437796 -0.18402086 -0.117495306 0.084391244 -0.10198712 0.020446736
0.03609055 0.12270533 0.07122365 -0.094301134 0.03524273 -0.14066401 -0.059659526 0.07728125
-0.11275725 0.06198373 0.06903814 -0.0625339 0.0795589 -0.018138038 -0.089320086 0.08288436
0.19128862 -0.12070733 0.040480047 0.15896748 0.08903802 -0.15652178 0.115639955 -0.011921622
-0.1491815 0.14236507 0.14254293 0.15959124 -0.0416218 0.029000511 -0.12945326 0.034033343
-0.14501882 -0.11603255 -0.095182255 0.0035026155 -0.013038987 0.12960665 0.05138943 -0.115789145
-0.008343951 0.2169636 0.118914604 -0.13366394 0.04514464 0.009229381 -0.046488307 0.007205881
0.33117244 -0.01010284 -0.110023245 0.11413195 -0.10681659 0.4383312 0.14072531 0.1192872
-0.047326677 0.018847862 0.21758118 -0.00820988 0.08254152 0.17448911 0.1961517 -0.08212738
0.13680723 0.15660572 0.00012036873 -0.06258445 0.135409 0.17061587 -0.035230715 -0.011922622
00000000: 35fb 63bc bf7a f23e b1a5 3b3e 4377 b13c
00000010: ee29 693e 3607 033f 6606 0e3d 9267 a1bd
00000020: 8a54 bb3d bc7b 6bbd 768c 09bc ef3d 0bbe
00000030: c6ff 923d ee89 d43e a96e ea3d 4c72 0f3e
00000040: a644 393d aa43 373e 4ca7 af3d 540e 533c
00000050: c9d2 663d a4f8 c63c 069f 4b3e 858e 2c3e
00000060: 9546 353e f149 9ebd 7424 31bd f681 14bd
00000070: 1e85 463e 2bc9 d03d 6f57 8dbd 0592 d63c
00000080: 023e d03c 4db4 ecbd 4bec a13d 0949 5d3d
00000090: 235c ca3d e699 8e3d bcd0 843d dd34 fb3c
000000a0: b83d 82bd a6ef ff3c 14cf 463d c718 9a3d
000000b0: e907 eebd 346e 29be 526a a33c 5d11 9b3d
000000c0: 0306 9a3d 250e 43be 3b49 c13d f76f 3cbe
000000d0: 61a1 f0bd 51d5 ac3d a0de d0bd ea7f a73c
000000e0: afd3 133d ef4c fb3d b4dd 913d f420 c1bd
000000f0: ae5a 103d 3a0a 10be 8c5d 74bd a245 9e3d
00000100: 46ed e6bd a7e2 7d3d de63 8d3d c611 80bd
00000110: c7ef a23d 3996 94bc 73ed b6bd 46bf a93d
00000120: 2ae1 433e 6835 f7bd 68ce 253d 5fc8 223e
00000130: 9159 b63d 3f47 20be a4d4 ec3d e852 43bc
00000140: 09c3 18be 26c8 113e c6f6 113e e36b 233e
00000150: 9f7b 2abd 7b92 ed3c 658f 04be 8c66 0b3d
00000160: d07f 14be 79a2 edbd eaee c2bd 238c 653b
00000170: 7aa1 55bc 9bb7 043e b97d 523d dc22 edbd
00000180: 11b5 08bc b52b 5e3e 8089 f33d 33df 08be
00000190: 96e9 383d d436 173c 866a 3ebd 501f ec3b
000001a0: 6f8f a93e 6286 25bc de53 e1bd 03be e93d
000001b0: a8c2 dabd f26c e03e 4c1a 103e d94c f43d
000001c0: 9ed9 41bd d566 9a3c 9acd 5e3e bc82 06bc
000001d0: 870b a93d 46ad 323e fedb 483e 6632 a8bd
000001e0: 3217 0c3e 405d 203e 786e fc38 472c 80bd
000001f0: a8a8 0a3e edb5 2e3e 154e 10bd 1a57 43bc

dest_lstm_obs.weight_ih_l0 f4 [128, 2]
0.027206983 -0.084617436 -0.037457444 -0.00960814 -0.03085729 -0.04952587 -0.009891376 0.008460933
0.16799425 0.0059310114 -0.10670459 0.046460338 0.09832667 0.029429631 0.084515885 -0.029326435
-0.010192268 -0.033347994 -0.025323521 0.023059115 -0.1636643 0.09020092 -0.10231772 -0.11782277
-0.127114 0.109643914 -0.09722483 -0.107482105 -0.06261241 -0.14313217 0.058500547 0.08614229
0.04751401 -0.021580618 -0.037514616 0.0699921 0.015644515 0.030598266 -0.011249896 -0.05384739
0.06990993 -0.04125682 -0.038941406 -0.0014816844 -0.09371267 0.099817134 -0.13012804 -0.041864008
-0.0050490173 0.017868875 -0.1080876 0.10021698 0.036570802 -0.0563212 -0.13587634 0.10809374
0.057900228 0.038674157 0.09217669 -0.008493415 0.110754654 -0.11810337 0.020666167 0.057832457
-0.122920334 -0.029604074 0.047892526 -0.037090275 -0.09545633 -0.0388904 -0.109457135 -0.056732576
-0.113966055 0.11488495 -0.035028104 -0.11515942 -0.13808535 -0.004141578 -0.022408452 0.011536429
-0.00949535 0.023278482 0.08327024 -0.06772066 -0.10474483 -0.09456334 -0.108332455 0.14479728
0.017525487 0.0050153164 0.15128171 -0.044641104 -0.0812655 0.13956565 -0.06577639 0.0131369
-0.019681804 -0.14957555 -0.019622497 -0.13625205 -0.043814097 0.08914597 -0.070094824 0.07424875
-0.0541856 0.031820726 0.03384307 0.04619142 -0.17034537 -0.15425366 0.042988375 -0.07451062
-0.09397283 0.022084082 0.08114202 0.036664538 -0.048211854 -0.044924404 -0.14898019 0.03506282
-0.0767007 -0.0441681 -0.0957258 -0.15244079 0.0109700225 -0.08776555 -0.03527353 -0.06666412
0.085289724 0.08188743 0.050009124 0.043168325 -0.06647642 -0.032970704 -0.04149794 0.10580938
-0.088215366 -0.079486065 0.101993725 0.059260532 -0.101229385 -0.08947869 -0.009092451 0.028306285
0.04899112 0.0017039306 0.1753538 -0.08794014 0.040429063 -0.14911422 0.026995728 0.08311799
0.004957062 -0.021288026 -0.008592855 -0.08969817 -0.037045687 0.0047089057 0.04619596 0.0029345853
0.14342734 -0.050162617 -0.08836399 0.08896726 -0.045876943 -0.11159657 0.029151794 0.075406775
0.061963636 -0.0708398 0.033471532 0.009830388 -0.07588655 -0.0306216 0.072711915 0.060790706
-0.047840223 0.053372215 0.005688062 0.021304706 0.08281114 0.050526496 0.07069287 0.07165849
0.0020935824 0.0037252386 -0.06887436 0.07216621 -0.048665535 -0.028979104 0.054349482 0.081083596
0.11258119 -0.09071144 0.102817886 -0.13218257 0.008377329 -0.10213469 0.104916036 -0.03386764
0.14155659 0.124641396 0.01849626 -0.16180936 0.07654062 0.05365223 -0.16537826 -0.08997658
-0.15777802 0.0748874 0.10569066 -0.14919506 0.045738712 0.099444695 7.010202e-05 -0.14509544
-0.099322364 -0.042030644 -0.14395021 0.07502557 -0.049568538 0.109485514 -0.14595394 -0.09270099
-0.008946441 0.06588441 -0.120299205 0.06301404 -0.00771376 -0.02911076 -0.15120542 -0.035799697
0.14201844 -0.10253675 -0.046107423 -0.09980317 0.10728881 -0.042240724 -0.055279866 0.12054519
-0.0759447 0.112400346 -0.038949136 -0.07083415 0.09125571 -0.11709795 -0.07129143 -0.0013294301
-0.1375607 -0.11021589 -0.14258999 0.017163355 0.03477753 -0.0151002 -0.09398367 0.11345924
00000000: 2ee1 de3c e84b adbd fa6c 19bd 766b 1dbc
00000010: 6dc8 fcbc a3db 4abd 700f 22bc ba9f 0a3c
00000020: af06 2c3e ee58 c23b f087 dabd 324d 3e3d
00000030: 7e5f c93d 6916 f13c aa16 ad3d fe3d f0bc
00000040: 78fd 26bc e897 08bd 4673 cfbc 78e6 bc3c
00000050: 9d97 27be 43bb b83d f48b d1bd 104d f1bd
00000060: 2c2a 02be fd8c e03d d01d c7bd 941f dcbd
00000070: ef3a 80bd 3d91 12be 459e 6f3d 5e6b b03d
00000080: 0d9e 423d d6c9 b0bc eda8 19bd 0558 8f3d
00000090: ed28 803c 37a9 fa3c 7c51 38bc 158f 5cbd
000000a0: f02c 8f3d e9fc 28bd 0681 1fbd 1435 c2ba
000000b0: 6eec bfbd ed6c cc3d 4940 05be 9879 2bbd
000000c0: 3a72 a5bb bf61 923c 085d ddbd 8f3e cd3d
000000d0: 44cb 153d 0fb1 66bd 2b23 0bbe 4060 dd3d
000000e0: ca28 6d3d cb68 1e3d 22c7 bc3d f727 0bbc
000000f0: 56d3 e23d 2ee0 f1bd 184c a93c bae1 6c3d
00000100: a8bd fbbd 3e84 f2bc f42a 443d f9eb 17bd
00000110: 9c7e c3bd 8a4b 1fbd 102b e0bd 6b60 68bd
00000120: 0967 e9bd cd48 eb3d a179 0fbd b4d8 ebbd
00000130: 3f66 0dbe 13b6 87bb ee91 b7bc 4a03 3d3c
00000140: 6292 1bbc 84b2 be3c 9689 aa3d 21b1 8abd
00000150: 7584 d6bd 6daa c1bd 68dd ddbd bd45 143e
00000160: 9c91 8f3c 8657 a43b 98e9 1a3e 97d9 36bd
00000170: 876e a6bd 4cea 0e3e c6b5 86bd 273c 573c
00000180: bc3b a1bc 552a 19be 5cbf a0bc a885 0bbe
00000190: 6976 33bd 2a92 b63d e08d 8fbd bb0f 983d
000001a0: b8f1 5dbd 7356 023d 089f 0a3d 3733 3d3d
000001b0: 046f 2ebe acf4 1dbe 9414 303d 0699 98bd
000001c0: d474 c0bd ade9 b43c ca2d a63d 8e2d 163d
000001d0: cb79 45bd a702 38bd 438e 18be 089e 0f3d
000001e0: 4215 9dbd 9ce9 34bd e30b c4bd 7019 1cbe
000001f0: 9cbb 333c 6dbe b3bd fa7a 10bd 3387 88bd
00000200: 61ac ae3d 99b4 a73d 5ed6 4c3d 45d1 303d
00000210: ca24 88bd 4a0c 07bd bef9 29bd 97b2 d83d
00000220: 42aa b4bd 97c9 a2bd 16e2 d03d 2cbb 723d
00000230: 5a51 cfbd 9a40 b7bd 81f8 14bc 95e2 e73c
00000240: eaaa 483d 6c56 df3a f28f 333e f619 b4bd
00000250: f298 253d 66b1 18be 2526 dd3c c439 aa3d
00000260: da6e a23b 3a64 aebc 0cc9 0cbc adb3 b7bd
00000270: 38bd 17bd 2a4d 9a3b fa37 3d3d 2c52 403b
00000280: 9ede 123e 5177 4dbd 2ef8 b4bd 7834 b63d
00000290: 76e9 3bbd be8c e4bd becf ee3c de6e 9a3d
000002a0: 95cd 7d3d 7514 91bd 7219 093d a30f 213c
000002b0: 686a 9bbd 26da fabc fce9 943d adff 783d
000002c0: 1cf4 43bd d39c 5a3d ec62 ba3b 3587 ae3c
000002d0: e398 a93d dff4 4e3d 6cc7 903d b0c1 923d
000002e0: 7c34 093b 2223 743b 000e 8dbd e1cb 933d
000002f0: 8355 47bd 9665 edbc 909d 5e3d 280f a63d
00000300: f890 e63d ebc6 b9bd 2f92 d23d de5a 07be
00000310: 1141 093c fe2b d1bd 38de d63d cbb8 0abd
00000320: 36f4 103e fd43 ff3d 7885 973c 5ab1 25be
00000330: 54c1 9c3d 71c2 5b3d eb58 29be a445 b8bd
00000340: 9090 21be 915e 993d 5874 d83d 97c6 18be
00000350: 8458 3b3d a9a9 cb3d bc03 9338 e693 14be
00000360: 8669 cbbd 5328 2cbd af67 13be 02a7 993d
00000370: 6108 4bbd f139 e03d f374 15be 04da bdbd
00000380: 1894 12bc 68ee 863d 6e5f f6bd 810d 813d
00000390: b5c3 fcbb b079 eebc 98d5 1abe b4a2 12bd
000003a0: 486d 113e cafe d1bd 23db 3cbd 9b65 ccbd
000003b0: 3cba db3d 9c04 2dbd 246d 62bd 66e0 f63d
000003c0: e588 9bbd 2732 e63d 2189 1fbd 7f11 91bd
000003d0: 46e4 ba3d 0dd1 efbd 3e01 92bd 4640 aeba
000003e0: b6dc 0cbe deb8 e1bd 1c03 12be 2a9a 8c3c
000003f0: e272 0e3d d466 77bc 837a c0bd 515d e83d

dest_lstm_obs.weight_hh_l0 f4 [128, 32]
-0.050317537 -0.1758856 0.16110475 0.13753872 -0.05229072 0.014017495 0.12219872 -0.044039246
-0.064947754 -0.090447396 0.16269416 -0.06387962 0.025404826 0.13732177 -0.055749852 -0.13787134
-0.08919962 -0.16793422 -0.022172851 0.06759244 -0.3004715 -0.10862193 0.118000135 -0.02442031
0.13758926 0.1457817 -0.13696395 -0.04033278 0.1656792 0.10618718 0.07973507 0.17770657
0.0453972 -0.15129955 0.047128096 -0.105367534 0.058294993 -0.1509364 -0.076254025 0.101187855
0.1495576 0.034042656 0.03042597 0.1314764 -0.0016797665 0.016390882 0.14160231 -0.15766202
0.08704523 0.17791732 -0.028591203 -0.05410653 0.010252837 -0.11152702 -0.07078341 -0.11555555
0.122852325 -0.1403818 0.15439941 0.09773103 -0.021358605 0.123670526 0.1440207 0.12439205
0.07375342 -0.01717722 0.14618126 0.08666015 -0.0912365 0.039443288 -0.043627713 0.08703022
0.016274802 0.05942951 0.21714827 0.06661861 0.2155093 0.15407331 0.16356446 -0.022300178
-0.13411362 0.068152934 0.08033698 0.080393285 0.16900878 -0.21387443 -0.104200274 -0.19014996
-0.16136919 -0.014927752 0.12719712 0.015995344 -0.11318416 -0.075755596 0.15403694 0.096790366
0.12579761 0.07698739 -0.19549648 -0.039670035 0.25087625 0.16349384 -0.09363907 0.08767971
-0.08232488 -0.014669509 0.014077067 0.030794576 -0.016049372 0.07626626 0.107310146 -0.12173878
-0.115857415 0.10146497 -0.009651775 -0.01770658 -0.04009442 0.12644154 0.019222626 -0.15333086
-0.017728586 -0.056196384 -0.12544423 0.1255045 -0.0031893454 0.09164515 0.14028314 -0.19877362
-0.0959128 0.17712085 0.073857635 -0.200099 -0.16266978 0.1286414 -0.09731123 0.040453084
0.14710104 -0.009836719 -0.0933877 0.112038426 -0.09186861 -0.16650084 -0.21815726 0.1611584
-0.07525304 0.07022157 -0.13685203 -0.050488528 0.14607541 -0.0073205675 -0.2044982 0.07285914
0.07090622 0.017146153 -0.049544238 0.14579517 -0.13018666 -0.05929671 -0.111930594 -0.07066765
-0.0151787475 -0.16774106 -0.19891623 -0.04672256 0.024001127 -0.15126592 -0.107986934 0.050699636
-0.08438064 -0.0900688 0.08748568 -0.058675393 -0.0837639 0.015279361 -0.0010618384 -0.06441425
-0.09070429 -0.025022779 0.16934812 0.1511242 0.056345973 0.005214879 -0.10227471 0.16402592
-0.2117622 0.032895617 -0.15132636 0.086041324 -0.03760542 0.16122495 -0.04947201 -0.12439212
0.035443276 0.057862367 -0.14721626 -0.15227821 0.058309577 0.085305944 0.11645207 0.13537872
0.12211756 -0.11978854 0.03950143 -0.048045684 -0.14518513 -0.18866383 -0.15467949 -0.021334564
-0.17392029 -0.08478179 0.01601227 -0.09405622 0.1806987 -0.17162322 0.17957854 0.08828455
-0.05043581 -0.004940093 -0.16480696 0.09592989 0.14751804 -0.18327922 0.10877272 0.063024074
-0.023688804 -0.15053433 -0.19093668 -0.020061508 0.00359162 -0.14435183 0.058906697 0.09541039
0.0939529 -0.031000914 -0.047707494 0.08028554 0.0484405 -0.19152755 -0.013059372 0.14428999
-0.122566596 0.02880752 -0.009368367 -0.06710117 -0.13176352 -0.027172094 0.10285831 -0.050647497
-0.020648513 0.0066706566 0.11064093 0.09344056 -0.054716766 -0.019038185 0.014186059 0.04942767
00000000: c319 4ebd 5b1b 34be a5f8 243e f3d6 0c3e
00000010: cb2e 56bd a3a9 653c 5343 fa3d 7f62 34bd
00000020: 5403 85bd 7c3c b9bd 4c99 263e 51d3 82bd
00000030: c81d d03c 149e 0c3e f559 64bd 252e 0dbe
00000040: 4aae b6bd f3f6 2bbe d7a3 b5bc e86d 8a3d
00000050: 67d7 99be 2d75 debd 0eaa f13d 1a0d c8bc
00000060: 33e4 0c3e cc47 153e 4740 0cbe fc33 25bd
00000070: cfa7 293e aa78 d93d 244c a33d b6f8 353e
00000080: 6af2 393d 45ee 1abe 6409 413d efca d7bd
00000090: bbc6 6e3d 128f 1abe 122b 9cbd 943b cf3d
000000a0: a125 193e 5070 0b3d e23f f93c c0a1 063e
000000b0: 9c2b dcba 2c46 863c 3200 113e 2772 21be
000000c0: c544 b23d f52f 363e 1938 eabc cf9e 5dbd
000000d0: 84fb 273c 4768 e4bd e4f6 90bd 63a8 ecbd
000000e0: 009a fb3d 3fc0 0fbe e11a 1e3e 3527 c83d
000000f0: 3ef8 aebc f946 fd3d 2a7a 133e 42c1 fe3d
00000100: 080c 973d 3eb7 8cbc 8ab0 153e e07a b13d
00000110: 34da babd 498f 213d f9b2 32bd e63c b23d
00000120: bc52 853c 5c6c 733d 1e5c 5e3e 566f 883d
00000130: 78ae 5c3e 65c5 1d3e 717d 273e ddae b6bc
00000140: 1555 09be c493 8b3d b787 a43d 3ca5 a43d
00000150: a310 2d3e e601 5bbe f466 d5bd acb6 42be
00000160: f73d 25be 8893 74bc f63f 023e ab08 833c
00000170: 19cd e7bd c025 9bbd dcbb 1d3e 073a c63d
00000180: 17d1 003e 91ab 9d3d 3b30 48be 0c7d 22bd
00000190: da72 803e ee6a 273e d7c5 bfbd 6b91 b33d
000001a0: f299 a8bd 6158 70bc 80a3 663c e844 fc3c
000001b0: f979 83bc 7c31 9c3d 6cc5 db3d 2e52 f9bd
000001c0: a746 edbd decc cf3d 7a22 1ebc 640d 91bc
000001d0: 0c3a 24bd e479 013e c578 9d3c c402 1dbe
000001e0: 8a3b 91bc 2e2e 66bd 7474 00be 4084 003e
000001f0: 5604 51bb 74b0 bb3d 62a6 0f3e 508b 4bbe
00000200: ee6d c4bd 2b5f 353e ac42 973d c1e6 4cbe
00000210: e892 26be 92ba 033e 1c4b c7bd 22b2 253d
00000220: a8a1 163e 312a 21bc 0d42 bfbd 6774 e53d
00000230: 9c25 bcbd 327f 2abe 9e64 5fbe b506 253e
00000240: 441e 9abd 54d0 8f3d f022 0cbe 0fcd 4ebd
00000250: cb94 153e 5fe1 efbb fa67 51be 2c37 953d
00000260: 4837 913d 1776 8c3c e6ee 4abd 544b 153e
00000270: a74f 05be 1be1 72bd de3b e5bd 33ba 90bd
00000280: 48b0 78bc 50c4 2bbe b2b0 4bbe 2860 3fbd
00000290: 039e c43c 74e5 1abe 4128 ddbd 6caa 4f3d
000002a0: c2cf acbd fe75 b8bd b12b b33d 9c55 70bd
000002b0: 688c abbd 4956 7a3c 622d 8bba 9eeb 83bd
000002c0: 2cc3 b9bd 92fc ccbc 9869 2d3e 4dc0 1a3e
000002d0: 09cb 663d 93e1 aa3b 6775 d1bd 69f6 273e
000002e0: 31d8 58be 8ebd 063d 4cf5 1abe 6f36 b03d
000002f0: 2408 1abd 2718 253e 2aa3 4abd 4cc1 febd
00000300: f82c 113d 1701 6d3d dcbf 16be d2ee 1bbe
00000310: 06d6 6e3d e2b4 ae3d 6c7e ee3d b8a0 0a3e
00000320: c518 fa3d b253 f5bd 40cc 213d 8dcb 44bd
00000330: 69ab 14be 1731 41be 4d64 1ebe d3c5 aebc
00000340: 2918 32be 13a2 adbd 2a2c 833c 8ca0 c0bd
00000350: 1409 393e ffbd 2fbe 70e3 373e 88ce b43d
00000360: c895 4ebd 81e0 a1bb 28c3 28be e476 c43d
00000370: f80e 173e 8cad 3bbe 3bc4 de3d c412 813d
00000380: 060f c2bc ac25 1abe e884 43be 0858 a4bc
00000390: 6261 6b3b f7d0 13be 2648 713d 8666 c33d
000003a0: 616a c03d a1f5 fdbc ef68 43bd bf6c a43d
000003b0: 8c69 463d cc1f 44be faf6 55bc c1c0 133e
000003c0: 3204 fbbd c0fd eb3c c77d 19bc 576c 89bd
000003d0: 04ed 06be 0398 debc 61a7 d23d c073 4fbd
000003e0: 1227 a9bc 8695 da3b b697 e23d c45d bf3d
000003f0: b01e 60bd f8f5 9bbc a56c 683c ab74 4a3d

dest_lstm_obs.bias_ih_l0 f4 [128]
0.17166364 -0.09730326 -0.061272822 -0.050591223 0.08683485 -0.044181127 -0.12152914 -0.06368969
-0.124558136 0.074693896 0.035427336 -0.04411826 -0.08611057 -0.11358952 -0.019160641 -0.04198844
-0.22324067 -0.18901068 0.14749794 0.044558503 0.08426016 -0.013858439 0.13565111 -0.004387543
-0.077968456 -0.089446574 -0.1191722 -0.1356378 0.19920726 0.046106867 -0.0025719658 -0.08916418
0.046088543 0.014080085 -0.08899828 -0.17044827 0.19150016 0.06611343 -0.03085406 -0.15499383
0.06457442 0.13631034 -0.23824023 -0.046439476 0.13382992 -0.022621542 -0.08587982 -0.050111413
-0.23552826 -0.15615559 -0.13823827 0.052312374 -0.17364916 0.066643715 0.1093261 -0.040205725
-0.06658603 -0.010651793 0.004428949 0.11953518 0.21964458 0.055100787 0.082599044 -0.11016947
0.12804559 0.098690614 0.10694237 -0.13273196 -0.119379714 0.13471998 -0.120873 -0.03509928
0.076430984 0.23825683 0.0036354198 -0.078756936 -0.15943976 -0.006424487 -0.092040405 0.19128267
0.03140824 -0.005323884 -0.22283009 -0.165576 0.10033972 -0.027934326 0.053409323 -0.052411783
-0.037802357 -0.10411528 -0.12388462 0.0350379 -0.25884613 -0.16629559 -0.15316802 0.14974473
-0.12598309 -0.023199383 0.10698646 -0.008707315 -0.03775307 0.11611949 0.055911995 0.124282785
-0.0044575552 -0.14949702 -0.05262061 -0.049480624 0.086603306 -0.016421035 -0.055997834 -0.12036722
0.091825254 -0.07034496 -0.17120838 -0.15052807 -0.21452957 0.12959799 -0.066395745 -0.16690102
-0.011628781 -0.013802842 0.13575208 -0.17341667 0.06465162 0.0040287236 -0.13003676 -0.11504239
00000000: 98c8 2f3e ee46 c7bd 36f9 7abd be38 4fbd
00000010: 78d6 b13d 45f7 34bd 45e4 f8bd bd6f 82bd
00000020: 5618 ffbd 1df9 983d 411c 113d 59b5 34bd
00000030: bd5a b0bd 9fa1 e8bd c7f6 9cbc 12fc 2bbd
00000040: 3499 64be 048c 41be b309 173e fa82 363d
00000050: 9790 ac3d 820e 63bc 20e8 0a3e 61c5 8fbb
00000060: edad 9fbd c42f b7bd 8e10 f4bd a3e4 0abe
00000070: fdfc 4b3e 8eda 3c3d 6d8e 28bb b69b b6bd
00000080: 57c7 3c3d 28b0 663c bb44 b6bd fe89 2ebe
00000090: 9e18 443e 7a66 873d a7c1 fcbc b4b6 1ebe
000000a0: 983f 843d f094 0b3e 3ff5 73be 5237 3ebd
000000b0: b60a 093e d050 b9bc c2e1 afbd a041 4dbd
000000c0: 522e 71be 40e7 1fbe 558e 0dbe 8045 563d
000000d0: 16d1 31be 807c 883d 5de6 df3d c2ae 24bd
000000e0: 425e 88bd dc84 2ebc b820 913b dcce f43d
000000f0: 82ea 603e 5db1 613d b029 a93d 88a0 e1bd
00000100: 621e 033e 4e1e ca3d 9a04 db3d e3ea 07be
00000110: 5a7d f4bd 09f4 093e 438c f7bd 43c4 0fbd
00000120: d987 9c3d 99f9 733e 3940 6e3b 514b a1bd
00000130: 2d44 23be 8184 d2bb ae7f bcbd 9bdf 433e
00000140: eda5 003d fa73 aebb 922d 64be c18c 29be
00000150: e97e cd3d 87d6 e4bc bcc3 5a3d bdad 56bd
00000160: a5d6 1abd 643a d5bd 38b7 fdbd e783 0f3d
00000170: 7b87 84be 6449 2abe 14d8 1cbe af56 193e
00000180: b601 01be a20c bebc b81b db3d 20a9 0ebc
00000190: f7a2 1abd 0ed0 ed3d fa03 653d f987 fe3d
000001a0: af10 92bb bf15 19be b588 57bd 32ac 4abd
000001b0: 135d b13d 6885 86bc fc5d 65bd 1783 f6bd
000001c0: e10e bc3d 0511 90bd 4051 2fbe 0824 1abe
000001d0: a4ad 5bbe 56b5 043e 7efa 87bd 1ae8 2abe
000001e0: a586 3ebc 5125 62bc 9802 0b3e 2494 31be
000001f0: 1268 843d 6203 843b 5b28 05be 589b ebbd

dest_lstm_obs.bias_hh_l0 f4 [128]
0.08405512 -0.09404056 -0.18144514 -0.1574814 0.023199722 -0.057351552 -0.0012577843 0.021987934
-0.02265957 0.0693946 0.055141702 -0.13007599 -0.14113528 -0.16685326 0.08190456 -0.13107756
-0.13938586 0.10679572 0.0152239045 0.10136927 -0.1712116 -0.22486362 -0.12442745 0.080313265
-0.11034067 0.050900817 -0.11833589 0.013513584 -0.009369498 0.0480707 0.10800397 -0.09956931
-0.0093577625 -0.14582567 -0.083369166 -0.12854636 0.058431722 -0.07253022 0.0705107 -0.121396884
-0.27878553 -0.17370413 -0.20911081 0.034158565 -0.046033774 -0.1970509 0.035008907 0.009533057
0.029316003 -0.19077061 -0.09599535 -0.053357158 -0.23089682 0.0017317458 -0.16853602 -0.032286886
0.17871872 0.08184163 0.01921268 -0.118242845 -0.03752089 -0.15578553 -0.1702039 -0.16296066
0.112196125 0.16288239 0.029356739 -0.05680696 -0.40238488 0.067902505 0.078959115 0.08531229
0.0100780595 -0.045397602 -0.074890494 0.014775799 0.024952065 -0.15450461 -0.07553724 0.18776014
0.1525899 -0.042047 -0.11003703 -0.17032564 -0.062465094 0.115520045 -0.04159156 0.19127265
0.21618283 0.0605438 0.101944044 0.15299211 -0.09447272 -0.045871437 0.12629947 0.13306983
-0.04613958 -0.09005393 -0.1239773 -0.13608941 0.051252015 -0.16463853 -0.03137123 0.10142131
-0.010378797 0.11258253 -0.17337362 -0.029305112 0.055462494 0.07770267 -0.19568156 -0.038248986
0.07636083 -0.11705559 0.016801488 0.10025742 0.020744598 -0.20050658 -0.18765521 -0.2022657
-0.1325339 -0.05199942 0.08489297 -0.11541618 0.045068882 0.12132552 -0.021238528 0.10731712
00000000: 1725 ac3d 5698 c0bd c1cc 39be ce42 21be
00000010: 580d be3c 76e9 6abd 3ddc a4ba 0a20 b43c
00000020: 90a0 b9bc c21e 8e3d 44dc 613d a432 05be
00000030: c485 10be 95db 2abe 94bd a73d 3239 06be
00000040: 2bbb 0ebe b7b7 da3d af6d 793c b19a cf3d
00000050: 1852 2fbe a642 66be d2d3 febd 487b a43d
00000060: 4afa e1bd 607d 503d 165a f2bd 1468 5d3c
00000070: 8682 19bc c8e5 443d 2f31 dd3d ffea cbbd
00000080: 4d51 19bc 5353 15be 74bd aabd a8a1 03be
00000090: 1a56 6f3d b98a 94bd ea67 903d ee9e f8bd
000000a0: fabc 8ebe 7fdf 31be 2521 56be dae9 0b3d
000000b0: e98d 3cbd b6c7 49be 8065 0f3d 8a30 1c3c
000000c0: 1d28 f03c 5f59 43be 3699 c4bd 098d 5abd
000000d0: 3770 6cbe bffb e23a b594 2cbe 413f 04bd
000000e0: 0a02 373e 969c a73d e963 9d3c 4e29 f2bd
000000f0: 81af 19bd 3e86 1fbe ee49 2ebe 29df 26be
00000100: 15c7 e53d a4ca 263e 8b7d f03c 6aae 68bd
00000110: 6405 cebe 7810 8b3d 51b5 a13d 36b8 ae3d
00000120: 721e 253c d6f2 39bd 3060 99bd 3116 723c
00000130: 4668 cc3c 7536 1ebe 45b3 9abd 3244 403e
00000140: 8740 1c3e 7a39 2cbd 185b e1bd d869 2ebe
00000150: 66db 7fbd c695 ec3d e95b 2abd fadc 433e
00000160: 085f 5d3e c7fc 773d 0ac8 d03d f7a9 1c3e
00000170: ea7a c1bd b0e3 3bbd a654 013e 7543 083e
00000180: dbfc 3cbd 326e b8bd d0e7 fdbd 065b 0bbe
00000190: a2ed 513d 0197 28be 1e7f 00bd fab5 cf3d
000001a0: d40b 2abc ab91 e63d db88 31be 4611 f0bc
000001b0: a42c 633d 9422 9f3d bf60 48be f8aa 1cbd
000001c0: 1163 9c3d d7ba efbd 46a3 893c c353 cd3d
000001d0: 93f0 a93c 9951 4dbe b028 40be bd1e 4fbe
000001e0: f7b6 07be 58fd 54bd 5edc ad3d 515f ecbd
000001f0: 269a 383d 8479 f83d 6cfc adbc 14c9 db3d

dest_lstm_fut.weight_ih_l0 f4 [128, 2]
0.069460444 0.060051646 -0.08161025 0.049582735 -0.1586024 0.04730774 -0.15896806 -0.007914211
-0.14187837 0.1181442 -0.039101623 -0.09104675 -0.068015985 -0.1115982 -0.08715445 -0.09884547
-0.12778509 0.020550687 -0.06336158 0.028196001 0.043675914 -0.079952344 0.06565657 0.06191217
-0.12696531 0.009695393 -0.09812509 -0.040016882 0.10269381 0.08268039 0.009656409 -0.13188711
0.15092508 0.14056872 0.06500791 -0.09290903 0.09335866 0.023908827 0.1011844 0.057175178
-0.09158879 -0.070338964 -0.10236593 -0.054998532 0.04036423 -0.048324883 0.038764976 -0.11617942
-0.011223771 0.07148177 -0.0251248 0.020603236 -0.08643197 0.01639318 0.09481005 -0.17181113
0.15699698 -0.077908315 0.08318723 0.048235465 -0.12709886 -0.10048096 0.016655266 -0.10853334
-0.1783101 0.02012864 -0.048018217 -0.1355502 0.13552149 -0.10711128 0.07672539 -0.06612287
0.09839354 0.0785406 -0.10041195 0.055343613 0.09093472 0.10877595 0.03641984 -0.10355984
-0.040447224 -0.013027929 -0.063995115 -0.0952898 -0.208707 -0.04400417 -0.12882228 -0.103144675
-0.015721451 0.018678904 -0.11800839 0.048442792 0.09188333 -0.12554127 0.07797283 0.13078427
-0.14765131 0.016311308 0.06659216 -0.0015630558 -0.056625802 -0.15488458 0.0070807617 0.104541875
-0.14945222 -0.02345883 -0.07680888 0.044735767 -0.038500823 -0.16612636 -0.00746925 0.060211387
-0.059478104 -0.13586888 -0.012147985 -0.063365474 -0.0014748748 -0.026263785 -0.16216458 0.04596119
-0.09562457 0.07257866 -0.02299932 -0.11983332 0.08462886 0.045008417 -0.16497752 0.1152096
-0.10633846 0.0525983 0.052842308 0.10362845 0.021994848 0.07078673 0.08309447 -0.09015901
-0.04894738 -0.044917427 -0.026506864 0.062015448 -0.06765556 -0.065865636 -0.0246598 -0.08555814
-0.111917466 0.072131604 0.041619387 -0.08763862 0.080388196 -0.095499545 -0.0732228 -0.015868958
-0.05308136 0.106102556 0.05302181 0.040639274 0.0054809693 0.09643618 -0.020808157 -0.03681653
-0.07031943 0.0033977805 0.011274645 0.020383798 -0.040559925 -0.075570956 -0.034523986 -0.03229667
0.047479734 -0.060984924 -0.023296926 0.11072451 -0.042839624 -0.010991693 0.04159234 0.026517004
0.032339096 0.07292326 0.06845395 0.06741974 -0.10887681 0.04940391 0.022476902 0.033865057
0.030082677 -0.061246216 0.10745355 0.054059375 0.082885794 -0.046131704 0.11797354 0.09906565
0.07182797 -0.08404195 0.08054434 -0.033080764 0.10067127 -0.03352112 0.03810606 0.0784817
-0.10156153 -0.13868774 0.057640035 -0.1030944 -0.012799708 0.07379374 -0.058283437 0.04724492
0.018526375 0.037710164 -0.0045302752 -0.004243312 0.060266852 -0.014384912 0.004022008 -0.015675511
-0.041936774 -0.013419456 0.13856484 -0.12931573 0.06604316 -0.014962794 -0.016500913 -0.06603046
0.01757821 0.036150374 -0.08144169 -0.113653764 0.102553666 0.12746605 0.053318873 -0.07182337
-0.09884626 -0.17822719 0.09206857 0.008609539 -0.1318334 0.12515849 -0.11007809 0.13610977
-0.032238327 -0.13616478 0.11886425 -0.07802766 0.11228312 -0.07841349 0.03641128 0.031316362
-0.06709066 -0.07998066 0.11382759 -0.04599481 0.034264933 -0.011806486 0.085983045 0.028159894
00000000: 4741 8e3d b7f8 753d 4623 a7bd 4417 4b3d
00000010: ab68 22be c3c5 413d 86c8 22be 9baa 01bc
00000020: 9048 11be 96f5 f13d 0629 20bd b876 babd
00000030: f74b 8bbd 998d e4bd 087e b2bd 7e6f cabd
00000040: 18da 02be ea59 a83c b7c3 81bd 4dfb e63c
00000050: 84e5 323d 0ebe a3bd f476 863d 9e97 7d3d
00000060: 3203 02be 6dd9 1e3c cff5 c8bd bee8 23bd
00000070: 2251 d23d 5654 a93d ea35 1e3c 6a0d 07be
00000080: 1b8c 1a3e 3ff1 0f3e de22 853d 1747 bebd
00000090: d332 bf3d 72dc c33c c439 cf3d 8530 6a3d
000000a0: e792 bbbd e00d 90bd 3ba5 d1bd 2446 61bd
000000b0: f654 253d 50f0 45bd 06c8 1e3d 7aef edbd
000000c0: e8e3 37bc 0965 923d 86d2 cdbc 1ec8 a83c
000000d0: 3f03 b1bd fd4a 863c c62b c23d 42ef 2fbe
000000e0: d1c3 203e 658e 9fbd 115e aa3d 8d92 453d
000000f0: 3426 02be f6c8 cdbd a070 883c ba46 debd
00000100: ec96 36be d1e4 a43c c0ae 44bd accd 0abe
00000110: 25c6 0a3e 295d dbbd 3422 9d3d 6d6b 87bd
00000120: 8d82 c93d e5d9 a03d c8a4 cdbd fcaf 623d
00000130: fc3b ba3d edc5 de3d f82c 153d 2e17 d4bd
00000140: fdab 25bd 1873 55bc df0f 83bd 4c27 c3bd
00000150: 4ab7 55be b73d 34bd fde9 03be 843d d3bd
00000160: 46ca 80bc 8004 993c 62ae f1bd f36b 463d
00000170: 542d bc3d e48d 00be 38b0 9f3d 50ec 053e
00000180: e831 17be 4b9f 853c 7861 883d 73df ccba
00000190: 75f0 67bd 109a 1ebe bc05 e83b 0d1a d63d
000001a0: 010a 19be bb2c c0bc f94d 9dbd da3c 373d
000001b0: 0ab3 1dbd 071d 2abe 9cc0 f4bb 37a0 763d
000001c0: 509f 73bd 3621 0bbe 5808 47bc c2c5 81bd
000001d0: 9650 c1ba 2627 d7bc 790e 26be cd41 3c3d
000001e0: d1d6 c3bd 1fa4 943d 1269 bcbc 2c6b f5bd
000001f0: e551 ad3d bf5a 383d deef 28be 03f3 eb3d
00000200: fbc7 d9bd 5171 573d 2d71 583d 273b d43d
00000210: 8a2e b43c a2f8 903d 6f2d aa3d 49a5 b8bd
00000220: 0c7d 48bd 56fb 37bd ec24 d9bc e903 7e3d
00000230: 008f 8abd 90e4 86bd 5903 cabc 1b39 afbd
00000240: fc34 e5bd bcb9 933d 1779 2a3d e07b b3bd
00000250: 91a2 a43d 4495 c3bd d6f5 95bd 9eff 81bc
00000260: d76b 59bd 4c4c d93d 662d 593d 5e75 263d
00000270: b499 b33b 5580 c53d de75 aabc eecc 16bd
00000280: a203 90bd 4cad 5e3b 4ab9 383c ecfb a63c
00000290: 2a22 26bd f2c4 9abd 0669 0dbd 8349 04bd
000002a0: 1c7a 423d 54cb 79bd 32d9 bebc 88c3 e23d
000002b0: 9a78 2fbd 8016 34bc bb5c 2a3d 303a d93c
000002c0: 0076 043d ca58 953d 9631 8c3d 5c13 8a3d
000002d0: cefa debd c15b 4a3d 7b21 b83c 16b6 0a3d
000002e0: f26f f63c 50dd 7abd 9b10 dc3d 5d6d 5d3d
000002f0: 07c0 a93d 99f4 3cbd 1d9c f13d eee2 ca3d
00000300: 8b1a 933d 301e acbd 6ef4 a43d b27f 07bd
00000310: bd2c ce3d 714d 09bd 1a15 1c3d 03bb a03d
00000320: 7eff cfbd 2904 0ebe f517 6c3d 2823 d3bd
00000330: deb5 51bc 2c21 973d 9dba 6ebd e483 413d
00000340: a0c4 973c f975 1a3d b472 94bb 7b0b 8bbb
00000350: 60da 763d b2ae 6bbc 0ccb 833b ee69 80bc
00000360: e5c5 2bbd 47dd 5bbc f1e3 0d3e 586b 04be
00000370: a341 873d 8226 75bc ec2c 87bc fa3a 87bd
00000380: 2e00 903c 6a12 143d e7ca a6bd 4ec3 e8bd
00000390: a807 d23d 7686 023e e464 5a3d 2218 93bd
000003a0: e86f cabd 3081 36be 728e bc3d 060f 0d3c
000003b0: 56ff 06be 8c29 003e 9f70 e1bd 5c60 0b3e
000003c0: 560c 04bd c86e 0bbe 1a6f f33d f7cc 9fbd
000003d0: b1f4 e53d 4097 a0bd ff23 153d 9645 003d
000003e0: d466 89bd e6cc a3bd 711e e93d 0e65 3cbd
000003f0: 6359 0c3d fe6f 41bc e117 b03d 94af e63c
