src/do_tp_federated_federated_round_10.pt (torch, 157109 bytes, 26 tensors)

linear_enc.weight f4 [64, 2]
00000000: bc30 033f 76f3 233f 4e44 f53e 0485 463d
00000010: 618f 203f fc71 f63e 3ac7 f43e d16b 3bbf
00000020: a11b 983e 7ead 1cbf 2f89 98bb 9868 ae3e
00000030: 9a88 03bf 6f98 e13e d2b4 a03e 54f0 b8be
00000040: b5bd 743d 8c87 ffbd 277c 00bf 9f69 36be
00000050: 78aa c23e 0ffc 563d d916 0c3f 1663 3cbf
00000060: df23 043f 08e4 263e ccc5 82be 892b 8abf
00000070: 2fac 45be 020e 82be aab9 f13e 0e82 77bd
00000080: 0530 43bf d4a1 39bf f863 2cbf 276b 43be
00000090: 3ad1 253f bf78 4ebf 0201 c73e 9d27 d8be
000000a0: f3f4 0f3f cbee 72bf daff 2bbf 7897 593f
000000b0: d0d4 0fbf 965b 8b3e 3c7b 11be dd58 adbd
000000c0: 093b d23e 1f75 04bf 1167 af3e d290 dd3d
000000d0: 3a59 18bf 4d77 273e 7288 4b3f 55aa c03e
000000e0: 14b0 fa3d 76e3 dd3e cca2 3d3f e80d 893d
000000f0: ccc4 8fbe b0dc 563f c0fd 43bf 9777 eabe
00000100: 622e fb3e 6bcf c9be 10c4 a1be e8d2 703f
00000110: 3e70 15bf e6ed 91be 9f75 03bf 3826 6d3f
00000120: 0a44 f43e 5985 6fbf ea23 c2bc 28ec 193f
00000130: e78c 2a3f 726e 763f 0264 43bf 5810 e8be
00000140: 02c3 283f ee71 8f3e b6f7 e3be b63c 89bf
00000150: f406 5d3f f1f1 0a3e b63e 3ebe 26c3 0cbd
00000160: 424a cabe 48d3 f33d 9bac 24be 7280 263f
00000170: 78f0 39bf 3616 e13e 3b60 173f a25d 2b3f
00000180: 589c 4bbe 8750 143d e0d8 41bf 2c75 fd3d
00000190: 2c3e f4be cd89 1b3f ee54 32bf 35c2 e63e
000001a0: b854 61bf 663e e7be f059 3dbe 95d3 b83e
000001b0: 2e87 4a3f de9f e93e 941f edbc 689d b13e
000001c0: 7a18 66be d619 123f a675 31be c03b 2f3f
000001d0: dd81 38bf 06c3 39bf 6426 53bf 109f 803e
000001e0: cef8 ab3e ed59 fc3d c8dc 28be 631c 293f
000001f0: a26a 84be ca8b aa3d 0461 aebe 24f1 bdbd
0.5124624 0.64043367 0.47903675 0.048466697 0.6271878 0.48133838 0.47808248 -0.7321139
0.2970858 -0.6120223 -0.0046550254 0.34064174 -0.5138031 0.4406161 0.31387955 -0.36120856
0.05975123 -0.124770254 -0.5018944 -0.17813729 0.38020682 0.052486476 0.5472236 -0.73588693
0.51617235 0.16297925 -0.25541532 -1.0794536 -0.19303964 -0.25401312 0.47211963 -0.060426764
-0.76245147 -0.72512555 -0.6734004 -0.19083844 0.6477238 -0.80652994 0.38867956 -0.42217723
0.5623314 -0.9489562 -0.67187274 0.8499675 -0.561841 0.27218312 -0.14207166 -0.08464215
0.41060665 -0.5174121 0.3425832 0.10818638 -0.5951115 0.16354103 0.79505074 0.37629953
0.122406155 0.433376 0.74076533 0.066921055 -0.28079832 0.8393049 -0.76559067 -0.45794365
0.49058825 -0.3941606 -0.31594896 0.9407182 -0.58374393 -0.28501815 -0.5135135 0.9263644
0.4770816 -0.9356285 -0.023698766 0.6012597 0.6662125 0.96262276 -0.76324475 -0.4532497
0.6592256 0.2801661 -0.44524926 -1.0721653 0.86338735 0.13568856 -0.1857861 -0.034365796
-0.3950978 0.11905533 -0.16081469 0.6503974 -0.7263255 0.43962258 0.5913121 0.6693975
-0.19883859 0.03620961 -0.7572155 0.123758644 -0.47703683 0.6075714 -0.6966084 0.45070043
-0.88019896 -0.45164794 -0.1849134 0.36098924 0.7911252 0.4562978 -0.028945722 0.34690404
-0.22470275 0.5707067 -0.17330036 0.68450546 -0.72073156 -0.7256321 -0.82480454 0.25121355
0.3358826 0.123218395 -0.16490471 0.6605894 -0.25862604 0.08327444 -0.34058392 -0.092745095

linear_enc.bias f4 [64]
00000000: fec9 433e 56c5 1bbf 61bc b93d 154a bbbe
00000010: 673e cabe 6a71 22bf b094 8b3e 0a29 a6be
00000020: 32d5 503e 9216 953e 373a 9d3d 4ab0 1dbe
00000030: 91b7 23bc 0c74 b639 1716 94be ad25 c7be
00000040: 4610 8ebd 0a8f e5be c487 6a3d a0ec 0d3e
00000050: e24b 0d3f c665 343e 964a 1a3f da30 a03e
00000060: ffb8 18bf 22ce c43e d0c7 88be be20 423e
00000070: cc38 893b a49b 7cbe 7b6e 44bd 00aa 2fbf
00000080: 38c1 c0be 722c 143f 5c0f 9cbe a2f6 c9be
00000090: 850b 65be e4c9 bf3e d357 aebc 0143 123f
000000a0: f598 0fbf 8391 c6be 4384 e8be 21af 803e
000000b0: 81d2 0a3f bf44 093f dcab 263f 5efd 013e
000000c0: 6ead f7be 09c8 a4be 331d b0be d1f0 83bc
000000d0: 4a4c a4be 53b6 0d3f 9eb6 20bf 07da 00bf
000000e0: c980 233f 4a1f 063e 2616 963e e820 d8bd
000000f0: fbb0 7f3e 9921 a43e 88dd 353e 3fa5 ffbe
0.19120023 -0.60847986 0.090691335 -0.36579958 -0.39500734 -0.63454306 0.27261877 -0.32453185
0.20393828 0.29118782 0.07677119 -0.1539928 -0.009992496 0.00034800207 -0.28923103 -0.38895932
-0.06936698 -0.44835693 0.057258382 0.13859797 0.55193913 0.17616948 0.6027006 0.3128727
-0.5965728 0.38438517 -0.26714945 0.18957803 0.004187679 -0.24668747 -0.047956925 -0.68618774
-0.37647414 0.5788032 -0.30480468 -0.39445978 -0.22367676 0.37458718 -0.021282112 0.5713349
-0.5609277 -0.38782892 -0.45413408 0.25133613 0.54227453 0.53620523 0.65105987 0.12694308
-0.48374504 -0.32183865 -0.34397277 -0.016106041 -0.32089454 0.5535633 -0.6277865 -0.50332683
0.63868386 0.13097873 0.29313773 -0.10553151 0.24969856 0.32056883 0.17760289 -0.4993076

encoder_lstm.weight_ih_l0 f4 [128, 64]
00000000: fe6c 313e 178c 843d a4d6 323e 32b2 58be
00000010: ed64 72bd 3de2 23be ae74 623e bebc 33be
00000020: 78d4 513e 0d7b 463e 8470 aebd 9d91 9e3d
00000030: 5e25 2ebd 85e1 f2bc 2a2b 72be 220b 70be
00000040: 13bf 043e 5c03 a4bd efa1 56bd 976c 86bd
00000050: 2eda 003e 68e8 633e 243d 9fbd 0031 b0bc
00000060: 43b8 0a3d df28 223e 134a 26be de6f c83d
00000070: d5fd 1e3d 1ae4 12be 9375 45be 5c1e 2cbe
00000080: 8da1 d9bc c6cf 183e 7bcb 63be ff23 acbd
00000090: d0a4 4fbe baf5 92bd cc4e 04be 64d3 11bc
000000a0: ad0a 2f3d f502 39bd ce85 b23c f841 823e
000000b0: ebc0 92bd 3d53 15bd 8ace 6c3e c5e6 1c3e
000000c0: 9e1b 7bbe c4a2 10ba 81e8 16be f464 94bd
000000d0: 2e68 723c 5c17 483e 0c57 26be 7ed3 31be
000000e0: 6038 cc3d 93f4 fabc 1c07 39bc 0016 adbd
000000f0: d62a dc3d d11e 303d 8006 f33d 42e5 2dbd
00000100: afd2 033e 0c9e f1be 8975 763d 7614 1abd
00000110: a9f4 cdbd 7a3d c3be 0343 a93e 716b a4be
00000120: 5411 c83e a988 f43e 5419 3b3e 4ecb b9bd
00000130: a24b 12be 5c0f cf3e e726 9bbe 9053 bbbe
00000140: 0a79 1e3d cdac f8be 2bb1 993e b807 123f
00000150: 4a9a 993e 1423 ca3b 00f8 7d3e 9936 eb3e
00000160: 6024 9bbe e236 0e3e d29a f4be d01a 193e
00000170: 9e0d cdbe e29c 02be 36b5 cabe 0a47 04be
00000180: 6476 8cbe 562f 803e b3b5 dcbe d921 c9be
00000190: f8ac d13d 9995 2b3e 3f75 90be 6cfd e93e
000001a0: 8910 49be f7ef 20be e8cc 0cbe 32cf d33e
000001b0: a132 bb3e fe25 cb3e 3787 cb3e 429c 0c3d
000001c0: 719e dbbe 2149 4dbe ed59 9ebe fbc3 adbe
000001d0: 9d30 a0be dc27 d33e 2e74 b2be b6b9 6fbe
000001e0: 2019 d63d 2805 ab3d 62a3 aa3e d1f1 cebe
000001f0: 22d8 e43e fae6 9e3d 4ac9 2e3e 39a4 a2be
00000200: 7779 043e 0383 d6bd 19f1 9bbd 76ec 203d
00000210: b121 a8ba b026 b5bd 9dcb 37be 5a71 7e3d
00000220: e4bc 4d3e 5349 a73d e6dd 663e 8383 5f3e
00000230: 0b80 cd3d f24b 663e 9297 43be 21cf 243d
00000240: 4d5f 9b3c 520a 39be 8f7a 1f3e 2d54 f63d
00000250: 3c6b 6e3e e58c 38be e863 96bc fa40 e53a
00000260: 8bf3 233e 519d 343e 7757 d3bd 4611 0c3c
00000270: 2375 aabe 0dd9 c8bb 9dd5 89be e226 a63d
00000280: 5be4 b2bd de76 f9bd 8696 773d 0bce 0ebe
00000290: b909 823e 6f82 2f3c bba8 67be 5498 263c
000002a0: 27ea 14be fff1 c13d fe19 e23d c1ac c2bc
000002b0: 1960 c4bc 75cc e1bd 931f f6bd 534c 77bd
000002c0: 386d ba3d 2ce7 33be 7266 49be 8d2f fcbc
000002d0: 80a9 5e3c b29b f2bd 3c36 59be 8028 6dbc
000002e0: 12df be3c a676 bdbd b272 16bd e537 93be
000002f0: a104 713e 5782 21be 6a3b d9bd c008 a73d
00000300: 2572 d3bd 0a6d 0a3e 007d 82bd a567 13be
00000310: 5c79 333e f2bd 12bd 6cf7 1c3d 8bfa 37bd
00000320: eae8 edbd 235d 1ebd 93c3 37be 584c adbc
00000330: e0ee a6bd af55 db3d 799f 763c cf8c f73d
00000340: 5bc5 293e bbae 9c3d a862 9d3d 910b 863d
00000350: 0169 22be 1a60 153d 76d3 c0bd 8e9a 563d
00000360: 0933 013e ac08 49be 7687 ef3d 0986 2ebe
00000370: 2ab0 e63c b03a 6fba 665d 24be 8021 bf3d
00000380: 2534 5b3d 5474 3fbd 40fe ba3d e34a 3d3e
00000390: 4cac 2b3e 1007 9f3d 10a0 1ebe 7aa3 e23d
000003a0: 6e88 263d a874 1c3e 048b d8bd 714e 1b3e
000003b0: 0e84 23be d20b 533d 8536 ccbd e516 a2bc
000003c0: f0ca 153e 8ae0 d13c 0b9b 373c 9a40 453e
000003d0: 5c20 9c3c 3d71 dfbc f6e3 2ebc aadb bdbd
000003e0: 562b 3abd 188a d2bd b13d 9dbd 8caa a0bc
000003f0: 97bc 9b3d 88ce eabd fb23 303e 8bd3 2c3e
0.17326733 0.064720325 0.17464691 -0.21161726 -0.05917828 -0.16004272 0.22114822 -0.17552468
0.20491207 0.19382878 -0.085175544 0.07742617 -0.042516105 -0.029648552 -0.23649278 -0.23441747
0.12963514 -0.08008453 -0.052400526 -0.065636806 0.12583229 0.22256625 -0.077753335 -0.02150774
0.033867132 0.15835904 -0.16239195 0.09786962 0.03881629 -0.14344826 -0.19283132 -0.16808456
-0.026566291 0.1492301 -0.2224559 -0.08405303 -0.20277715 -0.07175775 -0.12920684 -0.008900497
0.04273479 -0.045168836 0.021792319 0.25440955 -0.071657024 -0.036456335 0.23125663 0.15322407
-0.24522254 -0.0005517418 -0.1473713 -0.07245818 0.014795346 0.19540161 -0.16244143 -0.17365834
0.0997169 -0.0306342 -0.011293199 -0.08451462 0.10750358 0.04299814 0.11866474 -0.042454965
0.12873338 -0.47190893 0.060170684 -0.03761717 -0.10056431 -0.3813284 0.33058938 -0.3211322
0.3907572 0.47760513 0.1827138 -0.090719804 -0.14286664 0.40441406 -0.30303118 -0.3658719
0.03868965 -0.48569337 0.3001798 0.5704303 0.30000526 0.0061687324 0.24801636 0.45940092
-0.3030119 0.13888124 -0.4777437 0.14951634 -0.40049452 -0.12755159 -0.39591378 -0.12917724
-0.27434075 0.25036114 -0.43107376 -0.39283636 0.10238069 0.16756286 -0.28214452 0.45701158
-0.19635214 -0.1571654 -0.1375004 0.41369015 0.36562064 0.39677423 0.39751598 0.034328707
-0.4289432 -0.20047428 -0.30927983 -0.33938584 -0.3128709 0.41241348 -0.34854263 -0.23410687
0.10454011 0.08350593 0.33327776 -0.40418866 0.44696146 0.07758899 0.17068973 -0.31765917
0.1293696 -0.10474207 -0.07614345 0.039288007 -0.0012827424 -0.0884527 -0.17948766 0.06211982
0.20091587 0.08168282 0.22545585 0.21827511 0.10034188 0.22489908 -0.19100788 0.040236596
0.018966341 -0.18070343 0.15574096 0.12027774 0.23283094 -0.18022497 -0.018358186 0.0017490678
0.16010873 0.17638136 -0.10319417 0.00854904 -0.33292493 -0.00612939 -0.26920786 0.08112885
-0.087349616 -0.12180875 0.060446285 -0.13945787 0.25398043 0.01071225 -0.2262296 0.010168154
-0.14542447 0.09469985 0.11040114 -0.023764016 -0.023971604 -0.11025325 -0.12017741 -0.060375523
0.09102863 -0.17568654 -0.19667986 -0.030784393 0.013590217 -0.11846103 -0.21212095 -0.014474988
0.023299728 -0.09251146 -0.036730476 -0.28753582 0.23536922 -0.15772377 -0.106070355 0.08155966
-0.10324506 0.13518158 -0.06371498 -0.14395006 0.17526764 -0.035825677 0.038321897 -0.04491667
-0.116166905 -0.03866304 -0.179457 -0.021154568 -0.081510305 0.10709702 0.01505267 0.12087404
0.16579191 0.07650515 0.07684833 0.06545175 -0.15860368 0.036468603 -0.09415333 0.05239349
0.12617125 -0.19632214 0.11695759 -0.17043318 0.028160173 -0.00091258716 -0.16051254 0.093325615
0.053516526 -0.0467418 0.091305256 0.18485598 0.16764945 0.07765019 -0.15490746 0.11066337
0.040657453 0.15278876 -0.1057339 0.15166642 -0.15968344 0.051524945 -0.09971336 -0.019786308
0.14628196 0.025619764 0.011206399 0.19262925 0.019058399 -0.027275676 -0.010674467 -0.09270413
-0.045451485 -0.102802455 -0.07677782 -0.019612573 0.0760433 -0.11465174 0.17201225 0.16877572

encoder_lstm.weight_hh_l0 f4 [128, 32]
00000000: 2a3d f93d a8ad 4abe 68e7 2b3c cb1b 87bd
00000010: e063 30be a2a1 eabd f09f 85be 6fd7 bc3e
00000020: 16b4 d7bd 286f 00bf aec5 743c 9f08 213e
00000030: 2267 16be 6687 95bc d031 f2bc e76e 7d3d
00000040: a69d cfbe 9cf8 3ebe a17a 35be 50a7 62bd
00000050: e52a f1bb fa59 033e 023d c43d 691f 6fbb
00000060: 3e3a 08be d7f4 ea3c 00b2 8abe a941 553d
00000070: 6385 cc3d dd66 6b3d 1f4f 313b 4853 8b3e
00000080: fae3 cc3e 5156 6dbe f572 cd3e cd45 01be
00000090: 66ae f1bd dae3 4f3e 9ac3 be3d 2758 643d
000000a0: ce03 b93e 618e bbbd 9bb7 1ebe e8e3 fe3d
000000b0: 82c8 243e 64d5 09be 603b 82bc c70d 22be
000000c0: e639 b2be c4a0 fdbd 184a a43e 88f0 f93d
000000d0: 86ce dc3d c98d 87be 6701 61be c885 173e
000000e0: 3b9c ab3c dcce abbe d879 88be 31ce b7bd
000000f0: 69b1 a03d 8a36 163d 7cf3 c63e bf73 993e
00000100: 1218 3b3e 657e 79bc ae10 fcbb 2c41 abbd
00000110: 928a 003e 84aa f83e 7e81 ab3c 0872 71bc
00000120: fe99 b8bd fe40 47be bbe1 c53d a49b 08bd
00000130: b28c 133d 2001 c73e e399 18bd b6e7 bb3d
00000140: 397c 9c3c a672 2fbe be4c 133d 9405 7bbe
00000150: c470 023f 3049 323e 4c4b 4cbe c014 dcbd
00000160: 02b1 d4bd 36de 29bd a226 843d f0c8 113c
00000170: ae7a 033d 767c 55be 72ea f6bd 52d5 bbbd
00000180: 293e 723c d714 06be 30f0 74be fcb6 95bd
00000190: a007 59be 5835 2abe 98b4 0dbe 6463 2b3c
000001a0: cdca 1fbe 5c3f f43c 14e8 993d 69f3 28be
000001b0: 9e5c 2bbd fa0d 543d c565 8c3d f5ce c6bd
000001c0: 9173 ebbc bb27 593d 0167 1abe 8a20 05be
000001d0: bd39 2bbe 3bc8 f3bd 52f9 503e 8fbc 9f3d
000001e0: 807a 45be d831 98bd c3ae 683d dcd4 0b3e
000001f0: 10af 6bbd 706a 24be a86e c63d 15d7 a7bd
00000200: 1a6c 863c 523b 5fbe 1459 0e3f d64a 81be
00000210: 7068 49bb 1d49 283e 4507 05be ff4d db3e
00000220: 09f3 023c 8714 80be 4e67 c6bc cab1 753e
00000230: e209 ff3d c0dc 0cbf 96cf b8be 2a79 46bd
00000240: a15d 0cbe eb6a a6be d526 ca3e 5dfd 84be
00000250: 68a3 87be 8dd3 acbd dc1c 08be b865 ef3d
00000260: df0a 0abe 8211 b7bd cedc 96be 24fe b6be
00000270: 4163 843e 5a20 f73d bc84 d43c 2588 363d
00000280: 562c ae3e 26c0 2abe a747 9c3e 8589 8dbe
00000290: 9065 8cbd 7899 103e e066 dcbe 944f 323e
000002a0: be77 7e3e d1f7 0dbf b606 45be ba1e e93e
000002b0: b128 b63e c395 2c3e cae5 8bbb 1639 bc3d
000002c0: de19 0ebf e6e3 6bbe 913e 0cbe b960 673e
000002d0: 4817 203e 7205 0fbe 5eeb 3ebe 3332 433e
000002e0: 0abc 4ebe 2745 aabe c9f1 2dbe 45b9 39bd
000002f0: e432 893e 5c5e 0c3e 2c26 3d3e 3f9a 2c3f
00000300: 0e39 a63e 0e7b 223e 4ce4 b03e 0d9a 55bd
00000310: 5835 57be 3452 863e deef 4dbe 6c54 0a3e
00000320: 3170 00be c0de 0b3d 8cbb 013e 8bcc a93e
00000330: 76ac 913d 23f5 85be 16f7 e1be eef3 71be
00000340: ccc5 203d 5c83 85be 7122 7bbd 312f 71be
00000350: ab75 d8bd f2e3 4a3e e67b 83bd 22e7 9e3c
00000360: 4843 8bbd b6a2 0ebe 290d 03bd cbf0 04be
00000370: 90cb 503e 45ee a3bd 019a 7ebe 00bc a2be
00000380: eb46 483e b42b ca3e 990d 993e fd99 8e3e
00000390: d0d4 b13d a208 623e 9ad4 66bd fcf9 5b3e
000003a0: f52c 013e fcd6 953e 86f1 81be a6fd 70be
000003b0: 02ac 87bd 4e98 823d f01e 14bf 364b 23be
000003c0: c5ca 843e 591a 0dbf 801d 7e3e 826b 3bbc
000003d0: 7734 0b3e eb68 e4bd 66a5 30be 17fe 20be
000003e0: e73c ab3e a82b 88be 4640 733e 50ba 4b3d
000003f0: ae6f 113f 43fc ab3d 8c01 103d 96e2 14be
0.12169869 -0.19792807 0.010492183 -0.06597098 -0.172256 -0.1145661 -0.26098585 0.36883113
-0.105323955 -0.5016961 0.014939709 0.15725945 -0.1468778 -0.01825304 -0.029564768 0.061873343
-0.40549964 -0.18649524 -0.1772256 -0.055335343 -0.0073598498 0.12827292 0.09581949 -0.0036487228
-0.13303468 0.028681202 -0.27088928 0.05206457 0.09986379 0.057471145 0.0027055216 0.27211976
0.40017682 -0.23177458 0.40126768 -0.12624283 -0.11800842 0.20301762 0.09314652 0.05574813
0.36135715 -0.09158016 -0.15499727 0.124458134 0.16092113 -0.13460308 -0.015897453 -0.15825568
-0.34809798 -0.12384179 0.3208778 0.12204081 0.10781579 -0.2647536 -0.21973191 0.14797127
0.02094852 -0.3355626 -0.2665546 -0.08974875 0.07846338 0.036673106 0.3885764 0.2997112
0.18270901 -0.015227889 -0.007692418 -0.0836204 0.1255286 0.48567593 0.02093577 -0.01473666
-0.09013747 -0.19458386 0.09662195 -0.033351555 0.03602285 0.38868046 -0.037256133 0.09175055
0.019102203 -0.17133579 0.03596186 -0.24513847 0.50953317 0.17410731 -0.19950598 -0.10746145
-0.10385324 -0.041471682 0.06452681 0.008898005 0.03209942 -0.2084826 -0.12056436 -0.09171547
0.014785328 -0.13093887 -0.2391975 -0.07310292 -0.21194315 -0.16621912 -0.13838422 0.010460708
-0.15604706 0.029815368 0.075149685 -0.16499104 -0.041836374 0.05177114 0.068553485 -0.09707443
-0.02874163 0.053016406 -0.15078355 -0.13000694 -0.16721244 -0.11903425 0.20407608 0.077996366
-0.19285011 -0.07431382 0.05680729 0.13655418 -0.05754 -0.16056228 0.09689075 -0.081953205
0.016408969 -0.21799973 0.5560467 -0.25252408 -0.0030732416 0.1643414 -0.12991054 0.42832944
0.007992514 -0.2501566 -0.024219181 0.23993602 0.12453057 -0.5502434 -0.36095876 -0.048455395
-0.13707592 -0.32503447 0.3948275 -0.2597455 -0.26491857 -0.084387876 -0.13292259 0.11689323
-0.1348071 -0.08938886 -0.29465336 -0.3574077 0.25856975 0.120667174 0.025942199 0.04456343
0.340182 -0.16674861 0.30523416 -0.27643982 -0.06855309 0.14121044 -0.43047237 0.17413169
0.24850366 -0.5545626 -0.19240841 0.45531255 0.3557792 0.16854005 -0.0042693364 0.09190576
-0.5550822 -0.23036155 -0.13695742 0.2259549 0.15633881 -0.13966921 -0.18644473 0.19062118
-0.20188919 -0.33255884 -0.16986765 -0.045342702 0.2679664 0.1370787 0.18471593 0.6742286
0.32465404 0.15867254 0.34549177 -0.052148867 -0.21016443 0.2623459 -0.20111033 0.13508767
-0.12542798 0.034147978 0.126692 0.33163866 0.071129724 -0.26163587 -0.44133824 -0.23628208
0.039251134 -0.26076782 -0.061312143 -0.23553158 -0.105693184 0.19813517 -0.06420116 0.019397322
-0.06799942 -0.13929257 -0.031994972 -0.1298248 0.20390153 -0.08004431 -0.24863435 -0.31784058
0.19558303 0.39486468 0.29893187 0.2785186 0.08683169 0.22073606 -0.056355096 0.2148208
0.12614806 0.29265583 -0.2537958 -0.23534259 -0.06624605 0.06376706 -0.57859707 -0.1594666
0.2593595 -0.5511833 0.24815941 -0.011439206 0.13594232 -0.11152824 -0.17250594 -0.15721928
0.33444902 -0.26595807 0.23754987 0.04973823 0.56811035 0.083977245 0.035157725 -0.1453956

encoder_lstm.bias_ih_l0 f4 [128]
00000000: a171 203e 3b8e b13e c925 c7bd f378 e2bc
00000010: 4b49 3d3e fc5a 713e 4912 92bd 4a10 f4bd
00000020: c447 053d 52ce 4ebe 50bd 0b3d d191 06bd
00000030: f6fb 803c bc25 153f 13dd 453e 2083 03ba
00000040: b78c 383e 02a4 fb3d 3ec6 883e 43a3 7c3e
00000050: 1372 443e 51c4 1c3d 1658 763e 95be 50bd
00000060: 3af5 123e 5d08 1dbd 22e2 813e 5831 4cbe
00000070: d46d 943e 2440 493e d7bf 253e 7dc1 19bd
00000080: 4883 b43d fea3 e13d 685f 2dbe fa11 b23d
00000090: dcba b03d 2836 afbd 1046 5b3d b244 b13d
000000a0: 6a6e d2bd 48d6 d13d 82bf c93c 2e37 5b3e
000000b0: 2e7c 19be a258 c43d d9ee a0bd 231e 2dbe
000000c0: f0b2 16bd 0bcd a8bd ec8d 9abd e17b a83c
000000d0: 574c 243d f5ce 8b3e 2ea5 acbb 1ed4 9c3d
000000e0: 68ae f8bc 00aa c83d 113e fdbd ce25 6f3c
000000f0: d4ef d2bd 5a3d 4e3d be00 b83c f98e 0a3e
00000100: 1d6a b0bd a6b5 0dbe 78c2 2f3c b06e 343c
00000110: b49f 3a3d 610d 03be 3869 e3bd ae9d 523c
00000120: 0191 083b e426 d1bd 1753 a0bd 7c85 f3bc
00000130: 0921 5f3d a20a 253e e20f f4bd 341f 0bbe
00000140: 30f8 af3c bed8 e93a 3d92 16be 3345 67bd
00000150: 6a95 88bd feae d2bd d4df 123e 6605 8cbd
00000160: 404d 88b9 5275 64bd adaf f63c a4ca 283d
00000170: 8a9c 833d 5622 82bc 2410 073e ac85 a83d
00000180: 6d9e 023e 12f1 0e3f 3eb3 903d a5f0 fbbd
00000190: 1a7e fe3d ba10 2a3e e8fd ba3d 7348 033e
000001a0: bec0 7b3e b5f7 2bbe 21e6 043e d7c5 ef3d
000001b0: 4f3a 9bbc 5155 e93e 08ec 05bd 663d fb3d
000001c0: f9c6 bdbd ca07 273d ea87 d23d 329f 51bb
000001d0: 5e29 163e 76e9 243d 8b1a 83bd 2e1f cfbd
000001e0: d408 a73e 6584 453e 6852 603e 2b39 7dbd
000001f0: 9dc8 e13c 300c 26bc 38ad c73d ff7b 843d
0.15668346 0.34678826 -0.09724004 -0.027645564 0.1848499 0.23569864 -0.07132394 -0.119171694
0.032539144 -0.20195892 0.03411609 -0.032853905 0.015745144 0.58260703 0.19322614 -0.00050167926
0.18022428 0.122871414 0.26713747 0.24671654 0.19184141 0.03827316 0.2405704 -0.050963003
0.14351359 -0.038338054 0.25367838 -0.19940698 0.28990042 0.19653374 0.16186462 -0.03753804
0.088141024 0.11017607 -0.16930926 0.08694835 0.086293906 -0.08555251 0.053533614 0.08655681
-0.10274966 0.10245949 0.02462745 0.21407768 -0.14988777 0.09587218 -0.078580566 -0.16906027
-0.03679174 -0.08242234 -0.07546601 0.020566883 0.040111866 0.27306333 -0.0052687144 0.07657646
-0.0303566 0.0979805 -0.12365354 0.014596416 -0.1029965 0.05035148 0.022461291 0.13531102
-0.086139895 -0.13838825 0.010727517 0.011012718 0.04556246 -0.12798072 -0.11104053 0.012854977
0.0020838382 -0.10212496 -0.07828348 -0.029726736 0.054474864 0.16117337 -0.11917092 -0.13586122
0.02148065 0.0017841083 -0.14704223 -0.056462478 -0.066691235 -0.10287283 0.14343196 -0.06836967
-0.00025997497 -0.055775948 0.030113066 0.04120888 0.06426342 -0.015885513 0.13189751 0.08228621
0.12755747 0.55836594 0.07065438 -0.12301759 0.12426396 0.16607943 0.0913046 0.12820606
0.24585244 -0.16793711 0.12978412 0.11707657 -0.018948702 0.45572904 -0.0326958 0.1226757
-0.09266467 0.040778913 0.1027983 -0.0031985757 0.14664218 0.04026171 -0.06401547 -0.10113369
0.32623923 0.19288786 0.21906435 -0.061822098 0.02756148 -0.010134742 0.09749836 0.06468963

encoder_lstm.bias_hh_l0 f4 [128]
00000000: 3cb1 263c 5663 fc3e 945e 4f3e 8d46 f23c
00000010: 88e5 6e3e 7735 083f 154d 313d a0e1 afbd
00000020: 2a8c c93d d054 89bd d296 62bc 178a 19be
00000030: 9443 bf3d ccc1 db3e ef5e e53d 4c62 123e
00000040: aaf2 483d 1cca 403e 950d 9b3d dc39 cc3c
00000050: 7382 6f3d 9edd 433c 80db 433e 82b3 283e
00000060: 66b9 563e 7327 89bd dcfc 78bc c9f6 cabc
00000070: aee2 5a3e cb0b c43d 7fd8 7fbd afbd 2b3d
00000080: 117d 0a3d 2e58 01be 0610 b43d 07fa 6f3d
00000090: d4a1 da3d 94af 603d 6051 843d ae02 f63c
000000a0: d0bd 73bd 6431 a13c 8350 643d 19a9 8e3d
000000b0: 17bb e6bd e089 31be f1ab b83c 085f 8e3d
000000c0: c26e 8d3d fae3 4abe b493 b23d 9048 39be
000000d0: 9980 fabd b40e 023e 150f e1bd f649 093d
000000e0: e02f 6d3d a3a2 e03d 6460 b13d 1a9c a6bd
000000f0: 8623 dd3c f3fa 0ebe 7aea 6fbd 0ecd a53d
00000100: d204 eabd 743e 733d e927 893d 9635 7fbd
00000110: 1500 a33d 54ad 91bc b44d b3bd 55b6 a43d
00000120: 1227 443e 85c7 eabd a4ca 283d ff95 273e
00000130: b089 ae3d d224 21be 9977 f03d ca49 9fbc
00000140: 8e76 1dbe ce92 113e d2bd 113e 35e0 233e
00000150: 1649 1fbd 2408 d13c 62e5 03be 90ff 153d
00000160: 2764 11be a9b6 e3bd 9f72 c3bd 32e5 393c
00000170: ce41 53bc f677 093e 36cd 603d 64cd ecbd
00000180: 7c40 c63c 3460 7d3e 3bcf 0f3e dd80 ffbd
00000190: c17a 8f3d d08d f93c f2ad 98bc 2aff 743c
000001a0: cf6a ad3e fdd5 1cbc 122e ccbd 5d0e ff3d
000001b0: eda8 c2bd 80b5 e83e 7c8a 153e eb89 f43d
000001c0: af7d 71bd 243e 0c3d dae5 753e f232 153b
000001d0: 4462 b23d 423a 3a3e f3df 4d3e f87e 9fbd
000001e0: 3bac 223e 20b6 293e 5fd1 103d 86e4 2bbd
000001f0: 188a 1d3e 79d3 313e e21e e8bc 600f 6038
0.010174092 0.49294537 0.20250922 0.029574657 0.23329747 0.5320658 0.0432864 -0.085879564
0.09841187 -0.0670563 -0.013829904 -0.14994083 0.093390614 0.42921293 0.11199748 0.1429531
0.049059547 0.18827099 0.0757095 0.024929933 0.058474015 0.011954693 0.19126701 0.16474727
0.20969161 -0.066969775 -0.015197005 -0.02477588 0.21375534 0.09572562 -0.062462326 0.041928943
0.03381068 -0.12631294 0.08792119 0.058588054 0.106753975 0.054854944 0.064608335 0.030030575
-0.05950719 0.019676872 0.055740844 0.069658466 -0.11266153 -0.17337751 0.022542926 0.069517195
0.06905891 -0.19813529 0.087195784 -0.18094087 -0.12231559 0.12700921 -0.10989205 0.0335178
0.057906985 0.109685205 0.08660963 -0.08135243 0.026994478 -0.13962917 -0.058573224 0.08095752
-0.11426701 0.05938573 0.066970654 -0.062306963 0.07959 -0.017782845 -0.08755055 0.080425896
0.19155529 -0.114638366 0.04120888 0.16365813 0.085223556 -0.15736702 0.117415614 -0.019444365
-0.15377256 0.14216158 0.14232567 0.16003497 -0.03888806 0.025516577 -0.12880471 0.036620677
-0.14198361 -0.11118824 -0.095433466 0.011346148 -0.012894107 0.13424668 0.054883204 -0.11562613
0.02420067 0.2474373 0.14043896 -0.124757506 0.07005835 0.03046313 -0.018637631 0.014953414
0.3387055 -0.009572503 -0.09969725 0.124539115 -0.09504876 0.45450974 0.14603609 0.11940368
-0.05895775 0.03423895 0.24013463 0.0022765961 0.08710149 0.18186286 0.20104961 -0.07787889
0.15886013 0.16573381 0.03535592 -0.041965984 0.1538471 0.17365827 -0.028335039 5.342008e-05

dest_lstm_obs.weight_ih_l0 f4 [128, 2]
00000000: dcc3 df3c 12de acbd b496 1cbd b72d 14bc
00000010: 107c 0dbd 9dd7 4ebd cd3f 08bc eab4 043c
00000020: cfa7 2a3e bf8f a93b 3c04 debd 7e92 3b3d
00000030: 66bb c63d 2940 e13c db66 a53d fad3 05bd
00000040: 5b4c 34bc d96a 04bd 8379 dbbc e5bf bf3c
00000050: 4b99 26be 694b b33d 8acb d5bd 7c05 e2bd
00000060: afbd 02be 9cf8 de3d 1fa9 c7bd 94e5 dbbd
00000070: 5fa2 84bd 87e1 14be 0c65 693d 54e2 aa3d
00000080: 5a66 3b3d f2dc bcbc 4ee2 14bd 7f7d 8d3d
00000090: 179a 7b3c 1069 e53c a93e 84bc cda7 63bd
000000a0: 3ec1 843d 41d8 25bd 1010 2ebd 1baf b4bb
000000b0: 68ee c3bd 741b cb3d 5cfc 05be e61f 2ebd
000000c0: ccee b7bb a726 893c 4b37 e1bd b850 c73d
000000d0: 1412 0f3d 9090 66bd 601b 0abe c81d d93d
000000e0: 979d 6a3d fb82 1a3d 4ac6 ba3d 2a8b adbb
000000f0: 65f2 e23d 0830 f3bd 33c1 9e3c 419e 643d
00000100: b240 ffbd e2c9 ecbc a76b 3b3d f323 18bd
00000110: 48a4 c6bd 507d 21bd 1c26 ddbd 7294 85bd
00000120: 3ad3 e8bd 9ff1 e63d 1bf1 1cbd 922b f6bd
00000130: 74f7 0dbe 6f0c ccbb a690 e0bc f2a1 0d3c
00000140: 04e7 84bc f043 683c 4eb8 a53d 22a6 8dbd
00000150: 3c05 cfbd 7f22 c2bd c2b9 f0bd e262 083e
00000160: 04ce 663c 2c9e c83a 80d3 183e 58a5 38bd
00000170: 8989 a9bd f697 0b3e 1334 89bd 7927 263c
00000180: d882 abbc c7cd 14be 3067 d5bc 4b12 0fbe
00000190: 6df6 35bd 1b8d b23d 8ce8 99bd 5d7a 8f3d
000001a0: ccef 4abd 3781 f53c 6a12 f43c d3e9 293d
000001b0: 7fdf 2ebe 333a 1dbe 4f08 253d f119 9dbd
000001c0: 0536 c2bd be8b a43c 76f6 9b3d d05c 0a3d
000001d0: 16f6 53bd ddab 3cbd b179 17be 1cbd fe3c
000001e0: 4946 9dbd 4656 35bd 1826 b8bd ae29 1bbe
000001f0: 4488 053c 94a1 b4bd 1c81 18bd ee74 8bbd
00000200: 2738 ac3d 744f 9e3d af5c 473d 402c 293d
00000210: 8081 84bd bae2 febc 42e7 25bd 236b d53d
00000220: 7e70 b5bd 6ceb a2bd e60a c83d 50b7 6c3d
00000230: d846 ccbd caf1 b0bd 0d80 20bc 13cc cd3c
00000240: 86c6 453d 4144 9d39 d31d 313e 60de aebd
00000250: 874f 293d e635 13be e3b4 c13c d7d5 a23d
00000260: 4ec5 a43b bcfc a7bc e2a3 05bc aa00 b0bd
00000270: e04b 10bd a9c5 8c3b 3fe5 383d 26ea 0b3b
00000280: ad45 103e c295 43bd bf8b b1bd 6771 b43d
00000290: e2d3 38bd 3364 dabd 36d8 d73c 24e9 933d
000002a0: d037 7d3d 87ee 90bd bc75 023d 93c1 003c
000002b0: e0b3 9abd 402f fbbc b0f9 8d3d 5b2c 693d
000002c0: 1eea 40bd 0a5e 5a3d 2d19 913b ff78 a93c
000002d0: 85da a63d c442 443d de97 883d dc57 8c3d
000002e0: 50ef 493a e917 783b 0e64 8abd 9e22 943d
000002f0: e779 43bd fa6f debc a6b4 593d 5741 a33d
00000300: b483 e23d 944c bbbd a651 d03d fe55 07be
00000310: f2d9 a33b 4de0 d5bd 06ee e03d 6e65 d3bc
00000320: 5f1b 0e3e c87a fc3d 95be 8a3c f4ac 26be
00000330: 4295 9a3d 7ac1 533d 0026 2cbe 23bf bdbd
00000340: 49ea 24be 1326 983d 8c5c d63d 4935 18be
00000350: fe6b 243d 06ba c03d c951 933a 83fb 0ebe
00000360: bae2 ccbd 74df 2cbd dd7a 14be ef33 963d
00000370: 48d6 56bd ada1 e23d 619f 16be ad66 c0bd
00000380: d74c 27bc fea8 843d da8a eebd 8835 813d
00000390: f5bb 11bc cc30 f2bc 3f33 1bbe f3c5 18bd
000003a0: fa12 113e 0cbd c5bd 9015 4bbd 103d d3bd
000003b0: 576f d83d e7d8 2fbd a478 6abd 07fe ef3d
000003c0: b12b 9dbd a85f e23d de85 24bd 2609 8ebd
000003d0: 227b b83d c059 f2bd 1489 93bd 01ed 2ebb
000003e0: 790c 0cbe a303 debd 1c7e 14be b8cb 883c
000003f0: 52b0 0d3d 73d0 73bc e869 c2bd d326 e33d
0.027315073 -0.08440794 -0.03822966 -0.009044102 -0.034542143 -0.050498594 -0.008315993 0.008099774
0.16665576 0.0051746066 -0.108406514 0.045794003 0.09703712 0.027496414 0.08076259 -0.03267286
-0.011004533 -0.03232846 -0.02679134 0.023406932 -0.16269414 0.08754618 -0.104392126 -0.11036202
-0.12767671 0.10887262 -0.09749054 -0.10737148 -0.06476282 -0.14539157 0.05698113 0.0834395
0.045751907 -0.023054574 -0.036348633 0.06908702 0.015356562 0.0280042 -0.01614316 -0.05557995
0.064821705 -0.04048944 -0.042495787 -0.0055140383 -0.09566957 0.09917346 -0.13084549 -0.04251089
-0.0056131836 0.016742064 -0.109968744 0.09732193 0.03492935 -0.05629021 -0.13487005 0.106013834
0.057279196 0.03772257 0.09119852 -0.0052961307 0.11081389 -0.118743956 0.019379234 0.055814985
-0.124635115 -0.028904859 0.045756962 -0.03714366 -0.09699303 -0.039426148 -0.107982844 -0.06522454
-0.11368413 0.11276554 -0.038315874 -0.12020029 -0.13863927 -0.006227068 -0.027412724 0.008644568
-0.016223438 0.014176354 0.08091794 -0.06916453 -0.1010842 -0.09479236 -0.117541805 0.13318971
0.014087204 0.0015305928 0.14924431 -0.04507956 -0.08278186 0.13632187 -0.066993855 0.010141247
-0.020936415 -0.14531623 -0.02605018 -0.13971822 -0.044424463 0.0871832 -0.07515058 0.07005761
-0.049545094 0.029968841 0.029793937 0.041482758 -0.17077444 -0.15354232 0.040291127 -0.076709636
-0.0948296 0.020086166 0.07615368 0.03377992 -0.051748358 -0.04606234 -0.14792515 0.031096034
-0.076794215 -0.04427173 -0.08991641 -0.15152618 0.008150164 -0.08819881 -0.037232503 -0.06809412
0.08409148 0.07729998 0.048672374 0.041301966 -0.06470013 -0.031113971 -0.040503748 0.10420825
-0.08859347 -0.079550594 0.09767704 0.057792008 -0.0997445 -0.086398676 -0.009796155 0.025121724
0.04828503 0.00029996227 0.17296533 -0.085385084 0.04133561 -0.1437603 0.023645824 0.07950943
0.0050284034 -0.020506255 -0.0081567485 -0.08593877 -0.03522861 0.004296024 0.0451405 0.002134928
0.14089079 -0.047750242 -0.086692326 0.08810692 -0.045123942 -0.10663643 0.026348215 0.072222024
0.061820805 -0.070767455 0.03185056 0.007858652 -0.0755384 -0.030662179 0.0693239 0.056927066
-0.04709827 0.05331234 0.00442805 0.020687578 0.08147148 0.047915235 0.06669591 0.06852695
0.0007703202 0.0037856048 -0.06757365 0.07233165 -0.047723677 -0.027153004 0.053150795 0.07971447
0.11060277 -0.091454655 0.10171823 -0.13216397 0.0050003463 -0.104431726 0.10982899 -0.025805201
0.13877629 0.12328106 0.01693658 -0.16276914 0.07548 0.051698186 -0.16811371 -0.09264972
-0.16104998 0.07429137 0.10466871 -0.14864077 0.040142052 0.09410481 0.0011239584 -0.13963132
-0.10004182 -0.04220529 -0.14499994 0.07334124 -0.05245045 0.110659935 -0.14709236 -0.09394584
-0.010211191 0.06477545 -0.116475776 0.063090384 -0.00889491 -0.029564284 -0.15156268 -0.037298154
0.14167395 -0.096551985 -0.04958111 -0.10314381 0.105681114 -0.042931464 -0.057243958 0.11718374
-0.07674349 0.11053401 -0.04016673 -0.06935339 0.09007861 -0.11833525 -0.0720388 -0.0026691558
-0.13676633 -0.108405374 -0.14501232 0.016698703 0.03459198 -0.014881241 -0.09492856 0.110913895

dest_lstm_obs.weight_hh_l0 f4 [128, 32]
00000000: aa63 52bd e991 34be c64a 243e e825 123e
00000010: ba13 54bd c604 493c 3fb4 fa3d 1247 3dbd
00000020: e091 81bd 9dbb b9bd 08c0 283e 16ca 75bd
00000030: e9f8 d53c ca7b 0d3e debc 5ebd ad72 0fbe
00000040: e8df b8bd 39bb 2bbe fc0f b3bc 066c 8d3d
00000050: 138c 9cbe 5349 dfbd ccbc f23d d87c c9bc
00000060: 9175 0a3e 74d5 163e 31c7 0bbe 2dda 2dbd
00000070: 0655 2d3e faf5 db3d 083a a43d fa6e 343e
00000080: f207 353d 2d6b 1dbe f40c 4d3d 0cb9 d0bd
00000090: bc90 723d 8033 1bbe 707b 9abd 9c3b d03d
000000a0: 2ca8 183e bc0f 053d 2182 ed3c 75f3 063e
000000b0: 0841 12bb 303c 803c 0b8f 103e 5607 22be
000000c0: 8cf3 b03d 12fb 363e 4c14 eabc f192 5dbd
000000d0: 937d 853b edcd e2bd ee53 91bd 9a80 ebbd
000000e0: 0fc8 fb3d e21e 12be dca6 1c3e fce1 c93d
000000f0: 8a7d aebc 750b fc3d 23dd 143e c0e0 fe3d
00000100: 0511 933d 7259 9fbc 14b9 163e aea7 b33d
00000110: e4f6 b6bd ca9a 193d 1f6a 2dbd c510 b13d
00000120: b5fb 863c 2d4e 683d 0bb6 603e 33d7 8a3d
00000130: ea42 5f3e 111e 1f3e 1e43 283e 4afc d0bc
00000140: c151 0bbe 6252 893d 0f4d a73d 8774 a73d
00000150: e252 2c3e 7c50 5bbe 6fd8 d4bd 7ca9 44be
00000160: dec4 27be 22a4 68bc bb8a 003e cc53 623c
00000170: 28be dbbd 5ace 98bd 5ec2 1e3e 1264 c33d
00000180: cf7f 003e cb0a 9f3d 1abb 4abe 9b08 28bd
00000190: 7ead 813e 71ff 283e 48a4 c1bd 28b0 b03d
000001a0: 9069 a7bd 1100 47bc c23d 5a3c 5f84 ee3c
000001b0: bbb9 6abc 757d a73d c6fa de3d 70c1 fbbd
000001c0: df9d eabd 63db d43d b847 04bc c1f8 9dbc
000001d0: ebc9 0ebd ea48 013e e940 963c fb79 1fbe
000001e0: e5de 98bc fc3f 63bd e696 febd 22e6 fe3d
000001f0: 28b8 7fbb 29d8 be3d 1d1a 0f3e 2e19 4bbe
00000200: eec6 bebd 78bb 373e 5d32 993d 5e3e 51be
00000210: 2efa 28be b8b5 063e ea2c cabd 4fbf 2d3d
00000220: 47b4 143e 3c34 bcbb 3bcc c2bd 2969 e33d
00000230: 8724 c0bd 5364 2dbe 9677 61be 564b 283e
00000240: 467c 94bd 916e 913d 446d 0ebe 6b7e 4fbd
00000250: ba86 183e b895 d4bb 82fd 51be f261 983d
00000260: 48b9 983d c0cc 813c 0c21 49bd c76f 183e
00000270: 5017 0bbe b0d8 79bd 8f48 e9bd d51c 8cbd
00000280: b05a 8fbc 57b6 2dbe ae12 4cbe 554f 38bd
00000290: 15aa d83c c3cb 1cbe bb7d d9bd 35e4 443d
000002a0: f5cb a9bd ec84 babd 88c8 b73d d9fa 73bd
000002b0: 5125 a7bd 5ba3 a63c 8ab4 e63a 73cd 88bd
000002c0: a69f bbbd 1504 d4bc a83d 303e 766a 183e
000002d0: 4613 5e3d 87e0 823b 8feb cebd 66bb 253e
000002e0: 2ec6 5cbe 9627 083d 419d 1bbe 1ba7 a93d
000002f0: 3231 15bd 6fd8 243e dc04 42bd 9d5c 02be
00000300: c834 0c3d fe42 693d 079c 16be b4a6 17be
00000310: f50b 703d 6006 aa3d 8b34 f13d a0fc 093e
00000320: 0023 fc3d 8dfe f8bd 31d1 223d add1 49bd
00000330: 20aa 13be c9c4 40be 58f8 1cbe 0a3d bbbc
00000340: 6e76 33be 38d7 afbd 64fc 8a3c ab4a c5bd
00000350: d35a 333e de16 31be 94c7 383e be74 b13d
00000360: f098 52bd 0634 7bbb 5296 29be 905a c03d
00000370: 1ab7 193e 3a08 3abe b2cb e03d ac4c 7e3d
00000380: d651 dcbc b5ff 1cbe 5cac 42be 588a 92bc
00000390: 30d2 ef3b 9780 17be de6d 7d3d 5cca bf3d
000003a0: 0a22 bf3d 3a1b 10bd 7e02 38bd 14d2 a63d
000003b0: 80b6 4f3d 0165 42be 628d 2ebc 1f99 103e
000003c0: 9b7b 01be 8437 f03c 8ff1 dabb 9a17 89bd
000003d0: 81a3 08be 262a ebbc a71f d83d bb0e 5abd
000003e0: 9c3e c9bc 9161 df3b 7e6c de3d 8255 b83d
000003f0: 5e4d 4fbd 832c 89bc 7542 883c e8e0 3b3d
-0.05136458 -0.17633785 0.16044149 0.14272273 -0.051776625 0.0122692045 0.122414105 -0.046210356
-0.063266516 -0.090689875 0.16479504 -0.060007177 0.026119666 0.13816753 -0.054379337 -0.14008589
-0.09027082 -0.16770639 -0.021858208 0.069053695 -0.30575618 -0.10902657 0.118524164 -0.024595663
0.1352141 0.14729863 -0.13650204 -0.042444397 0.16926965 0.10740276 0.08018881 0.17620459
0.04419703 -0.15372916 0.05006118 -0.10191545 0.05922006 -0.15156364 -0.07543075 0.101676196
0.14907902 0.03248571 0.028992714 0.13178809 -0.0022316594 0.0156537 0.14117067 -0.15823111
0.08640203 0.17869213 -0.028574131 -0.054095212 0.0040738075 -0.110744335 -0.070960864 -0.11499138
0.122940175 -0.14269593 0.15298027 0.09857556 -0.021300096 0.12306873 0.14537482 0.124452114
0.071809806 -0.01945183 0.14719039 0.08772217 -0.089338094 0.037501134 -0.042337533 0.08645777
0.016477445 0.05671518 0.21944444 0.06779327 0.2180287 0.15538813 0.16431853 -0.025510926
-0.13605405 0.067051664 0.08168995 0.08176523 0.16828492 -0.21417421 -0.10392844 -0.19205278
-0.16383693 -0.014199289 0.12552921 0.013813924 -0.10729629 -0.074612334 0.15503833 0.09540571
0.12548755 0.077657305 -0.19797936 -0.04102383 0.25327677 0.16503693 -0.09455162 0.08627349
-0.08174431 -0.012146012 0.013320388 0.029115854 -0.014326508 0.08178226 0.10887675 -0.12292755
-0.11455893 0.10393407 -0.00807374 -0.019283654 -0.034860533 0.12625471 0.018341498 -0.15573876
-0.018660972 -0.055480942 -0.12431125 0.12446238 -0.0039019678 0.09318573 0.13974805 -0.19833824
-0.093152866 0.17942607 0.07480309 -0.20433947 -0.16501686 0.13155258 -0.09871848 0.042418774
0.14521895 -0.0057435315 -0.0951161 0.11104042 -0.09381967 -0.16932802 -0.22018275 0.16434988
-0.07250266 0.07101167 -0.13908869 -0.05065767 0.14895144 -0.0064875744 -0.20506862 0.074405566
0.074572146 0.015844703 -0.04910378 0.1488639 -0.13583112 -0.060997665 -0.113907926 -0.06841437
-0.017499298 -0.16964088 -0.19929 -0.044997532 0.026448289 -0.15312104 -0.10619684 0.048069198
-0.08290855 -0.09107384 0.08973795 -0.0595654 -0.081614144 0.020341566 0.0017601412 -0.06679811
-0.0916131 -0.025880853 0.1721102 0.14884362 0.0542176 0.003994051 -0.10103523 0.16184768
-0.21559975 0.033240877 -0.15196706 0.08283826 -0.03642387 0.16098188 -0.047367916 -0.12730642
0.034230024 0.056948654 -0.14707957 -0.14809686 0.058605153 0.08301997 0.117776 0.13475275
0.12311363 -0.12157927 0.03975028 -0.049272228 -0.14420366 -0.18825068 -0.1532911 -0.022856254
-0.17525646 -0.085859716 0.016966052 -0.096333824 0.17515115 -0.1729388 0.18044883 0.08664845
-0.051415384 -0.003833057 -0.16561249 0.093922734 0.15011254 -0.181672 0.10976352 0.06208484
-0.026894491 -0.1533192 -0.19011062 -0.017888233 0.0073187575 -0.14795147 0.061872356 0.09364769
0.09332664 -0.035182215 -0.04492425 0.08145538 0.050711155 -0.18983842 -0.0106538255 0.14120911
-0.12644808 0.029323347 -0.006681628 -0.06693955 -0.13343622 -0.028706621 0.10552912 -0.053236704
-0.024565987 0.0068170507 0.10860537 0.09000684 -0.050610892 -0.016744858 0.016633252 0.045868784

dest_lstm_obs.bias_ih_l0 f4 [128]
00000000: ca3e 2e3e ca12 c9bd 2f38 83bd b686 53bd
00000010: 6037 bd3d 0370 40bd b9fe f9bd 0a22 8cbd
00000020: 8b52 02be 9fab 973d 9b6a 003d 0526 4dbd
00000030: 9737 b3bd 0516 edbd 3fbb b5bc a65d 2dbd
00000040: 2508 66be d60c 48be 2f32 143e 78bd 233d
00000050: 756f a23d f844 93bc a2d0 083e 33f2 debb
00000060: 84f1 a2bd 0780 c1bd 607a f8bd dde0 0bbe
00000070: 8816 4b3e e85e 2d3d 1855 84bb 3c8e b8bd
00000080: f392 353d 7e73 3d3c 37f3 c2bd ba3a 2ebe
00000090: 120d 453e 0b04 833d 1da0 07bd d031 24be
000000a0: 56e8 6c3d b6b0 083e 0626 7abe 1243 5cbd
000000b0: f88b 053e 4cc1 d0bc 1806 b6bd 5b7a 51bd
000000c0: fadf 73be 05a0 29be 5fb1 0fbe f921 353d
000000d0: 1590 34be cb4c 7f3d 442e db3d 2ecb 34bd
000000e0: 9ce6 8dbd 06cc 9dbc 315d b33a 92a7 ec3d
000000f0: fd7c 5d3e 6516 433d 103c a53d cbaa e4bd
00000100: 2223 023e 48f9 c93d 9a70 de3d 4fdd 07be
00000110: a2ed 04be 28af 073e dc02 fbbd f2e9 18bd
00000120: 7bae 953d dfcf 793e cd8d 3d3b 01e4 a3bd
00000130: a9dd 22be e7a8 a3bb e1bd babd b4a7 433e
00000140: 3e61 093d 28e7 58bb ba99 63be 165d 2bbe
00000150: 95d4 d03d 8ed3 fcbc 7c93 583d 4bb2 5dbd
00000160: 51fe 1abd 04ab d7bd f721 fcbd b5ff 163d
00000170: 1e68 85be c177 2abe 57b7 1cbe 1457 193e
00000180: 5496 02be 9f18 c7bc 0b92 d53d 5f5d 16bc
00000190: 8f8e 15bd 2d7a e83d f064 633d 5283 f53d
000001a0: 669c d7bb c60e 1bbe b1fd 6bbd e89b 55bd
000001b0: 4745 ae3d c5f3 94bc 0486 7abd ccc4 f8bd
000001c0: 613b b93d 644d 96bd 1456 31be 0877 1ebe
000001d0: f244 5ebe 5089 003e 7d34 8abd 47bc 2dbe
000001e0: 63ec 63bc 6ae4 90bc 4701 093e 9ff4 33be
000001f0: 19f9 823d 1967 033a c413 07be 6597 edbd
0.1701614 -0.09818037 -0.064072005 -0.051642142 0.092390776 -0.046981823 -0.122067876 -0.0684243
-0.127268 0.07405781 0.031351667 -0.050085086 -0.08750837 -0.115764655 -0.022184012 -0.04232564
-0.22464044 -0.19536147 0.14472269 0.039975613 0.07931415 -0.017977223 0.13360837 -0.0068037747
-0.07956222 -0.094482474 -0.12132716 -0.13659997 0.19832814 0.042326838 -0.0040384643 -0.09011504
0.044329595 0.01156318 -0.09519046 -0.1701459 0.19243267 0.063972555 -0.03311168 -0.16034627
0.05783876 0.1334866 -0.24428567 -0.0537749 0.13041675 -0.025482796 -0.08887881 -0.051142078
-0.23815909 -0.16564949 -0.14032505 0.044221852 -0.17633088 0.062329095 0.10702184 -0.04413908
-0.06928751 -0.019262325 0.0013684389 0.11555399 0.2162971 0.04762878 0.08068097 -0.11165389
0.12708715 0.09862 0.10861321 -0.13268016 -0.12981275 0.1325041 -0.12256405 -0.037332483
0.0730867 0.24395703 0.0028923631 -0.08002473 -0.15904869 -0.0049945 -0.09118248 0.19106942
0.033540003 -0.0033096764 -0.22226611 -0.16734728 0.10196797 -0.030862596 0.052875027 -0.05412511
-0.03784019 -0.105306655 -0.12311166 0.036864955 -0.26055998 -0.16647245 -0.15304314 0.14974624
-0.12752658 -0.024303732 0.10428246 -0.009177535 -0.036512908 0.11351428 0.055516183 0.11987938
-0.0065799234 -0.15142354 -0.057614986 -0.052150637 0.08509307 -0.018182645 -0.061162964 -0.12146911
0.09044529 -0.0733898 -0.17317992 -0.15475094 -0.21705988 0.1255238 -0.067482926 -0.16966353
-0.013911339 -0.017687041 0.13379394 -0.17573784 0.06395168 0.0005012616 -0.13191134 -0.11601142

dest_lstm_obs.bias_hh_l0 f4 [128]
00000000: 7611 a93d 3364 c2bd 8aaa 3cbe 4b56 22be
00000010: fa90 eb3c 3462 76bd b678 ebba e156 8d3c
00000020: a1d3 cfbc 44d1 8c3d 9c2a 513d c94e 0bbe
00000030: 32f4 11be c415 2dbe 758c a13d 9c91 06be
00000040: 1c2a 10be 22b6 cd3d def5 4b3c ef37 c63d
00000050: a162 34be 637a 6abe 6481 01be 7488 9f3d
00000060: e13d e5bd dadc 3b3d e8c3 f6bd 5ba4 4d3c
00000070: cee9 27bc 236a 353d 5230 da3d 84dd cdbd
00000080: cc22 36bc 1fe7 17be ef6b b7bd 6452 03be
00000090: e227 733d 27ed 98bd 45c8 8b3d 92ca 01be
000000a0: d62f 92be b8c3 34be ee51 5cbe 30bc db3c
000000b0: d788 4abd b8b5 4cbe c51c 033d 9b4d 0b3c
000000c0: af9a da3c 2512 4dbe 4adf c8bd 90b0 7bbd
000000d0: 362f 6fbe 4644 29bb bbf0 2ebe ad5b 14bd
000000e0: df3d 343e 2afa 953d 8d51 843c 9650 fabd
000000f0: b665 27bd ff2c 27be ba40 30be 4664 28be
00000100: 8cd0 e33d 20b8 263e 772d fe3c 1878 68bd
00000110: e65c d3be b686 863d b73e 9e3d 5825 aa3d
00000120: c8a6 dc3b ae99 22bd c8e5 9abd a750 5d3c
00000130: 7a9c cf3c 9cbf 1cbe 79f1 98bd 4c0c 403e
00000140: 606f 1e3e 71f9 23bd 5c33 e0bd 2b3a 30be
00000150: 1030 79bd 8896 e63d 278c 2cbd de1b 423e
00000160: 1555 5d3e 801b 733d 4a5d d23d e588 1e3e
00000170: 76fd c4bd 2b9d 3cbd 6375 013e d943 083e
00000180: 514f 43bd 32b1 babd bcb8 01be 49d6 0bbe
00000190: 0902 573d f741 2bbe 261e 02bd 52b1 c63d
000001a0: b0d1 4cbc ac9f e23d 20a6 36be 5cf8 02bd
000001b0: 16fd 5c3d f886 9b3d beaa 4dbe 592e 21bd
000001c0: 918f 993d 37f7 f5bd 00fa 723c cbad c43d
000001d0: de35 953c 9e7d 51be ae45 41be eaf2 51be
000001e0: 510d 0abe 2be6 64bd c1d9 a93d 4420 f1bd
000001f0: 1dbc 353d 1440 f13d cc57 bdbc 04cd d93d
0.082552835 -0.09491768 -0.1842443 -0.1585323 0.028755654 -0.060152248 -0.0017965052 0.017253341
-0.025369467 0.06875852 0.051066026 -0.13604273 -0.1425331 -0.16902834 0.07888118 -0.13141483
-0.14078563 0.10044505 0.012448756 0.09678637 -0.17615749 -0.2289825 -0.12647015 0.07789698
-0.11193443 0.045864917 -0.12049085 0.012551392 -0.0102486145 0.044290673 0.106537476 -0.100520164
-0.011116695 -0.1483426 -0.089561336 -0.12824398 0.059364207 -0.07467108 0.06825308 -0.1267493
-0.2855212 -0.17652786 -0.21515629 0.026823133 -0.049446907 -0.19991195 0.03200986 0.008502389
0.026685087 -0.20026453 -0.09808214 -0.06144768 -0.23357853 -0.0025828048 -0.17084019 -0.03622024
0.17601727 0.07323106 0.016152168 -0.12222402 -0.040868483 -0.16325758 -0.17212191 -0.16444501
0.111237615 0.16281176 0.031027539 -0.056755155 -0.41281813 0.06568663 0.07726806 0.08307904
0.006733749 -0.03969734 -0.075633585 0.013507999 0.025343169 -0.15307468 -0.07467932 0.18754691
0.15472174 -0.040032808 -0.10947296 -0.1720969 -0.06083685 0.1125918 -0.042125847 0.18955943
0.21614487 0.059352398 0.102717 0.15481909 -0.09618656 -0.046048325 0.12642436 0.13307132
-0.047683064 -0.091158286 -0.12668127 -0.13655962 0.052492175 -0.16724382 -0.031767033 0.0970179
-0.012501165 0.11065611 -0.17836809 -0.031975135 0.0539523 0.075941026 -0.20084664 -0.03935084
0.07498086 -0.12010043 0.014830112 0.09603461 0.018214162 -0.20458075 -0.18874237 -0.2050282
-0.13481642 -0.055883568 0.082934864 -0.11773732 0.044368852 0.117798 -0.023113154 0.10634807

dest_lstm_fut.weight_ih_l0 f4 [128, 2]
00000000: de15 893d 50b4 753d 9888 a8bd 1511 423d
00000010: e212 21be ff95 3c3d d047 20be 1c87 26bc
00000020: 88d1 0ebe 1cc8 ef3d 04fa 3cbd 748a bbbd
00000030: 2013 8ebd 13fa e5bd b83e aebd 0c1a ccbd
00000040: fa81 f3bd a8b9 8e3c 3b7a 80bd 1088 d13c
00000050: 8091 2e3d 3b4a 98bd bf2e 813d acac 783d
00000060: 2393 01be a11e 173c 4b2b c9bd 6132 2abd
00000070: b079 d23d 8c6b a93d 9afe f43b 5ce0 06be
00000080: 8fb9 143e 10e6 0c3e 943f 803d 3ce5 c0bd
00000090: b577 bb3d b906 b33c 4aaf ce3d 84ac 623d
000000a0: 3aef babd 047e 8cbd 0402 d9bd 967a 68bd
000000b0: 760d 203d 2b68 4dbd a10e 1a3d fae7 ebbd
000000c0: ba22 80bc aad0 943d 6afa d2bc 2f86 a13c
000000d0: 4482 b1bd beb5 8c3c 4543 c43d b00f 2dbe
000000e0: b073 1b3e 9aa6 9fbd 8c5e a23d 6e45 493d
000000f0: 3c90 03be 4f04 ccbd b0fb 763c 8258 dcbd
00000100: 7f5f 3abe 4cdd 803c 02c8 42bd c5c8 0abe
00000110: b810 083e 3da8 d8bd 20f9 963d 276b 85bd
00000120: 96a9 bf3d 3cb1 9b3d 90c2 cbbd bc0d 623d
00000130: 24cf b23d 9ee1 d73d 7bed 063d e647 d1bd
00000140: 7824 46bd 207b 9bbc 0579 82bd acda c1bd
00000150: 10c8 5bbe 76a0 3abd 077f 06be cafc d3bd
00000160: 504c 9cbc 6b2e 873c 36fc f5bd 4b54 463d
00000170: 33f7 b33d 3918 01be 868a 973d 4e30 043e
00000180: 3093 19be 941d 503c 7a43 813d 4e3a abbb
00000190: 5cee 6cbd 8995 1cbe bf55 5a3b 9ba9 d63d
000001a0: cac0 17be 24f3 e0bc e22e a3bd 88b1 263d
000001b0: b0c1 14bd 9ade 29be 5000 2bbc 6c77 743d
000001c0: a9ad 79bd 9d93 08be 4b92 6cbc da06 83bd
000001d0: f4da 77bb 6a66 dbbc d0a8 25be 74d4 1d3d
000001e0: f383 d2bd 11f6 8d3d dd65 debc 958f f4bd
000001f0: 0416 b33d 02a2 1e3d 82f2 2abe 667e e63d
00000200: 0dec d5bd 245e 4e3d 18d2 523d b5d3 cf3d
00000210: d66a ad3c 4368 893d 1a57 aa3d ee4e b3bd
00000220: 8bf0 3bbd 1c78 2abd a560 d8bc e951 783d
00000230: 0ab1 83bd ddaa 82bd 0221 b4bc b0e7 a8bd
00000240: a5e8 e7bd 64bb 8a3d b1cd 273d 9390 afbd
00000250: 897b a13d e8af bebd ec32 94bd 26f7 80bc
00000260: f828 59bd 8164 d33d 6415 493d a085 1b3d
00000270: cdda c93b 2770 bf3d b612 9abc 584d 11bd
00000280: f934 8bbd 8808 283b 445e 0e3c 60ff 9a3c
00000290: 35ce 25bd f76a 9abd ca2b 15bd e38c 00bd
000002a0: 5547 3b3d 732b 72bd 47e9 c6bc 2dee db3d
000002b0: 7304 29bd e5f1 2ebc cfb9 233d 4385 d13c
000002c0: 569b fe3c 0c6a 8f3d f2d4 883d c8f2 873d
000002d0: 62ab dcbd de44 443d 98b6 bc3c 5ae5 f63c
000002e0: 0a83 fe3c 9286 76bd 6cc0 d13d 4c3b 573d
000002f0: 218e a83d f4bc 47bd 652b e53d f760 c73d
00000300: b086 8f3d 2643 a9bd a2b8 a23d faea 06bd
00000310: f0be c53d 3a0b 17bd 03c7 0f3d 7513 993d
00000320: 0bf2 d2bd 7c7e 0ebe 099f 613d 7ab7 cfbd
00000330: 56a3 65bc ce95 933d 050f 73bd 1708 3a3d
00000340: 7af6 593c 963d 103d 7064 c3bb a326 a4bb
00000350: 5ed9 7e3d 93ae 4fbc c5a0 483b f83f 97bc
00000360: eaa7 32bd a002 68bc c2f0 0c3e 6f63 01be
00000370: cf7b 833d aae3 7bbc bd20 9bbc 2706 8abd
00000380: 22cd 7b3c 4855 063d bf17 a7bd a10e efbd
00000390: 81b0 d13d 815e 013e 1d3c 583d 7cd3 8ebd
000003a0: 2179 c8bd 6093 32be 74db b23d 7ee0 063c
000003b0: b25d 07be cdb9 f73d 2218 e4bd 7c43 0a3e
000003c0: 70f4 08bd 6d8e 0ebe 350f ee3d 5a10 a2bd
000003d0: 6d36 e03d 1ad3 9dbd 7e4d 093d 5cbf f33c
000003e0: e9e2 8ebd cbe9 a1bd 754c dd3d 450b 3abd
000003f0: c23b 013d 3aaf 43bc f885 a33d 96a8 cc3c
0.06693624 0.059986413 -0.08229178 0.047379572 -0.1572986 0.046041485 -0.15652394 -0.0101640485
-0.13947117 0.1170809 -0.04613687 -0.09157267 -0.069372416 -0.112293385 -0.085080564 -0.099659055
-0.118900254 0.017422512 -0.062733136 0.025577575 0.04261923 -0.07436033 0.06307744 0.060711548
-0.12653784 0.009223611 -0.098227106 -0.04155195 0.10277116 0.08272466 0.00747664 -0.13171524
0.1452391 0.13759637 0.062621266 -0.09418723 0.09153692 0.021853792 0.100920275 0.055340305
-0.0912766 -0.06859973 -0.105960876 -0.056757532 0.039075337 -0.05014817 0.037611607 -0.115188554
-0.015641559 0.07266362 -0.025754172 0.019717304 -0.08667424 0.017176505 0.09583143 -0.16900516
0.1518085 -0.077954486 0.0792819 0.04913848 -0.1284799 -0.09961759 0.015074655 -0.10759069
-0.18200491 0.015730523 -0.047554024 -0.1355315 0.13287628 -0.10578964 0.073717356 -0.06514578
0.09358518 0.07602164 -0.09949219 0.05518888 0.08730915 0.1054108 0.032941323 -0.10218792
-0.048374623 -0.018979609 -0.06370739 -0.094655365 -0.21463037 -0.045563184 -0.13134395 -0.1035095
-0.019079357 0.016501626 -0.12010996 0.04842023 0.08787384 -0.12606896 0.07399468 0.12909052
-0.14997554 0.0127023645 0.06311698 -0.0052254563 -0.057844505 -0.15291418 0.0033315269 0.104815684
-0.14819637 -0.027459688 -0.079679266 0.04069665 -0.036317527 -0.16588822 -0.010437086 0.059684202
-0.06095663 -0.1333756 -0.014439176 -0.06397791 -0.0037819715 -0.026782233 -0.16177678 0.03853269
-0.102790736 0.06931699 -0.027148182 -0.119414486 0.087444335 0.03872872 -0.16694072 0.11254577
-0.10445414 0.05038275 0.051469892 0.10147802 0.021169107 0.067093395 0.083173946 -0.08755289
-0.045883697 -0.04161845 -0.026413271 0.06062499 -0.06430252 -0.06380246 -0.021988396 -0.08247316
-0.1132367 0.06774023 0.040967647 -0.08572497 0.078848906 -0.09310895 -0.07236275 -0.01574285
-0.053017586 0.10321904 0.049092665 0.03796923 0.0061601163 0.09347563 -0.01880775 -0.03547415
-0.06797213 0.002563985 0.008689467 0.0189206 -0.040479857 -0.07539933 -0.036418714 -0.03138436
0.045722324 -0.059123468 -0.024281157 0.10738788 -0.04126401 -0.010677789 0.039972123 0.02557624
0.03107993 0.07002649 0.06681241 0.06638104 -0.10774876 0.04791724 0.023036286 0.03013866
0.031068344 -0.06018693 0.1024178 0.052546784 0.08230234 -0.048764184 0.111899175 0.097352915
0.070081115 -0.08264761 0.07945372 -0.032938935 0.09655559 -0.03687594 0.0351019 0.07474414
-0.10300072 -0.13915437 0.05508331 -0.10142417 -0.014015993 0.07206307 -0.059340496 0.04541787
0.0133033935 0.035214983 -0.005962901 -0.0050094887 0.062219016 -0.012675899 0.0030613404 -0.01846312
-0.043617167 -0.014160782 0.13763717 -0.12635587 0.06420099 -0.015374104 -0.01893651 -0.06739455
0.015368732 0.032796174 -0.08158826 -0.11672712 0.102387436 0.12633707 0.052791703 -0.06973931
-0.097887285 -0.17439032 0.087332636 0.008232234 -0.13219336 0.120959856 -0.111374155 0.13502306
-0.03343624 -0.13921519 0.11623994 -0.07913275 0.10947881 -0.0770628 0.033521168 0.029754333
-0.069768734 -0.079059206 0.10805599 -0.045420904 0.03155113 -0.011943633 0.07984537 0.024982732
