src/do_tp_federated_federated_round_7.pt (torch, 157077 bytes, 26 tensors)

linear_enc.weight f4 [64, 2]
0	0x3eff34b4	0.49844897
1	0x3f1626ee	0.5865315
2	0x3ee8e7d1	0.45489362
3	0x3d71a164	0.058991805
4	0x3f1bad08	0.608109
5	0x3ee270be	0.4422664
6	0x3eeaa06c	0.45825517
7	0xbf34170e	-0.7034768
8	0x3e9230dc	0.28552902
9	0xbf133800	-0.57507324
10	0x3d14fa52	0.036371537
11	0x3e9d9a8c	0.30781972
12	0xbefa53ee	-0.48892158
13	0x3ecf94f9	0.40543345
14	0x3e91aaee	0.28450722
15	0xbea96a62	-0.33088976
16	0x3d7b0da3	0.061292302
17	0xbe0677e9	-0.1313168
18	0xbeeff83d	-0.46869078
19	0xbe3694ba	-0.17830172
20	0x3eb1abea	0.34701473
21	0x3d398aa8	0.04529825
22	0x3f02c44e	0.5108079
23	0xbf31a166	-0.693869
24	0x3ef754d4	0.48306906
25	0x3e182c12	0.14860561
26	0xbe80fbfd	-0.25192252
27	0xbf83c630	-1.0294857
28	0xbe28a2c0	-0.16468334
29	0xbe77173b	-0.24129955
30	0x3eebfe0c	0.4609226
31	0xbd7e3976	-0.062066518
32	0xbf3d31e3	-0.73904246
33	0xbf308fe2	-0.6896955
34	0xbf25df50	-0.6479387
35	0xbe349945	-0.17636593
36	0x3f1e88d1	0.61927515
37	0xbf47e327	-0.7808098
38	0x3eb41949	0.3517554
39	0xbed151fb	-0.4088286
40	0x3f077f0e	0.52928245
41	0xbf6a88e3	-0.9161512
42	0xbf230bf3	-0.6369011
43	0x3f4f2c5a	0.8092705
44	0xbf04ca57	-0.51871246
45	0x3e734771	0.23757721
46	0xbe1fb582	-0.15596583
47	0xbd867989	-0.0656615
48	0x3ebe5966	0.3717758
49	0xbefcde3c	-0.493883
50	0x3e984d51	0.29746488
51	0x3dc2704a	0.09494074
52	0xbf0e0593	-0.55477256
53	0x3e20a69a	0.15688553
54	0x3f449923	0.7679617
55	0x3eb3be67	0.35106203
56	0x3de52454	0.1118857
57	0x3ec615b0	0.3868842
58	0x3f3282b9	0.69730717
59	0x3d86534b	0.065588556
60	0xbe84feb8	-0.25975585
61	0x3f4acf54	0.7922261
62	0xbf3e2e65	-0.7428954
63	0xbedfe541	-0.43729594
64	0x3efad739	0.48992327
65	0xbeccf848	-0.40033174
66	0xbe957e30	-0.29197836
67	0x3f6626c1	0.89902884
68	0xbf0c88fc	-0.5489652
69	0xbe850ad4	-0.25984824
70	0xbf008b99	-0.5021301
71	0x3f61d8a8	0.88221216
72	0x3ee3d34b	0.4449714
73	0xbf64684e	-0.89221656
74	0xbd1b32c8	-0.037890226
75	0x3f112893	0.56702536
76	0x3f24df36	0.6440309
77	0x3f6d3ad1	0.9266787
78	0xbf3dcc1c	-0.7413957
79	0xbee5def4	-0.44896662
80	0x3f2059fb	0.626373
81	0x3e8a0a01	0.26960757
82	0xbee32d6a	-0.44370586
83	0xbf814a46	-1.0100791
84	0x3f51a3d7	0.81890625
85	0x3e0434f4	0.12910825
86	0xbe50712c	-0.20355672
87	0xbd46b17e	-0.048509113
88	0xbec2b746	-0.38030452
89	0x3ddf172d	0.10893092
90	0xbe488472	-0.19581774
91	0x3f20d8ca	0.62830794
92	0xbf3668e8	-0.71253824
93	0x3edf018a	0.43555862
94	0x3f129046	0.57251394
95	0x3f2370f2	0.63844216
96	0xbe2c893f	-0.1684923
97	0x3d08c04f	0.033386525
98	0xbf38c3f6	-0.7217401
99	0x3dfd718d	0.12375174
100	0xbedfade9	-0.4368737
101	0x3f184103	0.594742
102	0xbf28077a	-0.6563641
103	0x3ed6e87e	0.41974252
104	0xbf57ac5c	-0.84247375
105	0xbee44308	-0.4458239
106	0xbe201dd9	-0.15636386
107	0x3ea4ee28	0.3221295
108	0x3f42a20e	0.76028526
109	0x3ee19efb	0.44066605
110	0xbcdb5762	-0.026775066
111	0x3ebb3f88	0.36571908
112	0xbe6b6231	-0.22986676
113	0x3f0da455	0.55328876
114	0xbe194f10	-0.14971566
115	0x3f21fcd2	0.632764
116	0xbf33d1ea	-0.7024218
117	0xbf366788	-0.71251726
118	0xbf49e6a3	-0.7886755
119	0x3e70f44d	0.23530693
120	0x3ea1df63	0.31615743
121	0x3e050679	0.1299075
122	0xbe131a35	-0.14365466
123	0x3f1fb544	0.62385964
124	0xbe5cc00f	-0.2155764
125	0x3d67cd83	0.056592476
126	0xbe9caf6f	-0.30602595
127	0xbdc305e4	-0.09522608

linear_enc.bias f4 [64]
0	0x3e4601ca	0.1933662
1	0xbf20b257	-0.62772125
2	0x3db79227	0.08963423
3	0xbec560f7	-0.3855054
4	0xbed557fc	-0.4166869
5	0xbf26a226	-0.6509117
6	0x3e9049b5	0.28181234
7	0xbeac56b4	-0.336599
8	0x3e7ce017	0.24694858
9	0x3e99efcb	0.3006576
10	0x3da47819	0.08030719
11	0xbe22ccb8	-0.15898407
12	0xbc5184c5	-0.012788002
13	0x3ac7876c	0.0015222854
14	0xbea33268	-0.31874394
15	0xbecfb0c6	-0.40564555
16	0xbd8872e8	-0.06662542
17	0xbeebcd65	-0.4605514
18	0x3d811d40	0.06304407
19	0x3e13fc6b	0.14451759
20	0x3f0fe3fa	0.5620724
21	0x3e35bba3	0.17747359
22	0x3f1c6d66	0.6110443
23	0x3eb0f57e	0.34562296
24	0xbf1ba1ce	-0.6079377
25	0x3ecbcade	0.39803213
26	0xbe8c669c	-0.27422035
27	0x3e447cd1	0.19188239
28	0x3af60977	0.0018771131
29	0xbe82d3b7	-0.2555215
30	0xbd4f7c18	-0.050655454
31	0xbf320901	-0.6954499
32	0xbecc349b	-0.39883885
33	0x3f191daa	0.5981089
34	0xbe9f3682	-0.31096274
35	0xbece0055	-0.40234628
36	0xbe67c60c	-0.22634143
37	0x3ec869eb	0.3914331
38	0xbcbebdad	-0.023283804
39	0x3f152122	0.5825368
40	0xbf118a67	-0.5685181
41	0xbecd5db0	-0.4011054
42	0xbeeca811	-0.46221974
43	0x3e901445	0.28140464
44	0x3f13932f	0.5764646
45	0x3f12bcbe	0.5731925
46	0x3f294980	0.6612778
47	0x3e036c73	0.12834339
48	0xbf00d737	-0.5032839
49	0xbea73445	-0.32657066
50	0xbeb4f823	-0.35345563
51	0xbc9a6d51	-0.018850954
52	0xbea61fe6	-0.32446212
53	0x3f15b51f	0.58479494
54	0xbf25b97d	-0.6473616
55	0xbf09f4a0	-0.53888893
56	0x3f26f53e	0.6521796
57	0x3e070cc9	0.13188471
58	0x3e9c3bf0	0.3051448
59	0xbdda450f	-0.10657703
60	0x3e87dfc6	0.26537913
61	0x3eaa494d	0.3325905
62	0x3e3b73da	0.18305913
63	0xbf01f738	-0.5076785

encoder_lstm.weight_ih_l0 f4 [128, 64]
0	0x3e30018f	0.17188095
1	0x3dd1fe3a	0.10253568
2	0x3e3b5500	0.18294144
3	0xbe339ff2	-0.17541483
4	0xbce5c3db	-0.028047493
5	0xbe052cec	-0.13005418
6	0x3e36dd78	0.17857921
7	0xbe0f1e41	-0.13976385
8	0x3e364a66	0.17801818
9	0x3e126a18	0.14298284
10	0xbdb4e4e4	-0.0883272
11	0x3dc3004f	0.09521543
12	0xbcacfda2	-0.021117035
13	0xbd8ee94e	-0.06978093
14	0xbe5e2f6d	-0.21697779
15	0xbe42ecdd	-0.19035669
16	0x3de7420d	0.11291895
17	0xbd836d63	-0.06417348
18	0xbd86cb3a	-0.06581731
19	0xbdacc5a3	-0.08436134
20	0x3dce127a	0.10062118
21	0x3e52b4f1	0.20576836
22	0xbdedbcd3	-0.11608281
23	0xbd624e72	-0.055250593
24	0x3d89214a	0.066958025
25	0x3e0d46d9	0.13796557
26	0xbe16db15	-0.1473201
27	0x3dc4b58c	0.0960494
28	0x3d9e37b2	0.07725467
29	0xbdbddf9b	-0.09271165
30	0xbe2c0c67	-0.16801606
31	0xbe1a5890	-0.15072846
32	0x3c6eab9b	0.014567281
33	0x3df93d14	0.12169853
34	0xbe577999	-0.2104248
35	0xbd739e7e	-0.05947732
36	0xbe3b7b92	-0.18308857
37	0xbdc06aaa	-0.093953446
38	0xbdbb2424	-0.09137753
39	0xbd6a8d28	-0.057263523
40	0x3db39e36	0.08770411
41	0xbd142f7c	-0.036178097
42	0x3d9516b6	0.072797224
43	0x3e5f6565	0.21816023
44	0xbddbccf3	-0.1073245
45	0xbd816558	-0.06318158
46	0x3e42fcf1	0.19041802
47	0x3e24535c	0.16047424
48	0xbe614616	-0.21999392
49	0x3c5ae2da	0.01335975
50	0xbdfebaee	-0.12437998
51	0xbd91c15e	-0.0711696
52	0x3cb2ceba	0.02182709
53	0x3e29d2ac	0.16584271
54	0xbdee5fae	-0.11639343
55	0xbe132d36	-0.14372715
56	0x3d90fc86	0.07079415
57	0xbd279673	-0.040914964
58	0xbd85f745	-0.065413035
59	0xbda480a7	-0.08032351
60	0x3dba1c60	0.09087443
61	0x3c965c22	0.01835448
62	0x3d9349ad	0.07191787
63	0xbca5ef14	-0.020255603
64	0x3dec346e	0.11533438
65	0xbee31531	-0.44352105
66	0x3d4c93de	0.049945705
67	0xbce1933b	-0.027536025
68	0xbdadcadf	-0.0848596
69	0xbeb182bc	-0.34670055
70	0x3ea46776	0.32110184
71	0xbe9bc65d	-0.30424777
72	0x3eba69fe	0.3640899
73	0x3ee8f1f6	0.45497102
74	0x3e2966d9	0.1654314
75	0xbdca5ed3	-0.098813675
76	0xbe16d8e7	-0.14731179
77	0x3ec56e08	0.3856051
78	0xbe8faafc	-0.28060138
79	0xbeb026e4	-0.3440467
80	0x3d31f02e	0.043441944
81	0xbee91f16	-0.4553153
82	0x3e8628b8	0.2620294
83	0x3f097861	0.5369931
84	0x3e82feff	0.25585172
85	0x3c8248c0	0.01590383
86	0x3e653b5b	0.22385924
87	0x3ede00a9	0.4335988
88	0xbe8fd530	-0.28092337
89	0x3de2209b	0.11041375
90	0xbee414d1	-0.44547132
91	0x3e045189	0.12921728
92	0xbec7e076	-0.39038438
93	0xbde74c1a	-0.11293812
94	0xbeb8bc7e	-0.36081308
95	0xbdca65de	-0.09882711
96	0xbe849b56	-0.25899762
97	0x3e6eb867	0.23312531
98	0xbecfc957	-0.40583298
99	0xbeb282ae	-0.34865326
100	0x3dc9fbc0	0.098624706
101	0x3e19d17f	0.15021323
102	0xbe8b29fc	-0.2718047
103	0x3eda9637	0.4269273
104	0xbe2b627c	-0.16736788
105	0xbe114549	-0.14186586
106	0xbdeb257f	-0.11481761
107	0x3ec866a8	0.3914082
108	0x3eaded2b	0.33970007
109	0x3ec08c1d	0.37606898
110	0x3ec09780	0.37615585
111	0x3cd1e018	0.025619552
112	0xbecba65d	-0.39775363
113	0xbe2b208a	-0.16711631
114	0xbe89e975	-0.26935926
115	0xbea00129	-0.31250885
116	0xbe93cc5c	-0.2886685
117	0x3ec64cfb	0.38730606
118	0xbea2d1b4	-0.31800616
119	0xbe4c41d4	-0.19946986
120	0x3da6ad30	0.08138502
121	0x3db21897	0.086960964
122	0x3e9ca49e	0.30594343
123	0xbec024c2	-0.37528044
124	0x3ed822b2	0.4221397
125	0x3d845aa2	0.06462599
126	0x3e1ecfde	0.15508983
127	0xbe930fa4	-0.2872287
128	0x3dd80956	0.10548656
129	0xbd99e1be	-0.0751376
130	0xbdcdbde8	-0.10045987
131	0x3d4b115a	0.049577095
132	0x3c92bcae	0.017912235
133	0xbd5adf6a	-0.05343572
134	0xbe4198af	-0.189059
135	0x3daa8898	0.083268344
136	0x3e282308	0.16419613
137	0x3d6284ac	0.055302307
138	0x3e3f2de3	0.18669848
139	0x3e443941	0.19162466
140	0x3da3c325	0.07996205
141	0x3e407849	0.18795885
142	0xbe246289	-0.16053213
143	0x3d8534fb	0.06504246
144	0x3d05665c	0.03256832
145	0xbe148b82	-0.14506343
146	0x3dc2a08e	0.095032796
147	0x3d926154	0.0714747
148	0x3e41a49f	0.18910454
149	0xbe1a4079	-0.15063657
150	0xbd322cf5	-0.043499906
151	0xbcf5378a	-0.02993371
152	0x3e3c96c8	0.18416893
153	0x3e113756	0.14181265
154	0xbd7bcdd9	-0.06147561
155	0xbcd2b856	-0.025722664
156	0xbe97e3a2	-0.29665858
157	0x3c0a53aa	0.008442799
158	0xbe5633fc	-0.20918268
159	0x3dead67d	0.11466692
160	0xbd8f6c26	-0.070030496
161	0xbe107461	-0.14106895
162	0x3dc16c33	0.094444655
163	0xbdbe789c	-0.09300348
164	0x3e75f8fc	0.24020761
165	0xbc34a390	-0.011025324
166	0xbe57d2c1	-0.2107649
167	0xbc9f9723	-0.019481247
168	0xbdee0f8b	-0.11624058
169	0x3dec71f6	0.11545174
170	0x3e0822bf	0.13294505
171	0xbd57719b	-0.052598577
172	0xbd548de7	-0.05189314
173	0xbe094b35	-0.13407595
174	0xbe11c2e8	-0.14234507
175	0xbda1f3e1	-0.07907844
176	0x3e0052ab	0.12531535
177	0xbe096afa	-0.13419715
178	0xbe1c37d8	-0.15255678
179	0x3cd7d543	0.026346808
180	0x3d432983	0.04764701
181	0xbe15c146	-0.14624509
182	0xbe3b353a	-0.18282023
183	0x3cb3ae29	0.021933632
184	0xbb1b8378	-0.0023729485
185	0xbda17bd4	-0.078849465
186	0xbd88b294	-0.06674686
187	0xbe74007c	-0.2382831
188	0x3e4e3398	0.20136869
189	0xbe32780d	-0.17428608
190	0xbe04abaa	-0.1295611
191	0x3decd6f0	0.115644336
192	0xbd8411fd	-0.064487435
193	0x3e165f3d	0.14684768
194	0xbcef905e	-0.029243644
195	0xbe0fa398	-0.1402725
196	0x3e37134f	0.1787846
197	0xbccf4427	-0.025301052
198	0x3cf5780a	0.029964466
199	0xbd1ce45e	-0.038303725
200	0xbe013bb4	-0.12620431
201	0xbd6182f0	-0.055056512
202	0xbe1baf81	-0.15203668
203	0xbc89509f	-0.016762076
204	0xbd6859f8	-0.056726426
205	0x3d82aae0	0.06380248
206	0x3c21c9de	0.009874789
207	0x3e07aafe	0.13248822
208	0x3e0697cd	0.13143845
209	0x3d81ed84	0.06344131
210	0x3da10698	0.07862586
211	0x3d787d4c	0.060666367
212	0xbe30828a	-0.17237297
213	0x3d010fec	0.031509325
214	0xbdd50396	-0.104010746
215	0x3d2ab5ca	0.041677274
216	0x3e080454	0.13282901
217	0xbe467f08	-0.19384396
218	0x3dd8f0ff	0.10592841
219	0xbe0d6dbe	-0.13811395
220	0x3d906078	0.0704965
221	0x3c8182dc	0.015809469
222	0xbe0a06e4	-0.13479191
223	0x3da9251c	0.08259031
224	0x3d788934	0.060677722
225	0xbd4882c4	-0.048952833
226	0x3d8e08bc	0.0693526
227	0x3e4fb2d1	0.20283057
228	0x3e2bc42a	0.1677405
229	0x3da24e96	0.07925145
230	0xbdf6edc9	-0.12057073
231	0x3dc0cb96	0.09413831
232	0x3d645636	0.05574628
233	0x3dff1c72	0.124565974
234	0xbdb9de7d	-0.090756394
235	0x3e0f4e14	0.13994628
236	0xbe2da867	-0.16958772
237	0x3d47bc8c	0.048763797
238	0xbdde4972	-0.10853852
239	0x3c9f8166	0.019470882
240	0x3e1b1b38	0.15147102
241	0x3c3dada0	0.01157704
242	0x3cc65803	0.02421189
243	0x3e37fea2	0.17968228
244	0xbc45a31b	-0.012062813
245	0xbd0af4dc	-0.033924922
246	0x3ba456d8	0.0050152354
247	0xbda6544c	-0.08121547
248	0xbd4df85e	-0.05028569
249	0xbdbfde6b	-0.09368595
250	0xbdcc4de4	-0.09975794
251	0xbd1d5fcf	-0.03842145
252	0x3db61a0d	0.088916875
253	0xbde959d3	-0.11394086
254	0x3e248239	0.16065301
255	0x3e2d1bc6	0.16905126

encoder_lstm.weight_hh_l0 f4 [128, 32]
0	0x3de7fe60	0.11327815
1	0xbde62ef5	-0.11239425
2	0xbad07b36	-0.001590586
3	0xbaa1f9c2	-0.0012357759
4	0xbd7ad3af	-0.061237033
5	0xbe01e094	-0.12683326
6	0xbe2bc424	-0.1677404
7	0x3ea46bfa	0.3211363
8	0xbd996461	-0.07489849
9	0xbe86ed67	-0.26353
10	0xbd0e16dd	-0.034689773
11	0x3e13b5cd	0.1442482
12	0xbe119a5c	-0.1421904
13	0xbcde0c89	-0.027105587
14	0xbc595964	-0.013265941
15	0x3ced876b	0.028995236
16	0xbe9ae938	-0.30256057
17	0xbe3698aa	-0.17831674
18	0xbe2c5dc9	-0.16832651
19	0xbd442d8a	-0.047894992
20	0xbdabb345	-0.08383802
21	0x3e0359c6	0.12827215
22	0x3d88c6af	0.06678521
23	0x3c8d19a4	0.01722414
24	0xbe23d6e1	-0.15999939
25	0x3d521d9d	0.051297773
26	0xbdfa9cb6	-0.122369215
27	0x3d1dcd8f	0.038526114
28	0x3def5d30	0.11687696
29	0x3dabe814	0.08393875
30	0x3ce249c8	0.027623072
31	0x3e4e3d14	0.20140487
32	0x3ec1e06b	0.3786653
33	0xbe6f4d30	-0.23369288
34	0x3ecf1b38	0.40450454
35	0xbdf1f1ba	-0.11813684
36	0xbe038982	-0.12845424
37	0x3e7c7f92	0.24658039
38	0x3d8dcd70	0.0692395
39	0x3d3c277c	0.045936093
40	0x3ea4cd16	0.32187718
41	0xbdd73ea1	-0.105099924
42	0xbdf8760e	-0.12131892
43	0x3e0beca8	0.13664496
44	0x3e1c62af	0.1527202
45	0xbe04d78b	-0.12972848
46	0xbd3a6d0b	-0.045514148
47	0xbdedab74	-0.11604968
48	0xbea864f3	-0.32889518
49	0xbe024055	-0.12719853
50	0x3e90118b	0.28138384
51	0x3dc38663	0.095471166
52	0x3e176eab	0.1478831
53	0xbe74b27f	-0.23896216
54	0xbe4dfe43	-0.20116524
55	0x3df3b8eb	0.11900505
56	0xbccc2858	-0.024921581
57	0xbea49886	-0.32147616
58	0xbe875ed5	-0.2643954
59	0xbd90bca3	-0.070672296
60	0x3d7437c1	0.059623484
61	0x3c462e81	0.012096048
62	0x3ea976e7	0.33098528
63	0x3e9b28b5	0.30304495
64	0x3dfe32c0	0.124120235
65	0x3d8e9e89	0.06963832
66	0xbd189544	-0.037251726
67	0xbd9f6178	-0.077822626
68	0x3e168e89	0.1470281
69	0x3ed24884	0.4107095
70	0x3b7ac134	0.003826213
71	0xbc9d87c2	-0.019229773
72	0xbd80875b	-0.06275817
73	0xbe1161cc	-0.14197463
74	0x3d8a033c	0.06738898
75	0xbcf087ee	-0.029361691
76	0x3cff4dc6	0.031165015
77	0x3eb7e9fd	0.35920706
78	0xbd263315	-0.04057606
79	0x3dad6ee3	0.084684156
80	0x3d8b83ba	0.06812234
81	0xbe0a6937	-0.13516699
82	0x3cecb982	0.02889705
83	0xbe5c6a5b	-0.21524946
84	0x3ed99181	0.42493823
85	0x3e2e4294	0.17017585
86	0xbe00aeee	-0.1256673
87	0xbdaccac4	-0.08437112
88	0xbdcfeb4e	-0.10152303
89	0x3bdd1a25	0.0067475014
90	0x3db50a54	0.088398606
91	0x3cf6f2ac	0.030145012
92	0x3d234d6a	0.03986875
93	0xbe3b8f8d	-0.18316479
94	0xbe20843d	-0.15675445
95	0xbdda180c	-0.10649118
96	0xb8fcc6f0	-0.000120533514
97	0xbd9ac005	-0.07556156
98	0xbda808e0	-0.08204818
99	0xbda5561e	-0.08073066
100	0xbe579a50	-0.2105496
101	0xbe33ede7	-0.17571221
102	0xbda8cd10	-0.082422376
103	0xbd5d8693	-0.054083418
104	0xbe07e836	-0.13272175
105	0x3d13da9d	0.036097158
106	0x3d9eb7e9	0.07749922
107	0xbe22ff20	-0.15917635
108	0xbd6eae8c	-0.05827193
109	0x3da69f0c	0.081358045
110	0x3d39074d	0.04517298
111	0xbdc20599	-0.09473724
112	0xbc6f0fae	-0.014591141
113	0x3cb872a2	0.022515599
114	0xbe4030f6	-0.18768677
115	0xbde5a85a	-0.11213751
116	0xbe4b631a	-0.19862023
117	0xbdf7f783	-0.12107756
118	0x3e52c652	0.20583466
119	0x3dcb7b64	0.09935644
120	0xbe604399	-0.21900786
121	0xbd915454	-0.070961624
122	0x3d35b863	0.044365298
123	0x3e2a1cf6	0.1661261
124	0xbd462d0e	-0.04838281
125	0xbe0a126e	-0.13483593
126	0x3dc8a0d3	0.097963
127	0xbd8279f5	-0.06370918
128	0x3d27813b	0.04089473
129	0xbe644532	-0.22292021
130	0x3ece9871	0.4035068
131	0xbe6d7584	-0.2318936
132	0xbc5072f2	-0.012722718
133	0x3e51227b	0.2042331
134	0xbe1bf906	-0.15231714
135	0x3ec7d1e2	0.39027315
136	0x3cf1a388	0.029496923
137	0xbe1e849b	-0.15480272
138	0xbcf68beb	-0.030096015
139	0x3e56c453	0.20973329
140	0x3debf9fe	0.115222916
141	0xbef6a985	-0.48176208
142	0xbe804182	-0.25049978
143	0xbd8ad5fe	-0.06779097
144	0xbd880e3a	-0.066433385
145	0xbe93fd5c	-0.28904235
146	0x3ea11c94	0.31467116
147	0xbe61df6f	-0.2205789
148	0xbe754db7	-0.23955427
149	0xbbed5916	-0.007243286
150	0xbdeb8d0e	-0.115015134
151	0x3e022624	0.12709862
152	0xbe32d3c6	-0.17463598
153	0xbd036168	-0.032075316
154	0xbe986c00	-0.29769897
155	0xbe61e329	-0.22059311
156	0x3e973eba	0.29540044
157	0x3e034445	0.12819012
158	0x3dc329d8	0.095294654
159	0x3cfbdde8	0.030745462
160	0x3e9548a2	0.29156977
161	0xbdeddef6	-0.11614792
162	0x3eb38e60	0.3506956
163	0xbe7c153f	-0.2461748
164	0xbd896bb2	-0.067099944
165	0x3e196b75	0.14982398
166	0xbedc4ee1	-0.4302893
167	0x3e02995e	0.12753817
168	0x3e6e9231	0.23297955
169	0xbf03be35	-0.5146211
170	0xbe43a32b	-0.19105212
171	0x3eda3370	0.4261737
172	0x3eb4d95f	0.3532209
173	0x3e48b8a2	0.19601682
174	0xbd969868	-0.07353288
175	0x3daf9bb2	0.085746184
176	0xbf052d53	-0.52022284
177	0xbe7a5a69	-0.24448551
178	0xbe22340d	-0.15840168
179	0x3e42a47e	0.19008061
180	0x3db40689	0.08790309
181	0xbde26998	-0.11055297
182	0xbe5fd32f	-0.21857904
183	0x3e3032ff	0.17206953
184	0xbe35fdd9	-0.17772616
185	0xbea372c8	-0.3192351
186	0xbdfac306	-0.12244229
187	0xbd26a934	-0.04068871
188	0x3e8aa9a8	0.27082562
189	0x3e19945c	0.14998001
190	0x3e328fb2	0.17437628
191	0x3f2cd4dd	0.67512304
192	0x3e86349e	0.2621202
193	0x3e15a22e	0.14612648
194	0x3e979dce	0.29612583
195	0xbd860540	-0.0654397
196	0xbdf1f6fc	-0.11814687
197	0x3e98e974	0.2986561
198	0xbe47755a	-0.1947836
199	0x3e099109	0.13434233
200	0xbdb5b1ec	-0.088718265
201	0x3d095546	0.03352859
202	0x3e28ac20	0.1647191
203	0x3e77d1b4	0.24201089
204	0x3c06b794	0.008222479
205	0xbe21d681	-0.15804483
206	0xbec66dc0	-0.38755608
207	0xbe3d0f47	-0.18462859
208	0x3cc6905a	0.024238754
209	0xbe33ae9d	-0.17547078
210	0xbd2af0ae	-0.041733436
211	0xbe707a8c	-0.23484248
212	0xbc948c47	-0.018133296
213	0x3e3bb459	0.18330516
214	0xbd29f56f	-0.04149383
215	0xbd118b89	-0.03553346
216	0xbd4be6f0	-0.049780786
217	0xbd977e39	-0.07397122
218	0xbd752658	-0.05985102
219	0xbccdca8c	-0.025120996
220	0x3dc1bda6	0.09460001
221	0xbdb0a94a	-0.08626039
222	0xbe3849ba	-0.17996874
223	0xbe9cd1e4	-0.30628884
224	0x3e4ae525	0.19813974
225	0x3e9ac741	0.30230144
226	0x3e91be0d	0.2846531
227	0x3e77b77a	0.24191085
228	0x3cbe367e	0.023219343
229	0x3e424bab	0.18974178
230	0xbd40ca14	-0.047067717
231	0x3e8917a3	0.26775846
232	0x3e0a777c	0.13522142
233	0x3e4406e9	0.19143261
234	0xbe40fcf0	-0.18846488
235	0xbe610e48	-0.21978104
236	0xbd985f59	-0.07440061
237	0x3ca34d32	0.01993427
238	0xbf0f295e	-0.55922496
239	0xbe2ff95d	-0.17184968
240	0x3e5596bf	0.20858286
241	0xbee8417e	-0.45362467
242	0x3e7fd44a	0.24983326
243	0x3d315de5	0.043302435
244	0x3df81886	0.121140525
245	0xbda1254b	-0.07868441
246	0xbe0e78fa	-0.13913336
247	0xbe2137f3	-0.15743999
248	0x3e975eb6	0.29564446
249	0xbe81487a	-0.25250608
250	0x3e2f2a87	0.17106067
251	0x3dae9699	0.08524818
252	0x3f02c865	0.5108703
253	0x3d67170e	0.05641847
254	0x3d3d1bae	0.046168976
255	0xbdc4ee62	-0.096157804

encoder_lstm.bias_ih_l0 f4 [128]
0	0x3e030c50	0.12797666
1	0x3ea0553d	0.31315032
2	0xbe0560d9	-0.13025226
3	0xbd10f29f	-0.03538763
4	0x3e30ad23	0.17253546
5	0x3e4ff090	0.20306611
6	0xbda76cdf	-0.081750624
7	0xbdd85b64	-0.105643064
8	0x3c839bbc	0.01606547
9	0xbe3ebd36	-0.18626866
10	0x3d20f9f3	0.03930087
11	0xbc48693c	-0.012232121
12	0xbc28c268	-0.010300256
13	0x3f0ee9f0	0.5582571
14	0x3e4676fc	0.19381326
15	0xbb8866ed	-0.0041626603
16	0x3e3151b5	0.17316325
17	0x3ddf670f	0.10908329
18	0x3e8ad0b6	0.2711236
19	0x3e705b5f	0.23472355
20	0x3e4581aa	0.19287744
21	0x3d17879b	0.036994558
22	0x3e7e929b	0.24860613
23	0xbd444671	-0.04791874
24	0x3dca033c	0.09863898
25	0xbd5da53e	-0.054112665
26	0x3e56e454	0.20985538
27	0xbe57f27b	-0.21088593
28	0x3e85d4ef	0.26139018
29	0x3e518468	0.20460665
30	0x3e1eccaa	0.1550776
31	0xbd84764e	-0.06467877
32	0x3d9e9c8c	0.07744703
33	0x3dffa4a8	0.124825776
34	0xbe3e871e	-0.1860623
35	0x3da760a8	0.081727326
36	0x3d8fcfdb	0.07022067
37	0xbd78e9fa	-0.060770012
38	0x3d518c09	0.05115894
39	0x3dba5ef0	0.09100139
40	0xbde74b9b	-0.112937175
41	0x3df292b3	0.11844387
42	0x3c4fc29e	0.012680678
43	0x3e6354c6	0.22200307
44	0xbe176875	-0.14785941
45	0x3dde2061	0.108460195
46	0xbda4d6de	-0.08048795
47	0xbe20c8da	-0.15701619
48	0xbce1dd76	-0.027571421
49	0xbd8175c0	-0.06321287
50	0xbd7dafcd	-0.061935235
51	0x3c96bf38	0.018401727
52	0x3d50bcfa	0.050961472
53	0x3e4e6b8a	0.2015821
54	0x3c1fbcf2	0.009749638
55	0x3d59627c	0.053072438
56	0xbd8c14f6	-0.068399355
57	0x3df95dea	0.12176116
58	0xbe14097f	-0.14456747
59	0xbc133cfe	-0.00898671
60	0xbdbdd40c	-0.0926896
61	0x3d676cc4	0.05650021
62	0x3ca332c3	0.019921666
63	0x3dffcf3c	0.12490699
64	0xbdaea300	-0.085271835
65	0xbe0b45d6	-0.13600859
66	0x3c501101	0.012699367
67	0x3c70984a	0.014684746
68	0x3d430fd7	0.047622528
69	0xbe049c19	-0.12950172
70	0xbded740a	-0.11594398
71	0x3c874805	0.016513834
72	0x3b0a07f6	0.0021061874
73	0xbde7fe7c	-0.11327836
74	0xbd9fb884	-0.077988654
75	0xbd1d42bc	-0.03839372
76	0x3d6b8d67	0.0575079
77	0x3e25f547	0.16206847
78	0xbdf7d4aa	-0.12101109
79	0xbe0105b2	-0.12599829
80	0x3cf08e99	0.02936487
81	0x3b3d706a	0.0028906115
82	0xbe1657e4	-0.14681965
83	0xbd6e4c4a	-0.058178224
84	0xbd950f87	-0.07278352
85	0xbdc9340c	-0.0982438
86	0x3e10b738	0.14132392
87	0xbd976b75	-0.07393543
88	0xbbee4664	-0.007271575
89	0xbd8129ad	-0.06306777
90	0x3d04fe8a	0.03246931
91	0x3d08eaf2	0.033427186
92	0x3d8266ee	0.063672885
93	0xbcb9d776	-0.022685748
94	0x3dffbc63	0.12487104
95	0x3da9ba60	0.08287501
96	0x3da92d7a	0.08260627
97	0x3f01dea2	0.50730336
98	0x3d12d511	0.035847727
99	0xbe0b35d9	-0.1359476
100	0x3db85fcc	0.09002647
101	0x3e0803b4	0.13282663
102	0x3d1dbe66	0.038511656
103	0x3df7bd71	0.1209668
104	0x3e717758	0.23580682
105	0xbe295076	-0.165346
106	0x3de34533	0.11097183
107	0x3dd2c03a	0.102905706
108	0xbd0ec52a	-0.034856
109	0x3edb05da	0.42777902
110	0xbd23592d	-0.039879967
111	0x3dfe486c	0.12416157
112	0xbd8ec74d	-0.06971607
113	0x3cbb717a	0.022881258
114	0x3d991fe6	0.07476787
115	0xbc8a5f72	-0.016891215
116	0x3e12b2eb	0.14326064
117	0x3ce50d70	0.027960509
118	0xbd868493	-0.06568255
119	0xbddc6691	-0.107617505
120	0x3e9a1cd1	0.3010011
121	0x3e36a8c4	0.17837816
122	0x3e2b76fb	0.16744606
123	0xbdc774bd	-0.09739063
124	0xbb58273b	-0.0032982368
125	0xbc757752	-0.014982061
126	0x3db62358	0.0889346
127	0x3d415f3c	0.047209963

encoder_lstm.bias_hh_l0 f4 [128]
0	0xbc97d1e0	-0.018532693
1	0x3eeb2a5a	0.4593075
2	0x3e2d90a6	0.1694971
3	0x3cb2da40	0.021832585
4	0x3e62495c	0.22098297
5	0x3effb5ba	0.49943334
6	0x3d0697f1	0.032859746
7	0xbd942cb8	-0.07235092
8	0x3da7cf3d	0.081938244
9	0xbd526537	-0.051366057
10	0xbc0da41e	-0.008645086
11	0xbe046c3d	-0.12931915
12	0x3d89ec48	0.0673452
13	0x3ecf4a42	0.40486342
14	0x3de692cc	0.11258468
15	0x3e0ea29b	0.13929217
16	0x3d2c06b5	0.041998584
17	0x3e32aba1	0.17448284
18	0x3da3375c	0.07969543
19	0x3c53f51e	0.012936858
20	0x3d73c0f3	0.059510183
21	0x3c2eeae8	0.010676123
22	0x3e4c1604	0.19930273
23	0x3e2bd190	0.1677916
24	0x3e28c5c8	0.16481698
25	0xbda975e2	-0.082744375
26	0xbd71bf21	-0.059020165
27	0xbd147fda	-0.03625474
28	0x3e3db0f9	0.18524541
29	0x3dd4943c	0.10379836
30	0xbd8dd29c	-0.06924936
31	0x3c724a7c	0.014788266
32	0x3cbd5f2a	0.023116667
33	0xbde4afb8	-0.11166328
34	0x3d91c09d	0.07116816
35	0x3d5a9750	0.05336696
36	0x3db9b6d4	0.09068075
37	0x3da318f4	0.07963744
38	0x3d7ee8c3	0.062233698
39	0x3d0d35ce	0.03447514
40	0xbd8ebc15	-0.069694676
41	0x3d12117a	0.0356612
42	0x3d33615f	0.043794032
43	0x3d9ee446	0.077583835
44	0xbde293ba	-0.11063333
45	0xbe24a608	-0.16078961
46	0x3ca90bdd	0.02063554
47	0x3da7099e	0.08156131
48	0x3da050d6	0.07827918
49	0xbe37385c	-0.17892593
50	0x3dce49bd	0.10072658
51	0xbe3b8026	-0.18310603
52	0xbde44843	-0.11146595
53	0x3d63713f	0.05552792
54	0xbdc24d2e	-0.09487377
55	0x3c24108b	0.01001371
56	0x3ca2ba4b	0.019864222
57	0x3e08ab49	0.1334659
58	0x3d868b70	0.06569564
59	0xbdd6e876	-0.10493557
60	0x3d18c94b	0.037301343
61	0xbe08af0f	-0.1334803
62	0xbd7a5172	-0.06111283
63	0x3d907e58	0.07055348
64	0xbde83db9	-0.11339898
65	0x3d7cfdf6	0.061765634
66	0x3d8d31bc	0.06894252
67	0xbd702b2a	-0.058634914
68	0x3da73823	0.08165004
69	0xbc9e2345	-0.019303927
70	0xbdbd5883	-0.09245398
71	0x3dac3496	0.084084675
72	0x3e442ceb	0.1915776
73	0xbe00cf8c	-0.12579173
74	0x3d29ffcc	0.041503713
75	0x3e1eb603	0.1549912
76	0x3db4bfd0	0.08825648
77	0xbe203a30	-0.15647197
78	0x3decb2d4	0.11557546
79	0xbc1cfba3	-0.009581479
80	0xbe1563c4	-0.14588839
81	0x3e12b4d7	0.14326797
82	0x3e11f82b	0.14254825
83	0x3e221e78	0.15831935
84	0xbd383d3d	-0.044980276
85	0x3cf6f3e3	0.030145591
86	0xbe060dff	-0.13091277
87	0x3cfe6702	0.031054977
88	0xbe18923a	-0.14899531
89	0xbdf2a5a7	-0.11848002
90	0xbdbe9f42	-0.0930772
91	0x3b69997c	0.0035644462
92	0xbc5cee94	-0.013484616
93	0x3e028154	0.12744647
94	0x3d440552	0.047856636
95	0xbdeb98b8	-0.11503738
96	0xbca9fce8	-0.020750478
97	0x3e491672	0.19637468
98	0x3dd855d3	0.10563245
99	0xbe0cfdf6	-0.13768753
100	0x3d12b8f4	0.035820916
101	0xbb36d229	-0.0027896261
102	0xbd924a33	-0.07143059
103	0x3bfcc624	0.00771405
104	0x3ea84614	0.32865965
105	0xbbe4c48e	-0.006981439
106	0xbdf2b52c	-0.11850962
107	0x3de208bf	0.110368244
108	0xbde33cef	-0.110956065
109	0x3eda660a	0.42655975
110	0x3e0e2f3c	0.13885206
111	0x3df794e9	0.12088949
112	0xbd137e50	-0.036009133
113	0x3c85de2c	0.016341291
114	0x3e5931d2	0.21210411
115	0xbc3b0a5e	-0.011416046
116	0x3dab754e	0.083719835
117	0x3e2da197	0.16956173
118	0x3e4c2af5	0.19938262
119	0xbdacc65a	-0.0843627
120	0x3e08d426	0.13362178
121	0x3e1ada7e	0.1512241
122	0xbc8538bd	-0.016262406
123	0xbd9eca75	-0.07753459
124	0x3dfbe0ce	0.122987375
125	0x3e2cdcc2	0.16881087
126	0xbd172335	-0.03689881
127	0xbc8ec177	-0.017426236

dest_lstm_obs.weight_ih_l0 f4 [128, 2]
0	0x3cdfc3e4	0.027315088
1	0xbdadd746	-0.08488326
2	0xbd18a12a	-0.037263073
3	0xbc1e3752	-0.009656744
4	0xbcf04e44	-0.029334195
5	0xbd4a49ba	-0.049386717
6	0xbc1bf2fb	-0.00951838
7	0x3c0f229d	0.00873628
8	0x3e2dbd21	0.16966678
9	0x3ba8571f	0.005137339
10	0xbdd8464a	-0.105602816
11	0x3d3ed9be	0.046594374
12	0x3dc988cc	0.09840545
13	0x3cf476f3	0.029841876
14	0x3daf5732	0.08561553
15	0xbcee6113	-0.029099023
16	0xbc196f3c	-0.009364899
17	0xbd06cce0	-0.032910228
18	0xbcc4ec78	-0.024038538
19	0x3cbb815b	0.02288883
20	0xbe278795	-0.16360314
21	0x3dbb994f	0.09160101
22	0xbdd05965	-0.10173301
23	0xbdf6b090	-0.120453954
24	0xbe02ecd5	-0.12785657
25	0x3de02782	0.109450355
26	0xbdc79757	-0.09745663
27	0xbddd67bf	-0.108108036
28	0xbd7db822	-0.06194318
29	0xbe11e0fe	-0.14245984
30	0x3d72e712	0.059302397
31	0x3db3a51c	0.087717265
32	0x3d46eca3	0.048565518
33	0xbcae1fb0	-0.021255344
34	0xbd1baef1	-0.038008634
35	0x3d8e5197	0.06949156
36	0x3c881aa6	0.01661427
37	0x3d0d62dd	0.03451811
38	0xbc1b994e	-0.009497
39	0xbd58156b	-0.0527548
40	0x3d9928e3	0.07478502
41	0xbd2a6504	-0.041600242
42	0xbd197055	-0.037460644
43	0x38627f30	5.400105e-05
44	0xbdbd8b4e	-0.09255086
45	0x3dcc25bd	0.099681355
46	0xbe056c41	-0.13029577
47	0xbd29e7df	-0.041480895
48	0xbba29931	-0.0049621095
49	0x3c958d2b	0.01825579
50	0xbddac854	-0.10682741
51	0x3dd12ce5	0.10213641
52	0x3d198e81	0.037489418
53	0xbd670778	-0.056403607
54	0xbe0c2450	-0.13685727
55	0x3ddec898	0.10878104
56	0x3d6e262e	0.05814188
57	0x3d205575	0.039144
58	0x3dc1162b	0.09428056
59	0xbc3f473a	-0.011674697
60	0x3de281de	0.110599265
61	0xbdf1c0f4	-0.11804381
62	0x3cafffa8	0.021484211
63	0x3d70db28	0.058802754
64	0xbdf9b100	-0.12191963
65	0xbcf3416b	-0.02969428
66	0x3d4675b7	0.048452105
67	0xbd172a3e	-0.03690552
68	0xbdc1a642	-0.09455539
69	0xbd238292	-0.039919443
70	0xbdea3a3f	-0.11436891
71	0xbd4d212b	-0.05008046
72	0xbde94450	-0.11389983
73	0x3df11892	0.117722645
74	0xbd06caa7	-0.032908108
75	0xbde4e445	-0.111763515
76	0xbe0d3435	-0.13789447
77	0xbb630d87	-0.0034645514
78	0xbcaa93c1	-0.020822408
79	0x3c3b7aea	0.011442879
80	0xbbc307fc	-0.0059518795
81	0x3ce42033	0.027847385
82	0x3daf50ab	0.08560308
83	0xbd887f46	-0.066649005
84	0xbdd68ccd	-0.10476074
85	0xbdbfcb9b	-0.093650065
86	0xbdd91a51	-0.106007226
87	0x3e176b52	0.14787033
88	0x3ccf3fa4	0.0252989
89	0x3c45d6ad	0.0120751085
90	0x3e1c0afc	0.15238565
91	0xbd36b002	-0.044601448
92	0xbda519f9	-0.080615945
93	0x3e0fceca	0.14043728
94	0xbd861156	-0.06546275
95	0x3c802950	0.0156447
96	0xbc97da20	-0.018536627
97	0xbe1b3467	-0.15156709
98	0xbc8c138a	-0.01709916
99	0xbe0c8af0	-0.13724875
100	0xbd2e9a86	-0.042627834
101	0x3dbc5242	0.09195377
102	0xbd8b73cd	-0.068091966
103	0x3d9de190	0.07709038
104	0xbd6fe916	-0.058571897
105	0x3d08ef66	0.033431433
106	0x3d11cd34	0.035596088
107	0x3d453582	0.048146732
108	0xbe2e5f31	-0.170285
109	0xbe1eeb71	-0.15519501
110	0x3d34a957	0.044106808
111	0xbd96a14a	-0.07354982
112	0xbdc099e6	-0.09404354
113	0x3cbbf614	0.022944488
114	0x3daa9294	0.08328739
115	0x3d1d85a1	0.038457517
116	0xbd3c7c44	-0.046016946
117	0xbd3617cf	-0.0444563
118	0xbe1987c6	-0.149932
119	0x3d176e73	0.036970567
120	0xbd9cf9ac	-0.07664809
121	0xbd350c19	-0.04420099
122	0xbdd2acb3	-0.10286846
123	0xbe1b25dc	-0.15151161
124	0x3c5452e6	0.012959218
125	0xbdb27ec4	-0.08715585
126	0xbd0a9a78	-0.03383872
127	0xbd86eecb	-0.06588515
128	0x3db07e2c	0.086178154
129	0x3dababfb	0.08382412
130	0x3d4d9230	0.050188243
131	0x3d342f2e	0.043990307
132	0xbd895652	-0.067059174
133	0xbd0b8479	-0.034061883
134	0xbd2d8164	-0.042359725
135	0x3dda417c	0.106570214
136	0xbdb638b9	-0.08897538
137	0xbd9fdcaa	-0.0780576
138	0x3dd83a30	0.105579734
139	0x3d76c647	0.060247686
140	0xbdcec7c1	-0.10096694
141	0xbdb93ad1	-0.090444215
142	0xbc08367e	-0.008313773
143	0x3cf102e4	0.029420324
144	0x3d4a0c42	0.049328096
145	0x3b2cc60c	0.0026363162
146	0x3e359100	0.17731094
147	0xbdb655a0	-0.089030504
148	0x3d24ac22	0.04020322
149	0xbe1b3178	-0.1515559
150	0x3ce5ccce	0.02805176
151	0x3daea9bb	0.08528467
152	0x3bb8b639	0.005636957
153	0xbcb6687d	-0.02226662
154	0xbc147886	-0.009061938
155	0xbdbd132b	-0.092321716
156	0xbd192500	-0.0373888
157	0x3b93eb80	0.004514158
158	0x3d3df2b1	0.046374027
159	0x3b4df6c6	0.0031427606
160	0x3e144c38	0.144822
161	0xbd537fe6	-0.051635645
162	0xbdb6bc59	-0.08922643
163	0x3db787a4	0.08961418
164	0xbd41eb4f	-0.04734355
165	0xbdebf06e	-0.11520468
166	0x3cff7020	0.031181395
167	0x3d9f5b05	0.077810325
168	0x3d801e36	0.06255762
169	0xbd903ec5	-0.07043222
170	0x3d0d302d	0.034469772
171	0x3c2add2f	0.010428711
172	0xbd9d4ad7	-0.0768029
173	0xbcf82572	-0.030291293
174	0x3d997245	0.07492498
175	0x3d80bb6c	0.06285748
176	0xbd465dc1	-0.048429254
177	0x3d5ae206	0.05343821
178	0x3bc614b9	0.006044951
179	0x3cb0578f	0.021526126
180	0x3dabd84e	0.08390866
181	0x3d5420cb	0.051789086
182	0x3d95e7f7	0.073196344
183	0x3d96d766	0.07365303
184	0x3b4f9156	0.003167232
185	0x3b86ef54	0.0041178856
186	0xbd918176	-0.07104771
187	0x3d93568b	0.07194241
188	0xbd4b4da0	-0.049634576
189	0xbcf6c0fe	-0.030121323
190	0x3d6474ce	0.055775456
191	0x3da8026b	0.08203586
192	0x3de8100f	0.11331188
193	0xbdb9842b	-0.09058412
194	0x3dd35be7	0.10320263
195	0xbe07395f	-0.13205479
196	0x3c210fc2	0.009830417
197	0xbdcf18e8	-0.10112172
198	0x3dce28d3	0.1006638
199	0xbd259f72	-0.040435262
200	0x3e148b8f	0.14506362
201	0x3e00c7a8	0.12576163
202	0x3c9e22ae	0.019303646
203	0xbe258d71	-0.16167237
204	0x3d9cfb19	0.076650806
205	0x3d5da362	0.054110892
206	0xbe28e2bc	-0.16492742
207	0xbdb84c94	-0.08998981
208	0xbe204267	-0.1565033
209	0x3d9b45fb	0.07581707
210	0x3dda3326	0.10654287
211	0xbe18d781	-0.14925958
212	0x3d461980	0.048364162
213	0x3dcf7f24	0.10131672
214	0xb9ddbde6	-0.0004229389
215	0xbe169596	-0.147055
216	0xbdcce220	-0.100040674
217	0xbd381b64	-0.044947997
218	0xbe12f55b	-0.14351408
219	0x3d9bdf94	0.076110035
220	0xbd483bfe	-0.048885338
221	0x3de09b34	0.10967103
222	0xbe1526f2	-0.14565638
223	0xbdbc1ac9	-0.09184796
224	0xbc033541	-0.008008302
225	0x3d87c51c	0.066293925
226	0xbdf9129e	-0.12161754
227	0x3d80effb	0.06295773
228	0xbbcd7da0	-0.006271079
229	0xbcea4984	-0.028599508
230	0xbe1bda34	-0.15219957
231	0xbd0f4779	-0.03498027
232	0x3e10ea13	0.14151792
233	0xbddf37ff	-0.10899352
234	0xbd37b923	-0.044854295
235	0xbdc9d01d	-0.098541476
236	0x3ddd8265	0.108158864
237	0xbd2d631c	-0.042330846
238	0xbd5fd566	-0.054646872
239	0x3df9c16a	0.12195094
240	0xbd9b34d9	-0.07578439
241	0x3de83e20	0.113399744
242	0xbd19ae6a	-0.03751985
243	0xbd8f7979	-0.07005591
244	0x3dbc9948	0.092089236
245	0xbdee2fed	-0.11630235
246	0xbd922756	-0.07136409
247	0xbab34720	-0.0013677813
248	0xbe0dbf62	-0.13842538
249	0xbde5192a	-0.1118644
250	0xbe0f0c7b	-0.13969605
251	0x3c886954	0.016651787
252	0x3d0f8a3d	0.035043944
253	0xbc7ae410	-0.015313163
254	0xbdbf7e55	-0.09350268
255	0x3deb1fe2	0.114806905

dest_lstm_obs.weight_hh_l0 f4 [128, 32]
0	0xbd4ce7fd	-0.05002593
1	0xbe347238	-0.17621696
2	0x3e25cc42	0.161912
3	0x3e0b6cc4	0.1361571
4	0xbd56ca9c	-0.052439317
5	0x3c6a1763	0.014287802
6	0x3dfae051	0.12249816
7	0xbd323958	-0.04351172
8	0xbd888cdc	-0.06667492
9	0xbdb8e242	-0.0902753
10	0x3e262e36	0.16228566
11	0xbd877b21	-0.06615282
12	0x3ccd5560	0.025065124
13	0x3e0cb658	0.13741434
14	0xbd61c49a	-0.055119134
15	0xbe0d31cf	-0.13788532
16	0xbdb655b6	-0.08903067
17	0xbe29d644	-0.16585642
18	0xbcb48668	-0.022036746
19	0x3d871b2d	0.0659698
20	0xbe99c9c0	-0.30036736
21	0xbddd1b94	-0.10796276
22	0x3df1b5d2	0.118022576
23	0xbccb3f4b	-0.024810454
24	0x3e0c9e88	0.1373235
25	0x3e12f443	0.14350991
26	0xbe0c0b7a	-0.13676253
27	0xbd2429df	-0.040078994
28	0x3e28b87a	0.16476622
29	0x3dd8ebbd	0.105918385
30	0x3da32c5b	0.079674445
31	0x3e3624d0	0.1778748
32	0x3d3c923d	0.0460379
33	0xbe197c25	-0.14988764
34	0x3d393a4c	0.04522161
35	0xbddfca22	-0.10927226
36	0x3d6cd4c2	0.05782009
37	0xbe1997fe	-0.14999387
38	0xbd9ded1a	-0.07711239
39	0x3dcec3bd	0.10095928
40	0x3e1b2c63	0.15153651
41	0x3d0f5ace	0.034998707
42	0x3cf64f32	0.03006706
43	0x3e07fd0a	0.1328012
44	0xbb0bbbea	-0.0021321722
45	0x3c85ab8d	0.016317153
46	0x3e0f92a6	0.14020786
47	0xbe204fa5	-0.15655382
48	0x3db3ab50	0.0877291
49	0x3e34403a	0.17602625
50	0xbcefb8ea	-0.029262979
51	0xbd58bb10	-0.05291277
52	0x3c65aa1d	0.014017609
53	0xbde40879	-0.111344285
54	0xbd9256ae	-0.07145439
55	0xbdeae53f	-0.114695065
56	0x3dfdaf23	0.1238692
57	0xbe0ca364	-0.13734204
58	0x3e1ecd54	0.15508014
59	0x3dc92348	0.098211825
60	0xbcb8a976	-0.022541743
61	0x3dfaa326	0.12238149
62	0x3e12a8da	0.14322224
63	0x3dffa130	0.12481916
64	0x3d9a3b4c	0.07530841
65	0xbc7aa3c6	-0.015297836
66	0x3e147a48	0.14499772
67	0x3dad1d20	0.08452821
68	0xbdbdf728	-0.09275657
69	0x3d28b27b	0.041185837
70	0xbd388793	-0.04505117
71	0x3db35fe1	0.08758522
72	0x3c8c07b3	0.017093515
73	0x3d7ce547	0.061742093
74	0x3e5c85f5	0.21535476
75	0x3d88d090	0.06680405
76	0x3e5aebc7	0.21379004
77	0x3e1cc6e9	0.15310253
78	0x3e25b90b	0.1618387
79	0xbca57f7e	-0.020202395
80	0xbe0765ca	-0.13222423
81	0x3d8a926e	0.067662105
82	0x3da152d3	0.078771256
83	0x3da511d6	0.080600426
84	0x3e2e67b8	0.17031753
85	0xbe5a4100	-0.21313858
86	0xbdd79714	-0.10526863
87	0xbe40f4de	-0.1884341
88	0xbe22eef6	-0.15911469
89	0xbc6b3124	-0.014354978
90	0x3e039474	0.12849599
91	0x3c90e230	0.01768598
92	0xbdef778f	-0.11692726
93	0xbd9f1a41	-0.077686794
94	0x3e1cad7a	0.15300551
95	0x3dc8efbd	0.098113514
96	0x3e0009f7	0.12503801
97	0x3d9c1984	0.07622054
98	0xbe46114b	-0.19342534
99	0xbd1b6cae	-0.037945442
100	0x3e7cbb68	0.24680865
101	0x3e257301	0.16157152
102	0xbdc29ab5	-0.09502164
103	0x3db6ce61	0.089260824
104	0xbdaab7ae	-0.08335815
105	0xbc8beea7	-0.017081572
106	0x3c69801c	0.014251735
107	0x3d035fcd	0.032073785
108	0xbc8c7592	-0.017145906
109	0x3d92da7e	0.0717058
110	0x3dd7a2fa	0.10529132
111	0xbdf87589	-0.12131793
112	0xbdef4f54	-0.116850525
113	0x3dcc97e5	0.09989909
114	0xbc4e010e	-0.012573494
115	0xbc844508	-0.016146198
116	0xbd35142f	-0.0442087
117	0x3e01ed7c	0.1268825
118	0x3c96ec82	0.018423323
119	0xbe1b6014	-0.1517337
120	0xbc895ed0	-0.016768843
121	0xbd6849c3	-0.05671097
122	0xbe01b9ec	-0.1266858
123	0x3e01626d	0.12635203
124	0xbae0a57c	-0.0017139162
125	0x3dba8bd1	0.09108699
126	0x3e0f9420	0.14021349
127	0xbe4b2a9a	-0.1984047
128	0xbdc852c3	-0.097814105
129	0x3e333b0e	0.17502996
130	0x3d96b098	0.07357901
131	0xbe4ac508	-0.19801724
132	0xbe23ec40	-0.16008091
133	0x3e021204	0.12702185
134	0xbdc3ea30	-0.09566152
135	0x3d23d3b4	0.039996818
136	0x3e16e498	0.14735639
137	0xbc56cbc8	-0.013110109
138	0xbdbc5351	-0.09195579
139	0x3de60481	0.11231328
140	0xbdb86ac8	-0.09004742
141	0xbe28af4f	-0.16473125
142	0xbe5dfa07	-0.21677409
143	0x3e22d062	0.15899804
144	0xbd9cf582	-0.076640144
145	0x3d8dbd7d	0.06920908
146	0xbe09c660	-0.1345458
147	0xbd4d543e	-0.050129168
148	0x3e149d53	0.1451314
149	0xbbf6c308	-0.0075305738
150	0xbe511c6c	-0.20420998
151	0x3d9193fe	0.071083054
152	0x3d8b2dfd	0.06795881
153	0x3c897ad5	0.016782204
154	0xbd4dc84a	-0.05023984
155	0x3e131d7a	0.14366713
156	0xbe014a9b	-0.12626116
157	0xbd6f5b9c	-0.058436975
158	0xbde24213	-0.11047759
159	0xbd94499c	-0.072406024
160	0xbc679798	-0.014135264
161	0xbe2ab6ab	-0.16671245
162	0xbe4b0186	-0.198248
163	0xbd464465	-0.04840507
164	0x3cb97747	0.022639884
165	0xbe19f071	-0.15033127
166	0xbdde93a8	-0.10868007
167	0x3d529326	0.051409863
168	0xbdae500b	-0.08511361
169	0xbdb71a07	-0.08940511
170	0x3db1016b	0.086428486
171	0xbd6ebde3	-0.05828656
172	0xbdaec7b4	-0.08534184
173	0x3c4e24c5	0.012582009
174	0xbb120bf4	-0.0022284957
175	0xbd815c22	-0.06316401
176	0xbdb9fc8e	-0.09081374
177	0xbcbf8493	-0.023378646
178	0x3e2bea9a	0.16788712
179	0x3e1b21f2	0.15149668
180	0x3d67c7fe	0.05658721
181	0x3bbcdc75	0.005763585
182	0xbdd1b41d	-0.10239432
183	0x3e2973b5	0.16548045
184	0xbe575681	-0.21029092
185	0x3d072e3e	0.033003084
186	0xbe1a8e27	-0.1509329
187	0x3db3a82e	0.08772312
188	0xbd1e29f8	-0.038614243
189	0x3e25213b	0.16125958
190	0xbd4eb8e0	-0.05046928
191	0xbdfc700f	-0.12326061
192	0x3d118304	0.035525337
193	0x3d6fc66e	0.058538847
194	0xbe17dd9d	-0.14830633
195	0xbe1f4f71	-0.15557648
196	0x3d6ecdb8	0.058301657
197	0x3db0416d	0.08606229
198	0x3deda198	0.11603087
199	0x3e0a106e	0.1348283
200	0x3dfd8160	0.12378192
201	0xbdf4bbb4	-0.11949864
202	0x3d2153e2	0.039386638
203	0xbd3bc54d	-0.045842458
204	0xbe14e842	-0.14541724
205	0xbe4140c2	-0.1887236
206	0xbe1f5c40	-0.15562534
207	0xbca6d93d	-0.02036726
208	0xbe321381	-0.17390253
209	0xbdae97f0	-0.085250735
210	0x3c809cff	0.015699862
211	0xbdbd344c	-0.092384905
212	0x3e3b0d78	0.18266857
213	0xbe3035c7	-0.17208014
214	0x3e37dc81	0.1795521
215	0x3db6b96a	0.08922084
216	0xbd4c3428	-0.049854428
217	0xbb464f88	-0.0030259807
218	0xbe28c3f1	-0.16480996
219	0x3dc5cfb4	0.09658757
220	0x3e1638b7	0.14670072
221	0xbe3befb8	-0.18353164
222	0x3dde999f	0.10869145
223	0x3d812dde	0.063075766
224	0xbcbd589c	-0.023113541
225	0xbe19f8a3	-0.15036254
226	0xbe43a020	-0.19104052
227	0xbcaa7c66	-0.02081127
228	0x3b401b35	0.0029313092
229	0xbe128e29	-0.14312042
230	0x3d70cad4	0.058787182
231	0x3dc4482c	0.09584078
232	0x3dbfe2b3	0.09369411
233	0xbcf4df50	-0.02989164
234	0xbd469564	-0.048482314
235	0x3da3cdd4	0.07998243
236	0x3d436244	0.047701135
237	0xbe4458c8	-0.19174492
238	0xbc567af4	-0.013090838
239	0x3e144a6c	0.14481515
240	0xbdf9264c	-0.12165508
241	0x3ceddae4	0.02903504
242	0xbc1dff11	-0.009643332
243	0xbd89bdb4	-0.06725636
244	0xbe064521	-0.13112308
245	0xbcd9f96e	-0.026608195
246	0x3dd1d13c	0.102449864
247	0xbd4cc6be	-0.049994223
248	0xbca50bd5	-0.020147244
249	0x3bc10829	0.0058908653
250	0x3de3a034	0.11114541
251	0x3dc1769b	0.0944645
252	0xbd647664	-0.05577697
253	0xbca0d856	-0.019634407
254	0x3c6603ef	0.014039024
255	0x3d4d4627	0.05011573

dest_lstm_obs.bias_ih_l0 f4 [128]
0	0x3e303946	0.17209348
1	0xbdc656c2	-0.096845165
2	0xbd71cd97	-0.059033956
3	0xbd4b32e2	-0.049609073
4	0x3da76c25	0.08174924
5	0xbd2e0b55	-0.042491276
6	0xbdf8f880	-0.121567726
7	0xbd802c04	-0.06258395
8	0xbdfb40ce	-0.1226822
9	0x3d99fc64	0.07518843
10	0x3d188732	0.037238307
11	0xbd29f968	-0.041497618
12	0xbdad64b7	-0.084664755
13	0xbde6b2ea	-0.11264594
14	0xbc95fbbc	-0.018308513
15	0xbd28b35a	-0.041186668
16	0xbe63e2a1	-0.22254421
17	0xbe401aa4	-0.18760163
18	0x3e19f792	0.15035847
19	0x3d4132bc	0.047167525
20	0x3db4097b	0.08790871
21	0xbc4f6ca2	-0.012660177
22	0x3e0c22ed	0.13685198
23	0xbb3b90de	-0.0028620283
24	0xbd9e63be	-0.07733868
25	0xbdb1d286	-0.08682732
26	0xbdf1d4ea	-0.11808188
27	0xbe0ab622	-0.1354604
28	0x3e4c5a74	0.1995638
29	0x3d4302b6	0.047610007
30	0xbb0f3d93	-0.002185677
31	0xbdb5da06	-0.08879475
32	0x3d3f466c	0.04669802
33	0x3c76b26b	0.015057187
34	0xbdadda29	-0.084888764
35	0xbe2f86fc	-0.17141336
36	0x3e43122d	0.19049902
37	0x3d89c21f	0.06726479
38	0xbcf8cafc	-0.030370228
39	0xbe1d56b6	-0.15365109
40	0x3d8d1390	0.06888497
41	0x3e0e4871	0.13894822
42	0xbe7229ac	-0.23648709
43	0xbd3005a1	-0.04297412
44	0x3e0fc03f	0.1403818
45	0xbcae6f8b	-0.021293422
46	0xbdadec7b	-0.08492371
47	0xbd471300	-0.048602104
48	0xbe6fcb9c	-0.23417515
49	0xbe1af899	-0.15133895
50	0xbe0b6775	-0.13613684
51	0x3d68da38	0.056848735
52	0xbe30b380	-0.17255974
53	0x3d8b21a4	0.06793526
54	0x3de3c435	0.11121408
55	0xbd19e989	-0.037576232
56	0xbd85f753	-0.06541314
57	0xbbe09b02	-0.006854416
58	0x3bc2f3f8	0.0059494935
59	0x3df9217a	0.12164588
60	0x3e628bb4	0.22123605
61	0x3d6f7aa2	0.05846656
62	0x3daab03e	0.08334397
63	0xbde047ec	-0.10951218
64	0x3e02f2f8	0.12787998
65	0x3dc9bf40	0.09850931
66	0x3dd9d1ed	0.10635743
67	0xbe0829c2	-0.1329718
68	0xbde5b9b1	-0.112170584
69	0x3e0bc24b	0.13648336
70	0xbdf53c2c	-0.119743675
71	0xbd0b3017	-0.03398141
72	0x3d9f4a9c	0.077779025
73	0x3e701863	0.23446803
74	0x3b9a90bb	0.0047169602
75	0xbd9f99fe	-0.077930436
76	0xbe239c1c	-0.1597752
77	0xbbfaa472	-0.007648998
78	0xbdbc919c	-0.0920746
79	0x3e4429b6	0.19156536
80	0x3cf41e21	0.029799523
81	0xbbe582f6	-0.007004137
82	0xbe65a671	-0.22426774
83	0xbe282e37	-0.1642388
84	0x3dca781e	0.09886192
85	0xbcdf627b	-0.027268639
86	0x3d5cddee	0.053922586
87	0xbd52860c	-0.05139737
88	0xbd1d2b6d	-0.038371492
89	0xbdd43230	-0.10361135
90	0xbdfeefa2	-0.1244805
91	0x3d082326	0.033236645
92	0xbe8427e2	-0.25811678
93	0xbe2a1ea8	-0.16613257
94	0xbe1cf0bf	-0.15326212
95	0x3e192b69	0.14957966
96	0xbe008304	-0.12549978
97	0xbcb9ab26	-0.022664618
98	0x3ddf6a54	0.10908952
99	0xbc0e1bcf	-0.008673622
100	0xbd200a8a	-0.03907255
101	0x3df08b54	0.11745325
102	0x3d651d4c	0.055936143
103	0x3e00548c	0.12532252
104	0xbb41a8db	-0.0029550109
105	0xbe178521	-0.14796878
106	0xbd505d2c	-0.050870106
107	0xbd44bc14	-0.048030928
108	0x3db42c45	0.08797506
109	0xbc826363	-0.015916532
110	0xbd608c85	-0.05482151
111	0xbdf48952	-0.11940254
112	0x3dbd8e2d	0.092556335
113	0xbd91508d	-0.07095442
114	0xbe2ccc81	-0.16874887
115	0xbe17f855	-0.14840825
116	0xbe5a0527	-0.21291028
117	0x3e06080c	0.13089007
118	0xbd873d62	-0.06603505
119	0xbe293755	-0.16525014
120	0xbc2c5288	-0.010517724
121	0xbc3c2602	-0.011483671
122	0x3e0c0400	0.13673401
123	0xbe309d13	-0.17247419
124	0x3d85b980	0.06529522
125	0x3bd6dd41	0.0065571372
126	0xbe044781	-0.12917902
127	0xbdeaa470	-0.11457145

dest_lstm_obs.bias_hh_l0 f4 [128]
0	0x3dad0679	0.084485
1	0xbdbfa82b	-0.09358247
2	0xbe3781da	-0.17920628
3	0xbe204157	-0.15649925
4	0x3c946413	0.018114125
5	0xbd63fd85	-0.055661697
6	0xbaa9eb2c	-0.0012963763
7	0x3cbd2ee7	0.023093654
8	0xbcaa4266	-0.020783614
9	0x3d8f2209	0.069889136
10	0x3d694735	0.056952674
11	0xbe0283a7	-0.12745534
12	0xbe0f0abb	-0.13968937
13	0xbe29e438	-0.16590965
14	0x3da97c56	0.08275668
15	0xbe05670a	-0.13027588
16	0xbe0e0499	-0.13868941
17	0x3ddd9a7c	0.10820481
18	0x3c9425a6	0.018084358
19	0x3dd4f293	0.1039783
20	0xbe2b95ab	-0.16756313
21	0xbe65088a	-0.22366539
22	0xbdfc5e2e	-0.12322651
23	0x3da79b1f	0.08183884
24	0xbde0b01b	-0.109710895
25	0x3d5b37e0	0.053520083
26	0xbdf01e71	-0.11724556
27	0x3c605004	0.013690952
28	0xbc13ab18	-0.00901296
29	0x3d4b0df0	0.04957384
30	0x3dddfbb2	0.10839023
31	0xbdcb294e	-0.099199876
32	0xbc0f54ed	-0.008748275
33	0xbe145330	-0.14484859
34	0xbda252e2	-0.07925965
35	0xbe049ea6	-0.12951145
36	0x3d6b3c58	0.057430595
37	0xbd922f14	-0.07137886
38	0x3d916591	0.070994504
39	0xbdf5def6	-0.12005417
40	0xbe8c87fd	-0.274475
41	0xbe2f2bff	-0.17106627
42	0xbe545592	-0.20735767
43	0x3d1a1b8c	0.037623927
44	0xbd21b7d1	-0.03948194
45	0xbe486b8b	-0.19572274
46	0x3d135012	0.035965033
47	0x3c34eb1d	0.0110423835
48	0x3cfb3dce	0.03066912
49	0xbe3e6ab7	-0.18595396
50	0xbdc04b6a	-0.09389384
51	0xbd47f852	-0.0488208
52	0xbe6b52a1	-0.22980739
53	0x3b462222	0.0030232747
54	0xbe2aa5c6	-0.166648
55	0xbcf2f40d	-0.029657388
56	0x3e383581	0.1798916
57	0x3daf6382	0.085639015
58	0x3ca9d8b6	0.020733219
59	0xbdedd6ae	-0.116132125
60	0xbd132abe	-0.035929434
61	0xbe1c13ea	-0.15241972
62	0xbe2d86a6	-0.16945896
63	0xbe2632d9	-0.16230334
64	0x3de57040	0.112030506
65	0x3e269b1a	0.16270104
66	0x3cebb2e7	0.02877183
67	0xbd69a9d3	-0.057046723
68	0xbeca547b	-0.39517578
69	0x3d8eacf5	0.06966583
70	0x3da4056a	0.08008845
71	0x3db10249	0.08643014
72	0x3c3b3488	0.011426099
73	0xbd4977a9	-0.049186382
74	0xbd972928	-0.07380897
75	0x3c7fa0c5	0.015602295
76	0x3cc9a8e8	0.024616674
77	0xbe1f777c	-0.15572923
78	0xbd9ac533	-0.07557144
79	0x3e408e4e	0.18804285
80	0x3e1a9acf	0.15098117
81	0xbd331b5b	-0.04372726
82	0xbde44cd4	-0.11147466
83	0xbe2d0b4e	-0.16898844
84	0xbd82f47d	-0.06394289
85	0x3dedf2ca	0.11618574
86	0xbd2841b7	-0.041078296
87	0x3e44e6e4	0.19228703
88	0x3e5cc9dc	0.21561378
89	0x3d7a0d24	0.061047688
90	0x3dcf8fa0	0.10134816
91	0x3e1ad1c4	0.15119082
92	0xbdbffc8b	-0.093743406
93	0xbd3b38cb	-0.04570846
94	0x3e013bfa	0.12620535
95	0x3e08182f	0.13290475
96	0xbd3b020f	-0.04565626
97	0xbdb755d6	-0.08951919
98	0xbdf99934	-0.12187424
99	0xbe0b5234	-0.13605577
100	0x3d4c8610	0.04993254
101	0xbe27395f	-0.16330479
102	0xbd0065cc	-0.03134708
103	0x3dd1d71a	0.102461055
104	0xbc116dbb	-0.008876259
105	0x3de9b2ee	0.11411081
106	0xbe2fbdfc	-0.17162317
107	0xbce43119	-0.027855443
108	0x3d68cafe	0.056834213
109	0x3da02b18	0.078207195
110	0xbe472c64	-0.19450527
111	0xbd18b76e	-0.037284307
112	0x3d9de25e	0.07709192
113	0xbdf0fa5e	-0.11766504
114	0x3c9dc948	0.019261017
115	0x3dd1ab21	0.102377184
116	0x3cb73476	0.022363883
117	0xbe4bfee4	-0.19921452
118	0xbe3fca29	-0.18729462
119	0xbe4d6df9	-0.20061482
120	0xbe0693b2	-0.13142279
121	0xbd4b7d85	-0.04968025
122	0x3dafdf2e	0.0858749
123	0xbdea7133	-0.11447372
124	0x3d3b3d04	0.045712486
125	0x3dfda725	0.12385396
126	0xbca6f57d	-0.02038073
127	0x3ddcbffc	0.107788056
