src/do_tp_federated_federated_round_2.pt (torch, 157077 bytes, 26 tensors)

linear_enc.weight f4 [64, 2]
00000000: 506b f93e 64e7 f03e 0977 ca3e 8022 793d
00000010: 2cd8 0d3f c27e ca3e cbf3 d73e db1e 1fbf
00000020: 6f7e 8c3e 145f e0be e8d5 d93d 8c48 623e
00000030: b7ec debe 76bf 9c3e 5961 5e3e ce27 4fbe
00000040: 1de4 7b3d 069c 09be 7694 c9be 32f7 34be
00000050: b6a4 813e c7e7 36bc 04e3 e13e 6484 15bf
00000060: 3289 d53e 5ae3 be3d 3d66 4abe 56e6 62bf
00000070: b34d 03be 10e8 7ebe 7a4c df3e adbb bfbd
00000080: 2c67 2fbf ba79 16bf b684 12bf d8a4 0cbe
00000090: 83fa 103f 9fd2 2fbf bc8e 8d3e 8352 c5be
000000a0: 4dc2 f23e c05a 50bf 8ce5 10bf f980 2d3f
000000b0: 6183 e4be e3ea 373e 6cfa 23be 3372 94bc
000000c0: 13f7 973e 7382 d5be 4cf8 553e ee2f 683d
000000d0: 2aeb eebe 405c 0b3e b424 303f 4fd2 9d3e
000000e0: b572 5e3d 90e9 8e3e 0df3 1e3f d65b ba3c
000000f0: 8229 66be 941f 2c3f 5dd1 2ebf 3209 cebe
00000100: 5290 083f 0c14 c4be 7167 84be 0626 373f
00000110: 2ab1 ecbe 8779 67be fe92 f1be a298 393f
00000120: bdad c13e 2c14 44bf be5e c5bd 68b2 f93e
00000130: d9b7 123f 9d33 563f 5540 30bf c542 dabe
00000140: 677d 0c3f 4264 9b3e cdcf d8be 5795 60bf
00000150: e256 353f 43e7 df3d e766 72be 4e9c dfbc
00000160: de12 c3be c797 183e 105b a5be 0c9f 1c3f
00000170: 9da7 29bf ea58 d63e 0b9a 013f b0d1 123f
00000180: b13f cfbd 72a8 af3c c07c 25bf 0544 103e
00000190: 4b5f aebe 1a1a 073f 7364 15bf 9244 af3e
000001a0: 9799 3ebf 77e6 dbbe 5951 0abe 4ab4 533e
000001b0: bb08 303f 6afb bd3e 32c1 67bd 1505 de3e
000001c0: 2861 6fbe b7e8 013f 8aa7 f2bd a328 003f
000001d0: 0eb5 20bf e7ce 33bf df8e 32bf e910 513e
000001e0: d035 863e b83f 2d3e 9d25 fbbd c65d 0b3f
000001f0: 0fca 19be e0dc e9bc a149 5abe 2238 92bd
0.48714685 0.47051537 0.39543942 0.060823917 0.5540798 0.39549834 0.42178187 -0.62156457
0.2744021 -0.4382254 0.106365025 0.22097987 -0.43539974 0.30614823 0.21716823 -0.20230028
0.061496843 -0.13438424 -0.3937108 -0.17672423 0.25320977 -0.011163658 0.44118512 -0.5840514
0.41706234 0.093207076 -0.19765563 -0.88632715 -0.12822609 -0.24893212 0.43613034 -0.09361968
-0.685168 -0.5877949 -0.5723375 -0.13734758 0.5663225 -0.6868076 0.2764796 -0.38539514
0.47413865 -0.81388474 -0.5660026 0.6777492 -0.44631484 0.17960696 -0.16013497 -0.01812086
0.2968069 -0.41701087 0.20895499 0.056686334 -0.4666379 0.1360941 0.68806005 0.30824515
0.054308612 0.2791257 0.62089616 0.022748869 -0.22476771 0.67235684 -0.68288213 -0.4024139
0.53345215 -0.38296545 -0.2586017 0.71542394 -0.46228915 -0.22604953 -0.4718246 0.72498524
0.37827864 -0.7659328 -0.09637211 0.48768926 0.5731178 0.83672506 -0.6884816 -0.42629066
0.5487885 0.30349928 -0.4234604 -0.87727875 0.708357 0.109327815 -0.23672067 -0.027296212
-0.38100332 0.14901648 -0.32296038 0.61180186 -0.6627138 0.4186471 0.50625676 0.5735121
-0.1011957 0.021442626 -0.6464348 0.14088447 -0.34057078 0.527742 -0.583564 0.34232002
-0.7445311 -0.42949268 -0.13507594 0.20674244 0.6876332 0.37105876 -0.05658073 0.43363252
-0.23376906 0.5074572 -0.11848362 0.50062007 -0.6277627 -0.7023758 -0.69749254 0.20416607
0.2621293 0.16918838 -0.122630335 0.5443996 -0.15018485 -0.028547704 -0.2131715 -0.07139613

linear_enc.bias f4 [64]
00000000: bf46 463e 7507 24bf a4fb b23d 0c77 d3be
00000010: 6151 e9be 8898 2abf 75a1 953e 2ed6 b9be
00000020: 614f 9b3e c496 a23e d453 a63d 18e5 38be
00000030: 0201 b2bc 8c42 523c 7c52 bcbe 9fd0 d5be
00000040: dd0e 75bd e8e9 f1be 7c6d 903d 54e8 183e
00000050: 3b63 133f c36d 3c3e 3f56 1f3f fd55 c43e
00000060: de67 1ebf 7b08 d33e 4fe7 8ebe 2edf 453e
00000070: 390e 9fbb c741 8abe c43d 6dbd 787f 34bf
00000080: 37fc ddbe 544e 1f3f 727f a1be 32a7 d3be
00000090: cd3a 6cbe 648c cf3e caaa 01bd 1997 183f
000000a0: 80d6 14bf bc34 d5be 62cf f6be 857c a03e
000000b0: e492 1f3f 18af 213f 6118 2c3f 29cb 043e
000000c0: 8d2a 05bf 6097 a8be 7dea bbbe 2365 96bc
000000d0: 47b8 a6be 739c 1f3f d0f9 2dbf bea8 12bf
000000e0: 8f69 2a3f b9a9 0b3e 5336 a43e a3ac dfbd
000000f0: 8e25 943e 46c3 b23e 48be 453e ec86 03bf
0.19362925 -0.6407388 0.08739403 -0.41301763 -0.455699 -0.66638994 0.29224744 -0.3629622
0.30334 0.3175565 0.08121458 -0.18056142 -0.021728996 0.012833249 -0.3678168 -0.41760728
-0.059828628 -0.4724877 0.070521325 0.14932376 0.5757329 0.18401246 0.62240976 0.38346854
-0.6187724 0.41217408 -0.2791085 0.19323418 -0.0048539904 -0.2700331 -0.057920232 -0.70507
-0.43356487 0.62228894 -0.31542546 -0.41338497 -0.23069306 0.40536797 -0.031657018 0.59605557
-0.581398 -0.41641796 -0.48205096 0.31345 0.6233351 0.63157797 0.672247 0.12968124
-0.5201805 -0.3292799 -0.36702338 -0.018358773 -0.32562467 0.623481 -0.6795931 -0.5728873
0.6656732 0.13638963 0.32072696 -0.109216 0.28934902 0.34914607 0.19310868 -0.5137775

encoder_lstm.weight_ih_l0 f4 [128, 64]
00000000: d7b8 133e c527 103e 29f2 263e 2fb7 03be
00000010: b5be 7f3c 2d7c c9bd 33d6 003e ab02 c7bd
00000020: d031 193e 1f47 cf3d 64ca d8bd 95ad 213e
00000030: e482 b0bc 1438 49bd 2864 3dbe 97ab 16be
00000040: 20c5 053e 7c5a 19bd 9ee2 8cbd 6d46 cdbd
00000050: 5207 9e3d a293 163e 14ea 20be c670 b9bd
00000060: 72bd dc3d 7ecb dd3d 0028 00be ef6f 993d
00000070: b270 6e3d 90bb 3abd 69cb 2bbe 5eca f9bd
00000080: 808b 743d 1ea7 a33d 66e2 3cbe 051b 1ebd
00000090: cf90 fdbd d729 07be 4055 d0bd c4fb c4bd
000000a0: 41cc 013e 7833 3fbb 8f79 ef3d 04a7 3a3e
000000b0: 6421 15be 54ac d1bd 9650 153e 2aae 0a3e
000000c0: c07f 41be 5448 103d 3001 d2bd c717 91bd
000000d0: f6d7 3c3d 5270 043e f254 a1bd 9fb9 e8bd
000000e0: 3658 033d c505 c4bd 4700 ccbd 9228 8dbd
000000f0: baee 803d 15f9 c5bc 1b5a e63c 47cd 263c
00000100: 89c4 cb3d d851 94be e3df a43d 736a 2a3d
00000110: 7ac5 033c b67c 35be 084e 763e 490b 49be
00000120: 45d5 503e 0906 983e 2a59 973d 8b6e eebd
00000130: 7b36 c9bd ae49 1b3e 8668 2dbe 0e22 56be
00000140: 3464 10bd 96ed a4be 3ccf 403d 32ac a63e
00000150: fddc 223d c1ea 403d 66f7 b83d b29e 913e
00000160: c474 29be 6564 e3bc 24b0 91be 9c09 a63d
00000170: 7744 57be b6ce 703c f027 b7bd f76d cd3c
00000180: 96a1 21be d86f 153e e321 99be b144 fcbd
00000190: 87c3 ab3d e282 853d ad0c d7bd cc1d 803e
000001a0: 40b9 c037 c0e0 d7bd d86d 133d 0c28 7d3e
000001b0: 3ab0 4c3e 5ea9 8c3e dacc 833e 5214 903d
000001c0: 7e74 7bbe f427 36bc 5449 7bbd f0aa 51be
000001d0: ec12 5abe 30ac 833e e650 13be 6bdb 93bc
000001e0: a3ed 04bd dfc9 f93d eeb6 d13d 8b89 85be
000001f0: a3dd 9c3e c1e1 99ba d0c4 f03c b392 14be
00000200: 29fd c43d dccf 6bbd f6a8 01be 7742 49bd
00000210: 9e24 acbc 0eb1 26bc 052b 9ebd b8bd 703d
00000220: c18f e63d e100 4e3d 4278 f83d 46f4 21bc
00000230: dbf1 7b3c c4d7 923d bf38 0cbe 21e5 643d
00000240: edf9 0d3d 53fc c4bd 830e ddbc 9378 b6bc
00000250: 65e2 e53d e6f5 363d 84ce 22bd cca4 6abd
00000260: 50da 303e 3006 cb3d 17c8 fc3b 8636 94bd
00000270: 0638 42be bec6 5bbd 8759 a6bd 97f2 1d3e
00000280: 7dc6 01be e7e9 d4bd 8b83 0d3e 243b 0fbc
00000290: 2e0f 273d 8702 063c ba3b 26be 20fd 1cbd
000002a0: ba47 cbbd af71 cf3d 565f ee3d 78dd 92bd
000002b0: 9cf4 79bd bcdb efbd 2907 e6bd 34f8 9bbd
000002c0: 7b4d 2b3e 85a5 85bd 29fa 96bd c0fc 143e
000002d0: 10a6 b63d fbce 22be fad9 26be fcc0 983d
000002e0: c384 be3a f74b d93d 9a9b c2bd 1ed2 15be
000002f0: a7c6 233e 945f f8bd e2c1 fcbd 9b01 213e
00000300: 3d7a 253a 5944 153e aa84 db3c 3a0d 1abe
00000310: 7360 2a3e fa5d 00bd e621 fb3c 0bc0 3dbd
00000320: 0759 eebd 9c50 82bd b12d dabd 90af b3bc
00000330: 10ed b2bc 38a6 ba38 47cf 7dbc 3f19 093e
00000340: fff5 9c3d a2f4 d83c 149b ab3d 2fde 8c3d
00000350: 5ae5 29be 0381 0b3d f808 cebd ab5b 3e3d
00000360: 6cbf fb3d 1a6b 2ebe a00b 9b3d 2225 acbd
00000370: 4e84 073e 840c e63c 6ceb d4bd 2e91 3e3d
00000380: 70de 683d 7183 06bd 834f ce3c cab6 4b3e
00000390: 1ef1 1d3e b5b4 cf3d be1e 93bd f26a b03d
000003a0: 8e1b 783d 61a4 8e3d f230 a9bd e7f8 103e
000003b0: f088 28be e421 813d b6a0 d9bd db9b ae3d
000003c0: ad7f 0b3e f418 b4bc 945a 863c 9507 243e
000003d0: f054 86bd 7c8c b6bc 26f8 2d3c b1d7 b0bd
000003e0: f753 17bd 38ee 87bd da69 f7bd 5dab 91bd
000003f0: bfd2 003e 391e c1bd 3843 233e 8a9f 163e
0.1442598 0.14077671 0.16303314 -0.12862848 0.015609433 -0.09838138 0.1258171 -0.09717306
0.14960408 0.10120987 -0.10585478 0.15788873 -0.021546789 -0.049125746 -0.18495238 -0.14713894
0.13063478 -0.03743981 -0.06879161 -0.10023198 0.0771624 0.14704755 -0.15714294 -0.09054713
0.10778321 0.10829829 -0.12515259 0.07492053 0.058212943 -0.04558903 -0.16776814 -0.121968016
0.05970335 0.079908594 -0.18445739 -0.038599987 -0.12381136 -0.13199554 -0.1017251 -0.09618333
0.12675573 -0.0029174965 0.11693107 0.18227774 -0.14563519 -0.10237947 0.14581522 0.13543001
-0.18896389 0.035225227 -0.10254133 -0.07084613 0.046104394 0.12933472 -0.0787753 -0.113635294
0.032066546 -0.09571413 -0.099609904 -0.06892504 0.062955335 -0.024166623 0.028119138 0.010180778
0.099495955 -0.28968692 0.080505155 0.041605424 0.008042688 -0.17723355 0.24053204 -0.19633211
0.20393856 0.29692104 0.073900536 -0.11642178 -0.098248444 0.15164825 -0.16934404 -0.20911428
-0.03525181 -0.32212514 0.047072634 0.3255325 0.039761532 0.04709888 0.090315625 0.28441387
-0.16548449 -0.027757833 -0.28454697 0.081073016 -0.21022211 0.014697721 -0.08943164 0.02507685
-0.15784296 0.14593446 -0.29908666 -0.12317789 0.08386903 0.065191045 -0.105004646 0.25022733
2.2974447e-05 -0.105409145 0.035993427 0.24722308 0.199891 0.27472967 0.25742227 0.07035126
-0.24556157 -0.011117924 -0.061349228 -0.20475364 -0.2129628 0.25717306 -0.14386329 -0.018048963
-0.03245319 0.12196707 0.10239969 -0.260815 0.30637845 -0.0011740254 0.029390723 -0.14509086
0.09618599 -0.057571277 -0.1266211 -0.04913565 -0.021013554 -0.010174049 -0.07723049 0.05877468
0.11257888 0.050293807 0.12132312 -0.0098848995 0.015377487 0.0717006 -0.13693522 0.055882577
0.034662176 -0.096184395 -0.026984459 -0.022274291 0.11224822 0.0446681 -0.03974773 -0.05728607
0.1727078 0.099132895 0.0077142823 -0.07236962 -0.18966684 -0.053656332 -0.08122545 0.15424572
-0.12673374 -0.10396176 0.13819711 -0.008742128 0.04078596 0.0081793135 -0.16233721 -0.038327336
-0.0992579 0.10129105 0.11639278 -0.07171148 -0.061024293 -0.11711833 -0.112318344 -0.076157
0.16728775 -0.06525711 -0.07371933 0.14549541 0.08918393 -0.1589927 -0.16294089 0.07458684
0.0014535416 0.10610192 -0.09502335 -0.14630935 0.15993749 -0.12127605 -0.12341668 0.15723269
0.00063124654 0.14576854 0.026796658 -0.15044108 0.16638355 -0.031339623 0.030655812 -0.046325725
-0.11638074 -0.06363031 -0.10653246 -0.0219343 -0.021841556 8.900132e-05 -0.015491313 0.13388537
0.076641075 0.026483838 0.08379188 0.06878316 -0.16591397 0.034058582 -0.100603044 0.04647414
0.1229237 -0.17033044 0.07570577 -0.0840552 0.13234064 0.02808214 -0.10396466 0.046525173
0.056852758 -0.032840196 0.025184399 0.19893947 0.1542401 0.10141889 -0.07183598 0.08614148
0.060573153 0.069649465 -0.08261289 0.14157449 -0.16458488 0.06305292 -0.10626356 0.08525821
0.13622923 -0.021984555 0.016400613 0.16018517 -0.06559169 -0.022283785 0.010618245 -0.0863489
-0.03694531 -0.066372335 -0.120807365 -0.07112763 0.12580393 -0.09429593 0.1594361 0.14709297

encoder_lstm.weight_hh_l0 f4 [128, 32]
00000000: ff29 e83d 2451 81bd de17 333d a6d6 ed3d
00000010: 8cf7 103d d267 e7bc 3256 0bbe e6f7 0f3e
00000020: 98f1 abbb b24b eabd 18f1 1bbc d4e5 033e
00000030: 4e61 0ebe 190b 5ebd e178 4e3c 3217 283b
00000040: d55d 4fbe 3ab0 19be 96e3 e8bd 1c9d b23c
00000050: 7c2c 93bd 45a9 0b3e fc21 a9bd 5273 3a3c
00000060: 0245 0bbe c403 aa3d bdb5 003e 7110 7f3d
00000070: 6104 c33d 3e0c 853d 5020 553d 8c71 273e
00000080: 4d9b 773e d43a a6bd b8dd 8d3e dabe 283c
00000090: c9d6 b33d e89b 623e ed92 8c3d 1c6e 20be
000000a0: e669 3d3e a6cb 143d 0102 1ebe bdee 343d
000000b0: 100e a93d 7820 733c f40d 28bd ac83 ffbd
000000c0: 70cd 33be d965 fdbd fd8b 973d de28 4bbd
000000d0: 6e1a 563e 5344 40be 259d 72bd 8c3e ae3d
000000e0: 67b2 edbd c908 2bbe 7505 51be 8ce2 bd3c
000000f0: 710c 9c3d dd11 caba 6b86 893e 4c2f 103e
00000100: b503 8b3d ec87 403e a8ef 25be 95b4 fcbd
00000110: ba36 4e3d c006 103e 2de0 1dbe 265a febd
00000120: cbd7 0cbd 7d47 fbbd ea8f fd3c 1254 923c
00000130: b951 503d c923 983e 8ef1 7d3a 6e2d 3c3d
00000140: 901e 9a3d 256f f5bd be29 5abe 8e64 31be
00000150: 4604 153e 0530 d33d 52dd 5d3d 2db6 413c
00000160: 4f7c 26be ca54 313d 6640 303d c087 8b3d
00000170: 262f 353c 5324 c5bd bb2e 19be 2a06 0abe
00000180: a5c8 293d 65a1 fabc a660 9dbd 34d4 b4bd
00000190: 3ee4 25be e2e7 28be 1c54 d4bc 1ebd 02be
000001a0: 6479 dabd a9dc 623d 4894 173d eef8 f1bd
000001b0: d349 adbc 44ee f93d d047 a23d e051 d0bd
000001c0: b4e8 2f3b 3767 82bc 7fd0 59be 9efa 85bd
000001d0: 15f9 46be 46a5 2bbe 26c2 1f3e d422 373e
000001e0: 7bc7 5fbe 3402 94bd cfe8 e23d 2743 1a3e
000001f0: 4465 49bd 9eb7 54bd da0d 273e 300f 38bd
00000200: 4614 90bd 2c7b bfbd 9859 3c3d 3713 25be
00000210: 80f4 413d fe9a d53d 4f5c 10be 4b6a 16bd
00000220: 9a85 7f3d da41 bfbd dc72 92bd 5a76 223e
00000230: 33f6 a43d 8dea 9abd d019 cc3b 1c45 3dbd
00000240: 9240 7d3b 540d 35be f8e7 c5ba a9b9 21be
00000250: 605b 35be 9871 cb3d 3b1b c7bd 9d54 053e
00000260: f639 33be 38d2 bd3d b080 92bd 2ecb f9bd
00000270: b788 4f3e 1b8f e43d fc73 023e 1e03 583d
00000280: 6178 e33d 31f3 a73c 37dd 9a3e d248 d0bd
00000290: 927b 0a3e 407b 4b3e befd c2be e7e1 1cbd
000002a0: a2a9 a93d 2dac a2be 5a5b 0dbe 36b3 7f3e
000002b0: 8eba 4c3e 1f8d bd3d abe6 ebbd ecc5 e5bc
000002c0: 1993 b1be afbc 0dbe 74f4 28be 248d 013e
000002d0: 3b64 103e 9079 93b9 1e7b 67be 8e40 de3d
000002e0: 2a8a 57be 7a7b 08be 9113 98bd 8d31 433d
000002f0: f6a0 453e 8884 d43d 5bc9 a93d 0168 003f
00000300: 3589 163e 389b 003e 48ba db3d 900c c8bd
00000310: 47d3 8abd 38d7 8e3e 09f1 f4bd a3b7 dc3d
00000320: 445e a83d 806b 3abd 110c 213e 301e 4f3e
00000330: e8e9 9a3d 63d4 a1bc c205 90be d62e 44bd
00000340: 5531 66bd 1661 593d fe80 b33c e23b 1fbd
00000350: c269 aa3d 49d3 713d 5ad8 ca3c 06fe 083c
00000360: decf 753b 52b4 0bbc 8663 a0bd c89d 18bd
00000370: 8f85 e3bd 0229 b3bd 91f5 50bd 913d 3ebe
00000380: 8caf d33c 36b0 ea3d f035 383d 5adf b53d
00000390: 1873 cebc a0b1 8ebd 2a5a 28be 971a 443e
000003a0: 733a ad3d b355 2c3d b1dd 08be ad57 4abe
000003b0: e1f1 f4bd c64f aa3d d199 97be 876d c0bc
000003c0: fb55 253d 885a 41be 375f 043e 1cbd db3b
000003d0: 1365 b13d 5ca4 9e3d 0c70 2e3d 4872 f2bd
000003e0: 5ba0 1c3e b281 2cbe 1481 843c 4c1e c93d
000003f0: 704c 493e 346e a73d ddb8 f23d 8d4c b33d
0.11336135 -0.063143045 0.043723933 0.116132066 0.03539233 -0.028247748 -0.136071 0.1405941
-0.005247306 -0.11440219 -0.00951793 0.12880641 -0.13904306 -0.054209802 0.012602062 0.002564859
-0.20250638 -0.15008631 -0.113715336 0.021803431 -0.07186219 0.1363879 -0.08258435 0.011380034
-0.13600543 0.083014995 0.12569328 0.06227154 0.095223196 0.06496476 0.05203277 0.16351908
0.24180336 -0.08116689 0.2770822 0.010299409 0.087812014 0.22129786 0.06863961 -0.15667003
0.18497428 0.036327027 -0.15430452 0.04417299 0.08254635 0.014839284 -0.04102893 -0.12476286
-0.17558837 -0.123729415 0.073997475 -0.04959952 0.2090852 -0.18776064 -0.059231896 0.085080236
-0.11606293 -0.1670257 -0.20412238 0.023179315 0.076195605 -0.0015416701 0.26860365 0.14080542
0.067878164 0.1880185 -0.16204703 -0.12339131 0.05034516 0.14065075 -0.15417548 -0.12419538
-0.034385484 -0.12269495 0.030952413 0.017862353 0.050859187 0.29714802 0.00096871785 0.045941763
0.075253606 -0.1198409 -0.21304986 -0.17323515 0.14552411 0.103118934 0.054166146 0.011823219
-0.16258357 0.04329375 0.043030165 0.06813002 0.011058604 -0.09626069 -0.14959233 -0.13478914
0.041451115 -0.030594537 -0.0768445 -0.08829537 -0.16200349 -0.16494706 -0.025919013 -0.12767455
-0.10667685 0.05538622 0.037006646 -0.11815058 -0.021153366 0.12203649 0.079238534 -0.101718664
0.0026841583 -0.015918357 -0.21270941 -0.06541942 -0.19430955 -0.16762266 0.15601406 0.1788438
-0.2185344 -0.07226983 0.11079561 0.15064679 -0.04916884 -0.051932923 0.16313878 -0.04493636
-0.07035117 -0.09349665 0.04598388 -0.16120611 0.047352314 0.10429953 -0.14097713 -0.036722463
0.06238327 -0.09338732 -0.07150814 0.1586546 0.08054771 -0.07564268 0.006228663 -0.046208486
0.0038643223 -0.17680866 -0.0015099039 -0.1579348 -0.17710638 0.09933776 -0.09721991 0.13020559
-0.17502579 0.09268612 -0.071534514 -0.121969566 0.20266996 0.11160108 0.12739557 0.052737348
0.11106945 0.020501705 0.302469 -0.10170139 0.13523701 0.19871235 -0.38084215 -0.038301375
0.08284308 -0.31771985 -0.13804379 0.24970707 0.1999304 0.09255432 -0.11518606 -0.028048478
-0.3468254 -0.13841508 -0.16499501 0.12651497 0.14100735 -0.00028128596 -0.22605559 0.108521566
-0.21048799 -0.13328353 -0.07425607 0.047654677 0.19299683 0.10376841 0.08290359 0.501587
0.14700778 0.12559211 0.1072889 -0.09768021 -0.06778579 0.27898574 -0.11960036 0.107772134
0.08221105 -0.045512676 0.15727259 0.2022636 0.07564145 -0.019754594 -0.28129393 -0.04789623
-0.05619939 0.053071104 0.021912094 -0.038875468 0.08320953 0.059039388 0.024761368 0.008361345
0.0037507932 -0.008526878 -0.078314826 -0.037259847 -0.11109459 -0.08748056 -0.05101544 -0.18578173
0.025840543 0.11459391 0.044973314 0.088804916 -0.025201365 -0.06967473 -0.16440645 0.19150768
0.08458414 0.042073917 -0.13365819 -0.19760008 -0.11960197 0.08315997 -0.2960954 -0.023489727
0.0403652 -0.18882191 0.12926947 0.006705893 0.086618565 0.07746193 0.042587325 -0.11838204
0.15295546 -0.1684635 0.01617483 0.09820232 0.19658065 0.081753165 0.11851666 0.08754835

encoder_lstm.bias_ih_l0 f4 [128]
00000000: a5c0 c13d 0244 213e f28a 28be 49de c8bc
00000010: ceab c53d da36 f13b ce5d 9fbd 66e9 d1bd
00000020: ba67 4dbc 344f 2ebe d9b5 153d a4eb 3ebc
00000030: 40ef 61bc 6cee b73e 2a61 373e f441 67bd
00000040: b6cb 243e 93fb 933d 444c 5f3e ae3f 553e
00000050: 6fb1 823d abcd e9bc fc90 293e ef68 88bd
00000060: 9aaa 3b3d 98ac 9dbd 1d47 0b3e 6d3f 2cbe
00000070: 0fe5 343e fcaf 3b3e 73a1 153e 638c acbd
00000080: 1335 a83d 3e7f d43d e037 43be eed1 b03d
00000090: 3a7a cd3c 6cf1 aebc 90f6 833d fa4d 253d
000000a0: 2f42 ecbd 7d2a 103e cd92 533c 199f 353e
000000b0: 9cbe 03be f4c7 c93d da05 abbd c4bf 4fbe
000000c0: 7013 7dbc e62f 2cbd 4351 03bd fcb7 c33c
000000d0: b562 893c 1ab7 eb3d 42bf 023d 2c4d 893c
000000e0: 8e34 fdbd cecc 183e d49b 12be 7f42 c13c
000000f0: 3ca1 9cbd 4035 ab3d a24c 663c d007 e63d
00000100: d060 c9bd 9b8f 10be eaa9 e43c 7671 943c
00000110: 84cc 2c3d cb2d 08be f03b 17be 27e8 183d
00000120: 2dbc 7c3b ae8e ebbd eb11 a0bd 3111 4abd
00000130: f6d7 813d c9d5 253e b50a 05be d428 d5bd
00000140: 81c9 0b3d c8d3 b83b aa9f 1bbe 3c67 81bd
00000150: 4f0a a9bd b4f8 c4bd 771c 0c3e 0029 a8bd
00000160: 26b0 8dbc cd59 6cbd f325 073d 6d74 083d
00000170: 6c97 693d c37f c9bc 3e2b f73d 02ba cc3d
00000180: 2b92 443d d8b6 af3e c35f f1bb dc24 0abe
00000190: dfeb 163c f2c5 693d f445 613b c0aa f53d
000001a0: 50fd 2f3e 0235 04be b608 003e ec6a ec3d
000001b0: 99a1 b3bb a55c 663e a6a1 50bd e687 833d
000001c0: 67be f0bc dc6b 0cbc dd17 913d aeb7 88bd
000001d0: 9492 6a3c 6fe1 f03a 1fc6 9dbd 3a66 04be
000001e0: 4180 6e3e a248 3e3e e25c 0b3e 3876 8bbd
000001f0: e606 b5bd da57 22bd 191f ef3d 59c5 093d
0.09460572 0.15748599 -0.16459253 -0.024520056 0.0965191 0.007361275 -0.07781564 -0.10249595
-0.012536937 -0.17022401 0.036550377 -0.011652861 -0.013789952 0.3592409 0.17908159 -0.056459382
0.16093335 0.07225718 0.21806437 0.20825073 0.06381499 -0.028540453 0.16559213 -0.066606395
0.045816995 -0.07698935 0.13601346 -0.1682107 0.17665504 0.18328851 0.14612369 -0.08425214
0.08213248 0.10375832 -0.19064283 0.08633791 0.025082696 -0.021355353 0.064435124 0.040357567
-0.11536061 0.14078708 0.012913418 0.17736472 -0.1286568 0.09852591 -0.083507255 -0.20287997
-0.015446529 -0.042037867 -0.03205992 0.023891442 0.0167707 0.11509533 0.03192068 0.016760431
-0.1236354 0.14921877 -0.14317256 0.023591278 -0.076479405 0.08359766 0.014056357 0.11231959
-0.09832919 -0.14117281 0.027913053 0.018120509 0.04218723 -0.13298719 -0.14768958 0.037330773
0.003856431 -0.11501823 -0.078159176 -0.0493328 0.063400194 0.16194834 -0.12992366 -0.10408178
0.034127716 0.0056404807 -0.15197626 -0.063185185 -0.08253919 -0.09617749 0.13682733 -0.08210945
-0.017295908 -0.05770283 0.032995176 0.033314157 0.057029173 -0.024597054 0.12068795 0.09996416
0.04799096 0.34319186 -0.007366152 -0.13490623 0.0092115095 0.05707354 0.003437397 0.119954586
0.17186475 -0.12910846 0.12503323 0.11543831 -0.0054819104 0.22496279 -0.05093541 0.06422405
-0.029387666 -0.008570638 0.0708463 -0.06675659 0.0143171735 0.0018377731 -0.07703804 -0.12929621
0.23291112 0.18582395 0.1360965 -0.06809658 -0.088392064 -0.039634563 0.11675853 0.03363547

encoder_lstm.bias_hh_l0 f4 [128]
00000000: eb98 54bd 2d77 9b3e 8766 0a3e a3f0 053d
00000010: 2972 143e 5782 9b3e 17b6 163d b5ba 8dbd
00000020: ad76 5a3d 06ad 10bd 96b4 3abc 63d4 03be
00000030: afc6 823d a1c9 523e 0667 c83d ba2a b23d
00000040: 62dd f33c ecf5 0c3e 5f34 da3c 5ac6 5dbc
00000050: 5e71 8ebd abb3 60bd d228 ee3d b0ae 183e
00000060: 8e5d e53d d54f d8bd f80c 08be e961 d23b
00000070: 43d8 cd3d 74eb a83d 0929 a0bd 3ecc 9cbb
00000080: 5dc1 e33c 8fea 07be 2d5f 883d d879 6d3d
00000090: 0e8b 3a3d 94d1 f33d e5a4 9a3d 5b74 84bc
000000a0: a6b2 93bd ef95 6d3d 7555 343d eef1 063d
000000b0: 0c40 bbbd 38d2 2ebe ff4f 903c 7e37 123d
000000c0: c625 b93d 6789 21be 7ebc 053e 0fe1 35be
000000d0: 1227 15be 729d fdbc 29e5 94bd 956f d7bc
000000e0: 01e2 10bd 23c9 243e ba66 893d 3830 94bd
000000f0: 0a2f 5b3d 42df d9bd d52b 89bd e86d 6d3d
00000100: c27d 01be 30d7 673d 0a5a ac3d 8918 62bd
00000110: 7b16 9c3d e6b0 babc 665c febd acd6 d63d
00000120: c0f7 453e a497 02be 244d 293d 6382 133e
00000130: 11d1 c03d ae59 20be 1272 da3d f318 4a3c
00000140: 3483 10be ae85 153e 6ab0 0c3e f2fd 1c3e
00000150: b532 60bd c1f0 033d c0a8 0abe c870 bb3c
00000160: 07d6 22be e5a8 e7bd 928b bdbd 0631 623b
00000170: 4ce4 a4bc 4c8c 003e 30e3 323d 1699 c8bd
00000180: 31c7 62bd 8c26 043d a9aa 7f3d f9ec 0bbe
00000190: ae4b 38bd 04db a0bd 381f dabd e19a db3b
000001a0: 0389 873e 2daa ef3c efe8 d5bd 74b3 fb3d
000001b0: 6f14 a7bd 061d 653e 15dd 023e c2a8 793d
000001c0: 5d89 8d3b 7d92 77bc dd2d 553e 3702 7bbd
000001d0: 743c 39bd b8e1 123e 278a 403e 3a2c d9bd
000001e0: a635 863d 597a 223e d104 43bd d897 45bd
000001f0: 5a36 1b3d 489e 133e 0caf 14bc 5bf5 fdbc
-0.051903646 0.3036436 0.13515674 0.032700192 0.14496674 0.3037288 0.03679475 -0.06920377
0.053335834 -0.035321258 -0.011395594 -0.12873988 0.06385552 0.20584728 0.09785275 0.08699556
0.02976865 0.13765687 0.0266363 -0.01353606 -0.06955217 -0.054858845 0.116288796 0.14910388
0.11199485 -0.10562102 -0.13286197 0.006420363 0.10051014 0.08248034 -0.07820327 -0.0047850898
0.027802164 -0.13273071 0.06658778 0.057977527 0.04554277 0.11905208 0.075509824 -0.016168764
-0.07211809 0.058004316 0.04402681 0.032945566 -0.09143075 -0.1707238 0.01761627 0.035697453
0.09040408 -0.15775071 0.13060185 -0.17761634 -0.14565685 -0.030958865 -0.07270271 -0.026298324
-0.035371784 0.16092353 0.06709047 -0.072357595 0.053511657 -0.10638286 -0.066978134 0.057966143
-0.12645629 0.056601703 0.08415611 -0.05519918 0.07621475 -0.02278943 -0.12419967 0.10490164
0.1933279 -0.12753159 0.041333333 0.14405207 0.09414876 -0.1565921 0.106662884 0.01233505
-0.1411255 0.14601776 0.13739172 0.15331247 -0.054735858 0.032212023 -0.13540936 0.022880927
-0.15901957 -0.11311511 -0.092551365 0.0034514084 -0.020128392 0.12553519 0.043673694 -0.09794824
-0.055365745 0.032263324 0.062418614 -0.13664617 -0.04499405 -0.07854274 -0.10650486 0.0067018126
0.2647172 0.02925595 -0.10444819 0.12290087 -0.08158194 0.22374353 0.12779649 0.060951956
0.0043193535 -0.015110609 0.20818277 -0.06128141 -0.04522367 0.14343917 0.18802701 -0.10604139
0.065532014 0.15866984 -0.047612015 -0.048240513 0.03789363 0.14415848 -0.009074938 -0.031000784

dest_lstm_obs.weight_ih_l0 f4 [128, 2]
00000000: deb3 e63c d629 b5bd d4be 0fbd 93f7 6ebc
00000010: f64b 9dbc f82b 3ebd 1022 8abb 5e24 df3c
00000020: 4c3b 453e 4e1f 0a3c 5c30 c6bd 6131 1e3d
00000030: 0ade d43d 7ff0 263d 9e7d b13d fc45 b9bc
00000040: 3e50 c9bb 99a1 02bd f92c b9bc cc97 633c
00000050: c3a3 2bbe d650 ce3d ecbe bebd 2730 0ebe
00000060: 77c5 03be 92fb eb3d 308f cebd 8a27 e8bd
00000070: c09b 66bd f6e8 0cbe b6cf 763d 9d39 cd3d
00000080: 60dd 6b3d 4b6e 44bc bc56 3abd d414 793d
00000090: ceb8 7d3c 3ae9 7f3d 2167 5b3b ff49 3abd
000000a0: 870f b03d 1187 67bd aef0 e3bc 88f5 2c3c
000000b0: c9f4 acbd c897 d23d babf 06be 8eb9 28bd
000000c0: 9a59 aabb bb00 a63c 1ee8 d0bd 7169 f13d
000000d0: b4e4 273d 90c4 78bd 5283 11be dca3 e73d
000000e0: 2ac4 873d 7f76 463d 563a d73d aa9c fbbc
000000f0: f174 e13d d8e2 eebd ce29 e43c 5ccc 903d
00000100: 278b efbd c8d9 25bd 0a95 5c3d 1a50 2bbd
00000110: b2c7 97bd b9e8 3abd 7a4f 27be 1d02 fcbc
00000120: f92f d3bd f6ab 223e 37dc 21bc d6a2 d5bd
00000130: 0c2d 09be f835 1a3c b64a 69bc 5d8c 853c
00000140: a447 aa3c 1802 793d 8c1f c73d a4ca 78bd
00000150: 9a68 d6bd 28d6 b0bd fa01 b9bd d8ec 273e
00000160: a757 603d 26af 273d 3699 253e 040d 34bd
00000170: 7ce9 9dbd 2071 1e3e 99e6 7fbd 4d57 083d
00000180: 2ca8 25bc 5159 44be 7073 cfbc e0de 14be
00000190: 546f 31bd cb5f e73d 9dc4 6ebd b162 b53d
000001a0: a62d a8bd 3a12 a73c 8763 473d d5ec 7e3d
000001b0: a255 31be f6e9 1fbe aabd 493d f8fc 8ebd
000001c0: e2e3 b4bd cb04 ee3c 08d2 d93d cf33 713d
000001d0: 7944 febc 3aac 34bd dfed 26be 3c92 4e3d
000001e0: bd38 92bd 6f34 25bd a13f 24be f012 27be
000001f0: aeac c33c 9249 b2bd c92f bfbc 812a 67bd
00000200: 9236 ba3d 1107 e13d 5ed3 563d b209 683d
00000210: 0281 a0bd 36c9 42bd 8ea5 50bd 11a8 f43d
00000220: 93d5 ccbd 8a3e 87bd f4ed 113e 48fd 893d
00000230: 706b e7bd ba75 ebbd 140f efbb e138 183d
00000240: 03c4 603d 4cd1 a53b 6c75 413e d439 edbd
00000250: 765c 303d 5316 2dbe 2237 3e3d a599 ce3d
00000260: 14cf 163c b160 debc bbbc eebb 7072 f1bd
00000270: 660a 39bd 5c0a ea3b fa09 513d 04ec 543c
00000280: 7d5c 243e d5f9 8fbd 4bf2 b8bd abfc c23d
00000290: 6ffa 62bd 6771 11be 6c5a 493d 961e ca3d
000002a0: 39fb 873d 16a6 8bbd 6c38 3b3d bbb7 a33c
000002b0: ea79 a8bd 8a75 e8bc 0453 bb3d 67e2 993d
000002c0: 8cba 58bd 98cf 5c3d 231b 343c f2b8 ca3c
000002d0: 9c40 bc3d bfa5 863d 83b0 e13d e5a4 c43d
000002e0: 4e72 363c 6330 b33b 88b5 aabd c20a 933d
000002f0: bcb8 63bd 33a4 19bd ceb6 933d 9b4b be3d
00000300: 16b8 ef3d fd74 bebd 925e db3d 2439 09be
00000310: ac1d 9c3c 6ef9 bfbd 53a2 983d 5db0 bfbd
00000320: d61f 243e 9d3a 073e 65fd b73c 353a 30be
00000330: c3dc a23d a788 843d d4c1 2bbe 9de6 b8bd
00000340: 0e3a 22be 85da 963d e636 eb3d 5eca 1ebe
00000350: bbe0 863d 68ab ee3d b1d4 b1bb 101d 26be
00000360: a2b8 c2bd 30e2 5cbd 6fcd 0ebe f3da b23d
00000370: 083d 2abd 16c1 df3d a19a 17be e02c babd
00000380: c0f6 42b7 9eaa 953d b4c0 00be 08f0 943d
00000390: a409 b3bb a80d 0fbd d73f 20be 5c49 b1bc
000003a0: 13eb 093e ea0c 0fbe 12d6 2abd 4de6 bebd
000003b0: 9ac1 df3d 863a 09bd 14aa 44bd 407e 033e
000003c0: 191d 9cbd f585 fa3d 03db 23bd b6f7 a3bd
000003d0: d7ca c53d 54ca e8bd bebc 93bd 13eb 3e3b
000003e0: f034 16be 1dc8 02be 805f 01be 4e0d 973c
000003f0: cd52 133d 26b9 98bc 141b bebd e49c 023e
0.02816194 -0.0884587 -0.035094097 -0.0145853935 -0.01920126 -0.04642865 -0.0042154863 0.02723902
0.19260901 0.008430315 -0.096771926 0.03862131 0.10393913 0.0407567 0.08666538 -0.022616379
-0.006143599 -0.031892393 -0.022604452 0.013891172 -0.16761689 0.10074012 -0.09313759 -0.13885556
-0.12868296 0.115225926 -0.100859046 -0.113356665 -0.05630088 -0.13760743 0.060256682 0.100207545
0.057584167 -0.0119891865 -0.045492873 0.06081088 0.015485955 0.06247828 0.0033478218 -0.045480724
0.085967116 -0.056525294 -0.027824726 0.010556586 -0.084451266 0.10282856 -0.13159075 -0.041192584
-0.0051986696 0.02026402 -0.10200523 0.117876895 0.040989593 -0.06073433 -0.14210251 0.113105506
0.06629212 0.04845285 0.105091736 -0.030714352 0.11008633 -0.11664361 0.027851965 0.070702285
-0.11696463 -0.040490896 0.053853072 -0.041824438 -0.07411136 -0.045632098 -0.16338912 -0.030762726
-0.103118844 0.1588591 -0.0098791635 -0.10431449 -0.1339609 0.009412281 -0.014239004 0.016302282
0.020786114 0.060793012 0.09722814 -0.06074013 -0.1046917 -0.08634597 -0.0903358 0.16398942
0.05477109 0.04093852 0.16171727 -0.043957725 -0.07710549 0.15472841 -0.062475774 0.03328638
-0.010110896 -0.19174697 -0.0253236 -0.14538145 -0.04331906 0.11297568 -0.058292974 0.088567145
-0.08211832 0.020394433 0.0486789 0.06223758 -0.17317823 -0.15616593 0.049253143 -0.06981844
-0.08832528 0.02905502 0.106357634 0.0588873 -0.03103851 -0.04410956 -0.16301678 0.05043243
-0.07139728 -0.040333208 -0.16039898 -0.16315818 0.023886051 -0.08705439 -0.023338215 -0.05643702
0.0909244 0.10987676 0.05244767 0.05664987 -0.07837106 -0.04755517 -0.050939135 0.119461186
-0.100016735 -0.06603725 0.14250928 0.06737763 -0.11299789 -0.11497064 -0.0072954986 0.03716362
0.05487443 0.0050603505 0.18892449 -0.115832955 0.043056928 -0.16903047 0.046439297 0.10087899
0.009204645 -0.027145715 -0.007285682 -0.11789405 -0.045175932 0.007142348 0.051034905 0.012995724
0.16050906 -0.070300736 -0.09030589 0.09520849 -0.055414613 -0.14203416 0.0491585 0.09869115
0.06639714 -0.06818788 0.045708105 0.01998507 -0.08226378 -0.02837636 0.09146693 0.07513886
-0.05291228 0.053908914 0.010992798 0.024746392 0.09192011 0.06574582 0.11019995 0.09601764
0.011135651 0.0054684146 -0.083354056 0.07179786 -0.0555961 -0.03751011 0.072126016 0.09291764
0.117050335 -0.092996575 0.10711397 -0.13400704 0.019057117 -0.09373747 0.07452836 -0.093598105
0.1602777 0.13205953 0.022459695 -0.17209704 0.07952263 0.06471377 -0.16773158 -0.09028361
-0.15842459 0.07365898 0.114850804 -0.15506884 0.06585833 0.11653787 -0.005426966 -0.16222024
-0.09507872 -0.053926647 -0.13945554 0.087331675 -0.04156211 0.109255 -0.1480508 -0.090905905
-1.1620752e-05 0.07307933 -0.1257351 0.07272345 -0.0054637957 -0.034925133 -0.15649353 -0.021641426
0.1346858 -0.1396977 -0.04170806 -0.0932127 0.109255984 -0.033503078 -0.04801376 0.1284113
-0.076227374 0.122325815 -0.040003788 -0.080062315 0.09657829 -0.11366716 -0.07213734 0.0029131814
-0.14668632 -0.1277165 -0.12634087 0.018438961 0.035967637 -0.018642973 -0.092825085 0.12755162

dest_lstm_obs.weight_hh_l0 f4 [128, 32]
00000000: 78d3 3ebd 66ef 31be ba61 213e 9647 d83d
00000010: ee84 56bd a6ee b03c 681e fb3d 70ac 25bd
00000020: 042c 83bd ec3b aebd e8f5 1f3e 5e83 aabd
00000030: cab0 bf3c 8c18 123e e483 6dbd b37e 07be
00000040: 189b aabd 1835 2abe 81fc acbc 0497 653d
00000050: b08d 8abe c0ef d7bd 0aa7 ed3d 224e c8bc
00000060: a555 0f3e 75af 0e3e 3d07 0abe 2c62 10bd
00000070: 3274 153e 0872 be3d f182 9d3d bc5e 373e
00000080: 56bf 4a3d 69ab 11be 3883 173d 91af 06be
00000090: d100 613d 7233 16be ee03 a4bd 0203 cb3d
000000a0: d3d7 1c3e e04b 273d 2685 ec3c 8d14 fe3d
000000b0: 49ee 1fbc 7c08 d13c d469 0d3e 4833 1ebe
000000c0: 1e4c bb3d 7199 333e 4ea1 f1bc cb89 77bd
000000d0: d22d 443d 5c9e dfbd 2d1f 98bd 3d5c edbd
000000e0: df41 023e 3ff4 04be c868 243e 26c2 c63d
000000f0: 6628 03bd 9aea ec3d 678a 0e3e e3f0 003e
00000100: 1227 b73d 3626 a5ba 41c1 033e c3c2 973d
00000110: ac9e e0bd 1e85 733d 3239 70bd 0292 c43d
00000120: 7320 ba3c 46a1 9f3d 1da9 473e c8eb a03d
00000130: 1558 473e d2a5 0b3e 74f0 143e 1e11 bdbb
00000140: e8e2 f0bd b33f 813d 9df1 803d 706e c73d
00000150: 3314 323e 56a9 51be 2053 e8bd e01d 2bbe
00000160: 7154 0dbe 3c04 5dbc 0ef8 113e 2972 143d
00000170: 1a70 05be 1671 b7bd 8d70 133e 9ab3 e53d
00000180: be3e cb3d ef14 6e3d 0a74 20be 924b b9bc
00000190: 8a90 4e3e af96 0f3e c62d e4bd 0b5e d83d
000001a0: 2ed8 c5bd 6be7 ffbc d28b e8bb 6341 c63c
000001b0: 5033 37bd 7d7a ef3c caf5 a83d 0fe7 e0bd
000001c0: aae6 f8bd f9f8 b03d 4445 20bd 38fe ffb9
000001d0: b0ca a0bd de4d 083e f99b 413c 4833 07be
000001e0: ddb4 cd3c b6a3 6cbd 6417 18be ae08 143e
000001f0: 8f0b 0ebb 9278 a83d 0752 153e 8d73 33be
00000200: 14ba e1bd b8b3 263e 906d 7b3d 4ca6 35be
00000210: d8c5 17be f15b ed3d fa5d c1bd 98b7 f03c
00000220: 18ca 1b3e 9a8e 04bd e8b4 9bbd 8dff 063e
00000230: 674b 91bd f9b2 1fbe ca38 57be b64b 073e
00000240: 72b4 adbd d035 623d 9822 fdbd 48db dfbc
00000250: ee1b 0b3e af85 47bc 2ac9 51be 19d5 7b3d
00000260: 2f4a 373d a486 e03c 741d 49bd ed4e 013e
00000270: 134a 9bbd ee92 3fbd 1b82 d1bd 0810 aabd
00000280: a175 113b 56f2 1abe dae0 4ebe ca3d 98bd
00000290: 4423 2d3c 92ca 06be f7b9 f0bd 3898 5d3d
000002a0: 8dd5 b4bd 1f82 a1bd ccc8 ae3d 0c68 36bd
000002b0: 119e c0bd 7cdd 7bbc 82c5 51bc 9fc0 48bd
000002c0: f6e1 b8bd beb5 82bc c39c 193e 246a 2b3e
000002d0: be4c 883d 6b85 473c b256 d8bd cb9b 383e
000002e0: cf4e 4dbe e1a2 143d 22f6 10be b278 cb3d
000002f0: f2db 3bbd ee21 1f3e 49e6 83bd bb8a e8bd
00000300: 1829 103d bc02 6c3d f2ce 17be 5cb5 2fbe
00000310: 36ac 6f3d 9a41 c53d e2c5 e83d 06af 043e
00000320: 9c05 f83d 8312 f4bd 5c8d 2b3d e195 f9bc
00000330: 204f 17be 0cc8 3ebe 2b60 1cbe 5b83 83bc
00000340: 46a1 33be c814 a4bd 8076 7a3c 4b52 a5bd
00000350: b7d4 483e 3653 34be 348e 383e 706a c53d
00000360: 5753 46bd f4b5 38bc 293e 2abe 0abd da3d
00000370: 9014 133e 28d0 35be e5a0 e63d da94 843d
00000380: cc95 a9bc a5df 17be ead1 47be 555f b6bc
00000390: 5af4 c5b9 f54e 07be 244a 633d 8479 ca3d
000003a0: 9ce4 c13d 43a2 d5bc 645f 77bd 5130 ab3d
000003b0: 9470 243d f392 47be 2dbc 81bc 5ae9 183e
000003c0: 3872 f2bd 46bc 0f3d 7383 74bc 7ff1 6dbd
000003d0: cbb4 00be 9479 c6bc 0dc1 cc3d 6f18 24bd
000003e0: 8193 2fbc 6480 f03b 3ec6 e73d c2df de3d
000003f0: 38dc 73bd d95e 95bc f3fa 563c bed3 6f3d
-0.04658839 -0.1737648 0.15759936 0.10560529 -0.052372865 0.021598171 0.12261659 -0.040447652
-0.0640488 -0.08507523 0.1562115 -0.083258376 0.02339973 0.14267176 -0.05798711 -0.13231926
-0.08330363 -0.16621816 -0.021116497 0.056052223 -0.27061224 -0.105437756 0.11604126 -0.02445132
0.13997515 0.13934119 -0.13479324 -0.035249874 0.14595106 0.092990935 0.07690991 0.17907232
0.04949888 -0.14225544 0.036990374 -0.13152911 0.05493242 -0.14668062 -0.08008562 0.09912683
0.15316705 0.040843844 0.028872084 0.124062635 -0.009761401 0.025516741 0.13809901 -0.1544925
0.091453776 0.17539002 -0.029495861 -0.060434144 0.04789526 -0.109188765 -0.07427821 -0.11589859
0.1272044 -0.12983797 0.16055596 0.097049996 -0.03202095 0.11568184 0.13919984 0.12591891
0.08942999 -0.0012599889 0.1286669 0.07410195 -0.10967764 0.059453122 -0.058648296 0.09598161
0.022720551 0.07794432 0.19498105 0.07857472 0.19467194 0.13637474 0.1454485 -0.005769863
-0.11762029 0.06310978 0.06296084 0.09737861 0.17390518 -0.20474753 -0.1134398 -0.16710615
-0.13801743 -0.013489779 0.14254782 0.036241684 -0.13031045 -0.08957116 0.14398403 0.11215897
0.099240765 0.058125433 -0.15669265 -0.022619043 0.20172325 0.14022325 -0.11141543 0.10564812
-0.09660374 -0.031238278 -0.007096746 0.0242011 -0.04472667 0.029233212 0.082500055 -0.10981571
-0.12153371 0.08641238 -0.039128557 -0.00048826798 -0.078511596 0.13310954 0.011816972 -0.13203156
0.025110656 -0.057773314 -0.14852673 0.14456436 -0.002167437 0.08226122 0.14582072 -0.17524548
-0.1102182 0.16279495 0.061383784 -0.17739218 -0.14821565 0.11589802 -0.09441753 0.02938442
0.15213811 -0.032362558 -0.076028645 0.13183422 -0.0709446 -0.15595616 -0.21017757 0.13212475
-0.08481683 0.0552271 -0.12360114 -0.027326241 0.13584873 -0.012177869 -0.20486894 0.061482523
0.04474848 0.027407952 -0.049100354 0.12627764 -0.07582488 -0.046770982 -0.10229894 -0.08303839
0.0022195356 -0.15131506 -0.20202962 -0.0743366 0.01056749 -0.13163212 -0.1175422 0.054100245
-0.08829794 -0.07886147 0.08534393 -0.04453282 -0.09405149 -0.01537263 -0.012803437 -0.049011823
-0.09027474 -0.015955802 0.15001206 0.16739708 0.066552624 0.012177805 -0.10563411 0.1802818
-0.20049594 0.036288146 -0.14156392 0.0993513 -0.045864053 0.15540287 -0.06440408 -0.11354586
0.03519544 0.057619795 -0.14825037 -0.17159027 0.058513843 0.09631653 0.11365868 0.12957391
0.12110445 -0.11917593 0.041882858 -0.030466976 -0.14776278 -0.18631 -0.1527106 -0.016053846
-0.1754199 -0.08011776 0.015287042 -0.08072337 0.19612394 -0.17609867 0.18022996 0.09639442
-0.048419323 -0.01127385 -0.16625275 0.106805876 0.14363313 -0.17755187 0.11261157 0.06473704
-0.020701312 -0.14831407 -0.1951367 -0.022262255 -0.00037756824 -0.13213713 0.055490628 0.098864585
0.09467432 -0.026078349 -0.060393706 0.08358825 0.040146425 -0.1948965 -0.0158368 0.14932767
-0.11838192 0.03509166 -0.014923918 -0.058091637 -0.12568967 -0.024227895 0.09997759 -0.040062364
-0.01071632 0.007339524 0.113171086 0.10882522 -0.05953619 -0.018233703 0.013121354 0.058551542

dest_lstm_obs.bias_ih_l0 f4 [128]
00000000: 611c 333e 0584 bdbd 86f2 2bbd 4900 e7bc
00000010: 8e0e 0a3d 3455 f8bc f7aa fbbd 5142 79bd
00000020: ee37 e6bd 7d4b 983d b746 5b3d 0648 d5bc
00000030: 3cc2 a1bd 7042 d7bd f2e6 22bc 6462 18bd
00000040: 474c 5bbe 7a8f 37be 85e3 223e c1f9 763d
00000050: a18d df3d 9ab0 eaba 8aa7 113e aca7 ac3b
00000060: b2f2 96bd a5c1 97bd a5d2 e0bd 2e3a 09be
00000070: 92ce 4a3e f72c 833d b4cb 873b 0534 afbd
00000080: df6c 543d 2264 c53c 5677 84bd 3596 21be
00000090: 79b7 3f3e 382a a23d 5d07 c1bc 31e1 18be
000000a0: 5430 d53d 663a 253e 0bdb 5ebe 329a ebbc
000000b0: fa2a 2c3e b8df e1bb d870 97bd d69a 17bd
000000c0: ed3e 5ebe af09 dbbd b0b6 01be f810 a23d
000000d0: fec9 23be cd22 a33d 3013 0a3e 6606 d1bc
000000e0: c014 67bd d899 e13c cbe6 893c 467f 0c3e
000000f0: ca55 6d3e 3ea2 ad3d 5166 be3d 17b5 d5bd
00000100: 7dc3 f73d 5a2e c93d 38d6 cd3d ea8b 07be
00000110: 12ae 09bd 2b68 0e3e 5327 bdbd 0a3f d6bc
00000120: 7c22 af3d cfc7 453e 02da 7b3c 829f 99bd
00000130: 7d1e 24be b10b 9dbb 14ff bdbd 2435 483e
00000140: 040a 2d3c 2c91 8ebc 54b3 49be a0be 27be
00000150: 05c1 c43d 20a1 82bc 3c5f 793d 9433 5abd
00000160: 8869 36bd 20c3 cbbd 9565 03be 0967 6e3c
00000170: c3db 80be b378 21be 1d65 1cbe f54f 083e
00000180: b3a7 febd 6624 a1bc ea43 003e fe8f 2ebb
00000190: 9b94 29bd 7b49 fa3d d78f 5d3d e4e0 013e
000001a0: afa9 3d3b e43a 10be 3dce 00bd 0a90 33bd
000001b0: 139e bf3d 6ebf 48bc 0749 29bd ecd0 edbd
000001c0: 3552 cd3d e1f4 9abd c544 28be 2ea1 11be
000001d0: 28da 4ebe b8aa 103e aeca 7fbd 5c65 1fbe
000001e0: b372 86bb 72b1 22bb de2f 143e c204 28be
000001f0: dcae 8f3d d720 d53c 3f46 f7bd 2613 e5bd
0.17491294 -0.09253696 -0.041979335 -0.028198378 0.033705287 -0.030314066 -0.12288468 -0.06085426
-0.112411365 0.07436273 0.053534236 -0.02603532 -0.078983754 -0.10510719 -0.009942757 -0.037203208
-0.21415816 -0.17925826 0.15907104 0.060296778 0.109156854 -0.0017905415 0.14224067 0.0052690115
-0.07370509 -0.07409982 -0.10977677 -0.134011 0.19805363 0.06405061 0.0041441564 -0.08554844
0.05186164 0.024095599 -0.06468074 -0.15779956 0.18722333 0.07918209 -0.023563081 -0.14929654
0.104096085 0.16135558 -0.21763246 -0.02876005 0.1681327 -0.0068931244 -0.0739457 -0.037012897
-0.21703692 -0.106952064 -0.12667346 0.07913393 -0.15995023 0.07965622 0.13483882 -0.025515746
-0.056416273 0.027539179 0.016833683 0.13720426 0.23177257 0.08478211 0.09296859 -0.10434931
0.12097833 0.09823294 0.100506246 -0.13236967 -0.033613272 0.13906924 -0.09236016 -0.026153106
0.08551499 0.19314502 0.015371801 -0.07501127 -0.16027255 -0.0047926535 -0.09277168 0.19551522
0.01056147 -0.017403208 -0.19697315 -0.16381311 0.09607128 -0.015945971 0.06088184 -0.053271845
-0.044534236 -0.099493265 -0.12831719 0.014550933 -0.25167665 -0.157687 -0.15272947 0.13311751
-0.1243433 -0.019670676 0.12525907 -0.002663612 -0.041401487 0.122210465 0.054092254 0.12683445
0.002894025 -0.14084965 -0.031446684 -0.04383854 0.09356322 -0.012252672 -0.04132941 -0.11612114
0.10025445 -0.07566238 -0.16432483 -0.14221641 -0.20200408 0.14127624 -0.06244915 -0.1556601
-0.0041030287 -0.0024825004 0.14471385 -0.16408065 0.07015774 0.026016636 -0.12073945 -0.11185293

dest_lstm_obs.bias_hh_l0 f4 [128]
00000000: adcc b23d 6dd5 b6bd 130b 26be b254 0abe
00000010: 642f f5bc cc1c 32bd 9a45 2bbb 455a cb3c
00000020: f83d 2cbc 2471 8d3d 6303 963d 955c e5bd
00000030: 9039 09be fc2b 22be 639e ba3d d352 01be
00000040: 3e6e 05be eab0 ee3d dd84 db3c 18d6 ef3d
00000050: 9fd3 15be 29e7 59be e954 f1bd 1e42 b83d
00000060: 0e3f d9bd cdac 873d 2b1c dfbd 8d0f 783c
00000070: 3569 2cbc 9532 873d 62f2 ea3d 4c83 c4bd
00000080: 0aed 6abb d211 0bbe 1ce0 71bd c95b edbd
00000090: bcd1 5d3d fa8d 73bd 7d56 9f3d f5f3 ecbd
000000a0: 9701 75be 0c3a 18be f106 41be 1754 543d
000000b0: a433 40bc 8dac 39be 4947 403d e665 b93c
000000c0: 9bd1 433d f8f6 10be d7e9 acbd 4361 d9bc
000000d0: 2069 5ebe 3892 713c b274 12be 5727 90bc
000000e0: ee6b 413e a6d3 f53d 4781 013d a3f9 cdbd
000000f0: 8004 d0bc 7021 01be 8bab 23be 7fe9 20be
00000100: c84d d73d aa52 263e 28c4 bb3c 8732 67bd
00000110: da1b a2be 9ef8 933d 441a dc3d 8e0a c13d
00000120: bcf9 9c3c 125d b9bd 0357 81bd 06ba 973c
00000130: f495 c53c b68a 1cbe ab32 9cbd bf99 443e
00000140: a5e7 063e 91b3 5dbd 9b66 acbd b99b 2cbe
00000150: 96ab 88bd 8d91 023e 6dc0 0bbd 71fb 423e
00000160: 687a 563e a775 853d 1db4 c73d 6aaf 073e
00000170: 50cc b2bd d7a0 18bd 9dc7 013e 7479 ee3d
00000180: 4f45 36bd 2034 b1bd b87b d8bd b92a 05be
00000190: 04fc 423d 4f5a 22be 45f3 07bd cdef d43d
000001a0: 7364 46bb 8847 f83d 41da 1bbe 12d9 c1bc
000001b0: 9bae 7f3d 01ac a73d 8e5b 39be 9146 0bbd
000001c0: 66a6 ad3d b69e fabd dd06 c23c 7f59 de3d
000001d0: 2146 083d 3a5c 41be 181e 3cbe 019c 43be
000001e0: 1e02 00be 259f 26bd 0337 c03d a640 d9bd
000001f0: cd27 4f3d bec0 123e a4a4 43bc 4851 e23d
0.08730445 -0.089274265 -0.16215162 -0.13508871 -0.029929824 -0.043484494 -0.0026134015 0.024823317
-0.010512821 0.069063455 0.07324865 -0.11199299 -0.13400865 -0.15837091 0.09112241 -0.12629251
-0.13030335 0.116548374 0.026796753 0.11710757 -0.14631508 -0.21279587 -0.117837735 0.08996986
-0.1060773 0.06624756 -0.108940445 0.015140426 -0.01052313 0.06601445 0.11472012 -0.095953554
-0.0035846853 -0.13581017 -0.059051618 -0.11589772 0.054155096 -0.05946157 0.07780168 -0.115699686
-0.23926388 -0.14865893 -0.18850304 0.051838007 -0.011731062 -0.18132229 0.046942983 0.022631597
0.047807317 -0.14156711 -0.08443039 -0.026535636 -0.2171979 0.014744334 -0.14302328 -0.017596884
0.18888828 0.12003259 0.03161743 -0.1005738 -0.02539277 -0.12610412 -0.15983407 -0.15714072
0.105128825 0.16242471 0.022920683 -0.05644467 -0.31661874 0.07225154 0.10747197 0.09425841
0.019162051 -0.09050955 -0.06315424 0.01852132 0.024119355 -0.15287289 -0.07626852 0.19199274
0.13174303 -0.054126326 -0.08418008 -0.16856278 -0.066733524 0.12750836 -0.03411906 0.1904123
0.20945132 0.06516581 0.09751151 0.13250509 -0.08730376 -0.037262764 0.12673803 0.11644259
-0.04449969 -0.0865252 -0.105704725 -0.13004579 0.047603622 -0.15854762 -0.033190984 0.10397301
-0.0030272275 0.121230185 -0.15219976 -0.023663078 0.062422376 0.08187104 -0.18101332 -0.034002844
0.084790036 -0.12237303 0.023684913 0.10856914 0.033270005 -0.18882838 -0.18370855 -0.1910248
-0.12500808 -0.040679116 0.09385493 -0.10608034 0.050575066 0.14331338 -0.011941109 0.110506594

dest_lstm_fut.weight_ih_l0 f4 [128, 2]
00000000: 3725 9b3d cf82 6d3d 128c a9bd f223 7a3d
00000010: 6a24 2abe 9fad 343d ad41 34be 6c66 53bb
00000020: e227 22be bee4 023e 3a04 b73b fc8e e5bd
00000030: 5e0b 85bd 0282 f4bd 832b c5bd 86f0 d3bd
00000040: c326 06be b028 073d 6990 94bd 1c1e 293d
00000050: dc42 af3d d95a d5bd 90b8 9b3d e0f1 923d
00000060: f6c3 07be 6077 2d3c 6921 d6bd 8183 20bd
00000070: 0a2e ce3d 3231 9c3d 421c a93c 09c4 0ebe
00000080: acb0 1e3e 1776 263e 5f37 973d a58d c4bd
00000090: 12f1 cf3d 58e1 053d e52d df3d 7653 8f3d
000000a0: 4046 d8bd 0b6b 8fbd 3b38 c8bd 0d4c 4abd
000000b0: 6e22 513d 0f7a 18bd 5633 563d 506d 02be
000000c0: 8f7b 7d3a 8227 913d f440 abbc db84 d13c
000000d0: 5c34 b5bd b0a4 4a3c b462 c23d 3a33 44be
000000e0: 6ece 233e a266 a3bd 5cfd d13d da28 193d
000000f0: 610b 00be d40e edbd 7cb0 bf3c c0fb eabd
00000100: 147d 25be f214 1f3d e514 70bd 83f2 0bbe
00000110: 7282 173e 477e 00be 6e45 b43d f8d7 84bd
00000120: 6d15 fd3d db9f cf3d 2015 f2bd d431 f63c
00000130: 152c f43d bbdf 093e 4c51 3e3d 1e57 eebd
00000140: 01bc c7bc 14bf 0cbb e156 8dbd d2e8 d4bd
00000150: 3b30 4bbe 9491 50bd a45a e8bd 00df acbd
00000160: 635e 603a 9cbc eb3c c654 eabd a42a 3a3d
00000170: 09c1 f03d cdf8 06be 2f86 d73d fbd7 113e
00000180: 46c0 18be 26f5 113d a646 a43d b781 d23b
00000190: 883f 57bd 1967 28be 993a f23c af69 e03d
000001a0: 7772 13be c187 aa3b 1ec3 7ebd 490c 853d
000001b0: 8213 4abd fbe2 2ebe d9d8 583c b653 753d
000001c0: 1a57 48bd bce9 0fbe b800 a3ba 7e7a 80bd
000001d0: c5d7 aa3b 6cb7 debc 091f 2abe 309a 593d
000001e0: 8e3e 8abd dc40 c23d ac4c 783a 31ed 09be
000001f0: 5eff a13d a969 983d da62 2bbe 308e fa3d
00000200: 345a efbd 22ff 863d 3461 803d ff14 f83d
00000210: 7b27 ac3c bcea b53d 12d2 b23d 376e cebd
00000220: fbd2 c6bd 10fd 91bd cd1d 06bd adee 8c3d
00000230: f13e b9bd 1e68 9abd d730 27bd 38ae d8bd
00000240: 5a41 f5bd 2727 b93d 89d5 523d b484 cebd
00000250: 7ad0 ba3d 998c f5bd cc17 9abd e3bb 8bbc
00000260: 6fe1 63bd 60d8 fa3d dc55 a53d c524 6a3d
00000270: d342 143a 943c f43d 4297 c7bc 2c54 24bd
00000280: 4ead c7bd b10b d83b 1a04 f23c eb68 203d
00000290: 3617 6bbd e3dc a1bd 5a89 09bd c142 63bd
000002a0: b66f 853d 1f64 8dbd 0652 8abc e58c 0a3e
000002b0: 108d 4abd 925b d9bb 32f8 433d b63f 173d
000002c0: 274a 1a3d 4e19 c13d f28c a63d f3ca a13d
000002d0: 44ff edbd 2d6a 713d 032c d73c 4af6 2d3d
000002e0: 7d0a d23c 6553 86bd a775 0e3e 2053 953d
000002f0: 4ce9 c33d 5ae5 0fbd ea53 1c3e 3d06 dc3d
00000300: 85c0 9b3d 3c3e c4bd 278f a23d 572b 0fbd
00000310: b5ac 0b3e 7a83 69bc df2f 933d 7678 c53d
00000320: 4081 ccbd 33e5 0ebe 92ab 883d 23c2 06be
00000330: 07d9 dbbb 4a8b c23d e1c4 71bd 50db 643d
00000340: f662 de3c d72e 283d e1f6 e53b e653 28bb
00000350: 2e15 b43c aac0 b0bc d6a1 033c a8c5 d1bb
00000360: 0925 09bd 56d3 1fbc fe24 103e b787 11be
00000370: d200 9e3d a1f1 68bc 523a c8bb ad7f 70bd
00000380: a6a1 dd3c 977c 523d 3b96 acbd bd78 d4bd
00000390: c61d da3d 7db3 0b3e bed6 663d b41b aabd
000003a0: ce49 fdbd 600c 3ebe 78e0 013e 2cc3 093c
000003b0: 667c 0ebe cddd 0b3e 69bc f0bd dcf3 143e
000003c0: 9c27 10bd 6202 05be 9e42 093e 2656 9bbd
000003d0: 4f7e 013e 0e53 b6bd 0456 543d 0af6 263d
000003e0: a65d 74bd de13 c2bd cb47 0a3e 97ce 39bd
000003f0: d466 383d d725 debc adc5 ef3d d021 503d
0.075754575 0.057986077 -0.082786694 0.061069436 -0.16615453 0.04411089 -0.17603178 -0.0032257093
-0.15835527 0.1278257 0.0055852206 -0.11208913 -0.06496309 -0.119388595 -0.0962744 -0.103486106
-0.13100724 0.032997787 -0.072541066 0.04128848 0.08557674 -0.104177184 0.07603562 0.0717504
-0.13258347 0.010587543 -0.10455591 -0.039187912 0.10067375 0.07626571 0.020643357 -0.13941969
0.15497082 0.16255985 0.07383608 -0.09597329 0.101534024 0.032685608 0.108974256 0.06998341
-0.10560274 -0.07002839 -0.0977635 -0.049388934 0.051058225 -0.03722578 0.05229505 -0.12737012
0.0009669596 0.07087614 -0.020904996 0.025576046 -0.088478774 0.012368366 0.094914824 -0.19160166
0.15996715 -0.0797856 0.102534026 0.037392475 -0.1250434 -0.11575094 0.023399584 -0.11473799
-0.16160995 0.038838334 -0.058613677 -0.1366673 0.14795855 -0.12548171 0.08802305 -0.06486505
0.12357602 0.10137912 -0.118204355 0.030053057 0.119224705 0.13464253 0.04646425 -0.1163771
-0.02438164 -0.0021476196 -0.069013365 -0.103959695 -0.19842617 -0.050920084 -0.11345413 -0.084409714
0.00085589866 0.02877646 -0.114419505 0.04545082 0.117555685 -0.13180847 0.1052364 0.14242546
-0.14917096 0.035634182 0.080212876 0.0064241546 -0.052550822 -0.16445579 0.029568957 0.109576575
-0.14399134 0.0052041714 -0.062197797 0.06496484 -0.04933501 -0.17078774 0.013235294 0.059894286
-0.04891119 -0.14054006 -0.0012436127 -0.062733635 0.00521371 -0.027187072 -0.16613401 0.05312556
-0.067502126 0.09485027 0.0009471874 -0.13469388 0.079100356 0.07442028 -0.16736928 0.12234151
-0.11687127 0.065916315 0.0626854 0.1211338 0.02101492 0.08882663 0.08731474 -0.100796156
-0.0970821 -0.07128346 -0.032743264 0.06881461 -0.09045208 -0.0753939 -0.04081806 -0.105801046
-0.119753554 0.09040671 0.051473174 -0.10083905 0.09121795 -0.119897075 -0.0752407 -0.017057365
-0.055634912 0.122483015 0.08073017 0.057163972 0.00056557095 0.11925617 -0.024364118 -0.040119335
-0.09749852 0.0065931906 0.029542971 0.039162558 -0.057395183 -0.07903459 -0.033578254 -0.055483583
0.06515448 -0.06903862 -0.016884815 0.1353031 -0.049450934 -0.0066332305 0.04784412 0.036925994
0.037668373 0.094286546 0.08132352 0.079000376 -0.11620954 0.058939148 0.026266104 0.042471208
0.025639767 -0.06558875 0.13912068 0.072912455 0.09565982 -0.035130836 0.15266386 0.10743377
0.076050796 -0.09582183 0.079374604 -0.03495344 0.13640101 -0.014252538 0.07186865 0.09642117
-0.0998559 -0.1395462 0.066733494 -0.13159995 -0.0067092213 0.094992235 -0.05902565 0.055873215
0.027146798 0.041060295 0.0070179556 -0.0025684773 0.021982756 -0.021576244 0.00803419 -0.0064017363
-0.033482585 -0.009754976 0.14076611 -0.14211927 0.07715 -0.014217765 -0.006110468 -0.05871551
0.027054619 0.05138835 -0.08427092 -0.103745915 0.1065021 0.13642688 0.056357138 -0.08306065
-0.12367593 -0.18559408 0.12683284 0.008408349 -0.13914642 0.13658829 -0.117546864 0.1454615
-0.035194024 -0.1298919 0.13404319 -0.07584791 0.12645839 -0.0890256 0.051839843 0.040761985
-0.059659623 -0.094764456 0.1350395 -0.045363035 0.04501994 -0.027117653 0.117076255 0.050813496
