src/do_tp_federated_federated_round_3.pt (torch, 157077 bytes, 26 tensors)

linear_enc.weight f4 [64, 2]
0	0x3efc0554	0.49222815
1	0x3efe5ab8	0.49678588
2	0x3ed335e3	0.4125205
3	0x3d75d1c8	0.060014516
4	0x3f1133fa	0.56719935
5	0x3ece55c8	0.4029982
6	0x3ed4b3be	0.41543382
7	0xbf21d63d	-0.63217527
8	0x3e8a831c	0.27053154
9	0xbef56f96	-0.47936696
10	0x3db05e55	0.086117424
11	0x3e7dbfc7	0.24780189
12	0xbee5fb9c	-0.44918525
13	0x3eafcbb5	0.34335104
14	0x3e649d40	0.22325611
15	0xbe79eda2	-0.24407056
16	0x3d931422	0.071815744
17	0xbe19968d	-0.14998837
18	0xbed15a5c	-0.4088925
19	0xbe372ca9	-0.1788813
20	0x3e8de262	0.2771178
21	0x3c008047	0.007843084
22	0x3ee6fd76	0.4511525
23	0xbf1b5059	-0.60669476
24	0x3edc2824	0.42999375
25	0x3dec69d8	0.115436256
26	0xbe5a9269	-0.21344914
27	0xbf6ddcb1	-0.92914873
28	0xbe002b6a	-0.12516561
29	0xbe80afb6	-0.25134057
30	0x3ee2efac	0.4432348
31	0xbd9b651e	-0.07587646
32	0xbf318f45	-0.69359237
33	0xbf1f7ecb	-0.62302846
34	0xbf15b67f	-0.5848159
35	0xbe1443e1	-0.14479019
36	0x3f15704f	0.58374494
37	0xbf387aec	-0.72062564
38	0x3e966bfd	0.29379264
39	0xbec91846	-0.39276332
40	0x3ef969ca	0.48713523
41	0xbf5a8fb0	-0.853755
42	0xbf147dea	-0.5800463
43	0x3f36e180	0.71437836
44	0xbeeb0f8a	-0.45910293
45	0x3e4aafca	0.1979362
46	0xbe21f996	-0.15817866
47	0xbd4ac082	-0.049499996
48	0x3ea28dfa	0.31748945
49	0xbee12bbf	-0.43978688
50	0x3e5cb024	0.21551567
51	0x3d955f35	0.0729355
52	0xbef7a92c	-0.48371255
53	0x3e132c60	0.14372396
54	0x3f355088	0.70826006
55	0x3ea63af0	0.3246684
56	0x3d8b23b2	0.06793918
57	0x3ea13c3a	0.31491262
58	0x3f230c8d	0.63691026
59	0x3d1210ea	0.03566066
60	0xbe6ee918	-0.23331106
61	0x3f354a25	0.7081626
62	0xbf32b8cf	-0.69813246
63	0xbed47198	-0.41492915
64	0x3f02ebe4	0.5114119
65	0xbebab218	-0.36464
66	0xbe842a6a	-0.2581361
67	0x3f471e4a	0.7778059
68	0xbef6185f	-0.4806547
69	0xbe71fb76	-0.23631081
70	0xbef4cc8f	-0.47812316
71	0x3f44bd09	0.76850945
72	0x3ec8222f	0.3908858
73	0xbf4d2a87	-0.80143017
74	0xbda2d706	-0.07951169
75	0x3f01b679	0.50669056
76	0x3f16ab15	0.588548
77	0x3f5de552	0.8667804
78	0xbf340a1e	-0.7032794
79	0xbeda8679	-0.4268072
80	0x3f10dbad	0.565852
81	0x3e910a3e	0.28328127
82	0xbedbf298	-0.42958522
83	0xbf6d5ea9	-0.92722565
84	0x3f399516	0.7249311
85	0x3dfaa0bc	0.12237689
86	0xbe599090	-0.21246552
87	0xbd488e55	-0.048963863
88	0xbec5bd7a	-0.38621122
89	0x3e024d38	0.12724769
90	0xbe9e8240	-0.30958748
91	0x3f1fbea8	0.62400293
92	0xbf2da8e7	-0.6783585
93	0x3edb5f9d	0.42846385
94	0x3f050091	0.5195399
95	0x3f1819f4	0.594146
96	0xbdf26aa4	-0.11836746
97	0x3cdedbe4	0.027204461
98	0xbf29745b	-0.6619317
99	0x3e058016	0.13037142
100	0xbeb933a8	-0.36172223
101	0x3f0caa63	0.5494749
102	0xbf18a66f	-0.5962896
103	0x3eb81ff4	0.35961878
104	0xbf440743	-0.7657358
105	0xbee0d4c7	-0.43912336
106	0xbe0cd6e9	-0.13753857
107	0x3e72e660	0.23720694
108	0x3f321926	0.69569623
109	0x3ecd6458	0.4011562
110	0xbd4ef702	-0.050528534
111	0x3ecf83fd	0.40530387
112	0xbe70eb78	-0.23527324
113	0x3f03ce7d	0.5148695
114	0xbe03cd8e	-0.12871382
115	0x3f0af39f	0.54277986
116	0xbf2638bd	-0.64930326
117	0xbf361a06	-0.7113346
118	0xbf379c8b	-0.7172324
119	0x3e54ebaa	0.20793024
120	0x3e8f68f4	0.2800976
121	0x3e28ac38	0.16471946
122	0xbe0365dc	-0.12831825
123	0x3f126231	0.5718108
124	0xbe274836	-0.1633614
125	0x3a482e1e	0.00076362665
126	0xbe6e87c0	-0.23293972
127	0xbda2060d	-0.0791131

linear_enc.bias f4 [64]
0	0x3e45ee16	0.19329104
1	0xbf23837e	-0.63872516
2	0x3db4ab63	0.08821752
3	0xbed0fa21	-0.40815833
4	0xbee45c9c	-0.44601905
5	0xbf2a1e67	-0.6645264
6	0x3e940518	0.28910136
7	0xbeb77450	-0.35830927
8	0x3e98a228	0.29811215
9	0x3ea17fba	0.3154276
10	0x3da6967b	0.081341706
11	0xbe33c2d8	-0.17554796
12	0xbca96e09	-0.020682352
13	0x3c42797a	0.011869783
14	0xbeb86e2d	-0.36021557
15	0xbed53424	-0.41641343
16	0xbd788984	-0.06067802
17	0xbef23bf4	-0.47311366
18	0x3d903e04	0.070430785
19	0x3e1903b7	0.14942823
20	0x3f1310eb	0.5744769
21	0x3e39c068	0.18139803
22	0x3f1ed842	0.62048733
23	0x3ec337a6	0.38128394
24	0xbf1e0e62	-0.61740696
25	0x3ed17354	0.409083
26	0xbe8f3f41	-0.27977946
27	0x3e450adc	0.19242424
28	0xbba35785	-0.0049847984
29	0xbe895036	-0.2681901
30	0xbd6bc4d4	-0.057560757
31	0xbf342ada	-0.70377886
32	0xbedaec5e	-0.4275846
33	0x3f1def67	0.61693424
34	0xbea144e4	-0.31497872
35	0xbed2cfee	-0.41174263
36	0xbe6aa4c1	-0.22914411
37	0x3ece2570	0.40262938
38	0xbcfdc498	-0.030977532
39	0x3f17e190	0.59328556
40	0xbf14088e	-0.57825553
41	0xbed3b27c	-0.4134711
42	0xbef52528	-0.4787991
43	0x3e9ce9ea	0.30647212
44	0x3f1eb204	0.6199038
45	0x3f1edd1a	0.62056124
46	0x3f2b93e1	0.6702252
47	0x3e045182	0.12921718
48	0xbf0502cc	-0.5195739
49	0xbea8801a	-0.32910234
50	0xbebb8a42	-0.3662892
51	0xbc9f0b74	-0.019414641
52	0xbea68636	-0.3252427
53	0x3f1e2f2e	0.6179074
54	0xbf2d707f	-0.6774978
55	0xbf1160a6	-0.567881
56	0x3f2a31c3	0.6648218
57	0x3e0a93f8	0.13533008
58	0x3ea3a5c8	0.3196242
59	0xbde07c12	-0.109611645
60	0x3e920327	0.2851803
61	0x3eb22848	0.34796357
62	0x3e44358e	0.19161054
63	0xbf03bf60	-0.5146389

encoder_lstm.weight_ih_l0 f4 [128, 64]
0	0x3e1a761c	0.15084118
1	0x3e08b2f5	0.13349517
2	0x3e2cb379	0.16865338
3	0xbe0cdfbf	-0.13757227
4	0x3bf33ec5	0.007423254
5	0xbdd6adc5	-0.10482363
6	0x3e0a5c23	0.1351171
7	0xbdd71cd4	-0.105035454
8	0x3e1f4b67	0.15556107
9	0x3ddf6fb4	0.109099776
10	0xbdceede3	-0.10103967
11	0x3e175bf9	0.14781179
12	0xbc942620	-0.018084586
13	0xbd5e2936	-0.05423852
14	0xbe442adb	-0.19156973
15	0xbe1f58bf	-0.15561198
16	0x3e0041ab	0.1252505
17	0xbd31b426	-0.043384694
18	0xbd87068c	-0.065930456
19	0xbdc4397b	-0.09581276
20	0x3da8f8a0	0.082505465
21	0x3e1f555a	0.15559903
22	0xbe190df2	-0.14946726
23	0xbdab1c4f	-0.08355009
24	0x3dccec72	0.10006036
25	0x3deacabd	0.114644505
26	0xbe05a40c	-0.1305086
27	0x3da52067	0.08062821
28	0x3d807ef4	0.062742144
29	0xbd5ad5cd	-0.053426553
30	0xbe2dfb36	-0.1699036
31	0xbe034b26	-0.12821636
32	0x3d51da9f	0.051233884
33	0x3db3d9b4	0.08781758
34	0xbe42ec14	-0.19035369
35	0xbd331981	-0.043725494
36	0xbe093efe	-0.13402936
37	0xbdff04e0	-0.12452102
38	0xbdc733d8	-0.09726685
39	0xbdb5950a	-0.088663176
40	0x3df4becd	0.11950455
41	0xbc20c7a0	-0.009813219
42	0x3ddf1642	0.10892917
43	0x3e41aa2c	0.18912572
44	0xbe0da638	-0.13832939
45	0xbdc21065	-0.09475783
46	0x3e1e105c	0.15435928
47	0x3e1127fc	0.14175409
48	0xbe480c52	-0.1953595
49	0x3cf4f18c	0.029900335
50	0xbddcb033	-0.10775795
51	0xbd981f08	-0.07427794
52	0x3d2573d9	0.040393684
53	0x3e0b986a	0.1363236
54	0xbdafc1f1	-0.08581913
55	0xbdf56077	-0.1198129
56	0x3d2242b9	0.039614413
57	0xbdaec059	-0.08532781
58	0xbdbf69a0	-0.09346318
59	0xbd963ad2	-0.07335438
60	0x3d8d7a4e	0.069080934
61	0xbc83e0d4	-0.016098417
62	0x3d13f260	0.03611982
63	0x3b79ed51	0.0038135836
64	0x3dd02a21	0.101642855
65	0xbea59575	-0.3234059
66	0x3d7da155	0.061921436
67	0x3cdb5ca0	0.026777565
68	0xbc5c47c2	-0.013444843
69	0xbe5d778c	-0.21627635
70	0x3e846714	0.25859892
71	0xbe63875c	-0.22219604
72	0x3e7b628c	0.24549311
73	0x3ea9a292	0.33131844
74	0x3de6b822	0.11265589
75	0xbde8ae02	-0.11361314
76	0xbdefeda3	-0.117152475
77	0x3e63fad0	0.22263646
78	0xbe4a680a	-0.1976625
79	0xbe738ce2	-0.23784211
80	0xbb27f6b9	-0.0025629236
81	0xbeb8d7a2	-0.36102015
82	0x3ded11c5	0.11575655
83	0x3ec9793c	0.39350307
84	0x3dc5dfed	0.09661851
85	0x3d29bc90	0.041439593
86	0x3df4a192	0.119448796
87	0x3ea34db0	0.31895208
88	0xbe43ded0	-0.19127965
89	0x3c0e8542	0.008698763
90	0xbeabcd58	-0.33555102
91	0x3dc37397	0.095435314
92	0xbe8bc23c	-0.27296627
93	0xbc425529	-0.011861124
94	0xbe31aec4	-0.17351824
95	0xbc0fb2ba	-0.008770639
96	0xbe37c20d	-0.17945118
97	0x3e29c53a	0.16579142
98	0xbea9d451	-0.33169797
99	0xbe3d42a9	-0.1848246
100	0x3db6a0bb	0.08917376
101	0x3dadfc06	0.08495335
102	0xbe1ef62d	-0.15523596
103	0x3e92e50a	0.28690368
104	0xbd12ceb3	-0.035841655
105	0xbde66ebd	-0.112515904
106	0x3ba14b9d	0.004922344
107	0x3e8f600d	0.28002968
108	0x3e6c0512	0.23048809
109	0x3e980d5c	0.29697692
110	0x3e907c2f	0.28219745
111	0x3d3f377a	0.046683766
112	0xbe90fb02	-0.28316504
113	0xbd7f88e9	-0.062386427
114	0xbdf2750a	-0.1183873
115	0xbe6d7eca	-0.23192897
116	0xbe72650c	-0.23671359
117	0x3e935b83	0.28780755
118	0xbe388a50	-0.18021512
119	0xbd7f1be4	-0.062282458
120	0xbbe47d3b	-0.0069729364
121	0x3de15712	0.110029355
122	0x3e14a402	0.14515689
123	0xbe98de58	-0.29857135
124	0x3ead9bbf	0.33907887
125	0x3c5a9c7b	0.013342972
126	0x3d787846	0.060661577
127	0xbe39e0e2	-0.18152192
128	0x3db62602	0.08893968
129	0xbd4df8a2	-0.050285943
130	0xbe092a88	-0.1339513
131	0xbd2cc51e	-0.042180173
132	0xbc5c1b77	-0.0134342825
133	0xbb494d2e	-0.0030716169
134	0xbdac9a75	-0.08427898
135	0x3d8785a4	0.06617287
136	0x3dd86b30	0.105673194
137	0x3d3018f1	0.042992536
138	0x3deb1a6e	0.114796504
139	0xbb4b500c	-0.0031023053
140	0x3c315984	0.010824565
141	0x3d93467d	0.07191179
142	0xbe04b64e	-0.12960169
143	0x3d80f377	0.06296437
144	0x3d298f9f	0.041396733
145	0xbdb66db6	-0.089076445
146	0xbd060df8	-0.032728165
147	0xbce9e36e	-0.02855083
148	0x3dd82e91	0.10555757
149	0x3d1f25e6	0.038854502
150	0xbd410f56	-0.047133766
151	0xbd844fb8	-0.06460518
152	0x3e388935	0.1802109
153	0x3dbca060	0.092102766
154	0x3c7069ed	0.014673692
155	0xbda2b84e	-0.079453096
156	0xbe3f23a0	-0.18665934
157	0xbd3e82fb	-0.04651163
158	0xbd9b7f23	-0.07592609
159	0x3e254eb6	0.16143307
160	0xbdf53c48	-0.11974388
161	0xbde43f46	-0.11144881
162	0x3e14c5ac	0.14528531
163	0xbb0898a9	-0.0020842946
164	0x3d43d64e	0.0478118
165	0x3a51ee9f	0.00080082746
166	0xbe29c3ba	-0.1657857
167	0xbd3a2714	-0.045447424
168	0xbdbc9530	-0.09208143
169	0x3dde83d1	0.10864986
170	0x3dfc55fa	0.12321086
171	0xbda1db39	-0.079031415
172	0xbd8c3dd4	-0.0684773
173	0xbdff4086	-0.12463479
174	0xbdf437a7	-0.11924677
175	0xbdab209c	-0.08355829
176	0x3e329b11	0.17441966
177	0xbd6f5e33	-0.058439445
178	0xbd89995a	-0.067187026
179	0x3e1b4d5c	0.15166229
180	0x3dc566d8	0.096387565
181	0xbe2a4cb6	-0.16630825
182	0xbe1f74cd	-0.155719
183	0x3da6adb9	0.08138604
184	0xbbc33908	-0.0059577264
185	0x3dcbe6de	0.09956144
186	0xbdd0438e	-0.10169135
187	0xbe0eb9e4	-0.13938099
188	0x3e1c623e	0.15271851
189	0xbe037afc	-0.12839884
190	0xbe05cb55	-0.13065846
191	0x3e283e91	0.16430117
192	0xbb57ba7b	-0.0032917548
193	0x3e1666a9	0.14687599
194	0x3cbbc971	0.022923203
195	0xbe188777	-0.14895426
196	0x3e2c2b22	0.16813329
197	0xbcefeb96	-0.02928714
198	0x3cf733e9	0.03017612
199	0xbd373ef4	-0.04473777
200	0xbdf33171	-0.118746646
201	0xbd846e1f	-0.064663164
202	0xbde2bb8e	-0.110709295
203	0xbcb5637e	-0.022142168
204	0xbcc18589	-0.023623245
205	0x3a8689f8	0.0010264507
206	0xbc56e5cd	-0.013116312
207	0x3e0a0b65	0.13480909
208	0x3da2953f	0.07938623
209	0x3cf27662	0.029597465
210	0x3da62e96	0.08114354
211	0x3d85c9b0	0.065326095
212	0xbe2c9bc0	-0.16856289
213	0x3d0df020	0.03465283
214	0xbdd11a73	-0.10210123
215	0x3d36776d	0.044547487
216	0x3dff4488	0.12464243
217	0xbe310b90	-0.17289567
218	0x3da20eb0	0.07912958
219	0xbdb51fcb	-0.08843955
220	0x3e068b89	0.13139166
221	0x3ceacbf2	0.028661702
222	0xbdd06d82	-0.10177137
223	0x3d4a757f	0.04942846
224	0x3d6d5a0a	0.057947196
225	0xbd0dfb9c	-0.03466378
226	0x3ce9b1e3	0.028527206
227	0x3e4e95e0	0.2017436
228	0x3e1e9682	0.15487102
229	0x3dcb4ec0	0.0992713
230	0xbd95b836	-0.07310526
231	0x3dadfad7	0.084951095
232	0x3d7bb29c	0.061449632
233	0x3d94890e	0.072527036
234	0xbda7db3b	-0.08196112
235	0x3e0f8d42	0.1401873
236	0xbe2a659a	-0.1664032
237	0x3d7a3d86	0.06109383
238	0xbddbb02a	-0.1072696
239	0x3da62074	0.08111659
240	0x3e0deee4	0.13860661
241	0xbc984b46	-0.01859058
242	0x3c9c6aaa	0.01909383
243	0x3e279a76	0.16367516
244	0xbd7ca5ee	-0.06168168
245	0xbcc60fdc	-0.024177484
246	0x3c3ed8e0	0.011648387
247	0xbdac9f71	-0.084288485
248	0xbd1efd6a	-0.038815893
249	0xbd89de58	-0.06731862
250	0xbdf887ea	-0.121352986
251	0xbd890113	-0.06689658
252	0x3dfb2f5d	0.12264893
253	0xbdc4ae8e	-0.09603606
254	0x3e22a862	0.15884545
255	0x3e192b72	0.1495798

encoder_lstm.weight_hh_l0 f4 [128, 32]
0	0x3de99718	0.11405772
1	0xbd90dbae	-0.070731506
2	0x3d3e4a3c	0.046457514
3	0x3ddb51a4	0.10708931
4	0x3cc3a0a2	0.023880307
5	0xbd1aabb2	-0.037761398
6	0xbe113ffb	-0.14184563
7	0x3e235148	0.15948975
8	0xbc1f910f	-0.0097391745
9	0xbe007824	-0.1254583
10	0xbc29a592	-0.010354416
11	0x3e0410e5	0.1289707
12	0xbe0cef9a	-0.13763276
13	0xbd1d1511	-0.03835017
14	0x3c3dfef9	0.011596435
15	0xb9d85618	-0.00041262875
16	0xbe5e97c0	-0.21737576
17	0xbe1edf21	-0.15514804
18	0xbe093b47	-0.13401519
19	0x3b91581a	0.0044355514
20	0xbdb609fe	-0.088886246
21	0x3dff1382	0.12454893
22	0xbd676068	-0.056488425
23	0x3b634380	0.0034677684
24	0xbe1254ac	-0.14290112
25	0x3d9986ce	0.07496415
26	0x3dcdb24c	0.10043773
27	0x3d643558	0.055714935
28	0x3dd2ce1c	0.102932185
29	0x3d87d10a	0.06631668
30	0x3d500446	0.050785325
31	0x3e29de60	0.16588736
32	0x3e99d635	0.3004624
33	0xbdd65f8e	-0.10467444
34	0x3ea23b6d	0.31685963
35	0xbc861be9	-0.01637073
36	0x3ca8d182	0.020607714
37	0x3e7cb48a	0.24678245
38	0x3d5c4aa1	0.05378211
39	0xbdcb965e	-0.0994079
40	0x3e72dd97	0.23717342
41	0x3c47f47e	0.012204288
42	0xbe1d1a00	-0.1534195
43	0x3d961f3c	0.07330176
44	0x3dea0833	0.11427345
45	0xbc3e983b	-0.011632974
46	0xbd2c94d9	-0.04213414
47	0xbde00cf7	-0.10939973
48	0xbe4b39ba	-0.1984624
49	0xbe0e44c5	-0.13893421
50	0x3dff8bd4	0.12477842
51	0xbc33f8ab	-0.01098458
52	0x3e412afc	0.18864053
53	0xbe668a7a	-0.22513762
54	0xbdfff205	-0.124973334
55	0x3da0ad3e	0.07845543
56	0xbdbf5a00	-0.09343338
57	0xbe4feffd	-0.20306392
58	0xbe505141	-0.20343496
59	0xbc4114a9	-0.011784711
60	0x3d7dfc6e	0.062008314
61	0x3b12557e	0.002232879
62	0x3e956193	0.29176006
63	0x3e30c1c3	0.17261414
64	0x3d759bff	0.059963223
65	0x3e44e0ff	0.19226454
66	0xbe2f878e	-0.17141554
67	0xbdee6b7c	-0.11641595
68	0x3d7e5b31	0.062098686
69	0x3e0fc91f	0.14041565
70	0xbe17ac16	-0.1481174
71	0xbdf78360	-0.12085605
72	0xbd58c9a1	-0.052926663
73	0xbdf369df	-0.11885428
74	0x3d041d4a	0.032254495
75	0x3be9b01a	0.0071315886
76	0x3d33cdaa	0.04389731
77	0x3e9f1bc2	0.31075865
78	0x3c74dd82	0.01494539
79	0x3d55079f	0.05200922
80	0x3da6f877	0.0815286
81	0xbde81537	-0.113321714
82	0xbe5bae26	-0.21453151
83	0xbe37c574	-0.17946416
84	0x3e26de20	0.16295671
85	0x3debad04	0.115076095
86	0x3d653902	0.05596257
87	0x3c3012fb	0.010746713
88	0xbe324c5a	-0.17411938
89	0x3d543257	0.05180582
90	0x3d3b4c52	0.04572708
91	0x3d98fd7a	0.07470222
92	0x3c35e65c	0.011102285
93	0xbdcbb43e	-0.09946488
94	0xbe208845	-0.15676983
95	0xbe0bca28	-0.13651335
96	0x3cd62e18	0.026145026
97	0xbcd7091d	-0.026249463
98	0xbdb3ff85	-0.08788971
99	0xbdb0c7b6	-0.08631842
100	0xbe37a5e0	-0.1793437
101	0xbe35a71f	-0.17739533
102	0xbcfa31d0	-0.03054133
103	0xbe03fdd3	-0.12889795
104	0xbdd05339	-0.101721235
105	0x3d6692bc	0.05629228
106	0x3cfb432b	0.030671677
107	0xbdfabb7c	-0.12242791
108	0xbcb9764d	-0.022639418
109	0x3e04f395	0.12983544
110	0x3da7e5a1	0.08198095
111	0xbdcc75b4	-0.099833876
112	0x3b06905f	0.002053283
113	0xbc0fce66	-0.008777237
114	0xbe6ee4c6	-0.23329458
115	0xbd4da2c4	-0.050204054
116	0xbe65a11b	-0.22424738
117	0xbe2ff9ba	-0.17185107
118	0x3e476f2b	0.19476001
119	0x3e349dbb	0.17638294
120	0xbe68924a	-0.22712055
121	0xbd8e23a7	-0.06940394
122	0x3dcb737d	0.09934137
123	0x3e1cff55	0.15331776
124	0xbd168843	-0.036751043
125	0xbd6391d9	-0.055559013
126	0x3e21cea6	0.15801486
127	0xbd4940b9	-0.04913399
128	0xbce3e955	-0.027821222
129	0xbe11a44e	-0.14222834
130	0x3dc040f9	0.093873926
131	0xbe36e1a6	-0.17859516
132	0x3c9247bc	0.017856471
133	0x3dc43c25	0.09581784
134	0xbe40274c	-0.1876499
135	0x3d428818	0.04749307
136	0x3d87dc1c	0.066337794
137	0xbdcbd828	-0.09953338
138	0xbde6ea36	-0.11275141
139	0x3e407812	0.18795803
140	0x3dcc67f8	0.09980768
141	0xbe56a99d	-0.2096314
142	0xbd43e6b2	-0.04782743
143	0xbda8914b	-0.082308374
144	0xbc9f689f	-0.019459067
145	0xbe598b1e	-0.21244475
146	0x3ce4edb9	0.027945386
147	0xbe2a9d7e	-0.16661641
148	0xbe7a105c	-0.24420303
149	0x3d66622c	0.056245968
150	0xbdb65b30	-0.089041114
151	0x3e2df463	0.16987757
152	0xbe5a2371	-0.21302582
153	0x3d8016ec	0.06254372
154	0xbe11dcbe	-0.14244363
155	0xbe14b489	-0.14521994
156	0x3e79c70a	0.24392334
157	0x3e19b2c0	0.15009594
158	0x3e1fe8b0	0.15616107
159	0x3d6932f5	0.056933362
160	0x3e24948c	0.16072291
161	0xbc485c38	-0.012229018
162	0x3eb23d14	0.34812224
163	0xbe19c2b6	-0.15015683
164	0x3d83de81	0.064389236
165	0x3e50aff6	0.20379624
166	0xbed61828	-0.41815305
167	0xbb69d755	-0.0035681326
168	0x3e240fd5	0.16021664
169	0xbebc5103	-0.36780557
170	0xbe236086	-0.1595479
171	0x3e9a63d1	0.3015428
172	0x3e811f1f	0.25219056
173	0x3dbf6eee	0.0934733
174	0xbe0d6c56	-0.13810858
175	0xbc0ffcd5	-0.008788307
176	0xbecc0960	-0.39850903
177	0xbe2fe01a	-0.17175332
178	0xbe1af9c8	-0.15134346
179	0x3e247348	0.16059601
180	0x3dd735b2	0.105082884
181	0xbd76f256	-0.060289703
182	0xbe80027e	-0.250019
183	0x3def6370	0.11688888
184	0xbe4b88d1	-0.1987641
185	0xbe45cdbc	-0.19316763
186	0xbd9fa266	-0.07794647
187	0xbae336b0	-0.0017335024
188	0x3e5a3ec0	0.21313
189	0x3dfa227a	0.12213607
190	0x3deeb4ad	0.11655555
191	0x3f0e1cbe	0.5551261
192	0x3e23767e	0.1596317
193	0x3e02b09a	0.1276268
194	0x3de947a8	0.113906205
195	0xbdbb1b5c	-0.09136078
196	0xbda9e4c3	-0.08295586
197	0x3e8f0e28	0.27940488
198	0xbde7aae5	-0.113118924
199	0x3db399a7	0.08769541
200	0x3d7ef5f1	0.062246267
201	0xbcf3705c	-0.029716663
202	0x3e1ed08e	0.15509245
203	0x3e50ca44	0.20389658
204	0x3d8fc79c	0.07020494
205	0xbd3e34e7	-0.04643717
206	0xbe924ea9	-0.28575638
207	0xbd8f4579	-0.06995673
208	0xbd23ef19	-0.040022943
209	0x3d127a1a	0.035760976
210	0x3ca4334b	0.02004399
211	0xbd20b702	-0.03923703
212	0x3d1fded6	0.039030872
213	0x3d822f60	0.06356692
214	0x3ca99555	0.02070109
215	0xbc090c3e	-0.008364735
216	0x3bc9ddfe	0.0061604967
217	0xbb9ad65a	-0.0047252597
218	0xbd89b194	-0.067233235
219	0xbce0b3f0	-0.02742955
220	0xbdc36296	-0.09540288
221	0xbdc72ce8	-0.09725362
222	0xbd938d64	-0.072047025
223	0xbe51c50c	-0.20485324
224	0x3d9387e2	0.07203652
225	0x3e175285	0.14777572
226	0x3d92da39	0.07170529
227	0x3e09ba2b	0.13449924
228	0xbd252a4c	-0.04032354
229	0xbc9f522a	-0.019448359
230	0xbe134a6c	-0.14383858
231	0x3e7dcc26	0.24784908
232	0x3dea256b	0.11432918
233	0x3da71602	0.081584945
234	0xbe154a8b	-0.14579217
235	0xbe54809d	-0.20752187
236	0xbde9597c	-0.11394021
237	0x3c32863e	0.010896264
238	0xbeb84294	-0.35988295
239	0xbd9c7794	-0.07639995
240	0x3db3d1ae	0.087802276
241	0xbe5f10c2	-0.21783736
242	0x3e25d687	0.16195117
243	0x3d526cd3	0.051373314
244	0x3d86f178	0.06589025
245	0x3d5288d9	0.05140004
246	0x3b62311c	0.0034514135
247	0xbe1617f2	-0.14657572
248	0x3e3f30da	0.18670979
249	0xbe37a6ba	-0.17934695
250	0x3d57b39d	0.052661527
251	0x3dc9ff7e	0.098631844
252	0x3e7e88fe	0.24856946
253	0x3d3de21f	0.046358224
254	0x3db329d4	0.087482125
255	0x3d439f72	0.04775948

encoder_lstm.bias_ih_l0 f4 [128]
0	0x3dcf7136	0.10129015
1	0x3e466599	0.19374694
2	0xbe2fe7da	-0.17178288
3	0xbcda0092	-0.0266116
4	0x3e061477	0.13093744
5	0x3d89ba24	0.06724957
6	0xbdb2ebdd	-0.087363936
7	0xbddbe67d	-0.107373215
8	0xba9a9f11	-0.0011796673
9	0xbe309004	-0.17242438
10	0x3d097295	0.03355654
11	0xbc1a0eb4	-0.00940292
12	0xbc504bfa	-0.012713427
13	0x3edf5769	0.43621376
14	0x3e3c2c9f	0.18376397
15	0xbd1d3792	-0.038383074
16	0x3e2894d8	0.1646303
17	0x3d9fc646	0.078014895
18	0x3e692fa4	0.2277208
19	0x3e759862	0.2398391
20	0x3e000457	0.12501656
21	0xbce39524	-0.027781077
22	0x3e490cdd	0.19633813
23	0xbd671d16	-0.056424223
24	0x3d945967	0.07243615
25	0xbd9ad02a	-0.075592354
26	0x3e127db3	0.14305763
27	0xbe300821	-0.17190601
28	0x3e511425	0.20417841
29	0x3e425c0c	0.18980426
30	0x3e19255a	0.14955655
31	0xbda5ec3e	-0.081017
32	0x3da09416	0.07840745
33	0x3dea29b3	0.11433735
34	0xbe4b787c	-0.1987018
35	0x3da9b706	0.08286862
36	0x3d2fdd99	0.04293594
37	0xbd2ae258	-0.041719764
38	0x3d63412f	0.055482086
39	0x3d18b706	0.03728392
40	0xbdf0f80c	-0.11766061
41	0x3e0a2cfc	0.13493723
42	0x3c1c5cc6	0.009543603
43	0x3e3b3835	0.1828316
44	0xbe0673fe	-0.13130185
45	0x3de83e12	0.11339964
46	0xbd9cc3cc	-0.07654533
47	0xbe488b66	-0.19584426
48	0xbc6e0a70	-0.014528856
49	0xbd29cad5	-0.0414532
50	0xbd323f82	-0.043517597
51	0x3cb634c6	0.022241961
52	0x3d33d5d0	0.04390508
53	0x3de20b41	0.11037303
54	0x3ce75a87	0.028241409
55	0x3ce8bb3d	0.028409595
56	0xbdf7bac3	-0.12096169
57	0x3e168450	0.1469891
58	0xbe15a134	-0.14612275
59	0x3c8e9ee3	0.017409747
60	0xbda7627e	-0.08173083
61	0x3dac7a19	0.08421726
62	0x3c8ea41b	0.017412236
63	0x3de3c26b	0.11121067
64	0xbdc272a6	-0.09494524
65	0xbe103396	-0.14082178
66	0x3cc2f3b4	0.023797847
67	0x3c9e6c69	0.019338803
68	0x3d315628	0.043295056
69	0xbe06eab9	-0.13175477
70	0xbe0d3c1e	-0.13792464
71	0x3d1024d2	0.035191365
72	0x3b69dc50	0.0035684295
73	0xbdebcdb9	-0.11513848
74	0xbda20e8d	-0.079129316
75	0xbd41ab72	-0.047282644
76	0x3d80f3e8	0.062965214
77	0x3e250d80	0.16118431
78	0xbe01f920	-0.1269269
79	0xbddcf612	-0.10789122
80	0x3d091ff0	0.033477724
81	0x3ba3df7a	0.0050010057
82	0xbe1a8609	-0.15090193
83	0xbd650302	-0.05591107
84	0xbdaa8d75	-0.08327762
85	0xbdc577f3	-0.09642019
86	0x3e0c1119	0.13678397
87	0xbdaa56d5	-0.08317343
88	0xbc69e280	-0.014275193
89	0xbd7a1ae5	-0.061060805
90	0x3d0a0db0	0.03370446
91	0x3d0ebb99	0.034846876
92	0x3d6bfa58	0.057611793
93	0xbcd43cec	-0.025907956
94	0x3dfaaeda	0.122403815
95	0x3dd083a8	0.101813614
96	0x3d6a2dd1	0.0571726
97	0x3ec453cd	0.38345185
98	0xbc54629f	-0.012962966
99	0xbe0c353d	-0.13692184
100	0x3d3b01ee	0.045656137
101	0x3d8d524c	0.069004625
102	0x3a8990a0	0.0010495372
103	0x3de257ec	0.11051926
104	0x3e48feab	0.19628398
105	0xbe0f0eaa	-0.13970438
106	0x3dfa16d0	0.122113824
107	0x3de75ebf	0.11297368
108	0xbc37ef2e	-0.0112264585
109	0x3e9e3b5f	0.30904672
110	0xbd3c5044	-0.045974985
111	0x3dbc6c5e	0.09200357
112	0xbd145854	-0.03621705
113	0xbbae9c38	-0.0053286813
114	0x3d983e33	0.074337386
115	0xbd2e54de	-0.042561404
116	0x3da5b498	0.08091086
117	0xbacf7345	-0.00158272
118	0xbd802ab5	-0.06258146
119	0xbdffce71	-0.124905474
120	0x3e7e6d5a	0.24846402
121	0x3e3d8495	0.18507607
122	0x3df9a7ab	0.12190183
123	0xbd9c56b8	-0.07633728
124	0xbd81fa15	-0.063465275
125	0xbd0e923c	-0.03480743
126	0x3dd8aa48	0.105793536
127	0x3d0073a4	0.031360283

encoder_lstm.bias_hh_l0 f4 [128]
0	0xbd3937cb	-0.045219224
1	0x3eae07f3	0.3399044
2	0x3e03099f	0.12796639
3	0x3cfabef6	0.030608635
4	0x3e37b0b5	0.17938502
5	0x3eba2c06	0.36361712
6	0x3cdf33e7	0.027246429
7	0xbd97b7cd	-0.07408104
8	0x3d847dd4	0.06469312
9	0xbd19b044	-0.037521616
10	0xbc6bc1b0	-0.01438944
11	0xbe018691	-0.1264899
12	0x3d84fb1a	0.06493206
13	0x3e90cdce	0.28282017
14	0x3dd1fdf2	0.10253514
15	0x3dd72fe8	0.10507184
16	0x3d091333	0.033465575
17	0x3e12db41	0.14341451
18	0x3d14a7ab	0.036292713
19	0x3c93e284	0.018052347
20	0xbc08d130	-0.008350655
21	0xbd5d976a	-0.054099478
22	0x3e169049	0.14703478
23	0x3e231be5	0.1592861
24	0x3e0df0d5	0.13861401
25	0xbdd57368	-0.104224026
26	0xbe00d661	-0.12581779
27	0x3b3295d6	0.0027249954
28	0x3e031b39	0.12803353
29	0x3db6438b	0.088996015
30	0xbd99213e	-0.074770436
31	0xbacb26d8	-0.0015499247
32	0x3cc53d54	0.024077095
33	0xbdfa2a9f	-0.122151606
34	0x3d6fbbe0	0.05852878
35	0x3d5f4406	0.05450823
36	0x3d81d5c5	0.063396014
37	0x3dca1ccd	0.098687746
38	0x3d884eef	0.066556804
39	0xbc9da23c	-0.019242398
40	0xbd986883	-0.07441809
41	0x3d559fe2	0.05215443
42	0x3d2687f1	0.040656988
43	0x3d1d5668	0.03841248
44	0xbdc0aad0	-0.0940758
45	0xbe1f972a	-0.15585008
46	0x3cc95845	0.024578223
47	0x3d2f08e7	0.0427331
48	0x3dbb06e6	0.09132175
49	0xbe20f026	-0.1571661
50	0x3df401de	0.11914419
51	0xbe379178	-0.17926586
52	0xbdf2bbeb	-0.11852249
53	0xbd12266a	-0.035681166
54	0xbd9c6e2a	-0.076381996
55	0xbc700303	-0.014649156
56	0xbd05ee64	-0.03269805
57	0x3e2280a5	0.15869386
58	0x3d835bf1	0.06414021
59	0xbda0d91d	-0.07853911
60	0x3d45ac78	0.048260182
61	0xbdd89a6a	-0.10576327
62	0xbd824c62	-0.06362225
63	0x3d68e31e	0.05685722
64	0xbdfc0d5c	-0.123072356
65	0x3d694730	0.056952655
66	0x3da3ec84	0.08004096
67	0xbd5d1b0c	-0.053980872
68	0x3d9e5b4b	0.077322565
69	0xbcb09860	-0.021557033
70	0xbdea5cbb	-0.11443468
71	0x3dd274fc	0.10276219
72	0x3e45ac43	0.19303994
73	0xbe02b728	-0.12765181
74	0x3d2553da	0.04036317
75	0x3e159bd4	0.14610225
76	0x3dbfed04	0.09371379
77	0xbe2121f6	-0.15735611
78	0x3de0953a	0.10965963
79	0x3c0baf2e	0.008525653
80	0xbe112d9a	-0.14177552
81	0x3e14de0d	0.1453783
82	0x3e0dca0a	0.13846603
83	0x3e2470cd	0.16058655
84	0xbd6338fe	-0.055474274
85	0x3d02f244	0.031969324
86	0xbe0ab41f	-0.13545273
87	0x3cb2b97d	0.021816963
88	0xbe1fbe2f	-0.15599893
89	0xbdee8974	-0.11647311
90	0xbdbc17b2	-0.09184207
91	0x3ba351dd	0.004984124
92	0xbca01e71	-0.019545766
93	0x3dfe694e	0.12422429
94	0x3d39ea5c	0.04538952
95	0xbdc4cf70	-0.09609878
96	0xbd3d2b8d	-0.04618411
97	0x3d94871b	0.07252332
98	0x3d68bdfa	0.0568218
99	0xbe0dfd5a	-0.13866177
100	0xbc0c12da	-0.008549416
101	0xbd886baf	-0.06661164
102	0xbddf0325	-0.10889272
103	0xbb3323c1	-0.0027334543
104	0x3e9409b5	0.28913656
105	0x3c98dd01	0.01866007
106	0xbddbe387	-0.10736757
107	0x3df6a746	0.120436236
108	0xbdb2d83e	-0.08732651
109	0x3e9d9b8f	0.30782744
110	0x3e07f16c	0.13275689
111	0x3db5b8d8	0.08873147
112	0xbb247f33	-0.002510023
113	0xbc4274b9	-0.011868649
114	0x3e58c104	0.2116738
115	0xbd17e7bb	-0.03708623
116	0x3caf1030	0.021370023
117	0x3e0f610c	0.14001864
118	0x3e4f57e0	0.20248365
119	0xbdd02e3e	-0.1016507
120	0x3da60fd0	0.08108485
121	0x3e21b64d	0.15792198
122	0xbd7d28ff	-0.061806675
123	0xbd6758e0	-0.056481242
124	0x3d80a7fa	0.06282039
125	0x3e188faf	0.14898561
126	0xbca42acb	-0.020039937
127	0xbd084c60	-0.033275962

dest_lstm_obs.weight_ih_l0 f4 [128, 2]
0	0x3ce3c6d6	0.027804773
1	0xbdb253e5	-0.08707408
2	0xbd1168e9	-0.03550044
3	0xbc49979e	-0.012304215
4	0xbca3e64a	-0.020007271
5	0xbd3c9615	-0.046041567
6	0xbadaed66	-0.001670283
7	0x3ca368c0	0.01994741
8	0x3e36555e	0.17806002
9	0x3b6816b6	0.0035413927
10	0xbdca85ce	-0.098888025
11	0x3d33654f	0.043797787
12	0x3dd0307a	0.10165496
13	0x3d170606	0.03687098
14	0x3db75dfb	0.08953472
15	0xbcb115d3	-0.021616852
16	0xbbda8c1e	-0.0066695353
17	0xbd06f1b1	-0.03294534
18	0xbcae9941	-0.021313312
19	0x3c9483a0	0.01812917
20	0xbe290dc3	-0.16509156
21	0x3dc8d9f9	0.098072
22	0xbdc6a33e	-0.09699105
23	0xbe0877e2	-0.13326982
24	0xbe0261be	-0.12732598
25	0x3de6e790	0.11274636
26	0xbdc98a14	-0.098407894
27	0xbde3dfe8	-0.11126691
28	0xbd6a0cac	-0.05714099
29	0xbe0d82bf	-0.13819407
30	0x3d780340	0.060549974
31	0x3dc534a8	0.09629184
32	0x3d64b830	0.055839717
33	0xbc7e6323	-0.015526566
34	0xbd2b8a63	-0.041880023
35	0x3d815f58	0.063170135
36	0x3c784f3a	0.015155608
37	0x3d4a9a70	0.04946369
38	0xbaa5854a	-0.0012628224
39	0xbd46dde1	-0.048551444
40	0x3db2a2a6	0.08722429
41	0xbd439e63	-0.04775847
42	0xbcf1dd80	-0.029524565
43	0x3c1ddfcf	0.00963588
44	0xbdb15f50	-0.086607575
45	0x3dcebbfc	0.10094449
46	0xbe05876f	-0.13039945
47	0xbd2470e8	-0.04014674
48	0xbb9f3d6f	-0.0048596184
49	0x3c9ef796	0.019405168
50	0xbdd6bd40	-0.10485315
51	0x3de49e92	0.111630574
52	0x3d277ac6	0.04088857
53	0xbd6e9074	-0.05824323
54	0xbe0f05b0	-0.13967013
55	0x3de53fa7	0.11193781
56	0x3d7cbc02	0.061702736
57	0x3d352aa9	0.044230137
58	0x3dcfbad0	0.101430535
59	0xbcabfb89	-0.020993965
60	0x3de15838	0.110031545
61	0xbdefacfc	-0.11702916
62	0x3cd3b7e2	0.025844518
63	0x3d8801bc	0.06640956
64	0xbdf205bc	-0.118175
65	0xbd102d85	-0.03519966
66	0x3d583e56	0.052793823
67	0xbd1f213f	-0.038850065
68	0xbdab9d58	-0.0837962
69	0xbd375fd8	-0.044769138
70	0xbe17dfd8	-0.14831483
71	0xbd0624fe	-0.032750122
72	0xbde13b76	-0.109976694
73	0x3e08a8de	0.13345668
74	0xbc94c1da	-0.018158842
75	0xbdd0dcd4	-0.101983696
76	0xbe0bd551	-0.13655593
77	0x3b8bd7df	0.004267677
78	0xbc50f098	-0.0127526745
79	0x3c936322	0.017991606
80	0x3c563ace	0.013075544
81	0x3d4c22a4	0.049837723
82	0x3dc3ef8e	0.09567176
83	0xbd80d1a0	-0.06289983
84	0xbdd7d67c	-0.105389565
85	0xbdb6b41c	-0.08921072
86	0xbdc19578	-0.09452337
87	0x3e273fab	0.16332881
88	0x3d1c824d	0.038210202
89	0x3cd1b6a8	0.025599793
90	0x3e21fedc	0.15819877
91	0xbd36687e	-0.044533245
92	0xbd9f2159	-0.077700324
93	0x3e18b96c	0.14914483
94	0xbd80e211	-0.06293119
95	0x3cf094de	0.02936786
96	0xbc4d3f0f	-0.012527241
97	0xbe3158b8	-0.17319
98	0xbc8a4f33	-0.016883468
99	0xbe07a988	-0.13248265
100	0xbd315261	-0.043291453
101	0x3dd33524	0.1031287
102	0xbd7a82bc	-0.061159834
103	0x3dad3236	0.084568426
104	0xbd93ba40	-0.07213259
105	0x3d0029c6	0.03128984
106	0x3d3d4620	0.046209455
107	0x3d786203	0.060640346
108	0xbe302b5b	-0.17204039
109	0xbe202c0c	-0.15641803
110	0x3d4704ef	0.04858869
111	0xbd8fb0f0	-0.0701617
112	0xbdb785ff	-0.089611046
113	0x3ce15930	0.027508348
114	0x3dc86993	0.09785762
115	0x3d4f3c62	0.050594695
116	0xbd1117f8	-0.03542325
117	0xbd36134c	-0.044451997
118	0xbe1efb47	-0.15525542
119	0x3d38620b	0.045015376
120	0xbd98f967	-0.07469445
121	0xbd2e5360	-0.04255998
122	0xbe1aab68	-0.15104449
123	0xbe27bb28	-0.16379988
124	0x3ca83c88	0.020536676
125	0xbdaf5d95	-0.08562771
126	0xbcdba22e	-0.026810732
127	0xbd7625fe	-0.060094826
128	0x3db48ad1	0.0881554
129	0x3dc74a5d	0.097309805
130	0x3d56a16e	0.052400045
131	0x3d526c1a	0.051372625
132	0xbd976bdd	-0.0739362
133	0xbd2d00f1	-0.042237226
134	0xbd46d172	-0.048539586
135	0x3dec7035	0.11544839
136	0xbdaed57c	-0.08536813
137	0xbd980909	-0.07423598
138	0x3dff366e	0.124615535
139	0x3d812c9b	0.06307336
140	0xbdda6e97	-0.106656246
141	0xbdd3bb62	-0.10338475
142	0xbbf17b63	-0.007369445
143	0x3d0f385a	0.03496585
144	0x3d55e8dd	0.05222403
145	0x3b9571f3	0.004560703
146	0x3e3e9b7e	0.18614003
147	0xbdcf605f	-0.10125803
148	0x3d2576a7	0.04039636
149	0xbe262076	-0.1622332
150	0x3d1f3b18	0.038874716
151	0x3dc20428	0.09473449
152	0x3bcc71c5	0.0062391483
153	0xbccea428	-0.02522476
154	0xbc0efec8	-0.008727737
155	0xbddb33b9	-0.10703225
156	0xbd2f047b	-0.042728882
157	0x3bcd283d	0.0062609003
158	0x3d4824b2	0.04886312
159	0x3c001766	0.007818079
160	0x3e1e7070	0.15472579
161	0xbd8130ab	-0.06308111
162	0xbdbba90a	-0.09163101
163	0x3dbf428d	0.093388654
164	0xbd54a029	-0.051910553
165	0xbe059e71	-0.13048722
166	0x3d2e3ae7	0.042536642
167	0x3db91157	0.090365104
168	0x3d85a952	0.06526436
169	0xbd8cba69	-0.068714924
170	0x3d2c58b8	0.042076796
171	0x3c9608c9	0.018314736
172	0xbda33113	-0.079683445
173	0xbceab55b	-0.02865093
174	0x3db0604a	0.08612116
175	0x3d9507f4	0.072769076
176	0xbd52da26	-0.051477574
177	0x3d59a64c	0.05313711
178	0x3c1fcc6c	0.009753328
179	0x3cbe10c5	0.023201356
180	0x3db630f4	0.08896056
181	0x3d785230	0.060625255
182	0x3db7918a	0.08963306
183	0x3daccd86	0.08437638
184	0x3c003677	0.007825485
185	0x3bab184d	0.0052214027
186	0xbda3ab98	-0.07991713
187	0x3d92ba9b	0.071644984
188	0xbd580e09	-0.05274776
189	0xbd0c3848	-0.03423336
190	0x3d860c79	0.06545348
191	0x3db7632a	0.08954461
192	0x3deed4f5	0.11661712
193	0xbdbc5ae4	-0.091970235
194	0x3dd956be	0.10612248
195	0xbe084a46	-0.13309583
196	0x3c97626e	0.018479552
197	0xbdc0b4de	-0.09409498
198	0x3da6d698	0.08146399
199	0xbda38bc9	-0.07985646
200	0x3e22895f	0.15872715
201	0x3e04df9d	0.12975927
202	0x3cb83507	0.022486223
203	0xbe2a6368	-0.16639483
204	0x3da195cb	0.07889899
205	0x3d79016c	0.06079237
206	0xbe27d0f7	-0.16388308
207	0xbdb1e670	-0.086865306
208	0xbe1f3fac	-0.15551633
209	0x3d997e51	0.07494796
210	0x3de8413a	0.11340566
211	0xbe1c163a	-0.15242854
212	0x3d74f05e	0.059799545
213	0x3de310e0	0.11087203
214	0xbb6b8337	-0.0035936364
215	0xbe20f8fc	-0.1571998
216	0xbdc7d0d4	-0.09756628
217	0xbd3fa812	-0.046791144
218	0xbe0fd8a5	-0.14047487
219	0x3da96c67	0.08272629
220	0xbd2dc848	-0.04242733
221	0x3ddea670	0.10871589
222	0xbe16376f	-0.14669584
223	0xbdba20e4	-0.09088305
224	0xbb112aff	-0.0022150872
225	0x3d8ffee6	0.0703104
226	0xbdfe2f2b	-0.1241134
227	0x3d864818	0.065567195
228	0xbbaeaf82	-0.0053309808
229	0xbd05ffb8	-0.032714576
230	0xbe1e84eb	-0.15480392
231	0xbce812a0	-0.028329194
232	0x3e0d9d18	0.13829458
233	0xbe0554e1	-0.1302066
234	0xbd26f81a	-0.04076395
235	0xbdbea133	-0.0930809
236	0x3ddfd5a8	0.109294236
237	0xbd2053d5	-0.03914245
238	0xbd4ce30b	-0.050021213
239	0x3e022c28	0.12712157
240	0xbd9b0350	-0.07568991
241	0x3df4ce52	0.11953415
242	0xbd1c013b	-0.03808711
243	0xbd9cdba4	-0.076590806
244	0x3dc49d97	0.096003704
245	0xbde76f68	-0.11300546
246	0xbd915b73	-0.07097521
247	0x3ae9ebcb	0.0017846761
248	0xbe11d62f	-0.14241861
249	0xbdfa2195	-0.122134365
250	0xbe02e4d6	-0.12782606
251	0x3c940788	0.018069997
252	0x3d1505d3	0.036382508
253	0xbc864a7e	-0.016392943
254	0xbdbc4681	-0.09193135
255	0x3dfdeff6	0.123992845

dest_lstm_obs.weight_hh_l0 f4 [128, 32]
0	0xbd3fa978	-0.046792477
1	0xbe32650e	-0.17421362
2	0x3e21ee7f	0.15813635
3	0x3df0f19c	0.11764833
4	0xbd578e76	-0.052626096
5	0x3c9ea0c0	0.019363761
6	0x3dfa43f4	0.12219992
7	0xbd257efd	-0.04040431
8	0xbd82a88e	-0.063798055
9	0xbdb1b961	-0.08677936
10	0x3e20e7fe	0.15713498
11	0xbd9bbb69	-0.07604105
12	0x3cc34793	0.02383784
13	0x3e0ec840	0.13943577
14	0xbd6dbb29	-0.058039818
15	0xbe091114	-0.13385421
16	0xbdae7bde	-0.085197195
17	0xbe295462	-0.16536096
18	0xbcb6a2fd	-0.022294516
19	0x3d77767d	0.060415734
20	0xbe94359e	-0.28947157
21	0xbdd6c5a7	-0.10486918
22	0x3ded52d4	0.11588064
23	0xbcc2be0a	-0.023772258
24	0x3e0efb08	0.13962948
25	0x3e10d6bd	0.14144416
26	0xbe0a1fde	-0.13488719
27	0xbd13fec0	-0.03613162
28	0x3e1d15f2	0.15340403
29	0x3dc69860	0.09697032
30	0x3d9d48cc	0.076799005
31	0x3e37c1d7	0.17945038
32	0x3d46ff54	0.048583344
33	0xbe137442	-0.14399818
34	0x3d219662	0.039450057
35	0xbdf90162	-0.12158467
36	0x3d63687a	0.05551956
37	0xbe17ca1a	-0.1482319
38	0xbda31f4a	-0.07964952
39	0x3dc9bd54	0.098505646
40	0x3e1cabfc	0.15299982
41	0x3d2124fc	0.03934191
42	0x3cf781a7	0.03021319
43	0x3e043dc3	0.12914185
44	0xbbcb355f	-0.0062014307
45	0x3cb3c998	0.021946713
46	0x3e0dc2f1	0.13843895
47	0xbe1f4096	-0.15551981
48	0x3db8f5af	0.090312354
49	0x3e342ade	0.17594478
50	0xbcf74deb	-0.030188521
51	0xbd648a32	-0.055795856
52	0x3d0e2ff9	0.03471372
53	0xbde0ff5e	-0.109862074
54	0xbd96f3be	-0.07370709
55	0xbdec2d60	-0.11532092
56	0x3e002361	0.12513496
57	0xbe05b126	-0.13055858
58	0x3e22e8aa	0.15909067
59	0x3dc6f4b8	0.09714645
60	0xbcdf7dc2	-0.027281646
61	0x3df2cffc	0.11856076
62	0x3e0f5d77	0.14000498
63	0x3e009350	0.12556195
64	0x3dad53c5	0.084632434
65	0xbbb13a52	-0.0054085637
66	0x3e0a7443	0.13520913
67	0x3d9e6fe4	0.07736185
68	0xbdd46327	-0.10370474
69	0x3d522ad0	0.05131036
70	0xbd5de2de	-0.054171436
71	0x3dbe26f6	0.09284775
72	0x3ca72dfa	0.020407666
73	0x3d95bc9e	0.073113665
74	0x3e4ee92c	0.20206136
75	0x3d91b0ab	0.07113775
76	0x3e4e8fd4	0.20172054
77	0x3e13c707	0.14431392
78	0x3e1b88d5	0.15188916
79	0xbc30bef3	-0.010787713
80	0xbdf93ba1	-0.121695764
81	0x3d87094f	0.06593572
82	0x3d8d6e71	0.06905831
83	0x3db1f733	0.08689728
84	0x3e351709	0.17684568
85	0xbe54ba54	-0.20774204
86	0xbde39856	-0.1111304
87	0xbe3421b8	-0.17590988
88	0xbe15759e	-0.14595649
89	0xbc71cc64	-0.014758203
90	0x3e0d3f5b	0.137937
91	0x3cebe82a	0.028797228
92	0xbe03c80c	-0.1286928
93	0xbdafd9d0	-0.08586466
94	0x3e16031e	0.14649627
95	0x3ddb5ebc	0.107114285
96	0x3de1c92c	0.110246986
97	0x3d854941	0.06508113
98	0xbe3064e4	-0.17225987
99	0xbce397f4	-0.027782418
100	0x3e627b4c	0.22117347
101	0x3e17f6de	0.14840266
102	0xbdd46984	-0.10371688
103	0x3dca4353	0.09876122
104	0xbdbc6f68	-0.092009366
105	0xbce25048	-0.027626172
106	0x3a9abdd3	0.001180584
107	0x3cfa82cc	0.030579947
108	0xbd073c48	-0.033016473
109	0x3d40ba4d	0.04705267
110	0x3dbbd833	0.09172096
111	0xbded09ce	-0.11574136
112	0xbdf6483e	-0.12025498
113	0x3dbed2ae	0.09317528
114	0xbcd6aada	-0.026204515
115	0xbbccf336	-0.006254579
116	0xbd84d8e0	-0.06486678
117	0x3e053041	0.13006689
118	0x3c7b8db9	0.0153536135
119	0xbe0e4526	-0.13893566
120	0x3bea4115	0.0071488717
121	0xbd6fcef6	-0.058546983
122	0xbe0f5515	-0.139973
123	0x3e0da78b	0.13833444
124	0xb9856845	-0.00025445424
125	0x3db1b8d4	0.08677831
126	0x3e130d2d	0.14360495
127	0xbe3ed4aa	-0.18635812
128	0xbddb0b62	-0.106955305
129	0x3e2a70aa	0.1664454
130	0x3d8ecbde	0.06972478
131	0xbe3dcd01	-0.18535234
132	0xbe1a4873	-0.150667
133	0x3df13136	0.11776964
134	0xbdbb98e0	-0.09160018
135	0x3d0b5015	0.03401192
136	0x3e18a549	0.14906801
137	0xbceb40f4	-0.028717496
138	0xbda73f62	-0.08166386
139	0x3df78998	0.12086791
140	0xbda2d47d	-0.07950685
141	0xbe20d3d4	-0.15705806
142	0xbe587e9a	-0.21142045
143	0x3e13c052	0.14428833
144	0xbdadb49e	-0.084817156
145	0x3d7baad1	0.0614422
146	0xbe00c5db	-0.12575476
147	0xbd2a9cf2	-0.04165358
148	0x3e0e802d	0.13916083
149	0xbc34aa3e	-0.011026917
150	0xbe4f8464	-0.20265347
151	0x3d813aae	0.063100204
152	0x3d5b5bce	0.05355435
153	0x3cabe4e1	0.020983161
154	0xbd54ca94	-0.051951006
155	0x3e063a7b	0.13108246
156	0xbdca160b	-0.098674856
157	0xbd5334b4	-0.051563933
158	0xbdd3c2a7	-0.10339861
159	0xbda5c9e8	-0.08095151
160	0xbb9474ea	-0.004530539
161	0xbe21040e	-0.15724203
162	0xbe4c34ec	-0.19942063
163	0xbd815b96	-0.06316297
164	0x3c6abffa	0.014327997
165	0xbe108f61	-0.14117195
166	0xbdeac437	-0.11463206
167	0x3d60bcea	0.054867662
168	0xbdb398d3	-0.08769383
169	0xbdaadf60	-0.08343387
170	0x3da96a5b	0.08272239
171	0xbd4dd9be	-0.050256483
172	0xbdbddd1a	-0.092706874
173	0xbbd44622	-0.006478087
174	0xbc1b7368	-0.009487964
175	0xbd5e08e7	-0.05420771
176	0xbdb9b4f0	-0.09067714
177	0xbc8487f3	-0.016178107
178	0x3e2011c6	0.1563178
179	0x3e252115	0.16125901
180	0x3d82fdf4	0.06396094
181	0x3c2758e7	0.010214067
182	0xbdd661ec	-0.10467896
183	0x3e333365	0.17500074
184	0xbe4ea66a	-0.2018067
185	0x3d0fe1a2	0.03512729
186	0xbe14c7d8	-0.1452936
187	0x3dc5c0bf	0.09655904
188	0xbd2e019e	-0.04248201
189	0x3e235f8f	0.15954421
190	0xbd74b720	-0.059744954
191	0xbded4466	-0.115853116
192	0x3d0c5f2f	0.03427046
193	0x3d6c43b5	0.057681758
194	0xbe1658be	-0.1468229
195	0xbe2a87ad	-0.16653319
196	0x3d6fa6b3	0.058508586
197	0x3db9e84e	0.09077512
198	0x3deabf8e	0.114623174
199	0x3e067453	0.13130312
200	0x3df85f30	0.121275306
201	0xbdf41950	-0.119188905
202	0x3d27c096	0.04095515
203	0xbd1cfaaa	-0.03832499
204	0xbe17260e	-0.1476061
205	0xbe3f3fbc	-0.18676656
206	0xbe1d9f19	-0.15392722
207	0xbc890a75	-0.01672862
208	0xbe330fb9	-0.17486466
209	0xbda69a41	-0.0813489
210	0x3c7f7a58	0.015593134
211	0xbdb07f3d	-0.08618019
212	0x3e46d078	0.19415462
213	0xbe331e8f	-0.17492126
214	0x3e38de3e	0.18053529
215	0x3dbfd9d4	0.09367719
216	0xbd470b73	-0.048594903
217	0xbc0fcf1e	-0.008777408
218	0xbe2a9f1f	-0.16662262
219	0x3dd23982	0.10264875
220	0x3e1205b0	0.14259982
221	0xbe39075e	-0.18069217
222	0x3de43dc3	0.111445926
223	0x3d82aa36	0.063801214
224	0xbca0d88f	-0.019634513
225	0xbe16f63e	-0.14742371
226	0xbe477eb0	-0.19481921
227	0xbcb8fefc	-0.022582524
228	0xbafad910	-0.0019138176
229	0xbe09683d	-0.1341867
230	0x3d5fb79f	0.054618474
231	0x3dcba902	0.09944345
232	0x3dc4e21f	0.09613442
233	0xbcc697c4	-0.02424229
234	0xbd6dd6c2	-0.058066137
235	0x3da6cc90	0.08144486
236	0x3d290f49	0.041274343
237	0xbe476010	-0.19470239
238	0xbc86cc8d	-0.01645496
239	0x3e190644	0.14943796
240	0xbdef3c30	-0.11681402
241	0x3d062785	0.032752533
242	0xbc6cfaae	-0.014464064
243	0xbd7dd8be	-0.06197428
244	0xbe02e48d	-0.12782498
245	0xbcc01d9c	-0.023451619
246	0x3dc9b735	0.09849397
247	0xbd2cb566	-0.042165183
248	0xbc403dda	-0.011733497
249	0x3beef390	0.0072922185
250	0x3de997f0	0.11405933
251	0x3dd6fa96	0.10497014
252	0xbd789faf	-0.06069916
253	0xbca88242	-0.020569924
254	0x3c3f144e	0.011662556
255	0x3d6c9848	0.057762414

dest_lstm_obs.bias_ih_l0 f4 [128]
0	0x3e322738	0.17397773
1	0xbdc094fe	-0.09403418
2	0xbd4078a5	-0.046990056
3	0xbd1a861c	-0.037725553
4	0x3d6269ef	0.055276807
5	0xbd0ae9c2	-0.033914335
6	0xbdf8cb2b	-0.12148126
7	0xbd6d4fe0	-0.057937503
8	0xbdeb8355	-0.11499659
9	0x3d985ff7	0.07440179
10	0x3d40b4b6	0.04704734
11	0xbd01def8	-0.03170678
12	0xbda4e8e0	-0.0805223
13	0xbddba637	-0.10725062
14	0xbc479535	-0.01218157
15	0xbd17c4cd	-0.03705292
16	0xbe5e5d1e	-0.21715209
17	0xbe3789c0	-0.17923641
18	0x3e207ec6	0.1567336
19	0x3d680579	0.056645844
20	0x3dd429d0	0.103595376
21	0xbb805350	-0.0039161816
22	0x3e1182ec	0.14210099
23	0x3b56909d	0.0032740005
24	0xbd98f4eb	-0.074685894
25	0xbd9ea911	-0.077470906
26	0xbde6222a	-0.11236985
27	0xbe093497	-0.13398968
28	0x3e4cf332	0.20014647
29	0x3d702485	0.058628578
30	0x3ab19a2e	0.0013549977
31	0xbdb02a04	-0.08601764
32	0x3d49c524	0.049260274
33	0x3cb02e07	0.021506323
34	0xbd908997	-0.07057493
35	0xbe2b86f7	-0.16750704
36	0x3e3f6e79	0.18694486
37	0x3d989b7d	0.07451532
38	0xbccebf8e	-0.025237825
39	0xbe1674e3	-0.14693026
40	0x3dbf5b8c	0.09343633
41	0x3e1c8d9d	0.15288396
42	0xbe652919	-0.22378959
43	0xbd04d21a	-0.03242693
44	0x3e1d77f6	0.15377793
45	0xbc461bea	-0.012091616
46	0xbda03db9	-0.07824273
47	0xbd1f4f0e	-0.03889375
48	0xbe658f3b	-0.2241792
49	0xbdf3a6e6	-0.11897068
50	0xbe0568a1	-0.13028194
51	0x3d9693cf	0.07352411
52	0xbe289b1a	-0.16465417
53	0x3d9e9e84	0.07745078
54	0x3e0021e6	0.12512931
55	0xbce84495	-0.028353015
56	0xbd6fcfc8	-0.058547765
57	0x3c8f8afe	0.017522331
58	0x3c62c944	0.013841931
59	0x3e064dce	0.13115618
60	0x3e6aa45c	0.2291426
61	0x3d9c174b	0.0762163
62	0x3db6cddc	0.08925983
63	0xbdd7f5e1	-0.105449446
64	0x3dff880b	0.1247712
65	0x3dc7ada4	0.09749916
66	0x3dcfe3b6	0.10150854
67	0xbe08c175	-0.13355048
68	0xbd8f3103	-0.0699177
69	0x3e11ec32	0.14250258
70	0xbdd5720c	-0.10422143
71	0xbce3691c	-0.027760081
72	0x3dac02a5	0.08398942
73	0x3e5540c2	0.20825484
74	0x3c242037	0.010017446
75	0xbd9b4334	-0.07581177
76	0xbe25080a	-0.16116348
77	0xbc0e1f8a	-0.008674512
78	0xbdbe37d4	-0.09287992
79	0x3e47e5ad	0.19521208
80	0x3c89a63b	0.016802898
81	0xbc5edefd	-0.013602969
82	0xbe59ff34	-0.21288759
83	0xbe2689cf	-0.16263507
84	0x3dc3c46d	0.095589496
85	0xbc90b12f	-0.017662613
86	0x3d6ae185	0.05734398
87	0xbd50b5cb	-0.05095462
88	0xbd2f16c3	-0.042746317
89	0xbdcd7bf3	-0.10033407
90	0xbe02138c	-0.12702769
91	0x3cc8ec96	0.024526875
92	0xbe8290dd	-0.25501147
93	0xbe257da6	-0.16161212
94	0xbe1cb707	-0.15304194
95	0x3e13f8e0	0.14450407
96	0xbdffeb28	-0.12496024
97	0xbca69090	-0.020332605
98	0x3df7061b	0.120617114
99	0xbbeef54a	-0.0072924243
100	0xbd27665e	-0.04086911
101	0x3dfa6f46	0.12228255
102	0x3d63db11	0.05562884
103	0x3e0526c5	0.1300307
104	0x3b154efb	0.0022782672
105	0xbe114a30	-0.14188457
106	0xbd22e54d	-0.03976946
107	0xbd3aa1dc	-0.045564517
108	0x3dbcfa88	0.092274725
109	0xbc45f372	-0.012081968
110	0xbd37175f	-0.044700023
111	0xbdeeac61	-0.116539724
112	0x3dc8fcfa	0.098138765
113	0xbd950904	-0.0727711
114	0xbe29197f	-0.16513632
115	0xbe123492	-0.14277866
116	0xbe51616a	-0.20447317
117	0x3e0f0438	0.13966453
118	0xbd822c27	-0.06356078
119	0xbe220c3d	-0.15824981
120	0xbbaeae40	-0.005330831
121	0xbb8d69a4	-0.004315572
122	0x3e1175b5	0.14205058
123	0xbe2b5479	-0.16731443
124	0x3d8d2e6c	0.0689362
125	0x3cb21cdd	0.021742279
126	0xbdfda3ca	-0.12384756
127	0xbde53a5f	-0.11192774

dest_lstm_obs.bias_hh_l0 f4 [128]
0	0x3db0e256	0.0863692
1	0xbdb9e667	-0.09077149
2	0xbe2b2ca0	-0.16716242
3	0xbe141632	-0.14461592
4	0xbc08f141	-0.008358301
5	0xbd40dbf2	-0.047084756
6	0xba9e97d9	-0.0012099697
7	0x3ce33f20	0.027740061
8	0xbc569931	-0.013098047
9	0x3d8d859d	0.0691025
10	0x3d88ba61	0.06676174
11	0xbdf0fa10	-0.11766446
12	0xbe0accda	-0.13554707
13	0xbe245de3	-0.1605144
14	0x3db6089e	0.08888362
15	0xbe012b6b	-0.12614219
16	0xbe087f15	-0.13329728
17	0x3deebc52	0.11657013
18	0x3cc85ef0	0.024459332
19	0x3de85bf0	0.11345661
20	0xbe1b857d	-0.1518764
21	0xbe5c1460	-0.21492147
22	0xbdf19e2b	-0.11797746
23	0x3db42c25	0.087974824
24	0xbddb4146	-0.10705809
25	0x3d80c561	0.06287647
26	0xbde46bb1	-0.11153353
27	0x3c7868f6	0.015161743
28	0xbc0a1ed3	-0.008430201
29	0x3d782fbe	0.060592405
30	0x3de53c10	0.11193097
31	0xbdc5794b	-0.096422754
32	0xbbcab44a	-0.006186043
33	0xbe0db892	-0.13839939
34	0xbd85024e	-0.0649458
35	0xbe009ea1	-0.12560512
36	0x3d5cadb3	0.05387659
37	0xbd8355b6	-0.064128324
38	0x3d9be876	0.07612698
39	0xbde81b51	-0.11333335
40	0xbe7febf1	-0.24992348
41	0xbe20e6d5	-0.15713055
42	0xbe4754fe	-0.19466016
43	0x3d454f15	0.04817112
44	0xbcd5b1f8	-0.026085839
45	0xbe3eff51	-0.18652083
46	0x3d2ead87	0.042645957
47	0x3ca9fd6b	0.020750722
48	0x3d26907c	0.040665135
49	0xbe1d4595	-0.15358575
50	0xbdb44dbd	-0.0880389
51	0xbd03aaf3	-0.03214545
52	0xbe633a3c	-0.22190183
53	0x3c4d6fea	0.012538889
54	0xbe1c65fa	-0.15273276
55	0xbca76587	-0.020434154
56	0x3e3f3d30	0.18675685
57	0x3de14ff5	0.11001579
58	0x3cea8065	0.028625676
59	0xbdda5c97	-0.10662191
60	0xbce59002	-0.02802277
61	0xbe09e6ee	-0.13466999
62	0xbe2777d0	-0.16354299
63	0xbe2209dd	-0.15824075
64	0x3ddf1258	0.10892171
65	0x3e259251	0.16169097
66	0x3cc3fa18	0.023922965
67	0xbd6c08a8	-0.057625443
68	0xbeb4b25b	-0.35292324
69	0x3d9b00bc	0.075684994
70	0x3dc3cf8a	0.09561069
71	0x3dbdc00b	0.09265145
72	0x3c907a68	0.017636493
73	0xbd9a6b28	-0.0753997
74	0xbd8c4e37	-0.06850856
75	0x3c912b55	0.017720858
76	0x3cbe4983	0.023228412
77	0xbe20844e	-0.1567547
78	0xbd9c6b6b	-0.07637676
79	0x3e444a48	0.19168961
80	0x3e0d4bcc	0.13798445
81	0xbd4e22ba	-0.050326087
82	0xbdccfe54	-0.10009447
83	0xbe2b66e7	-0.16738473
84	0xbd89a82e	-0.06721531
85	0x3e00cf8a	0.1257917
86	0xbd1a3e23	-0.037656914
87	0x3e455aec	0.19272965
88	0x3e584f16	0.21123919
89	0x3d83bcd3	0.064325
90	0x3dca5829	0.098800965
91	0x3e11e68e	0.14248106
92	0xbdb9a0a4	-0.09063843
93	0xbd28b4b6	-0.041187964
94	0x3e0175b3	0.12642555
95	0x3e02e5a6	0.12782916
96	0xbd38cc40	-0.045116663
97	0xbdb28f2e	-0.087187156
98	0xbde1fd70	-0.110346675
99	0xbe09e821	-0.13467456
100	0x3d452a40	0.048135996
101	0xbe224769	-0.15847553
102	0xbd01a808	-0.031654388
103	0x3ddb7b85	0.10716919
104	0xbb6ebf20	-0.0036429837
105	0x3df628e7	0.1201952
106	0xbe245ffc	-0.1605224
107	0xbccffcb5	-0.025389055
108	0x3d7a678a	0.0611339
109	0x3da80580	0.08204174
110	0xbe3ccf22	-0.1843839
111	0xbd0cfd88	-0.034421474
112	0x3da9512a	0.08267434
113	0xbdf4b2d6	-0.11948173
114	0x3cbb610e	0.022873428
115	0x3ddd32b3	0.10800686
116	0x3cfc522d	0.030800903
117	0xbe4302b9	-0.19044007
118	0xbe3d4180	-0.18482018
119	0xbe4642e2	-0.19361451
120	0xbe0143fa	-0.12623587
121	0xbd2e213f	-0.042512175
122	0x3dbac2a8	0.09119159
123	0xbddfe00a	-0.10931404
124	0x3d4a26ea	0.049353518
125	0x3e0e6040	0.13903904
126	0xbc769113	-0.015049237
127	0x3de22a0e	0.110431775
