src/do_tp_federated_federated_round_4.pt (torch, 157077 bytes, 26 tensors)

linear_enc.weight f4 [64, 2]
00000000: 41a7 fb3e 4124 063f f490 d93e a522 663d
00000010: 3eae 133f 496b d03e c931 d93e ab24 26bf
00000020: b92d 8a3e d87e 03bf 6807 963d 3ac6 883e
00000030: ae89 eabe 69ec bd3e 6a2d 6f3e dc9d 8ebe
00000040: d245 893d 9eda 15be 3589 d8be a314 36be
00000050: 2b16 973e 7961 de3c 56a8 ee3e 382a 21bf
00000060: db3d e23e 8031 093e 08af 65be 845e 77bf
00000070: 1da6 04be d235 7fbe 61d7 e33e 1b8d 8fbd
00000080: b8f1 33bf 4899 26bf 2ed3 18bf 2032 21be
00000090: a1d5 173f 766d 3ebf 8a74 9d3e 0ac5 cbbe
000000a0: 9865 fe3e 0d1a 61bf 867a 18bf e1a2 3f3f
000000b0: 22ee f1be 326e 553e 80da 23be d114 6ebd
000000c0: 876d aa3e 83b2 edbe f541 6b3e 1247 b33d
000000d0: accb ffbe f5b2 163e 3062 393f 5451 a93e
000000e0: 4db3 a43d 5e28 b13e c086 263f d3ac 433d
000000f0: 1b8b 73be 18de 3c3f 5ad5 35bf 881f d9be
00000100: 88fa 003f 6258 c2be 6a8c 86be 1684 543f
00000110: cafd fdbe a2bf 79be 3439 f7be 3656 4f3f
00000120: bc6a ce3e 4e8a 54bf 4c2d 8bbd 05cb 063f
00000130: 56f4 193f 71ed 633f 1a62 36bf 26a0 ddbe
00000140: e555 143f c7ab 8b3e d6da dfbe fe88 74bf
00000150: d2c4 3e3f a88b 083e db0c 58be 989a 6bbd
00000160: 261e c5be aec6 ea3d 65c4 90be 238c 213f
00000170: ad6c 30bf 829e de3e 5a5d 083f 07c0 1b3f
00000180: cd21 07be a424 fd3c efbe 2cbf d045 f93d
00000190: 27b9 c3be bafc 103f 4505 1cbf 5284 c03e
000001a0: 00b7 48bf bd05 e4be 7405 0cbe b6dc 883e
000001b0: 22eb 353f 79ab d73e f596 45bd 8e82 c63e
000001c0: 8caf 6dbe 51ed 073f 69d6 08be 1009 133f
000001d0: 406a 2abf f814 36bf a314 3cbf be3b 5a3e
000001e0: 9b7d 943e b1b1 203e b34b 06be ecc2 163f
000001f0: 1b59 32be 226f a63c 4ba8 80be 6957 b8bd
0.49151042 0.5239907 0.42493403 0.056185383 0.5768775 0.40706852 0.42420796 -0.648997
0.2698801 -0.51365423 0.073256314 0.26713735 -0.45808166 0.3709443 0.23357168 -0.27854812
0.0670277 -0.14634177 -0.4229218 -0.1778131 0.295091 0.027146088 0.46612805 -0.62955046
0.44187817 0.13397789 -0.2243005 -0.96628594 -0.12953992 -0.24922875 0.4450026 -0.070093356
-0.7029071 -0.6507764 -0.59697235 -0.15741777 0.59310347 -0.74385774 0.30752975 -0.39798766
0.49686885 -0.87930375 -0.59561956 0.7485791 -0.47251993 0.20842817 -0.1600132 -0.05812532
0.33286688 -0.46425256 0.2297438 0.0875379 -0.49960077 0.14716704 0.7241545 0.3306986
0.080420114 0.3460111 0.6504936 0.04777224 -0.23783533 0.7377639 -0.71028674 -0.4240687
0.5038228 -0.37958056 -0.26279002 0.8301405 -0.49607688 -0.24389508 -0.4828583 0.8099092
0.40315807 -0.83023536 -0.06795749 0.52653533 0.6013845 0.8903418 -0.7124344 -0.43286246
0.57943565 0.27279493 -0.43721646 -0.95521533 0.74519074 0.13334525 -0.21098654 -0.05752048
-0.38499564 0.114636764 -0.28274837 0.63104457 -0.68915826 0.43480307 0.53267443 0.60839885
-0.13196488 0.03090126 -0.6747884 0.12171519 -0.38227198 0.5663563 -0.6094554 0.37600952
-0.78404236 -0.44535628 -0.13673955 0.2673089 0.7106191 0.4212301 -0.048239667 0.3877148
-0.23211497 0.5309649 -0.13363041 0.57435703 -0.66568375 -0.71125746 -0.7346899 0.21311852
0.2900208 0.15692784 -0.13114814 0.5889118 -0.17416804 0.020316664 -0.25128397 -0.09001047

linear_enc.bias f4 [64]
00000000: c612 463e 8434 23bf 11ac b53d 6eba cebe
00000010: 085c e1be 0a57 29bf 3833 933e b473 b4be
00000020: ce6c 923e 1fe9 9f3e b4c9 a53d f704 2fbe
00000030: b4da 9ebc c878 243c 0e30 b3be 8bd0 d5be
00000040: 565f 7abd 0020 f1be bad9 8c3d 8a41 183e
00000050: a73e 123f 0646 373e 917c 1e3f ae0b c03e
00000060: 849d 1dbf b5ff cf3e 6128 8fbe 74a2 443e
00000070: a473 88bb a4f8 87be 7db2 64bd 37ba 33bf
00000080: f359 d8be c4fe 1c3f d39a a0be 9599 d1be
00000090: 814c 6abe 6a91 cc3e b6ae f4bc a563 173f
000000a0: 4075 13bf dad3 d2be 6e18 f3be 2fef 993e
000000b0: 8b96 1c3f aeb8 1b3f a15b 2b3f e6ae 043e
000000c0: 6162 04bf 8140 a8be 845c babe 14ae 9ebc
000000d0: e865 a6be 1960 1c3f e0f5 2bbf 3b4c 10bf
000000e0: bf15 2a3f 9d33 093e 915e a23e 0c32 debd
000000f0: 57b9 8f3e b266 b03e a239 423e 6872 03bf
0.19343099 -0.6375201 0.0887071 -0.4037661 -0.44015527 -0.66148436 0.28750014 -0.35244524
0.28598636 0.31232545 0.080951124 -0.17091738 -0.019391395 0.010038562 -0.349976 -0.41760668
-0.061126076 -0.47094727 0.068774655 0.14868751 0.5712685 0.17897806 0.61908823 0.3750891
-0.61568475 0.40624776 -0.27960494 0.19202596 -0.004164176 -0.26556885 -0.055834282 -0.70206016
-0.42256126 0.6132624 -0.31368122 -0.40937486 -0.22880746 0.39954692 -0.029868465 0.5913642
-0.57600784 -0.41177255 -0.47479576 0.30065295 0.6116721 0.60828674 0.6693669 0.12957343
-0.51712614 -0.32861713 -0.3639871 -0.019370116 -0.32499623 0.61084133 -0.6717205 -0.5636632
0.6643943 0.13398595 0.31712773 -0.108493894 0.2807109 0.3445335 0.18967298 -0.51346445

encoder_lstm.weight_ih_l0 f4 [128, 64]
00000000: 158b 233e 846f fe3d 9413 353e 9df1 18be
00000010: 1325 6cbb 9b86 e7bd 099a 163e 8e75 ecbd
00000020: 65fe 263e eea0 f03d 071b c1bd b261 073e
00000030: fd88 5abc 1116 83bd 3043 4dbe 7666 29be
00000040: 6374 ef3d 2ed3 52bd 4b18 82bd 6655 b9bd
00000050: 8878 b63d a1ce 2d3e bfdf 0ebe 66f0 98bd
00000060: 96f5 b73d 1c1e fc3d f2e9 0cbe 92a7 b43d
00000070: 3c0e 943d 8928 80bd 1dd8 2dbe ddfd 0bbe
00000080: 53d3 243d ecf7 c93d c842 4bbe 544d 4cbd
00000090: f8de 18be 301a eabd 41fd b6bd ab13 a5bd
000000a0: 945e e33d 095d a1bc aa42 cd3d 5682 4a3e
000000b0: 68f3 03be 390d adbd 5af9 283e 1cb7 1a3e
000000c0: 8fa5 50be a8be ba3c 51f3 e9bd dcef 9dbd
000000d0: 1f61 043d ae28 153e f35e c0bd 69bd 02be
000000e0: b650 4b3d 7f26 90bd f8db b4bd c40c a1bd
000000f0: bf93 9e3d 3087 a3bb 7f39 3d3d ce23 99bb
00000100: f262 c03d e6ac b8be d79c 263d 875f 1d3c
00000110: aa3e 12bd 0211 84be fbe6 8e3e b5b9 7ebe
00000120: f071 923e fb7d bd3e 5ab7 fe3d ab85 eabd
00000130: 6565 0fbe 8427 963e 9c7f 64be f59e 8abe
00000140: 15ab 003d 0fc6 c7be 6bfb 1f3e 5ec9 e33e
00000150: 38b5 1a3e 1d34 243d 2044 1b3e 5650 b63e
00000160: 46fe 5fbe 520d 2a3d 4a4b bebe d604 c03d
00000170: 9628 a8be e004 32bd e2b1 74be 3cc4 11bd
00000180: 8280 51be b44d 3e3e 1249 b4be cc29 77be
00000190: de3e ba3d 6955 d53d 1a23 55be 6c8b a83e
000001a0: 085b 9cbd 615b e8bd 18a9 00bd 75ec a13e
000001b0: c753 873e 6722 a43e 7901 9f3e 9215 b03c
000001c0: 5000 a4be d4e1 c2bd 98ea 2ebe c09b 7abe
000001d0: 7b7e 7abe ec69 a33e 0e76 63be a267 dcbd
000001e0: 8aab a33c 20f0 cc3d 199f 463e 4d0c a0be
000001f0: 797a ba3e 55ad e23c ff8a bd3d c39b 5cbe
00000200: 256c a93d 529c 2fbd f811 0dbe 09aa dcbc
00000210: 9c0f 0dbb 3859 f83a f3cf cfbd c9ee 9b3d
00000220: d7b9 d03d 6999 0d3d 6d7f e93d 219f cd3c
00000230: 763b 773c 351c ad3d bb28 fcbd 07a4 953d
00000240: d45b 3f3d 28a4 aebd 4021 d1bc b73c dabc
00000250: 6b7d d63d 6c9e 313c a83d 66bd fbd7 91bd
00000260: 3a4f 423e 8dff b23d 0075 853c ffce a8bd
00000270: 8e38 4abe e0d5 01bd 15a6 acbd 883c 2a3e
00000280: 0e07 dabd 598a fabd 7604 193e 2131 13bb
00000290: b938 973d aa1f 12bc 5c8c 30be f80c 58bd
000002a0: 487b adbd 9247 f03d 9fe2 083e f5b3 b0bd
000002b0: 383b 9dbd 9619 0abe 23df 05be c01e b9bd
000002c0: 1a9f 373e e493 69bd cc92 88bd 7271 133e
000002d0: 2ad9 cd3d 7ce8 31be 7c20 18be ce21 ae3d
000002e0: d61c 75bc 8fbb 9c3d 1085 dbbd bd82 11be
000002f0: dc84 173e 638a 0fbe 3cc5 0ebe 0430 2d3e
00000300: a307 8ebc 0c87 133e 47c9 bc3b d71a 1bbe
00000310: 90c6 2a3e 6709 f9bc 6b5b 0f3d 47fb 3fbd
00000320: 62b0 f3bd 995d 70bd 9463 fdbd fb51 d8bc
00000330: ee80 1abd 49b9 813c 46ee 28bc dd6a 053e
00000340: b0e9 c53d 1fb3 113d dfa7 963d d752 7b3d
00000350: e7fb 2dbe 6a93 223d 1600 cbbd 7605 3e3d
00000360: a9ad fc3d 10f2 33be 8294 af3d 8790 d3bd
00000370: 1e36 ef3d 9a36 ad3c c48f d1bd 803e 603d
00000380: 28cb 5d3d 0d7a 0cbd 1239 163d a287 503e
00000390: b647 1c3e c9d0 c83d 68b2 b4bd de22 b93d
000003a0: 4366 6a3d a7dc a53d e544 b4bd 8535 123e
000003b0: 7b36 28be 6dd9 7d3d dccf d3bd 1620 833d
000003c0: 02ca 0e3e 671c 32bc 465b ac3c a241 333e
000003d0: cf26 4bbd b098 c1bc cb84 f03b 9296 aebd
000003e0: 542b 1dbd 5f45 8bbd 18ed e6bd 2eeb 5bbd
000003f0: 5bb5 ef3d 6a1a c5bd 6096 263e 70b1 1b3e
0.15971024 0.12423614 0.1768325 -0.14935918 -0.003603284 -0.11304971 0.14707197 -0.11545859
0.16307981 0.11749445 -0.09428983 0.13220862 -0.013338325 -0.06400693 -0.20045161 -0.16542992
0.11692121 -0.051470928 -0.0635229 -0.090494916 0.08909708 0.16973354 -0.1395254 -0.07467727
0.08982389 0.123104304 -0.13761118 0.08821024 0.072292775 -0.062577315 -0.16976972 -0.1367106
0.040240597 0.098617405 -0.19849694 -0.049878433 -0.14928806 -0.11430776 -0.08935023 -0.08060392
0.11102024 -0.019697683 0.10022481 0.19776282 -0.12885821 -0.08449788 0.1650137 0.15108913
-0.20375656 0.02279599 -0.11423362 -0.07711765 0.032319184 0.145663 -0.0939311 -0.12767567
0.04963752 -0.070385925 -0.08831018 -0.07863763 0.07743024 -0.004990481 0.04619741 -0.0046734577
0.09393872 -0.3606941 0.040676918 0.009605295 -0.035704292 -0.25794226 0.279106 -0.24875529
0.28602552 0.37010178 0.12437315 -0.114512764 -0.14003523 0.29327023 -0.22314304 -0.270744
0.031413157 -0.39018294 0.15623252 0.44489568 0.15108192 0.04008876 0.15162706 0.35608166
-0.21874341 0.04151661 -0.37166816 0.093759224 -0.32843465 -0.04346168 -0.23895982 -0.035587534
-0.20459178 0.18584329 -0.35211998 -0.24137038 0.09094022 0.10416681 -0.20814171 0.3291887
-0.0763455 -0.11345554 -0.03141126 0.31625715 0.26431105 0.32057497 0.3105581 0.02149466
-0.32031488 -0.095157295 -0.17081678 -0.24473476 -0.24462311 0.3191675 -0.22213003 -0.10761954
0.019979257 0.10006738 0.19396628 -0.31259385 0.36421564 0.027670542 0.09255027 -0.21543793
0.0827258 -0.042873688 -0.13776386 -0.026936548 -0.0021524196 0.0018947488 -0.10147085 0.07613904
0.10191696 0.03457013 0.11401258 0.025100293 0.01508986 0.08452646 -0.12312456 0.07306676
0.046718433 -0.08527404 -0.02552855 -0.02664028 0.1047314 0.010840993 -0.056211144 -0.07121273
0.18975535 0.08740149 0.016291142 -0.08242606 -0.19748136 -0.031698108 -0.08430115 0.16624653
-0.10645877 -0.12233419 0.14943108 -0.0022459703 0.07383866 -0.008918682 -0.17241043 -0.052746743
-0.0847078 0.11732401 0.13367699 -0.08628074 -0.07677311 -0.13486323 -0.13073401 -0.09039068
0.17931786 -0.057025805 -0.06668624 0.14398745 0.100511864 -0.17373842 -0.14856142 0.085025415
-0.014960488 0.076529615 -0.10718739 -0.14210029 0.14796776 -0.14017634 -0.13942426 0.16912848
-0.017337626 0.14406985 0.005761299 -0.15146957 0.16677308 -0.030399991 0.034999292 -0.046870496
-0.11898877 -0.05868301 -0.12372509 -0.026406279 -0.037720613 0.015835421 -0.010310715 0.13029046
0.09663713 0.035571214 0.073562376 0.0613583 -0.16990624 0.039691366 -0.09912126 0.046391927
0.123378105 -0.17572808 0.085732475 -0.10330301 0.11680244 0.0211442 -0.10232499 0.054747105
0.054148823 -0.034296084 0.03667552 0.2036424 0.1526173 0.098054476 -0.08823091 0.090398535
0.05722643 0.08098727 -0.08802203 0.14278229 -0.16427033 0.06197493 -0.103423804 0.06402604
0.13944247 -0.010871029 0.021039616 0.17505506 -0.049597558 -0.023632377 0.007340049 -0.08524813
-0.0383714 -0.06800341 -0.11275691 -0.05369108 0.11704513 -0.09624179 0.16268301 0.15204406

encoder_lstm.weight_hh_l0 f4 [128, 32]
00000000: b01b f43d 8466 85bd aa8c 4a3d 808a bb3d
00000010: e00e a73b ad29 80bd afa1 21be 600b 533e
00000020: 53bd a4bc 4dbe 0bbe 7c7b abbc 4df4 083e
00000030: 8cbc 07be 8a18 6fbd e2b9 d43a f729 01bc
00000040: 58fd 68be 08a9 29be d049 18be 3b53 42bb
00000050: ba0c f3bd 119e f23d 6e3b 8ebc 858a 203c
00000060: 2545 20be 08e5 853d 468b 833d f01a 4a3d
00000070: c6b7 ef3d ee86 9d3d aade 4e3d 96b8 1c3e
00000080: f31e a53e 2747 20be 7697 b23e dbb7 3abd
00000090: 4d76 22bd 144f 833e 0ea7 3e3d 7c89 bdba
000000a0: f38c 8c3e ba71 90bc 845e 03be d439 c03d
000000b0: 8e28 013e 2a92 4cbd 60f5 f9bc 6256 cbbd
000000c0: da93 69be 0638 03be 8f0e 4b3e 264a 913c
000000d0: c72f 3c3e beed 75be bc82 22be 7009 983d
000000e0: a840 9fbd 0924 75be 89f9 5dbe 073f 13bd
000000f0: 0565 273d 0078 1fbb 4297 9c3e 2a6b 583e
00000100: ed1f 773d a6dd 403e 144c 2cbe b089 d8bd
00000110: db89 9d3d 3ef0 303e 8658 07be 1cc4 a2bd
00000120: 7a9e 6cbd 230b edbd 00ec 0c3d 3a90 bebb
00000130: 109e 193d f831 9d3e 2b46 6c3c bd2b 873d
00000140: d41b b43d 6280 d9bd 9c5f 34be 497a 3bbe
00000150: 3da0 4b3e d043 063e 6d0e 1c3d bc95 303b
00000160: 914a 2fbe f1d9 6c3d 1afa 5e3d ab2a a63d
00000170: 30c6 473c c974 ddbd a9b4 2ebe cbd1 0bbe
00000180: 5878 f93b 5ca5 f4bc d5a8 cbbd f2bc bcbd
00000190: 8cc8 42be d8bd 43be 0635 1abd e586 e5bd
000001a0: 438b bcbd 45ff 3d3d dcea 0e3d 283b 01be
000001b0: 1ffe f0bc 13bb 0b3e d09f a03d e099 b4bd
000001c0: 3225 e9bb 28bf 563b 3684 72be da61 5dbd
000001d0: fae2 6fbe 3a6e 32be 455a 653e fe25 283e
000001e0: bae5 6cbe d5df 8abd 8dd2 933d 8e04 1f3e
000001f0: 02d6 25bd d1dd 8dbd e6dc 133e d68c 40bd
00000200: 794e 113b cf8d 30be 10a2 1b3e 11d7 45be
00000210: 1a94 5e3b 6eef f63d e8e1 50be 88af 4a3e
00000220: b2c5 6e3d 993f d2bd d002 d0bd 71e9 4c3e
00000230: c4e1 d73d 127d a5be 2d27 d3bd 040c b9bd
00000240: 594b 01bd 888a 68be c9e7 e13d b6c4 30be
00000250: c736 86be 8079 283d ca70 b9bd aeb2 2e3e
00000260: cece 5fbe 92f5 273d 9e89 45be 8679 20be
00000270: 5755 8b3e fe47 1f3e 7451 213e ee7b 583d
00000280: d36d 5a3e 2194 2ebd 64bb bc3e 2988 3dbe
00000290: 9b0e 1d3c 8460 483e 1631 dbbe a73a 223d
000002a0: be7d 4b3e 7d16 d4be 7e39 30be a0c8 b03e
000002b0: f264 993e c891 fb3d 01df 14be da2a 413c
000002c0: 7a15 dfbe b3b3 57be ae4f 15be 1ad2 373e
000002d0: 39d6 9b3d 631d c7bd c55d 85be a451 033e
000002e0: 69b8 3fbe 4dd9 7ebe b17b a8bd c148 cbbc
000002f0: 910e 7a3e d0f6 073e 9879 113e 4880 183f
00000300: 834a 423e 72a2 0a3e f67c 0f3e 7ce4 9dbd
00000310: 888a a2bd 1130 903e d8d3 f7bd 8d2c 653d
00000320: 9259 e53c ccfb 06bc e552 1b3e 802b 4a3e
00000330: 7681 4c3d f86e 99bd 4184 9fbe 5c5a e6bd
00000340: 4ac8 90bc aa27 d3bc 2a9e 90bc f672 b6bd
00000350: 9d5a 663c 9148 ae3d 8e13 743c d3e6 e0bc
00000360: ca36 edba c4f8 9bbc c30b 7abd 3aed 6dbc
00000370: 0cc7 4ebd 58e7 d5bd 9591 d6bd 28c5 76be
00000380: 421a 0e3e 70ec 5c3e 6a83 f93d c213 3b3e
00000390: 88c7 ebbc 21e0 b53d e337 c8bd a7f7 a13e
000003a0: d459 eb3d 226f 063e 2583 29be d0a4 58be
000003b0: e153 cbbd 6f6b a6bb 42b6 f3be 9cd0 0bbe
000003c0: 1625 173e 31aa 98be 4c09 4d3e bef4 733d
000003d0: b61e c33d cc3d ea3c 55c8 54bd 76bc 20be
000003e0: 44dd 5d3e a2ff 52be 6d9c e03d cc6c e73d
000003f0: 74dc b93e 9f77 143d e757 7f3d 1bb5 9fba
0.119193435 -0.06513694 0.049450554 0.09157276 0.005098209 -0.06257949 -0.15784334 0.20609808
-0.020109808 -0.13646813 -0.020932905 0.13374443 -0.13255519 -0.05837301 0.0016229714 -0.00788354
-0.22752893 -0.16568387 -0.14871907 -0.002965166 -0.11867662 0.11846555 -0.017362323 0.009798651
-0.15651377 0.06537825 0.06423049 0.049342096 0.11704974 0.076917514 0.050505318 0.15304789
0.32250175 -0.15652142 0.3488118 -0.045585494 -0.0396636 0.2564627 0.046546035 -0.0014460529
0.27451286 -0.017632354 -0.12829024 0.0938603 0.12613127 -0.04994408 -0.030512512 -0.099285856
-0.22810307 -0.1281434 0.19829772 0.017735552 0.183776 -0.24016473 -0.15870184 0.07423675
-0.07776004 -0.23939528 -0.21677221 -0.03594878 0.040867824 -0.0024333 0.3058415 0.2113463
0.06033318 0.18834552 -0.16825897 -0.10573137 0.076923095 0.17279145 -0.13217363 -0.07947561
-0.057768323 -0.1157439 0.034404755 -0.005815533 0.037504256 0.30702186 0.014421026 0.06600139
0.0879437 -0.1062019 -0.17614597 -0.18308367 0.19885345 0.13111806 0.038099695 0.0026944717
-0.17118289 0.057825033 0.054437734 0.08113607 0.012193248 -0.108132906 -0.17061104 -0.13654248
0.007613223 -0.029864006 -0.099443115 -0.09215726 -0.19021815 -0.19115388 -0.037648223 -0.1120737
-0.092062496 0.046386022 0.034891948 -0.12620223 -0.02941805 0.13645582 0.07842982 -0.08818412
-0.0071150297 0.0032767747 -0.23683247 -0.054048397 -0.23426428 -0.1742486 0.22397716 0.16420743
-0.23134509 -0.06780974 0.07217894 0.15529081 -0.040487297 -0.06927074 0.14439735 -0.04700931
0.0022172017 -0.17241596 0.1519854 -0.19320323 0.0033962787 0.12057386 -0.20398676 0.19793522
0.058294006 -0.102660365 -0.101567864 0.20010926 0.10541108 -0.32321984 -0.103102066 -0.09035495
-0.031565998 -0.22709095 0.11030538 -0.1726254 -0.26213667 0.041131496 -0.09054716 0.17060348
-0.21856233 0.04100568 -0.19290778 -0.15671358 0.27213547 0.15554807 0.15753728 0.052852564
0.21330957 -0.042621735 0.36861718 -0.18508972 0.009586002 0.19568068 -0.42810887 0.039606716
0.19872186 -0.41423407 -0.17209432 0.34528065 0.29959828 0.12283665 -0.14538194 0.011790002
-0.43571073 -0.21064644 -0.14581177 0.17951241 0.07609219 -0.09722402 -0.26048103 0.12824112
-0.1872269 -0.24887581 -0.08226717 -0.024814965 0.24419619 0.13277745 0.1420654 0.5957074
0.18973736 0.1353853 0.14012513 -0.077095956 -0.07936579 0.28161672 -0.12100953 0.05595069
0.027996812 -0.008238744 0.1516834 0.19743156 0.04992815 -0.07491869 -0.3115559 -0.112477034
-0.01767363 -0.02577575 -0.017653544 -0.08908646 0.01405969 0.08509935 0.01489724 -0.027453816
-0.0018097993 -0.01903952 -0.061046373 -0.014521891 -0.050482795 -0.10444516 -0.10476986 -0.24098647
0.13877204 0.21574569 0.12183268 0.18269256 -0.028781667 0.0888064 -0.097762845 0.31634256
0.11491743 0.13128331 -0.16553934 -0.21156621 -0.09928108 -0.005078725 -0.4759999 -0.13653797
0.14760241 -0.29817346 0.20023078 0.059559576 0.09527342 0.02859392 -0.051948864 -0.15696892
0.21666437 -0.20605329 0.10967336 0.11300048 0.36301005 0.036246892 0.06233969 -0.0012184711

encoder_lstm.bias_ih_l0 f4 [128]
00000000: 2f53 e13d a7eb 6c3e f5b3 35be 8426 d8bc
00000010: ca15 1a3e a53f ea3d 9ca9 bcbd 43e7 d9bd
00000020: 0446 70bb 634e 32be aa7c fa3c d263 c6bb
00000030: a439 3fbc 1f9b f63e e255 3a3e eb57 c6bc
00000040: a3aa 2b3e 8c0e ac3d 6f08 773e 78cf 7c3e
00000050: b652 203e d290 88bc 553b 603e 4239 4ebd
00000060: bcc9 a13d 5c16 93bd de79 1d3e 14a2 3bbe
00000070: 62dd 653e 0cda 4b3e 64b8 1b3e b694 a7bd
00000080: a935 a33d 2a85 053e 6e03 4dbe 146e ab3d
00000090: da04 583d 9389 29bd d41a 4e3d c819 943d
000000a0: f118 f2bd 2c0f 063e 3c91 c53b 046f 443e
000000b0: 95c4 07be e241 f63d 7c28 95bd c2da 3cbe
000000c0: 930e 80bc 0cba 3ebd a7e9 53bd a623 ac3c
000000d0: 4ecc 603d 4703 013e e569 b83c 6bfd 1b3d
000000e0: b810 d3bd 17c8 113e 312c 18be d07d 91b8
000000f0: d020 a9bd c2f1 aa3d 3547 973c 5cbf d93d
00000100: 4b59 bbbd 9a5e 0fbe a75b a53c b29e a33c
00000110: 60c7 2d3d 0891 06be 27b1 01be 22ad d43c
00000120: 67ec 403b c016 efbd 014b 9dbd 571d 3cbd
00000130: ec11 753d 7311 253e 7a0b fbbd 5a4a e9bd
00000140: 6753 053d 718f 993b 45bb 19be 907c 5ebd
00000150: 4189 a9bd 2ef2 c2bd 1125 0d3e 7fac a4bd
00000160: 2e2a 4ebc fd12 85bd 551b 093d a803 153d
00000170: 0276 723d 244d dabc e2a1 fd3d af00 c83d
00000180: 8930 863d 1824 d73e e149 8bbc a0d6 0cbe
00000190: 8cde 8a3d 2cda ad3d 17ba 003b 600a e33d
000001a0: 0fbf 593e 2a6a 17be 1520 ec3d 28eb e23d
000001b0: 58cd 9fbc bea4 b43e 9e2b 30bd 38d9 e83d
000001c0: 6e7a 2ebd 004d 503b 74cd a03d aeed dcbc
000001d0: 7d72 ec3d 3cf3 04bb ad2a 75bd 901b f5bd
000001e0: ae8d 8b3e 9ac1 3c3e cee6 eb3d 747d b2bd
000001f0: 5fed 35bd 1375 ccbc e85d c73d 95be ee3c
0.11002194 0.23136769 -0.1774443 -0.026385553 0.15047374 0.114379205 -0.09212038 -0.10639813
-0.0036662826 -0.17412715 0.030577023 -0.00605438 -0.011671457 0.48165223 0.18196824 -0.024211844
0.16764311 0.08401212 0.24124311 0.24688518 0.15656552 -0.016670618 0.21897633 -0.050347574
0.07899806 -0.07181999 0.1537852 -0.18323547 0.22447732 0.19907397 0.15207058 -0.08182661
0.07969219 0.1303908 -0.2002084 0.08370605 0.052739 -0.041390967 0.050318554 0.0723148
-0.118211634 0.13091725 0.006029276 0.19182974 -0.13258584 0.12024285 -0.072831124 -0.18442824
-0.01563195 -0.046564147 -0.0517365 0.021013092 0.05488234 0.12598906 0.022511432 0.038083475
-0.10305923 0.14236484 -0.14860608 -6.937573e-05 -0.082582116 0.08346893 0.018466571 0.10632202
-0.09147891 -0.14000931 0.020185305 0.019973133 0.042426467 -0.13141263 -0.12665235 0.025961462
0.0029437782 -0.11674261 -0.076803215 -0.04592642 0.059831545 0.16119938 -0.12258048 -0.113911346
0.03255024 0.004686289 -0.15012844 -0.05431801 -0.08278132 -0.09518848 0.13783671 -0.080407135
-0.012583299 -0.06497762 0.03347333 0.03638044 0.059194572 -0.026648112 0.12384392 0.097657554
0.06552226 0.42019725 -0.017003002 -0.13753748 0.06780729 0.084888786 0.0019642168 0.11085963
0.2126429 -0.14786592 0.11529557 0.11080009 -0.019507095 0.35281938 -0.043010347 0.11369556
-0.042597227 0.0031784177 0.07851687 -0.026968803 0.115452744 -0.002028658 -0.059855152 -0.11968148
0.2725653 0.18433228 0.11518632 -0.087153345 -0.044415828 -0.02495817 0.09734708 0.029143611

encoder_lstm.bias_hh_l0 f4 [128]
00000000: d473 15bd f44a c13e 0f7b fa3d 0299 fc3c
00000010: 06b2 4b3e 644d d23e f33c b83c 95b8 95bd
00000020: 40cc 7e3d d4a9 20bd 5249 8ebc 8b31 fcbd
00000030: 611d 873d 8511 a83e 8650 ce3d b435 f43d
00000040: 626a 153d 5eff 183e f10a 4c3d 589b cd3c
00000050: 650a be3c 4515 30bd c1be 2d3e da54 293e
00000060: 00a9 143e 9ab9 cdbd 78b4 ebbd c6f9 0cbc
00000070: 77e4 173e 7d3f c93d 36fb 93bd 8ca2 1abb
00000080: a0c3 cf3c 014a d9bd 1090 693d 1eb2 623d
00000090: 62e9 953d 2ec9 ca3d 8077 7b3d de56 813c
000000a0: 6a89 99bd b128 453d e622 183d a131 423d
000000b0: f94b c3bd 4995 18be 92c5 e73c 97cb 5d3d
000000c0: 90c4 b83d f32b 26be ce2c e33d 97d3 38be
000000d0: a340 dcbd 935f a4bc 542a a8bd 9807 a3bb
000000e0: 5469 72bc 6cc4 1d3e df8b 7c3d 30a5 c4bd
000000f0: c82f 423d c222 dabd 9a23 80bd ffdc 543d
00000100: 02f4 f4bd fc9a 6c3d 7f86 9c3d e781 5abd
00000110: e393 9c3d 06cb adbc c846 d3bd e08d bf3d
00000120: 8408 453e ad5b 04be f5da 2e3d 5bff 163e
00000130: 1082 b93d 021e 21be 057c e93d 1833 243b
00000140: b920 12be 8c8b 143e cd94 0e3e 6612 263e
00000150: a630 61bd cafd 073d 28a0 09be f562 c93c
00000160: ab02 1ebe fd8e f6bd df90 bcbd 4b92 d53b
00000170: 1c27 93bc 3be5 fc3d 68d0 3f3d 6952 cdbd
00000180: 47f8 1abd 2ec8 df3d b031 583d bd9e 0ebe
00000190: c1d9 5e3c 9cc7 4fbd 9423 ddbd 61d5 1cbb
000001a0: ea69 9c3e 2402 2c3c 42da e9bd af33 f23d
000001b0: b2cd c3bd ee04 b43e 9afa 0a3e b225 e23d
000001c0: 41a8 11bc 7a4d 5cbb 9e08 5d3e 6b13 b0bc
000001d0: dc03 653d 21ec 0e3e 8d22 523e 587b c5bd
000001e0: d06b d73d 51f3 203e 5a55 8cbd 29d3 89bd
000001f0: 5fab a73d 95a5 223e 535c e9bc b660 11bd
-0.036487415 0.37752497 0.12230503 0.030834679 0.1989213 0.4107467 0.02249 -0.07310597
0.062206507 -0.03922446 -0.017368946 -0.12314137 0.065974005 0.32825866 0.100739524 0.119243056
0.036478408 0.14941165 0.049815122 0.025098488 0.023198316 -0.042989034 0.16967298 0.16536275
0.14517593 -0.10045166 -0.11509031 -0.0086044725 0.14833246 0.098265626 -0.07225649 -0.002359542
0.025361836 -0.10609818 0.057022154 0.055345647 0.07319905 0.09901653 0.06139326 0.015788492
-0.07496913 0.04813451 0.037142657 0.04741061 -0.09535975 -0.14900698 0.028292451 0.054149237
0.09021866 -0.16227703 0.1109253 -0.18049465 -0.10754516 -0.020065105 -0.082111984 -0.0049752705
-0.01479562 0.1540696 0.06165683 -0.096018195 0.04740885 -0.10651161 -0.062567905 0.05196857
-0.11960603 0.057764992 0.076428406 -0.05334654 0.07645395 -0.021214973 -0.10316235 0.093532324
0.1924153 -0.12925597 0.042689282 0.14745848 0.090580106 -0.15734103 0.11400608 0.0025054868
-0.14270295 0.14506358 0.1392395 0.16217956 -0.054978035 0.033201016 -0.13440001 0.02458332
-0.15430705 -0.120389916 -0.092073195 0.0065176836 -0.017962985 0.1234841 0.04682961 -0.10025484
-0.037834432 0.10926853 0.05278176 -0.13927741 0.013601721 -0.05072747 -0.107978016 -0.0023930895
0.30549556 0.010498557 -0.114185825 0.11826264 -0.09560718 0.3516001 0.1357216 0.11042346
-0.0088902125 -0.0033615516 0.21585318 -0.021493634 0.055911884 0.13957264 0.20520993 -0.096426666
0.105186105 0.15717818 -0.06852217 -0.06729729 0.08186983 0.15883477 -0.028486406 -0.03549262

dest_lstm_obs.weight_ih_l0 f4 [128, 2]
00000000: 583a e33c 66ae b0bd 38ff 12bd 9ef9 37bc
00000010: 0255 b2bc baec 3cbd b874 99bb a775 6a3c
00000020: 5a4a 323e 0095 283b d251 d0bd 0e05 3e3d
00000030: 223b ce3d fa85 0d3d d30e b73d 1013 c0bc
00000040: f79e e9bb 7bb8 05bd 505e b0bc 3b95 a03c
00000050: 97d3 28be 55ca c43d 1746 cabd a1f9 03be
00000060: 2b7e 02be 250b e53d b5c6 c6bd bc0c e0bd
00000070: b44b 6ebd 579d 0ebe d3ff 7a3d 4bab bd3d
00000080: bc07 5d3d b583 90bc da24 28bd d12e 873d
00000090: ab56 843c f6c4 253d 16c6 6fbb c733 4ebd
000000a0: 467e ab3d 4799 32bd 9e96 ffbc 72e1 053c
000000b0: d4eb b4bd 0eb9 cd3d c9eb 04be 03c1 23bd
000000c0: d61d 9ebb 0ed0 9c3c 40c5 d7bd 94ff de3d
000000d0: b8d9 243d 3873 6bbd b215 0ebe 5a4c e43d
000000e0: aae2 743d 2af7 2b3d 4ae7 cb3d d107 97bc
000000f0: bc70 e13d f108 f0bd 9a52 cf3c cebc 843d
00000100: 6ca7 f3bd 58fe 05bd 0d75 543d b34d 1abd
00000110: be60 b4bd 407d 35bd 9e99 06be 1490 20bd
00000120: c6f8 e5bd bfac 023e e829 cebc 9b1b d7bd
00000130: a068 0cbe baec bf3a f9ef 63bc aaa6 853c
00000140: 853e bf3b 2b55 283d 9f71 bf3d dbd4 83bd
00000150: 5620 d9bd b546 bbbd 4afc c7bd 9cf3 233e
00000160: 587d 0e3d 8c04 b43c 8ce0 1f3e 7fc6 34bd
00000170: c96b a0bd 658e 163e fb2c 82bd 21f3 c73c
00000180: 2cc7 64bc dc88 27be 608f 71bc 0e10 08be
00000190: 0691 2dbd e62a c53d b409 81bd 2b78 a73d
000001a0: 08dd 88bd 4e9b 0c3d 14d1 333d 495d 703d
000001b0: 0af2 2ebe 2c92 1fbe e0c2 423d c400 90bd
000001c0: 867b bbbd efaf d53c bccc bf3d da13 3f3d
000001d0: 45db 1bbd b6de 35bd 8c82 1dbe 1f0e 313d
000001e0: b53c 9bbd 9cea 30bd eab7 09be 0bc7 23be
000001f0: dfea 973c 0ab1 afbd 48b9 e4bc cddd 7bbd
00000200: 32be b23d 4b1b bc3d fdf6 533d 7ab9 473d
00000210: 5496 92bd 7d2f 23bd d452 3bbd 1780 e33d
00000220: bd82 b3bd c84d 9cbd e0a8 eb3d 6c78 7d3d
00000230: cf8c d5bd a603 c9bd 65d4 f0bb d0ab 093d
00000240: 3bc4 513d 4e86 7e3b 7c5b 3d3e d5e5 c5bd
00000250: 1778 243d c460 23be bf0e 0e3d 7224 bc3d
00000260: 9693 c73b 6d62 c8bc c7a5 18bc b29f cdbd
00000270: 9b0e 2abd 3c34 be3b c85b 433d a6de a53b
00000280: 011a 1b3e ba36 71bd 77ef bbbd af0e bd3d
00000290: 147c 49bd 3980 febd ca1d 1d3d fc8a af3d
000002a0: 157d 823d b4fd 8ebd 36cb 273d f8d5 863c
000002b0: 4ba7 a0bd 2ab5 ecbc 1175 a93d 874c 8f3d
000002c0: 2201 4fbd 753b 5a3d d708 123c 6420 b93c
000002d0: 6533 b33d 207a 6e3d 2378 ae3d 5a74 a63d
000002e0: 5d53 b83b 2969 a93b 159d 9dbd 69ef 923d
000002f0: 4271 55bd e4cc 07bd 7547 823d 0612 b43d
00000300: b467 ed3d d2cf babd 6ee5 d73d f201 08be
00000310: 0334 8b3c 8836 c2bd 7c01 b63d a067 83bd
00000320: 8174 1e3e dce6 023e 2fc2 b03c 44cf 26be
00000330: d8ad a03d b6f2 6f3d f7ee 26be 5141 b3bd
00000340: 9b28 1ebe e017 9c3d 8f1b e43d c94e 1bbe
00000350: 041f 693d 3e0f dd3d 8eca 20bb ebba 1dbe
00000360: 7f66 c9bd 813a 3dbd 1998 10be fbb1 a33d
00000370: d814 33bd 1174 de3d 08bf 14be 0150 b9bd
00000380: 52df 6ebb 1e66 8e3d ed88 febd b8c5 843d
00000390: 2b53 aebb de8f f6bc d831 1dbe 6088 fdbc
000003a0: 40c9 0f3e 0661 f5bd f0ef 29bd 58df bfbd
000003b0: c20e e13d eb66 29bd fa06 53bd 9f73 013e
000003c0: 42d8 9abd ef6d f03d 7752 19bd e199 98bd
000003d0: 7ed1 c23d c41e e8bd 30c7 90bd 5b23 9c3a
000003e0: 68d2 0fbe 28a3 eebd 0e15 05be 9d59 8f3c
000003f0: 9490 143d ff11 83bc 6e79 bcbd 5c36 fa3d
0.027737781 -0.08627014 -0.035887927 -0.011228947 -0.02176905 -0.046124198 -0.0046831034 0.014310277
0.17411175 0.0025723577 -0.10171856 0.04639154 0.100698724 0.034551598 0.08938374 -0.02344659
-0.007129546 -0.032646637 -0.021529347 0.019602409 -0.16486965 0.09608904 -0.0987665 -0.12888195
-0.12743442 0.11183766 -0.09705869 -0.10939929 -0.058177665 -0.13927208 0.06127913 0.09261187
0.053962454 -0.017640928 -0.04105077 0.066007264 0.016154608 0.04047104 -0.0036586574 -0.050342347
0.08373694 -0.043603208 -0.03119975 0.008171426 -0.08834043 0.10045062 -0.1298057 -0.039978992
-0.004825334 0.019142177 -0.10535669 0.108885914 0.040246695 -0.057482928 -0.13875464 0.111473754
0.059786476 0.04198376 0.09956224 -0.018436344 0.110078305 -0.117204554 0.025307942 0.06481324
-0.118971676 -0.032713264 0.05186944 -0.037671756 -0.088075146 -0.0443089 -0.13144538 -0.039199904
-0.112290904 0.1276121 -0.025166467 -0.10503312 -0.13711786 0.0014642694 -0.013912194 0.016314823
0.0058363103 0.041096848 0.093478434 -0.06437083 -0.10601871 -0.09144346 -0.09764917 0.16010898
0.034787506 0.021974824 0.15613002 -0.044134613 -0.078330584 0.14702757 -0.063562356 0.024407925
-0.013963502 -0.16360801 -0.014743656 -0.13287374 -0.042374633 0.09627323 -0.06300679 0.08177217
-0.06682783 0.034327798 0.043900564 0.058682714 -0.17084518 -0.15583104 0.04754913 -0.07031396
-0.091544196 0.026084868 0.09365222 0.04664979 -0.03805091 -0.044401847 -0.15381831 0.043226358
-0.07579938 -0.04319249 -0.13449064 -0.15993898 0.018544612 -0.085786894 -0.02792038 -0.061490823
0.08727683 0.09184893 0.05174922 0.04876087 -0.07157579 -0.03984021 -0.045733288 0.111084156
-0.08765171 -0.07632023 0.1150682 0.06188242 -0.10427248 -0.09815149 -0.007349538 0.03361112
0.05121253 0.0038837376 0.1849193 -0.096629776 0.04015359 -0.15954882 0.03468203 0.09186639
0.0060905917 -0.024460996 -0.009316868 -0.10040225 -0.041517835 0.0058045667 0.04769495 0.005061942
0.15146638 -0.058890082 -0.09176534 0.09231316 -0.049190596 -0.124268 0.038358487 0.08571431
0.06371514 -0.06981984 0.04096528 0.01645945 -0.078444086 -0.02889498 0.08274282 0.06997018
-0.05053819 0.05327936 0.00891324 0.022598453 0.08750037 0.058221936 0.08519008 0.08127661
0.005625172 0.005170007 -0.07695977 0.0717457 -0.052109964 -0.033154383 0.063612856 0.087925
0.115920454 -0.0912167 0.10541807 -0.13281992 0.016992575 -0.09483057 0.08887002 -0.06416249
0.1547413 0.12783378 0.021576969 -0.16290003 0.07845658 0.058581077 -0.16302095 -0.087526925
-0.15445177 0.07621741 0.11138069 -0.15166773 0.056914344 0.10793923 -0.0024534795 -0.15403335
-0.09834003 -0.04619837 -0.1412052 0.079929315 -0.04372105 0.10861982 -0.14525998 -0.09048463
-0.0036449027 0.06953071 -0.1242846 0.06483024 -0.005319973 -0.030097898 -0.15351045 -0.030948818
0.14041615 -0.119813964 -0.041488588 -0.09368771 0.10989143 -0.041357916 -0.051520325 0.12641762
-0.07560779 0.11739718 -0.03743216 -0.07451225 0.09512614 -0.11333993 -0.07069242 0.0011912392
-0.14045107 -0.11652213 -0.12996313 0.017498786 0.036270693 -0.015999792 -0.092028484 0.122173995

dest_lstm_obs.weight_hh_l0 f4 [128, 32]
00000000: f118 42bd a892 32be 0869 223e 8994 fd3d
00000010: e264 58bd 9587 943c af14 fa3d 4549 28bd
00000020: 473b 84bd 3c0e b4bd 165a 223e f7f2 93bd
00000030: 7c1c c23c ef15 0d3e 0029 6abd 00b0 09be
00000040: f690 b0bd a3c6 28be 53c9 b9bc ee60 7e3d
00000050: 8db5 96be d2ec d8bd 5cb2 ee3d a007 c0bc
00000060: d084 0e3e 4e8f 113e c62a 0abe e60f 18bd
00000070: e614 213e d306 cc3d f388 9e3d ff6a 373e
00000080: 4d07 463d a29e 14be f52e 283d 99d7 efbd
00000090: c3e7 643d 1073 18be 0797 a2bd e37a cb3d
000000a0: 9bf2 1c3e 2561 1e3d 0d04 f43c b35c 063e
000000b0: 30e9 9fbb 4373 a23c 6453 0d3e 10a5 1fbe
000000c0: 1c79 b73d 2480 333e a090 f9bc a4c2 5abd
000000d0: 50bf d23c 7a88 e0bd a2e7 96bd 4f50 ebbd
000000e0: 66c0 ff3d c00d 07be 3cff 213e e948 c83d
000000f0: f456 d3bc 1641 f53d 8d8c 0f3e 34b4 003e
00000100: 0abb a83d eba5 04bc 98c6 0d3e cf4b a33d
00000110: a4b6 cebd 34b6 443d b854 55bd feaf bb3d
00000120: 4d90 a33c 16a0 903d 340f 523e df7a 8b3d
00000130: 122b 523e c292 163e 9e34 1e3e bc91 56bc
00000140: c2e1 fdbd b667 873d 5386 923d aac4 aa3d
00000150: f2ee 313e dbde 55be 2adc e1bd dce3 37be
00000160: 3e80 18be bd20 77bc bc9d 0a3e d278 d43c
00000170: b20c 02be 336a acbd ea39 173e cb5e d73d
00000180: f2d6 ef3d 2250 8e3d beb6 39be 32e6 ffbc
00000190: 7ba8 6d3e 46ce 1d3e 96d3 cbbd 5ea7 c23d
000001a0: 9930 b4bd 3815 c7bc 0843 df3b bdc6 043d
000001b0: c59a d6bc 55e3 663d 72e2 c53d 485c f1bd
000001c0: 22e8 f2bd ed0d c43d 1c48 a8bc 3110 23bc
000001d0: c007 6dbd 78eb 033e 52d6 843c 5ba3 12be
000001e0: 6528 85bb 7cbf 6ebd ff80 09be 6112 093e
000001f0: 6210 09ba c30b b53d aa03 123e 59d3 44be
00000200: 3a02 d6bd 52b6 2c3e edd4 943d b1c8 42be
00000210: 73d7 1cbe 503c f73d d20e bcbd 1188 143d
00000220: 57d8 173e d5ed c3bc 0d9d afbd cee1 ed3d
00000230: b6d1 abbd b461 22be eb70 5abe d83b 1a3e
00000240: 5f1d a9bd 2a2f 843d c10f 03be b21c 3fbd
00000250: 5176 103e 0087 1cbc e2cf 4fbe de33 863d
00000260: f252 703d b042 973c afdd 56bd f503 0b3e
00000270: 546d e3bd 699f 60bd 7090 d6bd d388 a0bd
00000280: b180 0bbc 5562 25be e922 4cbe a857 6cbd
00000290: 3282 933c 257f 14be 89df e5bd 464b 613d
000002a0: 1660 b0bd f59d afbd 34f0 a93d 8f10 5dbd
000002b0: 02e8 b7bd 68ef 8d3a 6126 d5bb f686 6bbd
000002c0: 0aab b7bd ef0c 9cbc 1756 253e 7050 203e
000002d0: 61db 7c3d 79b0 0d3c 2f31 d5bd a174 2f3e
000002e0: b45c 51be dff2 0b3d 3ded 16be d42e c03d
000002f0: bf00 2abd 6bab 233e 4515 66bd 878f f2bd
00000300: 3f79 0c3d fdbb 6c3d 360d 16be a064 27be
00000310: 28bd 6f3d ae29 b53d 7be3 eb3d 6b64 073e
00000320: ca23 f93d d511 f4bd 1085 283d 1b5e 2dbd
00000330: 0015 16be 267a 3fbe daf0 1dbe efc5 93bc
00000340: 1ccb 32be fc5f a9bd 95f3 823c 466b b7bd
00000350: abb9 433e 8e95 32be 77b9 383e 4881 bb3d
00000360: 827c 4abd ad39 e1bb 2656 2abe cf2b cc3d
00000370: 3e64 123e f7b4 3abe 9ccb e23d 141e 813d
00000380: beb9 a2bc 4e0c 17be 6cad 46be 786a b6bc
00000390: 6d79 9fba c6ad 0bbe 8a95 623d ee28 ca3d
000003a0: dfcd c33d ccd3 ccbc b07e 61bd 3e88 a53d
000003b0: 1dab 303d f709 47be 4fcf 7ebc bf41 183e
000003c0: 7112 f0bd a33a 003d 05a8 5cbc b6a0 83bd
000003d0: b135 04be 8c0f c7bc 3632 cb3d 2519 35bd
000003e0: 5d87 64bc c4f9 e63b 802e e93d 3569 d03d
000003f0: 1e7e 75bd 14fe abbc ef31 403c 8267 643d
-0.047387067 -0.17438757 0.15860379 0.123818465 -0.052830584 0.018131057 0.12210976 -0.0410855
-0.06456619 -0.087917775 0.15854678 -0.07224076 0.023695223 0.13777898 -0.057168007 -0.13446045
-0.08621399 -0.16482024 -0.022679007 0.062104158 -0.29435387 -0.10592045 0.11655113 -0.023441136
0.13917851 0.14214823 -0.1349288 -0.037124537 0.15730628 0.09962239 0.07740965 0.1791191
0.048346806 -0.14513639 0.041060407 -0.11711044 0.055885088 -0.14887643 -0.079389624 0.09935548
0.15326922 0.038666863 0.029787088 0.131213 -0.004880093 0.019830352 0.13801342 -0.1559031
0.08958647 0.1752935 -0.03046447 -0.05340828 0.02572599 -0.10963531 -0.07368399 -0.11489927
0.12487869 -0.13188839 0.1582002 0.097795315 -0.025798298 0.11975305 0.1401846 0.12568742
0.082388 -0.008096199 0.13845289 0.07973444 -0.1009343 0.048025325 -0.052082747 0.09164427
0.019966269 0.07061784 0.20513612 0.06810545 0.20524243 0.14704421 0.1544976 -0.013096269
-0.123965755 0.06611578 0.071545266 0.08338292 0.17376307 -0.20885794 -0.11028321 -0.17958015
-0.1489267 -0.015083489 0.13536733 0.025936518 -0.12700155 -0.084186934 0.14768186 0.10516127
0.117109194 0.06948878 -0.18136117 -0.031237695 0.23208801 0.15410718 -0.09952466 0.09504579
-0.08798332 -0.02430211 0.0068134107 0.032416094 -0.026196847 0.056369144 0.09662332 -0.117851794
-0.11860682 0.09572969 -0.020542197 -0.009952591 -0.05786872 0.12882793 0.016215477 -0.14320128
-0.0040636533 -0.058288082 -0.13428114 0.13385917 -0.00052285765 0.08840134 0.1425921 -0.19221248
-0.104496434 0.16866425 0.07267175 -0.1902187 -0.15316562 0.120720506 -0.09182514 0.036262576
0.14828621 -0.023917118 -0.08574877 0.116153345 -0.083896086 -0.15857583 -0.21332137 0.15061891
-0.08257555 0.06454308 -0.12798978 -0.046658225 0.14107634 -0.009553671 -0.20294145 0.06552862
0.058672853 0.018464416 -0.052457508 0.13575728 -0.11104837 -0.054839525 -0.10476768 -0.07838597
-0.008514569 -0.16150792 -0.19935192 -0.057700783 0.018006418 -0.14501627 -0.112242766 0.055003427
-0.08612077 -0.0857505 0.08297768 -0.05397087 -0.08979799 0.0010828795 -0.0065048193 -0.057501756
-0.0896817 -0.019049136 0.16146122 0.15655684 0.061732654 0.008648031 -0.10409772 0.17134334
-0.2044552 0.034167167 -0.14738937 0.09383932 -0.041504618 0.1598336 -0.056172628 -0.11843782
0.034295317 0.057796467 -0.14653477 -0.16346979 0.058530003 0.088458404 0.11517998 0.132219
0.12165029 -0.11917464 0.041142523 -0.042326074 -0.14656448 -0.1869894 -0.15423909 -0.018038718
-0.17460293 -0.08270261 0.01598529 -0.08956008 0.19113795 -0.17439863 0.18039499 0.09155518
-0.049435146 -0.0068733306 -0.16634426 0.09969293 0.14296052 -0.18233095 0.11073992 0.06304565
-0.01986396 -0.14750788 -0.19402093 -0.022267565 -0.0012166925 -0.13640508 0.055318393 0.09871088
0.09560751 -0.025003336 -0.05505246 0.08082627 0.043131936 -0.19437395 -0.015552356 0.1486883
-0.117222674 0.03130592 -0.013467793 -0.064271376 -0.12911107 -0.024299406 0.09921686 -0.044213433
-0.013948289 0.0070488174 0.11385822 0.10176317 -0.059934728 -0.020995177 0.011730655 0.055762775

dest_lstm_obs.bias_ih_l0 f4 [128]
00000000: c0c6 313e 1909 c2bd d0fc 4abd 7a34 2dbd
00000010: 696e 853d b7b8 19bd 3774 f8bd 4cb7 6ebd
00000020: d8b9 f0bd 0af1 983d 4a5b 353d fd8c 0dbd
00000030: ee3c a7bd 70cb debd 7875 5dbc e00c 1abd
00000040: 4e09 60be e8bc 39be 5a6c 1d3e 7eb3 5b3d
00000050: 4014 ca3d d1de b4bb ca1c 103e e6da d13a
00000060: dede 99bd d75b a3bd f183 e8bd 0747 09be
00000070: 70f8 4c3e ecd7 653d ed01 dd39 7457 b0bd
00000080: 64fc 463d 2cb9 a33c 1801 95bd f689 2dbe
00000090: de43 403e 2add 923d 262e dbbc d560 17be
000000a0: 900a ab3d 092d 183e 2afc 68be 0ed9 0dbd
000000b0: 39bd 193e 3491 7dbc 7399 a3bd 0b0a 2cbd
000000c0: 35f3 68be fef3 04be e660 08be bbab 8c3d
000000d0: a3b4 2abe 14d1 9a3d 31f1 f03d 0db3 fcbc
000000e0: 7087 77bd e898 313c e052 473c 6bfc 033e
000000f0: 1c87 673e 43a8 943d ae5e b33d 9fb4 d8bd
00000100: a963 013e 17c6 c83d e2b0 d03d 221b 09be
00000110: 69b1 b1bd 1ba7 0f3e 3dfb e1bd 4f1e f0bc
00000120: 38da a63d 482b 5e3e 48cb 073c 4afd 9cbd
00000130: fbe6 24be f9a4 21bc fb4d bfbd 68f3 463e
00000140: a2b1 ad3c e8dd 49bc 440a 61be 6d7d 27be
00000150: 8611 c53d 155b a0bc de8d 643d 62e4 4bbd
00000160: 81ea 27bd aa74 cebd f899 01be 9172 de3c
00000170: 2867 83be f744 28be 7840 1dbe d731 173e
00000180: 9ca6 ffbd c9bb a9bc b019 f23d 8ddb fabb
00000190: 1a7a 25bd 757f f73d 3c03 653d 6cce 043e
000001a0: 4b26 4c3a 08b0 12be 1ac6 30bd 360f 3cbd
000001b0: 029e ba3d 1ade 4ebc 8ab5 3fbd 1ad1 eebd
000001c0: 427a c63d 4848 93bd bd91 2abe f67f 13be
000001d0: 6ed2 53be f368 0d3e c0aa 83bd 1d19 24be
000001e0: 4e42 d6bb 17fe c5bb 3a4d 103e 965f 2cbe
000001f0: afc7 893d 0235 953c 1043 00be 445e e5bd
0.17360973 -0.094743915 -0.049557507 -0.042286374 0.065152 -0.037529673 -0.12131541 -0.058280274
-0.11754197 0.074678496 0.044276513 -0.034558285 -0.08165918 -0.108786464 -0.013516776 -0.037609935
-0.2187855 -0.18138468 0.15373364 0.053637974 0.09867144 -0.005519726 0.14073482 0.0016010671
-0.07513212 -0.079765014 -0.11353291 -0.13406001 0.20016646 0.056114122 0.0004215384 -0.0861043
0.048580542 0.019985758 -0.07275599 -0.16947159 0.1877589 0.0717109 -0.026755404 -0.14783032
0.08351624 0.1486093 -0.22752443 -0.034630828 0.15013589 -0.015476514 -0.079882525 -0.042001765
-0.22749026 -0.129837 -0.13318214 0.068686925 -0.1667047 0.0755941 0.117647536 -0.030847097
-0.060431898 0.010839678 0.012165755 0.12889259 0.22610134 0.07258656 0.08758293 -0.10581326
0.12635674 0.09803408 0.10189988 -0.13389257 -0.086764164 0.1402859 -0.11034248 -0.029311327
0.08147091 0.21696198 0.008288212 -0.076654986 -0.16103737 -0.009865993 -0.093410455 0.1942879
0.021202866 -0.012320973 -0.21976572 -0.1635644 0.09622483 -0.019574681 0.055799358 -0.04977835
-0.040995125 -0.10080846 -0.1265639 0.027154239 -0.2566464 -0.16432558 -0.15356624 0.14765106
-0.1248295 -0.020719426 0.11821306 -0.007655567 -0.04039965 0.120848574 0.055911288 0.12969369
0.00077876885 -0.14324963 -0.043157674 -0.045912944 0.09112169 -0.012626195 -0.04680399 -0.11660977
0.096912876 -0.07191521 -0.16657157 -0.14404282 -0.20685741 0.13809566 -0.06429052 -0.16025205
-0.006538666 -0.0060422528 0.1409196 -0.16833338 0.0672754 0.018213753 -0.12525582 -0.1119962

dest_lstm_obs.bias_hh_l0 f4 [128]
00000000: 6e21 b03d 825a bbbd abcd 2dbe c6c1 18be
00000010: 88d2 c63a e8aa 4fbd 4dda 88ba 5270 e03c
00000020: 9e26 80bc b016 8e3d a90d 833d 14d1 f6bd
00000030: ddf6 0bbe 7af0 25be 974c b33d 6ebd 01be
00000040: 442b 0abe fd55 ea3d 9ecb af3c f132 e23d
00000050: 4890 20be bab8 5dbe 746a f4bd 10bf b03d
00000060: 392b dcbd 3c25 783d 78cd e6bd fd41 773c
00000070: 31cb 09bc 25e3 6d3d a452 e33d bba6 c5bd
00000080: 25fa e0bb 2e47 0fbe d179 89bd 9fa1 02be
00000090: 3e03 603d 0814 89bd cdcc 983d 32f3 e9bd
000000a0: 360a 85be 6947 25be 0f28 4bbe 2048 3c3d
000000b0: 0088 f3bc ab76 42be 23f6 273d 6c87 903c
000000c0: 8100 193d 1d66 28be 463e babd 197b 17bd
000000d0: c653 65be 3c04 2f3c 480f 24be 02d4 bbbc
000000e0: 424f 3d3e 4ea0 d33d 2fc5 dc3c 53ff debd
000000f0: 077a febc 719e 0dbe 6b2f 29be 3b69 22be
00000100: a051 e23d 8b1e 263e c22e c73c 5c6f 6dbd
00000110: 7052 bdbe 9176 963d 5846 b73d c092 ba3d
00000120: 5eb1 773c 0796 88bd d0d8 8fbd f442 8a3c
00000130: ed51 bf3c a7bc 21be 9281 9dbd 0358 433e
00000140: 38cd 113e 74e2 48bd 7d14 dbbd 855a 2cbe
00000150: 145b 88bd 9eb4 fd3d ca91 20bd 4a8f 463e
00000160: 241a 5a3e 1bc4 823d 4e4b cb3d 5197 143e
00000170: c9f9 bcbd 04d2 33bd 42ec 003e 9d1e 063e
00000180: 2b43 38bd ff59 b3bd dbe9 e6bd 5547 0abe
00000190: 8216 473d 52bf 23be dd7f 00bd ccca da3d
000001a0: 4182 a8bb 305d f33d 34d8 27be 63d7 d2bc
000001b0: 7cae 753d 30e8 a63d abf6 3ebe fe46 0dbd
000001c0: 72ce a63d 1af2 f2bd 329f af3c e49b da3d
000001d0: 15ca e83c fe9d 44be d100 3ebe c34f 48be
000001e0: 9d80 02be cf33 35bd a171 b83d 3ff6 e1bd
000001f0: 7059 433d 44c3 0a3e e9d1 86bc 2a06 e23d
0.08600126 -0.09148122 -0.16972987 -0.14917669 0.0015168944 -0.0507001 -0.0010441035 0.027397308
-0.015643414 0.06937921 0.0639909 -0.12051597 -0.1366839 -0.16205016 0.08754843 -0.12669918
-0.13493067 0.11442182 0.021459397 0.110448726 -0.15680039 -0.21652499 -0.11934367 0.08630192
-0.107504316 0.060582384 -0.11269659 0.015091416 -0.008410261 0.05807795 0.11099747 -0.09650942
-0.006865757 -0.13991997 -0.06712688 -0.12756966 0.054690592 -0.06693274 0.07460938 -0.11423339
-0.25984353 -0.16140522 -0.198395 0.04596722 -0.029727936 -0.1899058 0.04100622 0.0176427
0.037353996 -0.16445203 -0.09093909 -0.03698263 -0.22395238 0.010682162 -0.16021454 -0.022928242
0.18487266 0.1033331 0.026949493 -0.10888543 -0.031064047 -0.13829972 -0.16521995 -0.15860455
0.11050725 0.16222589 0.024314288 -0.05796753 -0.36976957 0.073468335 0.08948964 0.091100216
0.015117971 -0.066692404 -0.070237756 0.016877629 0.023354495 -0.15794621 -0.07690729 0.19076543
0.14238441 -0.049044088 -0.10697267 -0.16831405 -0.06657997 0.123879656 -0.039201535 0.19390598
0.21299034 0.063850604 0.099264726 0.14510848 -0.0922733 -0.04390146 0.12590125 0.13097616
-0.04498593 -0.087574 -0.11275073 -0.13503774 0.04860545 -0.15990952 -0.03137194 0.10683212
-0.0051424806 0.118830085 -0.16391069 -0.02573747 0.059980854 0.08149755 -0.18648784 -0.03449153
0.08144845 -0.118625835 0.021438215 0.10674265 0.028416673 -0.19200894 -0.18554999 -0.19561677
-0.12744375 -0.04423886 0.09006048 -0.11033296 0.047692716 0.1355105 -0.016457515 0.11036332

dest_lstm_fut.weight_ih_l0 f4 [128, 2]
00000000: 1933 993d 7689 703d 4535 a6bd e3a6 643d
00000010: d5a1 26be 0e96 453d d3cd 2abe d6df 7dbb
00000020: 2826 1cbe 8f1d f53d 1416 69bc 2f17 c7bd
00000030: c6f8 82bd f18a e6bd 9a21 bcbd 37fa cabd
00000040: 8391 08be baa6 cd3c a689 88bd 17e8 0e3d
00000050: dd7f 4b3d 1a2d bdbd 6c5a 913d 214f 8a3d
00000060: 81ab 04be 8b2b 1c3c 33a5 cebd 6c55 20bd
00000070: 195f ce3d ad1e a83d c594 803c 7235 0bbe
00000080: 5e2a 233e 6ada 183e e91c 8d3d 45d4 b9bd
00000090: 4210 ca3d 559a f93c b9bc d03d 22d2 863d
000000a0: 6614 bdbd ec32 95bd 7c4f c6bd 91b0 55bd
000000b0: 2e34 373d be29 37bd d7a0 313d 6add f7bd
000000c0: 4ce8 82bb 7d0c 923d c89f bbbc 0f09 bb3c
000000d0: 86b5 b0bd eefc 693c bc72 c13d ca11 3abe
000000e0: 9d6e 293e cd7e a2bd a80d be3d 7e44 343d
000000f0: 4c7f febd 50bb e0bd 0f75 a73c 0145 e1bd
00000100: 6036 2cbe 4e7c fe3c da78 50bd 4dc0 0bbe
00000110: 3180 123e 1993 edbd e685 a63d 5b0b 86bd
00000120: b45a e93d e016 b43d 5664 e9bd 4450 453d
00000130: c9c0 d53d d6b6 f53d a5fa 293d 8ec4 dcbd
00000140: 592c f6bc da18 81bb afdd 8bbd e81a cabd
00000150: 98c7 3dbe 6181 2cbd ba98 f9bd 6845 c1bd
00000160: 0e7c b3bb 1cca c33c 010c ebbd 4c97 423d
00000170: b197 d63d b46b 01be 0e4a bf3d 9c4c 0c3e
00000180: 2af4 13be 0851 cc3c acbe 953d d87c be3b
00000190: c866 60bd c2ec 23be c92b 823c a4ff d73d
000001a0: 6f4d 16be 60db e0bb e88b 8dbd 39c4 5d3d
000001b0: 7800 32bd 456a 2cbe bcca 3b3b e2ba 793d
000001c0: b1c6 56bd d060 0cbe 5ff0 bcbb fd88 80bd
000001d0: 2256 883b 5193 d0bc a5c7 28be e074 553d
000001e0: f671 98bd 8d7d af3d 8347 3ebc ec9c fcbd
000001f0: feb8 a23d b748 783d 8d15 27be cbae f83d
00000200: a821 e5bd d2e8 6f3d 6e3f 643d 33da e23d
00000210: c8f6 b13c 1c86 a33d cddd ab3d b5fd c3bd
00000220: 04b0 82bd 5ad8 69bd 8651 eebc 4982 853d
00000230: 7311 9fbd 0b18 94bd a694 ffbc 3a73 c0bd
00000240: 516b e9bd 67d0 a13d ccf2 3e3d ee4d c0bd
00000250: 9f0b ad3d 4413 d4bd fe0c 97bd 300d 89bc
00000260: 8a89 5fbd 563f e93d 3682 7e3d 872d 403d
00000270: e21b 7f3b fc77 d73d f9ab c7bc edaf 1ebd
00000280: 7e03 a4bd b50f 993b fea5 913c 0ab2 db3c
00000290: ed62 31bd 09e2 9ebd a095 04bd 1c42 24bd
000002a0: 73fc 5a3d ded8 85bd 99a2 a3bc e76f f53d
000002b0: 1b29 3fbd 110c 2dbc 3940 3c3d 4c31 f93c
000002c0: 6bcf 0e3d 7fb4 a33d 9816 973d 597b 913d
000002d0: 8a2f e6bd 2423 583d fecc bb3c b795 1e3d
000002e0: afc5 e13c 590b 82bd b05e f83d 78ad 7e3d
000002f0: 1092 b43d 4a06 23bd 3885 093e 5644 d33d
00000300: 8c32 9a3d f0ef b7bd ce43 a73d 0cac 04bd
00000310: d4d1 ef3d dcd2 c4bc d2b5 593d 32cd af3d
00000320: 8f51 cdbd 768c 0ebe ed86 793d a7b3 e9bd
00000330: 4aa6 29bc 7e4a a53d 1409 6dbd cd5f 4d3d
00000340: a6a5 ee3c f892 2c3d 0e61 683a b5ac 82bb
00000350: be04 4c3d 9920 97bc 0366 cf3b c4de 19bc
00000360: 3221 18bd 4ecb 42bc 469f 0f3e f2de 0abe
00000370: 30cf 913d df89 58bc 0b72 14bc 482a 77bd
00000380: 3816 c13c 1ead 343d b14a a8bd 1203 dabd
00000390: 8e56 d43d 2fce 083e 1cc8 5c3d 1d99 9bbd
000003a0: 7ecd d4bd ed0f 3fbe 8b1c d83d 1d01 283c
000003b0: 87df 07be 1514 073e befb e2bd 09d4 0e3e
000003c0: d74f 00bd 618c 07be 8aa3 003e 6d55 9abd
000003d0: f7a3 f43d df27 acbd 33e0 333d b9e8 093d
000003e0: ff85 89bd 12a3 b3bd c7ae 003e 0354 3ebd
000003f0: ea25 2c3d 44a5 8fbc 2294 cd3d a043 143d
0.07480449 0.058724843 -0.08115629 0.055823218 -0.16272672 0.048238806 -0.16680078 -0.0038738153
-0.1524893 0.119685285 -0.014226455 -0.09721219 -0.06395106 -0.1125697 -0.091860965 -0.09911006
-0.13336758 0.025103915 -0.06666879 0.034889307 0.049682487 -0.09237118 0.07097325 0.06753374
-0.12956049 0.009531866 -0.10090103 -0.039143965 0.10076732 0.08208976 0.015695939 -0.13594607
0.1593413 0.14927068 0.0689028 -0.0907369 0.09866382 0.030469099 0.10192246 0.065830484
-0.09232406 -0.07285103 -0.09683129 -0.05217034 0.044727497 -0.044717543 0.04336628 -0.12102778
-0.003994977 0.07131288 -0.022903338 0.022831468 -0.08628373 0.014281495 0.09445712 -0.18170848
0.16546102 -0.079343416 0.092799485 0.04401063 -0.12426624 -0.10973227 0.02044156 -0.109994896
-0.16817617 0.031065132 -0.050896503 -0.13647576 0.14306714 -0.11600322 0.08131008 -0.06545135
0.113942534 0.087934256 -0.11396091 0.04817225 0.104371615 0.11997764 0.0414988 -0.10779677
-0.030050443 -0.00393973 -0.06829392 -0.09868413 -0.1853317 -0.042115573 -0.121873334 -0.09437066
-0.005477435 0.023900084 -0.11476899 0.04750757 0.104781516 -0.12638742 0.09340297 0.13701099
-0.1444861 0.024940982 0.073117584 0.0058132224 -0.05478552 -0.16008285 0.015890019 0.105468065
-0.14677976 -0.006862089 -0.069114506 0.05414221 -0.04345748 -0.16837414 0.0028654775 0.06096924
-0.05243558 -0.13708806 -0.005765959 -0.062761284 0.0041606585 -0.025460871 -0.16482408 0.052113414
-0.07443611 0.08568869 -0.011613729 -0.12334618 0.07945441 0.06061622 -0.16316815 0.12142714
-0.1118806 0.058571644 0.055724554 0.110767744 0.02172412 0.07984564 0.083919145 -0.09569875
-0.063812286 -0.057091095 -0.029091608 0.065189905 -0.07767 -0.07231148 -0.03119881 -0.09396978
-0.11397422 0.07901078 0.046618268 -0.09389864 0.08449482 -0.10355237 -0.07375525 -0.016729921
-0.054574527 0.113890335 0.062135898 0.04691842 0.0038926532 0.10520932 -0.024373995 -0.038741995
-0.080084786 0.004671062 0.017779347 0.026818294 -0.043307234 -0.077579565 -0.032369256 -0.04010211
0.05346341 -0.06535505 -0.019974994 0.11984234 -0.04667006 -0.010561959 0.045959685 0.030419014
0.034865778 0.07993411 0.07377356 0.07103605 -0.11239536 0.052767888 0.022924896 0.038716998
0.027560083 -0.06349821 0.12127435 0.06217715 0.08816922 -0.03980092 0.13429725 0.103157684
0.07529172 -0.08981311 0.081672296 -0.03239064 0.117099434 -0.024026327 0.053151913 0.0858406
-0.10025322 -0.13920769 0.06091969 -0.11411219 -0.010354588 0.08070849 -0.057869986 0.05014019
0.029131722 0.042132348 0.000886456 -0.0039878734 0.04980921 -0.018448161 0.0063292994 -0.00939149
-0.037141033 -0.011889292 0.14025602 -0.1356161 0.07119596 -0.013216465 -0.009060393 -0.060343057
0.023570165 0.04411041 -0.08217371 -0.10645117 0.103680715 0.13359903 0.053901777 -0.075975634
-0.10390757 -0.18658419 0.10552319 0.010254172 -0.13268863 0.13191254 -0.11083172 0.13948072
-0.03132614 -0.13237144 0.12562385 -0.07535825 0.11945336 -0.08406042 0.043914985 0.033669207
-0.06715011 -0.087713376 0.12566672 -0.04646684 0.042028345 -0.01753486 0.1003802 0.036197305
