src/do_tp_federated_federated_round_5.pt (torch, 157077 bytes, 26 tensors)

linear_enc.weight f4 [64, 2]
0.48943692 0.55325186 0.43450886 0.057391588 0.58718544 0.41696882 0.44407898 -0.67483735
0.27173328 -0.53969574 0.06332173 0.2825711 -0.4681202 0.3914392 0.2551092 -0.3068068
0.06126093 -0.13956979 -0.43909776 -0.17612155 0.31325784 0.03870801 0.4834624 -0.6567531
0.45518827 0.1443264 -0.2340153 -0.9959922 -0.14072423 -0.24344778 0.44812244 -0.06660937
-0.7152647 -0.66941786 -0.6145729 -0.16831627 0.6002113 -0.76090586 0.32155302 -0.4020188
0.50539184 -0.8967939 -0.61227745 0.77797496 -0.48758596 0.21916565 -0.1594247 -0.061995752
0.3440027 -0.4787624 0.25497934 0.0912696 -0.5182349 0.15104212 0.7393497 0.33790427
0.093867406 0.36777613 0.66560596 0.056590755 -0.24417597 0.7624809 -0.7206957 -0.4307177
0.4991863 -0.39335352 -0.2729072 0.86940134 -0.51289433 -0.25032562 -0.48815414 0.84443706
0.4170656 -0.85649943 -0.059044924 0.54520094 0.6151659 0.9077901 -0.71951246 -0.43914008
0.5941337 0.267442 -0.4419897 -0.9793376 0.773388 0.13014093 -0.21492817 -0.055650406
-0.37569493 0.10796572 -0.24603581 0.6315645 -0.6967176 0.43576324 0.5477934 0.6198452
-0.14459857 0.03089446 -0.6905189 0.1197173 -0.40184364 0.5784556 -0.6251762 0.3942654
-0.8040372 -0.4477583 -0.14171533 0.29599196 0.7307948 0.43069676 -0.04141705 0.37857777
-0.22971773 0.543982 -0.13745746 0.5990703 -0.6801864 -0.7117318 -0.75340694 0.21979062
0.29756448 0.14748989 -0.133736 0.60264695 -0.18656391 0.035943605 -0.27189448 -0.09562538
00000000: 7a97 fa3e eaa1 0d3f f277 de3e 7113 6b3d
00000010: c951 163f f07c d53e 525e e33e 24c2 2cbf
00000020: a020 8b3e 8029 0abf d3ae 813d 29ad 903e
00000030: 73ad efbe b86a c83e ac9d 823e c815 9dbe
00000040: beec 7a3d 62eb 0ebe 6cd1 e0be 3559 34be
00000050: 5563 a03e 4a8c 1e3d 6288 f73e f920 28bf
00000060: 700e e93e 4dca 133e b5a1 6fbe 58f9 7ebf
00000070: 031a 10be 604a 79be 4e70 e53e 7e6a 88bd
00000080: 961b 37bf f85e 2bbf a654 1dbf 1a5b 2cbe
00000090: 73a7 193f baca 42bf 99a2 a43e 68d5 cdbe
000000a0: 5c61 013f 4994 65bf 37be 1cbf 5e29 473f
000000b0: dea4 f9be f66c 603e 3b40 23be 42ef 7dbd
000000c0: 1f21 b03e 5820 f5be a78c 823e 8eeb ba3d
000000d0: 0bab 04bf c9aa 1a3e 0646 3d3f ca01 ad3e
000000e0: 8e3d c03d 274d bc3e 2765 2a3f b5cb 673d
000000f0: 4409 7abe f331 433f 837f 38bf 0887 dcbe
00000100: 5995 ff3e a265 c9be 7eba 8bbe 1691 5e3f
00000110: 0b4d 03bf ae2a 80be 57ef f9be 072d 583f
00000120: 9f89 d53e 8c43 5bbf 17d9 71bd 4a92 0b3f
00000130: 837b 1d3f ef64 683f f831 38bf f8d6 e0be
00000140: 2519 183f 28ee 883e 794c e2be deb5 7abf
00000150: c2fc 453f aa43 053e 2116 5cbe aef1 63bd
00000160: 165b c0be 221d dd3d d0f0 7bbe 36ae 213f
00000170: 165c 32bf 5c1c df3e 303c 0c3f 2dae 1e3f
00000180: a611 14be 6116 fd3c d9c5 30bf 582e f53d
00000190: 73be cdbe ab15 143f 8c0b 20bf 28dd c93e
000001a0: 62d5 4dbf 9340 e5be d31d 11be 428c 973e
000001b0: 5e15 3b3f 4984 dc3e eda4 29bd f2d4 c13e
000001c0: 203b 6bbe 6842 0b3f a6c1 0cbe ac5c 193f
000001d0: b220 2ebf 0e34 36bf 47df 40bf cb10 613e
000001e0: 5f5a 983e 9707 173e 17f2 08be 1247 1a3f
000001f0: 9c0a 3fbe 9a39 133d c135 8bbe 3dd7 c3bd

linear_enc.bias f4 [64]
0.1935725 -0.63558054 0.08985112 -0.39781833 -0.43295208 -0.65899336 0.28486508 -0.34595814
0.27559787 0.30878446 0.08072852 -0.16585962 -0.017035384 0.007880296 -0.33502442 -0.4159025
-0.062356524 -0.46764982 0.0677342 0.14731172 0.5681919 0.17789215 0.6167222 0.36815536
-0.61404085 0.4037146 -0.2782686 0.19205369 -0.0034240643 -0.26266608 -0.054569386 -0.7000337
-0.41377574 0.60902494 -0.31287053 -0.40800378 -0.22801492 0.39741337 -0.027667895 0.58867234
-0.57342184 -0.408588 -0.47081694 0.29626325 0.6015682 0.5950924 0.66641176 0.12928875
-0.5137943 -0.32805815 -0.36096254 -0.019356202 -0.32500076 0.60329473 -0.66339487 -0.5555573
0.66281056 0.13232595 0.31311113 -0.107516244 0.27580637 0.3398528 0.18847474 -0.5112127
00000000: df37 463e 68b5 22bf dd03 b83d d8ae cbbe
00000010: e5ab ddbe cab3 28bf d6d9 913e 6d21 b1be
00000020: 2a1b 8d3e ff18 9e3e ff54 a53d 1bd7 29be
00000030: ca8d 8bbc 5b1c 013c 5288 abbe 2cf1 d4be
00000040: 8e69 7fbd cc6f efbe 3ab8 8a3d e2d8 163e
00000050: 0675 113f 5c29 363e 82e1 1d3f dc7e bc3e
00000060: c831 1dbf aeb3 ce3e 3979 8ebe b9a9 443e
00000070: 4466 60bb 2b7c 86be 2684 5fbd 6935 33bf
00000080: 6ada d3be 0fe9 1b3f 9130 a0be dfe5 d0be
00000090: be7c 69be c479 cb3e c8a7 e2bc 3bb3 163f
000000a0: c6cb 12bf 7232 d1be eb0e f1be d1af 973e
000000b0: 6000 1a3f fa57 183f f699 2a3f 4564 043e
000000c0: 0688 03bf 3df7 a7be 15d0 b8be e690 9ebc
000000d0: 8066 a6be 8671 1a3f 3fd4 29bf 0139 0ebf
000000e0: f4ad 293f 7480 073e 1a50 a03e 7a31 dcbd
000000f0: 7e36 8d3e 3001 ae3e 86ff 403e d6de 02bf

encoder_lstm.weight_ih_l0 f4 [128, 64]
0.1650544 0.116931476 0.1805941 -0.15892383 -0.012281999 -0.1188996 0.158544 -0.12383739
0.16822895 0.12573552 -0.09132686 0.11635791 -0.013896214 -0.07079555 -0.20667985 -0.17399569
0.1133578 -0.056255415 -0.06482097 -0.088557035 0.092959955 0.18562311 -0.13155924 -0.06802999
0.08179915 0.12847161 -0.1412433 0.09196358 0.0788271 -0.07241853 -0.16769083 -0.14192808
0.031239036 0.107032 -0.20320328 -0.052828923 -0.16292357 -0.106692456 -0.08590005 -0.073020004
0.103232525 -0.026254673 0.09106842 0.2045889 -0.12149197 -0.07669805 0.17368752 0.15610605
-0.20960104 0.019197414 -0.11749853 -0.075284235 0.027866762 0.15277039 -0.10131609 -0.13307054
0.057224207 -0.058135983 -0.081928276 -0.079821505 0.082485184 0.003651434 0.054641034 -0.010474222
0.09796734 -0.3986553 0.03710965 -0.009816833 -0.05890235 -0.29598224 0.3024021 -0.2753505
0.3195491 0.41237506 0.13710636 -0.113261774 -0.1525337 0.342247 -0.2465315 -0.30634743
0.04525427 -0.413845 0.19322917 0.48056957 0.19227378 0.035209406 0.18539277 0.3912936
-0.24706492 0.068937205 -0.39839995 0.101862326 -0.36327884 -0.082059436 -0.29035345 -0.058737006
-0.23230663 0.20720032 -0.37060034 -0.28296295 0.09145161 0.12406567 -0.24542631 0.37597948
-0.11945647 -0.122157454 -0.07369153 0.35175705 0.29885522 0.3453557 0.3422199 0.016617222
-0.35235023 -0.12019396 -0.20945337 -0.26377726 -0.25727266 0.3490789 -0.267513 -0.14665149
0.047143094 0.09454091 0.25123733 -0.33031216 0.38585544 0.044279784 0.12373054 -0.24416703
0.083622806 -0.041514613 -0.12858443 0.012796914 0.018209627 -0.0060432125 -0.1478148 0.091527045
0.112988986 0.029382184 0.13300666 0.101116866 0.041102637 0.12259495 -0.12436716 0.084069915
0.042846084 -0.09614848 0.013733142 0.00084363995 0.12515819 -0.060790922 -0.06508298 -0.068986885
0.20139208 0.0951222 -0.0020489385 -0.06915858 -0.23416433 -0.0031664688 -0.12486383 0.15892242
-0.078970894 -0.14186212 0.1398501 -0.02556897 0.15012419 -0.022429753 -0.18596844 -0.053277005
-0.08341938 0.12582698 0.1466314 -0.086886756 -0.081166014 -0.14885478 -0.14952016 -0.091170125
0.17173927 -0.07545758 -0.087920085 0.10416898 0.090526745 -0.17649494 -0.14851394 0.07357812
-0.023910366 0.006713877 -0.10271374 -0.17114002 0.15589781 -0.16442609 -0.14811288 0.16172338
-0.037155285 0.1421275 -0.012939632 -0.15142885 0.16767514 -0.030573219 0.037553113 -0.047168307
-0.12030597 -0.053829614 -0.13991949 -0.028438356 -0.050934374 0.033567365 -0.0050330795 0.1275809
0.11473131 0.046817288 0.06713644 0.055251658 -0.17196508 0.04249358 -0.09763731 0.047308873
0.12365754 -0.18102701 0.09741233 -0.12151821 0.099416114 0.0147326775 -0.10589456 0.06486113
0.05258252 -0.03643557 0.050662566 0.20604387 0.15319619 0.094319664 -0.10437244 0.09509118
0.053473096 0.09533291 -0.092835985 0.14466754 -0.1632232 0.060456567 -0.101664566 0.043443546
0.1420317 0.0021178464 0.024151575 0.18480887 -0.03226752 -0.024709027 0.0033156557 -0.08541559
-0.03971734 -0.07213175 -0.10426477 -0.04012728 0.106627606 -0.099239804 0.16541168 0.15666868
00000000: 0504 293e c579 ef3d a9ed 383e eebc 22be
00000010: 703a 49bc a281 f3bd 5c59 223e 759e fdbd
00000020: 3644 2c3e d0c0 003e 9409 bbbd 0e4d ee3d
00000030: f2ac 63bc 42fd 90bd e2a3 53be ed2b 32be
00000040: 2228 e83d 146c 66bd dbc0 84bd 645d b5bd
00000050: ca61 be3d fc13 3e3e 77b7 06be 4f53 8bbd
00000060: 5086 a73d 108e 033e 15a2 10be 6757 bc3d
00000070: 1a70 a13d 2b50 94bd 25b7 2bbe 9855 11be
00000080: 02e9 ff3c 9833 db3d 8514 50be 2463 58bd
00000090: 70d5 26be 9381 dabd 5eec afbd 838b 95bd
000000a0: 936b d33d 0a14 d7bc 1482 ba3d c17f 513e
000000b0: c8d0 f8bd de13 9dbd 24db 313e 44da 1f3e
000000c0: a8a1 56be e543 9d3c 12a3 f0bd 9f2e 9abd
000000d0: d648 e43c d76f 1c3e cf7e cfbd a543 08be
000000e0: ee63 6a3d ff1f 6ebd 03ca a7bd 7579 a3bd
000000f0: feed a83d e64c 6f3b 47cf 5f3d 129c 2bbc
00000100: 1aa3 c83d 8c1c ccbe 4a00 183d c8d6 20bc
00000110: 9743 71bd fc8a 97be 73d4 9a3e befa 8cbe
00000120: f19b a33e d322 d33e 9c65 0c3e caf5 e7bd
00000130: cb31 1cbe 003b af3e c172 7cbe 92d9 9cbe
00000140: 8b5c 393d 7ee3 d3be dedd 453e 370d f63e
00000150: 6be3 443e bd37 103d 9ad7 3d3e a257 c83e
00000160: 96fe 7cbe f32e 8d3d 14fb cbbe 329d d03d
00000170: afff b9be c70e a8bd 35a9 94be 3796 70bd
00000180: cae1 6dbe 522c 543e 54bf bdbe 85e0 90be
00000190: fb4a bb3d 2416 fe3d 0951 7bbe 6280 c03e
000001a0: 98a5 f4bd b02d fabd 96eb 96bd 8019 b43e
000001b0: 8d03 993e 76d2 b03e 7237 af3e d720 883c
000001c0: 4067 b4be 4028 f6bd f27a 56be d00d 87be
000001d0: 3eb9 83be 78ba b23e 77f7 88be cf2b 16be
000001e0: 1e19 413d aa9e c13d 2ea2 803e ad1e a9be
000001f0: d88e c53e b85e 353d 7066 fd3d ec06 7abe
00000200: 6f42 ab3d 3a0b 2abd a3ab 03be 26aa 513c
00000210: 5b2c 953c 2406 c6bb c35c 17be 8872 bb3d
00000220: c566 e73d e8b2 f03c e632 083e 5c16 cf3d
00000230: 3d5b 283d 1013 fb3d 36b4 febd d92c ac3d
00000240: 607f 2f3d 7fe9 c4bd f900 613c b827 5d3a
00000250: 7829 003e e7ff 78bd 3a4a 85bd ff48 8dbd
00000260: ba39 4e3e 6ecf c23d 7c47 06bb 03a3 8dbd
00000270: c6c8 6fbe 8884 4fbb 9cb8 ffbd 8fbc 223e
00000280: 7ebb a1bd 4e44 11be dd34 0f3e 0476 d1bc
00000290: 28ba 193e 9abe b7bc 836e 3ebe fd38 5abd
000002a0: c8d7 aabd cad8 003e 8b26 163e aff1 b1bd
000002b0: 5e3a a6bd 636d 18be d01b 19be 67b7 babd
000002c0: 6bdc 2f3e 8189 9abd 720f b4bd 8c56 d53d
000002d0: 1666 b93d 17bb 34be 0a14 18be 20b0 963d
000002e0: acdf c3bc 1500 dc3b 955b d2bd 543f 2fbe
000002f0: ada3 1f3e 505f 28be e7aa 17be d09a 253e
00000300: 2430 18bd df89 113e c000 54bc 2a10 1bbe
00000310: 08b3 2b3e b074 fabc 4bd1 193d 8e33 41bd
00000320: fa62 f6bd 717c 5cbd 0e47 0fbe 8ef7 e8bc
00000330: 90a0 50bd ef7d 093d 88ec a4bb 91a4 023e
00000340: 40f8 ea3d 7cc3 3f3d d47e 893d 904f 623d
00000350: 9d17 30be c00d 2e3d 12f6 c7bd f3c6 413d
00000360: 2a40 fd3d 255f 39be 1e80 c73d 8ade f8bd
00000370: ad9a cb3d 5461 713c 3fdf d8bd ead5 843d
00000380: c560 573d 773d 15bd 8d83 4f3d 2afd 523e
00000390: 76df 1c3e ab2a c13d 38c1 d5bd 2abf c23d
000003a0: 9b06 5b3d e73d c33d cb20 bebd ba23 143e
000003b0: fc23 27be 4ea1 773d 8335 d0bd dcf1 313d
000003c0: c270 113e 91cb 0a3b 86d9 c53c 893e 3d3e
000003d0: f22a 04bd 966a cabc 794b 593b 5eee aebd
000003e0: a6ae 22bd d0b9 93bd c588 d5bd 815c 24bd
000003f0: 935f da3d 3d3e cbbd ae61 293e c16d 203e

encoder_lstm.weight_hh_l0 f4 [128, 32]
0.119012184 -0.07603745 0.038343236 0.06336734 -0.015998926 -0.09695527 -0.15457411 0.25278774
-0.034668326 -0.16585901 -0.025106141 0.13825755 -0.13305278 -0.050746463 -0.008683031 -0.0025718494
-0.24639165 -0.17016329 -0.15335752 -0.01206826 -0.12262474 0.1214384 0.02165625 0.014217706
-0.15929094 0.059335686 0.0035669634 0.04084245 0.12318278 0.08108499 0.047768652 0.15474887
0.3456913 -0.21197449 0.37770036 -0.0826319 -0.09593101 0.2585143 0.052209683 0.03985908
0.29592663 -0.063208744 -0.11553718 0.11337078 0.13688408 -0.108042926 -0.0379125 -0.09766868
-0.27585322 -0.1262893 0.24394736 0.052999794 0.16807477 -0.23094387 -0.17965896 0.08695587
-0.057968114 -0.2730089 -0.23932037 -0.053022385 0.04494703 -0.0026281835 0.31352243 0.26805615
0.07574331 0.15264574 -0.122651055 -0.09299038 0.09655577 0.2653242 -0.07132921 -0.027387794
-0.05178482 -0.12201858 0.051137634 -0.021581717 0.03365225 0.32390207 -0.018662322 0.08212771
0.08891877 -0.10969895 -0.06961602 -0.18075284 0.27890438 0.1566506 -0.018100614 -0.036016818
-0.1434116 0.050004903 0.063888304 0.07491966 0.0232952 -0.14243594 -0.18725112 -0.1278189
-0.0069865417 -0.043905254 -0.09363701 -0.09622852 -0.1995573 -0.19601102 -0.04092686 -0.092483245
-0.09999734 0.037559416 0.048678905 -0.13524224 -0.041264694 0.12263783 0.06337863 -0.08295099
-0.015826132 0.0140064545 -0.22126284 -0.07003859 -0.23388213 -0.16082929 0.23057921 0.13996929
-0.23215592 -0.066949 0.04675978 0.15761547 -0.047554575 -0.0909553 0.12199106 -0.046581045
0.018897887 -0.19866677 0.2395765 -0.20747855 -0.00043704838 0.16301176 -0.18756351 0.3085673
0.043744836 -0.10996114 -0.07100513 0.20077404 0.10091524 -0.41093194 -0.1598249 -0.08081328
-0.038448364 -0.24230145 0.21684298 -0.18701828 -0.24581887 0.043520853 -0.09224251 0.15042809
-0.2090955 0.022175325 -0.24372527 -0.16300318 0.28619486 0.14324138 0.13505337 0.040315017
0.25072718 -0.07379948 0.3708166 -0.21117267 -0.030112593 0.17910215 -0.42776772 0.077975415
0.2203671 -0.457123 -0.1758109 0.38199377 0.3300914 0.15711437 -0.1316255 0.038465917
-0.4679621 -0.23561153 -0.14957513 0.1886724 0.063283734 -0.103129126 -0.25492755 0.14383297
-0.17530507 -0.28649426 -0.09074066 -0.03506653 0.26224932 0.14104067 0.15795347 0.63005155
0.23398143 0.13561445 0.20757064 -0.069296554 -0.098965995 0.28855595 -0.1564232 0.10023862
-0.014284901 0.010373218 0.1456891 0.20860562 0.04088042 -0.13150023 -0.35146043 -0.15265211
0.00032170163 -0.09870784 -0.041358523 -0.14410006 -0.012532479 0.11887307 -0.009386487 -0.034914337
-0.018126305 -0.050056938 -0.062197343 -0.009792756 0.016142815 -0.09963714 -0.13120973 -0.2762191
0.18715611 0.23655266 0.20749806 0.20897609 -0.021662105 0.15879151 -0.060526405 0.30343115
0.12393523 0.15083608 -0.15823634 -0.21010764 -0.08507408 -0.019456072 -0.52756107 -0.16958477
0.17358188 -0.3702734 0.2426227 0.06490239 0.11153438 -0.008400253 -0.090645686 -0.16019721
0.24979842 -0.23566246 0.14496648 0.106584765 0.4403311 0.03825721 0.056426212 -0.022927258
00000000: a9bc f33d 86b9 9bbd cc0d 1d3d bcc6 813d
00000010: 2e10 83bc 7c90 c6bd ad48 1ebe 656d 813e
00000020: 6000 0ebd f2d6 29be 65ab cdbc 6393 0d3e
00000030: fd3e 08be 86db 4fbd 4643 0ebc 798c 28bb
00000040: 184e 7cbe 493f 2ebe c109 1dbe f4b9 45bc
00000050: ae22 fbbd b2b4 f83d 7368 b13c 62f1 683c
00000060: 2a1d 23be fa09 733d b7c3 693b 6a4a 273d
00000070: 4147 fc3d e30f a63d 10a9 433d 7d76 1e3e
00000080: 73fe b03e d70f 59be f161 c13e ea3a a9bd
00000090: 7a77 c4bd fd5b 843e d2d9 553d 4643 233d
000000a0: b283 973e 9673 81bd c29e ecbd f12e e83d
000000b0: 572b 0c3e 9c45 ddbd 234a 1bbd 8406 c8bd
000000c0: a23c 8dbe fb51 01be 56cd 793e 5016 593d
000000d0: cb1b 2c3e 8d7c 6cbe 85f8 37be eb15 b23d
000000e0: f96f 6dbd d3c7 8bbe 6610 75be 002e 59bd
000000f0: 601a 383d 9a3d 2cbb 0386 a03e a83e 893e
00000100: 4f1f 9b3d 2a4f 1c3e 7a30 fbbd be71 bebd
00000110: 08bf c53d 93d8 873e 0d15 92bd 5e5c e0bc
00000120: 521c 54bd e1e4 f9bd b275 513d 24cc b0bc
00000130: f1d6 093d 7ed6 a53e bae1 98bc 9332 a83d
00000140: 0b1b b63d d8a9 e0bd d892 8ebd 4617 39be
00000150: 8ecc 8e3e 0469 203e bd47 94bc 5f86 13bd
00000160: 7eda 12be f1d1 4c3d dfd7 823d 7b6f 993d
00000170: 93d5 be3c bada 11be c2be 3fbe f5e2 02be
00000180: 5cef e4bb ffd5 33bd c3c4 bfbd 7513 c5bd
00000190: c058 4cbe 1db7 48be eca2 27bd db67 bdbd
000001a0: 68cb ccbd e7d7 193d 8863 473d f17c 0abe
000001b0: 2b05 29bd 8b29 fb3d a8cc 813d 35e2 a9bd
000001c0: cea5 81bc 547b 653c ba92 62be 6470 8fbd
000001d0: cc7e 6fbe 6fb0 24be f51c 6c3e 1c54 0f3e
000001e0: 48ba 6dbe 8f1c 89bd 2f87 3f3d f365 213e
000001f0: 96c8 42bd c646 babd 73d6 f93d c4cb 3ebd
00000200: becf 9a3c 4d6f 4bbe 8b53 753e 4275 54be
00000210: a423 e5b9 8eec 263e a610 40be 88fc 9d3e
00000220: c92d 333d 4e33 e1bd 236b 91bd b697 4d3e
00000230: a6ac ce3d ac65 d2be 23a9 23be 6f81 a5bd
00000240: 087c 1dbd df1d 78be 160c 5e3e b881 3fbe
00000250: f1b7 7bbe ec42 323d a4e9 bcbd d209 1a3e
00000260: 211d 56be 07a9 b53c 1e93 79be 4eea 26be
00000270: 2288 923e dead 123e 6e4b 0a3e 5c21 253d
00000280: 505f 803e 2f24 97bd acdb bd3e a63d 58be
00000290: afae f6bc 8e66 373e 5f04 dbbe 93b1 9f3d
000002a0: eaa7 613e 070c eabe c607 34be b094 c33e
000002b0: bd01 a93e 97e2 203e d6c8 06be 708e 1d3d
000002c0: ba98 efbe 2644 71be 392a 19be 5633 413e
000002d0: e79a 813d 5d35 d3bd dd85 82be f348 133e
000002e0: 2c83 33be 60af 92be 3dd6 b9bd eca1 0fbd
000002f0: 8b45 863e f76c 103e 8ebe 213e 0f4b 213f
00000300: d498 6f3e 84de 0a3e 668d 543e 5aeb 8dbd
00000310: afae cabd 9bbd 933e 672d 20be e849 cd3d
00000320: 380b 6abc 6ef4 293c 862f 153e b69c 553e
00000330: 3a72 273d ffa7 06be 9ff2 b3be d650 1cbe
00000340: 10aa a839 5627 cabd 8e67 29bd f78e 13be
00000350: 0755 4dbc b973 f33d c8c9 19bc 5602 0fbd
00000360: 9e7d 94bc 8108 4dbd a4c2 7ebd cc71 20bc
00000370: f03d 843c 8f0e ccbd d85b 06be 976c 8dbe
00000380: daa5 3f3e dc3a 723e 5f7a 543e d4fd 553e
00000390: ba74 b1bc 3e9a 223e 89ea 77bd 545b 9b3e
000003a0: c1d1 fd3d c674 1a3e b508 22be 7526 57be
000003b0: 523b aebd 5762 9fbc 3e0e 07bf a1a7 2dbe
000003c0: 73bf 313e 7a94 bdbe 1672 783e 8beb 843d
000003d0: 236c e43d 37a1 09bc 72a4 b9bd bd0a 24be
000003e0: 28cb 7f3e 8051 71be 1872 143e 1d49 da3d
000003f0: 1473 e13e 98b3 1c3d 2c1f 673d f2d1 bbbc

encoder_lstm.bias_ih_l0 f4 [128]
0.11634646 0.26578152 -0.17256522 -0.027560066 0.15586922 0.1524971 -0.08360951 -0.098294094
-0.004068553 -0.17707326 0.029757839 -0.004215846 -0.010100536 0.51790565 0.18360618 -0.0058323857
0.16943477 0.090718515 0.26089013 0.2462874 0.18078128 0.007958757 0.23250593 -0.044727758
0.08031405 -0.06408554 0.17095403 -0.19916508 0.23826215 0.20588464 0.15536968 -0.08095592
0.07841831 0.13140273 -0.19418456 0.08546221 0.056917764 -0.04436211 0.05796233 0.09373905
-0.11812377 0.12562583 0.0042998344 0.20788212 -0.1346389 0.11802906 -0.071555406 -0.16434488
-0.019262327 -0.05500722 -0.053088896 0.014117009 0.06033793 0.15644138 0.01821915 0.045526642
-0.085596 0.1364414 -0.14775899 -0.0217389 -0.085076846 0.07775808 0.019733671 0.1026988
-0.088415675 -0.13890634 0.0170033 0.021136489 0.043721095 -0.13079315 -0.1232183 0.021467641
0.0032722163 -0.116956584 -0.07640517 -0.043634124 0.057993714 0.16202027 -0.12068829 -0.116763696
0.0320722 0.004804755 -0.14944349 -0.0582952 -0.080291435 -0.09625933 0.13919744 -0.08023177
-0.009210051 -0.06447085 0.032868113 0.034113344 0.061134607 -0.02594958 0.124344334 0.09154486
0.07247928 0.45202652 -0.009348747 -0.13743538 0.07440788 0.10317433 0.00987025 0.12152909
0.22509575 -0.15442418 0.10698417 0.107857995 -0.026859395 0.3890245 -0.04385793 0.12738642
-0.05119342 0.011420796 0.084813245 -0.020597275 0.13349798 0.0085235955 -0.06461519 -0.11373849
0.29332888 0.1820844 0.12987638 -0.096258715 -0.030711364 -0.01895207 0.092911825 0.031148046
00000000: 0e47 ee3d 8414 883e f0b4 30be a6c5 e1bc
00000010: 2e9c 1f3e 3328 1c3e 763b abbd 6a4e c9bd
00000020: 7f51 85bb b152 35be b6c6 f33c 1425 8abb
00000030: b87c 25bc 7795 043f 4203 3c3e 991d bfbb
00000040: 4f80 2d3e a1ca b93d 6493 853e c432 7c3e
00000050: ba1e 393e 7265 023c 0916 6e3e 7434 37bd
00000060: b17b a43d 483f 83bd 930e 2f3e eef1 4bbe
00000070: fefa 733e 6cd3 523e 3b19 1f3e 38cc a5bd
00000080: c799 a03d 708e 063e 51d8 46be d006 af3d
00000090: 9a22 693d 0bb5 35bd e869 6d3d 42fa bf3d
000000a0: e0ea f1bd 0fa4 003e a0e5 8c3b 0ddf 543e
000000b0: c8de 09be 38b9 f13d a48b 92bd 064a 28be
000000c0: 07cc 9dbc 404f 61bd be73 59bd 074b 673c
000000d0: e824 773d 2b32 203e 5440 953c 257a 3a3d
000000e0: f54c afbd 4bb7 0b3e 224e 17be c715 b2bc
000000f0: c53c aebd a13f 9f3d 82a8 a13c c053 d23d
00000100: 4713 b5bd 773d 0ebe 814a 8b3c 6e26 ad3c
00000110: e414 333d a4ee 05be e059 fcbd e8dc af3c
00000120: ae72 563b ef86 efbd 507a 9cbd b2b9 32bd
00000130: d18a 6d3d a4e8 253e 6c2b f7bd ce21 efbd
00000140: 245e 033d 3571 9d3b b707 19be f3c6 6ebd
00000150: d66f a4bd 9d23 c5bd c689 0e3e 8e50 a4bd
00000160: c1e5 16bc 4b09 84bd b7a0 063d 6fba 0b3d
00000170: 4868 7a3d 3794 d4bc 3ea8 fe3d df7b bb3d
00000180: 0470 943d 0570 e73e 7d2b 19bc dcbb 0cbe
00000190: 2963 983d 104d d33d d4b6 213c 3ee4 f83d
000001a0: 807f 663e 5f21 1ebe 841a db3d a7e4 dc3d
000001b0: 3c08 dcbc 382e c73e 5fa4 33bd 9671 023e
000001c0: 31b0 51bd 4a1e 3b3c 91b2 ad3d 9ebb a8bc
000001d0: b2b3 083e 8da6 0b3c f854 84bd baef e8bd
000001e0: 342f 963e 5574 3a3e 50fe 043e 4a23 c5bd
000001f0: 6696 fbbc 5f41 9bbc 8e48 be3d 302a ff3c

encoder_lstm.bias_hh_l0 f4 [128]
-0.03016285 0.41193867 0.12718417 0.029660147 0.20431675 0.44886443 0.031000882 -0.065001935
0.06180423 -0.042170674 -0.018188128 -0.12130286 0.067544945 0.36451215 0.10237754 0.1376225
0.038270023 0.15611799 0.06946213 0.024500689 0.047414042 -0.018359665 0.18320258 0.1709826
0.14649197 -0.092717215 -0.09792146 -0.024534017 0.1621173 0.10507636 -0.06895728 -0.0014888393
0.024087947 -0.10508631 0.06304595 0.05710179 0.07737784 0.09604536 0.06903705 0.037212767
-0.07488126 0.04284313 0.035413202 0.063462965 -0.09741285 -0.15122078 0.02956815 0.07423264
0.08658831 -0.17072023 0.1095729 -0.18739071 -0.10208957 0.010387217 -0.08640429 0.0024679007
0.002667626 0.14814617 0.06250399 -0.117687725 0.04491411 -0.11222245 -0.0613008 0.048345335
-0.1165428 0.05886794 0.073246464 -0.052183166 0.077748574 -0.020595457 -0.09972829 0.08903852
0.19274369 -0.1294699 0.043087292 0.1497508 0.088742286 -0.15652014 0.11589827 -0.00034685514
-0.14318104 0.14518204 0.13992444 0.15820241 -0.05248817 0.032130145 -0.13303927 0.024758644
-0.15093374 -0.119883135 -0.09267842 0.004250591 -0.01602292 0.12418258 0.04733 -0.106367536
-0.030877415 0.14109768 0.060436 -0.1391753 0.02020231 -0.032441903 -0.100071974 0.008276401
0.3179483 0.00394037 -0.122497216 0.11532054 -0.10295947 0.38780522 0.13487406 0.12411432
-0.017486416 0.004880832 0.22214954 -0.015122099 0.0739571 0.15012491 0.20045 -0.09048369
0.12594964 0.15493032 -0.05383216 -0.07640267 0.09557428 0.16484088 -0.032921642 -0.033488177
00000000: 1518 f7bc a0e9 d23e 913c 023e d6f9 f23c
00000010: 6938 513e 8fd1 e53e 90f5 fd3c bc1f 85bd
00000020: 6f26 7d3d 28bb 2cbd 45ff 94bc a26d f8bd
00000030: 0155 8a3d 56a1 ba3e 51ab d13d eaec 0c3e
00000040: 07c1 1c3d 65dd 1f3e 2942 8e3d abb5 c83c
00000050: 3a35 423d 0267 96bc 7599 3b3e 1016 2f3e
00000060: fe01 163e 86e2 bdbd 0c8b c8bd 90fb c8bc
00000070: 1402 263e 4632 d73d 7939 8dbd 2825 c3ba
00000080: 1654 c53c 7e37 d7bd 3c1e 813d 91e3 693d
00000090: 4678 9e3d 6eb3 c43d 4c63 8d3d 6a6c 183d
000000a0: 595b 99bd 477c 2f3d 6f0d 113d dff8 813d
000000b0: 6380 c7bd 9fd9 1abe e838 f23c 4807 983d
000000c0: 3655 b13d 49d1 2ebe c267 e03d 5ae3 3fbe
000000d0: 5614 d1bd 252f 2a3c bbf4 b0bd 81bc 213b
000000e0: 56d3 2e3b a1b3 173e 1802 803d 4306 f1bd
000000f0: dcf7 373d e2d4 e5bd 8c16 7bbd c205 463d
00000100: fead eebd 821f 713d 3e02 963d 04be 55bd
00000110: a53a 9f3d ceb7 a8bc 593e ccbd d459 b63d
00000120: 9a5e 453e c293 04be 4d7c 303d 4658 193e
00000130: 84be b53d d146 20be 125c ed3d 1cda b5b9
00000140: 0d9e 12be 9aaa 143e 5a48 0f3e d0ff 213e
00000150: d6fd 56bd e69a 033d 723b 08be a4d2 ca3c
00000160: 608e 1abe 4a85 f5bd 2fce bdbd 8b48 8b3b
00000170: 8042 83bc 7053 fe3d 1add 413d 39d7 d9bd
00000180: a2f2 fcbc e97b 103e bd8b 773d f883 0ebe
00000190: 517f a53c cde1 04bd 89f2 ccbd be99 073c
000001a0: 1fca a23e 381e 813b d2df fabd 2d2d ec3d
000001b0: 6adc d2bd 688e c63e 6d1c 0a3e a62f fe3d
000001c0: ac3f 8fbc 63ef 9f3b 2b7b 633e aec2 77bc
000001d0: d276 973d 58ba 193e c442 4d3e 834f b9bd
000001e0: f1f8 003e 0ea6 1e3e 1c7f 5cbd 0179 9cbd
000001f0: 73bc c33d 0ccc 283e d8d8 06bd e62a 09bd

dest_lstm_obs.weight_ih_l0 f4 [128, 2]
0.027563173 -0.08604209 -0.036409985 -0.0108265085 -0.023340587 -0.04666855 -0.0076620197 0.011284371
0.17235765 0.0035481686 -0.103314444 0.0468565 0.10034807 0.03325039 0.088149615 -0.025600556
-0.008313724 -0.03352812 -0.022053361 0.020603856 -0.16438209 0.09402972 -0.09983321 -0.12659706
-0.1275374 0.11086646 -0.09717329 -0.10879203 -0.0590099 -0.14018388 0.06103957 0.09006351
0.05273315 -0.018803889 -0.03990293 0.067472525 0.016449107 0.037237715 -0.0067630764 -0.052139852
0.08014368 -0.041709814 -0.032960966 0.0060476763 -0.08957635 0.09991979 -0.1297371 -0.04049273
-0.0049242037 0.018681018 -0.10635092 0.10779737 0.039368857 -0.05716966 -0.1376012 0.110730335
0.059499294 0.040554356 0.09748391 -0.0143120345 0.110172845 -0.11810721 0.024135092 0.06284089
-0.11996499 -0.031615496 0.050924793 -0.037377484 -0.090877764 -0.042546216 -0.1216553 -0.044319037
-0.11314288 0.12321273 -0.028514631 -0.107453525 -0.13740474 -0.00027688802 -0.017186133 0.014407252
0.0021672267 0.036728792 0.09087605 -0.06526042 -0.10469012 -0.091759875 -0.09993926 0.15698002
0.031243457 0.01818236 0.15496768 -0.04419871 -0.07901415 0.14545698 -0.06399188 0.02070627
-0.014643447 -0.16003744 -0.014284767 -0.13572142 -0.042331614 0.09385853 -0.06493851 0.07903382
-0.062654905 0.03514966 0.04135699 0.055777445 -0.17058541 -0.15564376 0.04627809 -0.071772896
-0.09240152 0.025097951 0.09127876 0.045118082 -0.040797155 -0.044292424 -0.15162426 0.041020025
-0.07600385 -0.04398514 -0.1201985 -0.15741187 0.016182335 -0.08663984 -0.029680941 -0.06298004
0.0866319 0.08829206 0.05115602 0.04704986 -0.070063576 -0.037677776 -0.043928042 0.10834295
-0.08806962 -0.077268206 0.111057565 0.061946966 -0.10297225 -0.09504339 -0.0078070736 0.032030225
0.05046101 0.0037043253 0.18234862 -0.094088316 0.040150054 -0.15571938 0.032019235 0.08857089
0.005981108 -0.023469545 -0.0097163115 -0.09767425 -0.04038287 0.0058102645 0.047520198 0.0038523641
0.15010232 -0.057017148 -0.09094853 0.09077061 -0.047725208 -0.12020279 0.034454186 0.08237652
0.06278114 -0.0701767 0.039138775 0.014962916 -0.07825324 -0.029269973 0.07920212 0.06650908
-0.049606785 0.05303914 0.008044576 0.02216894 0.08637406 0.055141296 0.07893339 0.07800935
0.0047520427 0.0048510497 -0.07480741 0.07212251 -0.05045903 -0.031320322 0.06078925 0.08614908
0.114888355 -0.09116092 0.104835406 -0.13267118 0.015577111 -0.09639653 0.094632275 -0.0529053
0.15136947 0.12707813 0.02085521 -0.16203426 0.07826774 0.05719487 -0.16345298 -0.08791116
-0.15506172 0.07554344 0.10965234 -0.15067443 0.053094923 0.10532344 -0.001984131 -0.15219884
-0.09895547 -0.04554122 -0.14193296 0.078622006 -0.044861555 0.10834517 -0.14460225 -0.0913741
-0.004559265 0.06843454 -0.1239648 0.0645801 -0.0056112707 -0.029037183 -0.15258718 -0.0341523
0.14155251 -0.11362673 -0.04208878 -0.09506038 0.10940818 -0.04186797 -0.05293624 0.124229185
-0.07560185 0.11614928 -0.037843984 -0.074083365 0.093966454 -0.11463759 -0.07063835 0.00048183673
-0.14025652 -0.11528925 -0.13350283 0.016625527 0.03592927 -0.015769916 -0.09242082 0.11957504
00000000: 2acc e13c d636 b0bd a322 15bd ab61 31bc
00000010: c234 bfbc 8627 3fbd ae11 fbbb 15e2 383c
00000020: 867e 303e 6488 683b 8696 d3bd 9aec 3f3d
00000030: 4a83 cd3d 9031 083d c987 b43d 42b8 d1bc
00000040: 4936 08bc c854 09bd 40a9 b4bc 6bc9 a83c
00000050: c753 28be a792 c03d 5b75 ccbd a9a2 01be
00000060: 2a99 02be f40d e33d ca02 c7bd 5bce debd
00000070: 5db4 71bd 5d8c 0fbe a104 7a3d 3873 b83d
00000080: b7fe 573d 9d0a 9abc 4171 23bd 092f 8a3d
00000090: 47c0 863c 9386 183d cc9c ddbb 9990 55bd
000000a0: 5f22 a43d e9d7 2abd 1402 07bd 962b c63b
000000b0: ce73 b7bd bfa2 cc3d cdd9 04be b4db 25bd
000000c0: 375b a1bb ef08 993c 83ce d9bd dec4 dc3d
000000d0: 3d41 213d bc2a 6abd 54e7 0cbe 96c6 e23d
000000e0: 88b5 733d 531c 263d a5a5 c73d 067d 6abc
000000f0: 4da2 e13d 31e2 f1bd f5b6 c53c b9b2 803d
00000100: 34b0 f5bd 407f 01bd 8496 503d 2219 19bd
00000110: 1f1e babd f144 2ebd 6a26 f9bd e187 35bd
00000120: 74b7 e7bd f556 fc3d 8497 e9bc 9810 dcbd
00000130: d4b3 0cbe 482b 91b9 efc9 8cbc 650c 6c3c
00000140: 0808 0e3b ee70 163d 391d ba3d 41a7 85bd
00000150: c667 d6bd 9aec bbbd f4ac ccbd 5fbf 203e
00000160: 47f2 ff3c 2cf3 943c d9af 1e3e b509 35bd
00000170: 2cd2 a1bd adf2 143e 2d0e 83bd 32a0 a93c
00000180: 11eb 6fbc dbe0 23be a80a 6abc 8efa 0abe
00000190: ea63 2dbd e738 c03d 7bfe 84bd 7cdc a13d
000001a0: 3751 80bd 17f9 0f3d f265 293d e476 643d
000001b0: f1ad 2ebe 1461 1fbe 188e 3d3d abfd 92bd
000001c0: 023d bdbd 389a cd3c 5cf0 ba3d bdcd 383d
000001d0: eb1a 27bd f96b 35bd 6443 1bbe 9d04 283d
000001e0: e8a7 9bbd c329 34bd a22a f6bd 9430 21be
000001f0: d190 843c 3a70 b1bd 7225 f3bc aefb 80bd
00000200: 116c b13d 78d2 b43d fa88 513d 5bb7 403d
00000210: 7e7d 8fbd 0354 1abd e4ed 33bd e9e2 dd3d
00000220: d85d b4bd cb3e 9ebd 2672 e33d 1abc 7d3d
00000230: 1de3 d2bd 1ca6 c2bd 7bd2 ffbb 2032 033d
00000240: 34b0 4e3d 44c4 723b 99b9 3a3e 60b1 c0bd
00000250: 6274 243d e774 1fbe 9a26 033d a864 b53d
00000260: 2cfd c33b 3443 c0bc 2a31 1fbc 7009 c8bd
00000270: 8268 25bd 0864 be3b 8aa4 423d f277 7c3b
00000280: 6cb4 193e d08a 69bd 3943 babd f1e5 b93d
00000290: 827b 43bd e12c f6bd d51f 0d3d 05b5 a83d
000002a0: 6693 803d cdb8 8fbd fb4f 203d 0527 753c
000002b0: 3c43 a0bd 95c7 efbc b934 a23d ea35 883d
000002c0: 7c30 4bbd 923f 593d 66cd 033c a39b b53c
000002d0: e2e4 b03d d7db 613d d4a7 a13d 5ec3 9f3d
000002e0: 06b7 9b3b 8ef5 9e3b a134 99bd f7b4 933d
000002f0: 21ae 4ebd bd49 00bd 26fe 783d ee6e b03d
00000300: 964a eb3d 94b2 babd f2b3 d63d f4da 07be
00000310: 2437 7f3c 8b6b c5bd 91ce c13d 3ab3 58bd
00000320: 9900 1b3e c520 023e 8cd8 aa3c 4fec 25be
00000330: d64a a03d 2b45 6a3d 3860 27be c40a b4bd
00000340: 80c8 1ebe 85b6 9a3d 6891 e03d 664a 1abe
00000350: 107a 593d d1b3 d73d 3208 02bb 03da 1bbe
00000360: 2aa9 cabd 6e89 3abd e056 11be 9304 a13d
00000370: c0c0 37bd 13e4 dd3d 9d12 14be 5822 bbbd
00000380: e365 95bb 6827 8c3d 42e1 fdbd 9242 843d
00000390: c0de b7bb 63df edbc d03f 1cbe 48e3 0bbd
000003a0: 24f3 103e 22b5 e8bd 4965 2cbd 04af c2bd
000003b0: 6511 e03d c07d 2bbd acd3 58bd df6b fe3d
000003c0: 25d5 9abd acdf ed3d 4b02 1bbd 05b9 97bd
000003d0: 7c71 c03d 1dc7 eabd d7aa 90bd 089f fc39
000003e0: 689f 0fbe c51c ecbd f7b4 08be 4232 883c
000003f0: 922a 133d e92f 81bc 2047 bdbd c2e3 f43d

dest_lstm_obs.weight_hh_l0 f4 [128, 32]
-0.048143916 -0.17472045 0.15960592 0.12821126 -0.052687563 0.016620431 0.122281 -0.0420888
-0.06453143 -0.08850291 0.15956737 -0.06984335 0.023906697 0.13778761 -0.056962196 -0.13577187
-0.08742377 -0.16520815 -0.022723455 0.06327723 -0.29763597 -0.10640207 0.11700082 -0.023541905
0.13829903 0.14240615 -0.13564856 -0.038161866 0.15983056 0.10197589 0.07800011 0.17845958
0.047877625 -0.14627618 0.042024966 -0.11378797 0.056435872 -0.14909267 -0.07889301 0.100031726
0.15265812 0.0376107 0.029476753 0.13166755 -0.004162807 0.018692981 0.13860396 -0.15584394
0.08934621 0.1756549 -0.030105533 -0.052872423 0.021664873 -0.10994278 -0.07318851 -0.11495973
0.12508428 -0.13335112 0.15771824 0.09822603 -0.024781257 0.12033895 0.14061238 0.12575784
0.08014875 -0.010476768 0.1412012 0.08175161 -0.09804577 0.045294315 -0.04973068 0.08996623
0.019195711 0.06787744 0.20914562 0.06694246 0.20884389 0.14955863 0.15733717 -0.015589623
-0.12661484 0.06658065 0.07398237 0.08131492 0.1716187 -0.21011384 -0.10880119 -0.18321893
-0.15287644 -0.015044302 0.1330154 0.022557616 -0.12388857 -0.0818972 0.14896505 0.102600485
0.120969415 0.072348975 -0.1864936 -0.033337392 0.23801945 0.15721937 -0.09776302 0.09295178
-0.08541438 -0.021904647 0.010466822 0.033287413 -0.022164786 0.06164779 0.09970446 -0.119186185
-0.11794534 0.09727988 -0.017937765 -0.012058875 -0.05367579 0.12810309 0.016751505 -0.14601596
-0.009881491 -0.057660457 -0.13095394 0.130791 -0.00033933503 0.08963448 0.14156647 -0.19476286
-0.1021794 0.17097047 0.07339741 -0.19301686 -0.155898 0.12286674 -0.093115106 0.037293054
0.14745422 -0.019565452 -0.08823918 0.11468545 -0.08633629 -0.16050808 -0.21443388 0.15380877
-0.08035705 0.06677312 -0.130207 -0.04791464 0.14293203 -0.008835377 -0.20321053 0.0673368
0.062327456 0.01778801 -0.051708426 0.13877374 -0.11726915 -0.05588083 -0.106799 -0.07606302
-0.010732205 -0.16347888 -0.19900674 -0.055087514 0.019871961 -0.14707483 -0.1108837 0.054242644
-0.085067585 -0.087155536 0.084284015 -0.05636929 -0.087797716 0.0058238693 -0.0048879194 -0.06000174
-0.090086564 -0.022206878 0.16385888 0.15372476 0.059820272 0.007631519 -0.10354429 0.16914697
-0.20696741 0.033677936 -0.14896245 0.091373414 -0.040780514 0.15989122 -0.054043695 -0.12038842
0.03478517 0.05812393 -0.14659736 -0.16017032 0.058179084 0.087422274 0.115201935 0.13314898
0.12179093 -0.11909739 0.040460292 -0.04380766 -0.14623758 -0.18783753 -0.15479913 -0.018608157
-0.17420796 -0.08286372 0.015741233 -0.090400346 0.18793531 -0.17339613 0.1800237 0.09063651
-0.049273267 -0.005384117 -0.16573316 0.098711416 0.14382629 -0.18239416 0.109703384 0.063253336
-0.020717576 -0.14834023 -0.19305487 -0.021498984 0.00011738039 -0.1385895 0.05640987 0.09801366
0.09522097 -0.026728192 -0.052706283 0.08060951 0.044907693 -0.19397844 -0.014814457 0.1474098
-0.11865616 0.030492693 -0.012333736 -0.065332055 -0.1303637 -0.025016917 0.10020965 -0.046096493
-0.016123105 0.0067390325 0.112931676 0.09917625 -0.058443803 -0.020504132 0.012119119 0.053770635
00000000: 8e32 45bd ebe9 32be bc6f 233e d049 033e
00000010: eace 57bd 9227 883c 766e fa3d 4e65 2cbd
00000020: 0e29 84bd 0441 b5bd a165 233e 080a 8fbd
00000030: fad7 c33c 3218 0d3e 3151 69bd c807 0bbe
00000040: 3c0b b3bd 532c 29be 8a26 babc 7e97 813d
00000050: be63 98be 54e9 d9bd 209e ef3d f4da c0bc
00000060: 439e 0d3e ebd2 113e 75e7 0abe 9e4f 1cbd
00000070: 9faa 233e bcd8 d03d 86be 9f3d 1cbe 363e
00000080: 541b 443d 6cc9 15be 5f22 2c3d ab09 e9bd
00000090: 4d29 673d c0ab 18be a992 a1bd 6fdd cc3d
000000a0: 6952 1c3e ad0d 1a3d 3b79 f13c dcd3 063e
000000b0: 2868 88bb 0622 993c 32ee 0d3e 8e95 1fbe
000000c0: 25fb b63d e1de 333e e19f f6bc c190 58bd
000000d0: 887a b13c ae29 e1bd dce3 95bd 0270 ebbd
000000e0: 1816 003e 328d 08be e480 213e bb2a c93d
000000f0: 1002 cbbc 4474 f63d b1fc 0f3e aac6 003e
00000100: 0725 a43d c0a6 2bbc 0c97 103e 636d a73d
00000110: 38cc c8bd 8886 393d 66b2 4bbd 3740 b83d
00000120: 5340 9d3c 5403 8b3d 452a 563e 2119 893d
00000130: 2cdb 553e e625 193e ff1c 213e 9e6b 7fbc
00000140: 52a7 01be 705b 883d 1284 973d 7088 a63d
00000150: d0bc 2f3e 1528 57be 29d3 debd be9d 3bbe
00000160: a48b 1cbe 607c 76bc 3035 083e c0ca b83c
00000170: 4ab9 fdbd b8b9 a7bd 4b8a 183e 3420 d23d
00000180: d0be f73d b32b 943d 2ef8 3ebe ca8c 08bd
00000190: 5fbb 733e 1dfe 203e fa37 c8bd 815d be3d
000001a0: bced aebd 6071 b3bc 097d 2b3c 6258 083d
000001b0: ed92 b5bc 6582 7c3d da31 cc3d e317 f4bd
000001c0: 548d f1bd ac3a c73d 38f2 92bc 9692 45bc
000001d0: 25db 5bbd 752d 033e 743a 893c 3585 15be
000001e0: fae5 21bc 5f2d 6cbd ca18 06be 13ee 053e
000001f0: c7e8 b1b9 4892 b73d cdf6 103e ea6f 47be
00000200: 6f43 d1bd e212 2f3e 6251 963d 36a6 45be
00000210: baa3 1fbe 8fa1 fb3d 22b3 bebd 9ac0 183d
00000220: 3dfe 163e ba47 a0bc beb6 b4bd 35e0 ea3d
00000230: 15d1 b0bd 3b5c 24be 8e94 5bbe 0c80 1d3e
00000240: 3d92 a4bd 58c0 883d fc54 05be 2442 44bd
00000250: c65c 123e 42c2 10bc 6c16 50be e0e7 893d
00000260: 134b 7f3d 29b8 913c 37cc 53bd b41a 0e3e
00000270: cf2a f0bd 4ce3 64bd 6fb9 dabd eec6 9bbd
00000280: 21d6 2fbc 0267 27be 6cc8 4bbe 72a3 61bd
00000290: 86ca a23c c99a 16be fe16 e3bd 892d 5e3d
000002a0: ea37 aebd 9a7e b2bd 199d ac3d 7ce3 66bd
000002b0: 4acf b3bd 28d6 be3b d72a a0bb 62c4 75bd
000002c0: 4e7f b8bd 33eb b5bc 9fca 273e 066a 1d3e
000002d0: 1a06 753d d211 fa3b 070f d4bd dd34 2d3e
000002e0: 44ef 53be e0f1 093d 9d89 18be fc21 bb3d
000002f0: 7809 27bd 86ba 233e ec5c 5dbd 348e f6bd
00000300: e57a 0e3d 5c13 6e3d 9e1d 16be b003 24be
00000310: 314d 6e3d 730a b33d feee eb3d 3558 083e
00000320: 866d f93d 55e9 f3bd b1b9 253d a96f 33bd
00000330: 4ebf 15be 7b58 40be aa83 1ebe 2270 98bc
00000340: 9263 32be 74b4 a9bd c2f3 803c d123 b9bd
00000350: 1d72 403e c18e 31be 2258 383e a29f b93d
00000360: c4d2 49bd 3f6d b0bb f4b5 29be 3629 ca3d
00000370: 3347 133e 89c5 3abe 2bac e03d f78a 813d
00000380: e8b7 a9bc 80e6 17be 2db0 45be a31e b0bc
00000390: 1e2a f638 68ea 0dbe 090e 673d 63bb c83d
000003a0: 3603 c33d 15f5 dabc 8be2 57bd 9916 a53d
000003b0: 21f1 373d 49a2 46be 56b8 72bc 98f2 163e
000003c0: 0002 f3bd d0cb f93c 7013 4abc d0cc 85bd
000003d0: 107e 05be 47f0 ccbc b83a cd3d adcf 3cbd
000003e0: 9a14 84bc 1ad3 dc3b b948 e73d eb1c cb3d
000003f0: c562 6fbd 48f8 a7bc 458f 463c 993e 5c3d

dest_lstm_obs.bias_ih_l0 f4 [128]
0.17309804 -0.09543988 -0.052629568 -0.04566232 0.07231482 -0.039845333 -0.12098296 -0.05975972
-0.1188704 0.07517005 0.04091625 -0.03716291 -0.08261235 -0.10983428 -0.014653757 -0.038766246
-0.21962285 -0.18297212 0.15202604 0.050933495 0.09444317 -0.007394299 0.14010015 -0.00018523801
-0.07580369 -0.081453465 -0.1152076 -0.13459341 0.19981396 0.051864427 -0.0010837907 -0.086771294
0.04794084 0.01873586 -0.07641219 -0.17079161 0.18906172 0.06981251 -0.027736127 -0.15014237
0.079376474 0.14552067 -0.2312555 -0.03765193 0.14651674 -0.017189618 -0.08112593 -0.04439981
-0.2297431 -0.13819574 -0.13455243 0.06361613 -0.16871378 0.073508225 0.11592837 -0.033273343
-0.061872154 0.0073317215 0.009796383 0.12573464 0.22449799 0.06632948 0.08567945 -0.10690905
0.12675084 0.09889077 0.10284364 -0.13308895 -0.097641855 0.13833195 -0.115029864 -0.032208223
0.08068318 0.22322461 0.0064658704 -0.07738591 -0.16090058 -0.009691514 -0.093010545 0.19341953
0.023671795 -0.009726726 -0.22196317 -0.16436124 0.09728204 -0.021675872 0.054483503 -0.04988485
-0.03998374 -0.101451725 -0.1257371 0.029240023 -0.2571613 -0.16497646 -0.15268573 0.14878029
-0.12508641 -0.021251593 0.115244545 -0.007836871 -0.03964841 0.11942354 0.056280795 0.12821546
-2.9719668e-05 -0.14450738 -0.04675025 -0.046978295 0.09011709 -0.013531608 -0.04836504 -0.11728949
0.09549683 -0.07091717 -0.16768971 -0.14548467 -0.20900138 0.13615339 -0.06439111 -0.1621979
-0.007616693 -0.0073238206 0.1392429 -0.16996934 0.06669714 0.013611766 -0.12711988 -0.11253783
00000000: 9d40 313e fc75 c3bd 1a92 57bd 6a08 3bbd
00000010: cb19 943d dc34 23bd eac5 f7bd 9cc6 74bd
00000020: 5372 f3bd c1f2 993d cc97 273d 2338 18bd
00000030: aa30 a9bd ccf0 e0bd 5016 70bc 5bc9 1ebd
00000040: d0e4 60be 0b5d 3bbe b7ac 1b3e a49f 503d
00000050: 6c6b c13d e04b f2bb 6a76 0f3e 733c 42b9
00000060: f73e 9bbd 13d1 a6bd f6f1 ebbd dbd2 09be
00000070: 089c 4c3e cb6f 543d fb0d 8eba 26b5 b1bd
00000080: 9d5d 443d f27b 993c ff7d 9cbd ffe3 2ebe
00000090: 6599 413e dcf9 8e3d e036 e3bc ecbe 19be
000000a0: 2290 a23d 5f03 153e 3ece 6cbe e938 1abd
000000b0: 7c08 163e 3ed1 8cbc 5a25 a6bd 93dc 35bd
000000c0: c641 6bbe 2f83 0dbe 1dc8 09be 2c49 823d
000000d0: 4ec3 2cbe 7b8b 963d da6b ed3d a149 08bd
000000e0: a86d 7dbd f03e f03b 0281 203c 95c0 003e
000000f0: cde2 653e c0d7 873d b578 af3d 22f3 dabd
00000100: f9ca 013e 3e87 ca3d b09f d23d 7848 08be
00000110: 74f8 c7bd e4a6 0d3e c794 ebbd c5ec 03bd
00000120: 393d a53d fe94 643e a7df d33b 817c 9ebd
00000130: 1fc3 24be 28c9 1ebc 507c bebd c50f 463e
00000140: 5aeb c13c d95c 1fbc 504a 63be 504e 28be
00000150: ce3b c73d 9991 b1bc 182a 5f3d 0e54 4cbd
00000160: fdc5 23bd ecc5 cfbd 3ac1 00be c688 ef3c
00000170: a5aa 83be 97ef 28be a659 1cbe dc59 183e
00000180: a716 00be d217 aebc 5505 ec3d 3866 00bc
00000190: 5f66 22bd 5494 f43d b186 663d ea4a 033e
000001a0: 804e f9b7 bef9 13be 317d 3fbd 506c 40bd
000001b0: 4f8f b83d adb3 5dbc 6c1a 46bd 7935 f0bd
000001c0: d893 c33d 053d 91bd dab6 2bbe eff9 14be
000001d0: 7504 56be cb6b 0b3e 7cdf 83bd 3517 26be
000001e0: 7495 f9bb a9fc efbb b195 0e3e 710c 2ebe
000001f0: 8398 883d e203 5f3c b72b 02be 3c7a e6bd

dest_lstm_obs.bias_hh_l0 f4 [128]
0.08548962 -0.09217719 -0.17280194 -0.15255259 0.008679718 -0.053015754 -0.00071167847 0.025917867
-0.016971795 0.06987077 0.06063062 -0.12312056 -0.13763703 -0.16309807 0.08641144 -0.12785542
-0.13576804 0.112834364 0.019751843 0.107744224 -0.16102871 -0.21839952 -0.119978294 0.0845156
-0.108175896 0.05889392 -0.11437126 0.014557982 -0.008762853 0.053828254 0.10949212 -0.09717642
-0.007505477 -0.14116989 -0.07078308 -0.1288897 0.055993345 -0.06883114 0.07362861 -0.116545446
-0.26398334 -0.16449383 -0.20212609 0.042946115 -0.033347096 -0.19161892 0.03976281 0.015244667
0.03510117 -0.17281076 -0.09230941 -0.0420534 -0.22596145 0.008596258 -0.16193376 -0.025354488
0.18343249 0.09982515 0.024580114 -0.11204338 -0.032667432 -0.14455679 -0.16712345 -0.15970029
0.110901356 0.16308248 0.025258046 -0.057163917 -0.38064718 0.07151441 0.084802255 0.08820329
0.014330237 -0.06042976 -0.072060056 0.0161467 0.023491288 -0.15777174 -0.07650738 0.18989703
0.14485332 -0.046449825 -0.10917014 -0.1691109 -0.06552276 0.121778525 -0.04051739 0.19379956
0.21400167 0.06320733 0.10009152 0.1471942 -0.092788085 -0.04455229 0.12678175 0.13210538
-0.045242857 -0.08810613 -0.115719244 -0.13521907 0.049356684 -0.16133459 -0.031002443 0.10535397
-0.005950968 0.11757232 -0.16750324 -0.026802827 0.058976255 0.080592096 -0.1880489 -0.035171274
0.080032416 -0.117627785 0.020320157 0.1053009 0.026272722 -0.1939512 -0.18565062 -0.19756262
-0.12852179 -0.045520425 0.08838381 -0.11196891 0.04711448 0.13090855 -0.018321596 0.10982169
00000000: 2f15 af3d 65c7 bcbd fef2 30be bf36 1cbe
00000010: 6035 0e3c 0c27 59bd ef8f 3aba b551 d43c
00000020: 6f08 8bbc 6818 8f3d d057 783d a226 fcbd
00000030: b9f0 0cbe 2e03 27be 7bf8 b03d 88ec 02be
00000040: c706 0bbe b415 e73d 9ece a13c 01a9 dc3d
00000050: b6e4 24be 20a4 5fbe 2eb7 f5bd 8416 ad3d
00000060: 538b ddbd c03a 713d 7b3b eabd 9a84 6e3c
00000070: 1292 0fbc 047b 5c3d 683d e03d 6e04 c7bd
00000080: 81f0 f5bb d78e 10be b8f6 90bd a9fb 03be
00000090: 4759 653d 57f7 8cbd 99ca 963d 61af eebd
000000a0: d328 87be 1271 28be 24fa 4ebe 44e8 2f3d
000000b0: f796 08bd c037 44be 54de 223d c5c4 793c
000000c0: 3fc6 0f3d 4ef5 30be b70c bdbd 3040 2cbd
000000d0: 7062 67be 52d7 0c3c f7d1 25be 37b4 cfbc
000000e0: bad5 3b3e 2171 cc3d 3c5c c93c 0077 e5bd
000000f0: 49ce 05bd b206 14be 6922 2bbe 7988 23be
00000100: 4020 e33d 18ff 263e f6e9 ce3c b624 6abd
00000110: 30e4 c2be 2676 923d ceac ad3d eda3 b43d
00000120: 5fc9 6a3c 3285 77bd 3994 93bd 1646 843c
00000130: cd70 c03c ea8e 21be e7af 9cbd 5e74 423e
00000140: 6e54 143e 2c42 3ebd 9894 dfbd 682b 2dbe
00000150: cc30 86bd 0567 f93d 90f5 25bd 6473 463e
00000160: 4123 5b3e d872 813d c8fc cc3d 14ba 163e
00000170: ae07 bebd 767c 36bd 13d3 013e a246 073e
00000180: 9350 39bd fd70 b4bd 36fe ecbd de76 0abe
00000190: 3c2a 4a3d e534 25be d6f8 fdbc d2c3 d73d
000001a0: 5600 c3bb c2c9 f03d f885 2bbe 9a91 dbbc
000001b0: 1691 713d 780d a53d e48f 40be c10f 10bd
000001c0: 09e8 a33d d6e6 f0bd 7576 a63c 00a8 d73d
000001d0: e439 d73c 259b 46be 321b 3ebe db4d 4abe
000001e0: 379b 03be a073 3abd 9202 b53d f54f e5bd
000001f0: 1dfb 403d e40c 063e 2c17 96bc 32ea e03d

dest_lstm_fut.weight_ih_l0 f4 [128, 2]
0.07412546 0.059453726 -0.0809201 0.054375477 -0.16085644 0.048105776 -0.16519696 -0.004546841
-0.14919086 0.1193687 -0.02394712 -0.095002145 -0.06516349 -0.11158539 -0.090015136 -0.09854384
-0.13185559 0.02398352 -0.065151155 0.03296317 0.047048796 -0.08982848 0.068879634 0.06519865
-0.12914799 0.009589143 -0.100116655 -0.039273076 0.1005935 0.08244527 0.014158771 -0.13525593
0.15798394 0.14638403 0.06798211 -0.09096128 0.09665896 0.027926339 0.10088969 0.06403654
-0.0918356 -0.07249679 -0.0976997 -0.052426457 0.04224366 -0.046630368 0.04205229 -0.120398596
-0.005540399 0.07077361 -0.023340141 0.022321299 -0.08611025 0.015191253 0.09492757 -0.1785647
0.16328388 -0.07900027 0.090956256 0.045227256 -0.12497726 -0.10595675 0.01977814 -0.10976722
-0.17046505 0.02762563 -0.0496408 -0.13625151 0.14021587 -0.111340426 0.0799056 -0.065378
0.10839339 0.084641114 -0.10884757 0.050362762 0.09913118 0.11586453 0.04028274 -0.10606434
-0.03328942 -0.0060950024 -0.06682726 -0.09746825 -0.19248159 -0.040989965 -0.12512077 -0.098796755
-0.007644889 0.023106562 -0.115504414 0.047594044 0.10239824 -0.12629332 0.089629985 0.13516521
-0.14464758 0.021965005 0.07164188 0.004284773 -0.0552245 -0.15745842 0.014055367 0.104773
-0.14789143 -0.01247919 -0.0708563 0.051851332 -0.041131023 -0.16695264 0.000593112 0.06051141
-0.05450142 -0.13775298 -0.006948515 -0.06277879 0.0021251421 -0.025512222 -0.16406557 0.050304893
-0.08128381 0.0808684 -0.014128767 -0.122198716 0.08056646 0.055028815 -0.16356932 0.12012605
-0.11016536 0.056558587 0.05513017 0.10896966 0.02278186 0.076492414 0.08358014 -0.09389682
-0.05800143 -0.05242762 -0.0283682 0.0641779 -0.073849924 -0.06961249 -0.029136162 -0.09063976
-0.113251165 0.07579138 0.04512355 -0.092168815 0.083813 -0.10147918 -0.0740577 -0.016775128
-0.05424962 0.11170237 0.059161335 0.04474146 0.0046488154 0.103032656 -0.024029568 -0.03858788
-0.07644266 0.004151407 0.016207818 0.024608115 -0.041750625 -0.07674073 -0.03234733 -0.037729256
0.05052886 -0.06328562 -0.020844089 0.1174535 -0.045241177 -0.011372696 0.045323472 0.029429179
0.034210943 0.077355795 0.072766244 0.070100136 -0.11067818 0.05160701 0.022546988 0.036870215
0.028450217 -0.062599435 0.118505836 0.06069836 0.08589756 -0.04208105 0.13077202 0.102137126
0.075002 -0.08813385 0.08158808 -0.03232485 0.10959654 -0.027010739 0.048700903 0.08348944
-0.10059327 -0.13876405 0.059757445 -0.11074225 -0.011298417 0.07756492 -0.05765974 0.049341783
0.026408147 0.041072894 -0.00024864587 -0.0041670557 0.05316988 -0.017086593 0.0054657115 -0.0117739495
-0.038355052 -0.01196393 0.13979043 -0.13432115 0.070313804 -0.013525978 -0.010659579 -0.061104357
0.021477327 0.041597895 -0.08188339 -0.1079214 0.10323559 0.13140623 0.053772073 -0.074945174
-0.10139243 -0.18347594 0.102213845 0.009511324 -0.13194348 0.12911803 -0.110213906 0.13812491
-0.031318948 -0.1331417 0.12418098 -0.07595483 0.11666833 -0.08162797 0.04175466 0.032430787
-0.06665395 -0.085202724 0.12404513 -0.04626259 0.039230265 -0.013871007 0.0977372 0.034666117
00000000: 17cf 973d c085 733d 70b9 a5bd d2b8 5e3d
00000010: 8db7 24be 900a 453d 6429 29be abfd 94bb
00000020: 7dc5 18be 9477 f43d c02c c4bc 7c90 c2bd
00000030: 7074 85bd e286 e4bd db59 b8bd 5ad1 c9bd
00000040: 2705 07be 1679 c43c f86d 85bd 6404 073d
00000050: 3db6 403d fef7 b7bd c410 8d3d df86 853d
00000060: 5f3f 04be c81b 1d3c f609 cdbd cedc 20bd
00000070: f703 ce3d 11d9 a83d 31fa 673c 8880 0abe
00000080: 8bc6 213e b2e5 153e 343a 8b3d e849 babd
00000090: 22f5 c53d c7c5 e43c 419f ce3d 9725 833d
000000a0: 4e14 bcbd 3279 94bd c816 c8bd 20bd 56bd
000000b0: b007 2d3d 7cff 3ebd 063f 2c3d 8a93 f6bd
000000c0: 3c8c b5bb c1f1 903d d333 bfbc 28db b63c
000000d0: 925a b0bd bce4 783c 6369 c23d aad9 36be
000000e0: e433 273e e5ca a1bd 4647 ba3d 3740 393d
000000f0: 14f4 ffbd daff d8bd c405 a23c a3cd e0bd
00000100: 648e 2ebe 254f e23c 2754 4bbd 8485 0bbe
00000110: c094 0f3e 7306 e4bd 8ca5 a33d e7e4 85bd
00000120: 5bfd dd3d 5258 ad3d 7aeb debd 2f49 4e3d
00000130: 4a05 cb3d 624a ed3d 84ff 243d 4338 d9bd
00000140: 7d5a 08bd 96b8 c7bb bbdc 88bd 6f9d c7bd
00000150: e519 45be 18e5 27bd a91f 00be f455 cabd
00000160: fa81 fabb f949 bd3c 948d ecbd f9f1 423d
00000170: 2bb6 d13d 0953 01be ed8f b73d c068 0a3e
00000180: 7f1e 14be f4ef b33c fab8 923d 4867 8c3b
00000190: 1633 62bd c83c 21be 7b48 663c 3a93 d63d
000001a0: da70 17be 8475 4cbc 1c1d 91bd 1062 543d
000001b0: 0179 28bd a2f5 2abe 137b 1b3a d0da 773d
000001c0: e23c 5fbd 1e0f 0dbe 5eb0 e3bb 2b92 80bd
000001d0: f845 0b3b 02ff d0bc ce00 28be 810c 4e3d
000001e0: 2078 a6bd 559e a53d 587c 67bc 5243 fabd
000001f0: 0700 a53d e565 613d b77e 27be a604 f63d
00000200: 609e e1bd faa9 673d 2cd0 613d 7c2b df3d
00000210: 06a1 ba3c 0ea8 9c3d 102c ab3d fa4c c0bd
00000220: e892 6dbd 58be 56bd 6d64 e8bc b46f 833d
00000230: a13e 97bd fe90 8ebd f6ae eebc 57a1 b9bd
00000240: 3af0 e7bd 8338 9b3d 79d3 383d 01c3 bcbd
00000250: 26a6 ab3d 51d4 cfbd 90ab 97bd fe6b 89bc
00000260: d934 5ebd 36c4 e43d 2853 723d d242 373d
00000270: 1755 983b c902 d33d a8d9 c4bc 530e 1ebd
00000280: f88d 9cbd 8708 883b 42c6 843c f596 c93c
00000290: b402 2bbd 3e2a 9dbd a27e 04bd fe89 1abd
000002a0: 5af7 4e3d e49b 81bd 39c1 aabc 768b f03d
000002b0: d04e 39bd 8b54 3abc 1ba5 393d 7615 f13c
000002c0: c620 0c3d b76c 9e3d 7806 953d a990 8f3d
000002d0: 3eab e2bd df61 533d 76b4 b83c 3905 173d
000002e0: 6e10 e93c 2234 80bd 30b3 f23d d89e 783d
000002f0: 0feb af3d 2e5d 2cbd 1ae9 053e 452d d13d
00000300: a69a 993d 857f b4bd a717 a73d 1067 04bd
00000310: 2774 e03d a045 ddbc 997a 473d 83fc aa3d
00000320: d803 cebd 2a18 0ebe 39c4 743d d5cc e2bd
00000330: ff1c 39bc 5bda 9e3d 9f2c 6cbd 9c1a 4a3d
00000340: e655 d83c 0d3c 283d af5c 82b9 cc8b 88bb
00000350: a9c8 593d 2ff9 8bbc b619 b33b 86e7 40bc
00000360: 301a 1dbd 5c04 44bc 3925 0f3e 7c8b 09be
00000370: af00 903d 109c 5dbc 84a5 2ebc 9048 7abd
00000380: 38f1 af3c 8e62 2a3d 7bb2 a7bd e505 ddbd
00000390: 2e6d d33d 5b8f 063e 1b40 5c3d db7c 99bd
000003a0: d6a6 cfbd 1ee1 3bbe 7e55 d13d 62d5 1b3c
000003b0: 311c 07be 8437 043e d4b7 e1bd 9e70 0d3e
000003c0: 4c48 00bd 4c56 08be 9952 fe3d 358e 9bbd
000003d0: ceef ee3d 912c a7bd ef06 2b3d 25d6 043d
000003e0: de81 88bd c47e aebd 600b fe3d d77d 3dbd
000003f0: eaaf 203d 3843 63bc 712a c83d 0ffe 0d3d
