src/do_tp_federated_federated_round_1.pt (torch, 157077 bytes, 26 tensors)

linear_enc.weight f4 [64, 2]
000000 0c 0f 19 3f 41 6c ab be 92 19 98 3e 08 81 14 3f
       0.59788585 -0.3348103 0.2970701 0.58009386
000010 76 b8 27 bf 50 af fc 3d 83 c1 aa 3e a9 74 01 3f
       -0.6551584 0.12338126 0.33350763 0.50568634
000020 8b ad 5f 3e ed 59 23 3f 14 bd 74 3c 62 2b 32 bf
       0.21843545 0.6380909 0.014937658 -0.69597447
000030 66 bd 82 3d 96 f6 0e bf 53 36 81 3e b3 49 0c 3f
       0.06383781 -0.5584501 0.2523676 0.54799956
000040 a9 32 f1 3e bf 37 02 3f 4e 61 af 3e fb de 8c 3e
       0.47108963 0.5086631 0.34253925 0.2751387
000050 da 58 36 3e 64 70 f2 be 2a 03 ee 3e 4e 0b 02 3e
       0.17807332 -0.47351372 0.4648679 0.12699625
000060 aa 48 67 3e 2d 0e e0 be f5 bc 25 bf ac ac f6 3e
       0.22586313 -0.43760815 -0.6474145 0.48178613
000070 fa 21 43 be 5c ba 10 bf a6 82 4e be e9 cf d1 3e
       -0.1905593 -0.5653436 -0.20167026 0.40978935
000080 ab df c9 be 25 d2 c3 bd 35 9f 33 bf 2f 0c 84 3c
       -0.39428458 -0.09561566 -0.70164806 0.01611909
000090 47 b5 21 be 2e 87 0c 3f 38 13 9c 3e 5a 32 6b 3e
       -0.15791808 0.5489377 0.30483413 0.22968426
0000a0 07 33 23 bf 0e 84 ee 3e c6 06 57 bd 28 a5 26 be
       -0.63749737 0.46585125 -0.052496694 -0.1627394
0000b0 51 f2 bb be 99 c8 1b bf c1 94 30 3f 73 06 62 3e
       -0.3670831 -0.6085296 0.6897698 0.22072773
0000c0 3a 29 a5 3e 53 55 e0 3e 06 48 0d be 5e fa 02 bf
       0.32258016 0.43815097 -0.13797006 -0.5116328
0000d0 27 e1 c5 3e 30 27 e6 be 48 08 9a 3e 70 4a 17 3e
       0.3864834 -0.44951773 0.30084443 0.1477449
0000e0 23 5d a9 3d 95 21 62 be cf 62 30 3f 71 d4 ca 3e
       0.082697175 -0.22083123 0.6890077 0.39615205
0000f0 f2 d9 f9 3d 00 48 c6 bd e9 28 93 3e b7 a2 21 3f
       0.12199773 -0.09681702 0.2874215 0.6313891
000100 6b 23 f3 be 2d 8f 8b be 5e ad 3c 3e 01 01 23 bf
       -0.4748796 -0.27257672 0.1842551 -0.63673407
000110 ca 3a db be 43 95 1a bf d2 da 04 bf 23 3d 11 3f
       -0.4281829 -0.60384005 -0.51896393 0.5673391
000120 8c c1 d6 3d 44 ed 47 bf 77 b0 d0 bd 60 ff a1 3c
       0.10486135 -0.78096414 -0.10189908 0.019775093
000130 cb f3 22 3c ce 2b e5 be 63 79 31 3e 0a 3d 18 bf
       0.00994582 -0.44759983 0.17331462 -0.5946814
000140 07 fc 37 3f 18 97 30 3e 54 55 63 3e 74 51 e6 be
       0.7186894 0.17245138 0.22200519 -0.4498402
000150 77 0e d7 bd 3a 5f 05 bf 48 83 66 bd 3f be 94 3e
       -0.10500806 -0.5209843 -0.056277543 0.29051396
000160 df c0 36 3f ca 1b 8e 3e 06 09 ce be 92 0a 42 bf
       0.7138805 0.27755576 -0.4024126 -0.7579738
000170 1a 4a 82 3e e8 2e ef 3e 27 9f 13 3e f1 50 6f be
       0.2544716 0.46715474 0.1441618 -0.2337072
000180 ee b2 12 3f 66 fc e4 3e ee f7 7e 3e f3 5f 20 bf
       0.57304275 0.44723815 0.24899265 -0.62646407
000190 ca 03 29 3f 30 7c 15 bf f0 bc e3 be 61 02 4a 3f
       0.66021407 -0.5839262 -0.44480085 0.7890988
0001a0 b2 71 cc 3d dc d5 14 bf 5c 53 af be 91 d6 2a bf
       0.09982623 -0.58138824 -0.34243286 -0.6673365
0001b0 94 2c 1f bf 21 29 05 3f 64 e3 01 3f c9 11 2a be
       -0.62177396 0.5201588 0.50737596 -0.16608347
0001c0 bf d9 a8 be 69 c5 f9 3e c2 53 00 bf 3c bc 35 3a
       -0.32978627 0.48783424 -0.50127804 0.0006932651
0001d0 00 39 32 3e 02 88 23 bf 78 a6 7b 3c 32 f3 b3 3e
       0.17404556 -0.63879406 0.015359513 0.3514648
0001e0 70 86 ce 3e 46 da 1a 3f 12 91 12 bf f2 c3 ee 3e
       0.40336943 0.6048931 -0.5725261 0.4663387
0001f0 e1 4e 02 be 0f df fc 3d ac b4 29 bf cc a2 22 bf
       -0.12725402 0.123472326 -0.6629131 -0.6352966

linear_enc.bias f4 [64]
000000 fe 14 f0 be 88 65 e2 be ef e9 ad be 07 1a b1 3d
       -0.46891016 -0.44218087 -0.3396754 0.086475424
000010 b8 f1 34 3f 90 ab d3 bc 15 23 37 bf fe c2 32 3f
       0.70681334 -0.025838643 -0.71537906 0.69828784
000020 bf e7 15 3f f6 c4 30 bf 69 e4 7a be 5d e1 26 3d
       0.5855674 -0.6905054 -0.24501194 0.040742267
000030 88 d9 b0 3e 27 77 a3 3d ad 5a 98 be 8e 6f 38 bf
       0.34540963 0.07981711 -0.2975668 -0.7204522
000040 7c ef 08 3f a2 c5 ff 3e af 57 bd be e0 04 a1 be
       0.53490424 0.4995547 -0.3698096 -0.31449032
000050 a3 6d fd 3e 8b 4f 96 3d d4 2c 02 bf 70 04 ab 3d
       0.4949771 0.0733939 -0.5084965 0.08350456
000060 e8 42 dc 39 ec 47 17 bf b8 ef a9 3d ee 54 8a 3e
       0.0004201152 -0.5909412 0.08297676 0.2701792
000070 f0 42 81 3e 0b e7 07 3f 71 d2 29 bf b1 b0 2f 3e
       0.25246382 0.5308692 -0.66336733 0.17157246
000080 cf b8 1a 3f f9 29 38 be 50 b3 5b bd 3b de 98 be
       0.60438246 -0.17984761 -0.053637803 -0.29857048
000090 15 63 ef 3e 7e 5d 35 3f 15 39 24 3f 5d 99 2a bf
       0.4675528 0.7084578 0.641496 -0.66640264
0000a0 39 69 a4 3e 1c 7f 13 bf 71 4c 5d be 7e 25 0d 3f
       0.3211153 -0.5761583 -0.21611191 0.55135334
0000b0 af ec 1f bf a2 72 04 3f 8f d8 d5 be 4c d9 ab bd
       -0.62470526 0.51737416 -0.41766784 -0.083910555
0000c0 2c f2 6c 3e 15 dc 2b bf e2 af 0e 3f d0 68 2c 3f
       0.23139256 -0.67132694 0.55737126 0.6734743
0000d0 f1 e6 11 3f 6d 8f 15 3f 38 29 5a be 46 de 15 3f
       0.56993014 0.58421975 -0.21304786 0.5854229
0000e0 a6 c8 a6 be e4 1b da 3d 8b 4b ad be 31 32 f7 3e
       -0.32574958 0.10649851 -0.33846697 0.4828048
0000f0 d7 57 18 3f 22 20 8f 3d fe 52 ec bc 71 c9 83 be
       0.5950903 0.06988551 -0.028848168 -0.25739625

encoder_lstm.weight_ih_l0 f4 [128, 64]
000000 50 2a 22 bd 30 fb 9b 3a ce c4 e0 bd e2 ce 2a be
       -0.039591134 0.0011900421 -0.109750375 -0.16680482
000010 95 b5 4c 3d 28 b3 b7 bc 30 73 0d be 96 b8 b8 3d
       0.049977858 -0.022424296 -0.13813472 0.09019582
000020 f9 88 3a 3e c8 65 9b bd 5b b2 09 3e ab a6 20 be
       0.18216313 -0.075877726 0.13446943 -0.15688579
000030 4e a7 e0 bd a7 a2 ed 3d 3d aa d5 3d a1 c7 19 bd
       -0.10969411 0.11603289 0.10432861 -0.037543897
000040 6d b5 02 bd cd 3c 06 3e d8 34 5e bd 9f cc f0 bd
       -0.031911302 0.13109131 -0.054249614 -0.117577784
000050 46 4e d1 3d cf 96 ac bc 8a 25 4f be c0 98 20 3e
       0.102200076 -0.021068005 -0.20229164 0.1568327
000060 55 42 73 be ae c3 9b 3c e8 77 09 3e 63 9f e1 bd
       -0.23755772 0.019014206 0.13424647 -0.11016729
000070 44 93 4e 3e 7c fd d1 3d 0a 4b 50 be c7 f4 01 be
       0.20173365 0.102534264 -0.20341125 -0.12691031
000080 dd 6e 82 bd 7c 4d cb 3d b6 c5 10 3e 73 e2 80 3d
       -0.06368802 0.09926888 0.1413792 0.06293192
000090 85 7f 77 3e 3e 34 e5 3c cc f9 e8 3c b4 3a 48 3d
       0.24169739 0.027979013 0.028439425 0.04888411
0000a0 9c cb 12 be 80 99 87 bb 41 50 b8 3c 1a c9 40 3e
       -0.14335483 -0.0041381717 0.022499206 0.18826714
0000b0 38 96 61 be 78 e8 f0 3d 95 79 f4 bd 56 ab 0e 3e
       -0.2202996 0.1176309 -0.119372524 0.13932547
0000c0 69 df 1c 3e ee 1d 82 3d 07 d7 b0 3d e6 3f a3 bd
       0.15319599 0.06353365 0.08634763 -0.07971172
0000d0 b0 ea 13 3e 77 92 31 3e 05 cf fe 3d b5 46 90 bd
       0.14444995 0.17341028 0.124418296 -0.07044736
0000e0 4b fe 27 3b 86 f2 23 3e 0b 65 cb 3d 2a 2e 14 3e
       0.0025633748 0.16010484 0.09931382 0.14470735
0000f0 b7 6a ed bc 7b bd 96 bd d1 ca ea 3d ad 1c 31 3e
       -0.02898155 -0.07360359 0.114644654 0.17296095
000100 bb ef 96 bd e5 36 87 3d e8 4f b0 3b 52 42 16 3e
       -0.07369944 0.06602267 0.0053806193 0.14673737
000110 10 b8 7c bd e6 1d f0 bd 4a 74 35 3e 8f 6f 22 be
       -0.061698973 -0.11724453 0.17720142 -0.15862869
000120 83 b6 e6 3d 2e 09 8c 3c cb 5f 08 3e cc 5d 25 3e
       0.1126528 0.017094221 0.13317792 0.16149062
000130 64 03 c1 bd d4 2c 86 3c 13 7c f8 3b 92 bb 42 bd
       -0.09424475 0.016378798 0.00758315 -0.047542162
000140 7f 5a d5 3d 50 49 00 be ef ec 26 3e eb cf a2 bd
       0.104176514 -0.12527966 0.1630132 -0.079498135
000150 91 75 3c be 56 52 f6 3d c2 04 87 bd 7c 30 86 bc
       -0.18404223 0.12027423 -0.06592704 -0.016380541
000160 20 7d 81 3c cd 03 c1 3d a6 7d e7 bd c8 27 94 bd
       0.015806735 0.09424553 -0.113032624 -0.0723415
000170 f6 67 89 bd 5b 20 23 be bb 61 ba bc 64 f9 41 3d
       -0.06709282 -0.15930311 -0.02275168 0.047356978
000180 bd 1b 74 3c a4 dd 7f bc 5a 1f ac 3d 16 ed 20 bd
       0.014899191 -0.015616808 0.08404417 -0.039288603
000190 d5 6e a2 3d 46 52 ee bd 66 c2 fb 3d 38 82 bd 3d
       0.07931296 -0.11636786 0.12292938 0.09253353
0001a0 f0 56 a3 bd d6 08 a3 bd 84 1f 5a bd e3 c6 ac 3d
       -0.079755664 -0.0796067 -0.053252712 0.08436372
0001b0 5b 8d 00 bd 81 02 c5 3d 42 24 f1 3d 49 41 98 bd
       -0.031384807 0.09619618 0.11774494 -0.07434327
0001c0 c8 5e 6a bd 63 fa 31 3e b4 6b bc 3d 7a 3c 95 3d
       -0.057219297 0.17380671 0.0920023 0.072869256
0001d0 4e 9e 20 be 1f 7d ca bd a6 94 80 bc 3b c5 27 3e
       -0.15685388 -0.09887146 -0.015695881 0.16383831
0001e0 a7 51 15 3e 6f 0b b6 3d 16 1e f4 bd 56 2c be bd
       0.14581929 0.088888995 -0.11919801 -0.092858
0001f0 66 32 0c 3e 33 4c 95 bd ce 60 b4 bd c0 09 61 3d
       0.136911 -0.072899245 -0.088075265 0.05494094
000200 1d 21 a6 bd 38 01 02 3e 19 58 8c bd 69 92 bf 3d
       -0.081117846 0.12695777 -0.06852741 0.093540974
000210 ed 27 cf bd 0d 13 fe bc a4 3f 32 be bc 36 01 be
       -0.10115037 -0.031014943 -0.1740709 -0.12618536
000220 12 e0 8a 3d 3d 48 fc 3d eb 9a 7d 3c 1c 38 43 be
       0.06781019 0.12318466 0.01547883 -0.19064373
000230 a6 19 35 3e f5 94 c2 3c b3 c9 1f be f7 f0 8e bd
       0.17685565 0.023752669 -0.15604286 -0.06979554
000240 3e 9f 63 bc 15 cf 46 3e 00 1f fa bc ac 5e 20 3d
       -0.013892947 0.19414933 -0.03053236 0.039152786
000250 cf 63 99 bd f0 55 1e 3d 3a 13 21 3b 90 f1 47 bd
       -0.0748974 0.038656175 0.002457811 -0.048814356
000260 e8 e0 27 be 69 25 1c be 97 72 2d be 40 2e b7 38
       -0.16394389 -0.15248646 -0.16938244 8.734735e-05
000270 41 cb fa bc aa 28 e6 bd 9d 7c 34 3d 8f 89 6a bb
       -0.030614497 -0.11238225 0.044064153 -0.0035787558
000280 c9 69 3b 3d 67 53 45 3d 96 d0 a0 3d 3a 08 63 3d
       0.04575518 0.04817524 0.078522846 0.055427767
000290 ac cb 41 3e 11 aa 84 bd bf b0 dc bc ca 10 a4 3d
       0.18925351 -0.0647775 -0.026939748 0.08011015
0002a0 a9 0e d7 bd 4e d5 55 bd 07 63 18 be 43 81 00 3e
       -0.10500843 -0.052205376 -0.14881526 0.1254931
0002b0 aa 2d f2 bd 75 25 5a bd 08 a5 c2 bd a2 07 df 3d
       -0.11825116 -0.053258378 -0.095041335 0.10890128
0002c0 c1 f3 40 be 67 76 b1 bd 86 6f f0 3d 60 ac a1 bd
       -0.18842985 -0.086651616 0.117400214 -0.07894206
0002d0 8c 97 bd 3d 4b 3c 37 3e 0b 46 08 3d 84 53 20 be
       0.09257421 0.17894094 0.033269923 -0.15656859
0002e0 e9 5d 8b 3d 6c d4 6a bd 6b 2a e5 bd 12 c9 17 be
       0.06805021 -0.057331488 -0.11189731 -0.14822796
0002f0 cd 6b d7 3d 35 14 07 3e cc 38 15 3c 85 bd d4 3c
       0.10518608 0.13191302 0.00910778 0.025969276
000300 b8 49 36 bc 90 43 22 be 8a 9f 19 3e 62 89 0b 3e
       -0.011125974 -0.15846086 0.15002266 0.13626626
000310 73 d4 08 bd 8c 6c 2b 3e 1e 81 e1 3d e3 ea 1d 3e
       -0.033405732 0.16740626 0.11010955 0.15421633
000320 4d 64 27 be cf 49 1e 3e 10 1b 11 3d 41 96 ac 3d
       -0.16346855 0.15457843 0.0354262 0.08427096
000330 77 9b 8f bd 1d f9 26 be f0 ed 71 3d 47 60 29 3e
       -0.070120744 -0.16305967 0.059064806 0.16540633
000340 a0 c3 03 be 40 ca e4 bd 37 43 f8 3d 5e cb ad bb
       -0.12867594 -0.111713886 0.12122195 -0.0053037843
000350 63 e5 f2 bd 3e 4b cc bd 88 30 98 bd 5d 72 ec bd
       -0.11860158 -0.09975289 -0.074311316 -0.115452506
000360 3d 42 e4 bd d7 5f 54 3d 7f 20 6a 3d 80 f0 f9 3c
       -0.111454464 0.051849212 0.057159897 0.030510187
000370 06 62 16 be b3 93 a2 3d 67 de f2 bd 71 9f 92 3d
       -0.1468583 0.07938328 -0.11858826 0.07159317
000380 16 f6 e5 bd 62 31 22 3e 88 3b 2d 3e dd dc 4b 3d
       -0.11228578 0.1583915 0.1691724 0.04977118
000390 73 59 12 be c4 47 20 be 4f f3 8b 3c 93 bd 12 3e
       -0.14291935 -0.15652376 0.017083792 0.1433013
0003a0 4e f1 f4 bc ce bf 8f bd 0c 1e 03 bd bc b9 ff bd
       -0.02990022 -0.07019006 -0.032011077 -0.12486598
0003b0 e6 c6 f0 bd 13 6e 11 3e 08 9f f7 3d 0e fe c3 bd
       -0.11756687 0.14202146 0.1209088 -0.095699415
0003c0 d0 ff 4e be 0d e3 e4 ba 95 1c 92 bd 31 ae 60 bd
       -0.20214772 -0.0017462686 -0.07134358 -0.054853622
0003d0 d6 97 f2 bd 1a 03 25 bd da d1 fd 3c af 62 d9 3d
       -0.11845367 -0.04028616 0.030983854 0.106145255
0003e0 19 5b 2b be 1e 31 03 be d2 b6 2b 3e aa e7 cf bd
       -0.1673397 -0.12811705 0.16768959 -0.10151608
0003f0 cc 45 89 bd 6e 9d e1 bc 76 f0 07 be 68 7a 37 3e
       -0.06702766 -0.027540889 -0.13275322 0.17917788

encoder_lstm.weight_hh_l0 f4 [128, 32]
000000 cd 1b 8c 3d 27 fb 4c be ea 8e 23 be 54 ae 3f be
       0.0684124 -0.20017682 -0.15972486 -0.18718845
000010 80 8d c2 bd 8e 06 c5 3a e0 53 d7 3d bc da 10 bd
       -0.09499645 0.0015031861 0.10514045 -0.03536485
000020 b2 5c 31 3c b6 39 e3 bd c6 4f 12 be 93 cb 15 3e
       0.010825323 -0.11094992 -0.14288244 0.14628439
000030 62 dd 63 bd b1 54 ee bc 4d 74 a5 bd 94 d8 6a bd
       -0.05563105 -0.029093118 -0.08078823 -0.05733545
000040 ed e4 a0 bc 3b 3a 86 3c 63 e7 fe 3b 01 dd 3b bd
       -0.01964041 0.016385188 0.0077790483 -0.045865063
000050 1a a4 27 3d 92 b7 9b 3d 7a f3 74 3e 8c ad 5a 3c
       0.040927984 0.07603373 0.23921004 0.013347041
000060 68 4d cd 3d f1 42 57 be c2 60 e3 3d 6c a0 fc 3d
       0.1002453 -0.2102163 0.111024395 0.123352855
000070 d1 9a 37 3e f8 d9 73 3e 78 3e 62 be b0 f5 42 3e
       0.17930152 0.23813617 -0.22094142 0.19039035
000080 68 07 a2 3d 59 cd 98 3c 50 09 ca 3d d1 02 73 3d
       0.07911569 0.018652605 0.098650575 0.059328858
000090 7a b4 eb 3d 46 43 03 3e 39 7c 32 3e 5d 87 3e 3e
       0.115090325 0.12818632 0.174302 0.18606324
0000a0 13 c8 e2 3d 63 ad 13 bc 4c d5 e8 3c 33 ca 2c bd
       0.110733174 -0.009013507 0.02842202 -0.04218502
0000b0 7f b7 6d 3d 1c f2 26 bd 94 e7 40 bd e9 de bb 3d
       0.058036324 -0.040758237 -0.04709585 0.09173376
0000c0 7f dc 25 3e 4f 78 06 3e 0b 69 31 bd 40 e2 b1 bd
       0.16197394 0.13131832 -0.043313067 -0.08685732
0000d0 24 c0 ff bd 15 78 0e be 41 bb 3c bd 7e d6 b7 3d
       -0.1248782 -0.13912995 -0.046077017 0.08976458
0000e0 f3 ce 09 3d 66 2b 70 bd 8a 60 a3 bd 44 d3 17 be
       0.033644628 -0.058635138 -0.07977398 -0.14826685
0000f0 38 23 2d be fc 33 40 be e5 f0 ba 3d 42 a0 90 bd
       -0.16907966 -0.1876983 0.09127978 -0.07061817
000100 20 ce fd bc b5 8b 90 3b 6d 2b 58 3d f1 32 2e be
       -0.030982077 0.0044111856 0.05277579 -0.1701162
000110 72 3a e8 bd 31 ec 5c bc 9e 15 c2 bd 90 8a e0 bd
       -0.113392726 -0.013484047 -0.094767794 -0.10963929
000120 14 22 10 3e a1 07 22 bd 7a 54 10 be 62 75 13 3e
       0.140755 -0.039558057 -0.14094725 0.14400247
000130 54 0c 4e 3d bc 1d 3c 3c 5f 61 17 bc 83 63 2b be
       0.050304726 0.011481699 -0.009239524 -0.1673718
000140 ab 77 54 3d 2e f5 0e 39 49 80 b9 bb 04 c7 9e bc
       0.051871937 0.00013633512 -0.0056610447 -0.019382007
000150 e1 e6 c2 3c ef db 2c 3d be bd 1f bd 00 14 b8 3d
       0.023791732 0.042201933 -0.03899931 0.0898819
000160 ec b3 23 3c a0 42 81 3d 33 99 07 3e a8 e3 60 3c
       0.009991627 0.06311536 0.13242035 0.0137261525
000170 75 69 b8 3c 71 03 2c 3d ae 1b ed bd 17 7b 5f 3d
       0.022511223 0.04199547 -0.11577545 0.054560747
000180 65 f7 03 be 09 7c f7 3d 0d cf a7 3d 3b 46 99 3b
       -0.12887342 0.12084205 0.08193789 0.0046775616
000190 25 46 ac bd 81 0a 6e bd d8 d3 0b be 44 42 9e 3d
       -0.084118165 -0.058115486 -0.1365503 0.07727483
0001a0 94 49 d3 bc b1 10 31 be 4d 7d 85 3c fd 5f 95 3d
       -0.02579192 -0.17291524 0.0162951 0.07293699
0001b0 25 5d 14 be fa 4c f0 bc 4e 9a 35 3e da 16 20 be
       -0.14488657 -0.02933358 0.17734644 -0.15633717
0001c0 24 12 28 be 99 99 36 3e 90 51 df bc 9b e1 e2 3d
       -0.1641317 0.1783203 -0.027260572 0.11078187
0001d0 e3 bb e5 3c 5e 12 f4 3c 3f 0d 9e bb ce 99 0d be
       0.028043693 0.029793914 -0.0048233564 -0.13828203
0001e0 43 7d 9f 3d e1 10 3f bc 18 21 0b 3e 78 8a 21 3e
       0.07787564 -0.011661739 0.13586843 0.15775478
0001f0 e7 be e3 bd 2a 6c 21 3e b0 56 30 3e a6 2c be 3d
       -0.11120396 0.15763918 0.17220569 0.0928586
000200 f7 ad 2e 3e b7 7a 27 3e a4 0f 72 bd 3f b1 30 3e
       0.1705855 0.16355406 -0.059096947 0.17255114
000210 a1 72 4b bc 2e 44 d9 3d ec 81 0f be 6d d6 a8 3d
       -0.012417466 0.10608707 -0.14014405 0.082440235
000220 ec b3 92 3d 1a e2 e2 bd 8a f9 3c 3e 76 60 2b be
       0.071632236 -0.11078282 0.18454567 -0.16736016
000230 f6 53 fc bd f5 64 bb bd 2f 81 19 be fc 0a 92 3d
       -0.12320702 -0.091501154 -0.14990686 0.07131001
000240 8a 54 48 3d c4 b4 6c 3c c9 c0 a8 bd 01 05 3b 3e
       0.048908748 0.014447395 -0.08239896 0.18263628
000250 1b 21 3c 3e 0e 25 33 be 74 ef 18 be 62 ea 8a 3d
       0.18372004 -0.17494604 -0.14935094 0.06782986
000260 5e d6 f6 3d cc 3f 8b 3b 06 c5 94 bd 38 ac ae ba
       0.12052606 0.0042495485 -0.07264142 -0.0013326472
000270 20 8e f3 bd 1b b9 02 3d b5 d1 b7 bd 76 7a 0d be
       -0.118923426 0.03191481 -0.08975545 -0.13816246
000280 8f f9 2f bd 85 37 43 bd 9f eb ad bd 31 e0 49 be
       -0.042962607 -0.04766037 -0.08492207 -0.19714428
000290 ab 1a 1d 3e 6a fc 40 3d de 4b 26 3e cf 61 5d bd
       0.15342204 0.04711572 0.16239879 -0.054048356
0002a0 86 e7 07 3e 76 96 e4 3d c3 01 b5 3d 72 9a 5c bd
       0.13271913 0.11161511 0.08838227 -0.053858228
0002b0 66 69 6e 3d 81 48 d4 3c 8e ca ca bd e8 b0 ee 3d
       0.058205985 0.025913479 -0.099019155 0.11654836
0002c0 6f 6f 98 3d 6c 07 0d bd 1c 18 38 3e df 54 fb 3d
       0.07443129 -0.034430906 0.17977947 0.12272047
0002d0 7e 4b 29 3e 8c 8c ec 3c a2 a0 b0 bd 49 59 bd 3d
       0.16532704 0.028875612 -0.08624388 0.092455454
0002e0 5b 99 86 bd 2c 56 ae 3c 2c 53 70 bd 8b 8c 86 bb
       -0.06572219 0.021281324 -0.05867307 -0.0041061095
0002f0 04 cc 0e 3e ba 9f 62 3d b0 7d 18 3d cb f8 2d be
       0.13945013 0.05532811 0.03722924 -0.16989438
000300 cd c2 67 3d 3b fc 0a 3d 5d e7 94 3d 69 0a 0e 3e
       0.05658226 0.033931952 0.072706915 0.13871159
000310 b8 4f d8 bd d8 6f de 3d 31 97 ba bd 16 f7 26 bd
       -0.1056208 0.10861176 -0.09110869 -0.040762983
000320 07 2d 22 be 3a d1 b9 bd 55 13 a5 3d d2 9b 1a bd
       -0.15837489 -0.0907311 0.08060328 -0.037746258
000330 f8 ba 14 3e 22 d8 5b 3c ec 89 41 be 7a 73 cc bd
       0.14524448 0.013418229 -0.1890027 -0.09982963
000340 89 6d 27 be 6e 3f ae 3d 80 8c 0a 3e fa 1c ac 3d
       -0.16350378 0.08508192 0.13530159 0.08403964
000350 52 55 0c 3e 9c f9 3b be 85 c0 06 3e 35 1f f4 bd
       0.13704422 -0.18356937 0.13159378 -0.11920015
000360 76 68 fc 3d af be 26 bc d7 aa 11 bc e3 0b 14 bd
       0.12324612 -0.010177298 -0.008890829 -0.03614415
000370 51 d0 4d 3c dc 8e 0d be 96 3f ad bc 32 ad f0 3d
       0.0125618735 -0.13824028 -0.021148484 0.117517844
000380 01 99 8f 3d 9e a6 ae bd 18 d8 ac 3d b3 ed 8c bd
       0.07011605 -0.085278735 0.08439654 -0.06881275
000390 1a 57 1f bd 05 42 85 3c ce 6c 08 3e 7a 88 77 3d
       -0.038901426 0.016266832 0.13322756 0.06043289
0003a0 aa 1c ea bd 54 df 25 be 73 fd c3 bc 4e 58 d2 3d
       -0.114312485 -0.16198474 -0.023924565 0.10270749
0003b0 70 42 97 3d ff 93 3c be 0c 22 42 3d bc 39 d3 3d
       0.07385719 -0.18415831 0.04739575 0.10313746
0003c0 c5 60 67 bd cb d8 02 3e a9 72 de bd 17 54 ba 3d
       -0.05648877 0.12778012 -0.108617134 0.0909807
0003d0 0c 2d 24 be 62 db 1f be 34 09 b4 bb 5b 87 27 be
       -0.16032809 -0.15611032 -0.005494261 -0.16360228
0003e0 dd 78 f0 3d 0b 24 cb 3d f6 9d e2 3d 20 90 e8 3d
       0.11741803 0.09918984 0.11065285 0.11355615
0003f0 62 0c 00 3e 26 a3 f4 3d 20 13 0a be 4f 6a 0f be
       0.12504724 0.119451806 -0.13483858 -0.14005397

encoder_lstm.bias_ih_l0 f4 [128]
000000 02 ff 10 3d 3a 5b f2 3d 7e 7d 07 bb 47 d9 08 be
       0.035399444 0.11833806 -0.0020674164 -0.13364135
000010 74 2e 2d be 32 86 c3 bd 52 28 95 3d 72 27 b2 3d
       -0.16912252 -0.0954708 0.07283081 0.0869893
000020 40 96 a4 3c e8 54 15 3c bb 7a 37 3e 0e 25 9e 3d
       0.020091176 0.0091144815 0.17917912 0.07721911
000030 63 55 65 bd 56 24 ed 3d 67 d6 6b 3c 36 01 08 be
       -0.055989634 0.11579196 0.014394379 -0.13281712
000040 0d a3 41 3d 16 d8 c0 bd c9 a1 03 3d 50 90 00 be
       0.047274638 -0.09416215 0.032136712 -0.12555051
000050 90 aa d1 bd 3d e7 1f be 9c 82 a0 bd 96 7f 28 bd
       -0.1023761 -0.15615554 -0.07837412 -0.0411373
000060 d0 26 de bd 1d e4 02 be e6 c9 f5 bd 29 fa 59 bd
       -0.10847247 -0.12782331 -0.120014 -0.053217087
000070 65 3f 79 3d 73 d6 1a 3e 78 f2 04 be 37 ae d8 3d
       0.060851473 0.15120868 -0.1298312 0.10580104
000080 e4 b8 01 3d 17 60 eb bc a8 dc 69 3b 3a eb d6 bd
       0.031670466 -0.028732343 0.00356845 -0.10494085
000090 0c 4c 80 3c 20 e8 90 bb 6f b3 1e be bf 5b 70 bd
       0.015661262 -0.0044222027 -0.15498136 -0.058681246
0000a0 47 08 c7 bd 1c 68 e1 bd d0 d1 2c be fb d1 42 3e
       -0.09718376 -0.110061854 -0.16876912 0.19025414
0000b0 de ca f4 bd 68 66 fe 3c b8 34 c7 bd b2 4b 0a 3e
       -0.11952756 0.03105469 -0.09726852 0.13505438
0000c0 de 40 2b be 73 6c ed bc e7 65 66 3d 14 07 e5 bc
       -0.16723964 -0.028982377 0.056249525 -0.027957477
0000d0 30 2f 00 be 6e b4 5e 3d 47 83 0d 3e 46 f6 86 bd
       -0.12518 0.05437129 0.1381961 -0.06589942
0000e0 48 72 f9 3d 58 42 b8 3d 34 57 9d bd 87 a0 44 bd
       0.121800005 0.08997029 -0.07682648 -0.048004653
0000f0 eb 81 2e 3d 38 84 87 3c 5f 88 14 3e b8 09 0c 3e
       0.04260437 0.016542539 0.14505146 0.13675582
000100 cc 80 44 bd de 1a 08 be 81 f5 e0 3d 19 01 d9 bd
       -0.047974393 -0.13291499 0.10984326 -0.105959125
000110 30 41 ea 3c 16 e6 d1 3d b9 4e 52 3d f4 dc b7 bc
       0.028595537 0.102489635 0.051344607 -0.022444226
000120 e8 87 02 be 63 12 c7 3b 18 1c 12 bd 2e 2e ea bc
       -0.12747157 0.00607519 -0.035671324 -0.028586473
000130 42 70 0b be b9 a0 43 bd af b2 5d 3c 52 be a6 bd
       -0.13617042 -0.0477607 0.013531371 -0.081417695
000140 8c b7 ae bc d1 36 02 be d4 7d ff 3d f4 67 3d be
       -0.021327756 -0.12716223 0.12475172 -0.18496686
000150 fc 8c 6f bd 30 bc a4 ba 41 a1 39 3e c0 08 26 be
       -0.058484063 -0.0012568291 0.1812792 -0.16214275
000160 36 a1 b3 3d 61 ff e6 bd d3 b0 67 bd 75 c5 ea ba
       0.08770983 -0.112791784 -0.056565117 -0.001791163
000170 f7 18 a2 bd 27 b5 51 3d c8 f0 cc 3d f8 d9 07 be
       -0.07914918 0.05119815 0.10006863 -0.13266742
000180 3c ba 77 3d 5d a9 fd bd 94 b1 06 bd 68 38 71 bd
       0.06048034 -0.12385819 -0.032884195 -0.058891684
000190 6e 4a 6d 3d e2 98 dc 3d 64 96 07 be 7c e6 cb 3c
       0.05793231 0.107713476 -0.13240963 0.024890177
0001a0 42 09 0b 3e 42 42 1a 3e 5a 72 e9 bc b7 70 18 3e
       0.1357775 0.15064338 -0.02849691 0.14886747
0001b0 a6 86 1a 3e ee 3b c9 bc f8 68 50 bd cd 9c 08 be
       0.15090427 -0.02456471 -0.050881356 -0.13341065
0001c0 40 4c bd 3d d3 37 a9 3c b8 1c 1f be 19 7c 15 bd
       0.09243059 0.020656502 -0.15538299 -0.036495302
0001d0 2b 04 86 bd 07 ca ed 3c 31 17 d7 3c b0 9a e6 bc
       -0.06543764 0.029026998 0.026256176 -0.028149933
0001e0 76 7e 4c 3d ee 26 0e be 46 33 90 3d 66 78 a3 3d
       0.04992529 -0.13882038 0.0704103 0.079819486
0001f0 6d 9f 1e 3d f9 5c d4 3d f5 8d 2a 3e 62 a8 13 3e
       0.03872626 0.103692956 0.16655715 0.14419702

encoder_lstm.bias_hh_l0 f4 [128]
000000 d6 b0 52 3e 01 47 c8 3d c5 be 8e 3d 83 5c 23 be
       0.2057527 0.09779168 0.0696998 -0.15953259
000010 89 c6 0a bd 09 79 f1 3d 0c da 05 be 6e 4c cb 3c
       -0.033880744 0.11790664 -0.1307146 0.024816718
000020 f4 8e b0 3d da 1c c0 bd 19 de 87 3d 2d 95 9f bd
       0.08621016 -0.09380503 0.06634159 -0.07792125
000030 bc 65 43 bb 1f f0 48 3e 80 78 04 bc 46 51 ed bd
       -0.0029815277 0.19622849 -0.00808537 -0.11587767
000040 f9 58 a8 bd 79 90 48 3c 7a aa 0b bd 29 43 ff bd
       -0.08220095 0.012241476 -0.034098126 -0.12463982
000050 b7 c2 10 3e aa ab 35 3e 78 97 0c 3e d1 43 39 3d
       0.14136778 0.17741266 0.13729656 0.04523069
000060 17 ba df bd 70 26 02 be 4c cb d1 bd 1c 80 15 3e
       -0.10924166 -0.12709975 -0.10243854 0.14599651
000070 86 dd 43 3e d4 e9 f7 ba 10 27 54 bd d0 f5 10 3d
       0.19127473 -0.0018914291 -0.051795065 0.035390675
000080 dc dc b4 bd 3f d0 ce bc b8 90 12 3e 7e f2 0e 3e
       -0.08831188 -0.025245784 0.14313018 0.13959691
000090 2b 30 22 3e a3 6b 29 be b5 14 c2 3d c9 8a 15 3e
       0.15838687 -0.16544966 0.09476606 0.14603724
0000a0 1a 10 62 3d 66 c3 30 3d eb 53 10 be c6 d1 a2 3c
       0.055191137 0.043155096 -0.14094512 0.019875418
0000b0 90 d3 1e be 26 fc da bd 97 fa cb bd c4 bf 1f 3e
       -0.15510392 -0.10692625 -0.099599056 0.15600497
0000c0 d8 79 5b bd 45 a0 74 bd 31 fe 4e 3d 47 ab f1 bb
       -0.053582996 -0.059723157 0.050535385 -0.007375154
0000d0 fe a8 ba bd ec de 88 bd c3 be dc 3d 58 56 a7 3c
       -0.09114264 -0.06683144 0.107785724 0.020426914
0000e0 13 20 e2 bb 1d 42 28 bd b9 08 1a 3c ab 0b 70 3d
       -0.006900796 -0.041078676 0.009401494 0.058604877
0000f0 a2 43 e8 3d 86 9e 01 be 76 5f 03 be 81 e0 4d bd
       0.11341025 -0.12658128 -0.12829384 -0.05026293
000100 be 77 2c be db 63 94 bd 1e a8 41 be 20 4a 1b be
       -0.16842553 -0.072456084 -0.18911788 -0.15164995
000110 3f e2 32 3e ab 7e 17 3e 5a d2 96 bd 02 e5 b7 bd
       0.17469119 0.14794414 -0.0736434 -0.08979227
000120 30 bb 3d bc bb 3c 2d be 59 7d 24 3c 09 82 a8 bd
       -0.0115802735 -0.16917698 0.010039651 -0.08227927
000130 e6 79 55 bd af ad c3 bd c8 09 11 be 9d 07 17 3e
       -0.052118205 -0.09554612 -0.14163888 0.14748998
000140 ff fd df 3d af c1 71 bd 5d d8 43 3d 34 e2 84 bb
       0.10937118 -0.0590226 0.047813762 -0.004055286
000150 bb 61 4b 3d d8 fa b9 bd 6d c1 f5 bd c2 44 f0 bc
       0.04965375 -0.09081048 -0.11999784 -0.029329661
000160 7b d2 43 bd e6 3a 0e 3e 4a d4 c0 bd 14 49 0b be
       -0.04780815 0.13889655 -0.09415491 -0.13602096
000170 96 a3 23 3e ad 80 51 3b f7 da 7e 3c f4 71 2c be
       0.15980372 0.0031967566 0.015555135 -0.16840345
000180 eb 00 23 3e 45 30 d3 bd 08 90 22 3e ec 32 ed bd
       0.15918319 -0.10311941 0.15875256 -0.11581978
000190 6f a4 02 3e 9a e9 a8 3d 74 9d 9c 3d 01 f1 27 bc
       0.12758039 0.08247681 0.07647219 -0.010250331
0001a0 dc 73 b6 3d 4a 21 fa 3d 3f 97 09 3e 81 a4 c0 3c
       0.08908817 0.12213381 0.13436602 0.023515942
0001b0 84 3e e5 3d 68 49 98 bd 11 6f 2e 3d f2 6a ac bd
       0.111935645 -0.07435876 0.04258639 -0.08418836
0001c0 1d f5 03 3e 4a b0 3d 3d fa af 04 be 7c 50 24 bd
       0.12886472 0.0463107 -0.12957755 -0.04011582
0001d0 ed 16 ab 3d 18 cc 3d 3e ac dd 9a 3d ad 4b 8b 3d
       0.08353982 0.18534887 0.07561812 0.068015434
0001e0 94 33 23 bc 25 13 12 3d 50 87 d7 3d d6 4d 4e 3e
       -0.009961028 0.03566279 0.10523856 0.2014688
0001f0 6e 5c 0c 3e 8a 46 e0 3d 1c c3 0e 3e e9 45 05 3e
       0.13707134 0.10950954 0.13941616 0.1301495

dest_lstm_obs.weight_ih_l0 f4 [128, 2]
000000 c8 f1 e8 3d f9 8e ae 3d 8e 4d 03 be f3 de ba bb
       0.11374241 0.085233636 -0.12822554 -0.005702847
000010 41 ff ec 3c 4f 91 22 be 7c 6b a9 3d c3 c0 62 bc
       0.028930308 -0.15875743 0.08272454 -0.013839903
000020 9d 79 c1 3d a4 00 34 3d e0 bf 35 3d 29 bd ed bd
       0.09447024 0.043945923 0.04437244 -0.11608345
000030 da 1b 04 3e d8 86 b4 bd 66 9d 67 bd 86 05 02 bd
       0.1290125 -0.08814782 -0.05654659 -0.03174355
000040 57 66 49 3c 8e 34 8d bd 67 c3 1f be 82 c3 2d be
       0.012292466 -0.0689479 -0.15601884 -0.16969112
000050 8d 71 11 3e d0 00 15 3d 67 ab e6 bd 7c 7b db bb
       0.14203472 0.036377728 -0.11263161 -0.00669807
000060 8e 44 a4 3b 3b cd ee bd 6a 92 27 be 82 b0 9a bd
       0.005013055 -0.11660238 -0.16364446 -0.075531974
000070 64 03 af bd 75 06 e6 bd 5f 15 01 3e b8 73 43 be
       -0.085455686 -0.112317 0.12605809 -0.19087112
000080 34 eb 87 3a 59 4a a2 3b 96 72 96 3d 12 d0 46 3c
       0.0010369779 0.0049527106 0.07346074 0.012134569
000090 46 7c 48 3d ee ff 30 be 11 a0 ce 3d 26 a1 8a 3d
       0.04894664 -0.1728513 0.10089124 0.06769018
0000a0 d2 67 eb bd 21 64 cb bd 71 b2 ed bd 18 da 42 3c
       -0.114944115 -0.099312074 -0.116063006 0.011892818
0000b0 12 3a 0a 3e a9 2a cb 3d a0 d4 87 3d 7a 0a ec 3d
       0.13498715 0.09920246 0.06632352 0.11525436
0000c0 77 c4 40 3e 53 64 b8 bd 13 44 45 3c 51 38 e3 bd
       0.18824945 -0.0900351 0.012040156 -0.11094726
0000d0 ec c9 ce bd f6 f9 fa bd a4 91 be 3d 44 a0 a9 bd
       -0.10097107 -0.122547075 0.093051225 -0.08282521
0000e0 11 0b dd 3d 26 23 cb bc 25 ae b9 bd 91 a6 13 be
       0.107931264 -0.024797034 -0.090664186 -0.14419009
0000f0 3a 3d 06 3e 66 e8 15 3d c4 9b fa bd a6 42 bc 3d
       0.13109294 0.036598586 -0.12236741 0.091924
000100 4c 92 63 bd 50 b5 54 bd 98 0c 60 bd d3 c6 14 be
       -0.05555944 -0.051930726 -0.05469951 -0.1452897
000110 3f 69 07 3e 62 82 1a be 66 70 c5 3d 91 78 f1 bd
       0.13223742 -0.150888 0.09640579 -0.11790574
000120 bf 23 c7 3d b2 36 12 be 86 cc 60 bb fd 62 89 bd
       0.09723615 -0.14278677 -0.0034301593 -0.06708334
000130 8e d3 3b be aa 3a 93 bc 7d e4 25 bd 0a 3d 53 3c
       -0.1834242 -0.01797231 -0.040501107 0.012892971
000140 b1 df 7b bd c9 10 aa 3d 42 c4 ee bd f8 e7 b1 3c
       -0.061492626 0.08303983 -0.11658527 0.021717057
000150 f5 23 3f 3c ef 76 24 be 8a fd c7 3d 26 43 b1 3d
       0.011666288 -0.16060995 0.097651556 0.08655386
000160 1c ff f6 bd d0 44 0f bd 77 67 a4 3d 00 5b b9 3d
       -0.12060377 -0.034977734 0.08027547 0.0905056
000170 23 9a b9 bd 28 7b f5 bc 42 6d cb 3c b6 6b 2e 3d
       -0.09062602 -0.029965952 0.024832372 0.04258319
000180 72 fe 00 3e 3c ab 57 bd b4 f5 33 be 6f 6b 11 be
       0.12597063 -0.052653536 -0.17574197 -0.14201139
000190 87 15 ac bd de 09 44 bd 71 73 ce 3c 7c 14 05 bc
       -0.084025435 -0.047860973 0.025201531 -0.00812256
0001a0 f8 d2 ee bc 30 c1 e8 3c 1e 89 86 ba b7 aa cf 3d
       -0.029153332 0.028412431 -0.0010264253 0.10139983
0001b0 20 45 05 bd 22 cd 67 bd 25 2a 0b 3b 96 e0 2b be
       -0.032536626 -0.056592114 0.0021234837 -0.16784891
0001c0 4d f3 dc bd a8 f4 5b 3d d2 5e 1f be 0b 5d 2f 3e
       -0.107885934 0.05370012 -0.15563515 0.17125337
0001d0 e1 fa b2 3b ae 8d 23 bb 70 fa c2 3d 52 01 00 3e
       0.005462036 -0.0024956274 0.095204234 0.12500504
0001e0 d2 90 b8 3c c2 25 e2 3c cc 81 70 3c fa 29 0f 3e
       0.022529993 0.027605895 0.0146793835 0.13980857
0001f0 c8 4d cc bd d2 1b f5 3d fb e1 10 be 16 3d 1a 3d
       -0.09975773 0.11968197 -0.14148705 0.037655912
000200 fd 36 bf 3d c1 ae ad bd 0d 97 3a 3d 78 f2 88 3d
       0.0933666 -0.08480597 0.04555421 0.06686872
000210 25 1b 96 bd 3b b6 31 3d da 44 ab 3d 61 da 08 bd
       -0.07329396 0.04338668 0.08362742 -0.033411387
000220 4f fa a1 3d 52 b4 e2 bd 50 49 1f be 80 e8 2d 3e
       0.07909071 -0.110695496 -0.1555531 0.16983223
000230 49 ab 0f 3e b5 72 6c 3d 7b 01 97 3d d4 a0 43 bd
       0.14030184 0.05772658 0.07373329 -0.0477608
000240 d4 4f aa bd 9e 5c d1 3d 05 75 b3 bd e0 33 a0 bd
       -0.08316007 0.102227435 -0.08762554 -0.07822394
000250 c0 48 db bd 86 ba b3 bd d8 7f 38 be 7a 5e bd 3c
       -0.10707235 -0.08775811 -0.18017519 0.023116339
000260 b2 fa 0b be b2 5c 37 3c cf 8a a3 3d 7c 49 fd bd
       -0.13669851 0.011191534 0.0798546 -0.12367532
000270 60 6a cd bd 52 bd 4f 3d 17 46 e2 3d 6b 21 80 3d
       -0.10030055 0.05071766 0.11048525 0.06256374
000280 42 95 46 3d 2c d4 fa 3d c6 5a 17 be 0d 4c 00 be
       0.048482187 0.122475 -0.14780721 -0.12529011
000290 72 8a 90 bb 26 08 11 3d 32 c7 6c 3d 95 68 98 3d
       -0.004411035 0.03540816 0.057807155 0.074418224
0002a0 38 a9 ce 3d e5 53 76 3c 6e 11 18 be 0f d8 34 3e
       0.1009087 0.01503465 -0.14850399 0.17660545
0002b0 c5 01 c5 3d d9 fe 19 3e 12 43 db 3d a8 b3 a5 b8
       0.09619478 0.15038623 0.10706152 -7.901277e-05
0002c0 c9 05 0c ba 4e 08 ca 3c 18 06 f4 3d 80 30 ea 3d
       -0.0005341438 0.024662163 0.11915225 0.11435032
0002d0 b1 65 c6 ba d5 2f 1b bd 31 00 37 bc 55 b4 ba bd
       -0.0015136508 -0.037887413 -0.011169479 -0.09116427
0002e0 84 61 a6 b9 73 66 d6 3d 0e df 5c bd fa cc 52 bd
       -0.00031734642 0.104687594 -0.05392366 -0.051465012
0002f0 43 54 98 3c e0 5c b9 bc bd 0e ef bd 27 03 9b bc
       0.018594867 -0.022627294 -0.11672733 -0.018922402
000300 94 b3 7b 3d be ce ba bc 54 f9 6b 3d d6 ac bd 3d
       0.061450556 -0.02280366 0.057610825 0.092614815
000310 a2 5b 60 3b 36 67 d1 3c e0 81 eb bd c3 ea 22 3c
       0.0034234305 0.02556191 -0.11499381 0.009943667
000320 b7 01 8a 3d e0 4f b6 bd 02 c2 64 bd 88 dc 0e 3e
       0.06738608 -0.08901954 -0.055849083 0.13951313
000330 8d 14 12 3e 42 41 90 3d a0 0d 88 3d ec 74 36 3d
       0.14265652 0.07043697 0.06643224 0.0445451
000340 32 98 ce 3d 26 85 24 be 05 b7 b3 3c ce 17 b3 3d
       0.10087623 -0.16066417 0.021937856 0.08744775
000350 1a 28 fa bb b7 5c f1 3d 50 bc 81 3b 66 d9 06 be
       -0.007634175 0.11785262 0.003959216 -0.13168868
000360 a4 88 79 bd 5d fa 07 be 28 ae df bc c8 9a db 3a
       -0.060921326 -0.132791 -0.027304724 0.0016754502
000370 74 53 ee bd 52 49 ed bd 25 2f c3 3d 83 79 87 3c
       -0.11637011 -0.1158625 0.095304765 0.016537433
000380 aa fa b0 3c 57 ab 77 bc 08 e0 3a be a4 e8 f6 3d
       0.021603901 -0.015116534 -0.18249524 0.120560914
000390 59 17 a4 bc 22 4a a5 bd ec 86 c5 bc eb 87 1a 3e
       -0.020030664 -0.0807078 -0.024112187 0.15090911
0003a0 e4 f1 de bd a1 68 ac bd 91 4c 79 bd bf 73 45 3d
       -0.10885981 -0.08418394 -0.060864035 0.048206087
0003b0 17 a1 1e 3d e1 59 23 3e f4 40 16 be 4f d4 2d bd
       0.038727846 0.15952255 -0.14673215 -0.0424388
0003c0 40 92 db 3d 44 ff 15 bd 20 88 cd 3d e5 56 a9 3d
       0.10721254 -0.036620393 0.100357294 0.08268527
0003d0 ff 94 c4 3d 82 ca 89 bd 7b d5 8f bc 4d fc 10 bc
       0.09598731 -0.067280784 -0.01755785 -0.008849216
0003e0 c8 b9 0e 3c 71 e4 e0 bc ba 71 0e 3e 79 12 c3 bd
       0.008711286 -0.02745268 0.1391057 -0.09525008
0003f0 51 30 3f bd 9c 4e 82 bb 45 c4 fe 3c 8e 10 a8 bd
       -0.046676937 -0.003976656 0.031099448 -0.082062826

dest_lstm_obs.weight_hh_l0 f4 [128, 32]
000000 8b a8 b4 3d f1 eb e6 bd 4a db 38 be 94 f8 22 be
       0.088212095 -0.11275471 -0.18052402 -0.15915138
000010 1f 17 39 3e 8b 60 f0 3c 01 50 07 be c3 39 dd 3d
       0.18075226 0.02934291 -0.13214113 0.10802033
000020 16 e2 d2 3b e4 a9 a1 bd 7a 3e 0f 3d 4a 53 54 3b
       0.006435643 -0.07893732 0.03497169 0.0032398277
000030 9e 64 c8 3d 45 47 ea bd 52 a9 b0 3d 9f d5 b4 3d
       0.09784816 -0.11439375 0.08626045 0.088298075
000040 6c 20 d4 bd c6 bf 01 3e 54 fd 80 3d 10 fc 02 be
       -0.103577465 0.12670812 0.062983185 -0.12791467
000050 8c d1 2a 3d 92 43 87 bd 67 64 8a bd b6 3b f2 bc
       0.041703746 -0.06604685 -0.067574315 -0.029569488
000060 e8 dd 55 bd a5 14 1b bd 0c 95 cf bd 0c 4c a8 3c
       -0.05221358 -0.037861485 -0.1013585 0.020544074
000070 e6 59 91 bd 9c 22 23 bd 3a 48 af bd be 50 24 3e
       -0.07097225 -0.039827928 -0.08558698 0.16046426
000080 66 64 09 be cb db ea bd cc b3 68 bd 20 05 ea bd
       -0.13417205 -0.114677034 -0.056812093 -0.11426759
000090 fa 1d 0c 3e c8 47 35 be 23 5c 6e 3d 31 71 c1 bc
       0.1368331 -0.17703164 0.058193337 -0.023613544
0000a0 e8 91 15 3e 15 31 3d 3d 59 30 b3 3d 84 58 87 bd
       0.1460644 0.046189386 0.08749456 -0.0660868
0000b0 a8 73 b3 bd e1 84 94 3d d7 39 b4 3d 61 44 e9 bd
       -0.08762294 0.07251907 0.088000946 -0.11389995
0000c0 b2 06 be bd d4 4c ec 3d 73 43 5b 3d ca ea f4 bd
       -0.09278621 0.11538091 0.05353112 -0.11958845
0000d0 41 1a 46 bd 8a 7d 88 3d b4 fe 14 3e cf 89 b0 bd
       -0.04836488 0.0666457 0.14550287 -0.08620035
0000e0 12 22 25 bd c9 b0 e7 bd fc 2a 02 3d 92 00 ea 3c
       -0.040315695 -0.11313016 0.031779274 0.028564725
0000f0 a7 bf 3a bc be 55 bd bd 81 85 74 3b b0 5a 21 be
       -0.011398233 -0.0924487 0.003731102 -0.15757251
000100 4b 30 9b 3d 89 ec 82 bd aa b4 19 3d 16 c9 05 3e
       0.075775705 -0.06392772 0.03752581 0.1306499
000110 be 5f f0 39 a3 29 c9 bd 38 da de 3a 42 bd 33 3b
       0.000458477 -0.09822395 0.001700229 0.002742604
000120 10 19 1a 3e 82 80 3b bc 64 9c fc bc d7 2a 34 bd
       0.15048623 -0.011444213 -0.030836292 -0.043986168
000130 12 45 a7 3d c5 97 26 3d 37 26 a4 bd ba 8c 9a bd
       0.08167471 0.040672082 -0.080151014 -0.07546373
000140 ad 98 9e bb 69 84 13 be 2d ba 68 3e d9 66 2d bb
       -0.0048399777 -0.14405979 0.2272727 -0.0026459007
000150 6c 8d ce bd 9e e3 f1 3d 9e 90 a5 bc d0 40 2b be
       -0.10085568 0.11810993 -0.02021056 -0.16723943
000160 d7 e3 bd 3b 6f 27 d8 3d e6 8e 14 3e 51 05 ed bd
       0.005794983 0.10554396 0.14507636 -0.1157328
000170 b8 30 34 3e 3e 8a dd 3d 54 dc 3e 3e df 6b 2b 3e
       0.1759671 0.10817383 0.18638736 0.16740368
000180 6f b1 37 be 08 90 ad bc 39 6a 3b 3b 94 b2 11 3e
       -0.1793878 -0.021186844 0.002859725 0.14228278
000190 b3 a1 2e 3e 48 e4 7c bc f9 15 26 bc 0e 67 05 3e
       0.17053871 -0.015435286 -0.010137075 0.13027593
0001a0 0e a9 b6 bd 1a 38 3c be c6 77 01 be 4e cf 61 3b
       -0.089189634 -0.18380776 -0.12643346 0.0034455839
0001b0 ce 8b ce bc b0 fe 08 be 9d a4 34 3e cb d0 9c bd
       -0.025213148 -0.13378406 0.1764092 -0.076570116
0001c0 72 71 b4 bc b9 a3 c4 3d a4 41 00 3e c2 a7 28 3e
       -0.022026751 0.0960154 0.1252504 0.16470245
0001d0 88 0d 54 bd 8b fa 9b bd ce 99 01 be 0f 64 2e 3e
       -0.051770717 -0.07616147 -0.12656328 0.17030357
0001e0 5b 44 5a bd 2a f8 af bd 1b c2 1e be 09 8c 15 3d
       -0.053287845 -0.085922554 -0.15503733 0.0365105
0001f0 b4 ae 6d bd a0 68 fc bb 5c 58 48 3d 8c 1d 5d 3d
       -0.058027938 -0.007702902 0.04891239 0.053983256
000200 d5 de 1a be 72 67 cc 3b 26 54 14 bd a9 80 a2 bd
       -0.15124066 0.0062379176 -0.036213063 -0.07934696
000210 93 21 b8 bd c2 15 78 3d 55 87 11 3d 54 1e 9b be
       -0.08990779 0.060567625 0.035529453 -0.30296576
000220 a0 ee 3c 3e c0 e9 d4 bd 52 25 8a 3d 2b bb e2 bc
       0.18450403 -0.10396147 0.067453995 -0.02767714
000230 fc f1 2c 3e 07 e6 e3 bd 1e 90 ad bd b6 46 1b be
       0.16889185 -0.111278586 -0.08474754 -0.15163693
000240 69 a6 11 be 12 33 06 bd 68 de 05 3e b8 6b 49 bd
       -0.14223637 -0.03276355 0.13073123 -0.049174994
000250 1d 9d 64 be bb 6c 82 3d 7e f8 6c 3d 8c c6 a7 bb
       -0.22325559 0.06368395 0.057854168 -0.005120104
000260 24 cb 3c be 2f 37 a2 bc be 73 8b 3d 97 64 b3 3b
       -0.18436867 -0.019801704 0.068091854 0.0054746377
000270 db 59 08 3d 2b f2 aa 3d 9e f6 01 be e0 1f c8 bd
       0.033288818 0.08346971 -0.12691733 -0.09771705
000280 fe 24 e0 bc 9d 70 54 be e2 e1 25 3d 8b d9 91 3d
       -0.02736139 -0.20746084 0.04049862 0.07121571
000290 b3 a9 19 3e d9 06 d3 3d e7 91 4f 3d 7a 36 93 bd
       0.15006141 0.103040405 0.050676253 -0.07188125
0002a0 bf 96 21 be 12 16 c3 bd 5c bb 08 be cf fc af 3d
       -0.15780161 -0.09525694 -0.13352722 0.08593141
0002b0 f9 e3 88 3d cd 2b 33 3e a7 84 a8 bc 9b e5 4f bc
       0.06684107 0.17497177 -0.020571066 -0.01268902
0002c0 80 70 35 bc 52 39 0b 3d a1 f2 22 be 60 95 b1 3d
       -0.011074185 0.03399021 -0.15912868 0.08671069
0002d0 cb 5c 88 bb 82 23 2d be 5e e0 05 be e3 fb 01 be
       -0.0041614524 -0.16908076 -0.1307387 -0.12693743
0002e0 ef 40 0b be 25 8c 98 3d 9b 8b ca 3c 28 5f a9 3b
       -0.13598989 0.074486054 0.024724772 0.005168814
0002f0 dd 66 dd bd 2a f0 86 3d 92 8f 37 3c ae bc e5 bd
       -0.10810635 0.065887764 0.011203663 -0.112176284
000300 de 3e 2b 3d b1 60 03 3e 5e 57 41 3e de c2 19 3c
       0.041808 0.12829854 0.18880984 0.009384839
000310 5c ba 35 be 8b 53 16 bd 30 c9 d6 3c 3e cc 97 bc
       -0.17746872 -0.036700767 0.02621898 -0.018530007
000320 a2 0f af bd 23 df af 3d bd be 59 3d 28 27 c3 3d
       -0.085479036 0.08587482 0.053160418 0.09528953
000330 0f 81 29 3e ce ac 32 3d 0a ae cc 3b 4e 05 8a bd
       0.16553138 0.04362183 0.006246333 -0.06739293
000340 8f 0e 03 be 3c 97 b9 bd 98 eb 21 be de 2a 08 be
       -0.12798522 -0.09062049 -0.15812528 -0.13297603
000350 04 89 a8 3d de 58 ad 3d 21 1e 72 bc 84 9b 53 3d
       0.08229259 0.08464216 -0.014777691 0.051661983
000360 18 0d 01 be 40 91 19 3d c8 92 6a bd 45 11 d0 bc
       -0.12602651 0.037492037 -0.057268888 -0.02539886
000370 74 20 fc bd 1e ca d6 bd 62 8c 54 bc dc 37 af bd
       -0.123108774 -0.104877695 -0.012972923 -0.08555576
000380 f8 1a 9a 3d 9a 19 03 be 52 db 0f be 57 58 16 3c
       0.07524675 -0.12802735 -0.14048508 0.009176335
000390 70 0b 25 3e 58 7d fc bc 46 9b 7e bd 1c 27 b2 3d
       0.16117644 -0.030821487 -0.0621598 0.08698866
0003a0 7e 9b 78 bd 63 f7 06 3e 76 ca be bd be 52 4b bd
       -0.060695164 0.13180308 -0.0931596 -0.049639456
0003b0 43 39 31 3e 10 8b 29 3c 6b e5 9d 3c f5 e1 d8 3d
       0.17307 0.0103480965 0.019274434 0.10589973
0003c0 0d df a9 3d b8 5f 52 3d 9e 96 b3 bc 2e b8 39 bd
       0.08294497 0.051360816 -0.021922406 -0.045341663
0003d0 c2 00 c4 bd 28 c0 23 3d 04 30 8e bd 0e a5 09 be
       -0.09570457 0.039978176 -0.06942752 -0.1344187
0003e0 d2 5b 09 3e 77 ba 8c bd 48 86 06 3d ef c2 06 3e
       0.13413933 -0.06871503 0.032842904 0.13160299
0003f0 8c 3b 73 3e 80 89 9a bd 08 2c b7 bd 5a c4 0a be
       0.23753184 -0.07545757 -0.08943945 -0.13551465

dest_lstm_obs.bias_ih_l0 f4 [128]
000000 43 ef 3b be e0 23 2a 3e 71 c1 3f be 84 b4 a8 3b
       -0.1835299 0.16615248 -0.18726136 0.0051484723
000010 bd 2b 01 be 37 ef 9a bd da bb 2c 3d 7d 41 8d 3d
       -0.12614341 -0.07565158 0.042171337 0.068972565
000020 ac 07 46 be 6c 5c 3d be f6 1d f3 3d 86 45 f1 bc
       -0.19338864 -0.18492287 0.11870949 -0.029452097
000030 c2 eb 68 3d ab fb 44 3c 58 cb da 3b 02 05 eb 3d
       0.05686546 0.012022893 0.0066770725 0.114755645
000040 ba c3 95 3c 92 50 c0 3d f7 32 86 bd 80 14 0c 3c
       0.018281806 0.093903676 -0.065526895 0.008549809
000050 0e 16 35 3c b9 0b e6 bd 80 d7 06 be 80 d9 cf bc
       0.0110526215 -0.11232705 -0.13168144 -0.025372267
000060 ec a7 ac bd 0c 9a a0 3d 29 8b 28 3e 2d 58 d2 3d
       -0.08430466 0.07841882 0.16459335 0.102707244
000070 2c 7c 9f bc 77 16 0c 3e d1 c9 a3 3c 11 67 00 be
       -0.01946839 0.13680445 0.019993694 -0.12539317
000080 c0 7d 33 3d af 31 cf 3d a1 8f dd bd 0e 3e df 3d
       0.043821096 0.10116898 -0.10818411 0.10900508
000090 3e 96 b2 bd 0f 9d 85 3d 5f 71 e0 bd 21 7a 06 3e
       -0.08720063 0.06524097 -0.10959124 0.13132526
0000a0 82 e9 18 3e da e4 91 3d 92 bc fe bc d3 c3 ef bc
       0.14932826 0.07123728 -0.031095777 -0.029268181
0000b0 b4 ac cb 3d 73 92 ae 3d 37 36 02 3e 0b 32 fd bd
       0.0994505 0.08524027 0.12715994 -0.123630606
0000c0 dc f2 31 be 91 30 80 3d 68 1f 22 bd f1 76 16 3e
       -0.173778 0.06259263 -0.039580733 0.1469381
0000d0 e7 38 35 bd b9 d7 bd 3d 10 8c bd 3c 12 c3 01 be
       -0.04424372 0.092696615 0.023138076 -0.1267207
0000e0 3f 8b 26 bc 65 cd ba 3d 1a ad ac 3d 75 d6 ed 3c
       -0.010165035 0.09121207 0.08431454 0.029032925
0000f0 2a af 35 bd fe 4b 43 be 8d 7d c0 3d d1 bf 91 bd
       -0.044356503 -0.19071957 0.09398947 -0.07116664
000100 09 69 25 3e 21 0b d0 3c 5c b6 07 3e ef c4 d8 3d
       0.16153349 0.025395932 0.13253158 0.10584437
000110 2c ee 02 be 17 13 5b bd fc 11 33 bd 2a 8a f1 3d
       -0.12786168 -0.053485002 -0.043718323 0.11793931
000120 b9 af 87 3c e6 49 c8 bd e9 8c fb 3d 5b e4 cf 3d
       0.016563283 -0.0977972 0.12282736 0.10150977
000130 9c 65 2b bc 98 65 21 be 68 63 0a 3e 62 cc a5 bd
       -0.010461237 -0.15761411 0.13514483 -0.080956236
000140 36 63 0c 3b a2 eb d8 bc c6 f6 34 be 6e c6 87 bd
       0.002142144 -0.026479546 -0.17672262 -0.06629644
000150 e6 f9 2b 3e fb 22 1d 3e 22 92 6c bd b8 7b 03 3e
       0.16794547 0.15345375 -0.05775655 0.12840164
000160 8c a0 44 3b 77 67 65 3e ed 0b bf bd 41 b7 0d be
       0.003000292 0.2240275 -0.093284465 -0.13839437
000170 29 5a c4 bd de 5d 21 be d9 ba 24 be b5 33 98 3c
       -0.09587509 -0.15758464 -0.16086902 0.018579343
000180 f3 0a 19 be e2 f1 40 be a7 44 cc bb a8 3a 63 bc
       -0.14945583 -0.18842271 -0.00623377 -0.013868965
000190 af 34 f9 3d 8f 8e 0e 3e f9 38 16 be ea 7e f8 3c
       0.12168252 0.1392157 -0.14670171 0.030333955
0001a0 5f 53 25 be 55 30 47 be 24 a1 85 bd 39 15 f5 3d
       -0.16145085 -0.19452031 -0.06524876 0.119669385
0001b0 e3 eb 0e 3d 90 f6 f9 3c 59 c6 15 3e 45 93 6e 3c
       0.034892928 0.030513078 0.14626445 0.014561479
0001c0 c9 a0 af 3c 42 f8 b4 3d 8c d5 ff bc 6e c0 4c 3d
       0.021438973 0.08836414 -0.031229757 0.049988203
0001d0 71 1f 3f 3e 4f e4 9d 3d b7 80 c4 3d 5c bf 70 ba
       0.18664338 0.07709562 0.09594863 -0.0009183788
0001e0 bd 3c 05 be 42 d9 55 3d dd 11 b1 3d 25 68 82 3d
       -0.13011451 0.052209146 0.08645985 0.0636752
0001f0 03 40 e2 3d fa e3 86 3d d9 7b c0 3d b0 5b c6 3d
       0.110473655 0.06586452 0.09398622 0.09685457

dest_lstm_obs.bias_hh_l0 f4 [128]
000000 36 07 df bd 37 83 64 bd 8f 06 d1 bd 7e a0 a9 3d
       -0.10890047 -0.0557892 -0.10206329 0.082825646
000010 07 2d f2 bd 33 a7 71 3d b0 ff 99 bc 6c e4 b3 bd
       -0.118249945 0.058997344 -0.01879868 -0.087838024
000020 7c fe b0 bd 33 42 13 3e a1 dd 84 bc f0 35 a1 3d
       -0.08642289 0.14380722 -0.016218962 0.07871616
000030 c2 70 bd bd 6d c6 10 be 88 4b 6c bd c9 cd 45 be
       -0.092500225 -0.14138193 -0.05768922 -0.19316782
000040 05 a6 c0 3d ee 6e 04 be 70 64 84 3e 1e c9 b4 bd
       0.09406666 -0.12932941 0.25857878 -0.088274226
000050 3f 92 15 3e 36 22 ff 3c 64 c4 a0 3c 04 8a d5 3d
       0.1460657 0.031144243 0.019624896 0.10426715
000060 96 b9 04 3e 9f ea 46 3d a0 c4 17 be 51 71 d3 3c
       0.1296142 0.048563596 -0.148211 0.02581087
000070 11 b6 f1 3b 53 83 b5 3d 05 4f 17 be 7a ea c4 3c
       0.0073764403 0.08862939 -0.14776237 0.024037588
000080 f5 15 f8 3d 59 64 88 bc f3 0c 55 be 04 9f 1c 3e
       0.12113563 -0.016649412 -0.20805721 0.15295035
000090 27 e5 42 be a4 81 e4 bd ba 98 38 3d ea 0b 7d 3b
       -0.19032727 -0.111575395 0.045067526 0.0038611838
0000a0 93 b9 02 be 74 69 37 be 86 5d 6a bc 8e 5d 82 bd
       -0.12766103 -0.17911321 -0.014304524 -0.063655004
0000b0 ca c0 44 be 2d b8 e8 bc 6a a7 04 be ec 80 99 bd
       -0.19214168 -0.028408134 -0.12954488 -0.07495293
0000c0 a1 56 3b 3d d3 42 14 3e 84 8b 94 3d 27 e6 89 3d
       0.045736913 0.14478616 0.07253173 0.06733351
0000d0 7c 0c aa bd e4 73 01 be 7f 2d a5 3d 00 57 cf bc
       -0.083031625 -0.12641865 0.08065318 -0.02531004
0000e0 1c fd 66 bc 17 c9 14 bb 74 8e 92 bd 11 e9 60 3d
       -0.014098432 -0.0022702867 -0.07156077 0.05490977
0000f0 3e da 1d bd f1 0d a4 3d a2 ca f9 bb 67 28 98 3d
       -0.03853821 0.080104716 -0.0076230327 0.07429581
000100 44 58 09 be fb 51 2a 3e 5e 53 a5 bd f4 22 06 bd
       -0.13412577 0.16632836 -0.08072542 -0.032748178
000110 60 c5 2a be 49 49 fd bd 28 dc 03 be 2b 46 ad 3c
       -0.16676855 -0.12367494 -0.12876952 0.021151623
000120 99 67 fc 3d 46 18 15 be bb b8 37 be 60 77 dc 3c
       0.12324447 -0.14560041 -0.17941563 0.026912391
000130 8c ea 84 3d 2b b5 23 be 6e 0c fb 3d 31 40 69 3d
       0.06490049 -0.15987079 0.1225823 0.056945983
000140 1c c0 ff bd 28 a0 a9 3c ab e6 d9 bd 14 50 ec bc
       -0.12487814 0.020706251 -0.106396995 -0.028846778
000150 df 0d eb 3d 96 38 a6 bd f8 4e b8 bc 28 a9 20 bd
       0.11477255 -0.08116262 -0.022498593 -0.03922382
000160 4a 4e eb bd e3 b3 2a 3e df 7a 37 bd 14 2c dc 3d
       -0.11489542 0.16670184 -0.044794913 0.10750595
000170 c4 a7 2c be b2 cd 1a be 0c 76 0d be da 0b d1 3c
       -0.16860873 -0.15117529 -0.13814563 0.025518347
000180 de 3c 12 bd 3a e4 14 bd 73 bf 0c bd a8 a9 a5 bd
       -0.03570258 -0.036350466 -0.034362268 -0.08089
000190 30 ea ec 3d 76 30 a2 bd 07 24 89 3d 12 db c0 3c
       0.11568105 -0.079193994 0.06696325 0.02354196
0001a0 b6 0e cf bd 10 8e fa 3d a6 42 53 3d 43 47 8d bd
       -0.10110228 0.122341275 0.051577233 -0.06898358
0001b0 87 4d dc 3d 2d 99 b3 bd e1 a9 c4 bd 58 10 f5 3c
       0.10756975 -0.0876945 -0.09602714 0.02991502
0001c0 a0 a6 3f be 98 f4 be bd df ec 39 3e 60 32 bc 3d
       -0.18715906 -0.09323996 0.18156765 0.09189296
0001d0 06 2d 00 be c0 0a ad bd dc 27 b8 bd b3 90 a7 bd
       -0.12517175 -0.08449316 -0.089919776 -0.08181896
0001e0 86 11 f9 3d 54 65 2a be 6c 1a 24 be 1e e7 84 bb
       0.121615455 -0.16640216 -0.16025704 -0.0040558716
0001f0 50 5a 13 3e 81 da 3a 3c 63 95 10 be 1e 5e 7d 3b
       0.1438992 0.011404634 -0.14119487 0.0038660835
