src/do_tp_federated_federated_round_9.pt (torch, 157077 bytes, 26 tensors)

linear_enc.weight f4 [64, 2]
0	0x3f01b550	0.50667286
1	0x3f1fa911	0.6236735
2	0x3ef1f1a2	0.47254664
3	0x3d621025	0.055191178
4	0x3f1f2aaf	0.62174505
5	0x3ef17907	0.4716265
6	0x3ef25038	0.47326827
7	0xbf3938c3	-0.72352237
8	0x3e9733a8	0.29531598
9	0xbf19ab41	-0.6002694
10	0x3b315e94	0.002706443
11	0x3eaa79e8	0.33296132
12	0xbf0204ec	-0.5078876
13	0x3eda4ea6	0.4263813
14	0x3e9d26b1	0.30693582
15	0xbeb3fb57	-0.35152695
16	0x3d7a0b9e	0.061046235
17	0xbe01d42e	-0.12678596
18	0xbefbe3a4	-0.49197114
19	0xbe38d69e	-0.1805062
20	0x3ebd7070	0.36999846
21	0x3d4c4be8	0.049877077
22	0x3f09d760	0.5384426
23	0xbf38eaf5	-0.72233516
24	0x3f014c35	0.5050691
25	0x3e22015e	0.15820834
26	0xbe80a48d	-0.25125542
27	0xbf881388	-1.063096
28	0xbe3b2723	-0.18276648
29	0xbe7eb6ba	-0.24874392
30	0x3ef0b74c	0.47014844
31	0xbd711b22	-0.058863766
32	0xbf41143a	-0.7542149
33	0xbf36cca9	-0.71406037
34	0xbf2afc65	-0.66791373
35	0xbe3eae91	-0.1862128
36	0x3f242248	0.6411481
37	0xbf4c3270	-0.7976446
38	0x3ec247b0	0.37945318
39	0xbed5b993	-0.41743144
40	0x3f0df6bc	0.5545461
41	0xbf6ff9e7	-0.93740696
42	0xbf2a0d37	-0.66426414
43	0x3f567158	0.837667
44	0xbf0ce2b6	-0.55033433
45	0x3e8639d1	0.26215985
46	0xbe16fddb	-0.14745276
47	0xbda9959e	-0.0828049
48	0x3ecd32b1	0.40077737
49	0xbf022010	-0.50830173
50	0x3ea6f5b0	0.3260932
51	0x3dd21fac	0.10259947
52	0xbf15b596	-0.58480203
53	0x3e249cea	0.16075483
54	0x3f496145	0.78664047
55	0x3ebd3763	0.3695632
56	0x3df0525d	0.117344595
57	0x3ed50a7b	0.41609558
58	0x3f3a4c4f	0.7277269
59	0x3d8a5a9d	0.06755564
60	0xbe8ee2cb	-0.27907404
61	0x3f5347a1	0.8253117
62	0xbf419b02	-0.7562715
63	0xbee64926	-0.44977683
64	0x3efb9a41	0.49141124
65	0xbec9257a	-0.39286405
66	0xbe9fba6b	-0.31196913
67	0x3f6d0ff8	0.9260249
68	0xbf13024a	-0.5742537
69	0xbe8ddaf2	-0.27706105
70	0xbf030c0d	-0.51190263
71	0x3f6944a4	0.9112036
72	0x3ef0a740	0.47002602
73	0xbf6c3810	-0.92273045
74	0xbce84fc3	-0.028358346
75	0x3f1746ae	0.59092224
76	0x3f2882cd	0.65824586
77	0x3f734ffa	0.9504391
78	0xbf4184ca	-0.75593245
79	0xbee7e62c	-0.45292795
80	0x3f266e73	0.6501228
81	0x3e8e2ac9	0.27767017
82	0xbee2f728	-0.4432919
83	0xbf86cd10	-1.053133
84	0x3f59ac0f	0.85028166
85	0x3e0a420a	0.13501754
86	0xbe41bcb4	-0.18919641
87	0xbd25872d	-0.040412117
88	0xbec9ac9c	-0.39389503
89	0x3debcada	0.115133
90	0xbe2da7cc	-0.1695854
91	0x3f246086	0.64209783
92	0xbf390c56	-0.7228445
93	0x3edfbac8	0.4369719
94	0x3f15b792	0.5848323
95	0x3f28ca2f	0.6593351
96	0xbe44d6f5	-0.19222625
97	0x3d0a7449	0.033802304
98	0xbf3f45ec	-0.7471607
99	0x3dffe316	0.12494485
100	0xbeeeba08	-0.46626306
101	0x3f1a3e77	0.60251564
102	0xbf2ff9a2	-0.68740284
103	0x3ee176ec	0.44036043
104	0xbf5ebe80	-0.8700943
105	0xbee64784	-0.44976437
106	0xbe3804f6	-0.17970642
107	0x3eb1f788	0.34759164
108	0x3f47e48c	0.7808311
109	0x3ee77ebd	0.4521388
110	0xbcaa8565	-0.02081556
111	0x3eb3cd8f	0.35117766
112	0xbe6a32c0	-0.22870922
113	0x3f10a7de	0.56506145
114	0xbe2c5e8e	-0.16832945
115	0x3f2b3d98	0.6689086
116	0xbf370a8b	-0.7150046
117	0xbf38d6c2	-0.72202694
118	0xbf50da62	-0.81583226
119	0x3e7a4276	0.24439415
120	0x3ea9cc96	0.331639
121	0x3e01a2e7	0.12659799
122	0xbe249d04	-0.16075522
123	0x3f25dd1c	0.6479051
124	0xbe7da266	-0.24768981
125	0x3d9d3c30	0.076774955
126	0xbea88639	-0.32914904
127	0xbdba3916	-0.090929195

linear_enc.bias f4 [64]
0	0x3e451913	0.19247846
1	0xbf1d6181	-0.61476904
2	0x3dba1c56	0.09087436
3	0xbebed61d	-0.3727273
4	0xbecd8b5f	-0.40145394
5	0xbf241a5d	-0.6410273
6	0x3e8d4043	0.2758809
7	0xbea887f9	-0.3291624
8	0x3e5f0fb3	0.21783333
9	0x3e967d44	0.29392445
10	0x3da070c6	0.0783401
11	0xbe1fcc07	-0.15605174
12	0xbc2da204	-0.01059771
13	0x3a8c708d	0.0010714695
14	0xbe98f2cc	-0.2987274
15	0xbec9e4d4	-0.39432395
16	0xbd8c814e	-0.068606004
17	0xbee8dcd1	-0.4548097
18	0x3d7460ac	0.059662506
19	0x3e10c81a	0.14138833
20	0x3f0e4753	0.5557758
21	0x3e34d686	0.17659959
22	0x3f1b29c0	0.6061058
23	0x3ea63050	0.32458735
24	0xbf1988c2	-0.599743
25	0x3ec745e6	0.38920516
26	0xbe8a45f0	-0.27006483
27	0x3e431d22	0.19054082
28	0x3b38639d	0.0028135546
29	0xbe7fc2e0	-0.24976683
30	0xbd48afae	-0.048995666
31	0xbf303605	-0.6883243
32	0xbec4535d	-0.3834485
33	0x3f15adcc	0.5846832
34	0xbe9d7e13	-0.3076025
35	0xbecad0d6	-0.39612454
36	0xbe669e3b	-0.22521298
37	0x3ec3c1c0	0.38233757
38	0xbcb1b7ab	-0.021694025
39	0x3f132495	0.57477695
40	0xbf10525e	-0.5637568
41	0xbec96e5a	-0.39342004
42	0xbeea12b6	-0.457174
43	0x3e8652a3	0.26234922
44	0x3f0e192b	0.55507153
45	0x3f0ca6b5	0.54941875
46	0x3f27b47f	0.6550979
47	0x3e024504	0.1272164
48	0xbefc827d	-0.49318305
49	0xbea59b39	-0.32344988
50	0xbeb1d90f	-0.34735915
51	0xbc8fc04d	-0.01754775
52	0xbea526b1	-0.32256082
53	0x3f10e506	0.5659946
54	0xbf227f25	-0.6347526
55	0xbf040176	-0.5156473
56	0x3f24c6db	0.6436593
57	0x3e06480c	0.13113421
58	0x3e983441	0.29727367
59	0xbddafcf0	-0.10692775
60	0x3e83579a	0.25652772
61	0x3ea63714	0.32463896
62	0x3e38433c	0.17994398
63	0xbf00cf31	-0.5031615

encoder_lstm.weight_ih_l0 f4 [128, 64]
0	0x3e2fba9e	0.17161033
1	0x3da3a87a	0.07991119
2	0x3e33ffac	0.17578
3	0xbe4b89bf	-0.19876765
4	0xbd40aa40	-0.047037363
5	0xbe16a7fb	-0.14712517
6	0x3e534b93	0.20634298
7	0xbe254f86	-0.16143617
8	0x3e45a15b	0.19299833
9	0x3e3361c2	0.1751776
10	0xbdb67c73	-0.089104556
11	0x3da0f70e	0.07859622
12	0xbd1bb4ae	-0.038014106
13	0xbd396cec	-0.04526989
14	0xbe690e69	-0.22759403
15	0xbe5f14c9	-0.21785273
16	0x3e002f70	0.12518096
17	0xbd9360c2	-0.071961895
18	0xbd79bb60	-0.06096971
19	0xbd9b22bf	-0.07574987
20	0x3de95e4a	0.11394937
21	0x3e62e3a1	0.22157146
22	0xbdbe34b5	-0.09287397
23	0xbd11d785	-0.035605926
24	0x3d41a534	0.04727669
25	0x3e186f86	0.14886293
26	0xbe1dded4	-0.15417033
27	0x3dc22da1	0.09481359
28	0x3d5b73de	0.053577296
29	0xbe014cf3	-0.1262701
30	0xbe38cf46	-0.18047819
31	0xbe235f5b	-0.15954344
32	0xbc3a51a8	-0.011372007
33	0x3e0d8f76	0.13824257
34	0xbe5d17e6	-0.21591148
35	0xbd93e5a5	-0.072215356
36	0xbe4ca6fe	-0.19985577
37	0xbda5d582	-0.08097364
38	0xbdee4e28	-0.11636001
39	0xbcd99c2c	-0.026563726
40	0x3d748a36	0.05970212
41	0xbd27c5fc	-0.040960297
42	0x3d268a45	0.040659208
43	0x3e75a770	0.23989654
44	0xbdb06d52	-0.08614601
45	0xbd42815e	-0.047486655
46	0x3e5cf676	0.21578392
47	0x3e1e42ba	0.15455142
48	0xbe6fb2de	-0.23408076
49	0x3becd88e	0.007227964
50	0xbe0b812c	-0.13623494
51	0xbd8b3908	-0.06797987
52	0x3c9f91cc	0.019478701
53	0x3e3b838c	0.183119
54	0xbe14c78b	-0.14529245
55	0xbe247f17	-0.16064106
56	0x3db3afac	0.08773741
57	0xbcfea4ee	-0.031084504
58	0xbcfce688	-0.030871645
59	0xbda2bee8	-0.07946569
60	0x3dcb3077	0.09921353
61	0x3d0806e9	0.033209715
62	0x3dcf9a24	0.10136822
63	0xbd04aaf3	-0.032389592
64	0x3dfdf10a	0.1239949
65	0xbeeece09	-0.46641567
66	0x3d652d68	0.055951506
67	0xbd120b3e	-0.035655253
68	0xbdc6fe87	-0.09716516
69	0xbebf5953	-0.37372836
70	0x3ea88e7a	0.329212
71	0xbea2c009	-0.31787136
72	0x3ec552ce	0.38539737
73	0x3ef2e8d5	0.47443262
74	0x3e367aab	0.17820232
75	0xbdbcdc60	-0.09221721
76	0xbe14d1fe	-0.1453323
77	0x3ece763e	0.40324587
78	0xbe98510f	-0.29749343
79	0xbeb96754	-0.36211646
80	0x3d2d15fa	0.042257287
81	0xbef472bf	-0.47743794
82	0x3e964d4e	0.29355854
83	0x3f104b4a	0.5636488
84	0x3e947cd9	0.290015
85	0x3c027ebc	0.007964786
86	0x3e791fad	0.2432849
87	0x3ee8af5c	0.4544629
88	0xbe98b92f	-0.29828784
89	0x3e06f966	0.13181075
90	0xbef0782f	-0.46966693
91	0x3e128ed8	0.14312303
92	0xbecce29d	-0.40016642
93	0xbe015ee4	-0.12633854
94	0xbec80367	-0.39065096
95	0xbdf75478	-0.12076658
96	0xbe8b16fe	-0.2716598
97	0x3e7c2dbc	0.24626821
98	0xbed917a8	-0.4240086
99	0xbec441b3	-0.38331375
100	0x3dd0dcb7	0.10198348
101	0x3e272cba	0.16325656
102	0xbe90e3e8	-0.2829888
103	0x3ee772f1	0.4520488
104	0xbe43e365	-0.19129713
105	0xbe1bc961	-0.15213539
106	0xbe097e87	-0.13427173
107	0x3ed1ce1e	0.40977567
108	0x3eb88fb9	0.36047152
109	0x3ec8a6ea	0.39189845
110	0x3ec96b6b	0.39339766
111	0x3cf80f12	0.030280624
112	0xbed7db63	-0.42159566
113	0xbe44650a	-0.19179168
114	0xbe99cd74	-0.3003956
115	0xbeab1c4b	-0.33420023
116	0xbe9c60d2	-0.30542618
117	0x3ed04902	0.406807
118	0xbeafcaa6	-0.34334296
119	0xbe682a5b	-0.22672407
120	0x3dcb2e02	0.09920885
121	0x3daafa56	0.08348529
122	0x3ea9177d	0.33025733
123	0xbecb7efc	-0.3974532
124	0x3ee198d5	0.44061914
125	0x3d9877fc	0.0744476
126	0x3e2c5a3e	0.168313
127	0xbe9ec15c	-0.31006896
128	0x3dfbe7a2	0.1230004
129	0xbdcad2c1	-0.09903479
130	0xbdaa327c	-0.083104104
131	0x3d2fef33	0.042952728
132	0x3b6e395e	0.0036350111
133	0xbda85842	-0.08219959
134	0xbe3b4366	-0.18287429
135	0x3d897958	0.067125976
136	0x3e46e434	0.1942299
137	0x3d9cc7a8	0.07655269
138	0x3e5ed7e8	0.21762049
139	0x3e5e4ad2	0.21708229
140	0x3dc32e30	0.09530294
141	0x3e62cf64	0.22149426
142	0xbe3d7b52	-0.18504074
143	0x3d39a111	0.04531962
144	0x3cc6a48d	0.024248386
145	0xbe3267d4	-0.1742242
146	0x3e15da66	0.14634094
147	0x3de75bff	0.11296844
148	0x3e672540	0.22572803
149	0xbe36f27d	-0.1786594
150	0xbcc1bd0c	-0.023649715
151	0xbb89d0b8	-0.0042057894
152	0x3e297496	0.1654838
153	0x3e2e1b3d	0.17002578
154	0xbdc4d8dc	-0.09611675
155	0x3a384d9a	0.00070306065
156	0xbea87ad6	-0.32906216
157	0xbb3c6cf3	-0.0028751462
158	0xbe85e19e	-0.26148695
159	0x3db32820	0.087478876
160	0xbdaa2b69	-0.08309061
161	0xbe01c15c	-0.12671417
162	0x3d88f9b0	0.06688249
163	0xbe075155	-0.1321462
164	0x3e82859d	0.25492564
165	0x3bbbf46f	0.005735926
166	0xbe67334f	-0.22578166
167	0x3b99854d	0.00468508
168	0xbe0f3673	-0.13985614
169	0x3dccfcbb	0.10009142
170	0x3deb8a24	0.115009576
171	0xbcee5374	-0.029092528
172	0xbcf1b7c6	-0.029506575
173	0xbdecfe36	-0.115719244
174	0xbe003686	-0.12520799
175	0xbd87f57c	-0.06638619
176	0x3dc7198f	0.09721672
177	0xbe2c8328	-0.16846907
178	0xbe423e35	-0.18969043
179	0xbcade1c7	-0.021225823
180	0x3ca98c6b	0.02069684
181	0xbdfe2a55	-0.12410418
182	0xbe53af49	-0.20672335
183	0xbc045841	-0.008077682
184	0x3c91b882	0.017788175
185	0xbdc03a3a	-0.09386106
186	0xbd2a4d22	-0.041577466
187	0xbe8e6b28	-0.2781613
188	0x3e6ab42d	0.22920294
189	0xbe2658ea	-0.16244856
190	0xbde39954	-0.111132294
191	0x3db3cbcf	0.08779108
192	0xbdb5f932	-0.08885421
193	0x3e110ac3	0.14164262
194	0xbd4e9486	-0.05043461
195	0xbe0f7296	-0.14008555
196	0x3e373c7a	0.17894164
197	0xbcf5e2d1	-0.030015381
198	0x3d071494	0.03297861
199	0xbd24c953	-0.04023106
200	0xbdf988c0	-0.12184286
201	0xbd3e4012	-0.04644782
202	0xbe2bfd92	-0.16795948
203	0xbc890aa3	-0.016728705
204	0xbd92128e	-0.07132445
205	0x3dbc9c56	0.09209506
206	0x3c7bb244	0.015362326
207	0x3e0272a5	0.12739046
208	0x3e1c657b	0.15273087
209	0x3d961f86	0.07330231
210	0x3da5cea3	0.080960535
211	0x3d88212a	0.066469505
212	0xbe2909c4	-0.16507632
213	0x3d027ac9	0.03185538
214	0xbdcd08b7	-0.10011428
215	0x3d3dd3ef	0.046344694
216	0x3e064da9	0.13115562
217	0xbe4a2528	-0.19740736
218	0x3de4cb25	0.11171559
219	0xbe2167a9	-0.157622
220	0x3d30959d	0.043111432
221	0x3bdceec0	0.0067423284
222	0xbe1e7340	-0.15473652
223	0x3dbbb90a	0.09166153
224	0x3d6f3c85	0.058407325
225	0xbd4dd6fe	-0.05025386
226	0x3daaceb6	0.08340208
227	0x3e453f92	0.19262531
228	0x3e2ecb42	0.17069724
229	0x3d9ae03d	0.07562301
230	0xbe119b5e	-0.14219424
231	0x3dd2af90	0.10287392
232	0x3d44c6cc	0.04804115
233	0x3e14497a	0.14481154
234	0xbdc9fca4	-0.098626405
235	0x3e14c1f2	0.1452711
236	0xbe29907f	-0.16559027
237	0x3d44accb	0.04801635
238	0xbdd7387c	-0.105088204
239	0xbbb53742	-0.005530269
240	0x3e19ea67	0.15030824
241	0x3c9add7d	0.018904442
242	0x3c8c20f0	0.01710555
243	0x3e3df33b	0.18549816
244	0x3bd4dfb2	0.006496393
245	0xbd033e2c	-0.032041714
246	0xbb4d1363	-0.0031292073
247	0xbdb19a9d	-0.08672068
248	0xbd4b84f0	-0.049687326
249	0xbdd2d00c	-0.10293588
250	0xbdb120a1	-0.086488016
251	0xbceadb40	-0.028669
252	0x3da1a904	0.07893565
253	0xbdef6c54	-0.11690584
254	0x3e29ee50	0.16594815
255	0x3e2f2a89	0.1710607

encoder_lstm.weight_hh_l0 f4 [128, 32]
0	0x3ded45dc	0.1158559
1	0xbe31518a	-0.17316261
2	0xbc0ad5a8	-0.008473791
3	0xbd4eae00	-0.050458908
4	0xbe10acc2	-0.14128402
5	0xbe06e3f0	-0.13172889
6	0xbe70b7c1	-0.23507597
7	0x3ebbba37	0.36665508
8	0xbddbd172	-0.10733308
9	0xbedda22a	-0.43287784
10	0xbca19f26	-0.019729208
11	0x3e1ae9c7	0.15128241
12	0xbe13d9be	-0.14438531
13	0xbca8ceb5	-0.020606378
14	0xbcc53c81	-0.024076702
15	0x3d75fb8a	0.06005434
16	0xbec1287c	-0.377262
17	0xbe3cc5c0	-0.1843481
18	0xbe38a0dc	-0.18030113
19	0xbd7e7c52	-0.06213028
20	0xbcf7416d	-0.030182565
21	0x3e0c8510	0.13722634
22	0x3dc4f8ea	0.09617789
23	0x3b903dfa	0.0044019194
24	0xbe149e2b	-0.14513461
25	0x3d23b344	0.039965883
26	0xbe777ce2	-0.24168733
27	0x3d59860c	0.053106353
28	0x3dcbaf44	0.09945539
29	0x3d91af9d	0.07113574
30	0x3bd8672d	0.0066040964
31	0x3e82c438	0.25540328
32	0x3ec7fc1c	0.39059532
33	0xbe71683c	-0.23574919
34	0x3ecf4c0c	0.40487707
35	0xbe043d1e	-0.1291394
36	0xbe044d0f	-0.1292002
37	0x3e604770	0.21902251
38	0x3db20fd6	0.08694427
39	0x3d4e25d4	0.050329044
40	0x3eb01223	0.34388837
41	0xbdcfca4a	-0.101460055
42	0xbe132a78	-0.1437167
43	0x3e0a7d9b	0.13524477
44	0x3e23fa4c	0.1601345
45	0xbe058619	-0.13039435
46	0xbcebd7b0	-0.028789371
47	0xbe0d38cb	-0.13791196
48	0xbeb23d9b	-0.34812626
49	0xbdfbdbb2	-0.12297763
50	0x3e9d8eb6	0.30772942
51	0x3def95aa	0.11698468
52	0x3dfd9b7c	0.12383172
53	0xbe80e3b4	-0.25173724
54	0xbe59ed09	-0.21281828
55	0x3e1175ca	0.14205089
56	0x3ba61a3c	0.0050690453
57	0xbeab87e5	-0.33502117
58	0xbe8b6129	-0.27222565
59	0xbdae43df	-0.08509039
60	0x3d8dbe8a	0.06921108
61	0x3ce700c6	0.028198611
62	0x3ebaad02	0.3646012
63	0x3e9bcc13	0.30429134
64	0x3e2a0e1b	0.16606943
65	0x3b468ecc	0.0030297516
66	0x3b994d68	0.004678417
67	0xbda7d8a3	-0.08195617
68	0x3e09c58a	0.13454261
69	0x3ef0376f	0.46917292
70	0x3cbfeb08	0.023427501
71	0xbc521bad	-0.012823981
72	0xbda240d0	-0.07922518
73	0xbe369130	-0.17828822
74	0x3db57574	0.08860293
75	0xbcf96771	-0.030444833
76	0x3d192f14	0.037398413
77	0x3ebead66	0.37241668
78	0xbd282e88	-0.04106
79	0x3db1bc0c	0.08678445
80	0x3d08dccc	0.033413693
81	0xbe217742	-0.1576815
82	0x3d48139f	0.048846837
83	0xbe718a2b	-0.23587863
84	0x3ef73c92	0.482884
85	0x3e2a74ff	0.16646193
86	0xbe40bd34	-0.18822175
87	0xbdcb940d	-0.09940348
88	0xbdcd9f03	-0.10040095
89	0xbd03b04e	-0.03215056
90	0x3d94e93b	0.07271048
91	0x3ba26a62	0.0049565295
92	0x3d25bb16	0.040461622
93	0xbe4cae8c	-0.1998846
94	0xbe03bcaa	-0.12864938
95	0xbdc397f9	-0.09550471
96	0x3c8f3eb2	0.01748595
97	0xbdf388b0	-0.118913054
98	0xbe3b8479	-0.18312253
99	0xbd8f4263	-0.06995084
100	0xbe5d94a2	-0.2163873
101	0xbe2a743a	-0.166459
102	0xbe0437cd	-0.12911911
103	0xbc4a620c	-0.012352478
104	0xbe1b983a	-0.15194789
105	0x3d094aa5	0.033518452
106	0x3dadf962	0.084948316
107	0xbe2bcc88	-0.16777241
108	0xbd4c264b	-0.049841207
109	0x3d5a5ec2	0.053313024
110	0x3d770bc9	0.060313974
111	0xbdd55529	-0.10416634
112	0xbcacb630	-0.021082968
113	0x3d3f5eac	0.046721146
114	0xbe282d47	-0.16423522
115	0xbe02a359	-0.12757625
116	0xbe32b298	-0.1745094
117	0xbde416e5	-0.11137179
118	0x3e4a08eb	0.19729964
119	0x3da7cb30	0.08193052
120	0xbe4b7252	-0.19867828
121	0xbd9a38a7	-0.07530337
122	0x3d5e7055	0.054306347
123	0x3e18ebfd	0.14933772
124	0xbd604f28	-0.05476299
125	0xbe23476c	-0.15945214
126	0x3dcde718	0.10053843
127	0xbda64d7b	-0.08120247
128	0x3d1271ad	0.03575294
129	0xbe6a4d1e	-0.2288098
130	0x3f054092	0.5205165
131	0xbe80b1f8	-0.2513578
132	0xbc5cc6c5	-0.013475125
133	0x3e3a64cb	0.18202512
134	0xbe0a999a	-0.13535157
135	0x3ed292fe	0.4112777
136	0x3c862c74	0.016378619
137	0xbe64aae1	-0.2233081
138	0xbcaf1132	-0.021370504
139	0x3e6db28c	0.23212641
140	0x3e01d59d	0.12679143
141	0xbf088571	-0.53328615
142	0xbea5c78a	-0.323788
143	0xbd720db9	-0.05909512
144	0xbdee3c83	-0.116326354
145	0xbe9f77c4	-0.3114606
146	0x3ebeb7ac	0.37249506
147	0xbe7b593b	-0.24545757
148	0xbe8212b8	-0.25404906
149	0xbd8548b1	-0.065080054
150	0xbe05e4ef	-0.13075612
151	0x3def3055	0.116791405
152	0xbe1b77e0	-0.15182447
153	0xbd9c2093	-0.076234005
154	0xbe9d6fed	-0.30749455
155	0xbea4ae03	-0.3216401
156	0x3e8cd114	0.27503264
157	0x3df3cd92	0.11904444
158	0x3d563f7c	0.052306637
159	0x3d213976	0.03936144
160	0x3ea4e74d	0.32207718
161	0xbe1e24e0	-0.15443754
162	0x3ea3c850	0.31988764
163	0xbe8a2672	-0.26982456
164	0xbd8ee4fe	-0.069772705
165	0x3e0e9e2e	0.13927528
166	0xbeddf518	-0.43351054
167	0x3e21e71a	0.15810814
168	0x3e76364c	0.2404415
169	0xbf0b7cfc	-0.54487586
170	0xbe48174a	-0.19540134
171	0x3ee80702	0.45317847
172	0x3eb82c00	0.3597107
173	0x3e35b13b	0.1774339
174	0xbca0e4a4	-0.019640274
175	0x3dc3be9e	0.09557842
176	0xbf0c3fd0	-0.5478487
177	0xbe6c67aa	-0.2308642
178	0xbe19a75d	-0.1500525
179	0x3e59f8c7	0.21286307
180	0x3e07e4b0	0.13270831
181	0xbe0b5ea7	-0.13610326
182	0xbe44448e	-0.19166777
183	0x3e41f486	0.18940935
184	0xbe4c7575	-0.19966681
185	0xbea7299e	-0.3264894
186	0xbe1f9db8	-0.15587509
187	0xbd301474	-0.042988256
188	0x3e896b88	0.26839852
189	0x3e12b3e9	0.14326443
190	0x3e3cc4e0	0.18434477
191	0x3f2cb27c	0.67459846
192	0x3e980c94	0.29697096
193	0x3e255f13	0.16149549
194	0x3eacf602	0.3378144
195	0xbd6b59cd	-0.057458688
196	0xbe329bfa	-0.17442313
197	0x3e870556	0.26371258
198	0xbe551acf	-0.20811008
199	0x3e0c61e8	0.13709223
200	0xbdf613b1	-0.120154746
201	0x3d1f2fd9	0.03886399
202	0x3e11b3cc	0.14228743
203	0x3e999205	0.29994217
204	0x3d4444dc	0.047917232
205	0xbe6771f4	-0.22602063
206	0xbedce15d	-0.4314069
207	0xbe687aca	-0.2270309
208	0x3d16297e	0.036660664
209	0xbe71aabe	-0.23600289
210	0xbd7c868f	-0.061651763
211	0xbe7e705d	-0.2484755
212	0xbdaa2585	-0.083079375
213	0x3e4154d9	0.18880023
214	0xbd74b6b2	-0.059744544
215	0x398621a8	0.00025583548
216	0xbd8519c8	-0.06499058
217	0xbdf173ef	-0.11789691
218	0xbd300302	-0.04297162
219	0xbdb49dde	-0.08819173
220	0x3e32c0e3	0.17456393
221	0xbd97e7c6	-0.07417254
222	0xbe691b66	-0.22764358
223	0xbea38f04	-0.3194505
224	0x3e43aef2	0.19109705
225	0x3ebaea1a	0.3650673
226	0x3e97e205	0.29664627
227	0x3e8a351d	0.26993647
228	0x3d8f3973	0.069933794
229	0x3e551ea4	0.2081247
230	0xbd6acef9	-0.05732629
231	0x3e6e54f5	0.23274596
232	0x3e0a280f	0.13491844
233	0x3e82955c	0.25504577
234	0xbe6f61b2	-0.23377112
235	0xbe715aa3	-0.23569731
236	0xbd8f21b1	-0.06988848
237	0x3d711c50	0.05886489
238	0xbf13ccc5	-0.5773433
239	0xbe24f1ee	-0.16107914
240	0x3e776228	0.24158537
241	0xbf05feb9	-0.523418
242	0x3e7a7248	0.24457657
243	0x3bcfdacf	0.0063432227
244	0x3e055351	0.13020064
245	0xbdd85e6b	-0.10564884
246	0xbe2b82b5	-0.1674908
247	0xbe2205c4	-0.15822512
248	0x3ea92bc8	0.33041215
249	0xbe85edba	-0.26157933
250	0x3e5a3acb	0.2131149
251	0x3d60d60a	0.054891624
252	0x3f0c0c48	0.5470624
253	0x3d97be0f	0.07409298
254	0x3d17cddb	0.037061553
255	0xbe073c97	-0.13206707

encoder_lstm.bias_ih_l0 f4 [128]
0	0x3e13ca2e	0.14432594
1	0x3ead8123	0.33887586
2	0xbdd3dd08	-0.10344893
3	0xbd05b55b	-0.032643657
4	0x3e40c9e8	0.18827021
5	0x3e6b3e1f	0.22972916
6	0xbd98b885	-0.07457069
7	0xbdee6395	-0.116400875
8	0x3cfbc32e	0.030732717
9	0xbe4a334c	-0.1974613
10	0x3d13c275	0.03607412
11	0xbcdd25e0	-0.0269956
12	0x398896b6	0.0002605223
13	0x3f13a483	0.576729
14	0x3e47860c	0.19484729
15	0xbb34e37a	-0.0027601407
16	0x3e367e8c	0.17821711
17	0x3dfa0e61	0.12209774
18	0x3e8bf2b1	0.27333596
19	0x3e761e94	0.24035102
20	0x3e44dc76	0.19224724
21	0x3d410581	0.04712439
22	0x3e7e6780	0.2484417
23	0xbd3e5585	-0.046468277
24	0x3e03bd52	0.12865189
25	0xbd2da5a4	-0.042394295
26	0x3e7cc89a	0.24685898
27	0xbe547654	-0.20748264
28	0x3e8ebcf5	0.27878538
29	0x3e4dce5e	0.20098254
30	0x3e1ebbcc	0.15501326
31	0xbd279097	-0.040909376
32	0x3dad0107	0.084474616
33	0x3de5ee9d	0.112271525
34	0xbe30a9aa	-0.17252222
35	0x3da97114	0.08273521
36	0x3da57715	0.08079354
37	0xbda533f1	-0.08066548
38	0x3d4f7dc8	0.050657064
39	0x3db2956a	0.08719905
40	0xbdd1ea4d	-0.102497675
41	0x3dde8d3c	0.10866782
42	0x3cb46db2	0.022024963
43	0x3e5aee44	0.21379954
44	0xbe1ed10c	-0.15509433
45	0x3dcda01b	0.10040303
46	0xbda9e5ad	-0.0829576
47	0xbe2b41ed	-0.16724367
48	0xbd09f8db	-0.033684593
49	0xbda29c93	-0.079400204
50	0xbd936c6a	-0.07198413
51	0x3ca50997	0.020146174
52	0x3d2fc732	0.042914577
53	0x3e84449d	0.25833598
54	0xbb2b7bbb	-0.0026166278
55	0x3d8eba7a	0.06969161
56	0xbd1a889f	-0.03772795
57	0x3dd7311e	0.10507415
58	0xbe01f277	-0.12690149
59	0x3baf9c2c	0.0053591933
60	0xbdc89a8a	-0.09795101
61	0x3d46e524	0.04855837
62	0x3cac9a98	0.02106981
63	0x3e0c0f3e	0.1367769
64	0xbdad9f68	-0.0847767
65	0xbe0bc05c	-0.13647598
66	0x3c504590	0.0127118975
67	0x3c115d57	0.008872352
68	0x3d414c08	0.04719165
69	0xbe0279a7	-0.12741719
70	0xbde19d9c	-0.1101639
71	0x3c6ca76b	0.014444212
72	0x3ae186c3	0.00172063
73	0xbdd7ba06	-0.10533528
74	0xbda517be	-0.08061169
75	0xbcf90d23	-0.030401772
76	0x3d7016c6	0.05861547
77	0x3e25e689	0.16201223
78	0xbdf4d972	-0.11955537
79	0xbe07dd3f	-0.13267992
80	0x3cc6dcd5	0.024275223
81	0x3ac4aadb	0.0015004532
82	0xbe167707	-0.14693843
83	0xbd6eb31a	-0.058276273
84	0xbd89ca60	-0.06728053
85	0xbdcd51b8	-0.10025352
86	0x3e122b3f	0.1427431
87	0xbd911e38	-0.07085842
88	0xbb09c75e	-0.0021023373
89	0xbd6e1d90	-0.05813366
90	0x3cf5de7a	0.030013312
91	0x3d1a4733	0.037665557
92	0x3d81d8a6	0.063401505
93	0xbc88a702	-0.016681198
94	0x3e042e56	0.12908301
95	0x3da6f1c0	0.08151579
96	0x3de4d239	0.11172909
97	0x3f0b7eb5	0.54490215
98	0x3d808e6b	0.06277164
99	0xbe01afb8	-0.12664688
100	0x3defb694	0.11704746
101	0x3e215886	0.15756425
102	0x3da88efc	0.08230397
103	0x3dfd8ce8	0.12380391
104	0x3e77a90e	0.24185583
105	0xbe2e4534	-0.17018586
106	0x3df76572	0.12079896
107	0x3de24b4a	0.110495165
108	0xbcddecb6	-0.027090412
109	0x3ee672d6	0.45009488
110	0xbd0c33a8	-0.03422895
111	0x3df6f4e0	0.12058425
112	0xbdb1bcb0	-0.086785674
113	0x3d0e6b7b	0.03477047
114	0x3dba8263	0.091069005
115	0xbc19d941	-0.009390176
116	0x3e13e0bc	0.14441198
117	0x3d0df3c4	0.0346563
118	0xbd8a428d	-0.06750975
119	0xbdd3e17b	-0.10345741
120	0x3e9ed582	0.3102227
121	0x3e404dd5	0.1877969
122	0x3e5716e5	0.21004827
123	0xbd95987f	-0.07304477
124	0x3c91daf4	0.0178046
125	0xbc19891c	-0.009371068
126	0x3dbd6798	0.092482746
127	0x3d69cafd	0.05707835

encoder_lstm.bias_hh_l0 f4 [128]
0	0xbb0f1624	-0.0021833265
1	0x3ef85640	0.48503304
2	0x3e4902f6	0.19630036
3	0x3cc954cb	0.024576565
4	0x3e726624	0.23671776
5	0x3f06ae40	0.52609634
6	0x3d2400a9	0.040039692
7	0xbdaa34e9	-0.08310873
8	0x3dc5d913	0.09660544
9	0xbd801ecc	-0.06255874
10	0xbc428229	-0.011871853
11	0xbe138a61	-0.14408256
12	0x3d9f8d2f	0.077906005
13	0x3ed8bf59	0.42333487
14	0x3de8b0e6	0.11361866
15	0x3e101241	0.14069463
16	0x3d40ba0b	0.047052424
17	0x3e3fff49	0.18749727
18	0x3da7bf66	0.08190803
19	0x3c981430	0.018564314
20	0x3d712c0b	0.058879893
21	0x3caa7137	0.020805938
22	0x3e4beaea	0.19913831
23	0x3e2d4dc8	0.16924202
24	0x3e47817f	0.19482993
25	0xbd917616	-0.07102601
26	0xbcb45be8	-0.02201648
27	0xbd068f42	-0.032851465
28	0x3e4f80fa	0.20264044
29	0x3dcd283a	0.10017438
30	0xbd8df459	-0.06931371
31	0x3d1dee94	0.038557604
32	0x3cf6f119	0.030144261
33	0xbdfe65c1	-0.12421752
34	0x3dad7b8b	0.084708296
35	0x3d5eb830	0.054374874
36	0x3dcf5e0e	0.101253614
37	0x3d74b400	0.059741974
38	0x3d7cda7f	0.06173181
39	0x3cfb458e	0.030672815
40	0xbd72b58c	-0.059255168
41	0x3cd40d28	0.02588518
42	0x3d59a797	0.05313834
43	0x3d8e1746	0.06938033
44	0xbdf164d8	-0.117868125
45	0xbe2ce625	-0.16884668
46	0x3c94d097	0.01816587
47	0x3d921776	0.07133381
48	0x3d93cbc9	0.07216603
49	0xbe47cbbf	-0.19511317
50	0x3db9b536	0.09067766
51	0xbe39b6d6	-0.18136153
52	0xbdf4c329	-0.11951286
53	0x3de5f3ec	0.11228165
54	0xbddba0a4	-0.10723999
55	0x3cda2d4d	0.02663293
56	0x3d4efe70	0.05053562
57	0x3def29c2	0.116778865
58	0x3daab981	0.08336163
59	0xbdb98715	-0.09058968
60	0x3d033c56	0.032039963
61	0xbe10d0fe	-0.14142224
62	0xbd759d8a	-0.059964694
63	0x3da8cd96	0.082423374
64	0xbde73a1e	-0.11290382
65	0x3d7b13b1	0.061298076
66	0x3d8d3849	0.06895501
67	0xbd83fcf2	-0.0644473
68	0x3da6563e	0.08121918
69	0xbc8d0fa2	-0.017219368
70	0xbdb18216	-0.0866739
71	0x3da7f78a	0.08201511
72	0x3e43c7da	0.19119206
73	0xbdf15aa6	-0.11784868
74	0x3d1f4152	0.038880654
75	0x3e26e50d	0.16298313
76	0x3db70484	0.08936408
77	0xbe2048ec	-0.15652817
78	0x3defae0b	0.11703118
79	0xbc853a3a	-0.016263116
80	0xbe1a99fc	-0.15097803
81	0x3e114874	0.14187795
82	0x3e11d908	0.14242947
83	0x3e2204be	0.15822122
84	0xbd21b301	-0.039477352
85	0x3ce67d25	0.028135845
86	0xbe0499f7	-0.12949358
87	0x3d0bcdef	0.03413194
88	0xbe13471e	-0.14382598
89	0xbde88ac4	-0.113545924
90	0xbdc3a6ea	-0.09553321
91	0x3bffaefa	0.0078028413
92	0xbc6160d5	-0.013755997
93	0x3e08a762	0.13345101
94	0x3d554601	0.052068714
95	0xbdee6156	-0.11639659
96	0x3c092c1e	0.008372335
97	0x3e6f96b3	0.23397331
98	0x3e07bcd4	0.13255626
99	0xbe0377d5	-0.12838681
100	0x3d80b33c	0.06284186
101	0x3cb3cc40	0.02194798
102	0xbce26991	-0.027638229
103	0x3c2cdf16	0.010551235
104	0x3eab5ef2	0.33470875
105	0xbc41adfd	-0.011821267
106	0xbdde94eb	-0.108682476
107	0x3df193d0	0.11795771
108	0xbdd35588	-0.10319048
109	0x3ee5d306	0.4488756
110	0x3e13f89c	0.14450306
111	0x3df04164	0.11731222
112	0xbd59691a	-0.05307875
113	0x3ce743a5	0.028230498
114	0x3e69e316	0.22840533
115	0xbb804979	-0.0039150086
116	0x3dadd0f8	0.08487123
117	0x3e347cd7	0.17625748
118	0x3e4a4bf6	0.1975554
119	0xbda44145	-0.08020262
120	0x3e124596	0.14284357
121	0x3e247f8e	0.16064283
122	0x3cd7c68f	0.026339797
123	0xbd59dc62	-0.05318869
124	0x3e138c60	0.14409018
125	0x3e329ba8	0.1744219
126	0xbd089abb	-0.033350687
127	0xbbf7a7ae	-0.007557831

dest_lstm_obs.weight_ih_l0 f4 [128, 2]
0	0x3cdf1679	0.027232395
1	0xbdad656c	-0.0846661
2	0xbd1ab0c0	-0.03776622
3	0xbc184801	-0.009294511
4	0xbd071efd	-0.032988537
5	0xbd4dfe29	-0.050291214
6	0xbc1877dc	-0.00930592
7	0x3c035b2a	0.008017341
8	0x3e2b3672	0.16719988
9	0x3bad0026	0.0052795587
10	0xbddc3105	-0.10751537
11	0x3d3d5049	0.046219144
12	0x3dc7d17d	0.097567536
13	0x3ce6ee84	0.028189905
14	0x3daa29c3	0.08308747
15	0xbcf6acc2	-0.030111674
16	0xbc2ba2f3	-0.010475862
17	0xbd022da3	-0.031781804
18	0xbcd64da8	-0.026160076
19	0x3cbee7bd	0.02330386
20	0xbe27b081	-0.16375925
21	0x3db6aed0	0.089200616
22	0xbdd46319	-0.10370464
23	0xbdec10f2	-0.115266696
24	0xbe025134	-0.12726289
25	0x3ddfe0ee	0.10931574
26	0xbdc78055	-0.09741274
27	0xbddbfcd4	-0.107415825
28	0xbd81b745	-0.06333784
29	0xbe134f69	-0.14385761
30	0x3d6d4cd2	0.05793459
31	0x3dadd91a	0.084886745
32	0x3d403d52	0.04693348
33	0xbcb5c8d2	-0.022190485
34	0xbd1576be	-0.036490194
35	0x3d8e668f	0.06953155
36	0x3c7f278d	0.0155733945
37	0x3cf333d2	0.029687796
38	0xbc607468	-0.013699628
39	0xbd5f2f3c	-0.054488406
40	0x3d8987e6	0.06715374
41	0xbd2869b3	-0.041116428
42	0xbd27ceb0	-0.040968597
43	0xbb60fcb1	-0.0034330303
44	0xbdc28892	-0.09498705
45	0x3dcc1366	0.099646375
46	0xbe055d21	-0.13023807
47	0xbd2be97f	-0.041970726
48	0xbbb22066	-0.005435991
49	0x3c8d44a0	0.017244637
50	0xbddf80ce	-0.109132394
51	0x3dc9b66c	0.09849247
52	0x3d11ee1a	0.035627462
53	0xbd66330c	-0.056201026
54	0xbe0a364e	-0.13497278
55	0x3ddab597	0.10679167
56	0x3d6c177b	0.05763958
57	0x3d1cbdd8	0.038266987
58	0x3dbb49ec	0.09144959
59	0xbc03bd68	-0.008040763
60	0x3de39faa	0.11114438
61	0xbdf23a4a	-0.11827524
62	0x3ca2e61e	0.019885119
63	0x3d6828d3	0.056679558
64	0xbdfd332e	-0.123632774
65	0xbcf37944	-0.02972091
66	0x3d3fe42c	0.04684846
67	0xbd17dd21	-0.03707612
68	0xbdc52172	-0.0962552
69	0xbd1eae97	-0.03874072
70	0xbddc7d5f	-0.107661
71	0xbd81685c	-0.06318733
72	0xbde89f4e	-0.1135851
73	0x3de8804f	0.11352598
74	0xbd158040	-0.03649926
75	0xbdf0693e	-0.11738823
76	0xbe0dacf3	-0.13835506
77	0xbbb1db9c	-0.005427791
78	0xbcc78dea	-0.024359662
79	0x3c347eea	0.011016587
80	0xbc706fc4	-0.0146750845
81	0x3c87e2ea	0.016587693
82	0x3da7ab0f	0.08186924
83	0xbd8ccd6a	-0.06875117
84	0xbdd59c15	-0.10430161
85	0xbdc32adb	-0.095296584
86	0xbde539fc	-0.111927
87	0x3e0fa3ec	0.14027375
88	0x3c8141be	0.015778419
89	0x3b4d901a	0.0031366409
90	0x3e19a74e	0.15005228
91	0xbd385524	-0.04500307
92	0xbda6e02d	-0.08148227
93	0x3e0d61f5	0.13806899
94	0xbd87cf95	-0.0663139
95	0x3c3de99c	0.011591341
96	0xbca4ea9b	-0.0201314
97	0xbe17229b	-0.14759295
98	0xbcab6053	-0.020919954
99	0xbe0d9533	-0.13826446
100	0xbd348e7a	-0.04408119
101	0x3db52a18	0.08845919
102	0xbd949a40	-0.07255983
103	0x3d9344e5	0.07190875
104	0xbd5122d0	-0.05105859
105	0x3cf53787	0.029933704
106	0x3d014993	0.031564306
107	0x3d33d031	0.04389972
108	0xbe2ee57a	-0.17079726
109	0xbe1daad2	-0.15397194
110	0x3d2d45aa	0.042302765
111	0xbd99e98f	-0.07515251
112	0xbdc1e16c	-0.09466824
113	0x3cacf687	0.021113647
114	0x3da036ec	0.078229755
115	0x3d0ef018	0.03489694
116	0xbd4dabed	-0.05021279
117	0xbd39698c	-0.045266673
118	0xbe176372	-0.14784029
119	0x3d04ac0f	0.03239065
120	0xbd9d51ea	-0.076816395
121	0xbd351990	-0.04421383
122	0xbdc01924	-0.09379795
123	0xbe1b00d2	-0.15137032
124	0x3c153d98	0.009108923
125	0xbdb40e63	-0.087918065
126	0xbd15728a	-0.036486186
127	0xbd8a0e83	-0.06741049
128	0x3dae5180	0.08511639
129	0x3da40067	0.08007889
130	0x3d4a8337	0.049441542
131	0x3d2bf906	0.041985534
132	0xbd864a3e	-0.06557129
133	0xbd023914	-0.031792715
134	0xbd2637e4	-0.040580645
135	0x3dd64f64	0.10464361
136	0xbdb3b74c	-0.087751955
137	0xbda27f77	-0.07934468
138	0x3dcc3a96	0.09972112
139	0x3d70a7ac	0.058753654
140	0xbdccd0f6	-0.10000794
141	0xbdb3398e	-0.08751212
142	0xbc1814c2	-0.009282293
143	0x3cde3280	0.02712369
144	0x3d483015	0.04887398
145	0x3a38b4c6	0.00070459803
146	0x3e323542	0.17403129
147	0xbdb12d31	-0.08651198
148	0x3d2609f7	0.040536847
149	0xbe16fb71	-0.14744355
150	0x3cd1baba	0.025601733
151	0x3da70e98	0.081570804
152	0x3b9b4c78	0.0047393404
153	0xbcab000b	-0.020874044
154	0xbc04ad28	-0.008097924
155	0xbdb35f5e	-0.08758424
156	0xbd1346e6	-0.035956286
157	0x3b8e6f45	0.0043467605
158	0x3d3b1a9e	0.04567968
159	0x3b22c967	0.0024839283
160	0x3e11a095	0.14221413
161	0xbd4940d4	-0.04913409
162	0xbdb36dc3	-0.0876117
163	0x3db5c502	0.08875467
164	0xbd3bd775	-0.045859773
165	0xbde070a3	-0.10958984
166	0x3ce4cbfd	0.0279293
167	0x3d96e196	0.07367246
168	0x3d7d285a	0.06180606
169	0xbd91044b	-0.07080897
170	0x3d06128e	0.03273254
171	0x3c132793	0.008981603
172	0xbd9a66b0	-0.07539117
173	0xbcf8cdba	-0.030371536
174	0x3d933e30	0.07189596
175	0x3d74df0e	0.059783034
176	0xbd42acb5	-0.047527988
177	0x3d59d0c8	0.053177625
178	0x3ba6308f	0.0050717066
179	0x3cac5fc5	0.02104176
180	0x3da85c69	0.08220751
181	0x3d47e8a8	0.048805863
182	0x3d8aace3	0.06771257
183	0x3d8ee447	0.06977134
184	0x3aa863b5	0.0012847098
185	0x3b7bb92c	0.0038409932
186	0xbd8c2af8	-0.06844133
187	0x3d93e0da	0.072206214
188	0xbd43fcf1	-0.047848646
189	0xbce224d9	-0.027605461
190	0x3d598aea	0.053110994
191	0x3da3de24	0.08001354
192	0x3de53f0c	0.11193666
193	0xbdba6d85	-0.091029204
194	0x3dd168b5	0.102250494
195	0xbe07851a	-0.13234368
196	0x3bcf8397	0.0063328254
197	0xbdd46f9d	-0.10372851
198	0x3ddcce26	0.10781507
199	0xbcedd4d1	-0.029032143
200	0x3e0f52cc	0.13996428
201	0x3dfdcfc4	0.12393144
202	0x3c909622	0.017649714
203	0xbe264b95	-0.1623977
204	0x3d9b9de0	0.07598472
205	0x3d571ab0	0.052515686
206	0xbe2a36ce	-0.16622469
207	0xbdb9a020	-0.090637445
208	0xbe23ef47	-0.16009246
209	0x3d997790	0.07493508
210	0x3dd747c2	0.105117336
211	0xbe187b2c	-0.14890736
212	0x3d342655	0.04398187
213	0x3dc856f8	0.09782213
214	0x38722a90	5.7736936e-05
215	0xbe129dbc	-0.14317983
216	0xbdcc2ef2	-0.099698916
217	0xbd2ce5ab	-0.042211216
218	0xbe13f7a8	-0.14449942
219	0x3d978137	0.07397693
220	0xbd517577	-0.051137414
221	0x3de33d90	0.110957265
222	0xbe15eb74	-0.146406
223	0xbdbf3422	-0.093361154
224	0xbc17c24a	-0.009262631
225	0x3d8678fd	0.065660454
226	0xbdf27fde	-0.11840795
227	0x3d80e9a8	0.062945664
228	0xbc074b36	-0.008257678
229	0xbcefb872	-0.029262755
230	0xbe1a7365	-0.15083082
231	0xbd14194e	-0.036156945
232	0x3e11360b	0.14180772
233	0xbdca29d1	-0.09871257
234	0xbd44d36c	-0.04805319
235	0xbdcfc70f	-0.10145389
236	0x3dd9f08f	0.10641586
237	0xbd2d9c20	-0.04238522
238	0xbd6408d5	-0.055672485
239	0x3df53c4e	0.11974393
240	0xbd9c7eed	-0.07641397
241	0x3de47e57	0.1115691
242	0xbd2171d6	-0.039415203
243	0xbd8ef0ab	-0.069794975
244	0x3db983c2	0.09058334
245	0xbdf18bd2	-0.11794247
246	0xbd92ad4c	-0.0716196
247	0xbb05dbbf	-0.0020425168
248	0xbe0c4ddb	-0.13701575
249	0xbde0fc88	-0.109856665
250	0xbe138873	-0.1440752
251	0x3c8672d2	0.016412172
252	0x3d0ece80	0.034864902
253	0xbc706795	-0.014673133
254	0xbdc15927	-0.094408326
255	0x3de58b44	0.112082034

dest_lstm_obs.weight_hh_l0 f4 [128, 32]
0	0xbd4e2ad8	-0.050333828
1	0xbe33fc0d	-0.17576618
2	0x3e24777d	0.16061206
3	0x3e0e1e78	0.1387881
4	0xbd55dc62	-0.052212127
5	0x3c6148f0	0.0137503
6	0x3df9d601	0.12199021
7	0xbd3743fa	-0.044742562
8	0xbd82a571	-0.06379212
9	0xbdb85cd6	-0.09002082
10	0x3e268341	0.16261007
11	0xbd7c0758	-0.06153044
12	0x3ccc7ddb	0.024962356
13	0x3e0cd03a	0.13751307
14	0xbd659663	-0.056051623
15	0xbe0deb7d	-0.13859363
16	0xbdb6c130	-0.08923566
17	0xbe2bc8f0	-0.1677587
18	0xbcb90065	-0.022583196
19	0x3d8ca883	0.068680786
20	0xbe9b21df	-0.3029928
21	0xbddc62e8	-0.10761052
22	0x3df0b4e7	0.117532544
23	0xbcc470c9	-0.023979561
24	0x3e0c3cc4	0.13695055
25	0x3e16861a	0.14699593
26	0xbe0b70f7	-0.13617311
27	0xbd264eca	-0.040602483
28	0x3e2a636f	0.16639493
29	0x3dd82842	0.105545536
30	0x3da29334	0.07938233
31	0x3e35bc00	0.17747498
32	0x3d366542	0.04453016
33	0xbe1c4243	-0.15259652
34	0x3d476ffd	0.048690785
35	0xbdd27245	-0.102757014
36	0x3d70fe1c	0.058836088
37	0xbe1b397f	-0.15158652
38	0xbd9b14d6	-0.075723335
39	0x3dce3205	0.10068134
40	0x3e195a7b	0.14975922
41	0x3d08b626	0.033376835
42	0x3cf2f9a4	0.029660054
43	0x3e074609	0.1321031
44	0xbb176acc	-0.0023104427
45	0x3c86a89d	0.016437823
46	0x3e1108e5	0.14163549
47	0xbe21d7ab	-0.15804927
48	0x3db1252e	0.086496696
49	0x3e37706f	0.17913984
50	0xbce99aca	-0.028516192
51	0xbd5eb70c	-0.054373786
52	0x3b9b3322	0.00473632
53	0xbde3be22	-0.11120249
54	0xbd9106d4	-0.070813805
55	0xbdeba43e	-0.11505936
56	0x3dfadbce	0.12248956
57	0xbe104b4c	-0.14091223
58	0x3e1d8eeb	0.1538655
59	0x3dc89bab	0.09795316
60	0xbcb05b8d	-0.02152803
61	0x3dfc945a	0.12332983
62	0x3e1467ea	0.14492765
63	0x3dfe34d0	0.12412417
64	0x3d94acd2	0.07259525
65	0xbc961ccc	-0.018324278
66	0x3e16181c	0.14657634
67	0x3db2435e	0.087042555
68	0xbdb8a713	-0.09016242
69	0x3d1ca6a1	0.038244847
70	0xbd2f5bb4	-0.042812064
71	0x3db0b57f	0.08628368
72	0x3c877544	0.016535409
73	0x3d6e6332	0.05820007
74	0x3e5fb517	0.21846424
75	0x3d89fc26	0.067375466
76	0x3e5db076	0.21649346
77	0x3e1eccb0	0.1550777
78	0x3e282ad2	0.16422585
79	0xbcc46a86	-0.023976576
80	0xbe0ab590	-0.13545823
81	0x3d8b62b1	0.06805933
82	0x3da60bc8	0.08107716
83	0x3da5b6ad	0.08091483
84	0x3e2c52e6	0.16828498
85	0xbe5b3362	-0.2140632
86	0xbdd4a792	-0.10383524
87	0xbe4390b6	-0.19098172
88	0xbe2718d3	-0.16318063
89	0xbc6935a6	-0.014233982
90	0x3e01a7d7	0.12661682
91	0x3c6fc7d6	0.014635047
92	0xbde20078	-0.11035246
93	0xbd99e648	-0.07514626
94	0x3e1e656d	0.15468378
95	0x3dc3f875	0.09568874
96	0x3e018e8a	0.1265203
97	0x3d9fb952	0.07799019
98	0xbe499cba	-0.19688693
99	0xbd27f04f	-0.04100066
100	0x3e8169bb	0.25275978
101	0x3e28e692	0.16494206
102	0xbdbfffe6	-0.09374981
103	0x3db16077	0.08660977
104	0xbda6f19c	-0.08151552
105	0xbc4d25f9	-0.01252126
106	0x3c6a484e	0.014299465
107	0x3cf29b60	0.029615104
108	0xbc73f6b2	-0.01489036
109	0x3da3794c	0.0798212
110	0x3ddeaba8	0.108725846
111	0xbdf99009	-0.12185676
112	0xbdeb65d0	-0.114940286
113	0x3dd1c16a	0.10241969
114	0xbc0c04fa	-0.008546108
115	0xbc9e46db	-0.019320896
116	0xbd164096	-0.036682688
117	0x3e01508f	0.12628387
118	0x3c9aee2a	0.018912394
119	0xbe1ea7d8	-0.15493715
120	0xbc9b43da	-0.018953253
121	0xbd653e08	-0.05596736
122	0xbdfe5a51	-0.1241957
123	0x3dfea842	0.124344364
124	0xbb9612c4	-0.0045798738
125	0x3dbbe5e0	0.091747046
126	0x3e0f0fd9	0.13970889
127	0xbe4bc424	-0.1989904
128	0xbdc26380	-0.09491634
129	0x3e3654b4	0.17805749
130	0x3d97d73c	0.074140996
131	0xbe4e0232	-0.20118025
132	0xbe27a5fa	-0.16371909
133	0x3e04c866	0.12967071
134	0xbdc7e9f4	-0.0976142
135	0x3d279c2b	0.040920418
136	0x3e15923f	0.1460657
137	0xbc0349ce	-0.008013202
138	0xbdc03912	-0.09385885
139	0x3de54e10	0.1119653
140	0xbdbd81fc	-0.09253308
141	0xbe2b9d7f	-0.16759299
142	0xbe5fa336	-0.21839604
143	0x3e265b82	0.16245845
144	0xbd982a9a	-0.074300006
145	0x3d91bad6	0.07115714
146	0xbe0cc782	-0.13747981
147	0xbd4ea375	-0.050448854
148	0x3e16af40	0.1471529
149	0xbbf98362	-0.007614539
150	0xbe50eddc	-0.20403236
151	0x3d9634c2	0.073342815
152	0x3d944e21	0.072414644
153	0x3c871038	0.016487226
154	0xbd4b8cdd	-0.049694885
155	0x3e167465	0.14692838
156	0xbe079abb	-0.13242619
157	0xbd724d30	-0.059155643
158	0xbde6334e	-0.11240254
159	0xbd8f3c8c	-0.0699397
160	0xbc81b8fa	-0.015835274
161	0xbe2c6282	-0.16834453
162	0xbe4c26f1	-0.1993673
163	0xbd40939c	-0.04701577
164	0x3cccbe2b	0.024993023
165	0xbe1b6bcc	-0.1517784
166	0xbddc610f	-0.107607
167	0x3d4ba744	0.049720064
168	0xbdaa8be2	-0.08327462
169	0xbdb84496	-0.08997457
170	0x3db42b12	0.087972775
171	0xbd7301c8	-0.05932787
172	0xbdaa09a9	-0.08302624
173	0x3c901497	0.017587943
174	0xba023bc8	-0.00049680145
175	0xbd8642b7	-0.065556936
176	0xbdb976e2	-0.09055878
177	0xbcd60542	-0.026125554
178	0x3e2e3a93	0.17014532
179	0x3e19d5a9	0.15022911
180	0x3d65eb66	0.056132697
181	0x3bb40daf	0.0054947953
182	0xbdd1ca6a	-0.102436855
183	0x3e273903	0.16330342
184	0xbe5a7bed	-0.21336336
185	0x3d08cd1a	0.033398725
186	0xbe1ab592	-0.15108326
187	0x3dadcf2c	0.084867805
188	0xbd196a2e	-0.037454776
189	0x3e23e270	0.16004348
190	0xbd48ce12	-0.04902465
191	0xbe006816	-0.12539706
192	0x3d0f55b1	0.03499383
193	0x3d6b3fc3	0.057433855
194	0xbe165e84	-0.14684492
195	0xbe1a5f0e	-0.15075323
196	0x3d6fa49e	0.0585066
197	0x3dacb846	0.08433585
198	0x3defdcda	0.11712046
199	0x3e0b3db9	0.13597764
200	0x3dfa99c9	0.122363634
201	0xbdf720d8	-0.12066811
202	0x3d22c1b8	0.039735526
203	0xbd4ac2d0	-0.049502194
204	0xbe13c79a	-0.1443161
205	0xbe4113cd	-0.1885521
206	0xbe1deb46	-0.15421781
207	0xbcb4f558	-0.022089645
208	0xbe328a94	-0.17435676
209	0xbdb16543	-0.08661892
210	0x3c874992	0.016514573
211	0xbdc355d3	-0.09537854
212	0x3e375780	0.17904472
213	0xbe30235a	-0.17200986
214	0x3e382e98	0.17986524
215	0x3db28215	0.087162174
216	0xbd5019f9	-0.05080602
217	0xbb9fdb16	-0.004878412
218	0xbe29526d	-0.16535349
219	0x3dc29536	0.09501116
220	0x3e185d96	0.1487945
221	0xbe3b5704	-0.18294913
222	0x3ddf19e6	0.108936116
223	0x3d802e33	0.06258812
224	0xbccb61c2	-0.024826888
225	0xbe1b413e	-0.15161607
226	0xbe4323d1	-0.19056632
227	0xbc9a4284	-0.018830545
228	0x3b9e38c8	0.004828546
229	0xbe157b62	-0.14597848
230	0x3d7429bf	0.059610125
231	0x3dc1b640	0.094585896
232	0x3dbfbfd5	0.09362761
233	0xbd05e8e4	-0.032692805
234	0xbd40659e	-0.04697191
235	0x3da5f0d3	0.08102574
236	0x3d496f34	0.049178317
237	0xbe43b232	-0.19110945
238	0xbc4be1a8	-0.012443937
239	0x3e122e32	0.14275435
240	0xbdfe309d	-0.12411616
241	0x3cefc9cf	0.029271035
242	0xbc0f117c	-0.008732196
243	0xbd889ad4	-0.06670156
244	0xbe081e1f	-0.1329274
245	0xbce21669	-0.027598577
246	0x3dd3f667	0.10349732
247	0xbd531036	-0.05152913
248	0xbcb4667c	-0.022021525
249	0x3be5f287	0.007017437
250	0x3de15709	0.11002929
251	0x3dbcbdbb	0.09215876
252	0xbd57d16b	-0.05268995
253	0xbc92ee0f	-0.01793578
254	0x3c72af3a	0.014812285
255	0x3d45dffc	0.04830931

dest_lstm_obs.bias_ih_l0 f4 [128]
0	0x3e2f69ab	0.17130153
1	0xbdc858c7	-0.09782558
2	0xbd80bb9b	-0.06285783
3	0xbd52dfe2	-0.051483043
4	0x3db7eef0	0.089811206
5	0xbd3a0c46	-0.04542186
6	0xbdf9776d	-0.12180982
7	0xbd864b00	-0.06557274
8	0xbe014e0b	-0.12627427
9	0x3d9815d9	0.07426042
10	0x3d0add5f	0.033902522
11	0xbd409e67	-0.047026064
12	0xbdb1ab3b	-0.08675238
13	0xbdeac7da	-0.114639
14	0xbca86565	-0.020556161
15	0xbd2c1ab7	-0.042017665
16	0xbe652af5	-0.22379668
17	0xbe449b30	-0.19199824
18	0x3e160e7a	0.1465396
19	0x3d2e7005	0.0425873
20	0x3da51aac	0.08061728
21	0xbc828cb5	-0.015936235
22	0x3e09798e	0.13425276
23	0xbba84ecf	-0.005136348
24	0xbda114f4	-0.078653246
25	0xbdbdb094	-0.09262195
26	0xbdf6b906	-0.12047009
27	0xbe0b5967	-0.13608323
28	0x3e4b6c16	0.1986545
29	0x3d34deea	0.0441579
30	0xbb5a9eec	-0.0033358885
31	0xbdb7ae54	-0.08968797
32	0x3d3a36a0	0.04546225
33	0x3c4ff35a	0.012692297
34	0xbdbd0bd4	-0.09230772
35	0xbe2dab81	-0.16959955
36	0x3e449cf0	0.19200492
37	0x3d8597bc	0.06523082
38	0xbd035ff7	-0.03207394
39	0xbe20e556	-0.15712485
40	0x3d74e3e4	0.059787646
41	0x3e09c3f1	0.13453652
42	0xbe769256	-0.2407926
43	0xbd4d1015	-0.050064165
44	0x3e0731ea	0.13202634
45	0xbcc4a35b	-0.024003675
46	0xbdb28e5c	-0.08718559
47	0xbd4ed306	-0.050494216
48	0xbe722f70	-0.23650908
49	0xbe24b311	-0.16083933
50	0xbe0e5524	-0.13899666
51	0x3d4793af	0.048724826
52	0xbe33e330	-0.17567134
53	0x3d840925	0.06447057
54	0x3ddcd506	0.107828185
55	0xbd2a32d9	-0.0415524
56	0xbd8a8f23	-0.067655824
57	0xbc83dc94	-0.01609639
58	0x3b2b268b	0.0026115503
59	0x3defd3da	0.11710329
60	0x3e5f56ee	0.21810505
61	0x3d51fabc	0.05126451
62	0x3da6f8e4	0.08152941
63	0xbde30eb6	-0.1108679
64	0x3e037625	0.12838037
65	0x3dca599b	0.09880372
66	0x3ddd217c	0.10797402
67	0xbe07a135	-0.1324509
68	0xbdfd974b	-0.123823725
69	0x3e08c31b	0.13355677
70	0xbdf9ddb2	-0.12200488
71	0xbd12aca9	-0.035809193
72	0x3d96e063	0.07367017
73	0x3e772d40	0.24138355
74	0x3b48549d	0.0030568012
75	0xbda2f6f8	-0.07957262
76	0xbe235877	-0.15951715
77	0xbbb42d4e	-0.005498565
78	0xbdbbdd46	-0.09173064
79	0x3e44023f	0.19141482
80	0x3d04058c	0.032231852
81	0xbb921c8a	-0.0044589685
82	0xbe6490b7	-0.2232083
83	0xbe2a1ed8	-0.16613328
84	0x3dcf55ee	0.10123812
85	0xbcf0a36c	-0.0293748
86	0x3d59d09d	0.053177465
87	0xbd56e2e1	-0.052462462
88	0xbd1b3dd3	-0.037900757
89	0xbdd63c65	-0.10460738
90	0xbdfc2898	-0.1231243
91	0x3d14e895	0.03635462
92	0xbe84cf40	-0.2593937
93	0xbe2a97ea	-0.16659513
94	0xbe1c985a	-0.15292493
95	0x3e192d6b	0.14958732
96	0xbe018cd2	-0.12651375
97	0xbcc3a6bb	-0.023883214
98	0x3dd7f11d	0.105440356
99	0xbc16912d	-0.009189886
100	0xbd172df7	-0.03690907
101	0x3deb56fb	0.114911996
102	0x3d644cb7	0.055737223
103	0x3dfb260c	0.12263116
104	0xbbc0169e	-0.005862071
105	0xbe1a4049	-0.15063585
106	0xbd5efc33	-0.054439735
107	0xbd51210c	-0.051056907
108	0x3dafbe63	0.08581235
109	0xbc8c49d6	-0.017125051
110	0xbd71609e	-0.058930032
111	0xbdf714ea	-0.12064536
112	0x3dbb2695	0.09138218
113	0xbd927cd9	-0.07152719
114	0xbe300ac8	-0.17191613
115	0xbe1bf502	-0.15230182
116	0xbe5deb1f	-0.21671723
117	0x3e029d6e	0.12755367
118	0xbd895423	-0.06705501
119	0xbe2bcc48	-0.16777146
120	0xbc4ca835	-0.012491276
121	0xbc84fa71	-0.016232701
122	0x3e09c8b8	0.13455474
123	0xbe330d75	-0.17485602
124	0x3d838379	0.06421561
125	0x3b06fab9	0.002059622
126	0xbe064d17	-0.13115345
127	0xbdec9bea	-0.11553176

dest_lstm_obs.bias_hh_l0 f4 [128]
0	0x3dab673e	0.08369301
1	0xbdc1aa30	-0.09456289
2	0xbe3b6c3f	-0.18303011
3	0xbe222c96	-0.1583732
4	0x3cd66f39	0.026176082
5	0xbd6ffe77	-0.058592286
6	0xbac9a604	-0.001538456
7	0x3ca4b2fd	0.02010488
8	0xbcc7af6a	-0.024375636
9	0x3d8d3b7e	0.06896113
10	0x3d5b9d62	0.05361689
11	0xbe082ce3	-0.13298373
12	0xbe112e04	-0.1417771
13	0xbe2beeb0	-0.16790271
14	0x3da4e1eb	0.08050903
15	0xbe0640e0	-0.13110685
16	0xbe0f4cec	-0.13994187
17	0x3dd4996a	0.10380824
18	0x3c69ba43	0.0142656
19	0x3dcb913c	0.09939811
20	0xbe330d07	-0.17485438
21	0xbe686359	-0.22694148
22	0xbe00d878	-0.12582576
23	0x3da2f2b3	0.079564475
24	0xbde36150	-0.11102545
25	0x3d437bc1	0.047725443
26	0xbdf5028e	-0.11963378
27	0x3c561bb0	0.013068125
28	0xbc229102	-0.009922268
29	0x3d3cea24	0.04612173
30	0x3ddba0af	0.10724007
31	0xbdccfd9c	-0.1000931
32	0xbc239421	-0.009984047
33	0xbe16bf1e	-0.14721343
34	0xbdb1848c	-0.086678594
35	0xbe02c32b	-0.12769763
36	0x3d716751	0.05893642
37	0xbd965976	-0.07341282
38	0x3d8de854	0.06929079
39	0xbdfcfc31	-0.12352789
40	0xbe913065	-0.28357235
41	0xbe33b07e	-0.17547795
42	0xbe58be3d	-0.2116632
43	0x3cfa2229	0.030533867
44	0xbd43f10b	-0.0478373
45	0xbe4b3201	-0.19843294
46	0x3d0a0c3e	0.03370308
47	0x3c15eaf8	0.009150259
48	0x3ce81f0e	0.02833512
49	0xbe482530	-0.19545436
50	0xbdc626d5	-0.09675375
51	0xbd693eda	-0.056944706
52	0xbe6e8251	-0.232919
53	0xb9e763bb	-0.00044134058
54	0xbe2e1d5c	-0.17003387
55	0xbd09c358	-0.03363356
56	0x3e35e99d	0.17764898
57	0x3d9c7607	0.076396994
58	0x3c8e808f	0.017395286
59	0xbdf7244f	-0.12067472
60	0xbd1ffddc	-0.03906046
61	0xbe2373e8	-0.15962183
62	0xbe2f6252	-0.1712735
63	0xbe27963c	-0.16365904
64	0x3de67695	0.112530865
65	0x3e26e84f	0.16299556
66	0x3cf8f115	0.030388394
67	0xbd6787ba	-0.056525923
68	0xbed04be7	-0.4068291
69	0x3d88ae95	0.06673924
70	0x3d9f63e2	0.07782723
71	0x3dad4400	0.084602356
72	0x3befc568	0.007317234
73	0xbd2d243e	-0.04227089
74	0xbd9a8f92	-0.07546915
75	0x3c64b8fe	0.013960121
76	0x3ccbc618	0.024874732
77	0xbe1d43bd	-0.15357871
78	0xbd9a10de	-0.075227484
79	0x3e4066d6	0.18789229
80	0x3e1d1872	0.15341356
81	0xbd28ae8e	-0.041182093
82	0xbde22157	-0.11041515
83	0xbe2efbee	-0.17088291
84	0xbd7c2d66	-0.061566733
85	0x3de9a28f	0.11407959
86	0xbd2b4f06	-0.04182341
87	0x3e43cfb4	0.19122201
88	0x3e5d453a	0.21608439
89	0x3d75f8be	0.060051672
90	0x3dd256aa	0.10270436
91	0x3e1e031e	0.15430877
92	0xbdc299f9	-0.09502024
93	0xbd3d1dc5	-0.04617097
94	0x3e019460	0.12654257
95	0x3e081a30	0.1329124
96	0xbd3f295c	-0.046670303
97	0xbdb9d4b6	-0.090737745
98	0xbe008936	-0.12552342
99	0xbe0bd985	-0.13657196
100	0x3d5562a3	0.05209602
101	0xbe29d38d	-0.16584606
102	0xbd013660	-0.031545997
103	0x3dcc540c	0.09976968
104	0xbc410ecb	-0.011783312
105	0x3de43ca0	0.11144376
106	0xbe3365bc	-0.17519277
107	0xbcfcfafc	-0.030881397
108	0x3d5fef49	0.05467156
109	0x3d9db176	0.076998636
110	0xbe4b6164	-0.1986137
111	0xbd1dce99	-0.038527105
112	0x3d9b7ac5	0.07591776
113	0xbdf226ab	-0.118237816
114	0x3c83d729	0.016093807
115	0x3dc9b1cf	0.098483674
116	0x3c9804ab	0.018556913
117	0xbe4f6980	-0.20255089
118	0xbe40d584	-0.1883145
119	0xbe5002eb	-0.20313613
120	0xbe089911	-0.1333964
121	0xbd5ef138	-0.054429263
122	0x3dab689f	0.08369564
123	0xbdef51f1	-0.11685551
124	0x3d36d0e2	0.0446328
125	0x3df47120	0.119356394
126	0xbcb72247	-0.022355212
127	0x3ddac880	0.106827736
