src/do_tp_federated_federated_round_6.pt (torch, 157077 bytes, 26 tensors)

linear_enc.weight f4 [64, 2]
0	0x3efc65af	0.49296328
1	0x3f11fc77	0.57025856
2	0x3ee42d8f	0.44566008
3	0x3d76b451	0.060230557
4	0x3f194253	0.5986683
5	0x3edb37d1	0.42816022
6	0x3ee83680	0.4535408
7	0xbf30ded6	-0.6909002
8	0x3e8eebce	0.2791428
9	0xbf0dcb42	-0.5538827
10	0x3d51fbca	0.051265515
11	0x3e960ae4	0.29305184
12	0xbef575f7	-0.47941563
13	0x3ecc922c	0.3995527
14	0x3e8a3c51	0.26999143
15	0xbea47243	-0.32118425
16	0x3d80d441	0.06290484
17	0xbe086d8f	-0.13323043
18	0xbee82260	-0.45338726
19	0xbe340e63	-0.17583613
20	0x3ea941c4	0.33057988
21	0x3d346268	0.04403916
22	0x3efecc4f	0.4976525
23	0xbf2c4e3b	-0.6730687
24	0x3ef022f4	0.46901667
25	0x3e15d342	0.1463137
26	0xbe7ae218	-0.2450031
27	0xbf8178bc	-1.011497
28	0xbe1885f5	-0.1489485
29	0xbe74b49b	-0.2389702
30	0x3ee8e36a	0.45486003
31	0xbd85ef64	-0.06539801
32	0xbf3a6c35	-0.7282136
33	0xbf2d5d76	-0.67720735
34	0xbf221479	-0.6331249
35	0xbe2e94bb	-0.17048924
36	0x3f1c3ab2	0.6102706
37	0xbf44d035	-0.768802
38	0x3eac9117	0.33704445
39	0xbecf6720	-0.40508366
40	0x3f045bc5	0.5170253
41	0xbf67e823	-0.9058859
42	0xbf1f7cd3	-0.6229984
43	0x3f4b8732	0.79503167
44	0xbf00daf8	-0.5033412
45	0x3e69d118	0.22833669
46	0xbe20c057	-0.15698372
47	0xbd84c285	-0.06482414
48	0x3eb68971	0.35651734
49	0xbef8c428	-0.48587155
50	0x3e8f29c8	0.27961564
51	0x3db7b1db	0.0896947
52	0xbf098855	-0.5372365
53	0x3e1d5384	0.1536389
54	0x3f4106e2	0.7540113
55	0x3eb03044	0.34411824
56	0x3dd423ba	0.10358377
57	0x3ec09e13	0.376206
58	0x3f2e51b4	0.6809342
59	0x3d793a21	0.06084645
60	0xbe80f27e	-0.25185007
61	0x3f46c68a	0.77646697
62	0xbf3b5c3e	-0.73187625
63	0xbede6a32	-0.43440396
64	0x3efd533d	0.49477568
65	0xbecc6ba4	-0.39925873
66	0xbe912aa1	-0.28352836
67	0x3f62b2d6	0.8855413
68	0xbf08238c	-0.5317924
69	0xbe8216da	-0.2540806
70	0xbefe88cc	-0.49713743
71	0x3f5ca9a0	0.8619633
72	0x3edcb43b	0.43106255
73	0xbf5f9a75	-0.8734506
74	0xbd453b62	-0.048152335
75	0x3f0e2e0a	0.55539
76	0x3f2164fa	0.63044703
77	0x3f6a5a74	0.9154427
78	0xbf3b227d	-0.730995
79	0xbee3a370	-0.4446063
80	0x3f1c4894	0.61048245
81	0x3e88fd1d	0.2675561
82	0xbee2b941	-0.44281963
83	0xbf7e5889	-0.99353844
84	0x3f4c2a48	0.79752016
85	0x3e001e57	0.12511574
86	0xbe5813a0	-0.21101236
87	0xbd531018	-0.05152902
88	0xbebf0eb6	-0.3731591
89	0x3ddd4c0a	0.10805519
90	0xbe5ed3c4	-0.2176047
91	0x3f213106	0.6296543
92	0xbf34b6bf	-0.7059135
93	0x3ede7968	0.43452
94	0x3f0f901c	0.5607927
95	0x3f2094ad	0.6272686
96	0xbe2145dd	-0.15749307
97	0x3cfd075a	0.030887295
98	0xbf34ca89	-0.70621544
99	0x3dfaed3b	0.12252279
100	0xbed6fc24	-0.41989243
101	0x3f15e2d0	0.58549213
102	0xbf23ef88	-0.6403737
103	0x3ecff284	0.40614712
104	0xbf52dedc	-0.82371306
105	0xbee54a5f	-0.44783303
106	0xbe16f42f	-0.14741586
107	0x3ea03b0a	0.31295043
108	0x3f3f3df7	0.74703926
109	0x3edea930	0.43488455
110	0xbcf1a7c2	-0.029498938
111	0x3ebe7224	0.37196457
112	0xbe6cca23	-0.23123984
113	0x3f0d064a	0.5508772
114	0xbe1249a1	-0.142859
115	0x3f1d3381	0.61406714
116	0xbf310a80	-0.69156647
117	0xbf3658ff	-0.7122955
118	0xbf459c33	-0.77191466
119	0x3e66ff80	0.22558403
120	0x3e9daed8	0.30797458
121	0x3e0f9f1b	0.14025538
122	0xbe0bce6d	-0.13652964
123	0x3f1c71ae	0.6111096
124	0xbe4cf812	-0.20016506
125	0x3d3cd2bf	0.04609942
126	0xbe9497a1	-0.29021934
127	0xbdc1e91b	-0.094682895

linear_enc.bias f4 [64]
0	0x3e476912	0.19473675
1	0xbf217ddb	-0.63082665
2	0x3db8cb3e	0.0902314
3	0xbec7daba	-0.39034063
4	0xbed9d09e	-0.42541975
5	0xbf27930c	-0.6545875
6	0x3e90efbc	0.28307903
7	0xbeaf1d3a	-0.34201986
8	0x3e87152f	0.2638335
9	0x3e9c651c	0.3054589
10	0x3da58fe1	0.08084083
11	0xbe255e97	-0.16149364
12	0xbc76a4fd	-0.015053985
13	0x3b8cdd06	0.004298809
14	0xbea60876	-0.3242833
15	0xbed34085	-0.41260162
16	0xbd852338	-0.06500858
17	0xbeee3ecc	-0.46532285
18	0x3d86f8fc	0.06590459
19	0x3e15c41f	0.14625596
20	0x3f10c7e9	0.5655504
21	0x3e36c86f	0.17849897
22	0x3f1d3442	0.61407864
23	0x3eb6942e	0.35659927
24	0xbf1c967d	-0.61167127
25	0x3ecd9a94	0.40156996
26	0xbe8d8ab1	-0.27644876
27	0x3e447e29	0.19188751
28	0xba862a87	-0.0010236063
29	0xbe84d45b	-0.25943264
30	0xbd559066	-0.052139662
31	0xbf329ec2	-0.69773495
32	0xbecf3450	-0.404696
33	0x3f1aac4c	0.60419154
34	0xbe9fe396	-0.31228322
35	0xbecfbab8	-0.40572143
36	0xbe683bc3	-0.22679047
37	0x3eca00f0	0.3945384
38	0xbcd29854	-0.025707401
39	0x3f15f1ab	0.5857188
40	0xbf1234dc	-0.57111907
41	0xbecf235d	-0.40456668
42	0xbeeed22c	-0.46644723
43	0x3e944e7e	0.28966135
44	0x3f175921	0.59120375
45	0x3f165408	0.5872197
46	0x3f2a10a3	0.66431636
47	0x3e03cf17	0.12871967
48	0xbf02aaba	-0.5104176
49	0xbea78904	-0.32721722
50	0xbeb7103d	-0.35754576
51	0xbc9fca4b	-0.01950564
52	0xbea67bf2	-0.32516438
53	0x3f187f7d	0.5956953
54	0xbf278775	-0.65441066
55	0xbf0c17f3	-0.54724044
56	0x3f28bbb4	0.6591141
57	0x3e06ee36	0.13176808
58	0x3e9e5ae7	0.30928728
59	0xbddbdcd4	-0.10735479
60	0x3e8b4227	0.27198908
61	0x3eac27e5	0.33624187
62	0x3e3efdeb	0.1865155
63	0xbf026125	-0.5092948

encoder_lstm.weight_ih_l0 f4 [128, 64]
0	0x3e2d7c84	0.1694203
1	0x3ddea0cc	0.10870513
2	0x3e3ae332	0.1825073
3	0xbe2cb26e	-0.1686494
4	0xbcb00e54	-0.021491207
5	0xbe005564	-0.12532574
6	0x3e2e06d2	0.16994789
7	0xbe083e10	-0.13304925
8	0x3e3206d5	0.17385419
9	0x3e0a8ae5	0.13529547
10	0xbdb71026	-0.08938627
11	0x3dd21161	0.10257221
12	0xbc8e477e	-0.017368075
13	0xbd928dc4	-0.07155946
14	0xbe59ff1b	-0.21288721
15	0xbe3bb676	-0.18331322
16	0x3de5a972	0.1121396
17	0xbd79dc4c	-0.061001107
18	0xbd8719de	-0.06596731
19	0xbdb0f36c	-0.08640179
20	0x3dc70c58	0.09719151
21	0x3e4bc09c	0.19897693
22	0xbdfb3811	-0.12266553
23	0xbd788f9f	-0.060683843
24	0x3d95cde9	0.07314665
25	0x3e095286	0.13410386
26	0xbe144562	-0.14479592
27	0x3dc1c77b	0.09461876
28	0x3da22901	0.07917977
29	0xbdaad3a6	-0.0834115
30	0xbe2aefb3	-0.16693
31	0xbe16bd34	-0.14720613
32	0x3caedad4	0.02134458
33	0x3decfd4e	0.115717515
34	0xbe549885	-0.20761307
35	0xbd6709cf	-0.05640584
36	0xbe33d190	-0.1756041
37	0xbdcad382	-0.09903623
38	0xbdb45641	-0.08805514
39	0xbd83918d	-0.06424246
40	0x3dc19578	0.09452337
41	0xbd048096	-0.03234919
42	0x3da5aa4b	0.080891214
43	0x3e597174	0.21234685
44	0xbde8184c	-0.11332759
45	0xbd8c95f2	-0.06864537
46	0x3e3bba39	0.18332757
47	0x3e23203d	0.15930267
48	0xbe5cd95f	-0.21567295
49	0x3c813c49	0.015775817
50	0xbdf875ec	-0.12131867
51	0xbd9491d6	-0.072543785
52	0x3cc58767	0.024112416
53	0x3e244095	0.16040261
54	0xbde0c918	-0.109758556
55	0xbe0e7c02	-0.13914493
56	0x3d859067	0.06521683
57	0xbd417a43	-0.04723574
58	0xbd95c480	-0.0731287
59	0xbda3c860	-0.07997203
60	0x3db343cf	0.08753168
61	0x3c4b4078	0.012405507
62	0x3d83d879	0.06437773
63	0xbc8536c4	-0.016261466
64	0x3dd7367e	0.105084404
65	0xbed8d993	-0.42353496
66	0x3d2af9c3	0.041742098
67	0xbc90adf5	-0.017661074
68	0xbd931f5d	-0.071837164
69	0xbea5fac8	-0.32417893
70	0x3e9f5d7c	0.3112601
71	0xbe94ace8	-0.29038167
72	0x3eb07ad2	0.34468704
73	0x3edfbaa8	0.43697095
74	0x3e1bc574	0.15212041
75	0xbdd02bae	-0.10164581
76	0xbe1abe22	-0.15111592
77	0x3ebe7e22	0.37205607
78	0xbe875474	-0.2643162
79	0xbea77f39	-0.3271425
80	0x3d42d242	0.0475638
81	0xbedf0d27	-0.43564722
82	0x3e7052fa	0.23469153
83	0x3f037cfb	0.5136258
84	0x3e69e32f	0.2284057
85	0x3ca64a8c	0.020299219
86	0x3e532147	0.20618163
87	0x3ed46aef	0.41487834
88	0xbe878399	-0.2646759
89	0x3dbaa407	0.09113317
90	0xbed92b08	-0.42415643
91	0x3deb903e	0.115021214
92	0xbec40a90	-0.3828931
93	0xbdcc1e13	-0.09966674
94	0xbeab642c	-0.33474863
95	0xbda2c05f	-0.07946848
96	0xbe7bdf6c	-0.24596947
97	0x3e60f5c3	0.2196875
98	0xbec700a5	-0.3886768
99	0xbea43303	-0.3207017
100	0x3dcb1108	0.09915358
101	0x3e0c0c34	0.1367653
102	0xbe876ce7	-0.26450273
103	0x3ecf854c	0.40531385
104	0xbe163040	-0.14666843
105	0xbe058eaf	-0.1304271
106	0xbdc69c14	-0.09697738
107	0x3ebf84b7	0.3740594
108	0x3ea46fb3	0.3211647
109	0x3eb8c201	0.36085513
110	0x3eb863ae	0.3601355
111	0x3c983b78	0.018583044
112	0xbec10a47	-0.37703153
113	0xbe150932	-0.14554289
114	0xbe79730c	-0.24360293
115	0xbe95e0fd	-0.29273215
116	0xbe8b99fc	-0.27265918
117	0x3ebd2003	0.36938486
118	0xbe97c311	-0.2964101
119	0xbe349e8e	-0.17638609
120	0x3d84ca3d	0.064838864
121	0x3db17e87	0.08666711
122	0x3e91e9d8	0.2849872
123	0xbeb5da43	-0.35518083
124	0x3ecf49da	0.40486032
125	0x3d5b373b	0.05351947
126	0x3e109e15	0.14122804
127	0xbe88cc9a	-0.267186
128	0x3dc359e2	0.09538628
129	0xbd7e4d93	-0.0620857
130	0xbde6b86e	-0.11265646
131	0x3d30fc10	0.043209136
132	0x3caf19d5	0.021374622
133	0xbd122acb	-0.03568534
134	0xbe39170c	-0.18075198
135	0x3db53297	0.0884754
136	0x3e14bfa6	0.14526233
137	0x3d389370	0.045062482
138	0x3e2a09d9	0.16605319
139	0x3e23c9c1	0.15994932
140	0x3d857eaf	0.065183036
141	0x3e29c149	0.16577639
142	0xbe15e830	-0.14639354
143	0x3d967793	0.07347026
144	0x3d222b17	0.039591875
145	0xbe01f299	-0.126902
146	0x3d7ee80c	0.062233016
147	0x3d34aa82	0.04410792
148	0x3e28d3ff	0.1648712
149	0xbdf239f1	-0.11827458
150	0xbd579dda	-0.052640773
151	0xbd3769a7	-0.044778492
152	0x3e44d337	0.19221197
153	0x3dff0da5	0.12453774
154	0xbd1f3e8f	-0.03887802
155	0xbd2ee060	-0.04269445
156	0xbe8d2a58	-0.27571368
157	0x3be07f93	0.0068511455
158	0xbe338f33	-0.17535095
159	0x3e064af6	0.13114533
160	0xbd8e20a6	-0.06939821
161	0xbe146044	-0.14489847
162	0x3de44daf	0.111476295
163	0xbd898e2f	-0.067165725
164	0x3e58bf69	0.21166767
165	0xbc91a6bc	-0.0177797
166	0xbe516588	-0.20448887
167	0xbd0593d9	-0.0326117
168	0xbdd3fdfe	-0.103511795
169	0x3dfa767f	0.122296326
170	0x3e0ea433	0.13929825
171	0xbd86b3a1	-0.0657723
172	0xbd81eba7	-0.06343775
173	0xbe113793	-0.14181356
174	0xbe172abd	-0.14762397
175	0xbdb17328	-0.086645424
176	0x3e11f7fb	0.14254753
177	0xbde513ba	-0.11185403
178	0xbe031260	-0.12799978
179	0x3d6c5926	0.057702206
180	0x3d836a5f	0.06416773
181	0xbe21e8e4	-0.15811497
182	0xbe2db7a6	-0.16964588
183	0x3d283e15	0.04107483
184	0xbc40e27c	-0.011772748
185	0xbd595453	-0.053058933
186	0xbda48ca0	-0.080346346
187	0xbe58d9a1	-0.21176769
188	0x3e3cca0d	0.18436451
189	0xbe33e63f	-0.175683
190	0xbe0c72d5	-0.1371568
191	0x3e07d21d	0.13263746
192	0xbd5edb42	-0.05440832
193	0x3e13a336	0.14417729
194	0xbcc97503	-0.024591928
195	0xbe15539c	-0.14582676
196	0x3e31afcb	0.17352216
197	0xbce3be94	-0.027800836
198	0x3d0c47b7	0.03424808
199	0xbd2f0946	-0.042733453
200	0xbdfda870	-0.123856425
201	0xbd5af305	-0.053454418
202	0xbe190b17	-0.14945637
203	0xbcbcad46	-0.023031842
204	0xbd66a6fa	-0.056311585
205	0x3d55c089	0.05218557
206	0x3b59c65c	0.0033229804
207	0x3e04a0fc	0.12952036
208	0x3e016a0d	0.12638111
209	0x3d6d5104	0.05793859
210	0x3d91da3c	0.07121703
211	0x3d605dba	0.054776885
212	0xbe317b38	-0.1733216
213	0x3d19065b	0.037359577
214	0xbdce012f	-0.100588195
215	0x3d36c14b	0.044617932
216	0x3e037fa6	0.12841663
217	0xbe4118fa	-0.18857184
218	0x3dd7a627	0.10529738
219	0xbe088ab8	-0.13334167
220	0x3da6bfe0	0.08142066
221	0x3c63c8e7	0.013902879
222	0xbdf4a86e	-0.11946188
223	0x3d9b231c	0.07575056
224	0x3d66ab3b	0.05631564
225	0xbd307aa2	-0.0430857
226	0x3d828361	0.06372715
227	0x3e532386	0.2061902
228	0x3e244e96	0.16045603
229	0x3db0bb18	0.08629435
230	0xbdecffbe	-0.115722165
231	0x3dc3b2da	0.095555976
232	0x3d5cadce	0.05387669
233	0x3de72666	0.11286621
234	0xbdbe129a	-0.09280892
235	0x3e1215ec	0.14266175
236	0xbe2a42fb	-0.16627114
237	0x3d5dc0ee	0.05413907
238	0xbdd69f90	-0.10479653
239	0x3ce36219	0.027756738
240	0x3e16dfb2	0.1473377
241	0x3c2cc68b	0.010545383
242	0x3cd4c886	0.025974523
243	0x3e3c58ca	0.18393245
244	0xbc972b1f	-0.018453179
245	0xbcf348d9	-0.029697822
246	0x3b59c90a	0.00332314
247	0xbdaa4cf3	-0.08315458
248	0xbd3a0bcc	-0.045421407
249	0xbdab2c5a	-0.08358069
250	0xbdcd45e9	-0.100231
251	0xbd160800	-0.036628723
252	0x3dc3f465	0.09568099
253	0xbddb0682	-0.10694601
254	0x3e277f68	0.16357195
255	0x3e27de6e	0.16393444

encoder_lstm.weight_hh_l0 f4 [128, 32]
0	0x3dee0d4a	0.116236284
1	0xbdc4c309	-0.096075125
2	0x3c9d3675	0.019191006
3	0x3ced910e	0.028999832
4	0xbd1b7a5a	-0.03795848
5	0xbdf3922e	-0.11893116
6	0xbe1f51b9	-0.15558518
7	0x3e950f62	0.291133
8	0xbd5f8aa6	-0.054575585
9	0xbe59b968	-0.21262133
10	0xbcf30a5a	-0.029668022
11	0x3e112402	0.14173892
12	0xbe0cc162	-0.13745645
13	0xbd214d5c	-0.039380416
14	0xbc45e1b6	-0.012077739
15	0x3c2ee962	0.01067576
16	0xbe8c30c8	-0.27380967
17	0xbe31b3be	-0.17353722
18	0xbe26fd43	-0.16307549
19	0xbce8deb8	-0.028426513
20	0xbddcda4e	-0.10783826
21	0x3dfae0a6	0.122498795
22	0x3d42099f	0.047372457
23	0x3c8bf08a	0.017082471
24	0xbe26236f	-0.16224454
25	0x3d60e3e4	0.054904833
26	0xbd7c1ad9	-0.06154904
27	0x3d13b733	0.036063384
28	0x3df96c26	0.12178831
29	0x3daa5bd9	0.083183
30	0x3d2409c5	0.04004838
31	0x3e3522ca	0.17689052
32	0x3ebadc5c	0.36496246
33	0xbe68e927	-0.2274519
34	0x3ecd4169	0.40088966
35	0xbdd448d1	-0.10365451
36	0xbdf20d1a	-0.11818905
37	0x3e856dd2	0.2606035
38	0x3d7d9dd5	0.0619181
39	0x3d3dd948	0.046349794
40	0x3ea13103	0.31482705
41	0xbdbba51c	-0.091623515
42	0xbde53e41	-0.111935146
43	0x3e03edbe	0.1288366
44	0x3e15147c	0.14558595
45	0xbe0301b2	-0.12793615
46	0xbd42b538	-0.047536105
47	0xbdd93a78	-0.10606855
48	0xbe9cb7fc	-0.3060912
49	0xbe01897a	-0.126501
50	0x3e89fde8	0.26951528
51	0x3da3c7f9	0.07997126
52	0x3e20ecba	0.15715304
53	0xbe7079d5	-0.23483975
54	0xbe4c1bbb	-0.19932453
55	0x3dd18f38	0.10232395
56	0xbd180378	-0.037112683
57	0xbe9a3814	-0.3012091
58	0xbe807fd3	-0.25097522
59	0xbd806029	-0.06268341
60	0x3d542344	0.051791444
61	0x3afc6412	0.0019255897
62	0x3ea3f04a	0.32019264
63	0x3e98629f	0.29762742
64	0x3dd6db90	0.10491097
65	0x3de00d55	0.10940043
66	0xbd9ef8a4	-0.07762268
67	0xbdb0462c	-0.08607134
68	0x3e010041	0.12597753
69	0x3eb17cb2	0.34665447
70	0xbccac6b3	-0.02475295
71	0xbcc230d9	-0.023704933
72	0xbd44bb89	-0.04803041
73	0xbe09c27c	-0.13453096
74	0x3d69c771	0.057074968
75	0xbccdb38d	-0.02511003
76	0x3d0e6736	0.0347664
77	0x3eb1f33a	0.3475588
78	0xbd0ad8b3	-0.033898067
79	0x3daa2754	0.083082825
80	0x3da12d4d	0.078699686
81	0xbdffb8df	-0.12486433
82	0xbbe0126c	-0.0068381336
83	0xbe4773c3	-0.19477753
84	0x3ebc10b4	0.36731493
85	0x3e2a4e12	0.16631344
86	0xbda0fd2e	-0.0786079
87	0xbd8cc3af	-0.06873261
88	0xbde82bd8	-0.113364875
89	0x3cdf4cfe	0.027258392
90	0x3dab8a13	0.08375945
91	0x3d4e19b0	0.050317466
92	0x3d1721f4	0.036897615
93	0xbe2d29fb	-0.16910546
94	0xbe32fc6d	-0.17479105
95	0xbde90ad8	-0.113790214
96	0xbc1210a5	-0.008915101
97	0xbd7ebe14	-0.06219299
98	0xbd944017	-0.07238787
99	0xbdb93a3e	-0.09044312
100	0xbe5391e3	-0.2066112
101	0xbe3f9b1a	-0.1871151
102	0xbd60a526	-0.054844998
103	0xbd94b916	-0.07261865
104	0xbdea91be	-0.11453579
105	0x3d0bece3	0.03416146
106	0x3d8b4dfa	0.06801982
107	0xbe175298	-0.14777601
108	0xbd58ce98	-0.0529314
109	0x3dc8f7f6	0.0981292
110	0x3d42ac85	0.04752781
111	0xbdb60f41	-0.08889628
112	0xbc8bb1c1	-0.017052533
113	0x3c98b0f7	0.01863907
114	0xbe50b4f6	-0.20381531
115	0xbdc2d21c	-0.095127314
116	0xbe628b42	-0.22123435
117	0xbe115327	-0.14191876
118	0x3e5f455b	0.21803801
119	0x3dea524d	0.11441479
120	0xbe68b93e	-0.22726914
121	0xbd8d4875	-0.06898586
122	0x3d220274	0.03955312
123	0x3e275e5b	0.16344588
124	0xbd4ce296	-0.050020777
125	0xbdf2338a	-0.118262365
126	0x3dcfbb64	0.10143164
127	0xbd59f358	-0.053210586
128	0x3d087e4f	0.033323582
129	0xbe58f5f6	-0.21187577
130	0x3eaacbe8	0.33358693
131	0xbe5bdc56	-0.2147077
132	0xbb93fd76	-0.004516299
133	0x3e499b15	0.19688065
134	0xbe28fdd6	-0.1650308
135	0x3eb88e1c	0.3604592
136	0x3d1a70b0	0.037705123
137	0xbe03fc41	-0.12889196
138	0xbd313e2e	-0.04327219
139	0x3e50a07a	0.20373717
140	0x3dda7624	0.10667065
141	0xbee7d90f	-0.4528279
142	0xbe596141	-0.21228506
143	0xbd9ca56a	-0.07648738
144	0xbd3fa952	-0.046792336
145	0xbe89369e	-0.26799482
146	0x3e8f2a65	0.27962032
147	0xbe50dd61	-0.2039695
148	0xbe708a22	-0.23490193
149	0x3cb6cab9	0.022313463
150	0xbddea0e4	-0.10870531
151	0x3e09a7e4	0.13442951
152	0xbe3fb425	-0.18721063
153	0xbbd6e20a	-0.0065577077
154	0xbe8a2fd8	-0.26989627
155	0xbe3c5f16	-0.18395647
156	0x3e971b0f	0.29512832
157	0x3e06925b	0.13141768
158	0x3de89dd0	0.11358225
159	0x3d073144	0.033005968
160	0x3e8c5f69	0.27416542
161	0xbdc20c78	-0.094750345
162	0x3eba5ae6	0.36397475
163	0xbe6d3231	-0.23163678
164	0xbd58a235	-0.052889068
165	0x3e267457	0.16255318
166	0xbedaad62	-0.42710406
167	0x3dceb389	0.10092837
168	0x3e6c626f	0.23084424
169	0xbefbabc9	-0.491545
170	0xbe3a3c58	-0.18187082
171	0x3ed0afaf	0.40759036
172	0x3eb11054	0.3458277
173	0x3e3d4e87	0.18486987
174	0xbdce9c76	-0.10088436
175	0x3d7f0a3d	0.062265623
176	0xbeff6fa4	-0.49889863
177	0xbe7ae1b8	-0.24500167
178	0xbe1ff7ec	-0.15621918
179	0x3e4192f6	0.18903717
180	0x3d8d9ce8	0.06914693
181	0xbddeafe8	-0.10873395
182	0xbe757f6e	-0.23974392
183	0x3e253792	0.1613448
184	0xbe31f9f9	-0.17380513
185	0xbe9e3400	-0.30899048
186	0xbdd73aac	-0.10509238
187	0xbd2017e8	-0.0390853
188	0x3e894ba4	0.26815522
189	0x3e18dcf4	0.14928037
190	0x3e2d0a8d	0.16898556
191	0x3f28c365	0.6592315
192	0x3e7a70ea	0.24457136
193	0x3e063d48	0.13109314
194	0x3e84cb63	0.25936422
195	0xbd922c69	-0.07137377
196	0xbde41e90	-0.11138642
197	0x3e96dfe1	0.2946768
198	0xbe331a52	-0.17490509
199	0x3e03f06a	0.1288468
200	0xbd5fdbda	-0.054653026
201	0x3c98c846	0.018650185
202	0x3e23b424	0.15986687
203	0x3e64396c	0.2228753
204	0x3c97322f	0.018456547
205	0xbe17df40	-0.14831257
206	0xbeba5c38	-0.36398482
207	0xbe2599ba	-0.16171923
208	0x3c1ec770	0.009691104
209	0xbe093c84	-0.13401991
210	0xbd2af690	-0.041739047
211	0xbe460c6f	-0.1934068
212	0xbc1f05fa	-0.009706015
213	0x3e1fedd1	0.15618064
214	0xbcbdf3b8	-0.023187503
215	0xbd15163b	-0.036398154
216	0xbd14120a	-0.036150016
217	0xbd74d9a8	-0.059777886
218	0xbd86105b	-0.06546088
219	0xbc269ab5	-0.010168721
220	0x3d4d5264	0.050127402
221	0xbdbd90e5	-0.09256152
222	0xbe257baa	-0.16160455
223	0xbe944208	-0.28956628
224	0x3e4cc03d	0.19995208
225	0x3e86d982	0.2633782
226	0x3e88bedf	0.26708123
227	0x3e654f9e	0.22393653
228	0xbbb20bf0	-0.005433552
229	0x3e39a0a7	0.1812769
230	0xbd47eb60	-0.048808455
231	0x3e930a56	0.28718823
232	0x3e0679bb	0.13132374
233	0x3e2adcc2	0.16685775
234	0xbe2722a3	-0.16321807
235	0xbe595847	-0.21225081
236	0xbd9e56d5	-0.07731406
237	0xbbaee37b	-0.0053371764
238	0xbf0bc11b	-0.5459153
239	0xbe327b48	-0.1742984
240	0x3e41bb34	0.18919069
241	0xbed2c605	-0.41166702
242	0x3e819617	0.25309822
243	0x3d6c5738	0.057700366
244	0x3deffc19	0.11718006
245	0xbd34aafa	-0.04410837
246	0xbdf18a0d	-0.11793909
247	0xbe225347	-0.1585208
248	0x3e8dd968	0.2770493
249	0xbe7ea14a	-0.24866214
250	0x3e2312c9	0.15925135
251	0x3dc53732	0.09629668
252	0x3ef6b01a	0.4818123
253	0x3d3ca308	0.046053916
254	0x3d55bcd0	0.05218202
255	0xbd58de55	-0.052946407

encoder_lstm.bias_ih_l0 f4 [128]
0	0x3dfc1d91	0.12310327
1	0x3e953a8e	0.29146236
2	0xbe15c154	-0.1462453
3	0xbd02b6d3	-0.031912636
4	0x3e27bb8d	0.16380139
5	0x3e3c1bd3	0.18369989
6	0xbda5d874	-0.08097926
7	0xbdcc25c8	-0.09968144
8	0x3bd18231	0.006393694
9	0xbe389562	-0.18025735
10	0x3d0b52d9	0.034014557
11	0xbbc4d0fe	-0.006006359
12	0xbc1592d2	-0.009129243
13	0x3f0ad215	0.5422681
14	0x3e423484	0.18965346
15	0xbafa86a6	-0.0019113615
16	0x3e2f3c8a	0.17112938
17	0x3dc97bda	0.09838076
18	0x3e8a7c92	0.27048165
19	0x3e75e9ca	0.24014965
20	0x3e476378	0.19471538
21	0x3cc8d754	0.024516739
22	0x3e78c550	0.24294019
23	0xbd3a40d4	-0.04547198
24	0x3db933f2	0.09043111
25	0xbd6ac160	-0.057313323
26	0x3e4230b7	0.18963896
27	0xbe533048	-0.20623887
28	0x3e802dd3	0.2503496
29	0x3e521119	0.20514335
30	0x3e1f0707	0.15530024
31	0xbd99c4f2	-0.075082675
32	0x3d9f6d66	0.07784538
33	0x3e0535ba	0.13008776
34	0xbe425d20	-0.18980837
35	0x3dab295e	0.083574995
36	0x3d7f8f7e	0.062392704
37	0xbd5f87a6	-0.054572724
38	0x3d5a65c9	0.053319726
39	0x3dbcbdce	0.0921589
40	0xbdecbf1b	-0.11559888
41	0x3dfc1912	0.12309469
42	0x3bb098d9	0.0053893146
43	0x3e5eedfa	0.21770468
44	0xbe0daaf3	-0.13834743
45	0x3de6f7de	0.11277746
46	0xbd999220	-0.07498574
47	0xbe1d399b	-0.15354006
48	0xbcc2538f	-0.023721484
49	0xbd76ddc5	-0.06027009
50	0xbd5cc166	-0.053895377
51	0x3c74d34c	0.014942955
52	0x3d6cec61	0.057842616
53	0x3e3620fe	0.17786023
54	0x3c6d2eaa	0.014476458
55	0x3d454cb5	0.048168857
56	0xbd9fe04a	-0.078064516
57	0x3e03aead	0.12859602
58	0xbe172d04	-0.14763266
59	0xbcf57ed5	-0.029967705
60	0xbdb96b30	-0.090536475
61	0x3d8aec72	0.067833796
62	0x3ca080e6	0.019592714
63	0x3de09926	0.10966711
64	0xbdaf4250	-0.0855757
65	0xbe0c4104	-0.13696676
66	0x3c7f1ed7	0.015571318
67	0x3ca170c4	0.019707091
68	0x3d3c8c2f	0.046032127
69	0xbe05253f	-0.1300249
70	0xbdf62ff4	-0.12020865
71	0x3ca31130	0.019905657
72	0x3b195a46	0.0023399754
73	0xbdeeba3e	-0.11656617
74	0xbd9d4d87	-0.07680803
75	0xbd1cf581	-0.03832007
76	0x3d79d562	0.060994513
77	0x3e259e47	0.1617366
78	0xbdf69101	-0.12039376
79	0xbdf8786a	-0.12132342
80	0x3cf9d447	0.03049673
81	0x3b8ccb91	0.004296728
82	0xbe180d58	-0.1484884
83	0xbd732fa9	-0.059371624
84	0xbd9db85b	-0.07701179
85	0xbdc7943c	-0.0974507
86	0x3e0faa2b	0.14029758
87	0xbd9aea64	-0.07564238
88	0xbc046449	-0.0080805505
89	0xbd83c067	-0.06433182
90	0x3d06d418	0.032917112
91	0x3d0bbeb0	0.0341174
92	0x3d801ee5	0.06255893
93	0xbcbfca78	-0.023411974
94	0x3e009f2a	0.12560716
95	0x3dafdf97	0.08587568
96	0x3d9fafdc	0.077972144
97	0x3ef641c7	0.4809706
98	0x3c9d6d36	0.019217115
99	0xbe0c2a87	-0.13688098
100	0x3da6528e	0.08121215
101	0x3df5b827	0.11998015
102	0x3c852bb5	0.016256193
103	0x3df9e56b	0.12201961
104	0x3e6efbf8	0.23338306
105	0xbe24ef98	-0.16107023
106	0x3dd7aa34	0.105305105
107	0x3dd7c6d8	0.10535973
108	0xbcf6ef83	-0.030143505
109	0x3ed33e4d	0.4125847
110	0xbd2e23c5	-0.04251458
111	0x3e0396b1	0.12850453
112	0xbd775873	-0.060387086
113	0x3c833bd5	0.016019741
114	0x3da8aaf3	0.08235731
115	0xbca31aba	-0.019910205
116	0x3e13b810	0.14425683
117	0x3c9d97b6	0.01923738
118	0xbd8634db	-0.0655305
119	0xbddf5dec	-0.10906586
120	0x3e9aa8dc	0.30206954
121	0x3e3719f8	0.17881
122	0x3e187e5c	0.14891952
123	0xbdcb69d9	-0.09932298
124	0xbc8a348f	-0.016870765
125	0xbc910fc8	-0.01770772
126	0x3dbb86c3	0.09156563
127	0x3d1b6b2a	0.037943996

encoder_lstm.bias_hh_l0 f4 [128]
0	0xbcbfbe19	-0.023406075
1	0x3ee00faa	0.4376195
2	0x3e1d302c	0.15350407
3	0x3ccf51d5	0.025307575
4	0x3e5957c6	0.21224889
5	0x3ef5cb59	0.48006704
6	0x3d09c0d2	0.033631153
7	0xbd87f71b	-0.066389285
8	0x3d940071	0.07226647
9	0xbd39c5dc	-0.04535471
10	0xbc644093	-0.013931411
11	0xbdfc1862	-0.12309338
12	0x3d8c523e	0.06851624
13	0x3ec71a92	0.3888746
14	0x3dde0dd6	0.10842483
15	0x3e10f0c8	0.14154351
16	0x3d23b20a	0.039964713
17	0x3e27b602	0.16378024
18	0x3da1e6e7	0.07905369
19	0x3c966dff	0.018362997
20	0x3d7b4838	0.06134817
21	0xbaec26c4	-0.0018016924
22	0x3e4648bc	0.19363683
23	0x3e2e52f8	0.17023838
24	0x3e205e20	0.15660906
25	0xbdb003ed	-0.08594499
26	0xbda246c7	-0.07923656
27	0xbd017728	-0.031607777
28	0x3e3262bd	0.17420478
29	0x3dd5ada2	0.104335085
30	0xbd8d5dd8	-0.06902665
31	0x3b8faac6	0.0043843715
32	0x3cc0a293	0.023515021
33	0xbdd9e8e9	-0.10640127
34	0x3d8a149d	0.06742213
35	0x3d6228bb	0.055214625
36	0x3da9aeb9	0.08285279
37	0x3dafca23	0.085834764
38	0x3d83e13d	0.06439445
39	0x3d11f381	0.035632614
40	0xbd942f94	-0.07235637
41	0x3d251e31	0.040311996
42	0x3d1583d6	0.03650268
43	0x3d9616b8	0.07328552
44	0xbdcf18b0	-0.10112131
45	0xbe203a4a	-0.15647236
46	0x3cd61ee5	0.026137779
47	0x3dae281a	0.085037425
48	0x3da83353	0.08212914
49	0xbe3434f1	-0.1759832
50	0x3ddec0ec	0.10876641
51	0xbe3f0ad5	-0.18656476
52	0xbdd63096	-0.10458486
53	0x3d02470a	0.03180603
54	0xbdb89ef9	-0.09014697
55	0x3ba772e2	0.0051101306
56	0x3c2719ee	0.010199053
57	0x3e0fab03	0.1403008
58	0x3d804463	0.06263044
59	0xbe00f045	-0.12591656
60	0x3d219b09	0.039454494
61	0xbdfa280e	-0.12214671
62	0xbd7baa5b	-0.06144176
63	0x3d629086	0.05531361
64	0xbde8dd08	-0.11370283
65	0x3d79114b	0.060807507
66	0x3d931376	0.07181446
67	0xbd5b98d6	-0.053612553
68	0x3da3f64b	0.08005961
69	0xbca26ca4	-0.019827195
70	0xbdc6146c	-0.09671864
71	0x3db326e4	0.08747652
72	0x3e446a32	0.19181135
73	0xbe042d6f	-0.12907957
74	0x3d2ed5d0	0.042684376
75	0x3e1ec953	0.15506487
76	0x3dbbe3cd	0.09174309
77	0xbe209130	-0.15680385
78	0x3dedf67c	0.11619279
79	0xbba0c70d	-0.004906541
80	0xbe143b0f	-0.14475654
81	0x3e142571	0.14467408
82	0x3e1042b8	0.14087951
83	0x3e20e5a2	0.15712598
84	0xbd498ee6	-0.049208544
85	0x3cfd7340	0.030938745
86	0xbe071b0d	-0.13193913
87	0x3cf06b42	0.02934802
88	0xbe196649	-0.14980425
89	0xbdf53c62	-0.11974408
90	0xbdbdb47c	-0.0926294
91	0x3b8b6a95	0.004254649
92	0xbc6f2ef7	-0.0145986
93	0x3e01c2f0	0.12672019
94	0x3d47093a	0.048592784
95	0xbde5737e	-0.11203669
96	0xbccff34a	-0.025384564
97	0x3e2e1f76	0.17004189
98	0x3db6469c	0.089001864
99	0xbe0df2a3	-0.1386209
100	0x3cdd3cf1	0.027006598
101	0xbc80172f	-0.015636055
102	0xbdbfde79	-0.09368605
103	0x3c0fa2eb	0.00876687
104	0x3ea7085d	0.32623568
105	0xbb3151a3	-0.0027056716
106	0xbdfe502c	-0.12417635
107	0x3de70f5c	0.112822264
108	0xbdd9963c	-0.10624358
109	0x3ed29e7d	0.41136542
110	0x3e0b7c93	0.1362174
111	0x3e003cf0	0.12523246
112	0xbcda903b	-0.026680103
113	0x3c1b510f	0.009479775
114	0x3e60f75a	0.21969357
115	0xbc6c80e9	-0.014435031
116	0x3dad7f98	0.08471602
117	0x3e24b2e4	0.16083866
118	0x3e4c52d2	0.19953468
119	0xbdafbdb5	-0.085811056
120	0x3e09ec3c	0.13469023
121	0x3e1b4bb2	0.15165594
122	0xbd0e7eee	-0.03478902
123	0xbda2bf8f	-0.07946693
124	0x3de014e5	0.10941485
125	0x3e2a123e	0.16608521
126	0xbd0c5c61	-0.034267787
127	0xbcdaa9a1	-0.026692213

dest_lstm_obs.weight_ih_l0 f4 [128, 2]
0	0x3ce17b8e	0.027524736
1	0xbdae6cae	-0.08516823
2	0xbd174743	-0.036933195
3	0xbc226eb1	-0.009914086
4	0xbcd5d79d	-0.026103789
5	0xbd44ed7c	-0.048078045
6	0xbc127855	-0.008939822
7	0x3c1d1d0c	0.009589445
8	0x3e2e8a62	0.17044976
9	0x3ba94d52	0.005166688
10	0xbdd5f3cc	-0.10446891
11	0x3d3eead5	0.046610672
12	0x3dcaaf48	0.098967135
13	0x3cfed928	0.031109408
14	0x3db1be26	0.08678846
15	0xbcdea8da	-0.027180124
16	0xbc115de7	-0.008872486
17	0xbd08e915	-0.03342541
18	0xbcbf79ce	-0.02337351
19	0x3cb51dd1	0.022108944
20	0xbe27b0ae	-0.16375992
21	0x3dbd8c9c	0.09255335
22	0xbdce0577	-0.10059636
23	0xbdf8a448	-0.12140709
24	0xbe026392	-0.12733296
25	0x3de1a3e0	0.11017585
26	0xbdc79948	-0.09746033
27	0xbdde7546	-0.10862212
28	0xbd755e18	-0.059904188
29	0xbe106f5f	-0.14104985
30	0x3d781772	0.060569234
31	0x3db6e7bb	0.08930918
32	0x3d4fdc9f	0.05074751
33	0xbca3c2a0	-0.019990265
34	0xbd1e10a6	-0.038590096
35	0x3d8bdf36	0.068296835
36	0x3c87bbb9	0.016569005
37	0x3d1387e1	0.036018256
38	0xbc0bef02	-0.008540871
39	0xbd56a4c5	-0.05240323
40	0x3d9efee1	0.07763458
41	0xbd29502e	-0.04133623
42	0xbd0ee383	-0.03488494
43	0x3b691c41	0.003556982
44	0xbdbaae68	-0.091152966
45	0x3dcbed41	0.09957362
46	0xbe0484b0	-0.12941241
47	0xbd258901	-0.04041386
48	0xbba6a910	-0.005086072
49	0x3c98d140	0.018654466
50	0xbdda7c20	-0.10668206
51	0x3dd5b585	0.10435013
52	0x3d1b5ba9	0.03792921
53	0xbd6707d6	-0.056403957
54	0xbe0c7c05	-0.13719185
55	0x3ddfa5de	0.109203085
56	0x3d6f3e86	0.058409236
57	0x3d236f19	0.039900873
58	0x3dc54b96	0.096335575
59	0xbc5f6d62	-0.013636919
60	0x3de289df	0.11061453
61	0xbdf166de	-0.117871985
62	0x3cbb7783	0.022884136
63	0x3d798aff	0.060923573
64	0xbdf8720e	-0.12131129
65	0xbcf6cbcc	-0.030126475
66	0x3d4b78bc	0.04967569
67	0xbd16b86f	-0.036796983
68	0xbdbeead9	-0.093221374
69	0xbd2a73f5	-0.04161449
70	0xbdf15974	-0.1178464
71	0xbd419397	-0.047259893
72	0xbde91a20	-0.11381936
73	0x3df3b36e	0.11899458
74	0xbcfeb646	-0.031092774
75	0xbde1faed	-0.110341884
76	0xbe0d2139	-0.13782205
77	0xbb0fd835	-0.0021948938
78	0xbc9d1bd1	-0.019178303
79	0x3c55d7b3	0.013051915
80	0xbaeb9964	-0.0017974791
81	0x3d046c8d	0.032330085
82	0x3db466a1	0.088086374
83	0xbd863b32	-0.06554259
84	0xbdd5b763	-0.10435369
85	0xbdbddb5c	-0.09270355
86	0xbdd55be4	-0.10417917
87	0x3e190559	0.14943446
88	0x3ce50e55	0.027960936
89	0x3c6ea9ee	0.014566882
90	0x3e1d8a23	0.15384726
91	0xbd354339	-0.04425356
92	0xbda30a3a	-0.07960935
93	0x3e13608e	0.14392301
94	0xbd84232a	-0.064520195
95	0x3c9aa544	0.018877633
96	0xbc84112c	-0.01612147
97	0xbe1eb059	-0.15496959
98	0xbc6728e8	-0.014108874
99	0xbe0b4472	-0.13600329
100	0xbd2da967	-0.042397883
101	0x3dbeab24	0.09309986
102	0xbd890fe8	-0.06692487
103	0x3d9fe836	0.078079626
104	0xbd7cf02a	-0.061752476
105	0x3d0e3d40	0.03472638
106	0x3d1e81fe	0.03869819
107	0x3d56dc81	0.052456383
108	0xbe2e97a0	-0.17050028
109	0xbe1eea46	-0.15519056
110	0x3d3b496a	0.04572431
111	0xbd93d7bc	-0.072188824
112	0xbdbfe620	-0.09370065
113	0x3cc49dea	0.02400108
114	0x3db0ab8f	0.08626472
115	0x3d27b37b	0.04094265
116	0xbd35a223	-0.04434408
117	0xbd34ca6f	-0.04413837
118	0xbe198d18	-0.14995229
119	0x3d1cd194	0.038285807
120	0xbd9d1b36	-0.07671206
121	0xbd349189	-0.044084106
122	0xbde5e40e	-0.112251386
123	0xbe1d7939	-0.15378274
124	0x3c677672	0.014127361
125	0xbdb1b835	-0.08677713
126	0xbd023d96	-0.031797014
127	0xbd83fc13	-0.06444564
128	0x3db0806f	0.08618247
129	0x3dae8cca	0.08522947
130	0x3d4fd3de	0.05073916
131	0x3d3883d7	0.045047607
132	0xbd8bfb0c	-0.06834993
133	0xbd130416	-0.03589257
134	0xbd306cf1	-0.043072645
135	0x3ddbfdd8	0.10741776
136	0xbdb43e96	-0.08801
137	0xbda03656	-0.07822864
138	0x3ddb7fbf	0.10717725
139	0x3d777480	0.060413837
140	0xbdd05bd4	-0.10173765
141	0xbdbd6c28	-0.09249145
142	0xbc014c44	-0.007891718
143	0x3cfcaa62	0.030842964
144	0x3d4c862d	0.049932647
145	0x3b67109e	0.0035257707
146	0x3e3825da	0.17983189
147	0xbdba9df5	-0.09112159
148	0x3d24f5be	0.04027342
149	0xbe1c6483	-0.15272717
150	0x3ceea330	0.029130548
151	0x3db14c5f	0.08657145
152	0x3bb34bcc	0.005471682
153	0xbcbb70a4	-0.02288086
154	0xbc1f5e08	-0.009727009
155	0xbdc35f64	-0.09539679
156	0xbd220177	-0.03955218
157	0x3bb18684	0.005417647
158	0x3d404a42	0.046945818
159	0x3b6f47f3	0.003651139
160	0x3e16d512	0.14729717
161	0xbd5d7365	-0.054065127
162	0xbdb8c92a	-0.09022744
163	0x3db8f096	0.09030263
164	0xbd420375	-0.047366578
165	0xbdf1153f	-0.117716305
166	0x3d062b2d	0.03275602
167	0x3da351b1	0.07974566
168	0x3d803028	0.06259185
169	0xbd8ffa4e	-0.07030164
170	0x3d196bd5	0.037456352
171	0x3c5aaa4d	0.013346267
172	0xbd9eed94	-0.07760158
173	0xbcf3c840	-0.029758573
174	0x3d9e3a47	0.07725959
175	0x3d851900	0.06498909
176	0xbd4710e0	-0.048600078
177	0x3d5999ad	0.053125072
178	0x3bdfbd40	0.0068279803
179	0x3cb20293	0.021729743
180	0x3dadb0c4	0.08480981
181	0x3d5a518a	0.053300418
182	0x3d980c31	0.074242
183	0x3d9889a5	0.074481286
184	0x3b7aa581	0.003824562
185	0x3b8d44be	0.004311173
186	0xbd96043c	-0.073250264
187	0x3d92f6db	0.0717599
188	0xbd4b6a1a	-0.049661733
189	0xbcf782ef	-0.030213801
190	0x3d6f2413	0.058384012
191	0x3dac5d61	0.08416248
192	0x3de8f4a3	0.11374786
193	0xbdb9ba21	-0.090687044
194	0x3dd5574c	0.10417041
195	0xbe072dc1	-0.13201047
196	0x3c53851d	0.012910155
197	0xbdca25a9	-0.09870464
198	0x3dc8a0aa	0.09796269
199	0xbd3c814b	-0.04602174
200	0x3e1615a8	0.14656699
201	0x3e015517	0.12630115
202	0x3ca31726	0.019908499
203	0xbe25a827	-0.16177426
204	0x3d9dcdce	0.0770527
205	0x3d6260c6	0.05526807
206	0xbe284418	-0.16432226
207	0xbdb64b19	-0.089010425
208	0xbe1f643e	-0.15565583
209	0x3d9ae5dc	0.075633734
210	0x3ddcbef9	0.10778613
211	0xbe1906e2	-0.14944032
212	0x3d4c7683	0.04991771
213	0x3dd26e24	0.10274914
214	0x389a0ea8	7.346022e-05
215	0xbe172be3	-0.14762835
216	0xbdcb8e9e	-0.099393114
217	0xbd38ea6e	-0.045145445
218	0xbe1212a6	-0.14264926
219	0x3d9f1c93	0.07769122
220	0xbd3cc8be	-0.04608988
221	0x3dddadb0	0.10824144
222	0xbe1419a4	-0.14462906
223	0xbdba3db5	-0.09093801
224	0xbbcaeaf0	-0.0061925575
225	0x3d8a429e	0.067509875
226	0xbdfbb0ab	-0.12289556
227	0x3d8292d4	0.063756615
228	0xbbbf4ef2	-0.0058382684
229	0xbcea801e	-0.028625544
230	0xbe1bef78	-0.15228069
231	0xbd0d97dc	-0.034568653
232	0x3e10e610	0.14150262
233	0xbde3dd3b	-0.11126181
234	0xbd300607	-0.042974498
235	0xbdc4fb82	-0.09618284
236	0x3ddf02a8	0.108891785
237	0xbd2cca94	-0.04218538
238	0xbd5a95b4	-0.053365424
239	0x3dfcc7f8	0.123428285
240	0xbd9b2189	-0.07574756
241	0x3dead99e	0.114672884
242	0xbd18f32a	-0.037341274
243	0xbd92210a	-0.07135208
244	0x3dbdd4be	0.09269093
245	0xbdec9880	-0.115525246
246	0xbd91d83c	-0.071213216
247	0xba3cfbbb	-0.00072091416
248	0xbe0e7cba	-0.13914767
249	0xbde7bcc5	-0.11315302
250	0xbe0b3546	-0.13594541
251	0x3c8519e3	0.016247695
252	0x3d11fd57	0.035641994
253	0xbc78aa23	-0.0151772825
254	0xbdbe168b	-0.092816435
255	0x3def73ed	0.11692033

dest_lstm_obs.weight_hh_l0 f4 [128, 32]
0	0xbd49c564	-0.049260512
1	0xbe33f1b5	-0.17572673
2	0x3e248787	0.16067325
3	0x3e07a071	0.13244797
4	0xbd571747	-0.052512433
5	0x3c7b92a0	0.015354782
6	0x3dfaa02e	0.12237583
7	0xbd2c3f9b	-0.042052846
8	0xbd860963	-0.06544759
9	0xbdb78c20	-0.089622736
10	0x3e24f48f	0.16108917
11	0xbd8a5e00	-0.0675621
12	0x3ccd23b2	0.025041435
13	0x3e0c3683	0.1369267
14	0xbd635173	-0.055497598
15	0xbe0c651e	-0.13710448
16	0xbdb4f3bb	-0.088355504
17	0xbe29932d	-0.1656005
18	0xbcb7bb91	-0.022428306
19	0x3d850c37	0.064964704
20	0xbe991d44	-0.2990514
21	0xbddc18e7	-0.10746937
22	0x3df12526	0.117746636
23	0xbcc55bf6	-0.024091702
24	0x3e0d3ded	0.13793154
25	0x3e121f5a	0.14269772
26	0xbe0bb905	-0.13644798
27	0xbd201a5d	-0.039087642
28	0x3e276dea	0.16350523
29	0x3dd69ee9	0.104795285
30	0x3da14f32	0.078764334
31	0x3e367514	0.178181
32	0x3d3e3de5	0.046445746
33	0xbe17fea8	-0.14843237
34	0x3d35f062	0.0444187
35	0xbde46a60	-0.11153102
36	0x3d6a416f	0.05719131
37	0xbe199d96	-0.1500152
38	0xbd9f7158	-0.077852905
39	0x3dcd7b98	0.10033339
40	0x3e1ad446	0.15120038
41	0x3d130dee	0.035901956
42	0x3cf7be55	0.030242125
43	0x3e074fd5	0.13214047
44	0xbb335e44	-0.002736942
45	0x3c913e7e	0.017729994
46	0x3e0f43fa	0.13990775
47	0xbe203638	-0.15645683
48	0x3db4a88c	0.0882121
49	0x3e341464	0.17585903
50	0xbcf038e8	-0.02932401
51	0xbd58d740	-0.052939653
52	0x3c94a7d2	0.01814643
53	0xbde3a128	-0.111147225
54	0xbd936f38	-0.07198948
55	0xbdec4363	-0.115362905
56	0x3dfeade0	0.12435508
57	0xbe0a6340	-0.13514423
58	0x3e1fb403	0.15596013
59	0x3dc87ae9	0.09789068
60	0xbcbef0d8	-0.023308203
61	0x3df9c3d2	0.12195553
62	0x3e11cf53	0.14239244
63	0x3e002fb4	0.12518197
64	0x3d9f1df1	0.07769383
65	0xbc56b086	-0.01310361
66	0x3e130e0c	0.14360827
67	0x3dab247b	0.083565675
68	0xbdc2ec52	-0.09517731
69	0x3d3120df	0.04324424
70	0xbd418224	-0.047243252
71	0x3db641b2	0.08899249
72	0x3c93c481	0.018038036
73	0x3d849eae	0.06475578
74	0x3e5993e8	0.21247828
75	0x3d8836d0	0.0665108
76	0x3e58eb64	0.21183544
77	0x3e1afe75	0.1513613
78	0x3e23e0d4	0.16003734
79	0xbc93ccbc	-0.01804196
80	0xbe047cec	-0.12938279
81	0x3d89911e	0.06717132
82	0x3d9ca201	0.07648087
83	0x3da4bffa	0.08044429
84	0x3e2e48dc	0.17019981
85	0xbe58edc2	-0.21184447
86	0xbddb1211	-0.10696805
87	0xbe3e87c1	-0.18606474
88	0xbe1fcb44	-0.15604883
89	0xbc76d9ca	-0.015066573
90	0x3e05909b	0.13043444
91	0x3ca42623	0.020037716
92	0xbdf6816d	-0.12036405
93	0xbda30ff2	-0.07962026
94	0x3e1a84f8	0.15089786
95	0x3dcd542b	0.100258194
96	0x3dfcb2e0	0.12338805
97	0x3d9873db	0.07443973
98	0xbe42a4b0	-0.19008136
99	0xbd11dfc2	-0.035613783
100	0x3e789628	0.2427603
101	0x3e234213	0.15943174
102	0xbdc4d334	-0.09610596
103	0x3dbb5572	0.09147157
104	0xbdac1bb0	-0.084037185
105	0xbca1c8d6	-0.019749086
106	0x3c4fc4c3	0.012681189
107	0x3d05bf22	0.03265298
108	0xbc9ce84e	-0.01915374
109	0x3d893b4e	0.067007646
110	0x3dd29350	0.10282004
111	0xbdf65952	-0.12028755
112	0xbdf05316	-0.117345974
113	0x3dc982f8	0.098394334
114	0xbc752e05	-0.014964585
115	0xbc6aaa13	-0.014322775
116	0xbd48e874	-0.04904981
117	0x3e029f2f	0.12756036
118	0x3c903336	0.017602544
119	0xbe18c1a2	-0.14917615
120	0xbc5f5be6	-0.01363275
121	0xbd6add17	-0.057339754
122	0xbe03fa04	-0.12888342
123	0x3e038668	0.1284424
124	0xba4cb218	-0.00078085205
125	0x3db90622	0.09034373
126	0x3e103c0e	0.14085409
127	0xbe497a27	-0.19675504
128	0xbdcc0eb9	-0.099637456
129	0x3e31a5e7	0.17348443
130	0x3d9738e6	0.073838994
131	0xbe4886f5	-0.19582732
132	0xbe22a104	-0.15881735
133	0x3dffee57	0.124966316
134	0xbdc22581	-0.094798096
135	0x3d1d3743	0.03838278
136	0x3e167448	0.14692795
137	0xbc813260	-0.015771091
138	0xbdb8499c	-0.08998415
139	0x3de8b21d	0.113620974
140	0xbdb52ad3	-0.08846059
141	0xbe26d6e6	-0.16292915
142	0xbe5cf31b	-0.21577112
143	0x3e205791	0.15658404
144	0xbda09aec	-0.07842049
145	0x3d8ace25	0.067776
146	0xbe080ebe	-0.13286874
147	0xbd47e0b6	-0.048798285
148	0x3e145462	0.14485314
149	0xbc0636c6	-0.00819177
150	0xbe50840f	-0.20362876
151	0x3d8dd5b5	0.06925527
152	0x3d863d32	0.06554641
153	0x3c922a2a	0.017842371
154	0xbd505505	-0.05086233
155	0x3e10b4a5	0.1413141
156	0xbdf9a8a3	-0.12190368
157	0xbd693b4c	-0.056941316
158	0xbddecdfc	-0.10879132
159	0xbd9721de	-0.073795065
160	0xbc47dd87	-0.012198812
161	0xbe28f886	-0.16501054
162	0xbe4c8bf4	-0.19975263
163	0xbd54381a	-0.051811315
164	0x3cafefe3	0.021476692
165	0xbe183241	-0.1486292
166	0xbde0ee4a	-0.1098295
167	0x3d59597f	0.053063866
168	0xbdac004d	-0.08398495
169	0xbdb3d1bc	-0.08780238
170	0x3dae142f	0.084999435
171	0xbd6acd78	-0.057324857
172	0xbdb0c27a	-0.086308435
173	0x3c1d70f4	0.00960945
174	0xbb6c069d	-0.0036014684
175	0xbd7c63cc	-0.06161861
176	0xbdb7d759	-0.08976621
177	0xbcbc827f	-0.023011444
178	0x3e29fa2f	0.16599344
179	0x3e1c1ab0	0.15244555
180	0x3d6b5800	0.05745697
181	0x3bdfcb52	0.0068296576
182	0xbdd38b0f	-0.10329258
183	0x3e2b724a	0.16742817
184	0xbe55b15c	-0.20868438
185	0x3d06a923	0.032876145
186	0xbe194650	-0.14968228
187	0x3db765dc	0.08954975
188	0xbd22196c	-0.039575025
189	0x3e242728	0.16030562
190	0xbd576214	-0.05258377
191	0xbdf9d832	-0.12199439
192	0x3d0fb1a1	0.03508151
193	0x3d6ea9f1	0.058267538
194	0xbe16da54	-0.14731723
195	0xbe22e368	-0.15907061
196	0x3d6f7472	0.05846066
197	0x3db0bb8a	0.0862952
198	0x3ded9dab	0.116023384
199	0x3e08d99a	0.13364258
200	0x3dfa8f8c	0.12234411
201	0xbdf4d4ea	-0.11954673
202	0x3d24bb00	0.0402174
203	0xbd38f3fe	-0.045154564
204	0xbe151600	-0.14559174
205	0xbe4088b6	-0.18802151
206	0xbe1ef160	-0.15521765
207	0xbca39896	-0.01997022
208	0xbe32860c	-0.17433947
209	0xbdab2612	-0.08356871
210	0x3c82ebf1	0.015981646
211	0xbdbbdd24	-0.091730386
212	0x3e3e09f8	0.1855849
213	0xbe310f70	-0.17291045
214	0x3e384d24	0.17998177
215	0x3db71d52	0.08941139
216	0xbd4cbb4a	-0.0499833
217	0xbb7a4f9b	-0.0038194421
218	0xbe2931ec	-0.1652295
219	0x3dc691c9	0.09695775
220	0x3e15305b	0.14569227
221	0xbe3bb4eb	-0.18330733
222	0x3ddfd600	0.10929489
223	0x3d807c40	0.06273699
224	0xbcb0d0b2	-0.021583889
225	0xbe18c672	-0.14919451
226	0xbe45374c	-0.19259375
227	0xbca736d0	-0.020411879
228	0x3ab088dc	0.0013468522
229	0xbe105742	-0.14095786
230	0x3d6aa55e	0.057286613
231	0x3dc68986	0.09694199
232	0x3dc27f50	0.09496939
233	0xbce782d5	-0.028260628
234	0xbd516a50	-0.051126778
235	0x3da4eca4	0.08052948
236	0x3d3cf970	0.04613632
237	0xbe45f87e	-0.19333073
238	0xbc697f0d	-0.014251483
239	0x3e15b6a0	0.14620447
240	0xbdf5de2c	-0.120052665
241	0x3cf76278	0.03019832
242	0xbc3b57a4	-0.011434469
243	0xbd875a97	-0.066090755
244	0xbe06e324	-0.13172585
245	0xbcd312b6	-0.025765758
246	0x3dcefb54	0.10106531
247	0xbd431a7b	-0.047632676
248	0xbc916774	-0.017749526
249	0x3bc91bae	0.006137333
250	0x3de5f502	0.11228372
251	0x3dc6b5f6	0.09702675
252	0xbd6951d7	-0.056962814
253	0xbca3a54d	-0.019976282
254	0x3c4e2a60	0.012583345
255	0x3d55aff8	0.05216977

dest_lstm_obs.bias_ih_l0 f4 [128]
0	0x3e308403	0.17237858
1	0xbdc51384	-0.09622863
2	0xbd64edeb	-0.05589096
3	0xbd43b570	-0.047780454
4	0x3da119e0	0.078662634
5	0xbd28dea0	-0.041227937
6	0xbdf8f997	-0.121569805
7	0xbd79fecc	-0.06103401
8	0xbdf74740	-0.12074137
9	0x3d9964ba	0.07489915
10	0x3d1de0b0	0.038544357
11	0xbd237ba5	-0.03991284
12	0xbdab1198	-0.08352965
13	0xbde32534	-0.1109108
14	0xbc820c5d	-0.015875036
15	0xbd240cc7	-0.040051248
16	0xbe6240db	-0.22095053
17	0xbe3db867	-0.18527375
18	0x3e1afc63	0.1513534
19	0x3d47baa3	0.048761975
20	0x3dbbe407	0.09174352
21	0xbc1d14f4	-0.009587515
22	0x3e0dea61	0.1385894
23	0xba8703b3	-0.0010300785
24	0xbd9d0b3e	-0.0766816
25	0xbdad785d	-0.08470223
26	0xbdf015c0	-0.117228985
27	0xbe0a90b8	-0.13531768
28	0x3e4c18c0	0.19931316
29	0x3d4ab28f	0.049486693
30	0xbaf4c97e	-0.0018675772
31	0xbdb336c8	-0.08750683
32	0x3d409ee4	0.04702653
33	0x3c8a726c	0.016900264
34	0xbda519da	-0.080615714
35	0xbe2f26fb	-0.17104714
36	0x3e42b87a	0.19015685
37	0x3d8c6448	0.06855065
38	0xbcf317da	-0.02967446
39	0xbe1b70f0	-0.15179801
40	0x3d97d920	0.0741446
41	0x3e115a88	0.14194691
42	0xbe700ba0	-0.23441935
43	0xbd2a4176	-0.041566335
44	0x3e12835b	0.1430792
45	0xbc9994d9	-0.018747734
46	0xbda8e615	-0.0824701
47	0xbd3e3ba7	-0.046443608
48	0xbe6d18ca	-0.23153988
49	0xbe144486	-0.14479265
50	0xbe0a6e7f	-0.13518713
51	0x3d74db76	0.059779607
52	0xbe2e6c36	-0.17033467
53	0x3d916cd1	0.07100833
54	0x3de86175	0.113467135
55	0xbd0edf6a	-0.034881033
56	0xbd82aa15	-0.06380097
57	0xbad27e95	-0.0016059453
58	0x3beb36c9	0.0071781618
59	0x3dfba7c5	0.12287859
60	0x3e63d33e	0.22248551
61	0x3d801524	0.06254032
62	0x3dac5f7a	0.08416648
63	0xbddd3d30	-0.10802686
64	0x3e0275e2	0.12740281
65	0x3dca145f	0.09867167
66	0x3dd5c25f	0.10437464
67	0xbe082819	-0.13296546
68	0xbdd6fd13	-0.10497489
69	0x3e0c894a	0.13724247
70	0xbdf14e9b	-0.11782571
71	0xbd0780c0	-0.03308177
72	0x3da2639f	0.079291575
73	0x3e6aac54	0.229173
74	0x3bb1fcec	0.005431762
75	0xbd9e5f70	-0.07733047
76	0xbe246960	-0.16055822
77	0xbc167787	-0.009183771
78	0xbdbe914b	-0.09305056
79	0x3e44e579	0.19228162
80	0x3cdf7b72	0.027280543
81	0xbc14eb46	-0.009089297
82	0xbe651a90	-0.22373414
83	0xbe27f9c6	-0.16403875
84	0x3dc92f54	0.0982348
85	0xbcc21ea8	-0.023696259
86	0x3d5cb228	0.05388084
87	0xbd4ec920	-0.050484776
88	0xbd207c8d	-0.03918128
89	0xbdd2a584	-0.10285476
90	0xbe00610e	-0.12537023
91	0x3d03d489	0.03218511
92	0xbe83b3d6	-0.2572314
93	0xbe29de3e	-0.16588685
94	0xbe1c89f9	-0.15287007
95	0x3e1a0e71	0.15044571
96	0xbe007435	-0.1254433
97	0xbcb2c9cf	-0.021824745
98	0x3de58b36	0.11208193
99	0xbc054675	-0.008134474
100	0xbd20fb38	-0.03930208
101	0x3df233f4	0.118263155
102	0x3d64d1e4	0.05586423
103	0x3e01e2c0	0.12684155
104	0xbabb2658	-0.0014278395
105	0xbe16030a	-0.14649597
106	0xbd4a7f79	-0.049437974
107	0xbd41ddfe	-0.04733085
108	0x3db656a5	0.08903245
109	0xbc6c4be2	-0.014422389
110	0xbd4d613a	-0.05014155
111	0xbdf209b4	-0.11818257
112	0x3dc0e647	0.09418922
113	0xbd91b970	-0.071154475
114	0xbe2c1383	-0.16804318
115	0xbe16b23c	-0.14716429
116	0xbe579965	-0.21054609
117	0x3e09408b	0.13403527
118	0xbd8543df	-0.06507086
119	0xbe2728dc	-0.1632418
120	0xbc167b66	-0.009184694
121	0xbc1faaa6	-0.009745276
122	0x3e0ce934	0.13760835
123	0xbe2fee56	-0.17180762
124	0x3d85cfc8	0.06533772
125	0x3c2580b3	0.010101485
126	0xbe038ddf	-0.12847088
127	0xbde83bb1	-0.1133951

dest_lstm_obs.bias_hh_l0 f4 [128]
0	0x3dad9bf6	0.08477013
1	0xbdbe64ee	-0.092965946
2	0xbe3449ec	-0.17606324
3	0xbe1e61fe	-0.15467069
4	0x3c763610	0.015027538
5	0xbd5ed0cf	-0.054398354
6	0xbaaa3238	-0.0012984937
7	0x3cc9e160	0.0246436
8	0xbc9a5c22	-0.01884276
9	0x3d8e8a60	0.06959987
10	0x3d6ea0b4	0.058258727
11	0xbe00e432	-0.1258705
12	0xbe0de130	-0.13855433
13	0xbe281d5c	-0.1641745
14	0x3dae782d	0.085190155
15	0xbe043d62	-0.1291404
16	0xbe0c62d3	-0.13709573
17	0x3de25efc	0.11053273
18	0x3c9c4c20	0.019079268
19	0x3dd83687	0.10557275
20	0xbe27a864	-0.1637283
21	0xbe61e310	-0.22059274
22	0xbdf8cf44	-0.12148908
23	0x3dab5b90	0.083670735
24	0xbddf579b	-0.10905381
25	0x3d63ec2f	0.055645164
26	0xbdee5f47	-0.116392665
27	0x3c62a6c4	0.013833705
28	0xbc17c68e	-0.009263648
29	0x3d52bdc8	0.05145052
30	0x3ddea27b	0.108708344
31	0xbdc88610	-0.097911954
32	0xbc09f32a	-0.008419791
33	0xbe12700b	-0.14300554
34	0xbd999293	-0.0749866
35	0xbe043ea5	-0.12914522
36	0x3d69d59e	0.057088487
37	0xbd8f8cea	-0.07009299
38	0x3d92d255	0.07169024
39	0xbdf21369	-0.118201084
40	0xbe89d697	-0.26921532
41	0xbe2c19e8	-0.16806757
42	0xbe523786	-0.20528993
43	0x3d1fdfb6	0.039031707
44	0xbd16ab75	-0.036784608
45	0xbe45d035	-0.19317706
46	0x3d1d5cd8	0.03841862
47	0x3c58487e	0.013200877
48	0x3d086a32	0.0333044
49	0xbe37b6a4	-0.17940766
50	0xbdbe597d	-0.09294412
51	0xbd3bf714	-0.04588993
52	0xbe690b58	-0.22758234
53	0x3bc7c3ca	0.006096338
54	0xbe285726	-0.16439494
55	0xbcdcdfc4	-0.026962169
56	0x3e39dc1c	0.18150371
57	0x3dba2336	0.09088747
58	0x3cb3e96a	0.021961886
59	0xbdeb5065	-0.114899434
60	0xbd0e0c8b	-0.03467993
61	0xbe17e800	-0.14834595
62	0xbe2caf04	-0.16863638
63	0xbe24ad7d	-0.16081806
64	0x3de47620	0.11155343
65	0x3e26c5a6	0.16286334
66	0x3cdb74a6	0.02678902
67	0xbd69a32c	-0.05704038
68	0xbec6a559	-0.38798025
69	0x3d903aff	0.070425026
70	0x3da7f2fa	0.08200641
71	0x3db2d9f3	0.08732977
72	0x3c53fca8	0.012938656
73	0xbd5f27d5	-0.054481346
74	0xbd95b268	-0.07309419
75	0x3c84ba6f	0.01620218
76	0x3cc33ec7	0.023833646
77	0xbe2109d0	-0.157264
78	0xbd9cc4e2	-0.0765474
79	0x3e414a12	0.18875912
80	0x3e180679	0.14846219
81	0xbd3ba5ca	-0.045812406
82	0xbde33514	-0.11094108
83	0xbe2cd6de	-0.1687884
84	0xbd843d46	-0.064569995
85	0x3df543bf	0.11975812
86	0xbd286d7e	-0.041120045
87	0x3e45d621	0.19319965
88	0x3e5bf595	0.21480401
89	0x3d7d2679	0.06180427
90	0x3dcdbd26	0.10045843
91	0x3e19be1e	0.1501393
92	0xbdbe2c6e	-0.09285818
93	0xbd3a3714	-0.045462683
94	0x3e01a2c0	0.1265974
95	0x3e08fb37	0.13377081
96	0xbd3ac6e1	-0.045599822
97	0xbdb59d7e	-0.0886793
98	0xbdf37854	-0.11888185
99	0xbe0ac4e2	-0.13551667
100	0x3d4b9564	0.049703017
101	0xbe266510	-0.1624949
102	0xbd00b138	-0.03141901
103	0x3dd4f37a	0.10398002
104	0xbbf0d09a	-0.007349086
105	0x3decb723	0.11558368
106	0xbe2e468d	-0.170191
107	0xbcde74ec	-0.027155362
108	0x3d6d1fc2	0.057891615
109	0x3da33a74	0.079701334
110	0xbe426192	-0.18982533
111	0xbd13b82a	-0.036064304
112	0x3da13a78	0.0787248
113	0xbdf16342	-0.1178651
114	0x3ca3913c	0.019966714
115	0x3dd43759	0.10362119
116	0x3cca9266	0.024728011
117	0xbe48c665	-0.19606932
118	0xbe3ecd63	-0.18633036
119	0xbe4b5f80	-0.19860649
120	0xbe053640	-0.13008976
121	0xbd445eb0	-0.047941864
122	0x3db1a997	0.08674925
123	0xbde913bc	-0.11380717
124	0x3d3b6998	0.045755
125	0x3e0274b3	0.1273983
126	0xbca1286a	-0.019672591
127	0x3ddf28bc	0.10896441
